Machine-Learning-DRL/results/ppo/Seeker/Seeker-1136540.onnx (onnx, 610983 bytes, 11 tensors)

discrete_act_size_vector f4 [1, 2]
0.0 1.0
00000000: 0000 0000 0000 803f

network_body._body_endoder.seq_layers.0.weight f4 [128, 8]
0.117540605 -0.32317147 -0.5395437 -0.8238766 -0.45451707 -0.12515616 0.17469704 0.68060225
-0.0906814 0.21807523 -0.34580377 0.23683044 -1.1726427 0.15370204 -0.67738724 -0.037340872
0.102588 -0.054682776 0.71808577 -0.30507827 -0.2498661 0.44634685 -0.042492103 0.2528675
0.6202334 0.10456084 0.025271175 -0.31860548 0.68115425 0.27362797 -0.054141883 -0.0038845942
-0.84867567 0.42846918 -0.45852658 -0.35575595 -0.17353337 -0.23983797 0.20031212 -0.7965991
0.40508106 0.52138615 -0.17092957 0.43947697 0.3075037 -0.1162274 -0.16831093 0.05909796
0.11346004 -0.39257172 -0.023925086 -0.12904507 -0.4755881 0.70240843 -0.15460892 0.0030149354
0.037346985 0.19040766 -0.04273194 -0.22530892 -0.188891 0.71788514 -0.2508522 -0.42304537
-0.2986921 -0.4197079 -0.12113058 -0.06781024 -0.036097463 -0.15971634 0.7583301 0.5496634
0.2801104 0.28902718 0.5982476 0.66028833 0.05216877 0.22352308 0.21251285 0.069169894
-0.3499269 -0.091219954 -0.19611952 0.159959 0.30721498 -0.48755682 0.0008153723 -0.15561397
0.004694295 0.40560392 0.085384436 0.14944166 0.052061483 0.15115912 -0.1710943 -0.23068756
-0.6973063 0.018173877 0.03845345 0.062297504 0.8270652 0.5164358 0.35736758 0.18039091
-0.056010492 -0.08321396 0.025902778 0.6327812 -0.007735647 0.19734873 -0.46325818 -0.7660238
0.08296188 0.4320994 0.014841065 -0.37958536 -0.019057333 -0.03369331 -0.37336847 -0.26763487
-0.3920658 0.25733688 0.04043781 -0.35702163 -0.029994667 -0.026361354 -0.2645313 0.825151
-0.13318358 0.26134485 0.06500264 0.24362387 -0.18258569 0.2820984 0.22705701 -0.4743416
-0.23020464 -0.10936171 -0.47472945 -0.24525525 0.077217095 -0.4660375 0.11185279 0.58822715
0.046164613 0.20441003 0.03800125 0.42541358 -0.44313064 -0.09160994 -0.68003225 -0.15238357
0.29789767 -0.2618977 -0.17082565 -0.16700302 0.8399598 -0.5179161 0.027193416 0.20782419
-0.060801428 -0.3063328 0.9179822 -0.54577184 0.24406895 0.27677864 -0.24635069 -0.42642486
0.07830929 0.048871543 -0.013977963 0.24301669 0.46559352 -0.33091348 -0.30448103 -0.611291
-0.21951541 0.25012237 0.36826777 0.19048183 -0.024737861 -0.1391046 0.28334862 0.40343234
-0.1588528 0.23948795 -0.29435405 -0.15991867 -0.21561094 -0.19751145 -0.22091334 0.08774675
-0.3036434 -1.1125888 0.12720849 0.12540765 0.2588115 0.33586553 0.05820748 -0.027744284
0.121220194 0.39754117 -0.086827934 -0.35144222 0.24227504 -0.19709077 -0.1178322 -0.28826156
-0.2159835 0.22680612 -0.5027696 -0.45966065 -0.19523309 -0.3735198 0.46250817 0.07985514
0.2162048 -0.46401194 -0.30440173 -0.65178937 -0.14281456 -0.4185853 0.2360018 -0.060429085
-0.19430627 0.05450756 -0.19126439 -0.19228847 -0.23136738 0.2399973 0.0763737 -0.6357439
0.46201217 0.13688871 -0.18256594 -0.3856872 0.18438913 -0.24129774 0.1832006 -0.6475547
-0.05808122 -0.4686581 0.3268134 -0.7075665 -0.2740605 0.3175221 0.642936 -0.21354118
0.19415824 0.2695909 -0.34208205 -0.17247914 2.9674206e-05 0.15864277 -0.31009698 0.29512197
00000000: 21b9 f03d bb76 a5be 891f 0abf 94e9 52bf
00000010: 76b6 e8be f028 00be c8e3 323e f33b 2e3f
00000020: 2bb7 b9bd 1d4f 5f3e 310d b1be ae83 723e
00000030: 2819 96bf 1164 1d3e 4069 2dbf bef2 18bd
00000040: a819 d23d 0cfb 5fbd 78d4 373f 3833 9cbe
00000050: e6dc 7fbe 9387 e43e 330c 2ebd d977 813e
00000060: 9ec7 1e3f fe23 d63d 7f05 cf3c 4220 a3be
00000070: 2060 2e3f f718 8c3e e1c3 5dbd ad94 7ebb
00000080: cf42 59bf 5060 db3e ffc3 eabe a525 b6be
00000090: bbb2 31be 1698 75be 9f1e 4d3e ebed 4bbf
000000a0: c966 cf3e 9079 053f 2908 2fbe 2003 e13e
000000b0: 2071 9d3e a208 eebd b359 2cbe b410 723d
000000c0: bd5d e83d 29ff c8be 8bfe c3bc 6424 04be
000000d0: 4980 f3be 0ad1 333f cd51 1ebe 3996 453b
000000e0: 27f9 183d 3afa 423e b007 2fbd 62b7 66be
000000f0: a46c 41be 52c7 373f b36f 80be 6799 d8be
00000100: 2cee 98be f4e3 d6be 4f13 f8bd 18e0 8abd
00000110: efda 13bd ae8c 23be ec21 423f beb6 0c3f
00000120: a16a 8f3e 5ffb 933e c126 193f a808 293f
00000130: ecae 553d 3ce3 643e f89c 593e f2a8 8d3d
00000140: 9e29 b3be 87d1 babd 8ed3 48be 4bcc 233e
00000150: 484b 9d3e 0ca1 f9be b5be 553a 4559 1fbe
00000160: 9ad2 993b 51ab cf3e 09de ae3d 3c07 193e
00000170: 6c3e 553d 75c9 1a3e 5833 2fbe 5c39 6cbe
00000180: aa82 32bf 62e1 943c 5d81 1d3d ab2b 7f3d
00000190: 8cba 533f 2335 043f e2f8 b63e 65b8 383e
000001a0: 426b 65bd 156c aabd 1032 d43c f3fd 213f
000001b0: 4f7b fdbb c915 4a3e 2d30 edbe 231a 44bf
000001c0: ebe7 a93d 223c dd3e f027 733c 0359 c2be
000001d0: 201e 9cbc ff01 0abd 272a bfbe 7007 89be
000001e0: d9bc c8be a9c1 833e 1ea2 253d 8acb b6be
000001f0: 60b7 f5bc c4f3 d7bc a670 87be 193d 533f
00000200: 4761 08be fece 853e 1b20 853d 8978 793e
00000210: bef7 3abe 346f 903e a281 683e e7dc f2be
00000220: c4ba 6bbe 08f9 dfbd bd0f f3be 3124 7bbe
00000230: ff23 9e3d 789c eebe 1313 e53d 0e96 163f
00000240: 1b17 3d3d dd50 513e 33a7 1b3d cfcf d93e
00000250: 05e2 e2be fe9d bbbd 9816 2ebf 700a 1cbe
00000260: 0b86 983e 7517 86be ebec 2ebe d702 2bbe
00000270: 9b07 573f 2696 04bf bac4 de3c ddcf 543e
00000280: eb0a 79bd a7d7 9cbe e200 6b3f b4b7 0bbf
00000290: 36ed 793e eeb5 8d3e 5b43 7cbe 5c54 dabe
000002a0: 9f60 a03d 872d 483d d303 65bc 5ed9 783e
000002b0: 4662 ee3e 7e6d a9be f0e4 9bbe 917d 1cbf
000002c0: a6c8 60be 0a10 803e 988d bc3e ab0d 433e
000002d0: 0ea7 cabc 7071 0ebe 1213 913e af8e ce3e
000002e0: 4faa 22be 543c 753e 93b5 96be b8c1 23be
000002f0: 1dc9 5cbe 7140 4abe 1b37 62be 91b4 b33d
00000300: 2677 9bbe 4f69 8ebf f142 023e dd6a 003e
00000310: f182 843e 91f6 ab3e f76a 6e3d fb47 e3bc
00000320: 4b42 f83d 848a cb3e d8d2 b1bd 3cf0 b3be
00000330: f316 783e 2ad2 49be 0252 f1bd 0597 93be
00000340: c72a 5dbe dd3f 683e 82b5 00bf a458 ebbe
00000350: 2feb 47be fd3d bfbe dfcd ec3e 178b a33d
00000360: cb64 5d3e f992 edbe 8bda 9bbe abdb 26bf
00000370: fb3d 12be d050 d6be 75aa 713e 7d84 77bd
00000380: 39f8 46be 5243 5f3d d0da 43be 45e7 44be
00000390: 92eb 6cbe dac1 753e d069 9c3d 1dc0 22bf
000003a0: dc8c ec3e 8e2c 0c3e 91f2 3abe cb78 c5be
000003b0: 81d0 3c3e c116 77be f098 3b3e 25c6 25bf
000003c0: 93e6 6dbd f4f3 efbe 1654 a73e 1423 35bf
000003d0: a851 8cbe 4292 a23e 7497 243f 8aaa 5abe
000003e0: 6bd1 463e d207 8a3e 6125 afbe 5f9e 30be
000003f0: dfec f837 4073 223e 08c5 9ebe 3a1a 973e

network_body._body_endoder.seq_layers.0.bias f4 [128]
0.0042949556 0.00077149685 -0.022363786 0.026087372 -0.005277188 -0.03303736 -0.04513254 0.0114696
-0.018494619 0.02094929 -0.012067151 -0.053817585 -0.00802964 0.0434618 -0.0080017075 0.009537675
-0.025883587 -0.013031967 -0.024067713 0.026162947 -0.014724557 -0.029380368 -0.015404873 -0.011062535
0.015865318 0.02750843 0.017887823 -0.01596331 0.010475605 0.015675256 0.02243625 0.04080055
0.015549243 -0.017552702 -0.014025888 -0.006600152 -0.012623837 -0.014872279 -0.0025629941 -0.02440144
0.025938936 -0.015816556 0.0020132107 0.0050466945 -0.0031093515 -0.0006518238 0.05569367 0.042215105
-0.003983992 -0.012372986 -0.013647641 0.05311593 0.018239392 -0.021232627 0.044570614 -0.0015207046
-0.0037561543 0.022708785 0.05035917 0.019221555 -0.009966171 0.018481568 -0.0022642903 -0.007694882
-0.007685192 -0.007434902 0.04572766 -0.011164568 0.0007555526 0.021895051 -0.015877081 -0.02893796
0.03757045 0.0039019668 -0.0044122264 0.05972014 -0.021457752 0.002414206 0.016021084 -0.021004586
-0.004706406 -0.023643801 -0.0015313961 0.036173604 -0.010324768 -0.025402406 0.006025665 0.009932579
0.019745152 -0.020817695 -0.0005923493 -0.01693117 -0.022235146 -0.0020586853 -0.019225534 0.08196048
-0.031652004 0.018972328 0.020541355 -0.010882138 -0.05269215 0.002200757 -0.018106889 0.013892666
-0.007969568 -0.021889312 -0.012781359 0.043092184 -0.004588184 -0.052793555 -0.01017377 0.02600023
0.013257275 0.059370335 0.015377816 0.017918643 0.025974698 0.03212671 -0.011544063 0.00043284803
-0.019669529 -0.01979546 0.008015122 -0.006611639 0.013801346 -0.0034126472 -0.01328452 0.0023183513
00000000: b3bc 8c3b 473e 4a3a 4234 b7bc 2fb5 d53c
00000010: 43ec acbb 2f52 07bd e6dc 38bd fdea 3b3c
00000020: 0782 97bc d89d ab3c 4db5 45bc d46f 5cbd
00000030: c08e 03bc 0005 323d 9819 03bc e943 1c3c
00000040: d109 d4bc 0884 55bc a729 c5bc ad53 d63c
00000050: 453f 71bc 19af f0bc b864 7cbc a33f 35bc
00000060: fcf7 813c 5c59 e13c 7c89 923c 7dc5 82bc
00000070: dfa1 2b3c 6569 803c 3acc b73c 7a1e 273d
00000080: 41c2 7e3c afca 8fbc d7cc 65bc 1646 d8bb
00000090: 36d4 4ebc dcaa 73bc e8f7 27bb 87e5 c7bc
000000a0: e47d d43c b991 81bc 12f0 033b be5e a53b
000000b0: 43c6 4bbb 28df 2aba 0c1f 643d bfe9 2c3d
000000c0: 268c 82bb 11b8 4abc 5b9a 5fbc 1790 593d
000000d0: c76a 953c 0cf0 adbc ad8f 363d 6152 c7ba
000000e0: d029 76bb c607 ba3c 6b45 4e3d 8676 9d3c
000000f0: 2749 23bc a866 973c 7d64 14bb 5925 fcbb
00000100: 10d4 fbbb 7aa0 f3bb ed4c 3b3d 98eb 36bc
00000110: 4710 463a 405d b33c a710 82bc 4d0f edbc
00000120: 79e3 193d 24b8 7f3b 7094 90bb 1b9d 743d
00000130: 2bc8 afbc a837 1e3b a63e 833c cf11 acbc
00000140: 3238 9abb a5b0 c1bc 20b9 c8ba c62a 143d
00000150: 3729 29bc b518 d0bc f172 c53b 41bc 223c
00000160: 96c0 a13c df89 aabc e347 1bba 3db3 8abc
00000170: 7b26 b6bc 02eb 06bb de7e 9dbc e5da a73d
00000180: 88a5 01bd db6b 9b3c 5846 a83c ff4a 32bc
00000190: b9d3 57bd 933a 103b e654 94bc 119e 633c
000001a0: ca92 02bc 3751 b3bc e868 51bc 6e81 303d
000001b0: 7a58 96bb 0e3e 58bd e2af 26bc 6ffe d43c
000001c0: 0b35 593c 4f2e 733d 3cf3 7b3c 1eca 923c
000001d0: e4c8 d43c 4c97 033d 4f23 3dbc e1ef e239
000001e0: fe21 a1bc 172a a2bc dc51 033c 73a6 d8bb
000001f0: 0a1f 623c b8a6 5fbb 51a7 59bc 7bef 173b

network_body._body_endoder.seq_layers.2.weight f4 [128, 128]
-0.06888114 -0.0016311787 -0.03416623 -0.07827193 -0.046143252 -0.111863874 0.1781042 0.10820207
-0.05172813 0.10875734 -0.09289953 0.039738666 0.061288953 0.07748382 -0.087445825 -0.010948894
0.05993605 0.04190545 0.05504735 0.0074545722 -0.010899563 0.014299469 0.04341752 0.012979525
0.03910126 -0.03685461 -0.016354362 -0.039809126 -0.020235527 -0.18074575 0.0075692595 -0.24423383
-0.0036971893 -0.029865874 -0.11275094 0.050315846 0.031223409 -0.03873186 0.07153467 0.057195198
-0.04717382 -0.19010617 0.112370685 -0.011017627 0.0035776158 -0.10259546 0.040945888 0.05483729
-0.00077778014 -0.06642991 -0.039128963 -0.094413705 0.02662769 -0.028263671 -0.05011526 -0.051825326
0.050236568 0.038234226 -0.1343898 0.115098625 0.08134684 -0.13135338 -0.14403072 -0.0776312
-0.044208623 -0.24306415 0.07772117 -0.091712244 0.032959953 -0.036353346 -0.08229576 0.17898606
0.021105291 -0.12363705 -0.118542336 -0.22162823 0.06022179 0.12366152 -0.114593245 0.10180823
-0.07239059 -0.01646359 -0.06282884 -0.0064126155 -0.15242143 -0.18107852 -0.022638898 0.0038836512
0.05390322 -0.054770004 0.047623143 0.14179467 -0.059381146 0.1719539 -0.20721373 -0.0325972
0.105907135 -0.08966588 -0.17058489 0.025746768 0.1272067 0.023482034 -0.06274084 0.03426179
0.12524676 0.05064758 0.0648404 -0.03551294 0.14918423 0.051582463 -0.05260877 0.009808683
-0.0025681048 0.092325464 -0.065627255 0.028071187 0.049031246 -0.036545295 -0.033052575 0.05176005
0.021031827 -0.11703559 0.013914335 -0.0021056167 0.18601716 0.04582867 -0.04472215 -0.044710904
-0.10613442 0.047093797 0.042429004 -0.062671594 0.1443081 0.080248915 -0.12665838 0.11860088
-0.003657077 0.02521283 0.055226248 0.088383034 -0.23245095 0.020809714 0.03944597 -0.0087572755
0.063155815 0.10272023 0.015879331 -0.06984496 -0.20131902 -0.009200121 0.09129831 0.060095422
-0.08225978 0.083282605 -0.10976091 0.03343299 0.013434221 -0.030314576 0.12186894 -0.0828775
0.015002259 0.1547574 -0.15260284 0.025972227 -0.012529234 0.17132853 -0.030587457 -0.018444799
0.07585208 0.034764938 0.12747738 0.008101039 0.07169279 -0.002203611 0.092258066 0.080164626
-0.06588033 0.14921683 0.17993522 -0.06812901 -0.16902098 -0.0041835643 -0.015218186 -0.022895193
-0.07536741 -0.05733503 0.15524493 -0.075050704 0.0184275 -0.06303399 0.026007473 0.11334292
-0.015410668 -0.034871798 -0.018828936 -0.06592558 -0.028752394 0.07273218 0.015819507 0.14965992
0.13030626 0.02211225 -0.009773913 -0.1313107 0.024882196 0.113083415 0.11412352 0.085012145
-0.067661755 0.1790175 -0.006215857 -0.01646738 0.11782059 0.09102817 0.14257337 -0.10176568
0.16358797 -0.054173212 0.06630458 0.12351559 0.11408121 0.109031335 -0.085831136 0.023119109
-0.069443345 0.030544015 -0.03702609 0.19390407 -0.020232052 -0.08269274 0.06741249 -0.15017845
-0.07031037 -0.030826101 0.095801964 0.059644464 0.019082492 -0.029631816 0.00015046145 -0.03722333
0.010474139 -0.11031011 0.16695726 -0.057087827 -0.11723614 0.14107345 -0.06029146 -0.09471389
0.08171727 -0.011071967 -0.0018582718 0.08033023 0.009379615 0.12539609 -0.114398204 0.114167355
00000000: 8e11 8dbd 46cd d5ba e4f1 0bbd 094d a0bd
00000010: b500 3dbd e318 e5bd f360 363e 0c99 dd3d
00000020: e0e0 53bd 2bbc de3d 1c42 bebd 03c5 223d
00000030: 200a 7b3d d6af 9e3d cc16 b3bd fd62 33bc
00000040: 817f 753d 0da5 2b3d 5479 613d 7c45 f43b
00000050: 1594 32bc 5248 6a3c 92d6 313d 13a8 543c
00000060: a528 203d dcf4 16bd 95f9 85bc e50e 23bd
00000070: fac4 a5bc 6a15 39be 8d07 f83b 6f18 7abe
00000080: 8b4c 72bb 47a9 f4bc f7e9 e6bd fd17 4e3d
00000090: 3cc8 ff3c 4da5 1ebd c580 923d 8345 6a3d
000000a0: 5639 41bd 31ab 42be 9a22 e63d 4783 34bc
000000b0: 6f76 6a3b 921d d2bd e0b6 273d 119d 603d
000000c0: f1e3 4bba 680c 88bd b145 20bd f95b c1bd
000000d0: 5022 da3c 3789 e7bc a945 4dbd cb46 54bd
000000e0: dcc4 4d3d 7e9b 1c3d 7b9d 09be d4b8 eb3d
000000f0: 2c99 a63d 8081 06be ca7c 13be 1bfd 9ebd
00000100: 1a14 35bd cfe5 78be 472c 9f3d a1d3 bbbd
00000110: 0401 073d 3fe7 14bd ae8a a8bd 1f48 373e
00000120: 01e5 ac3c 6c35 fdbd 53c6 f2bd 83f2 62be
00000130: 20ab 763d 4042 fd3d ddaf eabd d580 d03d
00000140: 8541 94bd a7de 86bc 68ac 80bd eb20 d2bb
00000150: 5d14 1cbe a66c 39be 3675 b9bc db84 7e3b
00000160: 9fc9 5c3d 8356 60bd 7c10 433d 9f32 113e
00000170: a539 73bd af14 303e d62f 54be a484 05bd
00000180: d7e5 d83d bfa2 b7bd cead 2ebe e3ea d23c
00000190: 7942 023e 655d c03c 457e 80bd 1756 0c3d
000001a0: b040 003e d673 4f3d 0bcb 843d 0476 11bd
000001b0: c0c3 183e 2248 533d 4b7c 57bd 99b4 203c
000001c0: a64d 28bb 2215 bd3d 9567 86bd 8cf5 e53c
000001d0: fdd4 483d 85b0 15bd 2362 07bd 5902 543d
000001e0: f04a ac3c 5bb0 efbd f3f8 633c 63fe 09bb
000001f0: 487b 3e3e d8b6 3b3d 932e 37bd c822 37bd
00000200: 015d d9bd 6de5 403d 09ca 2d3d f759 80bd
00000210: 81c5 133e 8b59 a43d bcb2 01be 05e5 f23d
00000220: 92ab 6fbb 238b ce3c eb34 623d 2a02 b53d
00000230: 9f07 6ebe 2279 aa3c 1992 213d ad7a 0fbc
00000240: d657 813d fc5e d23d 5f15 823c e00a 8fbd
00000250: 9326 4ebe 1bbc 16bc 9cfa ba3d 9e26 763d
00000260: d177 a8bd 1290 aa3d 54ca e0bd 08f1 083d
00000270: 351b 5c3c 4656 f8bc 6c96 f93d aebb a9bd
00000280: 09cc 753c b978 1e3e eb43 1cbe b5c3 d43c
00000290: 6b47 4dbc bf70 2f3e 8c92 fabc 8c19 97bc
000002a0: 5658 9b3d ae65 0e3d 6e89 023e 38ba 043c
000002b0: abd3 923d 756a 10bb ccf1 bc3d 5a2d a43d
000002c0: 44ec 86bd 4ccc 183e f040 383e 3987 8bbd
000002d0: d613 2dbe 4816 89bb b355 79bc b38e bbbc
000002e0: 3b5a 9abd 23d8 6abd 87f8 1e3e 2fb4 99bd
000002f0: 45f5 963c f717 81bd a00d d53c 5520 e83d
00000300: 077d 7cbc bbd5 0ebd 243f 9abc fe03 87bd
00000310: 248a ebbc 9cf4 943d e997 813c 7340 193e
00000320: 016f 053e c024 b53c c322 20bc 5076 06be
00000330: bfd5 cb3c 4798 e73d 98b9 e93d d91a ae3d
00000340: 3f92 8abd 5d50 373e 63ae cbbb 99e6 86bc
00000350: ec4b f13d fa6c ba3d c1fe 113e 866a d0bd
00000360: 9b83 273e bbe4 5dbd b2ca 873d bef5 fc3d
00000370: 69a3 e93d d24b df3d 3cc8 afbd 4964 bd3c
00000380: 5038 8ebd 7137 fa3c aba8 17bd ca8e 463e
00000390: b0bd a5bc d05a a9bd 8f0f 8a3d 61c8 19be
000003a0: e2fe 8fbd 0587 fcbc d233 c43d c14d 743d
000003b0: e352 9c3c 6cbe f2bc 30c5 1d39 7e77 18bd
000003c0: b99b 2b3c 44ea e1bd d8f6 2a3e edd4 69bd
000003d0: 8019 f0bd 8f75 103e 2ef4 76bd 5bf9 c1bd
000003e0: 625b a73d 3267 35bc 4191 f3ba 2d84 a43d
000003f0: f5ac 193c d567 003e 9b49 eabd 93d0 e93d

network_body._body_endoder.seq_layers.2.bias f4 [128]
-0.005762712 -0.0057465043 -0.012397095 0.024105376 -0.01675088 0.014386881 0.03205118 0.039392818
0.048478995 -0.0054736407 -0.004391141 -0.01646201 0.023212047 0.010601102 -0.002471407 0.009211728
-0.02243525 -0.010622485 0.0014612279 -0.010350896 -0.004397908 0.020012777 0.0040872297 -0.012870728
-0.01786202 0.014263894 -0.014596871 -0.014282746 -0.0019538715 0.03314227 -0.011271261 0.016459435
0.0015190045 0.0075481744 -0.018595092 0.004770235 0.00056596287 0.013040878 -0.005890539 -0.01058327
-0.006511347 0.016975904 -0.0027476377 0.03869206 0.0011535591 -0.012702654 0.03886852 0.046185855
-0.009957168 -0.0020347952 -0.004875491 -0.004286357 -0.007991986 -0.013314329 0.044643465 0.030366609
0.001649801 0.003710917 0.0073144035 -0.005917121 -0.009086748 0.0070576333 0.03409654 0.0010572161
-0.012826517 0.0037514975 -0.009951469 0.0039790524 -0.005572609 0.0027638262 -0.016483745 0.0144685395
0.003187103 0.0020755334 0.0048899506 0.024496222 0.03192324 0.005317963 -0.005755794 -0.013464716
-0.010606558 0.0051794234 0.019479606 -0.00084922696 0.008136356 -0.0028150885 0.0099598635 0.0009943413
0.010205248 -0.013612256 0.028443739 -0.0010617606 -0.013914404 0.032182686 -0.01248049 0.03790151
0.012136195 -0.010710948 -0.0068450347 -0.009745619 0.018856388 0.033939544 0.029375676 -0.0052722227
0.0018232173 -0.013372279 -0.01435222 0.016613828 0.02925249 0.016952673 0.0183585 -0.0037832435
-0.009265892 0.005259958 0.035894003 0.04091548 0.036681414 -0.015880229 0.002268393 0.014463092
0.01623543 0.025000503 -0.00093680626 0.018765954 -0.010681264 -0.01088264 0.019318694 -0.020054182
00000000: 22d5 bcbb 2c4d bcbb 2f1d 4bbc a378 c53c
00000010: 2439 89bc f4b6 6b3c 1948 033d 5d5a 213d
00000020: e991 463d 3a5c b3bb 8fe3 8fbb 56db 86bc
00000030: 3127 be3c 3fb0 2d3c 54f7 21bb caec 163c
00000040: 21ca b7bc ee09 2ebc ac86 bf3a ce96 29bc
00000050: 541c 90bb d6f1 a33c 2bee 853b bfdf 52bc
00000060: 5f53 92bc 1cb3 693c b727 6fbc 2e02 6abc
00000070: 860c 00bb 30c0 073d 18ab 38bc f0d5 863c
00000080: 5519 c73a ad56 f73b bc54 98bc a24f 9c3b
00000090: 205d 143a 68a9 553c 6c05 c1bb 7465 2dbc
000000a0: 235d d5bb 0d11 8b3c b611 34bb 917b 1e3d
000000b0: 0533 973a cb1e 50bc 9934 1f3d 612d 3d3d
000000c0: 6423 23bc 335a 05bb 95c2 9fbb 9274 8cbb
000000d0: d2f0 02bc 5824 5abc 11dc 363d 65c3 f83c
000000e0: 233e d83a db32 733b aaad ef3b 69e4 c1bb
000000f0: 95e0 14bc b843 e73b d0a8 0b3d 4992 8a3a
00000100: 5026 52bc afdb 753b 7c0b 23bc b662 823b
00000110: 6f9a b6bb 4f21 353b eb08 87bc 740d 6d3c
00000120: b7de 503b ac05 083b e13b a03b 4dac c83c
00000130: f1c1 023d 4f42 ae3b 199b bcbb 1d9b 5cbc
00000140: 21c7 2dbc 27b8 a93b b293 9f3c a89e 5eba
00000150: 5a4e 053c 597d 38bb b22e 233c 8f54 823a
00000160: ea33 273c f105 5fbc d802 e93c c62a 8bba
00000170: 3ef9 63bc fed1 033d f87a 4cbc 9d3e 1b3d
00000180: e4d6 463c f97c 2fbc 504c e0bb 17ac 1fbc
00000190: b678 9a3c 3104 0b3d 42a5 f03c 9cc2 acbb
000001a0: 05f9 ee3a 6717 5bbc 9325 6bbc b919 883c
000001b0: eba2 ef3c 55e0 8a3c 9164 963c 4bf0 77bb
000001c0: f8cf 17bc ba5b ac3b 9705 133d fe96 273d
000001d0: 403f 163d 4117 82bc 52a9 143b 9bf6 6c3c
000001e0: 2a00 853c dbcd cc3c 0194 75ba 0fbb 993c
000001f0: 7800 2fbc 1a4d 32bc 3d42 9e3c ab48 a4bc

action_model._discrete_distribution.branches.0.weight f4 [4, 128]
0.08786258 -0.02061602 -0.04643212 0.038020823 -0.026494386 0.034751363 0.03253036 -0.045945153
0.010799982 0.04476622 0.05187772 -0.038321603 -0.021205353 -0.014767203 0.03582002 -0.04709207
-0.025165182 0.020198796 0.032089055 -0.04270992 0.033521805 -0.04142804 0.048046436 0.049378183
-0.033437368 0.023812203 -0.042162046 0.021497445 -0.039629024 -0.019606927 0.034970738 0.044577032
-0.027289223 -0.01814291 0.056180846 0.0348053 -0.02140401 -0.03407899 0.032683827 -0.05260719
0.04280772 -0.048009824 -0.045573123 -0.016470164 0.033067394 0.002576798 -0.054549757 0.021866608
0.03341562 0.027482204 -0.030819373 -0.031086849 0.044239122 -0.026892131 0.051256776 0.03294753
0.031000627 -0.030280033 -0.033918705 0.025311768 0.05268919 0.033149883 -0.013872478 0.039720297
-0.023246557 -0.056296553 0.024650712 0.022818388 0.028069077 -0.039579123 0.033283226 0.031926066
0.03418392 0.027412593 0.03805174 -0.056466166 -0.027533635 -0.001129937 0.014214163 0.04450858
0.035444546 0.023179304 0.028982306 0.027169922 -0.040673546 0.033583745 -0.06071406 -0.027457118
-0.031695884 -0.039897062 -0.014207155 0.041339457 -0.02104803 -0.044793047 0.008573935 0.01759011
-0.013829529 0.022048904 -0.021604137 0.04398146 -0.014640909 -0.038059913 -0.025955712 0.03246995
-0.047914613 0.03261978 0.04376834 0.0073968996 0.029134082 0.029503817 -0.025317218 -0.06269314
0.033723027 -0.08653687 -0.03226049 0.0744236 -0.031542525 0.014618907 0.031476475 0.002337975
-0.00088144647 0.026087157 0.046434075 0.036340002 -0.027539717 -0.016702052 0.031003162 -0.02138195
-0.17097908 0.06434178 0.086231545 -0.053316295 0.047441315 -0.05877066 -0.062602684 0.0659162
-0.052940335 -0.05818384 -0.101793535 0.058166426 0.05266838 0.030552162 -0.07439358 0.054747697
0.060156107 -0.05481779 -0.06137586 0.0736643 -0.08860153 0.06068195 -0.06853101 -0.059814967
0.06074721 -0.061779205 0.080919094 -0.06753564 0.06601136 0.07087526 -0.07851432 -0.049047474
0.059465945 0.03497245 -0.06534258 -0.04147799 0.04407956 0.062237702 -0.052660502 0.062168196
-0.07051703 0.058327474 0.06522145 0.0480636 -0.05703176 -0.049988948 0.0842004 -0.06641295
-0.025681369 -0.04972995 0.06623675 0.07037735 -0.0832544 0.06297575 -0.051499054 -0.052967217
-0.06875947 0.06624138 0.06361255 -0.056976017 -0.08651562 -0.0608538 0.064681694 -0.06675243
0.046205938 0.10075742 -0.06333382 -0.04082467 -0.06855389 0.06427765 -0.060649157 -0.06093268
-0.0404355 -0.037641052 -0.07151476 0.06298462 0.06497332 0.007589476 -0.05819648 -0.04736943
-0.076572135 -0.02556744 -0.05383277 -0.061098475 0.051008847 -0.049490847 0.06126746 0.03941695
0.06380777 0.06148152 0.048333555 -0.08004059 0.057412688 0.065020494 -0.027781157 -0.011580331
0.06340626 -0.05323551 0.044317678 -0.054140702 0.0471114 0.0541368 0.05863858 -0.036382023
0.069219686 -0.079714015 -0.040590044 -0.002232019 -0.07847232 -0.057854727 0.07202398 0.06879136
-0.051828627 0.14467224 0.068083756 -0.115500845 0.05926727 -0.06959038 -0.07464415 0.002829977
0.027179383 -0.049966417 -0.10396357 -0.051371183 0.074332364 0.026251888 -0.04356638 0.047038544
00000000: 4cf1 b33d ede2 a8bc 9b2f 3ebd b9bb 1b3d
00000010: c10a d9bc 7257 0e3d 8e3e 053d fc30 3cbd
00000020: 68f2 303c c95c 373d bb7d 543d 1df7 1cbd
00000030: d9b6 adbc 23f2 71bc 03b8 123d 9de3 40bd
00000040: 3627 cebc f277 a53c d06f 033d 99f0 2ebd
00000050: 294e 093d 73b0 29bd 57cc 443d c740 4a3d
00000060: 9ff5 08bd cf11 c33c 1cb2 2cbd 691b b03c
00000070: 0b52 22bd b59e a0bc 7a3d 0f3d 6896 363d
00000080: a68d dfbc 71a0 94bc e31d 663d 0190 0e3d
00000090: 7657 afbc 6996 0bbd 7adf 053d a37a 57bd
000000a0: 2657 2f3d f3a5 44bd e2aa 3abd 70ec 86bc
000000b0: ad71 073d 7fdf 283b 916f 5fbd 9a21 b33c
000000c0: d1de 083d 5c22 e13c e978 fcbc d9a9 febc
000000d0: 1534 353d e34c dcbc a0f2 513d fdf3 063d
000000e0: 07f5 fd3c d50d f8bc 57ee 0abd a05a cf3c
000000f0: 9fd0 573d 2cc8 073d 6449 63bc c0b1 223d
00000100: 906f bebc 3797 66bd 4af0 c93c a1ed ba3c
00000110: 1ff1 e53c b81d 22bd fe53 083d e8c4 023d
00000120: 7004 0c3d 6090 e03c 24dc 1b3d 1149 67bd
00000130: 388e e1bc 651a 94ba 85e2 683c a14e 363d
00000140: 4d2e 113d 86e2 bd3c 4d6c ed3c 7593 de3c
00000150: 4e99 26bd 1c8f 093d 4eaf 78bd c0ed e0bc
00000160: 8bd3 01bd 1a6b 23bd 21c5 68bc 9053 293d
00000170: eb6c acbc ea78 37bd b179 0c3c 2219 903c
00000180: 4095 62bc e79f b43c 29fb b0bc e725 343d
00000190: 6ce0 6fbc b6e4 1bbd 13a1 d4bc 36ff 043d
000001a0: 1d42 44bd 529c 053d 6e46 333d b161 f23b
000001b0: 99aa ee3c fdb1 f13c 0e66 cfbc 4365 80bd
000001c0: 2821 0a3d 3e3a b1bd 9323 04bd 676b 983d
000001d0: bc32 01bd 2484 6f3c 7aed 003d b638 193b
000001e0: df10 67ba bcb4 d53c a831 3e3d 41d9 143d
000001f0: f99a e1bc bed2 88bc 58fa fd3c 3329 afbc
00000200: 2415 2fbe a0c5 833d 2a9a b03d 3062 5abd
00000210: d351 423d 81b9 70bd d635 80bd 13ff 863d
00000220: f7d7 58bd 2e52 6ebd 2179 d0bd eb3f 6e3d
00000230: cdba 573d 8748 fa3c a95b 98bd 1f3f 603d
00000240: 4066 763d 9e88 60bd 4165 7bbd 4fdd 963d
00000250: b874 b5bd a38d 783d fc59 8cbd 8a00 75bd
00000260: 11d2 783d 310c 7dbd e9b8 a53d 2050 8abd
00000270: f730 873d 0c27 913d 1ecc a0bd 01e6 48bd
00000280: 9092 733d 463f 0f3d 55d2 85bd d3e4 29bd
00000290: c58c 343d f6ec 7e3d 8ab2 57bd 14a4 7e3d
000002a0: 3c6b 90bd cae8 6e3d d392 853d 56de 443d
000002b0: 239a 69bd 36c1 4cbd 4271 ac3d 8303 88bd
000002c0: bc61 d2bc a2b1 4bbd 22a7 873d 0022 903d
000002d0: 4881 aabd 6ef9 803d acf0 52bd 27f4 58bd
000002e0: c4d1 8cbd 90a9 873d 4c47 823d af5f 69bd
000002f0: 1a2f b1bd d641 79bd d677 843d 7fb5 88bd
00000300: 7042 3d3d e859 ce3d 29b5 81bd c537 27bd
00000310: fb65 8cbd 00a4 833d 406b 78bd 8c94 79bd
00000320: b29f 25bd 812d 1abd 5576 92bd 15fe 803d
00000330: bb10 853d 24b1 f83b 6f5f 6ebd 7306 42bd
00000340: dad1 9cbd cf72 d1bc c07f 5cbd 6542 7abd
00000350: a7ee 503d eab6 4abd 97f3 7a3d ab73 213d
00000360: a6ad 823d 0cd4 7b3d 68f9 453d 52ec a3bd
00000370: 9129 6b3d 7729 853d 4f95 e3bc 6ebb 3dbc
00000380: 24db 813d 7a0d 5abd 7486 353d a4c2 5dbd
00000390: e2f7 403d 8dbe 5d3d 022f 703d 5105 15bd
000003a0: 0dc3 8d3d 1a41 a3bd bf41 26bd 1147 12bb
000003b0: 19b6 a0bd 14f9 6cbd 4f81 933d 7ce2 8c3d
000003c0: 414a 54bd f624 143e 7f6f 8b3d b58b ecbd
000003d0: 3dc2 723d 6785 8ebd 08df 98bd 2377 393b
000003e0: 4ca7 de3c 96a9 4cbd daea d4bd 976a 52bd
000003f0: 913b 983d 330e d73c a972 32bd 7dab 403d

action_model._discrete_distribution.branches.0.bias f4 [4]
-0.027207203 0.04984451 -0.031137552 -0.0228738
00000000: a4e1 debc c229 4c3d 2e14 ffbc d661 bbbc

action_model._discrete_distribution.branches.1.weight f4 [1, 128]
-0.00042962088 0.0031959347 0.0028046852 0.0147591 0.0020606972 0.0005770769 -0.0071956473 0.015999315
-0.0062449714 0.0013292985 -0.027120773 -0.0049398737 -0.005519738 -0.006137316 -0.0024425273 -0.00485021
-0.00085517036 -0.003408871 0.00016849807 0.010349974 -0.0011594936 0.012457245 -0.010983695 -0.0007534632
-0.020686258 -0.011514435 0.012780422 0.020339949 -0.009701575 0.0001723668 0.005516327 0.0018753315
0.005398782 0.017527997 -0.0073282975 0.0028575077 -0.00027817194 0.009360001 -0.004621894 0.00075735006
-0.0059511815 0.02004395 0.002688619 0.020367598 -0.006271373 0.01633677 -0.004645934 0.0040766285
-0.0095764445 -0.0068444535 0.0058325175 -0.002750336 -0.0028202354 -0.0017233071 -0.01367082 0.013412828
-0.00014896212 -0.0071461084 0.017208429 0.009635291 0.006563749 -0.0059792413 0.0035461877 0.0005687908
0.021603981 -0.0042948755 0.0048168725 0.0017452877 -0.006969601 -0.0068645454 -0.00633272 0.004721444
-0.019277615 0.018014599 0.0023358997 -0.0050427276 -0.0021451311 -0.013094797 0.001677838 -0.0102921035
0.010689925 0.00927997 -0.019108353 0.004010748 -0.00018012332 -0.016754594 -0.008322149 -0.0029469365
-0.012688314 0.0043837586 0.005992367 0.0057140584 -0.00480264 -0.00010035916 -0.005287274 0.019801576
0.0020340018 0.00979189 0.004629416 -0.010161406 -0.014344402 0.007973138 -0.010663819 -0.006976729
0.013347231 0.015722664 -0.00481028 -0.0016980515 0.0034087093 -0.016827991 0.0061605605 -0.0007716869
-0.004761293 0.006484931 -0.012031641 0.0076109865 0.022268927 0.0034604047 -6.278163e-05 -0.0031256676
0.007848111 0.01042528 0.0056123612 0.005840158 0.014766588 0.011815789 0.0046192394 -0.0022489903
00000000: bd3e e1b9 e372 513b cfce 373b 27d0 713c
00000010: c30c 073b fa46 173a 77c9 ebbb ff10 833c
00000020: 9ea2 ccbb db3b ae3a 622c debc aade a1bb
00000030: ebde b4bb 8a1b c9bb cf12 20bb 83ee 9ebb
00000040: 832d 60ba 5d67 5fbb dbae 3039 f092 293c
00000050: 26fa 97ba 7919 4c3c f5f4 33bc 0f84 45ba
00000060: 3a76 a9bc 0aa7 3cbc fa64 513c f79f a63c
00000070: 5bf3 1ebc 5cbd 3439 4ec2 b43b afcd f53a
00000080: 44e8 b03b e096 8f3c 3722 f0bb 0645 3b3b
00000090: 9bd7 91b9 b15a 193c 4273 97bb e788 463a
000000a0: 2102 c3bb 3633 a43c 8b33 303b f3d9 a63c
000000b0: 1780 cdbb b1d4 853c eb3c 98bb 3d95 853b
000000c0: 85e6 1cbc 7047 e0bb b41e bf3b fb3e 34bb
000000d0: b3d3 38bb 97e0 e1ba 93fb 5fbc 7ac1 5b3c
000000e0: b732 1cb9 e729 eabb b1f8 8c3c 57dd 1d3c
000000f0: b814 d73b 83ed c3bb 2867 683b e81a 153a
00000100: d5fa b03c 07bc 8cbb dbd6 9d3b 23c2 e43a
00000110: 4061 e4bb fbef e0bb b582 cfbb 58b6 9a3b
00000120: 17ec 9dbc 5a93 933c e515 193b 773d a5bb
00000130: 5495 0cbb 8f8b 56bc e7ea db3a 36a0 28bc
00000140: cc24 2f3c 040b 183c 1f89 9cbc 986c 833b
00000150: 7cdf 3cb9 ee40 89bc 9f59 08bc 6421 41bb
00000160: a5e2 4fbc a2a5 8f3b 9e5b c43b ff3c bb3b
00000170: 775f 9dbb ea77 d2b8 de40 adbb ea36 a23c
00000180: e34c 053b 2a6e 203c 5bb2 973b 077c 26bc
00000190: c804 6bbc c4a1 023c 4cb7 2ebc 0b9d e4bb
000001a0: 58ae 5a3c d1cc 803c 8e9f 9dbb 2791 deba
000001b0: a764 5f3b dbda 89bc 87de c93b 084b 4aba
000001c0: 9f04 9cbb 8b7f d43b 5c20 45bc 9565 f93b
000001d0: 536d b63c f5c7 623b a2a9 83b8 00d8 4cbb
000001e0: 5d95 003c cbce 2a3c e6e7 b73b cc5e bf3b
000001f0: 8fef 713c 0397 413c fd5c 973b cc63 13bb

onnx::LSTM_114 f4 [1, 512, 128]
0.063684575 0.020301022 0.14502172 0.06861091 0.06299057 -0.1419716 -0.03241851 0.01841779
-0.0506754 0.16418085 -0.013019937 0.059304044 -0.12143259 0.033861116 -0.071861856 -0.114814825
-0.12323842 -0.06893263 0.093121804 0.13466752 0.03499449 0.015412021 0.11489947 0.04831543
-0.0069501195 0.0666935 0.030525671 0.048106153 0.11096828 0.1810368 -0.16566746 0.018936818
0.067449845 0.13836928 -0.069339894 0.10106967 -0.08881614 0.0740571 -0.17419949 -0.0066772513
-0.09882346 -0.0109863775 -0.12124479 0.009717511 0.0007641059 0.14000653 0.098145954 0.118835956
0.13632543 0.080196016 -0.049555767 -0.09198836 -0.017882137 -0.035793934 -0.08239741 0.09914104
0.1618485 0.020620197 0.12559147 -0.052420903 0.15097563 0.09270557 0.09298835 0.10726128
0.069126286 -0.083116665 -0.08215854 -0.13447112 0.1333735 0.06361633 0.087778814 0.02817131
0.023644462 -0.082131095 -0.05851051 0.14793803 0.0849055 -0.015712801 0.03186564 -0.06511627
-0.15292172 0.15547314 0.013041882 0.06350608 0.007579287 0.15586044 0.17758907 -0.03711713
-0.12114162 -0.05496159 0.0033449722 0.06125135 -0.074700736 0.01072685 -0.0349614 0.01672411
0.03483567 0.063113645 0.07959882 0.008836326 0.019892855 -0.07063259 0.11711473 0.053544614
0.036512006 -0.055342134 0.017568307 0.17172344 0.080467016 0.059257828 0.11407911 -0.02433781
-0.16279681 0.0813999 0.17120337 0.07214703 0.046041813 0.024568364 0.05223013 0.11495428
-0.11312228 -0.10327773 0.029868437 0.14690423 -0.16654067 0.12201455 -0.105427 -0.1333954
-0.036707457 0.16352884 -0.07896753 0.0020448023 -0.03415808 -0.01744129 0.020184655 -6.124665e-05
0.10587112 -0.17665036 0.063521706 -0.075376146 0.10744101 0.101734884 -0.05180097 0.13260242
-0.117933735 0.08520036 0.01069358 0.07733949 -0.05376054 0.12603751 -0.04512873 -0.1182699
-0.13877764 0.12635632 0.09734952 0.009447592 -0.037995316 0.1540425 0.029839147 0.0742283
0.039355233 0.13673349 -0.036546245 -0.01560787 0.05860449 -0.07479855 -0.117558315 0.07551939
-0.13078935 0.1779408 -0.04668966 0.07098351 -0.107157685 0.00076504686 0.016682938 0.13113187
-0.121550746 -0.05095114 -0.15961753 0.0049584494 -0.12453254 0.09818202 0.005236085 0.048002135
-0.09367044 -0.14052254 -0.12370771 -0.12859592 0.15360565 0.05075896 0.03184294 0.16346255
-0.19005257 0.029854408 -0.07501468 0.1602521 -0.025314698 0.07095275 0.06712596 0.17230752
0.08863089 0.08992453 -0.056226876 0.043894097 -0.0023238314 -0.020593064 0.018501163 -0.05281461
0.08506496 0.010179475 -0.10296002 -0.09536881 -0.1651687 0.020304035 -0.05693708 -0.07672607
-0.14679518 -0.11663274 0.12861328 -0.10652642 -0.1051611 -0.047936667 0.10957179 0.09353792
0.06423494 0.11037493 -0.056268543 -0.06110417 0.093211256 -0.07287716 -0.03199621 -0.05563626
-0.11713165 0.13883829 0.053394165 0.052192464 0.15835118 0.03539206 0.16787592 0.029451154
0.05394784 0.006200719 -0.08254345 -0.0805638 -0.10105089 0.06575485 -0.088194996 0.01371223
0.18344496 0.022949466 -0.0020748363 0.12964228 -0.1258159 0.020803142 0.07751812 -0.15719838
00000000: 0f6d 823d 544e a63c 9380 143e e083 8c3d
00000010: 3301 813d 0161 11be 46c9 04bd e8e0 963c
00000020: 0291 4fbd 061f 283e 9351 55bc cce8 723d
00000030: a6b1 f8bd f4b1 0a3d 4f2c 93bd 0924 ebbd
00000040: 6d64 fcbd 8d2c 8dbd a5b6 be3d 48e6 093e
00000050: 6256 0f3d b482 7c3c 6a50 eb3d 66e6 453d
00000060: d4bd e3bb 9a96 883d f910 fa3c f50a 453d
00000070: 5643 e33d b661 393e bba4 29be 6321 9b3c
00000080: 2523 8a3d adb0 0d3e 1302 8ebd 9dfd ce3d
00000090: 3de5 b5bd 40ab 973d 5a61 32be d8cc dabb
000000a0: f463 cabd 3500 34bc 304f f8bd 3236 1f3c
000000b0: 474e 483a df5d 0f3e bf00 c93d 4460 f33d
000000c0: e598 0b3e cf3d a43d fdfa 4abd 6564 bcbd
000000d0: 8f7d 92bc a99c 12bd f9bf a8bd 750a cb3d
000000e0: 9dbb 253e b0eb a83c 0d9b 003e 4db7 56bd
000000f0: 5b99 1a3e 6bdc bd3d ad70 be3d cdab db3d
00000100: 1592 8d3d 1239 aabd bd42 a8bd ccb2 09be
00000110: 1093 083e 4749 823d 61c5 b33d 85c7 e63c
00000120: 08b2 c13c 5934 a8bd b7a8 6fbd 117d 173e
00000130: efe2 ad3d 22b8 80bc 8c85 023d ae5b 85bd
00000140: 8397 1cbe 5a34 1f3e 9ead 553c 7a0f 823d
00000150: ab5b f83b e199 1f3e e9d9 353e 2208 18bd
00000160: 1919 f8bd 671f 61bd 5237 5b3b b2e2 7a3d
00000170: b3fc 98bd abbf 2f3c af33 0fbd 0001 893c
00000180: d9af 0e3d ba41 813d b504 a33d 3dc6 103c
00000190: 57f6 a23c d2a7 90bd d9d9 ef3d 9951 5b3d
000001a0: 9d8d 153d 6fae 62bd 69eb 8f3c 45d8 2f3e
000001b0: e4cb a43d 56b8 723d 4fa2 e93d 1660 c7bc
000001c0: 35b4 26be feb4 a63d f04f 2f3e d2c1 933d
000001d0: 5796 3c3d 9843 c93c 43ef 553d 266d eb3d
000001e0: a7ac e7bd 4683 d3bd a7ae f43c 106e 163e
000001f0: a389 2abe c4e2 f93d 1cea d7bd ce98 08be
00000200: 8f5a 16bd 1b74 273e bab9 a1bd 1702 063b
00000210: 58e9 0bbd 09e1 8ebc 4a5a a53c 8b71 80b8
00000220: f5d2 d83d d5e3 34be ab17 823d cf5e 9abd
00000230: 080a dc3d 615a d03d 412d 54bd eec8 073e
00000240: 3e87 f1bd 877d ae3d 2034 2f3c 2b64 9e3d
00000250: 0334 5cbd fa0f 013e e7d8 38bd 7d37 f2bd
00000260: ba1b 0ebe 8d63 013e 2f5f c73d 13ca 1a3c
00000270: faa0 1bbd 51bd 1d3e 3a71 f43c 0205 983d
00000280: f432 213d dd03 0c3e 84b1 15bd 27b8 7fbc
00000290: 430b 703d fb2f 99bd 6ac2 f0bd e9a9 9a3d
000002a0: a5ed 05be 1d36 363e a83d 3fbd cd5f 913d
000002b0: 7d75 dbbd 6d8d 483a a8aa 883c 6f47 063e
000002c0: 99ef f8bd 24b2 50bd c772 23be 7d7a a23b
000002d0: eb0a ffbd a813 c93d 7793 ab3b e39d 443d
000002e0: 4ad6 bfbd 24e5 0fbe 785a fdbd a6ae 03be
000002f0: cd4a 1d3e a1e8 4f3d be6d 023d ba62 273e
00000300: 249d 42be 3b91 f43c 4ca1 99bd 2019 243e
00000310: c560 cfbc ad4f 913d 5679 893d 6271 303e
00000320: 1d84 b53d 5a2a b83d 274e 66bd 4cca 333d
00000330: 6c4b 18bb c9b2 a8bc c08f 973c 2254 58bd
00000340: 8a36 ae3d d0c7 263c b4dc d2bd b950 c3bd
00000350: fc21 29be a654 a63c db36 69bd 8f22 9dbd
00000360: 7a51 16be 25dd eebd 33b3 033e 862a dabd
00000370: b45e d7bd 3d59 44bd 2d67 e03d cf90 bf3d
00000380: 9c8d 833d 400c e23d d879 66bd 5e48 7abd
00000390: 8be5 be3d 9f40 95bd 750e 03bd d9e2 63bd
000003a0: b8e2 efbd a02b 0e3e d7b3 5a3d c4c7 553d
000003b0: d026 223e 44f7 103d aae7 2b3e 8c43 f13c
000003c0: 69f8 5c3d 672f cb3b 8a0c a9bd a2fe a4bd
000003d0: c5f3 cebd 7baa 863d 949f b4bd 43a9 603c
000003e0: ffd8 3b3e 8500 bc3c faf9 07bb f2c0 043e
000003f0: e2d5 00be 5a6b aa3c d2c1 9e3d 9df8 20be

onnx::LSTM_115 f4 [1, 512, 128]
-0.14169498 -0.04179135 0.13940528 -0.0001667597 0.123683706 0.073536366 -0.051839914 -0.09626277
0.13367927 0.06599453 -0.06589251 -0.04340598 -0.038252205 -0.078991316 0.058436636 -0.0406282
0.08541594 -0.0552483 -0.029092455 -0.012358877 -0.036259994 -0.14750595 0.05380147 0.10748741
-0.12513232 0.10592954 -0.009880394 0.053812213 -0.014741057 -0.14167562 -0.088834874 0.10261532
-0.11682492 -0.0044159098 -0.017258484 -0.042047624 -0.11692437 -0.09372829 0.07170215 0.08044555
0.063391306 0.048134677 0.14898089 0.16080272 -0.13509758 -0.113336995 0.12473957 -0.000816577
0.078807786 0.13184133 -0.14319333 -0.17759025 -0.12608969 0.07715087 0.045132026 -0.123775795
-0.0035754018 -0.019887432 -0.041277684 -0.117445044 0.11902513 0.057128564 0.096205585 -0.021549849
-0.06032243 -0.11022735 -0.029334413 -0.11353379 0.0526724 -0.020322233 -0.03853754 -0.0029283212
-0.048335493 -0.13608855 -0.0097098965 -0.021761889 -0.0144231655 -0.10915962 -0.032619905 -0.009259731
-0.13437162 0.026539845 0.11848982 0.020568477 0.06807524 0.1290925 0.03721213 -0.010443246
0.055872716 0.036537874 -0.15752995 -0.026387382 0.07207538 0.055862263 0.0616816 -0.06429345
0.044499893 0.065132804 0.042939838 -0.045931544 0.07412009 0.13663752 0.03243342 -0.07355422
0.023751097 -0.1455263 0.14055675 -0.13418885 0.1030261 0.04313166 -0.12024139 0.002911528
-0.05834316 -0.0068859844 0.06270153 0.036390305 0.00066951796 0.07104633 -0.047885045 0.07989631
0.13915431 -0.098837495 0.1392154 -0.0036003054 0.14712787 0.05399673 -0.10743303 -0.091242656
0.036988083 0.043058462 -0.077729546 -0.15167609 -0.1119759 -0.030333068 -0.027145432 0.0023446851
0.087294176 0.13931966 -0.055702675 0.09460994 -0.07072798 0.11575807 -0.09840213 0.042029027
0.06935535 -0.07166265 0.112029605 0.12656148 0.060197085 0.14909132 0.066627495 -0.11376024
0.043473613 0.13398832 0.13657005 -0.0069498764 -0.05800241 0.0434929 0.11963769 0.11559345
0.10405943 0.07759847 -0.051610176 -0.13498244 0.08096608 -0.021981567 -0.16084392 -0.024202248
-0.06274296 -0.028337138 0.08480408 0.09237126 -0.119360425 0.010013787 -0.05667756 -0.15808159
-0.041987143 -0.13725892 0.0045072576 -0.03261164 -0.068081155 -0.12500715 -0.08547655 0.1291714
0.05977897 -0.07262681 0.11454096 -0.055612944 -0.0017601576 -0.09959917 -0.06800391 -0.038143735
0.15595748 0.01671124 0.009420429 0.13708295 0.0020580157 -0.12094143 -0.0762393 0.07405834
-0.024486357 -0.09406903 0.014495236 -0.089650795 0.10663981 -0.1298917 -0.10817415 -0.14293486
-0.05138393 -0.15368417 -0.10055103 0.12031077 0.13260779 0.031171715 -0.05965846 0.099635504
0.10989507 -0.12934648 -0.06261714 0.07644707 0.028490225 0.07454346 -0.109844 -0.15207009
-0.12637818 -0.11214645 0.06530984 0.078397416 -0.022110827 -0.03182158 0.08481728 -0.046257447
0.07310086 -0.16821104 0.08768993 0.12953402 -0.0016776664 -0.12919742 0.124485515 0.13779438
0.024863148 0.0032055355 -0.022883898 0.031189457 -0.059996426 0.13141398 -0.060907688 0.079409085
-0.08068324 0.12405683 -0.04092562 -0.010776215 0.037045002 0.03512422 -0.010446002 0.11558143
00000000: 7d18 11be 682d 2bbd 42c0 0e3e 37dc 2eb9
00000010: e24d fd3d 3c9a 963d 1756 54bd 6a25 c5bd
00000020: 38e3 083e 2428 873d a7f2 86bd 78ca 31bd
00000030: 58ae 1cbd 33c6 a1bd 415b 6f3d c169 26bd
00000040: 8dee ae3d 0b4c 62bd 4d53 eebc e37c 4abc
00000050: 5c85 14bd cd0b 17be ee5e 5c3d 5c22 dc3d
00000060: b022 00be 96f1 d83d 60e1 21bc 326a 5c3d
00000070: 7984 71bc 6a13 11be 0fef b5bd fb27 d23d
00000080: e741 efbd 56b3 90bb aa61 8dbc 213a 2cbd
00000090: 0b76 efbd 9ef4 bfbd 94d8 923d a3c0 a43d
000000a0: 4dd3 813d de28 453d 728e 183e 78a9 243e
000000b0: 0557 0abe 3a1d e8bd 7677 ff3d 8e0f 56ba
000000c0: fa65 a13d 6a01 073e 46a1 12be 38da 35be
000000d0: a81d 01be 4601 9e3d 5cdc 383d 2a7e fdbd
000000e0: 4a51 6abb f8ea a2bc ca12 29bd 0787 f0bd
000000f0: 73c3 f33d a4ff 693d 6f07 c53d 4f89 b0bc
00000100: a714 77bd e0be e1bd b94e f0bc 6784 e8bd
00000110: 04bf 573d d07a a6bc 8ad9 1dbd 14e9 3fbb
00000120: 70fb 45bd cc5a 0bbe 4216 1fbc fd45 b2bc
00000130: 244f 6cbc 148f dfbd 739c 05bd 20b6 17bc
00000140: b798 09be 176a d93c caaa f23d 397f a83c
00000150: 086b 8b3d d330 043e bf6b 183d 261a 2bbc
00000160: cada 643d bda8 153d 884f 21be 5a2a d8bc
00000170: 429c 933d d4cf 643d d8a5 7c3d 49ac 83bd
00000180: 8545 363d 5964 853d afe1 2f3d b722 3cbd
00000190: 46cc 973d b5ea 0b3e e8d8 043d 98a3 96bd
000001a0: a991 c23c d904 15be 1cee 0f3e cd68 09be
000001b0: 59ff d23d d3aa 303d 1e41 f6bd 56cf 3e3b
000001c0: 3df9 6ebd d3a3 e1bb a969 803d 000e 153d
000001d0: 9782 2f3a bd80 913d 1c23 44bd ada0 a33d
000001e0: 787e 0e3e 506b cabd 7b8e 0e3e 1af3 6bbb
000001f0: b0a8 163e ad2b 5d3d d905 dcbd 6edd babd
00000200: d180 173d 125e 303d ab30 9fbd fa50 1bbe
00000210: 9f53 e5bd 0e7d f8bc 1960 debc 4aa9 193b
00000220: 4ac7 b23d d0a9 0e3e 7d28 64bd dbc2 c13d
00000230: d5d9 90bd 9112 ed3d 0e87 c9bd a126 2c3d
00000240: 2e0a 8e3d dec3 92bd c76f e53d 5599 013e
00000250: 3891 763d 65ab 183e ff73 883d 21fb e8bd
00000260: 6311 323d 3c34 093e 05d9 0b3e cabb e3bb
00000270: ef93 6dbd 9c25 323d 9b04 f53d 42bc ec3d
00000280: 1c1d d53d f2eb 9e3d 3165 53bd d638 0abe
00000290: 8bd1 a53d b012 b4bc 45b4 24be cb43 c6bc
000002a0: 627f 80bd 4923 e8bc c3ad ad3d 252d bd3d
000002b0: 3d73 f4bd de10 243c bb26 68bd 24e0 21be
000002c0: b6fa 2bbd 9a8d 0cbe 9eb1 933b c893 05bd
000002d0: 226e 8bbd e001 00be 540e afbd 8245 043e
000002e0: cbda 743d 5dbd 94bd 7394 ea3d 66ca 63bd
000002f0: 17b5 e6ba a6fa cbbd a245 8bbd 9b3c 1cbd
00000300: 51b3 1f3e 03e6 883c 2558 1a3c 795f 0c3e
00000310: c6df 063b 24b0 f7bd 5a23 9cbd e6ab 973d
00000320: 9d97 c8bc 43a7 c0bd 6d7d 6d3c d69a b7bd
00000330: f965 da3d 5402 05be 698a ddbd 845d 12be
00000340: f577 52bd 625f 1dbe b3ed cdbd 7e65 f63d
00000350: 56ca 073e d35b ff3c 6e5c 74bd b30d cc3d
00000360: ab10 e13d 6773 04be 6a3d 80bd 4890 9c3d
00000370: 5564 e93c 3eaa 983d e4f5 e0bd 43b8 1bbe
00000380: 4869 01be 0aad e5bd 2ac1 853d d38e a03d
00000390: c421 b5bc 5857 02bd afb4 ad3d 7378 3dbd
000003a0: e7b5 953d 843f 2cbe c796 b33d 91a4 043e
000003b0: 25e5 dbba 544c 04be 43f2 fe3d f819 0d3e
000003c0: cdad cb3c f613 523b 0377 bbbc 0881 ff3c
000003d0: d0be 75bd 6391 063e 577a 79bd 3ba1 a23d
000003e0: 413d a5bd 8211 fe3d 9fa1 27bd b98e 30bc
000003f0: 80bc 173d 6ade 0f3d b525 2bbc f5b5 ec3d

onnx::LSTM_116 f4 [1, 1024]
0.022324739 0.037949774 0.025301404 0.04107093 0.03265172 0.036527 0.03274799 0.03477665
0.029447285 0.00734987 0.025709435 0.042073816 0.037932813 0.004339271 0.03232184 0.049500525
0.024373548 0.033402544 0.004219756 0.024783503 0.023697572 0.04210303 0.040548284 0.041960463
0.005800326 0.04232533 0.015490533 0.042220306 0.023564931 0.008252348 0.036753967 0.025075132
0.017362399 0.012593081 0.03959462 0.03233718 0.027118629 0.015059964 0.0407932 0.013774925
0.028545605 0.03560019 0.046141077 0.011111422 0.027542645 0.012557696 0.025952324 0.007963786
0.014252398 0.0363193 0.031013733 0.04138311 0.035942655 0.019441543 0.021922057 0.018593956
0.040965438 0.024982542 0.03564099 0.042602744 0.03981153 0.033793524 0.020408997 0.0519356
0.0024228885 0.041183963 0.03784306 0.013453932 0.03576305 0.044086974 0.04975156 0.013786463
0.035113093 0.01766749 0.052839488 0.015427791 0.0018926811 -0.01225134 0.02481654 0.029271025
0.01173103 0.014839644 0.013422009 0.03889446 0.021550346 0.036809392 0.022530641 0.015410453
0.02487927 0.013477907 0.0078178 0.010156722 0.0020099431 0.04208801 0.0104922 0.013790224
0.013744699 0.043353267 0.029159643 0.042775214 0.0064872983 0.0410515 0.042969756 0.03528229
0.00027636442 0.035726193 -0.0013776369 -0.0062866798 0.045663744 0.04385588 0.023395203 0.017752
0.03767659 0.027863521 0.039086845 0.028043104 0.031341173 0.012627163 0.04861789 0.018028589
0.010837324 0.03996113 0.046344254 0.048797317 0.02942194 0.0005609338 0.018097708 0.013977832
0.023697412 0.020788934 0.012663022 0.024163257 0.01474555 0.019229364 0.01542135 0.03429122
0.00801036 0.023359189 0.029313754 0.020844154 0.021892352 0.009796625 0.026961615 0.031245755
0.018399674 0.025000235 0.041983712 0.018489014 0.032186355 0.01665234 0.021913327 0.0251715
0.022390625 0.014779622 0.0146734975 0.02108324 0.025744142 0.0153623475 0.026817266 0.018438738
0.01430498 0.022575859 0.025423598 0.02567763 0.018162295 0.031802543 0.030292507 0.032538
0.017791077 0.01795684 0.023672892 0.022900578 0.020093815 0.013179797 0.04407976 0.030238155
0.0070240516 0.02139397 0.02736633 0.018873751 0.021047637 0.00999498 0.019398965 0.022372127
0.02866738 0.02332484 0.020641956 0.021541601 0.051336292 0.015539157 0.015671654 0.026550714
0.011208981 0.033813797 0.026979217 0.018969566 0.024901932 0.03355575 0.015587419 0.021568036
0.01969849 0.009614495 0.024719596 0.045741785 0.027946234 -0.009539723 0.023346242 0.022322895
0.018560907 0.01934509 0.021747252 0.017343663 0.020376645 0.036861286 0.035455834 0.012166048
0.020287992 0.021318745 0.019977309 0.032809786 0.01589649 0.026627291 0.0191939 0.0083181085
0.025954694 0.021075038 0.027782045 0.016783196 0.02301148 0.012884735 0.026126867 0.015946992
0.03949403 0.016299788 0.024496026 -0.003603957 0.022076808 0.027307179 0.028028281 0.04494604
0.02222383 0.034429036 0.014690371 0.015920598 0.033700604 0.011413466 0.01838358 -0.0048263855
0.014829215 0.022323007 0.031261276 0.022168757 0.018817086 0.0068962243 0.019953856 0.027290085
00000000: 5fe2 b63c 3971 1b3d e444 cf3c fe39 283d
00000010: cfbd 053d 569d 153d c222 063d f671 0e3d
00000020: 6f3b f13c 2ed7 f03b 989c d23c 9855 2c3d
00000030: 705f 1b3d 7230 8e3b e863 043d 10c1 4a3d
00000040: 09ab c73c 1bd1 083d e145 8a3b c606 cb3c
00000050: 6921 c23c 3a74 2c3d f515 263d bcde 2b3d
00000060: a910 be3b 535d 2d3d 01cc 7d3c 33ef 2c3d
00000070: 3e0b c13c db34 073c 548b 163d 5d6a cd3c
00000080: 973b 8e3c 3653 4e3c f82d 223d fe73 043d
00000090: e327 de3c 11be 763c c516 273d 39b0 613c
000000a0: 79d8 e93c 81d1 113d 6dfe 3c3d af0c 363c
000000b0: 1da1 e13c cbbe 4d3c f899 d43c 8a7a 023c
000000c0: e482 693c 8cc3 143d 8310 fe3c 5681 293d
000000d0: 9b38 133d df43 9f3c e395 b33c 5a52 983c
000000e0: 60cb 273d 30a8 cc3c 49fc 113d 3780 2e3d
000000f0: 6a11 233d 146b 0a3d c530 a73c 6cba 543d
00000100: 53c9 1e3b 84b0 283d 5301 1b3d e16d 5c3c
00000110: 477c 123d 8b94 343d 4bc8 4b3d 9ee0 613c
00000120: bfd2 0f3d 69bb 903c 386e 583d d8c4 7c3c
00000130: d713 f83a d8b9 48bc 0e4c cb3c cac9 ef3c
00000140: 8233 403c fa21 733c fce7 5b3c cc4f 1f3d
00000150: 5a8a b03c 72c5 163d 2e92 b83c 207c 7c3c
00000160: 9ccf cb3c 70d2 5c3c 3b16 003c 6168 263c
00000170: 40b9 033b 7a64 2c3d 7ae7 2b3c 64f0 613c
00000180: 7231 613c 3293 313d 34e0 ee3c 1035 2f3d
00000190: 6793 d43b 9e25 283d 0e01 303d 2a84 103d
000001a0: 01e5 9039 a155 123d d391 b4ba 7e00 cebb
000001b0: e809 3b3d 39a2 333d 4ca7 bf3c a46c 913c
000001c0: c552 1a3d 0a42 e43c 8719 203d a7ba e53c
000001d0: 9a5f 003d 29e2 4e3c 8d23 473d b1b0 933c
000001e0: 088f 313c 48ae 233d 79d3 3d3d b2df 473d
000001f0: 4806 f13c a10b 133a a541 943c 4703 653c
00000200: 1321 c23c 8e4d aa3c 9078 4f3c 06f2 c53c
00000210: 5297 713c e686 9d3c d4a9 7c3c f374 0c3d
00000220: e33d 033c c55b bf3c 6623 f03c 5cc1 aa3c
00000230: 9757 b33c 0682 203c 9bde dc3c 19f7 ff3c
00000240: eaba 963c 4bcd cc3c 1df7 2b3d 4676 973c
00000250: d7d5 033d 7d6a 883c 9483 b33c 7634 ce3c
00000260: 8b6c b73c 3a26 723c 1c69 703c c2b6 ac3c
00000270: 61e5 d23c 5bb2 7b3c e2af db3c d60c 973c
00000280: 6f5f 6a3c 02f1 b83c 2645 d03c e559 d23c
00000290: 18c9 943c 6243 023d fe27 f83c 9146 053d
000002a0: 98be 913c 391a 933c a7ed c13c fe99 bb3c
000002b0: c99b a43c 13f0 573c fa8c 343d 02b6 f73c
000002c0: 042a e63b 6842 af3c 5b2f e03c 209d 9a3c
000002d0: 186c ac3c fcc1 233c 94ea 9e3c c045 b73c
000002e0: dad7 ea3c bc13 bf3c 5219 a93c 0378 b03c
000002f0: 0146 523d f397 7e3c d761 803c e280 d93c
00000300: e0a5 373c 5680 0a3d 8503 dd3c 1066 9b3c
00000310: 23ff cb3c c171 093d 6062 7f3c 73af b03c
00000320: ba5e a13c 1d86 1d3c c080 ca3c bd5b 3b3d
00000330: 80ef e43c 804c 1cbc 9e40 bf3c 81de b63c
00000340: 0b0d 983c 9879 9e3c 4b27 b23c 4c14 8e3c
00000350: ecec a63c dcfb 163d 233a 113d 1b54 473c
00000360: 0133 a63c a6a4 ae3c 74a7 a33c 8e63 063d
00000370: 5b39 823c 7a21 da3c 873c 9d3c ad48 083c
00000380: f09e d43c 8fa5 ac3c 2c97 e33c ea7c 893c
00000390: 9282 bc3c 7f1a 533c 0308 d63c 44a3 823c
000003a0: 7ec4 213d 2287 853c e4ab c83c 5d30 6cbb
000003b0: 6cda b43c 4eb3 df3c 919b e53c 5719 383d
000003c0: c00e b63c 7605 0d3d e2af 703c ea6b 823c
000003d0: a509 0a3d 8cff 3a3c 2999 963c a826 9ebb
000003e0: 3cf6 723c bdde b63c d30b 003d 419b b53c
000003f0: 4a26 9a3c b9f9 e13b 4576 a33c 758f df3c
