Machine-Learning-DRL/results/ppo/Seeker/Seeker-97697.onnx (onnx, 644542 bytes, 15 tensors)

discrete_act_size_vector f4 [1, 2]
000000 00 00 a0 40 00 00 80 3f
       5.0 1.0

network_body.observation_encoder.processors.0.normalizer.running_mean f4 [44]
000000 eb 12 ee 3e 6b 19 a3 3d 7b 11 e9 3e 15 0a 28 3f
       0.46498808 0.079638325 0.4552115 0.65640384
000010 17 a6 f0 3e e2 04 c6 3d 7a c3 dd 3e d2 f8 20 3f
       0.47001716 0.096689 0.433132 0.6287967
000020 10 eb f1 3e 7d 92 db 3d 11 1f d7 3e cc 44 20 3f
       0.4724965 0.107213 0.4201589 0.62604976
000030 76 77 f7 3e ea 54 aa 3d b9 e8 dd 3e df 6b 21 3f
       0.4833333 0.08316977 0.43341616 0.63055223
000040 1a 49 f5 3e 0a 1e c7 3d c8 dc d8 3e 56 15 22 3f
       0.47907335 0.09722526 0.42355943 0.63313806
000050 a2 3b 09 3f 39 b7 9c 3d d3 4d c6 3e 52 33 1f 3f
       0.5360662 0.076521344 0.3873125 0.62187684
000060 48 20 e3 3e 11 21 b5 3d 1c 92 ef 3e c2 0d 2a 3f
       0.44360566 0.088441975 0.4679116 0.6642724
000070 5b 70 1a 3f 4d 92 94 3d 38 ec a5 3e 19 68 19 3f
       0.6032769 0.07254467 0.32406783 0.59924465
000080 52 9b f7 3e b8 c5 a5 3d ee f1 de 3e 36 66 2b 3f
       0.48360687 0.080943525 0.43543953 0.66952837
000090 c4 6b 19 3f 1b f7 90 3d fc d2 a8 3e c1 db 19 3f
       0.5993006 0.07078382 0.32973468 0.6010094
0000a0 56 ef 02 3f dd ad 9f 3d 83 34 d2 3e 2b 11 2a 3f
       0.5114645 0.07796834 0.41055688 0.66432446

network_body.observation_encoder.processors.1.normalizer.running_mean f4 [24]
000000 ae 36 94 3f af e1 f3 3e fd ba 87 bf 30 d7 86 bf
       1.1579187 0.4763312 -1.0603939 -1.053442
000010 62 62 f4 3e 64 0e fa bf fc 7d 8f b6 36 3d f5 37
       0.4773131 -1.9535642 -4.2763986e-06 2.923478e-05
000020 87 0c 97 3f d7 c2 fc 3e 48 e8 8d bf 9e da 87 bf
       1.1800698 0.493674 -1.1086512 -1.0613592
000030 74 44 fd 3e fc 3e 01 c0 80 3c d4 b6 c4 3a 12 38
       0.49466288 -2.0194693 -6.3251355e-06 3.4863842e-05
000040 1b 06 99 3f 1b e8 02 3f 16 5d 94 bf dc f1 87 bf
       1.1954988 0.51135415 -1.1590908 -1.0620685
000050 d4 f4 02 3f b0 62 05 c0 8e 80 0c b7 0c d4 29 38
       0.5115483 -2.0841484 -8.374582e-06 4.0490224e-05

network_body._body_endoder.seq_layers.0.weight f4 [128, 68]
000000 cc 77 c4 bd e9 82 0c 3e bb 36 b7 3d 49 e2 d0 bd
       -0.09593162 0.13721813 0.08945986 -0.101994105
000010 f4 3b 36 3c 9f 16 8f 3d dc ed 62 3c 53 1f 87 bc
       0.011122692 0.069867365 0.013850655 -0.016494429
000020 bf c7 f1 bd 97 7a 51 bd a3 00 08 3e 95 f6 31 3d
       -0.11805677 -0.0511423 0.13281493 0.04344805
000030 71 ee dc bd af 78 5c 3c 79 30 08 3e c4 3e 92 3d
       -0.107876666 0.013456508 0.13299741 0.07140878
000040 ab 93 a9 3d 05 a6 4e 3c 39 59 ae 3b ec f8 16 bd
       0.082801186 0.012612824 0.0053206948 -0.036858484
000050 16 b8 7a bd 5c bc f6 3d f7 3e fe bd 97 12 29 be
       -0.061210714 0.120476454 -0.12414353 -0.16510998
000060 8b a6 f4 3c 62 4a 68 3e 50 4f e4 bb 29 2a 09 3d
       0.02986457 0.22684625 -0.0069674626 0.033487473
000070 3e d9 4e 3d ff 51 69 3d 1b 95 20 3d d6 70 83 3e
       0.050500147 0.056962963 0.039204698 0.25672024
000080 5f 0b 06 bd 5e 8f 5b bc 74 08 e5 ba 04 69 82 bd
       -0.032725688 -0.013400881 -0.0017473833 -0.063676864
000090 e1 9a f2 bd 5d 2a cd 3d fe 8e 0f 3e aa 3a 29 bd
       -0.11845947 0.10017846 0.14019391 -0.041315712
0000a0 05 1b 76 bd 6d 48 f8 bd 34 24 cc 3d 2e 44 32 3e
       -0.06008436 -0.12123189 0.09967843 0.17408821
0000b0 83 74 38 bd a6 a0 dc bd c9 c9 2e 3e b1 f6 3f 3e
       -0.04503299 -0.10772829 0.17069162 0.18746449
0000c0 15 2f 94 be d1 a1 13 3e 52 d5 02 3e e7 95 82 3e
       -0.2894217 0.14417197 0.12776688 0.2550499
0000d0 e3 b2 70 bd 3a 3d 64 bc 45 df 59 be 17 9d 0a be
       -0.05876435 -0.013930613 -0.21276577 -0.13536488
0000e0 b5 d1 0d be ca 7d f5 3c e3 9f 93 3e 78 96 7f bb
       -0.13849528 0.029967207 0.2883292 -0.0038999598
0000f0 20 af d3 3e 94 50 29 be e3 91 fd bd 68 6e be bd
       0.41344547 -0.16534644 -0.12381341 -0.09298402
000100 e6 17 f5 3d 02 48 93 3d 64 e1 4b 3d 17 eb a9 bc
       0.11967449 0.07191469 0.049775496 -0.020741982
000110 4f a3 2d bc 27 df 1c be b5 53 f2 3c c5 f5 0e be
       -0.010598018 -0.15319501 0.02958093 -0.13960941
000120 69 e2 12 be 54 2c 8d bd 96 36 86 be f0 9b 80 3d
       -0.14344181 -0.068932205 -0.2621352 0.06279743
000130 7f 96 1c 3d de 65 f5 3c 59 bb aa 3d 35 ec 28 3e
       0.03822946 0.0299558 0.08336515 0.16496356
000140 e3 5e 67 bc 5e b9 a1 bd cc 5d e6 3d e1 1b da 3d
       -0.014121744 -0.07896684 0.11248359 0.10649849
000150 86 11 ea bd 49 a3 21 be 66 c9 a2 bd 60 d5 a5 3d
       -0.114291236 -0.15784945 -0.0794857 0.08097339
000160 04 d6 fa bd 52 0a 0a 3e 6d fa 4b be 63 30 d5 3d
       -0.122478515 0.134805 -0.19919749 0.1040962
000170 4d 29 b3 bd 97 8c 3b bd a0 65 09 3e 88 e9 2b bd
       -0.08748112 -0.045788374 0.13417673 -0.04197076
000180 77 12 dd bc 25 02 69 3d e9 83 b7 bd 12 32 5a 3d
       -0.026986344 0.05688681 -0.08960707 0.053270407
000190 f3 fa fd bd ad ee 84 3d 27 b9 e9 bb db a6 0e 3e
       -0.124013804 0.06490836 -0.0071326676 0.13930838
0001a0 07 49 be bd 8d ef 28 3d aa 55 c2 bd f3 2f 30 3c
       -0.092912726 0.04124408 -0.094889954 0.0107536195
0001b0 15 b2 75 be 18 7f f3 3c 90 a6 9a 3d 55 c7 39 3e
       -0.23993714 0.029723689 0.075513005 0.18142445
0001c0 49 3e cf 3d 45 5f 46 bc 8f 7a 03 3e 29 f5 a5 3d
       0.10119302 -0.012107675 0.12839721 0.08103401
0001d0 bf 7b b3 bd 31 87 22 be 62 13 98 bc 58 08 04 be
       -0.08763837 -0.15871884 -0.01856393 -0.12893808
0001e0 80 6e 59 3d a8 b8 6d bc 43 8e 06 bd 91 bb 0b 3e
       0.053083897 -0.0145093575 -0.032850515 0.1364577
0001f0 14 1f 95 be ae d7 6e 3e e3 4e d7 3c 60 3e 6f 3c
       -0.29125273 0.23324463 0.026282733 0.014602274
000200 de fa aa 3d 42 ec 86 be c0 76 fc bc 85 c1 11 3d
       0.0834863 -0.26352125 -0.030818343 0.035584945
000210 f9 13 bb bd cf 27 b9 3d f1 64 86 bd 32 17 3e bd
       -0.09134669 0.09040796 -0.06562222 -0.04640884
000220 21 b6 20 3e 86 6f 04 3d 62 e5 61 3d 08 cb 8e 3e
       0.15694477 0.03233292 0.055150397 0.27889276
000230 fa ca b7 bd c1 d8 71 3e bc 89 aa bd d9 e3 84 bd
       -0.089742616 0.23617841 -0.08327052 -0.06488771
000240 ea f2 66 bd 58 7e 68 3c c8 06 5c bd 66 1a 5b 3d
       -0.056384005 0.014190279 -0.053717405 0.053491972
000250 56 db 2a bd aa 70 0a bd fe 52 e2 bd bd ab e1 3d
       -0.04171308 -0.03379885 -0.11050986 0.110190846
000260 0e 56 36 3d cf 54 0d 3e 47 6c 33 3d 2e e2 8b 3d
       0.044515662 0.13801883 0.043804433 0.0683025
000270 ea 2a b0 3d 89 dc 54 bb 58 bf 4b 3e 99 1c 09 3c
       0.08601935 -0.0032480082 0.1989721 0.008368635
000280 19 10 20 bd 2c ed 5f 3b ed 76 0f 3e 37 32 c3 bc
       -0.039077852 0.0034168465 0.1401021 -0.023827655
000290 13 7d eb 3d 8d b8 81 3d 91 f4 b4 3c d6 4e c2 3d
       0.114984654 0.063340284 0.022089275 0.09487693
0002a0 22 57 79 3d 1f b3 f8 bd 6e 28 d1 bc 7f 2d fe 3d
       0.060874112 -0.1214354 -0.025531974 0.124110214
0002b0 9e 02 92 bd ec e1 ac be 70 a7 e3 3a c3 38 ed 3d
       -0.071294054 -0.33766115 0.0017368626 0.11583092
0002c0 aa cd 4f 3d bf 0d 95 bd 85 38 f2 3c bc 50 9c 3d
       0.050733246 -0.072780125 0.029567966 0.07632586
0002d0 0f 14 e2 3d dd 2a e3 bd f0 e5 03 bd 2d a0 6b 3b
       0.11038982 -0.1109216 -0.032201707 0.0035953627
0002e0 5a 14 bc 3d 1d 9f 28 3d ec 43 45 3e 3a de 32 3e
       0.09183569 0.041167367 0.19264191 0.17467585
0002f0 dd 6d a2 3d 83 a5 76 3e 59 7f 01 3e ef 2d 39 bd
       0.07931111 0.24086575 0.12646236 -0.04520982
000300 a5 05 4a 3e 37 5e 16 3e d2 24 50 3e 61 b7 4f 3e
       0.19728716 0.14684378 0.20326546 0.20284797
000310 bb 9e 03 3e 32 23 22 be b8 78 9a 3d 0f d6 02 bd
       0.1285352 -0.15833738 0.075425565 -0.031942423
000320 46 7a c0 3b 6d b7 49 bb e4 a8 06 be 18 f9 af bc
       0.005873951 -0.0030779496 -0.13150364 -0.021481082
000330 e4 26 25 bd c8 a2 06 bd 10 0f 0c 3e 10 10 70 be
       -0.040320292 -0.032870084 0.13677621 -0.23443627
000340 ff 19 a5 3d 7e de 11 3e 4d 53 82 3d 85 59 91 3c
       0.08061599 0.1424503 0.063635446 0.017742882
000350 7f d9 83 bd 6e 5f ce bd 7d 40 d5 bd 89 24 e6 bd
       -0.064379685 -0.100767955 -0.10412691 -0.11237437
000360 ee ff ad 3d cc 7f 39 3e fd f8 64 3d 7d b2 fc 3d
       0.0849608 0.18115157 0.055901516 0.123387314
000370 3d ec 34 3d 46 c2 37 3e a6 d3 0b be 9b d8 cc 3d
       0.044170607 0.17945203 -0.13654956 0.10002252
000380 58 c3 b2 3d db 74 25 3d 03 15 0a be fd 6a 45 bc
       0.08728665 0.040394645 -0.13484578 -0.012049434
000390 c6 59 05 be 1b a2 00 3e d1 43 95 3d 13 3c a8 bd
       -0.13022527 0.12561838 0.072883256 -0.08214583
0003a0 ac 72 9c 3d db 89 e8 3d dd 12 38 3e d7 1c d7 bd
       0.076390594 0.11354419 0.17975946 -0.10503548
0003b0 ae 60 c4 3c 03 28 35 3e 53 44 98 bd 13 d5 9a bd
       0.023971882 0.17691045 -0.07434907 -0.07560172
0003c0 4a ff b7 bd da 0c 14 bd 8b 76 66 bc f3 85 06 3e
       -0.089842394 -0.03614507 -0.014066349 0.13137035
0003d0 da 6b 40 bd 89 5a 0f be 88 3d 3f be 69 f8 08 3e
       -0.046977855 -0.1399938 -0.18675816 0.13376011
0003e0 50 10 f5 bc cc 75 c6 3d 2a 86 93 be 7e 7b 0f 3e
       -0.029915005 0.09690437 -0.28813297 0.14011952
0003f0 b7 8a 57 3c 08 40 04 3e 2e 69 0c be e6 38 1f 3e
       0.013155631 0.12915051 -0.13711998 0.15549049

network_body._body_endoder.seq_layers.0.bias f4 [128]
000000 79 33 b6 3c c0 17 b5 3c 30 0b 0e 3c 56 c6 1f 3c
       0.022241341 0.022106051 0.0086696595 0.009751877
000010 2c b6 6f 3c 00 29 37 3c f0 3a 2e bb e2 00 c5 3c
       0.0146308355 0.011179209 -0.0026585422 0.024048273
000020 5c 87 21 3d 79 97 cc 3b 07 6b d7 3c ea 7b c1 3b
       0.03943573 0.006243643 0.026296152 0.0059046643
000030 59 ce 58 3c 23 9c 99 3c bc 0c 15 3c 4d 73 18 3d
       0.013232791 0.01875121 0.009097274 0.037219334
000040 35 f1 7e 3b f8 e8 00 3d 77 44 c1 3c 28 51 9f 3c
       0.0038901095 0.031472176 0.023592217 0.019447878
000050 1e ff 95 3c 93 dc 99 bb 7e 9f 53 3b 6e 1c 43 3c
       0.018310126 -0.004695484 0.003229111 0.011908634
000060 d8 01 71 3c 83 49 07 bc 85 6f 07 bc 1a 9b 5f bb
       0.014709912 -0.008257273 -0.008266334 -0.0034119547
000070 b3 23 ad 3b de 19 1a 3c 4d 5f c3 bc 9d 7f e4 ba
       0.0052837967 0.009405581 -0.023849154 -0.0017433051
000080 f5 2a 32 3d 76 9e 84 3c 83 b4 d8 3c fc 8e ea bb
       0.043498 0.016188841 0.026453262 -0.0071581583
000090 93 d5 60 3c 93 51 30 bc e0 d8 81 3c d9 14 17 bc
       0.013722795 -0.010761636 0.015850484 -0.009221279
0000a0 9b 9c e1 3a 19 fb c0 3c f0 03 29 bb 26 06 dd 3a
       0.001721281 0.023557233 -0.00257897 0.0016862794
0000b0 77 0f 23 3c 58 9f d7 bc b1 46 9e 3c ff 68 56 3c
       0.009952418 -0.026321098 0.019320818 0.013086556
0000c0 c5 eb 1b 3b c7 57 b8 3c b2 ed a1 3c 25 d2 a3 3b
       0.0023791653 0.022502793 0.019766662 0.0049994164
0000d0 2b 62 b5 3c 7e 3a 18 3d 41 f3 9c 3b a7 34 36 3c
       0.022141537 0.037165157 0.0047897403 0.011120952
0000e0 5d 32 70 3c f7 d6 cc 3c d2 6d 98 3c 7b 3d 12 bb
       0.014660445 0.025004847 0.018607054 -0.0022314477
0000f0 ba ac ba 3b aa 86 fb 3a 78 12 d9 3b fb 6f 15 3c
       0.00569686 0.0019189913 0.006624516 0.0091209365
000100 9a ca db 3c a2 3a 60 3c 8a a5 73 bc 49 3d ab 3c
       0.026830006 0.013685854 -0.014871011 0.020903246
000110 fe 83 9a 3c 2b 1d c5 3c a6 e8 75 3c 6a 28 6e 3b
       0.018861767 0.02406176 0.015009081 0.0036340007
000120 50 9f 47 3c 87 ea cd ba d0 f8 7f 3c fc 11 ab 3c
       0.012183979 -0.0015710153 0.015623286 0.020882599
000130 91 aa 84 3c 4e bd d8 3b d6 af b9 bb d1 59 67 3c
       0.016194614 0.0066143638 -0.005666713 0.014120535
000140 71 42 78 3c df 3a 37 3a fc 35 b1 3c 96 80 54 3c
       0.01515256 0.00069896685 0.021632187 0.01297011
000150 cc 16 36 3c ff 42 52 3c c3 7f 81 bc c5 51 0f 3c
       0.011113834 0.012833356 -0.015807992 0.008747523
000160 c7 12 0b 3c 52 67 aa ba 04 77 29 3b 6a 78 dd 3b
       0.008488364 -0.0013000763 0.0025858292 0.0067587392
000170 60 22 27 3b 70 b1 07 3b 43 1e 30 bb 8e 88 57 3c
       0.0025502667 0.0020705126 -0.0026873506 0.013155116
000180 31 e5 97 3c 0c e1 6d bb 7f 31 10 3c 41 21 a2 3b
       0.018541904 -0.0036297468 0.008800863 0.004947812
000190 23 f9 77 3c e8 aa fc 3a 1d 20 aa 3c 13 48 a8 3c
       0.015135082 0.0019277008 0.020767266 0.02054218
0001a0 c9 db 1d bc 4a 2e 22 3b e9 69 a3 3c 9e 22 53 bb
       -0.00963492 0.0024746829 0.019947963 -0.0032216678
0001b0 61 58 43 3c d9 7c 71 3c fe 47 01 bb bd e7 d6 3c
       0.011922927 0.014739239 -0.0019726749 0.026233548
0001c0 5a d8 0f 3d 5c d4 82 bc 40 ef 3b ba 8d c8 16 3c
       0.03511844 -0.015970401 -0.0007169135 0.0092030885
0001d0 13 27 16 3d f9 19 03 3c 8a ac 81 3c 15 3a 78 bc
       0.036658358 0.008001798 0.015829343 -0.015150567
0001e0 e2 1c 14 3b 80 b2 39 3c f6 3c d4 3c 1d 6e 87 3c
       0.0022600223 0.011334062 0.025907975 0.016531998
0001f0 76 41 20 3c 6a af f2 3b 90 0a 71 3c f6 5e 3f 3c
       0.009781232 0.007406165 0.014711991 0.011680355

network_body._body_endoder.seq_layers.2.weight f4 [128, 128]
000000 3e 5a 1d 3c f8 ef b1 bc 42 a0 29 3d fb 3d 37 be
       0.009604035 -0.021720871 0.0414126 -0.17894737
000010 f0 74 8f 3d 40 87 44 bc dd a8 60 bd 2f e5 19 3e
       0.07004726 -0.011995137 -0.05484854 0.15028833
000020 25 b3 f6 3d 87 54 91 3d ac 2a 65 3d 16 b9 9c 3d
       0.12045888 0.070962004 0.0559489 0.0765249
000030 eb d6 4f 3d ca 57 06 3e 0f a1 de 3d 54 9c 2c bd
       0.05074207 0.13119426 0.10870563 -0.042141274
000040 ac 82 15 3d 24 81 59 bd 6b d1 33 3c 6f af ed 3d
       0.03650157 -0.053101674 0.010975222 0.11605727
000050 57 3c 30 3d 62 76 93 3d f9 ed 90 bc 58 2c f7 bd
       0.043026295 0.07200314 -0.0176916 -0.12069005
000060 85 db a4 bd 18 00 1d bd 4a 97 2e bd a3 aa 21 3d
       -0.080496825 -0.038330168 -0.04262475 0.039469372
000070 e9 5b 01 be cb e3 c6 3c 47 20 37 3d 9b d6 6d 3d
       -0.12632717 0.024278542 0.044708516 0.05806599
000080 de 2d 59 3d 6f 8a 4b 3c 79 5b 87 3d 8e b2 ab bd
       0.053022258 0.012423142 0.06609244 -0.08383666
000090 45 b9 f3 3c 6a 66 6e 3b 1f 71 01 bd 31 21 91 be
       0.02975143 0.0036376962 -0.03160202 -0.28345636
0000a0 54 fe af 3c d5 98 03 be 76 e1 92 bd f2 96 d6 3d
       0.021483578 -0.1285127 -0.071719095 0.10478009
0000b0 75 05 0a be cc 3f 87 3d 6e 7a a2 3d 5d 14 a3 3d
       -0.13478644 0.06603965 0.07933508 0.07962868
0000c0 a4 b3 b2 3d ef db 32 bc 58 0c 42 3d cf 3a 35 3e
       0.0872567 -0.010916694 0.047375053 0.17698215
0000d0 66 83 0e 3d 6c 8f 97 3d b3 e3 c6 3d 30 8f 8f bd
       0.03479328 0.074004024 0.09711399 -0.07009733
0000e0 cd 1c 1d bc 57 1c 97 bd 92 73 ca bc 3f 44 0d 3e
       -0.009589386 -0.07378452 -0.024713311 0.13795565
0000f0 44 d7 d2 3c 51 b3 0c 3e 34 b4 17 be 6e 28 21 3d
       0.025737412 0.13740279 -0.14814836 0.039345197
000100 9e 31 83 3d e3 1e 0b be 0c 36 9f bc 01 ac 05 3e
       0.06405948 -0.13586001 -0.019434951 0.13053896
000110 99 7b a4 3d 8e a4 fc 3d 9e f9 f7 3d db ef 2a bd
       0.08031387 0.12336074 0.121081576 -0.04173265
000120 de 31 14 3e 51 cc be ba d3 8f 44 bd 84 4c e0 bd
       0.14472148 -0.0014556741 -0.047988724 -0.10952094
000130 04 df 8c 3d a8 00 12 3e fe 14 a1 bd 1c f6 32 be
       0.06878474 0.14258063 -0.07865332 -0.17476696
000140 77 91 20 bd d2 d5 03 3b af e4 cd 3b c5 6c ac 3d
       -0.039201226 0.002011646 0.0062833647 0.08419184
000150 a7 34 aa 3d 98 35 06 be 1f 5c 1f 3c 07 d3 3d bc
       0.08310824 -0.13106382 0.009726553 -0.011585957
000160 1b 56 ef bd 61 99 1c be 6d 83 82 3d 83 a3 5f bd
       -0.11686345 -0.15292884 0.06372724 -0.054599296
000170 f0 ea b2 bd ba 44 11 3e 26 b9 57 3d 8e fb fb 3a
       -0.08736217 0.14186373 0.052666806 0.0019224749
000180 d0 8b 98 3c 78 72 37 bc b3 c7 54 3d 52 94 ac bc
       0.018621355 -0.011196725 0.05194826 -0.021066818
000190 aa 21 94 bd 93 35 f4 3d e3 1c 1e 3d a3 ce 31 3e
       -0.072329834 0.11924281 0.038601767 0.17363982
0001a0 ea c2 2f bd 86 15 4d 3c c3 3b 1f 3d 37 26 1d 3d
       -0.042910494 0.012517339 0.038875353 0.038366523
0001b0 08 2f 33 3e 50 84 93 3d 1a d7 69 bd a5 8a cd bc
       0.1749841 0.07202971 -0.057089902 -0.025090525
0001c0 97 d0 17 bd ec b1 3a 3c 05 49 0d be 31 44 80 3d
       -0.03706416 0.011394959 -0.13797386 0.062630065
0001d0 34 7f 01 bd c8 99 43 bd cd 3f 9e 3d e7 83 23 3d
       -0.03161545 -0.04775408 0.07727013 0.039920714
0001e0 cb f7 e8 bd 0a 8d 3e bd 46 35 b3 3b 77 86 95 3d
       -0.11375388 -0.046521224 0.005468997 0.07301038
0001f0 c0 4a 7c 3c 42 64 09 bd d5 35 5e be 43 10 a3 bc
       0.015398681 -0.03354288 -0.21700223 -0.019905215
000200 9b 1f fc 3d e7 2e d4 3b a2 84 2a 3e b0 bd 5b 3d
       0.12310716 0.0064753178 0.16652158 0.053647697
000210 60 cd f0 3d 6d 8f b4 3c d1 b7 89 bc 98 2f 0f 3d
       0.11757922 0.022041047 -0.016811283 0.0349575
000220 42 4d 79 bc b2 a9 a5 bd a2 34 83 3d 11 e5 21 bc
       -0.015216174 -0.080890074 0.06406523 -0.009881274
000230 7b 3e 98 3c cf 14 76 3b 18 d1 6d bd 49 48 33 3e
       0.01858448 0.0037549024 -0.058060735 0.17508043
000240 84 c8 87 bd e8 56 44 bd 3e 9c 15 3d d4 c8 a9 3d
       -0.06630042 -0.047934443 0.036525957 0.08290258
000250 a7 5f 10 be f9 ab 99 3d e6 56 cb 3d a5 81 f5 bd
       -0.14098988 0.07503504 0.09928684 -0.11987618
000260 b1 88 cb bc b3 60 32 3b 9b e5 5e 3c 16 aa b1 3d
       -0.024845453 0.0027218282 0.013604547 0.086750194
000270 15 65 7a 3d 2f e2 66 bd 35 19 29 3d 24 ef 98 bc
       0.061131556 -0.05636805 0.041283805 -0.018668719
000280 ac 50 96 3d 73 8b e4 3c 67 03 d6 3d bd a2 25 be
       0.07339606 0.027898526 0.10449868 -0.16175361
000290 83 60 10 bd 3e 70 00 bd 34 1b e0 bd 39 3f 9c 3d
       -0.03524829 -0.031357042 -0.109426886 0.07629246
0002a0 9e 3f 13 3e 99 44 6f bc ba 26 0d bd 1c e0 80 bc
       0.14379737 -0.014603757 -0.03446076 -0.015731864
0002b0 9b 7d 2c 3e 0a 5d d9 bb 15 8f 12 3e fc eb 65 3d
       0.1684479 -0.0066334056 0.14312394 0.056133255
0002c0 f4 0f 83 3e 64 63 84 3d 88 b1 4a bd 7d d2 50 bc
       0.2559811 0.0646427 -0.049485713 -0.012745497
0002d0 13 51 f2 bd 59 ec a8 bd 2a 09 a3 bd 0f 3e b7 3c
       -0.1183187 -0.08248205 -0.07960732 0.022368459
0002e0 0c 4e 80 bd 80 c7 e3 3d 88 89 22 3e c7 3e 3d be
       -0.06264886 0.11122036 0.15872777 -0.18480979
0002f0 a2 7a d5 3d ee f5 95 bd 98 12 1a be 59 8c ee bd
       0.10423781 -0.07322298 -0.15046155 -0.11647863
000300 98 fd a6 bd c0 d2 b2 3d 28 3f 62 bd 3b 27 64 bb
       -0.08153838 0.087316036 -0.05523601 -0.0034813422
000310 56 b0 a0 3d 57 d1 25 be 67 5d 77 3d c6 79 d8 3d
       0.078461334 -0.16193138 0.06039181 0.105701014
000320 48 89 40 3e bc 0d b8 3d 83 55 6e 3d 0b 75 5b bd
       0.18802369 0.089869946 0.05818702 -0.053578418
000330 da a6 8d bd ac d6 fc bc 47 78 17 bd 7b 51 2d bd
       -0.0691659 -0.030864082 -0.03697994 -0.042314034
000340 df 0d 92 3d ec b0 e0 bd a5 0e 13 3d 1d 76 f2 3d
       0.07131552 -0.10971245 0.035902638 0.118389346
000350 65 bb 01 be 1b 1f 1c bd 31 0e 0c bb 1f a7 04 be
       -0.12669142 -0.038115602 -0.0021370763 -0.12954377
000360 ea ac af 3b ca 03 07 3e bd 27 df bd 67 2e 22 be
       0.005361189 0.13185039 -0.10896251 -0.15838014
000370 a1 e4 25 bd c6 47 12 3e 5c 1c ba 3d 42 95 d1 3d
       -0.04050124 0.14285192 0.0908744 0.10233547
000380 e5 5a 5d bd d0 af 60 bd 1a cc e9 3d 5d 3b e9 3d
       -0.054041762 -0.054855168 0.114158824 0.11388276
000390 42 05 1a 3d bc 83 0d bd ec ae ae 3d 53 65 5d 3d
       0.03760267 -0.03454946 0.085294574 0.05405171
0003a0 c5 1e 1b bd 53 46 87 3d 44 33 c5 3d 27 87 a4 bd
       -0.03787114 0.0660521 0.09628919 -0.08033591
0003b0 6f b0 33 3d f9 9e 25 bd 15 de 9a 3d 76 b2 42 3c
       0.043869432 -0.04043481 0.0756189 0.011883369
0003c0 f3 7d 87 bb 2d 2b 8a 3c e8 16 77 3d bb 29 ee 3d
       -0.0041348874 0.016866291 0.06032458 0.11629053
0003d0 b8 ba e3 bc 9a 36 b6 3d 30 5d 51 3c d5 16 e8 bd
       -0.027798995 0.08897133 0.012778565 -0.1133248
0003e0 8f 52 83 3c a2 a1 d5 bd fc 2c c4 3d 0c 8b 86 3d
       0.016030578 -0.1043122 0.095788926 0.0656949
0003f0 c6 2a c7 3c 5d 83 28 3e 1e 06 41 bd 06 8c 02 bd
       0.024312388 0.16456361 -0.047124974 -0.031871818

network_body._body_endoder.seq_layers.2.bias f4 [128]
000000 81 a6 94 3c 28 eb 57 3b 5d 56 ce 3c 67 c3 85 3c
       0.018145801 0.003294656 0.025187666 0.016328527
000010 46 51 a3 3c 97 e8 67 3c f0 86 c6 3b 52 e5 41 3c
       0.019936215 0.014154575 0.0060585663 0.011834459
000020 5a 69 3d 3c 4f e1 ad 3c 18 4a d8 3c b1 d0 a7 ba
       0.011560762 0.0212256 0.026402518 -0.0012803284
000030 46 af 75 3a d5 6e f6 3b a4 aa 33 3c b6 9b 0c bb
       0.0009372126 0.0075205364 0.010965977 -0.0021455116
000040 d2 e5 62 3b ea a6 5e 3c 13 57 c6 3b 16 78 42 3c
       0.0034621847 0.0135896 0.0060528605 0.011869451
000050 4f 14 54 3b 62 21 af 37 e8 1a 99 3c 94 51 86 3c
       0.0032360738 2.087717e-05 0.018689588 0.016396321
000060 f1 ed af 3b e0 5d a8 3a cf 49 01 3c f9 d6 ee 3b
       0.005368941 0.001284536 0.0078911325 0.0072888103
000070 c7 86 3a 3c b3 fd 4f bc d0 27 20 3c 14 b3 ae 3b
       0.0113846725 -0.012694764 0.009775117 0.0053314064
000080 60 4e 94 3c 7b 26 f7 ba 71 2d 14 3c 97 95 f8 3a
       0.018103778 -0.0018856073 0.009044037 0.001896548
000090 0b f2 8b 3c b7 3b 56 3c 45 29 e0 3b 71 6c ae 3b
       0.017083189 0.013075761 0.006840857 0.005322986
0000a0 9a 27 28 3c d0 a5 83 bc b3 be 2c 3a 13 f9 39 3c
       0.010263348 -0.016070276 0.00065896957 0.011350888
0000b0 35 08 3c 3b ea 9b f9 3b 28 73 c9 3b 35 20 a6 3b
       0.0028691415 0.0076174634 0.006147761 0.0050697573
0000c0 69 b8 02 3b a6 1f 9e 3b 31 fa f4 3b b6 7f 9b 3c
       0.0019946343 0.00482555 0.007476114 0.018981796
0000d0 f6 ff 29 bc c9 9b 8f bb a3 f2 2e 3c 6e a7 55 bc
       -0.010375967 -0.0043825847 0.010677966 -0.013040407
0000e0 e1 93 8d 3c f9 9e 23 bc d9 1a ae 3c b5 ef cb bb
       0.017282428 -0.0099866325 0.021253036 -0.0062236437
0000f0 16 e8 79 3c ef ae 84 3a b5 16 04 3b 95 b1 38 3c
       0.0152530875 0.0010122935 0.0020155136 0.011272808
000100 6e 8d 41 3c f6 79 c0 39 bf 28 83 3b 44 67 67 39
       0.011813505 0.00036711962 0.00400266 0.00022068346
000110 1e cd 22 3b c8 7e 1e 3c 5f cb 8f 3c e4 e8 d1 3c
       0.0024841498 0.009673782 0.01755303 0.025623746
000120 b9 4b 27 3c 2b e0 4c 3c f3 31 2b 3c 98 1d 1a ba
       0.010210925 0.012504618 0.010448921 -0.00058790436
000130 4a 13 5d bb d1 c2 b0 bb 88 a3 80 3c a7 af 41 3c
       -0.003373342 -0.0053943177 0.015702978 0.011821664
000140 0c 91 0f 3c 74 5b 5a 3c 50 f4 76 3c 50 9b 8b 3c
       0.008762609 0.013327468 0.015072897 0.017041832
000150 eb 22 38 3c b1 1e 8a bb 65 04 83 bb 08 b2 ec 3b
       0.011238794 -0.0042150845 -0.0039983266 0.0072233714
000160 78 a8 f9 3b 7c d5 08 bb bf 4e 23 3c 8b 48 3c 3c
       0.00761896 -0.00208792 0.009967505 0.011491905
000170 c2 5d 70 3c 5e fb 55 3c ae 2a 98 bc cf 9b a9 3c
       0.014670791 0.013060419 -0.018575039 0.020704178
000180 a7 72 5c 3b 62 9d 90 3b 94 eb 77 3c 4f 62 18 bc
       0.0033637674 0.0044132927 0.01513185 -0.009300782
000190 0a 93 08 3b 9d 24 f0 3c 05 d6 33 3c cf 90 0b 3c
       0.0020839595 0.029314334 0.010976319 0.008518412
0001a0 0e da 00 3b 5e fd 73 3b 38 45 2a 3c 8d e4 05 3c
       0.001966122 0.0037229876 0.01039248 0.0081721665
0001b0 af 41 ad 3b c4 2a a6 3c 6a d7 a2 bb fd 72 81 3b
       0.005287371 0.020284064 -0.004969527 0.0039504752
0001c0 82 dc 25 3c f7 c8 53 ba 74 80 28 bb d1 65 6a 3b
       0.010123374 -0.00080789573 -0.002571133 0.0035766254
0001d0 c3 e3 6f 3c 7e 6d 2f 3c 82 1e 2e 3c 87 f4 6e 3c
       0.014641705 0.010707257 0.010627391 0.014584667
0001e0 83 be 8c 3c 14 d6 95 3c 6e 33 12 bb 08 a3 2b 3c
       0.017180687 0.018290557 -0.0022308487 0.010475881
0001f0 6c 4c b8 3c 6b f6 6e 3b 20 35 c7 3b 19 c6 59 3c
       0.022497378 0.0036462795 0.006079331 0.013291859

action_model._discrete_distribution.branches.0.weight f4 [5, 128]
000000 a2 64 b4 bc 57 cd f9 bb bb ce c8 bc 95 b4 1b bd
       -0.022020642 -0.0076233554 -0.02451264 -0.038014013
000010 b6 87 42 3c e7 8f cd 3c f6 ea 85 3c f3 19 ac 3b
       0.011873176 0.025093032 0.01634739 0.005252117
000020 b4 fa 22 3c 43 fc c3 bb 8a 98 a3 3c 54 31 d2 bb
       0.009947468 -0.0059809997 0.019970197 -0.006414572
000030 74 f3 d9 3c da ec 29 3c 79 6e 6d 3c f8 07 a0 3b
       0.026605345 0.010371411 0.014491671 0.0048837624
000040 a4 78 ab 3c fc cd 23 bc 91 fc 36 bc 2d d4 75 bc
       0.02093155 -0.009997841 -0.011168615 -0.0150042
000050 4e 09 73 3c c9 96 44 3c a4 52 c3 3a c0 3d 4c 3c
       0.014833761 0.011998841 0.0014901948 0.012465894
000060 a8 ea a2 3b 77 c2 a3 3c f3 33 01 bc 4d c7 03 bd
       0.004971821 0.019990189 -0.007885921 -0.03217249
000070 7b 59 01 bb 42 b6 20 3d 57 ae 26 bd b5 36 b1 bc
       -0.0019737172 0.039236315 -0.040693607 -0.021632532
000080 74 aa ac 3c 9c 5c bb 3c 4b 6c 76 b9 7f ca 83 bc
       0.021077372 0.022871308 -0.0002350073 -0.016087769
000090 93 a6 b7 bb 99 57 ff bc 17 d6 fd 3c 14 87 60 3c
       -0.005604574 -0.0311697 0.030985875 0.01370408
0000a0 a9 5b 80 bc 04 d9 b7 3b 09 57 cc 3b e4 34 6e bb
       -0.015668707 0.005610587 0.0062359613 -0.0036347443
0000b0 76 c0 13 3b 7a e9 8f bc 67 95 c6 3c 0b c1 55 bc
       0.0022545136 -0.017567385 0.024241162 -0.013046513
0000c0 a4 b0 af 3a 24 b2 b8 bc 8a e6 0d 3d 23 1a f2 bb
       0.0013404083 -0.022545882 0.034643687 -0.0073883696
0000d0 1c 4b ad bc 57 66 d7 bb 70 5f fd bc 48 41 c1 bb
       -0.021153979 -0.006573479 -0.030929297 -0.0058976747
0000e0 87 9c 95 3b 07 7e 18 3c 7f a0 bf bc 1b 62 26 bc
       0.0045657787 0.009307391 -0.02339196 -0.010155226
0000f0 9c 62 34 3c 28 6d 85 bc c5 05 d7 3c eb 86 ed bc
       0.011009838 -0.016287401 0.026247868 -0.028994998
000100 c4 c4 c8 ba b4 4e 5d 39 10 57 ee bb 62 e6 16 bd
       -0.001531743 0.00021105522 -0.0072735623 -0.036840804
000110 6f 42 bc bc c4 34 ba bc fc 17 8c bb 98 4d 8c bc
       -0.022980897 -0.022730239 -0.00427532 -0.017126843
000120 90 ac c9 38 88 42 b7 3c 8d b3 71 3b 2c 6e 9e bb
       9.616569e-05 0.022370592 0.0036880702 -0.004834911
000130 b5 26 07 bb 4d 0c 8b 3c 82 19 ca ba 90 68 89 bd
       -0.0020622436 0.016973639 -0.0015418979 -0.06709397
000140 b2 cf ac 3c 08 e4 a3 bc f9 84 4e 3c f8 86 86 bb
       0.02109513 -0.020006195 0.012604945 -0.004105445
000150 3a 4b 0d 3d 4a 63 ac bc a5 4e bb b9 ce 30 ec bc
       0.03449557 -0.021043438 -0.00035726014 -0.028831866
000160 51 a8 2d 3c 6f 8c 34 ba e8 21 26 bd cf bf d7 bc
       0.010599212 -0.00068873813 -0.04055968 -0.026336579
000170 dd 18 7b 3b 31 80 ad 3a 39 33 06 bd 7e e9 14 bd
       0.003831438 0.0013237057 -0.032763693 -0.036355488
000180 31 25 93 3c ed ee 41 3c fa 60 63 bc f6 ce b8 bc
       0.01796207 0.0118367495 -0.0138781015 -0.022559624
000190 68 7b 9e 3c 14 da 85 3c 47 1e d0 bb 57 6e 12 bd
       0.019345954 0.01633934 -0.0063512656 -0.03574976
0001a0 eb 75 cb bc 7e a1 14 3d d3 73 a3 3a 9f bb e8 bc
       -0.024836501 0.036286823 0.0012470431 -0.028409777
0001b0 a8 9c da 3c c3 09 d3 3c 07 0f 09 bc 63 43 dc 3c
       0.026686028 0.02576149 -0.008365399 0.026887601
0001c0 0d 6b 66 bc 0a fb 7f bb 4a 1f a7 ba 3d 60 8e bc
       -0.014063609 -0.0039059543 -0.0012750414 -0.017379874
0001d0 ea 11 38 bc a4 bb 1e bc c4 8e 9c bc 0f 4f 8e bc
       -0.01123474 -0.009688292 -0.019111045 -0.017371682
0001e0 be 8c 10 bd 53 1a 59 bd 76 13 53 3d b6 d0 c1 bb
       -0.035290472 -0.05300362 0.05153223 -0.005914773
0001f0 e2 cc 75 bc e3 a7 98 bc 50 7e d7 3c 9f 5c 29 bd
       -0.015002461 -0.018634742 0.026305348 -0.041348096
000200 14 70 9c 3c 0f cb 8b 3d 67 3e 8c 3b 9f d0 3d bd
       0.019096412 0.0682584 0.0042799 -0.046341535
000210 0d f9 94 3c a0 48 3d bd 4f 85 75 bc 5b 37 17 3d
       0.018185163 -0.04621184 -0.0149853965 0.036918025
000220 51 1c a1 bd cd 26 7f bc 2f ea 16 bd b3 66 c3 3c
       -0.07866729 -0.015573216 -0.03684443 0.023852682
000230 8f 36 07 bd 2d a2 5a 3c 50 6a 5b 3b 34 ce b0 3d
       -0.033011016 0.01334433 0.0033480115 0.0863308
000240 7c f0 14 bd 76 ce 1d bd 87 ab 05 bd 38 82 f2 bc
       -0.036362156 -0.038526975 -0.032634284 -0.029603109
000250 87 05 45 bc 44 8f b5 bd 88 29 07 bd 63 9a bb 3d
       -0.012025244 -0.088652164 -0.03299859 0.09160306
000260 d2 de 2a bd 19 03 2b 3d 8b 35 5b 3c 50 80 84 3a
       -0.041716404 0.041751 0.013379465 0.0010109041
000270 ee 87 2b bd b2 88 16 3d b5 9b 26 3d 56 e8 53 3d
       -0.04187768 0.036751457 0.040675838 0.051735245
000280 9d 01 c1 3d cb 83 3e bd d6 c7 86 3c 4d 0e d2 3c
       0.09424136 -0.046512406 0.016452711 0.025641585
000290 4b 78 90 3d 8d a9 04 bd 6c ed 7c bd 81 82 49 bd
       0.07054194 -0.03238826 -0.06174986 -0.049196724
0002a0 6c 84 77 3d fa 77 48 3d ca 5c e4 bc fe 28 ea bd
       0.06042902 0.048942544 -0.027876277 -0.114336
0002b0 19 a3 95 3b 26 f4 23 bc dc a5 de bc 72 c5 0d 3c
       0.004566562 -0.01000694 -0.027178697 0.008653032
0002c0 c6 43 bf 3c 0b 17 71 3c d8 71 1b bd b4 5b b3 bc
       0.023347747 0.0147149665 -0.037950367 -0.021894313
0002d0 e5 37 20 bd 48 89 26 bb b8 0c 5d bd f8 8e 98 bd
       -0.039115805 -0.0025411416 -0.053967208 -0.07449144
0002e0 e7 78 18 bd a8 ec 40 3d 9c 1a 95 3d 3e 97 07 bd
       -0.037224676 0.047100693 0.07280466 -0.03310322
0002f0 b3 07 cb bc 11 90 eb bc 57 51 71 bd 43 52 08 bd
       -0.024783945 -0.02875522 -0.058915462 -0.033281576
000300 b1 5a 75 bd d9 01 2e 3d 3a 64 48 3d b6 22 06 3d
       -0.059900943 0.04248223 0.04892371 0.032747947
000310 42 51 3c bd d5 ff 77 3d 0e cc 8d bd 52 8c 75 bd
       -0.04597593 0.060546715 -0.06923686 -0.059948273
000320 fb 4c 47 bd dd 7e ac bc 3b 60 45 bd a9 45 60 bd
       -0.0486574 -0.021056587 -0.048187476 -0.054753933
000330 f9 ca e9 bc 4d b2 d9 3c 21 fe 75 bd 36 65 3e bd
       -0.028539168 0.026574278 -0.06005681 -0.04648324
000340 d0 ce 28 bd d0 e8 3e bc f8 48 09 3d 6e b0 18 bd
       -0.041212857 -0.0116521865 0.033516854 -0.03727763
000350 eb 6a 5e bd 06 dc 1d 3d d4 97 93 bc f3 60 2d 3d
       -0.054301184 0.03853991 -0.018016733 0.042328786
000360 f0 1e 15 3d 4b e7 1f bd 60 0f 04 3d 86 df 6b 3b
       0.036406457 -0.039038938 0.032241225 0.0035991385
000370 d3 b3 1b 3d 77 39 13 3d 2d cd 93 3c c5 7d 9e 3d
       0.03801329 0.035943475 0.018042171 0.077388324
000380 81 6d 37 3d 52 b0 ff 3a a0 41 94 bd a4 b5 00 bd
       0.044782165 0.0019507504 -0.072390795 -0.031423226
000390 25 78 d0 bb e3 3d 5e bc 55 86 2b 3d 1b 37 5a 3d
       -0.0063619786 -0.01356456 0.041876156 0.05327521
0003a0 92 41 39 bd 0a 34 0c bc f8 75 10 3d 0f c8 75 3c
       -0.04522855 -0.008557329 0.035268754 0.015001311
0003b0 a8 2a 8f bd b9 55 3a 3d 5d c7 cf ba c1 c2 6f 3d
       -0.06990558 0.045491908 -0.0015852262 0.05853534
0003c0 f1 97 15 3d cf fc eb bc f0 c4 5f 3d ff e2 07 3d
       0.036521856 -0.028807072 0.054631174 0.033175465
0003d0 33 3f 1f 3d 24 4e 70 3d bc d2 57 bb 50 5d 41 3d
       0.03887863 0.05866827 -0.0032932004 0.04720813
0003e0 5a f0 27 3d 46 47 00 bd 0f 10 95 3c c2 15 2d 3d
       0.0410007 -0.03131797 0.018196134 0.042257078
0003f0 99 3e 2b bb de 2f 96 bd c6 26 fa bb e2 25 9d 3c
       -0.002612984 -0.07333349 -0.0076340167 0.019183103

action_model._discrete_distribution.branches.0.bias f4 [5]
000000 32 1a 73 bc fd d9 37 bc a7 7d 9d 3c 01 8c ad 3b
       -0.014837788 -0.011221406 0.019224955 0.005296231
000010 b2 2a c1 3b
       0.0058949823

action_model._discrete_distribution.branches.1.weight f4 [1, 128]
000000 94 be 91 3b 20 76 7d 3c 88 b3 44 3c 0f 4e 19 3c
       0.0044477675 0.015470058 0.012005694 0.0093569895
000010 ef 83 8f bc 78 e6 40 3c 4f 8c cb 3b a6 40 14 3c
       -0.017518966 0.011773698 0.0062117944 0.0090486165
000020 fd fe 5d bc 3e 4d 26 3c 42 a7 a0 ba d0 57 d4 3b
       -0.0135495635 0.010150252 -0.0012256878 0.0064801946
000030 9f 65 dd 3a a7 14 0f bb 44 33 18 bb 83 da 2b 3a
       0.0016891247 -0.0021832378 -0.0023223916 0.0006555693
000040 ff 79 d5 3b ea a5 31 bc af 31 31 bc d3 67 64 3c
       0.006514787 -0.01084278 -0.010815068 0.013940769
000050 bc a9 b3 39 87 f7 3e 3b d8 9f dd 3b 33 ba 3e 3c
       0.00034268002 0.0029139237 0.0067634396 0.011641073
000060 ac 38 27 3c 23 c7 f3 39 5f 26 20 3c 32 91 cf 3b
       0.010206383 0.0004649694 0.009774773 0.0063344473
000070 c3 df c4 bb 9f 30 d7 bb 98 99 32 bb da 22 92 bc
       -0.00600812 -0.0065670754 -0.0027252194 -0.017838884
000080 43 12 42 bb 2a fe e3 bb 0e bd 84 bb 80 a5 87 bc
       -0.0029612936 -0.006957789 -0.0040508574 -0.016558409
000090 07 20 8f ba 5b cb 58 bc e3 9e 3d bb fb 30 0f 3a
       -0.0010919579 -0.0132320775 -0.0028933815 0.0005462316
0000a0 07 b7 3b bc 68 6d e9 bb 01 38 81 3c be cb 9d 3c
       -0.011457211 -0.007123638 0.015773775 0.01926219
0000b0 07 dd ef 3b c4 b0 1d 3b e1 74 ad 3b 50 fd 0e bc
       0.0073200497 0.002406166 0.005293474 -0.008727387
0000c0 d2 79 ff 3b 4a 73 0d 3c ba 3f a3 bc 99 3a 01 bc
       0.0077965045 0.008633444 -0.019927848 -0.007887506
0000d0 62 80 09 bc f8 0a d7 ba 93 70 5d 3a ff c9 87 39
       -0.008392425 -0.0016406467 0.0008447256 0.00025899705
0000e0 20 4d 5e bc c1 97 82 3b 93 2c 66 3b 13 1e d6 3b
       -0.013568193 0.0039853756 0.0035121783 0.006534347
0000f0 8f fd b5 bb a7 9c 49 bb 52 c0 04 3b f0 14 ce ba
       -0.005553908 -0.0030763538 0.0020256233 -0.0015722793
000100 d2 ad 3f bb d9 a9 25 bb 13 92 e7 ba 19 27 17 bc
       -0.0029247892 -0.002527824 -0.0017667435 -0.00922563
000110 0b 19 f9 3a 67 bc 16 bc 7b db 89 3b 23 b8 5d 39
       0.0019004656 -0.009200192 0.0042070723 0.00021144799
000120 d9 d8 96 3b 32 71 58 bc bb 2c 93 bc 1c 00 31 3c
       0.004603487 -0.013210582 -0.017965665 0.010803249
000130 84 50 0d 3b 27 15 82 bb d5 24 bb 3b 8a 65 fc bb
       0.0021562884 -0.0039698067 0.005711178 -0.007702534
000140 7f 18 75 3b 5e 29 13 3c ca d3 7d bb 00 c8 94 3a
       0.0037398634 0.008982031 -0.0038730972 0.0011351109
000150 00 1c 2a bb 03 d6 13 bc ca be 5b 3c 20 f9 3c bc
       -0.002595663 -0.009023192 0.013412187 -0.011534005
000160 cf 1e 66 3c 83 3e 20 3c 4b 87 7f 3c cd cd a5 3a
       0.014045431 0.009780529 0.015596221 0.0012649834
000170 0f 64 02 3b fa 65 6f bb aa 43 4c bc e3 48 f3 3a
       0.0019896065 -0.0036529289 -0.012467304 0.0018561151
000180 62 e4 a5 3b 77 69 f7 3b 0d d3 92 ba 1f 4a ce bb
       0.0050626257 0.007550414 -0.0011201814 -0.006295457
000190 63 29 28 ba b3 67 09 3c b0 5a 3e 3b dc 99 93 bb
       -0.00064148585 0.00838654 0.0029045753 -0.0045044255
0001a0 4f 3f 02 bc 2f 6e 34 3c 03 17 5d bc 1f 61 34 bc
       -0.007949664 0.011012598 -0.013494256 -0.011009484
0001b0 22 c9 4d bc 8b 3e 89 3b c5 bb ea ba d0 c8 69 3c
       -0.012560161 0.004188364 -0.0017908743 0.014269069
0001c0 73 f6 c7 3a d4 35 2c 3c 0f ed 87 bc 83 cc c3 bb
       0.0015255943 0.0105108805 -0.01659253 -0.0059753074
0001d0 17 7e 52 bc b2 1c b2 3b 6f 57 61 3c a7 00 10 3c
       -0.012847445 0.0054355497 0.013753756 0.008789218
0001e0 10 b6 6d 3b 4d 15 93 39 32 24 c0 3b 77 6c 39 3a
       0.0036271848 0.00028053895 0.00586369 0.00070733525
0001f0 d8 67 57 bc 3a 80 33 3a 7c 1f 06 3c 3a da c5 3c
       -0.013147317 0.00068474154 0.008186217 0.02415191

onnx::Div_118 f4 [44]
000000 77 60 ff 3e dc 9f 8a 3e d3 f9 fe 3e 0a ed b2 3e
       0.49878284 0.27075088 0.49799976 0.3494647
000010 61 8b ff 3e 70 52 97 3e af b4 fd 3e a1 ea b8 3e
       0.49911025 0.29555082 0.49551913 0.36116508
000020 17 9e ff 3e b3 69 9e 3e 71 b8 fc 3e 9e e7 b6 3e
       0.499253 0.30940017 0.49359468 0.35723585
000030 d9 dc ff 3e 73 64 8d 3e 97 b9 fd 3e 63 12 b9 3e
       0.4997318 0.276157 0.49555656 0.3614684
000040 ec c7 ff 3e 32 b2 97 3e fb fe fc 3e aa 7c b6 3e
       0.49957216 0.2962814 0.49413285 0.35641986
000050 9c 56 ff 3e 6f 1d 88 3e 46 6b f9 3e 33 6f b4 3e
       0.49870765 0.26584956 0.48714656 0.35241088
000060 2d 5f fe 3e 73 62 91 3e 41 7a ff 3e be ca b7 3e
       0.49681988 0.28395423 0.4989796 0.35896868
000070 19 7c fa 3e 00 d1 84 3e 7c a2 ef 3e 84 f5 ab 3e
       0.48922804 0.25940704 0.46803653 0.3358575
000080 06 de ff 3e 1c a8 8b 3e c5 dc fd 3e f2 fa b2 3e
       0.49974078 0.27276695 0.49582496 0.3495708
000090 de e7 fa 3e bc 51 83 3e 82 b4 f0 3e 28 07 ac 3e
       0.49005026 0.25648296 0.47012717 0.3359921
0000a0 16 f0 ff 3e c4 49 89 3e 32 e0 fb 3e 75 cd ad 3e
       0.4998786 0.2681409 0.49194485 0.33945814

onnx::Div_121 f4 [24]
000000 ba 62 97 40 ab 48 17 3e b0 52 8c 40 7a 20 67 40
       4.7308016 0.14773814 4.3850937 3.6113572
000010 08 56 16 3e 67 b0 81 40 f1 3e 7c 3b 45 2e dd 3b
       0.14681256 4.0527835 0.0038489664 0.0067499005
000020 06 7e 99 40 d2 a8 ef 3d 98 1f 8f 40 89 fb 6c 40
       4.7966337 0.11702122 4.4726067 3.7028525
000030 f3 f3 ec 3d 8d ec 83 40 44 71 7d 3b 5b bf df 3b
       0.11569967 4.122626 0.0038672248 0.0068282313
000040 df 7f 9b 40 6a 0f 90 3d a0 e6 91 40 d1 37 75 40
       4.8593593 0.0703419 4.5594025 3.8315318
000050 fa 82 8e 3d b0 38 86 40 1d a2 7e 3b f6 48 e2 3b
       0.069585755 4.19442 0.0038853951 0.0069056703

onnx::LSTM_139 f4 [1, 512, 128]
000000 79 35 a8 3c fb f2 da 3c f0 8f bd 3d 98 43 99 bd
       0.02053331 0.02672719 0.092559695 -0.074835956
000010 9f 78 70 bc 7a d3 b9 bc 5d 33 08 bd 8f 89 99 3a
       -0.014677196 -0.022683848 -0.03325211 0.0011713969
000020 13 fb fc bc 53 bd 0f be 64 16 08 3c a6 2d 15 be
       -0.03088144 -0.14037065 0.00830612 -0.14568195
000030 bb 0c dd bc 3c de 35 3e 19 88 00 3e db 8a 52 3d
       -0.02698361 0.17760557 0.12551917 0.051401954
000040 3a 99 16 bd 32 3d 06 3c 7c fd b8 bb b3 a9 06 3d
       -0.036767222 0.008193301 -0.005645452 0.03287668
000050 39 1c 90 bb 24 d7 bb 3d c1 04 05 3e 9e fe c5 3d
       -0.0043978957 0.09171894 0.12990095 0.09667705
000060 8f ae dd 3d 82 a2 30 bd a9 7c 54 3c ca a7 08 3e
       0.1082431 -0.04312373 0.012969174 0.13345256
000070 8c 26 05 39 1c ea e4 3d d2 6d 87 3d 60 b2 1c 3e
       0.00012698228 0.11177465 0.066127434 0.1530242
000080 ca 0c 64 bd a0 b3 04 be 0c c0 e6 bc 2a cd a9 bd
       -0.05567626 -0.12959146 -0.028167747 -0.08291085
000090 a5 2e 0b 3e f7 18 00 3e 0b 46 96 3d ff 17 0b be
       0.13592012 0.12509523 0.073375784 -0.13583373
0000a0 89 e0 39 bd 40 c3 35 bd 16 db 96 3b c1 dc 22 3d
       -0.04538015 -0.044375658 0.004603754 0.03976131
0000b0 ad 8e 12 3e 40 e3 a8 bd 67 d9 09 3d 0e 32 ee 3a
       0.14312239 -0.082464695 0.033654597 0.0018172876
0000c0 cd f4 0b 3d 29 af eb 3d 16 60 d2 3c c8 af ee 3d
       0.034169007 0.115080185 0.025680583 0.11654621
0000d0 db e3 bc bd 59 07 1f 3d 2c 93 fe bc b9 7b 9b bc
       -0.092231475 0.038825367 -0.031076036 -0.018979894
0000e0 e7 9e 14 be 31 e7 fc 3c 2b 9b 0f be 4b 3a f4 3d
       -0.14513741 0.03087196 -0.14024036 0.11925181
0000f0 9d 14 20 3d 3c bf d2 bd 58 d5 a1 bd 4e 31 59 bc
       0.03908216 -0.10290381 -0.0790202 -0.013256384
000100 42 ea 82 bc 02 6b df bd 6c bc 53 bd b8 5d 1d be
       -0.015980843 -0.10909082 -0.051693365 -0.15367782
000110 77 94 e3 bd 05 ca 8a bc 35 53 11 3e 7c e6 07 3e
       -0.11112302 -0.016942034 0.14191897 0.13271517
000120 d4 71 e2 3c 57 0c 04 bd 02 79 78 bd a6 b1 b2 bc
       0.027642168 -0.03223833 -0.060662277 -0.021813225
000130 94 87 c9 bd 71 48 0e bd 8e 82 05 be 2b a7 33 bd
       -0.098403126 -0.034737054 -0.13038084 -0.043860596
000140 4e 74 c2 3d 38 b5 24 be 1e 27 e1 3d 55 df 8b bd
       0.094948396 -0.16084754 0.10993789 -0.068297066
000150 82 b8 ff bc 72 bb e6 bd 84 69 c3 3d 89 00 b7 bd
       -0.03121591 -0.11266221 0.0954161 -0.08935649
000160 0a 2f 0d be cf e6 17 be 7d 77 ad 3d 25 fc c8 bc
       -0.13787475 -0.1483414 0.08470056 -0.024534294
000170 4f 40 fc bd 66 d9 ed bd 8d 71 3b 3d 3d 02 12 be
       -0.123169534 -0.11613731 0.045762587 -0.14258666
000180 7e d1 74 3c df ca bb bd 4b 0b b1 bd 29 54 08 be
       0.014942525 -0.09169554 -0.08644732 -0.13313355
000190 b8 ec cf 3d 3a 2b 12 3d a6 59 c4 3d f0 4f 25 3d
       0.101525724 0.035685755 0.095874116 0.040359437
0001a0 7a d1 1a 3e 93 ea d6 3c fc 05 bf bd 82 7e 1e 3e
       0.15118971 0.0262349 -0.09327313 0.15477946
0001b0 85 d3 9f ba e2 89 28 3d a0 c7 29 be c2 a3 30 bd
       -0.0012193775 0.04114712 -0.16580057 -0.04312492
0001c0 24 c3 58 3d 5d cd aa 3d dc a2 07 bd 1b 2b a0 3c
       0.052920476 0.08339951 -0.0331143 0.019551804
0001d0 8b 9a c4 3c f7 34 03 bd 4f 6a 86 bd 9f f6 ee bd
       0.023999473 -0.032032933 -0.065632455 -0.11668133
0001e0 f8 92 a0 bc a0 e2 ca 3d 2f 3c af 3d 37 28 fd bd
       -0.01960133 0.099065065 0.08556401 -0.12361186
0001f0 e5 45 12 be 8e f8 d9 bb 27 00 ab bd 92 2e 7a bb
       -0.14284475 -0.0066519445 -0.083496384 -0.003817473
000200 83 d5 8d bd ab 82 97 3b 95 a7 95 3d 9d 20 c5 bd
       -0.0692549 0.004623731 0.07307354 -0.09625361
000210 08 59 cf bd 59 6e 07 3e ae ba ef bb d2 06 ac 3c
       -0.10124403 0.13225688 -0.007315955 0.020999346
000220 d7 57 d0 3d 63 23 d2 3d 92 3a 86 3d c7 31 db 3d
       0.10173004 0.10260656 0.0655414 0.10702854
000230 f9 70 c7 3d d1 d2 75 3d 39 f8 9d 3d 2f 35 06 be
       0.09738345 0.060015503 0.0771336 -0.13106225
000240 7c 71 bf bd ce ed 2d 3b 3c b9 ea 3d e4 57 67 3d
       -0.09347817 0.0026539448 0.11461112 0.056480303
000250 9a 65 19 3d 71 b1 90 bd b6 f7 99 bd fc b7 23 bb
       0.03745041 -0.07065094 -0.0751795 -0.002498149
000260 bf 08 99 3c 78 14 90 bd f5 8d 05 bd 4d 4e 19 3e
       0.018680928 -0.07035154 -0.032606084 0.14971276
000270 ec f9 14 be dd 94 ce bd 92 09 be bd 77 0e 83 3d
       -0.14548463 -0.10086987 -0.09279169 0.06399243
000280 58 08 d7 bd c1 35 a8 3d b4 9e 7e 3d e9 20 0a 3d
       -0.10499638 0.08213378 0.06216307 0.03372279
000290 55 f7 c4 bc 7a 1d 9c 3b 86 93 bd bd 3b fe e5 bd
       -0.024043718 0.004764256 -0.092566535 -0.11230131
0002a0 92 72 d0 bd 8a 41 bf bd 23 b7 4c bd f4 20 61 bd
       -0.101781026 -0.093386725 -0.04997934 -0.054963067
0002b0 e5 32 06 be 93 e0 01 3d 84 e7 98 bd be fa 81 3d
       -0.13105352 0.03170831 -0.07466033 0.063466534
0002c0 84 09 dd 3d 5a 59 b5 bd 84 32 3e bd 1c 3b 89 bd
       0.107928306 -0.08854933 -0.046434894 -0.06700727
0002d0 30 cc 41 3c ba 17 da bd 27 6e 25 3e b6 0b cb bd
       0.011828467 -0.10649057 0.16155301 -0.09914343
0002e0 19 6e 46 3d 60 8a a1 3c f0 4a ed 3c cc 68 a1 bd
       0.04844484 0.019719303 0.028966397 -0.078813165
0002f0 13 15 af 3d b3 36 9c bd f9 59 a6 3d b0 37 f0 bd
       0.085489415 -0.076276205 0.0812263 -0.117293715
000300 05 1e 1a bd 74 07 c3 bc d2 a0 be bd 20 30 17 39
       -0.037626285 -0.023807265 -0.09308018 0.0001441841
000310 3b 3c 6d bd f1 4b ec 3d 74 5a cf bb de 3b df bd
       -0.05791877 0.11537922 -0.0063279215 -0.10900091
000320 11 3a 2c 3e 24 58 1d bd f7 5e 18 be ae 35 0e 3e
       0.16819026 -0.038414136 -0.14879976 0.13887665
000330 33 bf 3c 3d b5 d4 b9 3d 11 2e a8 3d 07 cb a5 bd
       0.04608078 0.09073774 0.082119115 -0.08095365
000340 c7 db 54 bd 3e dd fa 3d 16 3d 44 bd e9 ed d4 bd
       -0.05196741 0.1224923 -0.04790982 -0.1039694
000350 b4 ab ca 3d 2e 21 9d bd 66 8e 02 be 3d a3 97 bd
       0.09896031 -0.07672344 -0.12749633 -0.07404182
000360 3a 45 6a 3d ae 85 93 3d 92 80 e1 bd f9 7a 23 3e
       0.057194926 0.07203232 -0.11010851 0.15964879
000370 0f 10 9d bd c3 ac 3f 3c 67 fa 05 be 51 2f ae bd
       -0.076690786 0.011698904 -0.13083802 -0.08505119
000380 79 42 92 3d 1e 1a 81 3d e1 3f 85 bc e9 32 87 bd
       0.07141585 0.063038096 -0.016265811 -0.06601507
000390 89 7e 6a bd 0b 81 75 3d a9 46 0d 3d 52 96 28 3d
       -0.05724958 0.059937518 0.034491215 0.04115898
0003a0 f9 a9 b0 3d 77 a1 8b bd 93 43 76 3d 29 91 f9 ba
       0.0862617 -0.06817906 0.060123038 -0.0019040453
0003b0 3e a4 0c bd a8 61 fb bc 96 43 88 3c 5c 1b e3 3d
       -0.03433632 -0.030686215 0.01663379 0.11089203
0003c0 1e 5a 0a 3e b1 de f0 3c 1e 69 88 bd 11 c5 ef 3d
       0.1351094 0.029403063 -0.066606745 0.11707509
0003d0 0d 84 af bd 36 a7 d0 3d 2a a2 2c 3e aa 2c 58 3d
       -0.085701086 0.10188143 0.16858736 0.05277697
0003e0 43 ea 36 3e f0 26 6d 3d 30 50 c7 3d 4e 04 b2 3c
       0.17862801 0.05789846 0.097320914 0.021730568
0003f0 78 23 33 3d b5 52 b9 bd c2 c0 f0 bc 70 79 e2 bd
       0.043734998 -0.09048978 -0.02938879 -0.110583186

onnx::LSTM_140 f4 [1, 512, 128]
000000 e4 34 f5 3d 05 ef fc 3c a3 9e 73 bd 50 59 72 3d
       0.11972979 0.030875692 -0.05947746 0.059167206
000010 08 43 c5 3d e1 a8 66 bd 95 91 87 bd fc 47 a0 3d
       0.09631926 -0.0563134 -0.066195644 0.0782623
000020 24 0f 4e 3d 88 f4 a8 3d bd 5b e9 bc 26 59 12 3d
       0.050307408 0.08249766 -0.028486127 0.03572955
000030 64 79 d0 bd e5 72 c7 3d 7e 41 eb bc 7e 23 61 bd
       -0.101794034 0.09738711 -0.028717753 -0.05496549
000040 6d 36 d0 bd ed 1b a9 bc 06 a1 b2 bd a0 a7 1b be
       -0.10166631 -0.020643199 -0.08722119 -0.15200663
000050 b2 b1 de 3d 6b f3 e5 3c 6c 96 07 3c 6b 69 07 3b
       0.108737364 0.028070172 0.008275609 0.00206622
000060 5f 73 67 bd 28 fb b4 3d 36 31 09 be d0 74 c2 bd
       -0.05650651 0.08836967 -0.13397679 -0.094949365
000070 24 bb c1 bd 5d 17 b0 bc 01 8e 5b bd ba ea 8d 3d
       -0.09459522 -0.021495515 -0.053602222 0.06929536
000080 78 94 fb bd f0 03 dc bd 8e 24 24 3e 50 ea f6 bd
       -0.122841775 -0.107429385 0.1602957 -0.1205641
000090 d6 66 44 bd c7 be 4d bd 40 34 7c 3d f3 62 95 3d
       -0.047949634 -0.050230768 0.061573267 0.07294264
0000a0 4a 55 13 3e 9b 28 1a be e3 9d ce 3d 28 1e b4 bd
       0.14388004 -0.15054552 0.10088708 -0.08794814
0000b0 03 ab d0 bd 1f c3 a2 bd f5 95 19 3d e6 c4 1d be
       -0.10188868 -0.07947373 0.037496526 -0.15407142
0000c0 65 79 d8 bc d3 13 1e 3d b6 31 98 bc 31 12 9c bd
       -0.026425073 0.038593125 -0.018578392 -0.07620657
0000d0 37 c1 fd bd d8 03 c3 3d ce ad 89 bd b7 21 09 bd
       -0.123903684 0.095222175 -0.06722604 -0.03347942
0000e0 14 76 9a bd ce ed 1a 3e 03 4c 14 be 34 f9 ff bd
       -0.07542053 0.15129778 -0.14482121 -0.124987036
0000f0 17 e1 a4 3d 04 82 7f 3d ea 9c c7 3c b6 18 b4 bd
       0.08050745 0.062379852 0.024366815 -0.08793776
000100 c6 ed 88 bc 00 e9 d4 3d 85 f7 cf 3b f1 3a 8a 3b
       -0.016714942 0.10396004 0.0063466453 0.004218452
000110 62 fe d2 bd 5b a9 01 be f3 4a 22 3e 26 b7 0b bd
       -0.10302426 -0.1266226 0.15848903 -0.03411021
000120 35 a4 01 3e 93 fd 07 bd 0f cd 40 3d 8a 74 a8 3d
       0.12660296 -0.03320081 0.04707056 0.08225353
000130 5f be f9 bd 6a 32 0c 3e f3 c8 c1 3d f4 8f 97 bc
       -0.121945135 0.13691106 0.09462156 -0.01850126
000140 36 57 e3 bd 0d 5a 9d 3b ae d3 97 bd 48 0e 23 3e
       -0.111006185 0.0048019947 -0.074134216 0.15923417
000150 45 8d 04 bd 0d ce 02 be 7e fc ca 3d 57 1e 0f 3e
       -0.032361288 -0.12773915 0.0991144 0.13976417
000160 b2 b0 0b be c4 ac 83 bc 79 7c cc 3d df 37 6e 3c
       -0.13641623 -0.016073592 0.09984679 0.014539688
000170 cc f7 0a be f3 dd f9 3c 09 c6 71 bd b2 ae bf 3d
       -0.1357109 0.030501341 -0.05902675 0.09359492
000180 b2 d0 1c be c7 79 51 bd 9f 22 d9 3d af e5 ab 3c
       -0.15313986 -0.051141527 0.106023066 0.020983545
000190 7d a5 9e bd d3 98 93 bd 70 87 4c 3d 67 02 ef 3d
       -0.07746408 -0.07206883 0.04993385 0.1167038
0001a0 05 25 9e 3d 46 59 5e 3d 3a 81 89 bd 00 d1 8d bc
       0.07721905 0.054284357 -0.06714101 -0.017311573
0001b0 f5 00 b3 3d 4e ac 12 be e1 a7 6d bd 25 e0 bf 3d
       0.08740417 -0.14323542 -0.05802143 0.09368924
0001c0 08 41 31 bc 8d 2e 6e 3c 28 e6 87 bd e3 96 19 be
       -0.010818727 0.014537466 -0.06635696 -0.14998965
0001d0 ef 0d 85 3b 87 08 14 bc f7 44 77 bc 05 db f0 bd
       0.004060499 -0.009035236 -0.015092126 -0.11760525
0001e0 a7 c7 0b be 03 67 4b bd c2 f5 e9 bd fd 47 1e bd
       -0.1365038 -0.049658787 -0.11423828 -0.038642872
0001f0 60 03 9d bd dc c8 0f bd 7c f3 46 bc b1 61 b0 3c
       -0.07666659 -0.035103664 -0.012143012 0.021530958
000200 33 5d da bd 75 b5 1e bd fd 99 11 bd c1 4e 7c bd
       -0.106623076 -0.03874727 -0.035547245 -0.061598543
000210 42 95 e8 bd 34 ce 84 3d f4 23 2d be 73 47 ec bc
       -0.11356594 0.064846426 -0.16908246 -0.028842663
000220 af 2a 1f 3e ad c9 fa bd e6 f8 cc bc eb 6d a7 bd
       0.15543626 -0.12245498 -0.025021028 -0.08175262
000230 69 41 94 bd cb 0b 1a 3d ad 1f ff 3d 00 0c 5d bd
       -0.072390385 0.037608903 0.124572136 -0.053966522
000240 48 77 dc 3d 85 58 b5 3d 18 f3 ab 3d 53 83 55 bd
       0.107649386 0.088547744 0.08395976 -0.052127194
000250 fb 94 8a 3d 71 a3 4f 3d 66 b5 25 bd 80 71 4e 3d
       0.06766697 0.05069298 -0.0404562 0.05040121
000260 20 b2 88 3c cc b6 e4 ba 90 9c c1 3d f0 45 e8 bd
       0.0166865 -0.0017449497 0.0945369 -0.113414645
000270 70 24 c9 3d f3 c5 d5 bd f7 6d fc 3d cf bb 63 3d
       0.09821403 -0.104381464 0.12325662 0.05559903
000280 6f 1d 46 bd 8f cb 0f be f1 50 9c bc 46 e7 c8 bd
       -0.048367914 -0.14042495 -0.019081565 -0.09809737
000290 f8 4a 09 be 26 9e a3 bd 87 d3 97 3d 90 54 64 bc
       -0.13407505 -0.07989149 0.074133925 -0.013936177
0002a0 c3 1d 41 3c ee 7b 51 3d b5 df c6 bd a3 4c a0 bc
       0.011786881 0.05114358 -0.097106375 -0.019567793
0002b0 8f 9d ce 3d 0f bd df 3c 06 ce 83 bb e1 2e 26 bd
       0.10088646 0.02731183 -0.0040223626 -0.04057205
0002c0 3a 26 0b be 4b a8 d9 3d fa b1 a4 bd cd f2 e0 3d
       -0.13588801 0.106278025 -0.08041759 0.109838106
0002d0 57 63 78 3c 64 7c 07 bd 1c b5 bb bc bb 64 94 bc
       0.015160403 -0.033077613 -0.022913508 -0.018114438
0002e0 6e 15 ba 3c dc 0c 7a 3d bf 3b 45 3d 5c 80 cb bd
       0.022715297 0.06104742 0.04815268 -0.09936592
0002f0 61 0d ab 3d a9 de 0c 3e 9b 36 18 bd 46 16 bb bd
       0.08352161 0.13756813 -0.03716145 -0.09135108
000300 51 37 0a be ce 4c 00 bd 20 4a b4 3d bf e4 e3 bd
       -0.13497664 -0.031323247 0.08803201 -0.11127614
000310 70 db 2b 3e 42 33 72 3c f8 a5 e1 3d 13 83 15 3e
       0.16782928 0.014782729 0.11017984 0.14600782
000320 0f 5d 49 bd e0 56 70 bd c7 45 cd 3d cc 1e b3 bd
       -0.049161013 -0.0586766 0.100230746 -0.087461084
000330 56 22 1f 3e e3 5e 15 be 44 da 71 bd f8 22 8b 3d
       0.15540442 -0.14586978 -0.059046045 0.06793779
000340 fa 09 66 3c 77 f7 b4 bd 17 bc 8e 3d 08 d2 9b bd
       0.014040465 -0.08836263 0.06969469 -0.0760842
000350 50 7e 27 3d 4a 0f 24 3c d2 b1 aa 3d f6 67 2b 3e
       0.040891945 0.010013411 0.08334698 0.16738877
000360 3c a3 18 3e eb df 0a 3e b8 7b 8b 3d 51 4c 52 bc
       0.14906019 0.1356198 0.06810707 -0.012835578
000370 ad 9a 1f 3d b0 f3 aa bd d3 f4 3e bd 90 eb 4b 3b
       0.03896587 -0.08347261 -0.0466202 0.0031115748
000380 54 df d2 3b 9d 3e 12 3d 19 b0 de 3c fe e3 ff bd
       0.006435314 0.035704244 0.02718358 -0.12494658
000390 c0 fb 11 be c7 aa 3e be d1 95 13 3d 18 6a a5 3d
       -0.14256191 -0.18619834 0.036031548 0.080768764
0003a0 f7 2a 13 3e f7 fd 8c bd eb 08 04 be 79 53 00 bd
       0.14371859 -0.068843774 -0.12894027 -0.031329606
0003b0 f4 ef 1c 3e e5 b0 ef 3d 9c c7 86 3d ff 45 d4 bd
       0.1532591 0.11703662 0.06581041 -0.10364913
0003c0 8d 10 e9 bd ed df 92 3b 13 11 0f be 4f e8 10 bc
       -0.1138011 0.0044822604 -0.13971357 -0.008844449
0003d0 d1 a4 10 bc 7c ad ca bc f2 62 95 bd 9a 53 a7 bd
       -0.008828358 -0.024740927 -0.07294263 -0.081702426
0003e0 32 2a b1 3d d5 89 9c bd 1e bc ce bd ff 67 39 3d
       0.08650626 -0.07643477 -0.10094474 0.045265194
0003f0 ef cf 19 3b bb b9 27 3d 7e be ac bd 6a ac 04 3e
       0.0023469885 0.04094861 -0.08434771 0.12956396
