Machine-Learning-DRL/results/SeekerTrainingWall3/Seeker.onnx (onnx, 610983 bytes, 11 tensors)

discrete_act_size_vector f4 [1, 2]
00000000: 0000 8040 0000 803f
4.0 1.0

network_body._body_endoder.seq_layers.0.weight f4 [128, 8]
00000000: 36b4 10bf f4e3 ef3d 3f92 f43e bed6 f4be
00000010: 518b 28be 5557 a33e 2593 5ebe 6300 6dbe
00000020: 66fd 0fbe 87b5 0d3f 8dd5 c5be e329 cc3e
00000030: e21d d4be a11d c1be d216 96be 9bcd bcbe
00000040: be8e 0dbe 32cd f2be c83e 663d 0537 e9be
00000050: 553e b3be 5437 e53e 1566 823e 15e0 b9bd
00000060: 9fce a23e e20d 533f 4107 a13e 2754 83be
00000070: bb64 1a3f 9f9c c33c 6801 883e 352e 28be
00000080: 41d3 d83e 1584 8a3c 21e2 43be 16d8 063f
00000090: 460a c73e f56d 913e 5dbc 133e fb72 153e
000000a0: cb3c 923e 7418 b1bc ced8 3f3f e7c4 84be
000000b0: 28ed e53e 21f0 483f 2e2b 953e bcbb 54be
000000c0: d321 04bf df6a c03e 9563 b7be aefc 103f
000000d0: d504 dc3e ab13 7ebe e098 38be f56e 9abe
000000e0: a9bb 0abf 95db 023e a050 5abe b3d9 6b3e
000000f0: 25c7 923d ee98 e83e ec29 7cbe e9f4 bcbd
00000100: 8356 8a3d ae67 eabe 0e35 5e3e 2b81 2b3f
00000110: 34e6 903d 28e9 233f 67c7 3e3d 624e f5be
00000120: 97a8 a03e 649e 803e 580d ab3e 0e4a bd3e
00000130: 1afb c83e 9cb5 b03e 17b1 abbe c38d 1ebf
00000140: b882 83be acf0 c73e afaf 11bf 9cbe 703e
00000150: e331 903e e3bc 6ebd 6fdf 8e3e f963 243f
00000160: 5387 ebbd 417e 853d c624 703f 14b0 69be
00000170: 92ca a03d 1e09 8a3e e8eb 143f 3eb5 ce3e
00000180: c1f3 4cbf 16ac 0bbf 4dec 0dbf 1e25 31bf
00000190: 0ec7 09bf d3a0 c53e ba98 13bf 3726 e63e
000001a0: a9b1 543e 328b 1ebe b3e3 8fbe 8990 6ebe
000001b0: 5949 333d 5a35 c33d 0d82 0bbe 68ab dbbc
000001c0: 1f00 f43d 9eaa febd 208a 293e 449a 46bf
000001d0: 7292 0ebf fcb0 1f3f 925f f9be ba4d 513f
000001e0: ee89 373e f012 e0bc 69a6 bfbe c05d 55be
000001f0: 8784 5ebd af25 103e 66b2 abbc 6f76 72bd
00000200: 6b01 78bd d4d4 d1be 7f3f 35be 04de 99be
00000210: ee52 cb3d a269 03bf af41 b03e 6042 7ebf
00000220: 70f5 37bf 25c5 8e3e 2230 d63e 92b0 903e
00000230: ee56 c2bd e0b6 2a3e 7878 a93e 10af 043e
00000240: ccab 8fbe e045 0bbf 6820 71bd d083 d9bd
00000250: 80b6 f03e dc9e febd 95d2 05bf 2d3c f0be
00000260: 3108 ee3d a4c4 9f3e 2693 54be 074a a6bd
00000270: 2a48 f5be 0e1a 8ebe 080a aa3e 1159 cd3d
00000280: f949 933e 01a2 c4be 55b3 ae3d c050 073f
00000290: 214b c5bc 259d 33bd 0777 ccbb bc91 8ebe
000002a0: 9386 8abe 513c 573c 95cf 1ebf 8fad 103e
000002b0: 036c f63e 51bc 383e f1b4 4b3e cf4a 04bf
000002c0: a665 183e b907 80be e275 13bf 119e 0c3f
000002d0: c9b0 1bbf 69fe f53e fd0a 8dbc a06c f4bd
000002e0: ec36 70be 0748 1c3e ef1c 5bbd a567 803c
000002f0: f53f ca3e 054a 423e 9840 e0be 1deb dabe
00000300: 9d1e 7cbe 9b13 853d 675b 733e 95f0 0bbf
00000310: bcad 523e 2f29 98bd 1e1a 0e3f a757 363e
00000320: 7b52 5ebf cc6d 7f3e 3991 a93e c92a 923e
00000330: 69bb 893e ead7 00be 8074 f0bd 79b7 943c
00000340: f4e5 203e 47bd b33e 6df2 963d c5e0 7b3d
00000350: 08de 333e a695 80bd 3a92 d83e 7386 77be
00000360: e251 77be e5d0 c93d 231c 8f3d bc01 17be
00000370: 53e1 a5bc faae 85be bb5f 4dbe dd83 f43e
00000380: f583 ecbd 0ba9 1abf 95bb 05be 967a 123f
00000390: 6c75 94be bbb7 32bd 1d31 033e db69 80bd
000003a0: 0c0b 1e3e 9449 7a3e 3b9f ae3e 743e 2abe
000003b0: 7948 73bf a05a f53e b4b7 10bf 84fd adbe
000003c0: 7e31 cf3c 368a a4bd 6780 7b3d 49af d9be
000003d0: fd5b 1abe 6a31 f23e d803 43be a15e 4bbe
000003e0: 6795 00bf 75d7 173f 27be 573e 36ef 2e3e
000003f0: 19dc 91be 04b5 a6be 6a10 c33e 29af 173e
-0.5652498 0.117134005 0.47767827 -0.47820085 -0.16459395 0.31902567 -0.21735819 -0.23144679
-0.14061508 0.55355114 -0.3863949 0.39875707 -0.4142905 -0.37717918 -0.29314286 -0.36875615
-0.13823983 -0.47422177 0.056212217 -0.4554979 -0.35008493 0.44768775 0.25468507 -0.090759434
0.31798264 0.8244306 0.31450847 -0.2565014 0.6030995 0.023878394 0.26563573 -0.16423877
0.42348674 0.016908685 -0.1912923 0.5267347 0.38875026 0.28404203 0.14427324 0.14594643
0.28562006 -0.021618105 0.7494019 -0.25931475 0.44907498 0.7849141 0.29134506 -0.2077474
-0.5161411 0.37581536 -0.35818163 0.5663556 0.42972437 -0.2481219 -0.18027067 -0.30162778
-0.54192597 0.12779076 -0.21319818 0.23032264 0.0716689 0.45429176 -0.24625367 -0.092264004
0.06754782 -0.45782226 0.21699926 0.6699397 0.07075158 0.64027643 0.046576884 -0.47911364
0.31378624 0.25120842 0.33408618 0.36970562 0.39254075 0.34513557 -0.33533546 -0.6193506
-0.25685668 0.39050806 -0.56908697 0.23510212 0.2816306 -0.058285605 0.2790484 0.64215046
-0.115004204 0.06518222 0.9380611 -0.22821075 0.07851137 0.2696008 0.58172464 0.40372652
-0.8005944 -0.5455946 -0.5543869 -0.6919726 -0.5381936 0.38599262 -0.5765492 0.4495103
0.20770897 -0.15482786 -0.28103408 -0.23297323 0.04377112 0.095316604 -0.13623829 -0.026815131
0.119140856 -0.124348864 0.16556597 -0.7757914 -0.5569221 0.6237943 -0.48705727 0.81759226
0.1792371 -0.02735278 -0.37431648 -0.20836544 -0.054325607 0.14076875 -0.02095909 -0.05919498
-0.060548227 -0.40982687 -0.17700003 -0.30052197 0.09927927 -0.5133306 0.34425113 -0.9932003
-0.7185888 0.27884784 0.41833597 0.28259712 -0.09489237 0.16671324 0.33099723 0.12957406
-0.28060758 -0.54403496 -0.058868796 -0.10620844 0.47014236 -0.12432644 -0.5227445 -0.4692091
0.11622656 0.31204712 -0.20759258 -0.08119588 -0.4790662 -0.27754253 0.33210778 0.10026754
0.28767374 -0.3840485 0.085302986 0.5285759 -0.024083676 -0.043851037 -0.006239775 -0.27845562
-0.27055797 0.013136939 -0.62035495 0.14128707 0.4812928 0.18040587 0.19893242 -0.5167665
0.14882526 -0.25005892 -0.5760175 0.5492869 -0.6081663 0.48045662 -0.017217154 -0.11934781
-0.23458451 0.15261851 -0.05349439 0.015674422 0.3950192 0.18973549 -0.4379928 -0.42757502
-0.24621053 0.0649788 0.23765336 -0.54663974 0.20574087 -0.0742973 0.555086 0.17806874
-0.86844605 0.24944228 0.3311861 0.28548267 0.26900795 -0.12582365 -0.117409706 0.018153893
0.1571272 0.35105345 0.07370458 0.061493654 0.17565167 -0.06278543 0.42299062 -0.24172382
-0.2415233 0.098542966 0.069877885 -0.14746755 -0.020249045 -0.2611006 -0.2005605 0.47756854
-0.11548606 -0.6041419 -0.13059838 0.572183 -0.28995836 -0.04363225 0.12811704 -0.0627019
0.15433902 0.2444213 0.34105858 -0.16625386 -0.9503246 0.47920704 -0.5653031 -0.3398248
0.025292154 -0.08034174 0.06140175 -0.42516544 -0.15074153 0.47303325 -0.19044435 -0.19860317
-0.5022797 0.59313136 0.21068631 0.17083439 -0.28488234 -0.3255998 0.3809846 0.14812912

network_body._body_endoder.seq_layers.0.bias f4 [128]
00000000: 0145 48bb e531 1e3c ee9e 513b 3db5 a73a
00000010: 6cba e33c be45 a43c 20a4 2539 9eba c23a
00000020: ec24 edbb c08a 273c a2d8 b03b 4c69 38ba
00000030: fbf0 3f3c 55e3 80ba 5d24 58bb b657 ebba
00000040: 7933 25bc cedf 06bc 62fa 1cbb f265 2abc
00000050: 09ad 9a3c 13c7 453b 7a48 433c f9be c1bb
00000060: e61b eaba 1601 02bc 4ab7 b0bb 169a 163b
00000070: d5f2 e83b 85fc 3fb9 2fe9 a3bb 7c77 073b
00000080: 012d 833c 867f 27bb 94b6 cf3b 2a5b b23b
00000090: c766 7d3b 2303 7abb 3b50 4e3a 0cbc e73a
000000a0: 1c97 9fba 5160 293b 5b47 a33b 5036 8db9
000000b0: fce3 c9bb 63dc c93b 8e6e e53c 4b48 0d3c
000000c0: 9fca 0e3c 7cd9 013b 4a8d e03b 9640 7dbb
000000d0: bf66 8a3c 0171 e3bb bba3 523c 77da f73b
000000e0: 4522 06bc 572e 8b3c 415a 87bc 4116 993b
000000f0: 9cda 84bb 0867 7abc 2ff5 3cbb 3015 cd3a
00000100: 32a2 3c3a 7b33 e03a ffae 95bb 5f22 51ba
00000110: 7c3b 913a 2591 49bc b48c 3cbc 4c23 a2bc
00000120: 0d12 0bbc 0069 6036 5bf3 dbbb f49b 693c
00000130: 51e5 593c bfb6 603c 86b6 15bc b2c9 743b
00000140: cc85 4fbc 4044 ccbb 97df 223b a8a4 87bb
00000150: 189e 0bbb 0005 2fba f4a2 cdba 95f6 b73b
00000160: 89fb fcbb cf7a 9cb9 ec74 aaba 7480 d13b
00000170: 2054 0cbc d182 29bc 123e 893c 1ee7 713b
00000180: 7870 08bc c18d d0bb 54a6 1f3c 0ce2 853a
00000190: a552 1b3c 595b 06bb 66d9 b73b a988 693c
000001a0: f559 26bc 1b6c 28bc 7aa4 a5b9 2aef b137
000001b0: d07e 0a3c 1fff cc3b 6c03 853c c927 043b
000001c0: 6c21 b23b 3a35 e53b 3bd2 c43b 964c 0d3c
000001d0: d15d b3bb 1748 fb3b 865c 32bc e4f2 bfba
000001e0: 6a6e b03b e5b3 2aba 2cbc 4dbb 84b7 6fbc
000001f0: 755e 8839 41ac aa3a 3d1b 4539 769a a53b
-0.0030558708 0.0096554505 0.0031985599 0.0012795102 0.027798854 0.020052787 0.00015796768 0.0014856642
-0.0072370674 0.010225952 0.0053969184 -0.00070347334 0.011715169 -0.0009833375 -0.0032980659 -0.0017955217
-0.010083073 -0.00823207 -0.002395295 -0.010400282 0.018881338 0.0030178472 0.011919135 -0.0059126583
-0.0017861098 -0.007934829 -0.0053929435 0.0022980026 0.007109026 -0.0001830925 -0.005002163 0.0020670583
0.01601267 -0.0025558188 0.0063389037 0.0054429965 0.0038665996 -0.0038148842 0.00078702316 0.0017679944
-0.0012175771 0.0025844763 0.0049828715 -0.00026934082 -0.006161211 0.0061603053 0.028006818 0.008623193
0.008715301 0.0019813469 0.0068527805 -0.0038643233 0.016894696 -0.0069409613 0.012856419 0.007563885
-0.008186881 0.01698987 -0.016522529 0.0046718423 -0.0040543806 -0.015283354 -0.0028832664 0.0015646573
0.00071958 0.0017105186 -0.0045679803 -0.0007977839 0.001108035 -0.012302672 -0.011508156 -0.019792221
-0.00848819 3.343972e-06 -0.00671236 0.0142583735 0.013299302 0.013715445 -0.009137755 0.0037351665
-0.012666177 -0.006233722 0.0024852508 -0.0041395016 -0.0021303948 -0.0006676465 -0.0015688823 0.0056141117
-0.007720415 -0.00029846138 -0.0013004816 0.0063934866 -0.008564979 -0.0103461305 0.01675323 0.0036911438
-0.008327596 -0.0063645546 0.009744246 0.0010214462 0.009480153 -0.0020501225 0.0056106327 0.014253774
-0.010153283 -0.010279681 -0.00031593797 2.1211414e-05 0.008453086 0.0062559987 0.016236983 0.0020165315
0.005436113 0.0069948705 0.0060065067 0.008624217 -0.0054738303 0.007668506 -0.010886317 -0.0014644531
0.005384256 -0.0006511792 -0.0031392677 -0.014631156 0.00026010317 0.0013021306 0.00018797531 0.0050538136

network_body._body_endoder.seq_layers.2.weight f4 [128, 128]
00000000: 342a 5fbd 2feb 093c 68ce 083e 09e9 da39
00000010: 68a3 b2bd 7d3c 2b3b 3db6 7ebd 67c9 d9bd
00000020: 0d01 fdbd 0055 92bd 1710 c83d 5609 2d3d
00000030: 329d a63d 2168 76bd affc 243e a9f2 b13d
00000040: 2a2e 403c bb5a 89be 8d37 91bb ffab 9bbd
00000050: d75d 5b3d 698d 26be 8194 68be 8ba5 03be
00000060: 9046 033e 6a66 acbd 8fe3 acbc d8e9 5fbd
00000070: 1696 3c3c 0413 1c3c 74a5 f43c 2c8c ccbd
00000080: b03d 67bd 770a 09bd e74b 203d a155 b9bd
00000090: 54f5 8cbd c71c 2cbe 1192 0dbd 54b5 813d
000000a0: 15aa 52bc 1162 e6bc 46f6 15bd 496a 20be
000000b0: 3a24 7b3e 06a5 c23d 670e b03d 56df 35bd
000000c0: 751f 033d 3fa6 09bd 4502 363e d952 1ebd
000000d0: ed74 9c3b a8cf 29be d1f5 09bd fa5f e43c
000000e0: 2831 193d a99d 70bd c7a9 aabd d482 633d
000000f0: 198e 79bd 6fcd edbc 1737 1f3d 0d15 52be
00000100: e137 dbbb 3015 883d 2660 20bd 5f82 39be
00000110: dd90 edbc f443 15bd e3c7 debc e4a0 133d
00000120: a013 85bd c7b1 2d3d 5b2f 503d 1b08 c1bd
00000130: 54e4 213e 4f7f f33d 355e 15be f0cb fe3c
00000140: b13d 463e 989b 93bd a16e d5bc 8caf 063e
00000150: e203 85bd f603 12bc 2d5e c1bd ed50 bf3c
00000160: df4e 37bd 3815 0abe e1b0 5f3d 989f 353b
00000170: c76f 41bc e9ce b63d a5de 93bd 6217 ee3c
00000180: e8bc a63d e9e4 d13d ae45 af3d 2e03 eabd
00000190: 631c 68bc 1469 1c3d e572 0cbd 65ad 8d3c
000001a0: 6c75 873b 600b ed3c c231 373b c666 463c
000001b0: d1cd 063c 0b8b 1d3e 2732 1ebc 5427 22bc
000001c0: 3dd6 0f3c 533e 3f3d 0026 9ebd b9d6 b43c
000001d0: 5a68 573b 9602 22bd 664e 173d c572 bcbd
000001e0: 5343 c63d 9cb5 fabb 5c5d bdbd 30b9 edbd
000001f0: 9e20 60bd 4942 cbbc 7395 42bc da94 923d
00000200: d2ff ae3c f29e eb3d 5e79 ea3d 2c32 c23d
00000210: bab9 5a3d c180 be3c 3b58 2e3d b722 243e
00000220: f4ba 0a3d a2cc 0b3e 54f1 08bc 4c0a 693c
00000230: 1fea 3bbe 2651 77bd 2c5a 0cbd 38c8 ab3d
00000240: 2f73 573d ea30 26bd 4b9d 80bc a5da 09be
00000250: 7727 2cbd 00aa 1b3d 9e54 753c b1b8 823d
00000260: 2886 5c3d fddc 953c d536 983b 4a05 0fbd
00000270: b4d6 a0bd 4773 003d d5ca 41bd 5924 6f3b
00000280: c02d 923d 91f8 b03d 56ec 6ebc e0fc 81bd
00000290: a932 0ebd 03e9 57bb 7525 fcbb c222 ebbd
000002a0: 5d67 09bd 9138 27be 67d2 a43d 0947 30be
000002b0: 5333 5ebe c3b3 d2bd de58 e63d f3e4 da3c
000002c0: 1a0c 013d 23e8 d8bd e4ef 463e 13c4 393e
000002d0: 8eb6 013c 10e8 68bd 7fc3 c13d bcbf 4fbd
000002e0: 02a5 fdbd 1099 0c3e 500b a93d 081e 8fbc
000002f0: eb98 29bc 2600 6dbd d5a2 dcbb f7fc b33d
00000300: e1bd a53d e7c5 99bd e323 903d 845a d33d
00000310: d627 f7bc 9efc 173c 7ae3 f3bd 1c10 033e
00000320: 24e6 873c 44e1 8dba 2d2f adbb 8a93 8e3d
00000330: b13b c53d 58be 4e3d 8d00 64bd ee17 9dbd
00000340: 86da bf3a 56c8 cdbb 7516 4f3e d14d 693b
00000350: 8292 a8bd ea09 60bc 24dc dfbd 1e83 483d
00000360: 8caa 2a3d d167 703d cf5c 8c3d 800d debd
00000370: c0f2 c8bd 7fde 6b3d 74cf 643d 0881 223d
00000380: 609c 9b3d 0c4f 01be 47a3 143e 75f5 2f3e
00000390: 6db2 213b 9031 20be 11b9 223d 54f9 d33b
000003a0: 4b64 06be 4dad c5bd db89 1f3e d489 3fbe
000003b0: c73f 59bb e54a 8fbd ed0b 043e d7fd 31be
000003c0: 1e8b 1c3d 3ca7 80bd 573b a7bc 63d7 8c3d
000003d0: c77e 103e 5245 fd3b fb78 093e eeaa ebbd
000003e0: 016d 5bbd 3317 d33d fe0d 723d 3ff2 dfbc
000003f0: 0ff2 23be 4253 bfbb e580 0dbc 6efc 1a3d
-0.054483607 0.008417889 0.13359988 0.00041753825 -0.087225735 0.0026128583 -0.062185515 -0.106341176
-0.12353716 -0.07145119 0.09768694 0.04224523 0.081354514 -0.0601579 0.16112016 0.08688862
0.011729756 -0.26827034 -0.004431671 -0.07601165 0.05355629 -0.16264881 -0.227129 -0.12856118
0.12819886 -0.084179714 -0.021104602 -0.05466637 0.011510393 0.009526018 0.02986405 -0.09987673
-0.056455314 -0.033457246 0.039134886 -0.090495355 -0.0688273 -0.16807853 -0.034563128 0.06333414
-0.0128579335 -0.028122934 -0.036611818 -0.15665545 0.24525538 0.09504132 0.08596497 -0.044402443
0.03201242 -0.03360581 0.17774303 -0.03865323 0.004774681 -0.16583121 -0.033681694 0.027877796
0.037400395 -0.058744106 -0.08333164 0.05554469 -0.06092653 -0.029028622 0.038870897 -0.20515843
-0.006690011 0.06644666 -0.039154194 -0.18116139 -0.02899974 -0.03644176 -0.027194923 0.03604211
-0.06497884 0.04240587 0.05082641 -0.09425374 0.15809757 0.118895166 -0.14586718 0.031103104
0.19359471 -0.072074115 -0.026053729 0.13152903 -0.06494881 -0.008912077 -0.09441791 0.023354018
-0.04475295 -0.13484657 0.054612044 0.0027713533 -0.011806435 0.08926184 -0.072202004 0.029063884
0.081415 0.10248739 0.08558212 -0.11426388 -0.014166924 0.038186148 -0.03428926 0.017294595
0.004133871 0.028936088 0.0027953242 0.012109464 0.008227781 0.15385072 -0.009655512 -0.009897072
0.008779106 0.046690296 -0.07722092 0.022075044 0.0032868595 -0.039553247 0.03694 -0.09201578
0.0968081 -0.007651044 -0.092463225 -0.11607587 -0.054718606 -0.02481188 -0.011876452 0.071572974
0.021362219 0.11504926 0.1144893 0.09482226 0.05339978 0.023254754 0.042564612 0.16028868
0.0338697 0.1365228 -0.008358318 0.014223646 -0.18351029 -0.060380124 -0.034265682 0.08387798
0.052600082 -0.04057399 -0.015700003 -0.13462313 -0.042029824 0.03800392 0.014973788 0.06382883
0.05383888 0.018293852 0.0046452084 -0.034917153 -0.07853451 0.031359937 -0.047312576 0.003649017
0.07137632 0.0864116 -0.014582714 -0.0634706 -0.034716282 -0.0032945282 -0.007694895 -0.11481239
-0.03354584 -0.16330172 0.080479436 -0.17214598 -0.21699266 -0.10288193 0.11247419 0.0267205
0.03150568 -0.105911516 0.19427449 0.18141203 0.00791706 -0.056861937 0.09461116 -0.05071996
-0.12384988 0.13730264 0.08254111 -0.017470375 -0.0103514 -0.05786147 -0.0067332783 0.087884836
0.08092857 -0.0750845 0.07038095 0.10319999 -0.030170362 0.009276537 -0.11908622 0.12799114
0.016589232 -0.0010824581 -0.005285165 0.069617346 0.09630526 0.050474495 -0.055664588 -0.0767058
0.0014637269 -0.0062799854 0.2022341 0.003559936 -0.08231069 -0.013674239 -0.1093066 0.048953168
0.041666552 0.058692757 0.06853639 -0.10842419 -0.09811926 0.057585236 0.055861905 0.039673835
0.075981855 -0.1262781 0.1451541 0.17183478 0.0024673 -0.15643907 0.039727274 0.006468931
-0.13124196 -0.09652195 0.15579931 -0.18704921 -0.0033149587 -0.06996707 0.12895174 -0.17381988
0.03821861 -0.062818974 -0.020414038 0.06877019 0.14110862 0.007729211 0.13425057 -0.115072116
-0.05357075 0.10307159 0.059095375 -0.027337192 -0.16010307 -0.0058387825 -0.008636688 0.037838392

network_body._body_endoder.seq_layers.2.bias f4 [128]
00000000: f60d 643c 2af2 843b 8fe2 e2ba d896 0d3b
00000010: 6972 c838 f0df a9ba 6c06 5b3b 480a c83b
00000020: 4cd9 b9ba 8d3f 0abb deb9 1cba 8cd4 3a3c
00000030: f25a 4ebc e1c9 db3b 2bf5 193a 5cb9 29bb
00000040: 5680 6f3b 89c1 a33b 66b7 91bb a4ae e4bb
00000050: 4418 78bb 16ee 473c 4054 1dbc cfdb 32bc
00000060: 03a0 0d3c 11e2 c63a 7585 f43b 4dfd d0b8
00000070: 41d4 e7bb 4c7a 963c 1bc3 1bbb dd12 12b9
00000080: e7bf c03a 50d5 cc3b 30c1 b03b 26d8 ddbb
00000090: dd80 1fbb 6ae1 283b 3454 843a 0d35 2abb
000000a0: 51d4 b63b c90d 843a 4ffc bbbb 35c2 443b
000000b0: dfe0 933b f6e8 1cbb eb57 c5bb 4e29 0d3c
000000c0: 33ed 8cba 206a ba39 f03d 74bc 4559 f6bb
000000d0: 7017 a93b b40a 793c cc0d b0bb d8ed c8b9
000000e0: 0efb 44bc 9e43 913a 32b6 0dbc 44d2 06bc
000000f0: 727c 8b3a 7ad0 a83b 42ec a5bb 97e6 56bb
00000100: 28cd a33c 4495 6dbb 24f8 163b d11b b5ba
00000110: 8194 0dbc ef11 c03b 0ee7 5ebc 7416 edba
00000120: 167d f6bb d0a2 9f3b 33cb 4aba cc93 3cbc
00000130: 280f 6fbb 6577 6b3c 153a 2c3b ad03 3b3c
00000140: c8ff 45bb b909 bc39 71c3 603b 9612 5dbb
00000150: cb09 23bc e478 e13b 8fb5 56bb 8908 dcbb
00000160: 56bb 8c3a 603d 0ebc 89f8 8ebb 2649 783b
00000170: 1681 a7ba cc02 223b 114e ea3b 2f16 2b3c
00000180: d81f 873b 375e 6e3b abab 883b 1009 5bbb
00000190: dd37 633b b512 97b9 5c99 8d3b f644 933b
000001a0: 3f89 293c dc2f de3a 5017 3f3a 0e21 5a3c
000001b0: 084c 403c 66bd 6cba 738c 55bc b72e 1fbc
000001c0: 6603 acbb 12e0 3bbc fca1 febb 3994 8b3b
000001d0: 4f06 3fbb 4040 d4ba 9209 38ba 1118 45bb
000001e0: ad0a 5a3a fbd2 3139 7190 4b3c 4097 41bc
000001f0: bab0 fcbb 0d4f 9a39 29f4 223b e5d8 473c
0.013919344 0.0040571885 -0.0017309951 0.0021604802 9.558054e-05 -0.0012960415 0.0033420576 0.0061047412
-0.0014179139 -0.0021095008 -0.0005978624 0.011403214 -0.012594925 0.0067074155 0.00058730197 -0.0025897836
0.0036545 0.0049974364 -0.0044469116 -0.0069788266 -0.003785626 0.01220276 -0.009602606 -0.010916664
0.008644107 0.0015173574 0.0074621984 -9.965394e-05 -0.007074863 0.018368863 -0.0023767415 -0.00013930672
0.0014705629 0.006251015 0.0053941235 -0.0067701517 -0.0024338283 0.0025769123 0.0010095895 -0.0025971562
0.0055795093 0.0010074909 -0.0057368646 0.0030022983 0.0045128907 -0.0023942566 -0.0060224435 0.008615805
-0.0010751843 0.00035555754 -0.014907345 -0.007517966 0.0051602647 0.015200306 -0.0053727385 -0.0003832418
-0.012022747 0.0011082774 -0.008649396 -0.008228842 0.0010641946 0.0051518055 -0.0050635645 -0.003279125
0.019995287 -0.00362523 0.0023036087 -0.0013817494 -0.008641363 0.005861513 -0.013604892 -0.0018088357
-0.0075222356 0.0048717037 -0.00077359675 -0.011509847 -0.003647754 0.014371728 0.0026279737 0.011414451
-0.0030212272 0.00035865398 0.003429618 -0.0033733002 -0.009951065 0.0068808664 -0.0032762026 -0.0067148847
0.0010736983 -0.008681625 -0.004363124 0.0037885397 -0.001277956 0.0024720905 0.0071504195 0.010442301
0.004123669 0.0036372074 0.004170855 -0.003342215 0.0034670748 -0.00028814902 0.0043212604 0.004494305
0.010347663 0.0016951519 0.00072895456 0.013313545 0.011736877 -0.0009030908 -0.013033974 -0.0097157275
-0.0052494286 -0.011466997 -0.007770775 0.004259613 -0.0029148047 -0.0016193464 -0.0007020469 -0.003007416
0.0008317631 0.00016958632 0.012424574 -0.011815846 -0.007711497 0.00029432066 0.002486477 0.012197708

action_model._discrete_distribution.branches.0.weight f4 [4, 128]
00000000: 3994 1fbc a6be bcbc 2cca 833c 8e6f 5a3b
00000010: dcd9 193c b5c8 423c 138a cb3c e39f 1c3c
00000020: b14c e03b 1951 3f3a 269d 623c 8281 ed3b
00000030: a8ef cb3b d16d b03a 5f23 2bbc cf62 193c
00000040: b72d beba 6197 8a3c 3ba2 17bc 1b04 91bb
00000050: 3d13 833a f86e 2e3c 1a98 6e3c 7c83 b33c
00000060: 2471 d1bc 4892 913c 4c8a 343c 0751 2cbc
00000070: 7a0e ab3c 7155 43ba 86b9 4ebc c4ea 3b3b
00000080: 0b8a 28bb 985a 55b9 17d9 ac3c 55d6 bcbc
00000090: 1df4 113b 7ae2 8cbc 8c2d ab3c 65a7 8d3b
000000a0: cbb7 473b f0f9 973b 536f e43a 1ac4 14bc
000000b0: 3416 85bc dbfe 563c aad6 a13a f5ad 2fbc
000000c0: cda1 0d3c 7f29 9d3b ef57 fd3b 4b76 2eba
000000d0: 6997 21bb 9c58 b9bc e46a b63b ad37 f5bb
000000e0: 8e9c eebb de80 77bb f3d5 413a 0eab 82bb
000000f0: 24a0 093c 2e1f 453c 5805 aabc 8c26 c0bb
00000100: e287 8dbc 2f19 d63c c9d3 86bc e969 41ba
00000110: 32c2 1ebc 1537 0f3b ee9d 2cbc 9358 3dbc
00000120: 6f47 7e3b 39df a8bc 10ce 3dbb bd60 c6bc
00000130: 18f9 933a 7483 433c dc15 b63c 06da 90bc
00000140: bd17 d3bb 5bcd c7bc e690 b03b 91d4 dabc
00000150: ec4a e23a 4417 8fbc 2935 c6bb d091 cb3b
00000160: a523 b73b c1be 72bc a046 96ba f170 6b3c
00000170: 9bbc c33b 226f 7c3a 7983 963a 7905 833a
00000180: c682 073c afdf 35bc d921 b4bc 5ada b3bc
00000190: 8af6 2e3c 2120 9bbb 8f54 8f3c 8aed 98bb
000001a0: 46a2 63bb da6c 0dbc b3c4 1fba 3ff8 993c
000001b0: 00e8 00bc a760 d5bb a4da dc3b 5e2e 5c3b
000001c0: 2e1b ae3c c809 853c 2907 d63b a83d 39ba
000001d0: 78e7 df3b 4f4b d33a c596 213d a120 a1ba
000001e0: ff83 b8bc 9289 67bc a526 303b c0dc 0abc
000001f0: e82e 613c 201e 88bc a00c ae3c 3c46 59bc
00000200: 8930 883b 5ff3 153c 9613 d33a 5ad2 dd3b
00000210: 2e50 50bb 928a c73b 1c79 bdbb cd85 91bc
00000220: 492d 053b bbe4 cdbb 54d0 76bb 905d f33b
00000230: e2a5 59bc 9374 ec3b cfe4 293b 67e7 96b9
00000240: 23d0 1239 f5a3 89bb 6ae8 b7bb 7f8c fa3b
00000250: 330f 0b3c 1cdc 0fbb 7973 a23b c0aa 1bbc
00000260: bf3e 5fbc b1df a8bb 3393 84bc 9f70 47bc
00000270: 595d f43b 0187 4e3b 63b9 103c 3f21 273c
00000280: 9b11 6abc 840e e23b a067 5336 ada3 413c
00000290: 3c60 6f3c 15ed 593c 81a7 8c3c 007e 423b
000002a0: 40ae 39bd 7f7b 003c 553d a63b bfed b2bb
000002b0: f889 1f3b 42bd 57bb da6c e4ba 7d58 fb3a
000002c0: 4ebc 48bc c393 353b e157 1c3b cfcf a1bc
000002d0: 64b1 acba 9a05 0bbc ea2f 1f3c b988 86bb
000002e0: 2906 bebb 4348 f0bb 6264 883b d097 e53b
000002f0: 5ec9 b3bc 9305 a93b 67e2 08bc 9c7b 313a
00000300: b1f7 ee3b 1096 783c 6920 2bba 46a3 58b9
00000310: 0099 d83b 91d3 9a3b d88f 983b baa7 bfbc
00000320: 2632 213c e5d3 193c 4939 bc3b b39a 39bc
00000330: 0069 c6bb b8af 343c 9810 b4ba 48e2 4a3c
00000340: b3bb 7b3b 1afd 9abc 9608 2cbc b3d2 18bc
00000350: adb0 0cbc 89d9 14bb ff7b e03b 2d7b 9338
00000360: 3423 2dbc 3812 31bb 0d20 31bd b474 e63b
00000370: 0af1 0cbc 801b e73b f0c5 ba3b 7cca eabb
00000380: db1c 5a3c 6297 86bb f453 483b b788 fa3b
00000390: 53dd 74bb c378 b9bc 17a2 a5bc 5fe7 94b9
000003a0: 5fae 01bd 3f44 02bc a594 23bc c767 513b
000003b0: 6f0c 8c3c 5a93 183c 4a73 e5bb 5359 8abb
000003c0: a6e5 883b ad70 88bc 1b03 2c39 d352 623c
000003d0: c099 533c 5816 b6bc 3fae 8b3b b98f 4cba
000003e0: 3f97 9d3b 57de 50bd c8e8 523c baa3 943b
000003f0: 3d2b a13a 12c6 8a3c 8cbb 553c f621 6f3c
-0.009739929 -0.023040127 0.016087614 0.0033330652 0.009390321 0.011888673 0.024846112 0.009559604
0.00684508 0.0007298156 0.013831412 0.0072481045 0.0062236376 0.0013460462 -0.010445445 0.009361937
-0.0014509474 0.016917886 -0.009254987 -0.0044255382 0.001000024 0.010646574 0.014562631 0.021913283
-0.025566645 0.017769948 0.011019301 -0.010517365 0.020880926 -0.00074513914 -0.012617474 0.0028673867
-0.0025717046 -0.00020347012 0.02109961 -0.02305142 0.0022270747 -0.017197836 0.020895742 0.0043229335
0.003047454 0.004637949 0.0017428197 -0.009079957 -0.016245939 0.013122286 0.00123473 -0.010722627
0.008644533 0.0047962065 0.0077314298 -0.00066552 -0.0024656898 -0.02262526 0.0055669416 -0.0074834437
-0.0072818464 -0.003776602 0.00073942466 -0.0039876765 0.008399997 0.01203136 -0.020754501 -0.00586397
-0.017276708 0.026135055 -0.016458409 -0.00073781476 -0.009689854 0.00218529 -0.0105357 -0.011556762
0.0038799902 -0.020614253 -0.0028961934 -0.02421605 0.0011289446 0.011933196 0.02222722 -0.017682087
-0.006442039 -0.024389913 0.005388367 -0.026712688 0.001726476 -0.017467149 -0.0060488177 0.0062124506
0.005588966 -0.014815987 -0.001146514 0.014370189 0.0059734113 0.0009629597 0.0011483274 0.0009996138
0.008270925 -0.011100694 -0.021988796 -0.021954704 0.010678897 -0.0047340547 0.017496375 -0.0046669887
-0.0034734174 -0.008631909 -0.0006094679 0.01879513 -0.007867813 -0.006511766 0.006739931 0.0033596973
0.021253195 0.016240016 0.0065316153 -0.00070663774 0.006833013 0.0016120466 0.039450426 -0.0012293049
-0.022523878 -0.01413192 0.0026878503 -0.008475482 0.0137440935 -0.016615927 0.021246254 -0.013261374
0.0041561765 0.0091522625 0.001610386 0.0067694606 -0.0031786072 0.006089517 -0.0057822596 -0.017763996
0.0020321182 -0.0062833703 -0.0037660794 0.007426925 -0.013284178 0.007216045 0.0025923734 -0.00028782638
0.00014001182 -0.0042004534 -0.0056124227 0.007646143 0.0084875105 -0.0021951264 0.004957613 -0.009501159
-0.0136258 -0.005153619 -0.016183471 -0.012172847 0.007457417 0.0031513574 0.008833262 0.010200798
-0.014286424 0.006898703 3.1501768e-06 0.0118188085 0.014610346 0.013301154 0.017169716 0.0029677153
-0.045332193 0.007841944 0.0050732293 -0.0054604704 0.002434371 -0.0032919203 -0.001742746 0.0019176152
-0.012251927 0.002770648 0.002385609 -0.019752411 -0.0013175425 -0.008485222 0.009716013 -0.004105654
-0.005799074 -0.007332833 0.004162357 0.007006623 -0.021946605 0.005158135 -0.00835476 0.00067704334
0.0072927107 0.015172496 -0.0006527962 -0.0002066019 0.006610036 0.0047249277 0.0046558194 -0.023395408
0.0098386165 0.0093888985 0.0057441336 -0.011328387 -0.0060549974 0.011028223 -0.0013737855 0.012383051
0.0038411438 -0.018919516 -0.010500094 -0.009327578 -0.008587045 -0.002271267 0.006850719 7.0324495e-05
-0.010567475 -0.0027018916 -0.043243457 0.007032955 -0.00860239 0.007052839 0.0056998655 -0.0071652513
0.013312544 -0.0041074017 0.0030567618 0.007645692 -0.0037363365 -0.022640591 -0.020218892 -0.00028401145
-0.031660434 -0.007950841 -0.00998417 0.0031952725 0.017095773 0.009312475 -0.007002269 -0.004222074
0.004177767 -0.01665529 0.00016404355 0.013813692 0.012915075 -0.022227451 0.004262715 -0.0007803399
0.0048092897 -0.05099329 0.012872882 0.0045361193 0.0012296211 0.01694015 0.013045203 0.014595499

action_model._discrete_distribution.branches.0.bias f4 [4]
00000000: f836 25bc f5fb bcb9 a1bb 723c b7e9 5dbc
-0.010083906 -0.00036045877 0.014815242 -0.0135444915

action_model._discrete_distribution.branches.1.weight f4 [1, 128]
00000000: 9c9b 183c 92e5 b33b 4368 383c 9693 933c
00000010: 12a5 d23b f739 d0bb 2b74 6d3b f7c2 813b
00000020: 6301 1fbc 1307 c03b f4de 89bb de34 443b
00000030: 3ee3 1fbc 354b e63a ab5c b53b 23f4 5abb
00000040: d6d9 22bb 97e3 84bb 76d6 03bc 94ae 173b
00000050: fc40 bdbb ba97 813b e0e4 b03b f065 803c
00000060: 85e0 16bc 2655 b53b f3fe 17bc 1b3f bcba
00000070: d81f 673c d3bc 53bc c8ac d7ba 02a4 f0bb
00000080: 9f7e 64bb f01a 57bb 77b8 703a 0bc2 2fbc
00000090: b0d6 5f3c a713 56bb 074b c4bb 8b53 573c
000000a0: 9ca1 a3bb 4f2e c0bb 6f7f 523b 3c0e 3ebc
000000b0: ce7a 82bc 3b0a 48bb df28 1dbb 7e73 4c3c
000000c0: 73df 523c 3265 88bb 94b8 3cbb 0333 babb
000000d0: e6c5 21bc a035 e83a 3b42 293a 4d32 9dbc
000000e0: 2bfd cbbb e7ff e7bb 98b9 163c a803 f03b
000000f0: 0f8e 8d3c 451e caba 9770 a4ba 5f24 d33b
00000100: c3ba c13b 23fd b33b 2081 e83b 97be 24bc
00000110: 7454 9ebc 72e2 eebb 4fb5 c33b f3b3 a6b9
00000120: 02ad 56ba 7511 a0bc a53b dabb 1abc 5bbc
00000130: eb14 23bb 0f5b 013c dd16 00bc fcd0 243c
00000140: 639b db3b bbb8 83ba d50c 0d3c cdf4 b3ba
00000150: beab 333c b65d 403a 77d5 97ba cbde 50bc
00000160: 5792 b1bb e06d ca3b 731b f5ba 95f5 1abb
00000170: 130d bcbb bf36 ac3a 1d94 b6ba 3094 093b
00000180: bf7a e3bb a3e3 ce3b 7599 883b 32da a73b
00000190: 9b46 e13b eb21 ba3a db04 39bb 6c61 bebb
000001a0: a7fe 95bb 1fd9 49bc 8f44 bd3a 308a caba
000001b0: 839b 9d3b 4588 61bb 4b84 b63c 6ba1 2f3b
000001c0: e94e 343c 9b29 1c3c f320 f2bb b04e 29bc
000001d0: 6a88 733b 071c 083c 1abe 9bbb cda0 083c
000001e0: cbb4 c33b a77d 503c 3de3 ddba f7ca e23b
000001f0: cf88 943b 2ac9 3abc 432b bc3b acc4 073c
0.009314444 0.0054900134 0.011255327 0.01801471 0.0064283693 -0.006354566 0.0036232572 0.003960009
-0.00970492 0.0058602183 -0.0042074863 0.0029938738 -0.009758769 0.0017570021 0.0055347285 -0.0033409677
-0.0024849079 -0.004055451 -0.008046737 0.0023144828 -0.005775569 0.003954855 0.005398378 0.015673608
-0.009208803 0.005533832 -0.009277093 -0.0014362069 0.014106713 -0.012923437 -0.0016454691 -0.00734377
-0.003486551 -0.0032822452 0.0009182761 -0.010727416 0.013662025 -0.0032665522 -0.0059903893 0.013142477
-0.0049936306 -0.0058648954 0.0032119413 -0.011600073 -0.015927698 -0.0030523676 -0.002398066 0.012478707
0.012870657 -0.004162454 -0.002879654 -0.0056823506 -0.009873843 0.0017716177 0.00064567075 -0.019189024
-0.0062252483 -0.0070800665 0.009199522 0.0073246546 0.017279653 -0.0015420398 -0.0012545761 0.0064435448
0.0059121563 0.0054928227 0.007095471 -0.010055206 -0.01932738 -0.007290178 0.0059725414 -0.0003179606
-0.00081892323 -0.019539574 -0.006659942 -0.013411546 -0.0024884294 0.007895245 -0.007817951 0.010059591
0.006701873 -0.0010049561 0.008609016 -0.0013729573 0.0109662395 0.0007338183 -0.0011584003 -0.0127484305
-0.0054190564 0.006177649 -0.0018700197 -0.0023644913 -0.0057388633 0.0013138874 -0.0013929639 0.0020992868
-0.0069421227 0.0063137575 0.004168684 0.0051224465 0.006874872 0.0014200782 -0.0028231654 -0.0058099534
-0.004577476 -0.012319832 0.0014439988 -0.001545256 0.004809798 -0.0034413498 0.02227988 0.0026799093
0.011005142 0.009531404 -0.0073891818 -0.010333702 0.0037160167 0.0083074635 -0.0047528865 0.008339119
0.00597248 0.01272527 -0.0016928684 0.006921168 0.0045329104 -0.0114005 0.005742462 0.008286636

onnx::LSTM_114 f4 [1, 512, 128]
00000000: 1f18 06be 6262 073b 8927 97bc 1016 c93c
00000010: ea6e 67bd b7ad 173e 096e 03be e96d 943d
00000020: fd47 a53d d147 0dbe 6b34 b73c 39ed 003e
00000030: 9490 70bc b0c0 eebd 4857 f7bd 28fc 833d
00000040: fbe3 a7bd 7f12 21bd 17c6 04be beb1 853d
00000050: 707d 08be 29c6 043e 50c2 483d 0001 3b3d
00000060: a2b5 e6bc a437 4abd f4ee ff3c 7308 17be
00000070: 993c bebc b1f8 82bc e792 f7bd f7ad 28bc
00000080: de5a 5f3c 4647 a6bd 3d28 c83d 34c5 713d
00000090: 7bd2 03bd e2f7 c53d d049 6c3d c16f 443d
000000a0: 3cc2 33bd bb69 edbd bea2 ce3d 1146 76bd
000000b0: 3d44 1cbd 24e7 c53d db5c a9bd c087 b73d
000000c0: 7b5e e63d d7fe 0f3c f484 0fbe f933 09be
000000d0: 5434 3d3d ac1c 81bd 793b 5b3c 46dc 34bc
000000e0: bb91 15be a2f8 30bd db54 bcbd 46f3 db3d
000000f0: ea94 15be 45b8 2ebd d56d f5bd 5e48 37bd
00000100: d371 f23d f9e9 91bc f329 f93c 61cc a2bd
00000110: 8629 e93d fc03 09bd 00cd a13c 4a75 12be
00000120: 97e5 dfbd 4d9d e23d fa40 ecbd 8cd0 75bd
00000130: ce72 aabd e05f c1bd dbc9 b1bd 5bf1 26bd
00000140: f2bd 083e b32e 213d e99e 803d 2d8d 4dbd
00000150: 186f 863d 120a a4bd bec6 3abd 080a 283c
00000160: f142 113e fcd1 64bd 4726 563d fea2 88bd
00000170: 089f 873d 96dd 1d3d 400d e9bc a05b 553d
00000180: 3a4b 003e d884 8ebd acc5 f13d cd6b 0ebe
00000190: d408 64bd ada1 be3c 8a88 b63d c1e1 93bd
000001a0: bfc1 363d 80a0 fc3d 6240 11be 8bdd 833d
000001b0: 6c72 d5bd 1cfc b8bd 92b6 d9bc 134e 8d3c
000001c0: 1eee 69bd 2f01 ff3c 1169 83bd c12a afbd
000001d0: 9fbd d5bd 6831 98ba 55cb ee3d 06c7 c63d
000001e0: 2bc6 663d 08f4 6fbd bcaa 79bc 2ea9 e43d
000001f0: c90c b63d 810a c7bd 15c5 ec3d 4eac df3d
00000200: 5a96 903d adfc f93d 93ff 7dbc 08f4 033e
00000210: c773 0d3d f05a c6bc 2a01 ca3d 2213 21ba
00000220: c7aa fbbc 2ea9 bebd 05ce 303d 69a2 403d
00000230: 0942 f43d ea16 82bd 7579 543d 71ce 0c3e
00000240: 17a1 73bd 4104 d0bd 96cb ee3d b766 a43d
00000250: 14f4 273d a426 25bd ad49 f3bd fb27 eabd
00000260: 3cd2 9cbc b3b8 793d 3b7b 17be baab adbd
00000270: 9c89 643d b3b4 e1bc da84 a23d 7d88 dd3c
00000280: 0ee6 02be 2bd3 163d 1b7b 713d 997e 50bd
00000290: 2dfb 183e d705 513d ea6a 82ba 339a 05bd
000002a0: f62d 413d 7d1b 44bc 621a 43bc 8c75 f4bd
000002b0: eb25 9abd dedd e0bc 5173 d7bb d81a 0abe
000002c0: c844 5d3d 619b 0e3e 817a 1cbe b3a0 54bd
000002d0: 0eac 49bd aa10 e4bd ffc7 ff3c f377 c53d
000002e0: b1a4 bc3d 3c54 cabd c720 04bd 206c 98bc
000002f0: 47c8 0a3d 2620 8bbd cc3d bfbd 74dc a73d
00000300: 55a1 513d 8783 c9bd 718f 0b3e 4c44 873d
00000310: 259e 64b9 ea2c f1bd 9bf4 233e 22b9 97bd
00000320: de72 77bd 4171 8abd 792f d73d d51b c3bc
00000330: 4b63 733d db28 c83d 82b6 d4bc 946e e83c
00000340: 0754 a73d ef3c 113c 33b3 abbd 3c8d 9cbd
00000350: c259 2f3d 6c47 8ebd eb66 babd a1f9 c23d
00000360: 9a24 77bd c8a4 f93d 564c 1dbe e361 ff3d
00000370: 1ddb 033e 5b6e e2bd 8128 133e 8e82 85bd
00000380: 4dee 663d 5db3 3f3b ee9f 09be f2d9 4cbc
00000390: e72f c13d 0abe f7b8 f1be f03d 046c acbd
000003a0: 8078 aebd 943a e1bd 0220 61bc 04a6 e0bd
000003b0: 933d d93d 820c 193e be55 0abe a5bc edbb
000003c0: 59df abbd 1544 1e3d 7d59 6c3c 7711 203d
000003d0: f97a 08bb f010 b8bd 607e 0f3e af79 69bd
000003e0: 1851 083e 06d4 31bd 1052 da3d f475 e33c
000003f0: f44a e43d d010 1b3d 4bcd b53c 1466 2f3d
-0.13095139 0.0020658006 -0.018451469 0.024546653 -0.05650226 0.1481236 -0.12834944 0.07247526
0.08070371 -0.13796927 0.022363862 0.12590493 -0.014682908 -0.11657846 -0.120771945 0.06444579
-0.08197781 -0.03932428 -0.1296619 0.06528042 -0.133291 0.12966217 0.049013436 0.04565525
-0.028162781 -0.04936947 0.031241871 -0.14749317 -0.023222255 -0.015987726 -0.12088566 -0.010295383
0.013632504 -0.08119063 0.097733 0.05902596 -0.03218315 0.096664205 0.05768758 0.04795814
-0.04388641 -0.11592432 0.10089634 -0.060125414 -0.038151015 0.09663227 -0.08269664 0.08961439
0.112484895 0.008788786 -0.14015561 -0.13398732 0.046192482 -0.06304297 0.013380879 -0.011038845
-0.14606373 -0.043205865 -0.091958724 0.1073976 -0.14607587 -0.042656202 -0.119838394 -0.04474675
0.118381165 -0.017811762 0.03041551 -0.079491384 0.11384873 -0.033451065 0.019751072 -0.14302555
-0.10932463 0.11065159 -0.11535831 -0.06001334 -0.083226785 -0.09442115 -0.08681079 -0.04075752
0.13353708 0.039351176 0.0628031 -0.050183464 0.06564158 -0.08009733 -0.04559969 0.010256298
0.14185692 -0.05586432 0.052282598 -0.06671713 0.0662213 0.0385414 -0.0284487 0.052089334
0.12528697 -0.06958932 0.11805281 -0.1390831 -0.05567248 0.023270452 0.089127615 -0.072207935
0.044618364 0.123353004 -0.14184716 0.0643874 -0.10422215 -0.09032461 -0.026576314 0.017249143
-0.057111852 0.031128494 -0.06416524 -0.085530765 -0.10436558 -0.0011611404 0.11659876 0.097059295
0.05634133 -0.058582336 -0.01523846 0.11165081 0.08889157 -0.097188 0.11561028 0.109215364
0.07059927 0.12206397 -0.015502828 0.1288606 0.034534242 -0.024213284 0.09863503 -0.00061445136
-0.030721081 -0.09309612 0.043165226 0.047029886 0.11926658 -0.06352027 0.051873643 0.13750626
-0.0594798 -0.10157061 0.11659925 0.08027404 0.041004255 -0.040320054 -0.11879287 -0.11433407
-0.019143216 0.06096716 -0.14793102 -0.0848002 0.055795297 -0.027551984 0.07935496 0.027042622
-0.12783071 0.03682248 0.058955293 -0.050901983 0.14939566 0.05103096 -0.0009950076 -0.03261776
0.047162972 -0.011969444 -0.011908146 -0.11936483 -0.075267635 -0.027449545 -0.006575026 -0.13486803
0.054020673 0.1392646 -0.15281107 -0.051911067 -0.04923635 -0.11135991 0.031223295 0.09642019
0.092111 -0.09879348 -0.03225782 -0.018606246 0.033882406 -0.06793241 -0.09337959 0.08196345
0.05117925 -0.0983954 0.13628937 0.066048235 -0.00021802688 -0.11776145 0.16011278 -0.07408358
-0.06041228 -0.06759883 0.105071016 -0.023816982 0.059420865 0.097734176 -0.025965933 0.02837304
0.08170324 0.008864625 -0.08383789 -0.07644126 0.04281021 -0.069472164 -0.09101661 0.09520269
-0.06033764 0.12189633 -0.15361151 0.12469842 0.12876554 -0.11056205 0.1437092 -0.06519042
0.056379605 0.0029251196 -0.13439915 -0.012503134 0.09432965 -0.00011813275 0.11755169 -0.0841904
-0.08519077 -0.10997501 -0.013740541 -0.10969165 0.106074475 0.14946178 -0.1350927 -0.007255154
-0.083922096 0.038639147 0.014425633 0.039079156 -0.002082525 -0.089876056 0.14013052 -0.057000812
0.13312185 -0.043415092 0.106601834 0.027766205 0.11147109 0.03785783 0.022192618 0.04282196

onnx::LSTM_115 f4 [1, 512, 128]
00000000: ff51 7cbc 4592 e53d 7cbe 563d 60be 913d
00000010: 91c0 5abd ce86 f3bd 0c25 afbd 5aa1 13bb
00000020: 5e05 1dbd 6369 573b d21f c2bc 18b0 f33d
00000030: 4f35 b5bc 392b a9bd 903d 873d 670c 03be
00000040: 55a4 31bd cb85 403d cc6c ddbd da16 343a
00000050: f448 8cbd bc07 8d3d f4f7 a0bc 1fde f9bd
00000060: d604 0ebe 2c61 cd3d e659 80bd 37ea 943d
00000070: 87ce 9a3d 4cff 4c3d 49ec f53d f973 a3bd
00000080: ea39 e9bd f4ed aabd c6f2 d73d 2872 0d3d
00000090: 79dc 583d c36f 763d f02e 07be 9a21 303c
000000a0: c07a 61bd d0ab 743d 42c4 08bd a6f2 c03d
000000b0: c428 cc3d ebb7 d53d 5b6f 6b3a 1c9c a73d
000000c0: f918 333d d254 bf3c db8e 113e 478f b9bd
000000d0: 99f0 1bbd e1c1 7bbd 1282 563d 5807 ddbd
000000e0: f838 c43d c63e b2bd 2e90 8abd 4fae 023e
000000f0: 1d43 adbd e2ee 27bd 6327 473c 358a 333d
00000100: b8a2 f33d 3416 bd3d 84c2 133d 22f5 b23d
00000110: 94a4 7bbd 5239 cabd 3571 123e bc70 bcbc
00000120: 0131 0e3e 2f39 82bd c53b 893d ed7d 973d
00000130: 2aba 00be 55dd dcbd 026b 0d3e ead0 1fbe
00000140: a9e4 d63d 1106 bdbd dff2 033e 1c60 07be
00000150: 04e6 e6bd c8cb f7bd 0800 52bc 6d87 ac3c
00000160: dcda 04be f2d2 99bd a133 a9bd 984e 22bd
00000170: 8ece b33d 569c 373d c8bd 3bbb 0d86 a03c
00000180: 0a7f c4bd c192 a83d a448 473d 5285 39bd
00000190: d698 b73b 7c67 f2bd 8fa6 063e 7bb1 60bd
000001a0: 3f02 9f3d f093 12be aeca d7bd e81f ae3d
000001b0: 3a9e 103c cb85 ad3d b55f 38bd 197b 103d
000001c0: e644 9bbd 7e39 593d 3ef2 be3d 34b1 b73c
000001d0: bfa9 a13d 91a6 06bd 3c84 2dbc 411e 933d
000001e0: 6144 bcbb 5822 a93c bd74 7d3d 677c ae3d
000001f0: 8ad9 c4bd b3a7 1b3a 167f afbd 800a 073e
00000200: b916 0fbe 1cfa f2bd 8f5d 05be 85e5 923c
00000210: d1a3 f03d b59d 0ebe ffd2 eabc be12 a9bc
00000220: f76c 0ebd 55f6 09be 906d 163e 5f8e b93d
00000230: 83d3 01be 3831 fabc 7986 4dbd b74b 043e
00000240: d4a2 53bd 3070 0e3e bf04 c23c a471 e1bc
00000250: 9ef5 093e f61c 6dbd 84b9 2f3d db07 0f3d
00000260: bd49 f5bd 1323 103e abee b83d f8d0 863b
00000270: f6f9 a5bd db9a 0abe 18ca e0bd fe0a 173e
00000280: 23d1 b6bd 8ecf 08be 9ed6 f7bc c7b5 11be
00000290: 54a1 b2bd 1b03 0e3d 861e c13d 4b0b 0f3e
000002a0: 05ab d93c 3a9f 06be ec9c 973d d2e3 113e
000002b0: fdd5 09bd a288 98bc 8839 323c 8a0a 0ebe
000002c0: e859 6bbd 92a1 dcbd 5157 8fbd 2dfb 3bbd
000002d0: e2d6 8a3d abe7 9b3d a7b7 843b 151d 42bd
000002e0: 5942 04be 89d6 033e 376a f33d 421a 85bb
000002f0: 6795 203e 8726 d23c 742b b6bc ba01 033e
00000300: 38cd 693d 2800 1e3e 2e8a 803c 933a c0bc
00000310: 915e 17be 949f 053e f2ae acbc 1b1b ea3d
00000320: 3813 d3bd 2888 88bd 084f 95bd f189 4e3d
00000330: 6adc 09bd e076 68bd d07c d53c dd20 4a3d
00000340: 25d3 a33d 8413 a23d 9af9 5bbc 0d9c bdbd
00000350: 2821 bcbc 7678 0dbe a07e 0f3d 9aa5 af3d
00000360: 9677 b33c bb6e f93d 4775 113e 9f21 cebd
00000370: 0ec5 f63d 98e3 8d3d ef90 fd3d ad55 773c
00000380: f59f f8bd b28b 643d 4ccd 103c 91e1 adbd
00000390: 3342 f93c 000e c13d 7d4e 16bd 4a3e 643c
000003a0: e286 a3bd 66a3 a9bd 298b a3bd 6470 873d
000003b0: 642b cdbd 99d9 003e 32b3 cb3d d8ef 783d
000003c0: 84b4 e43d 5a9b d4bd 522e f83d de0e 89bc
000003d0: c3ec da39 1e31 19bb 0e4d 34be 838d f8bd
000003e0: 04a8 d1bd b4ef a73d a235 9c3d a4e5 c3bb
000003f0: 4d3f a539 68f1 dd3d 9b74 b33d c24d 893d
-0.015400409 0.11209539 0.052427754 0.07116389 -0.053406302 -0.11890946 -0.08551988 -0.0022526593
-0.038335197 0.0032869212 -0.023696814 0.118988216 -0.022120146 -0.08260197 0.06603539 -0.127977
-0.04336961 0.047002595 -0.10811767 0.000686986 -0.06849852 0.06886241 -0.019649483 -0.12200569
-0.13869032 0.100283 -0.06267147 0.072712354 0.07558923 0.050048158 0.120079584 -0.079811044
-0.11387999 -0.08346167 0.10544352 0.034532696 0.052944634 0.060165178 -0.13201499 0.010750199
-0.055048704 0.059734166 -0.03339029 0.094212815 0.09968713 0.1043547 0.0008981132 0.081840724
0.043724988 0.023355875 0.14214651 -0.09060531 -0.03807125 -0.061464194 0.05237014 -0.10792416
0.095811784 -0.08703379 -0.06765781 0.12761806 -0.084600665 -0.0409993 0.012155387 0.043832976
0.118962705 0.092327505 0.036074176 0.087381616 -0.06143625 -0.09874214 0.14300998 -0.023002975
0.13885881 -0.06358563 0.06700853 0.07397065 -0.12571016 -0.10784403 0.13810351 -0.15607038
0.10492832 -0.09229673 0.12885617 -0.13220257 -0.11274341 -0.12099415 -0.01281739 0.02106067
-0.12974113 -0.07510938 -0.082618006 -0.039625734 0.087796316 0.044826828 -0.0028647054 0.01959517
-0.09594543 0.08231116 0.04865326 -0.04529316 0.0056029363 -0.11836144 0.13149475 -0.05485676
0.077641 -0.14314246 -0.10536705 0.085021794 0.008826787 0.084727846 -0.04501315 0.035273645
-0.07581501 0.053033344 0.09323548 0.022423364 0.078937046 -0.032873694 -0.010590609 0.07183505
-0.005745456 0.02064626 0.06187891 0.085198216 -0.09611805 0.000593777 -0.085691616 0.13187599
-0.13973512 -0.11864111 -0.13023971 0.017931709 0.117499955 -0.13927348 -0.028665064 -0.02063882
-0.034771886 -0.13472874 0.14690232 0.09060358 -0.12678342 -0.030541047 -0.05017707 0.12919508
-0.051668957 0.13909984 0.023683904 -0.027520008 0.13472602 -0.057888947 0.04290153 0.0349196
-0.11976955 0.1407588 0.09029897 0.0041142665 -0.08104317 -0.13535635 -0.10976046 0.14750287
-0.089266084 -0.13360426 -0.030253705 -0.14229499 -0.08722177 0.03467093 0.0942965 0.13969152
0.026570806 -0.13146678 0.07402977 0.14247063 -0.03365134 -0.01861984 0.010877974 -0.13871208
-0.05745879 -0.107730046 -0.06999076 -0.045893837 0.06779267 0.076125465 0.0040502134 -0.047391016
-0.12915935 0.12874807 0.11885493 -0.004061968 0.15681992 0.025653137 -0.022237517 0.12793627
0.057080477 0.15429747 0.01569089 -0.02346543 -0.14782168 0.13049155 -0.021079514 0.11430951
-0.103064 -0.06666595 -0.07290465 0.05042452 -0.03365747 -0.056753993 0.026060492 0.049347747
0.07999257 0.079138786 -0.013426209 -0.0925828 -0.022965029 -0.13815483 0.03503287 0.08576508
0.021907609 0.12179323 0.14204894 -0.100650065 0.12049304 0.06928176 0.123811595 0.01509611
-0.121398844 0.055797286 0.008838009 -0.08490289 0.030427074 0.094264984 -0.036695946 0.0139308665
-0.07984711 -0.08283119 -0.07985527 0.06613234 -0.10018042 0.12583007 0.09946288 0.060775608
0.11167243 -0.103811935 0.1211821 -0.016730722 0.000417566 -0.0023375223 -0.17607519 -0.12136366
-0.102371246 0.082000166 0.07627417 -0.005978303 0.00031518415 0.1083706 0.08762475 0.06704284

onnx::LSTM_116 f4 [1, 1024]
00000000: 2ade 84bb 13f4 fbba 74f6 e03b f5a2 27bc
00000010: de86 7e3b ac85 f13b 29c2 473c 6620 4f3b
00000020: e152 993a 08fd f7bb c601 e83b fca1 5a3c
00000030: 03d6 db3b b811 943b 1697 ba3b 55b3 273c
00000040: c54f 4b3c 7cd8 313c ed30 a7bb 787e 8cbb
00000050: ac40 313c 47da 953b 0212 22bc e1c9 003c
00000060: 3e9f 24b9 05aa 213c 8cb3 103c f83c 2b3c
00000070: 4796 a73b 746e 123c 7421 f73a 97d3 283c
00000080: 8096 28bb bdad 813b 1476 563c fda2 9a3b
00000090: 4994 b93b 8702 a33b 7a37 953a 6f6e 393c
000000a0: 8f95 1d3c 1dbd 41bb 2371 7d3a 4f6b 453c
000000b0: 9c75 1e3c b980 c53b 033b b939 2ff9 d83a
000000c0: 5cf4 2cba c3b2 133c 9246 f53b 47d3 e53b
000000d0: 434b c6bb ce8e 9a3b 6a05 e63a 04bd a33b
000000e0: 8773 113c bd95 68bc d9d1 393a a9e0 833b
000000f0: 5940 0d3b 4949 80bb 81fa 803c ecaa 8abb
00000100: 2a67 853b 87b9 b03b e28d ae3b 5b6f 7c3b
00000110: a4cc f4bb 3578 863b fa96 3fbb 3c2f 33bc
00000120: 3411 0a3b c11c 173c ce79 5c3b edd8 bc3b
00000130: 86fc 223c 8428 a4bb 9d9c 7f3b bcf0 a8ba
00000140: 00b7 ae3b fd82 b33b 4443 71bb 5366 113c
00000150: af02 8c3c 559d 1e3c 1416 cf3a 1c55 a93a
00000160: 6db5 fe3b 5796 55ba 45c7 4a3b 3737 693c
00000170: 0227 b83b 2b57 d13b 154a 96bb 7d55 3b3a
00000180: 1294 403c 53f9 133c 9efd c23b 8802 4f3c
00000190: c0fd 1fbc 9da6 503c bb58 1a3c 96c8 d83b
000001a0: 3307 6d3c c2b5 333c 4ad6 a03b 409e f83b
000001b0: 4e6b 7fbb 8804 133c 8dd6 313c b8aa 3e3c
000001c0: 3f3d 6c3b 97a1 353c df15 153c a62f 403c
000001d0: 1671 693c 4990 133c 7af8 ba3a 9eb3 903c
000001e0: d2f8 8b3c abc6 a63c cd8c 323b 1e9c f43b
000001f0: a43a 233c fc2f fdbb 65da 323c 5721 e53b
00000200: 4206 01bc 61c4 f2ba bb40 2d3b 2335 58bc
00000210: d2f5 203a 013a 033c 2b3c 403c a51a fe3a
00000220: 95d7 193b 73b5 6b3b 36f1 9c3b 0ba6 4f3c
00000230: 6464 213c 725f b23a d9b2 ef3b 5910 a73b
00000240: 7bf7 163c 4077 413c 8dee 8bbb e0b4 d7bb
00000250: d2db f1b9 3d31 43bc f062 2ebc 196c 073c
00000260: 474e 3bbc 4493 ff3b da3e 12ba 639e 193c
00000270: 4b83 7d3b 848e d53b 53fb d03b cb8a e83b
00000280: d84a 74ba 1145 393c 1c8a 333c 75e8 ad3b
00000290: 477d a3bb 2667 25bb 82eb 4a3b 3d80 f63a
000002a0: c8b5 863c 3bbd b63a 90fe ea39 7a21 333c
000002b0: 92fe b03b cb39 653c 761c 4abb ee23 ba3b
000002c0: 657e a8bb ce97 283c 8c87 fe3b 2f24 a43b
000002d0: f05f 91bb bb62 1b3c 68b6 3aba ce53 fd3b
000002e0: 1940 df3b 0be0 09bc 21bd d13a a18b ea3b
000002f0: f62f f4bb e30c 4bbb 38d8 533c 1018 30bb
00000300: a9fb a33b dc20 f73b 0ebe f03b ac0b 383c
00000310: 902b 07bc 1185 d13b 4a6c eb38 4ed4 99bb
00000320: cbea b9bb 4ce9 053c eed1 273a ba21 473c
00000330: ac68 eb3b 1f4c 9d3b 1bdb cbbb 66d6 803b
00000340: e726 0bbc 2ce0 873c 8fab 89bb 5214 4b3c
00000350: 6a2a 093c 520e 6f3c 47f2 06bc 241a d2bb
00000360: 8723 de3a e79f 7e3b 1138 863c e379 5e3c
00000370: b63b 313b bb10 34bb f556 b3bb eb97 0c3c
00000380: b5ea 623b 45eb 343c 5ee3 3f3c 8cad 503c
00000390: ae42 6dbb 1870 9e3c e042 023c 06e1 2f3c
000003a0: dd4a 763c 0167 413c da07 b73b c5df 4d3c
000003b0: c381 bb37 0207 443c 43c2 193c 87b0 1e3c
000003c0: ae6f 243c 87f1 5a3c 09cb a93b cabf 063c
000003d0: a93c 023c 5305 193c b630 963c 511e 353c
000003e0: ad68 2c3c d8af 043d 68e0 19bc 5619 c53b
000003f0: f6f2 203c 9b67 0a3c 5de4 e63b f853 9db9
-0.0040548043 -0.001922252 0.006865317 -0.010231723 0.0038837711 0.0073706713 0.0121922875 0.0031605004
0.0011697673 -0.0075680055 0.0070802895 0.013344284 0.006708862 0.004518714 0.0056942804 0.010235627
0.012409155 0.010854837 -0.005102268 -0.004287537 0.010818642 0.00457314 -0.009891989 0.007860632
-0.00015699581 0.009867196 0.00883187 0.010451548 0.00511435 0.008937467 0.0018854574 0.010304353
-0.002572447 0.003957479 0.013089675 0.0047191367 0.005663429 0.0049746665 0.0011384331 0.011317833
0.009618177 -0.0029562183 0.0009668043 0.01204951 0.009671595 0.006027308 0.00035329917 0.0016553755
-0.00065976917 0.009014788 0.0074852193 0.0070137116 -0.0060514524 0.0047167307 0.0017549221 0.0049968977
0.0088776415 -0.014195857 0.00070884597 0.0040245843 0.0021553247 -0.0039149863 0.01574445 -0.0042318013
0.004071136 0.0053932103 0.0053269723 0.0038518521 -0.007470684 0.0041036853 -0.0029234276 -0.0109365545
0.0021067383 0.009223164 0.0033641937 0.0057631643 0.009947902 -0.0050097127 0.003900326 -0.0012889127
0.005331874 0.0054782615 -0.0036813775 0.008874494 0.017091123 0.009681066 0.0015799426 0.0012919041
0.0077730925 -0.00081477076 0.0030941528 0.014234356 0.0056198845 0.006388565 -0.004586468 0.00071462226
0.011754053 0.0090316115 0.0059506437 0.012634881 -0.009765089 0.012735036 0.009420569 0.0066157086
0.014467048 0.010968627 0.0049083577 0.0075872242 -0.003897387 0.008973248 0.010854376 0.011637382
0.0036047248 0.011085889 0.009099453 0.01173011 0.014248153 0.009006568 0.0014264726 0.017663773
0.01708642 0.020358404 0.0027244568 0.0074648997 0.0099627115 -0.0077266674 0.010916327 0.0069925
-0.007875027 -0.001852166 0.0026436287 -0.0131962625 0.00061401457 0.008009435 0.011733095 0.0019386603
0.0023474444 0.0035966306 0.004789497 0.012673865 0.009850595 0.0013608767 0.0073150215 0.0050983843
0.009214277 0.011808217 -0.004270381 -0.0065828413 -0.0004613088 -0.011913595 -0.010643706 0.008265519
-0.011432237 0.007799538 -0.00055788236 0.009376141 0.0038682993 0.0065172333 0.0063776164 0.0070966235
-0.0009319014 0.011307971 0.010958221 0.005307252 -0.0049892995 -0.0025238483 0.0030963128 0.0018806529
0.016444102 0.0013941893 0.00044821622 0.010933274 0.005401441 0.01399083 -0.0030839718 0.0056805527
-0.0051420205 0.010290099 0.0077676233 0.0050091962 -0.0044364855 0.009483988 -0.00071225176 0.0077309376
0.006813061 -0.008415232 0.0016001799 0.0071577583 -0.0074520065 -0.0030983023 0.012929969 -0.002686981
0.0050043655 0.007541759 0.007346875 0.011233252 -0.008250132 0.0063940366 0.000112258436 -0.004694498
-0.0056737415 0.008173298 0.00064018264 0.012154037 0.0071841087 0.004800334 -0.0062211878 0.0039318083
-0.008493162 0.016586386 -0.0042013596 0.012394981 0.008371929 0.014590817 -0.008236474 -0.0064118076
0.0016947844 0.0038852633 0.016384156 0.013578865 0.0027043647 -0.0027475792 -0.0054730126 0.008581142
0.003462476 0.011042421 0.011711923 0.012736689 -0.0036203074 0.01934056 0.007950515 0.010734802
0.015032497 0.011804343 0.005585653 0.012565558 2.2352562e-05 0.011964561 0.0093846945 0.009685642
0.010036392 0.013363249 0.0051816744 0.008224437 0.007949033 0.009339648 0.018333774 0.011054591
0.0105230035 0.03239426 -0.0093918815 0.006014983 0.009823551 0.008447553 0.007046266 -0.00030007935
