Machine-Learning-DRL/results/SeekerTrainingWall9/Seeker/Seeker-499976.onnx (onnx, 610983 bytes, 11 tensors)

discrete_act_size_vector f4 [1, 2]
4.0 1.0
00000000: 0000 8040 0000 803f

network_body._body_endoder.seq_layers.0.weight f4 [128, 8]
-0.06443171 0.07958212 0.3393372 0.2810672 -0.081089236 -0.0126256915 0.3571574 0.36660808
-0.29232064 -0.4720918 -0.7562893 -0.24323909 0.031074096 0.23124677 0.27923986 -0.19619183
0.26345694 -0.29420504 -0.06594573 0.21668658 -0.38329768 0.25685373 -0.10965616 0.044393923
0.007087936 -0.15667985 -0.27219722 0.4571117 -0.6457482 -0.003286801 0.06812649 -0.09231412
-0.17283855 0.1565323 0.3819806 0.22989458 0.05028944 -0.27490398 -0.082964756 -0.20452909
-0.3626904 -0.18606956 -0.31038222 0.16648422 -0.0750817 -0.032381754 -0.10945455 0.08927048
0.18248792 -0.39343858 -0.2049672 -0.29308778 -0.11380648 0.5264313 -0.091393545 0.15842006
-0.4310177 -0.32604375 -0.42361987 -0.013073292 -0.587353 -0.2642786 0.90764785 0.22527239
0.30331552 0.18083812 0.58799773 0.45194092 0.5133817 0.014927127 -0.33501133 -0.0826567
0.06469334 -0.20986396 -0.46756953 -0.16444 0.17876895 -0.09373254 0.4681111 0.55917937
-0.17634389 -0.35158926 -0.054649968 -0.20112695 -0.12903197 -0.38329014 0.0071626985 0.076427534
-0.2672031 -0.04144015 0.37902895 0.2812315 0.48537517 -0.14464982 -0.5453235 0.30227
0.39843646 0.12433169 -0.022559687 0.27779838 -0.17130622 -0.029986897 -0.01701891 -0.25608203
-0.15617369 0.22770675 0.010580302 -0.22900602 -0.028466146 0.17624511 -0.002765427 0.4491794
-0.8992649 -0.23634952 -0.1969351 0.21363594 0.17917658 -0.351804 0.3980906 0.87730676
0.47097048 0.09677643 -0.5864386 0.04083395 -0.2787077 -0.07805001 0.3446459 0.23553479
0.06648744 -0.6042268 0.14521198 -0.10311189 0.48082614 -0.44262367 -0.2959916 -0.26660964
0.65283495 -0.16934635 0.0233427 0.088498905 -0.35706282 -0.39143756 -0.48262662 -0.19698484
-0.34485176 -0.03690737 -0.43213078 -0.48716596 0.46772093 -0.22412544 -0.17797777 0.090326734
0.30439618 0.11086912 0.38140932 0.23599732 0.53948814 -0.062233754 0.43435273 0.018618027
-0.055567537 -0.39578924 -0.20836593 0.22183728 -0.27003342 0.4153861 0.1445498 -0.18530723
-0.38532552 -0.36167595 -0.26613486 0.15872848 -0.052639414 -0.18706115 0.6072764 -0.5231631
-0.44007564 -0.009643385 0.29723823 -0.27868298 -0.23992342 0.22195569 -0.003067233 -0.064271264
0.17917205 0.29397643 0.072112285 0.08515947 -0.28195405 0.17826302 0.5866649 -0.058572687
-0.14944509 -0.43112954 -0.011034372 0.44293225 -0.3464211 0.05068156 -0.3911811 0.25214326
0.2726935 -0.5275938 0.3166935 -0.4074611 -0.2751794 0.2970412 0.11659313 -0.84527314
-0.12328294 -0.3998964 -0.36720866 0.33968297 0.28637803 0.90691394 -0.062077723 0.21635711
-0.10543363 0.23432265 0.2487501 -0.0005864691 0.79981637 -0.29817462 -0.016721258 -0.1114766
0.21961884 0.24969217 -0.277266 -0.43252847 0.27671197 -0.21577743 0.12999177 -0.01051265
-0.05921772 -0.24054626 -0.68335503 0.09741152 0.5264884 -0.3793238 -0.3423434 -0.6324844
0.030482173 0.03520313 -0.6449688 -0.30871597 0.254418 -0.15650392 0.4548306 0.53968644
-0.021263042 -0.041848484 -0.04126438 0.07054088 0.14275695 0.112702884 -0.018013634 -0.3493988
00000000: c6f4 83bd f3fb a23d 9bbd ad3e 0ae8 8f3e
00000010: 1d12 a6bd fddb 4ebc 56dd b63e 0eb4 bb3e
00000020: 0dab 95be 04b6 f1be 2d9c 41bf ab13 79be
00000030: 1a8f fe3c f4cb 6c3e 87f8 8e3e 83e6 48be
00000040: d4e3 863e 0ba2 96be 8e0e 87bd 16e3 5d3e
00000050: 983f c4be 5582 833e 6993 e0bd 67d6 353d
00000060: eb41 e83b af70 20be 6f5d 8bbe 8b0a ea3e
00000070: c14f 25bf 5f67 57bb e785 8b3d 2f0f bdbd
00000080: 97fc 30be 014a 203e f692 c33e 7c69 6b3e
00000090: 4dfc 4d3d 37c0 8cbe 6de9 a9bd 1370 51be
000000a0: 8eb2 b9be 0589 3ebe 6bea 9ebe d77a 2a3e
000000b0: 6fc4 99bd bba2 04bd b529 e0bd 71d3 b63d
000000c0: 1dde 3a3e c870 c9be ece2 51be 9a0f 96be
000000d0: 5f13 e9bd 34c4 063f 8a2c bbbd de38 223e
000000e0: 5aae dcbe 35ef a6be b4e4 d8be 5c31 56bc
000000f0: c45c 16bf 864f 87be 9c5b 683f cead 663e
00000100: 2c4c 9b3e a12d 393e 0587 163f cd64 e73e
00000110: fc6c 033f e990 743c 9b86 abbe ea47 a9bd
00000120: f17d 843d 94e6 56be 4665 efbe f662 28be
00000130: 350f 373e d9f6 bfbd 42ac ef3e 6126 0f3f
00000140: 7e93 34be 8203 b4be a5d8 5fbd 39f4 4dbe
00000150: f520 04be 9b3e c4be 12b5 ea3b 0a86 9c3d
00000160: d8ce 88be 26bd 29bd 1510 c23e 93fd 8f3e
00000170: 1883 f83e 151f 14be 529a 0bbf 22c3 9a3e
00000180: ddff cb3e 9da1 fe3d 18cf b8bc 973b 8e3e
00000190: e66a 2fbe 15a7 f5bc 3e6b 8bbc 2f1d 83be
000001a0: ffeb 1fbe f52b 693e 0159 2d3c 8e80 6abe
000001b0: d631 e9bc 9979 343e 2b3c 35bb d8fa e53e
000001c0: 3936 66bf 9c05 72be 5ba9 49be 61c3 5a3e
000001d0: 117a 373e a71f b4be 88d2 cb3e 2d97 603f
000001e0: 0b23 f13e b932 c63d d720 16bf 8041 273d
000001f0: c7b2 8ebe afd8 9fbd 6d75 b03e 0830 713e
00000200: 912a 883d 9cae 1abf 73b2 143e 542c d3bd
00000210: d82e f63e 929f e2be 368c 97be 0f81 88be
00000220: 3120 273f 2169 2dbe 3139 bf3c ea3e b53d
00000230: f0d0 b6be 816a c8be d61a f7be 65b6 49be
00000240: 6990 b0be 2f2c 17bd 3f40 ddbe d16d f9be
00000250: 1e79 ef3e 2481 65be ce3f 36be 39fd b83d
00000260: d1d9 9b3e 590f e33d 1548 c33e 48a9 713e
00000270: e51b 0a3f d2e8 7ebd 7b63 de3e d584 983c
00000280: c99a 63bd e3a4 cabe e15d 55be 5029 633e
00000290: d241 8abe 7dad d43e dd04 143e 2ec1 3dbe
000002a0: 6349 c5be 972d b9be d442 88be b889 223e
000002b0: 6d9c 57bd f58c 3fbe 7776 1b3f 04ee 05bf
000002c0: 9851 e1be 4aff 1dbc 9c2f 983e 89af 8ebe
000002d0: 7cae 75be 5a48 633e a103 49bb a7a0 83bd
000002e0: e178 373e 1484 963e 9baf 933d 1768 ae3d
000002f0: 485c 90be 958a 363e ac2f 163f eae9 6fbd
00000300: 2208 19be 03bd dcbe 83c9 34bc 04c8 e23e
00000310: 1b5e b1be 7897 4f3d e448 c8be ec18 813e
00000320: 7c9e 8b3e 6310 07bf a725 a23e be9e d0be
00000330: 50e4 8cbe c915 983e 61c8 ee3d d263 58bf
00000340: c47b fcbd 39bf ccbe c602 bcbe edea ad3e
00000350: 24a0 923e 832b 683f 3645 7ebd b88c 5d3e
00000360: 96ed d7bd 47f2 6f3e 59b8 7e3e 46bd 19ba
00000370: c4c0 4c3f 58aa 98be 05fb 88bc d84d e4bd
00000380: c3e3 603e 4eaf 7f3e cff5 8dbe 5f74 ddbe
00000390: 31ad 8d3e c2f4 5cbe 901c 053e 403d 2cbc
000003a0: 488e 72bd c251 76be 5bf0 2ebf b17f c73d
000003b0: f2c7 063f bb36 c2be a247 afbe 7fea 21bf
000003c0: c0b5 f93c 2831 103d ad1c 25bf 0510 9ebe
000003d0: 1343 823e 9042 20be 8edf e83e e428 0a3f
000003e0: d52f aebc 5169 2bbd d704 29bd bd77 903d
000003f0: e12e 123e c5d0 e63d 5491 93bc 66e4 b2be

network_body._body_endoder.seq_layers.0.bias f4 [128]
-0.024320703 0.012826254 0.05029095 -0.02660068 -0.0036151586 0.017683055 -0.018333906 -0.015148414
0.07120973 -0.023955643 0.008237216 -0.0019889246 -0.00019658485 0.02534716 0.0014500538 0.010760678
0.019529257 0.020541368 0.013037742 0.03659606 -0.0074260384 0.007322138 -0.03274575 0.008640932
0.010404158 -0.030265033 -0.030569842 0.020475062 -0.012196951 0.016450362 0.0021917447 0.006082515
0.0060983226 0.005576027 -0.016766997 0.012959814 0.04890613 -0.016173342 -0.0035021212 -0.016773416
-0.0051257093 -0.024066627 -0.0065428293 0.060123056 0.023241714 0.009014592 0.020681363 0.08321474
-0.006005783 0.012438752 0.012553002 -0.017548881 -0.016834065 0.023860326 -0.022418106 -0.027388128
0.08274319 0.004220804 0.0070159514 0.08834593 -0.012866451 -0.039677903 -0.05125168 -0.0066888705
-0.03731664 -0.012239229 0.0060250424 -0.022554955 -0.0073097767 0.025715737 -0.013271962 -0.010733382
0.03963945 -0.044174578 -0.01310099 0.0012959171 0.009991859 0.008285242 0.009773395 0.041598324
0.010004685 0.03535035 -0.016793076 -0.01687818 0.0014981392 0.0076180245 0.05629823 -0.0023718397
-0.008161647 0.024574973 0.017460007 -0.009816506 -0.017572954 0.0074396096 -0.006838479 0.000754669
-0.0028610926 0.009926105 -0.01484617 -0.016855804 0.0028964828 -0.031117063 0.008187017 0.012189727
-0.03225741 0.039767805 -0.019109923 0.019612754 -0.015782185 -0.021531189 0.038678832 -0.010991338
0.0021992337 0.039811067 0.01782114 -0.00071835105 0.033335943 -0.02278453 -0.00012828171 0.018990273
0.019979553 0.01859473 0.010470476 -0.014781394 -0.020180278 0.0137501005 0.034201883 0.026958264
00000000: 363c c7bc 3525 523c e2fd 4d3d abe9 d9bc
00000010: 4cec 6cbb 0edc 903c fd30 96bc 0e31 78bc
00000020: 68d6 913d a03e c4bc 63f5 063c 9e58 02bb
00000030: 5822 4eb9 d9a4 cf3c bb0f be3a 8e4d 303c
00000040: d2fb 9f3c 5f46 a83c 419c 553c c0e5 153d
00000050: 2056 f3bb 8cee ef3b 6820 06bd b292 0d3c
00000060: 3476 2a3c 60ee f7bc 9b6d fabc 51bb a73c
00000070: b8d5 47bc e9c2 863c 60a3 0f3b d64f c73b
00000080: 70d4 c73b 1bb7 b63b f15a 89bc 6655 543c
00000090: cb51 483d f57d 84bc d883 65bb 6768 89bc
000000a0: 91f5 a7bb 6027 c5bc 3b65 d6bb 9843 763d
000000b0: 6865 be3c f0b1 133c f66b a93c 7d6c aa3d
000000c0: 29cc c4bb e8cb 4b3c 1bab 4d3c acc2 8fbc
000000d0: 98e7 89bc bb76 c33c 2da6 b7bc 115d e0bc
000000e0: 4375 a93d ac4e 8a3b 11e6 e53b b6ee b43d
000000f0: cfcd 52bc 4c85 22bd 48ed 51bd 502e dbbb
00000100: 55d9 18bd 0c87 48bc b86d c53b 2bc5 b8bc
00000110: da86 efbb cfa9 d23c a572 59bc 11db 2fbc
00000120: fa5c 223d 67f0 34bd 89a5 56bc c3db a93a
00000130: e5b4 233c d3be 073c 9720 203c 0163 2a3d
00000140: b1ea 233c 87cb 103d a291 89bc 1c44 8abc
00000150: 365d c43a 9fa0 f93b f998 663d de70 1bbb
00000160: 6eb8 05bc 7451 c93c 4a08 8f3c 69d5 20bc
00000170: 28f5 8fbc f8c7 f33b 5215 e0bb fbd4 453a
00000180: 2b81 3bbb 1aa1 223c 5a3d 73bc 2f15 8abc
00000190: ebd2 3d3b 36e9 febc d722 063c 6cb7 473c
000001a0: 5920 04bd 91e3 223d 6a8c 9cbc edaa a03c
000001b0: a449 81bc 2d62 b0bc b26d 1e3d 0315 34bc
000001c0: 0521 103b ee10 233d a4fd 913c b94f 3cba
000001d0: 458b 083d 9fa6 babc 5c83 06b9 7d91 9b3c
000001e0: 29ac a33c fa53 983c 5c8c 2b3c a92d 72bc
000001f0: 1c51 a5bc 1a48 613c 4617 0c3d 94d7 dc3c

network_body._body_endoder.seq_layers.2.weight f4 [128, 128]
-0.066273764 0.027626855 0.054074932 -0.0037277283 -0.021906633 -0.011788228 -0.07496548 -0.11161668
-0.008673237 0.0014565877 0.035771005 -0.12749247 -0.01043485 -0.08272297 0.03656423 -0.13626872
-0.0076409737 -0.057954106 0.047084883 0.16887039 -0.089784354 0.04838041 0.116918616 0.0152988825
0.0031080544 0.16294806 -0.056196902 -0.023031823 0.05598038 0.048361305 -0.035781544 -0.011441951
-0.092133224 0.05006174 -0.07901603 0.046809394 -0.099191144 -0.026961433 0.046574205 0.13406855
-0.043930687 0.04551357 -0.14004959 0.0118909115 -0.065428 -0.21473356 0.12725073 0.17638823
-0.07791997 0.0084705 0.023932768 -0.03067268 -0.08907845 0.09120755 0.028129045 0.07072162
-0.069250375 0.031790145 0.115747645 0.049281616 -0.11318254 0.12763864 -0.02293479 0.044241216
0.024681296 0.00070051686 -0.014135498 0.049003236 -0.0801178 0.02524354 0.06383676 -0.085430466
-0.057228006 0.11683649 -0.035512865 0.035199072 -0.075008556 0.052810587 0.11712214 -0.07849412
0.008648301 -0.038992126 -0.06292482 -0.07214629 0.027169572 -0.024923446 -0.044383463 0.01805728
0.09200357 0.07719077 -0.02655842 -0.04845791 -0.15554787 -0.025695896 0.01973069 0.012290904
0.14788005 0.014996758 -0.15520212 -0.020058788 -0.0005836401 0.05406548 0.019135827 0.10499509
-0.013003556 -0.057460994 -0.0798316 -0.013900882 0.022402562 0.02777578 -0.037534706 0.2042705
0.0070525147 0.1580392 -0.084348194 0.032778844 -0.07752792 0.08806689 -0.20137121 -0.20860906
0.00037185982 -0.07150951 0.05806033 -0.024085267 0.028688794 0.08490637 -0.12256202 0.02199324
0.046597756 -0.016244601 0.19566567 0.0615169 0.082547285 0.04603707 0.12678142 -0.1156387
0.034755573 -0.10599385 -0.06590804 0.07839668 0.09519315 -0.038278576 -0.007850702 -0.097313106
-0.01039363 0.046552148 -0.15640822 0.0948731 -0.014051428 -0.08150516 0.007089673 0.005974708
-0.07932115 -0.20502055 -0.08558451 0.041914504 -0.13832654 0.059695587 -0.016505186 0.06030575
-0.03692626 0.038480137 -0.048027687 0.11604586 -0.116026826 -0.107706144 0.11992014 0.11366
0.10568113 0.12605172 0.08936857 0.10093286 -0.06493478 0.04372755 -0.0622485 0.035187125
0.009431761 -0.041423276 0.058937654 0.10521992 -0.13851063 -0.026476987 -0.21721861 0.079357274
0.028549245 -0.06927092 0.054477457 0.026699992 -0.029250944 -0.050927307 -0.13869433 0.11437782
0.045763403 0.01748958 -0.06446621 -0.001831334 0.025482073 0.029862896 0.077923946 0.1279449
-0.026155533 -0.08693793 -0.12914035 0.001434138 0.18321717 0.09338989 0.07553867 0.078703165
0.095548846 -0.0032710766 0.10997236 -0.040595822 -0.04194187 0.044342317 -0.093382135 0.07764825
-0.26481333 0.011168376 0.052634872 -0.036602728 0.092820995 -0.08360005 -0.0017865079 -0.11926801
-0.014383098 0.026191197 -0.14577214 -0.031729214 -0.040113285 0.11437246 0.01116961 -0.030503623
0.089753024 -0.03683782 0.10870846 -0.022009721 -0.14665623 0.099095225 0.098148316 -0.007984268
-0.028211363 -0.07121073 -0.13684338 0.06818542 0.23985212 0.102177985 0.14077625 0.057710066
-0.0015611869 -0.13470434 0.02114035 -0.19998771 -0.03412555 -0.015822144 -0.019044695 -0.0017359189
00000000: 8aba 87bd b751 e23c ad7d 5d3d e74c 74bb
00000010: 8a75 b3bc 6923 41bc 8087 99bd 4997 e4bd
00000020: 311a 0ebc f9ea be3a 9e84 123d 638d 02be
00000030: eff6 2abc a96a a9bd 60c4 153d 078a 0bbe
00000040: 2261 fabb 4961 6dbd 14dc 403d 5cec 2c3e
00000050: dce0 b7bd 892a 463d 0773 ef3d 2aa8 7a3c
00000060: 80b0 4b3b dbdb 263e b92e 66bd 3cad bcbc
00000070: af4b 653d 8116 463d ab8f 12bd 0577 3bbc
00000080: 58b0 bcbd 8a0d 4d3d 28d3 a1bd 35bb 3f3d
00000090: ba24 cbbd 39de dcbc 98c4 3e3d 4449 093e
000000a0: aaf0 33bd 706c 3a3d 2969 0fbe 19d2 423c
000000b0: 1eff 85bd 1de3 5bbe 044e 023e 1e9f 343e
000000c0: 8194 9fbd dac7 0a3c a70e c43c 4645 fbbc
000000d0: c36e b6bd 06cb ba3d e26e e63c 7fd6 903d
000000e0: 24d3 8dbd 6236 023d 1a0d ed3d 85db 493d
000000f0: 3fcc e7bd b4b3 023e bee1 bbbc 4736 353d
00000100: 6e30 ca3c e4a2 373a 9398 67bc 9eb7 483d
00000110: cd14 a4bd 8acb ce3c d9bc 823d 2bf6 aebd
00000120: ea67 6abd f847 ef3d f075 11bd e72c 103d
00000130: 169e 99bd ea4f 583d bcdd ef3d 86c1 a0bd
00000140: 9ab1 0d3c 35b6 1fbd bade 80bd 6fc1 93bd
00000150: b992 de3c 412c ccbc 6fcb 35bd dcec 933c
00000160: 5e6c bc3d 3216 9e3d 0b91 d9bc cd7b 46bd
00000170: f147 1fbe 3380 d2bc 42a2 a13c ca5f 493c
00000180: de6d 173e f6b4 753c 4eed 1ebe 5452 a4bc
00000190: 6dff 18ba c473 5d3d bdc2 9c3c aa07 d73d
000001a0: de0c 55bc 385c 6bbd c07e a3bd 86c0 63bc
000001b0: 9485 b73c 088a e33c febd 19bd 492c 513e
000001c0: c818 e73b 07d5 213e bfbe acbd 1c43 063d
000001d0: f5c6 9ebd 6a5c b43d 4134 4ebe 9d9d 55be
000001e0: 2ef6 c239 9473 92bd abd0 6d3d 774e c5bc
000001f0: c304 eb3c 64e3 ad3d cc01 fbbd 2b2b b43c
00000200: 4add 3e3d 6613 85bc 955c 483e 25f9 7b3d
00000210: 8d0e a93d 5e91 3c3d fdd2 013e fcd3 ecbd
00000220: dc5b 0e3d 4e13 d9bd cbfa 86bd 708e a03d
00000230: a0f4 c23d ffc9 1cbd 3ba0 00bc 184c c7bd
00000240: 0b4a 2abc 77ad 3e3d 7a29 20be d44c c23d
00000250: f637 66bc 2dec a6bd 7d50 e83b 7cc7 c33b
00000260: 2173 a2bd e8f0 51be ee46 afbd 8bae 2b3d
00000270: 79a5 0dbe 5c83 743d e235 87bc 2a03 773d
00000280: fd3f 17bd 599d 1d3d aeb8 44bd 74a9 ed3d
00000290: 799f edbd 0a95 dcbd b198 f53d 93c6 e83d
000002a0: 596f d83d b413 013e de06 b73d e3b5 ce3d
000002b0: 87fc 84bd a91b 333d 48f8 7ebd 6020 103d
000002c0: ac87 1a3c 74ab 29bd 9c68 713d 8b7d d73d
000002d0: bbd5 0dbe 44e6 d8bc 8e6e 5ebe 1186 a23d
000002e0: 1be0 e93c e9dd 8dbd c123 5f3d f1b9 da3c
000002f0: ad9f efbc 2799 50bd e305 0ebe eb3e ea3d
00000300: 6872 3b3d 4f46 8f3c dc06 84bd 5f09 f0ba
00000310: c8bf d03c 08a3 f43c 9796 9f3d fd03 033e
00000320: 2144 d6bc 830c b2bd 5e3d 04be b0f9 bb3a
00000330: 489d 3b3e 3343 bf3d 05b4 9a3d 202f a13d
00000340: 1daf c33d 8f5f 56bb 3039 e13d ce47 26bd
00000350: 3dcb 2bbd 4aa0 353d 223f bfbd 0c06 9f3d
00000360: 9d95 87be 90fb 363c aa97 573d beec 15bd
00000370: ef18 be3d 8136 abbd 4229 eaba c942 f4bd
00000380: 16a7 6bbc ec8e d63c 4b45 15be 7ef6 01bd
00000390: d44d 24bd 1c3c ea3d bd00 373c bce2 f9bc
000003a0: 6fd0 b73d 41e3 16bd 8ba2 de3d bb4d b4bc
000003b0: 0d2d 16be 70f2 ca3d fc01 c93d 72d0 02bc
000003c0: 841b e7bc eed6 91bd ac20 0cbe cca4 8b3d
000003d0: cb9b 753e b142 d13d a627 103e 6461 6c3d
000003e0: bda0 ccba efef 09be 872e ad3c 94c9 4cbe
000003f0: 3cc7 0bbd 719d 81bc 9f03 9cbc c687 e3ba

network_body._body_endoder.seq_layers.2.bias f4 [128]
0.008240126 0.010350086 -0.00898699 -0.000169532 0.024334976 0.034569982 -0.0006235374 -0.016375812
-0.017576192 0.01222499 -0.017512836 -0.013378835 0.010244209 -0.00049459655 -0.00657538 -0.001893937
-0.0010272374 -0.007654159 0.00031518936 0.026216285 -0.017337048 0.00054242363 -0.022189764 0.006193087
0.004815296 0.0021501894 -0.003344775 -0.0014232008 0.0017149318 0.003141809 -0.016375072 -0.0039776005
-0.012250269 -0.003416835 0.017142512 -0.012824811 0.0018555167 -0.005046443 0.04258661 -0.001847159
-0.0057254676 0.018249158 -0.021085247 -0.024338735 -0.007461214 0.00913832 0.0053019132 0.0053024925
0.009291981 0.0012603428 0.014329153 0.0043686554 -0.0036949848 0.0076200464 -0.0075915214 -0.00048474924
0.0005717773 0.0032734096 -0.0087853065 -0.009274556 -0.015367027 -0.005814442 0.004723563 0.014171273
0.0072093266 -0.0036838732 -0.010991162 -0.005828678 -0.0075078025 -0.014322708 -0.0072990577 -0.012246048
-0.0031267917 0.004365417 0.00330534 -0.01772073 0.0020640085 0.021436526 -0.0011306902 -0.0045259763
-0.0096197985 0.008644135 0.0026366212 -0.012523377 0.002480013 0.045684434 0.0032186185 0.011176251
-0.022128355 0.019655172 0.01840543 0.0018350389 0.002173462 -0.006131256 -0.007934994 0.004924248
0.0020033636 0.0010829025 0.010043805 -0.009213298 -0.0038056022 -0.010642655 0.005608808 -0.022965347
-0.00027929668 -0.00047047384 -0.0025734513 -0.012238004 0.0032621778 -0.007554286 -0.004064556 0.041833542
0.018078608 -0.012852169 0.009091748 -0.014119213 -0.00068932393 0.038168073 -0.003149662 -0.0067235325
0.009467749 0.0024723213 0.0088157905 0.0027739755 0.019479223 0.021501891 0.022871329 0.016229784
00000000: 9801 073c 6893 293c 2b3e 13bc 66c4 31b9
00000010: 255a c73c 4199 0d3d e374 23ba 9126 86bc
00000020: f2fb 8fbc 534b 483c 1477 8fbc e732 5bbc
00000030: 54d7 273c d0a7 01ba 4976 d7bb fb3d f8ba
00000040: 5ea4 86ba bdcf fabb 0040 a539 89c3 d63c
00000050: 6d06 8ebc 6f31 0e3a 4fc7 b5bc 61ef ca3b
00000060: a1c9 9d3b 31ea 0c3b 0334 5bbb b28a baba
00000070: 90c7 e03a cfe6 4d3b 0425 86bc 8856 82bb
00000080: 5ab5 48bc fbec 5fbb 746e 8c3c 281f 52bc
00000090: cf34 f33a a25c a5bb 4c6f 2e3d 5f1c f2ba
000000a0: b49c bbbb 427f 953c f8ba acbc 0762 c7bc
000000b0: 337d f4bb e4b8 153c acbb ad3b 88c0 ad3b
000000c0: 653d 183c 1632 a53a d3c4 6a3c f026 8f3b
000000d0: 8f27 72bb 95b1 f93b 4cc2 f8bb f125 feb9
000000e0: 53e3 153a b386 563b 3ff0 0fbc 4ff4 17bc
000000f0: fcc5 7bbc 1387 bebb 1ec8 9a3b a12e 683c
00000100: 373c ec3b 236d 71bb 4614 34bc 7ffe bebb
00000110: 0304 f6bb cba9 6abc ef2c efbb a6a3 48bc
00000120: dcea 4cbb c60b 8f3b 679e 583b 102b 91bc
00000130: 5144 073b a79b af3c ab33 94ba a44e 94bb
00000140: 5c9c 1dbc 21a0 0d3c 2acb 2c3b da2e 4dbc
00000150: b787 223b 9a1f 3b3d 75ef 523b 981c 373c
00000160: 8646 b5bc e203 a13c fcc6 963c b085 f03a
00000170: a470 0e3b b4e8 c8bb c701 02bc 965b a13b
00000180: dd4a 033b 2ef0 8d3a c68e 243c 5ff3 16bc
00000190: 6967 79bb 885e 2ebc 17ca b73b d321 bcbc
000001a0: 916e 92b9 eea9 f6b9 59a7 28bb e981 48bc
000001b0: 43ca 553b f289 f7bb f82f 85bb a659 2b3d
000001c0: 9719 943c e791 52bc 8ef5 143c 4654 67bc
000001d0: bfb3 34ba 2056 1c3d 8f6a 4ebb 1451 dcbb
000001e0: 9e1e 1b3c ab06 223b 1b70 103c 96cb 353b
000001f0: e492 9f3c bc24 b03c a75c bb3c 53f4 843c

action_model._discrete_distribution.branches.0.weight f4 [4, 128]
-0.039742377 -0.106794976 0.03330571 0.013389922 -0.06882972 -0.045511834 -0.06778971 -0.082528606
0.04753049 -0.05435587 -0.062825225 0.045059144 0.031646416 -0.042552914 -0.051496964 -0.050780684
0.037931047 -0.04146931 0.043958616 -0.04574042 -0.03431581 0.01241715 0.029169148 0.0854985
0.06052715 0.027746467 -0.00046343482 0.041693915 0.038385242 0.078474954 0.041739613 0.06904138
0.023123175 0.035683017 0.04002035 -0.034948148 0.053198386 0.03772878 -0.022787578 0.049269166
0.039061237 -0.03539257 0.02928503 -0.042800043 -0.058771107 -0.03482666 0.058219016 -0.014190048
0.024136428 -0.043072835 0.03576679 0.00871605 0.046972267 -0.03652548 -0.05072669 -0.06642508
-0.03148876 -0.043184575 0.05111847 -0.0417241 -0.00076306856 0.0404374 0.033165205 0.051913917
-0.03156604 -0.04120388 0.030650299 0.038486864 0.043059878 -0.069727235 -0.029610869 0.046303622
0.038397513 -0.08209219 0.021926964 0.023291234 -0.01671651 -0.067813314 0.077831894 -0.028303051
-0.08340872 0.06282358 -0.06732387 0.042030606 -0.07622065 -0.004379482 0.047436215 0.030073557
0.06888759 -0.04481411 0.038435675 -0.03801254 0.02171624 -0.04424999 -0.038599208 0.04846165
0.05890923 -0.04016531 -0.039945744 -0.084547244 0.037766907 0.044726722 0.061488938 0.049803257
0.04778849 0.04697929 -0.022938265 -0.04266407 -0.0052549974 -0.05493681 0.06727996 0.029853528
0.036823828 -0.04463401 0.048133817 0.046198912 0.050685324 0.086668774 0.031777974 -0.04282586
0.0038194328 0.025342893 -0.01841785 -0.029740134 0.046840485 0.008987666 -0.0377447 -0.045003377
0.015549386 0.04364129 -0.025517335 0.0068312716 0.028045641 -0.048252672 0.00938393 0.031017167
0.0003642241 0.021930516 0.02697594 -0.021187276 -0.0053287796 0.0021550371 0.00050488027 0.0028832892
0.0056185066 0.00818309 0.004179503 0.03799854 -0.009497681 0.008916984 0.056149546 -0.069979884
-0.022480942 -0.011323548 0.005944125 -0.010483101 -0.018137483 -0.03470907 -0.00754952 -0.03277207
0.034572642 -0.00707798 -0.007443609 -0.002425964 -0.013702933 -0.028856445 -0.014444542 -0.025486078
-0.011716483 -0.0029997863 -0.00012936491 -0.0032723267 0.00030192183 0.030746816 -0.018402314 0.009308299
0.013946523 0.007875701 -0.0026245918 0.0009981067 -0.014660452 0.0022508558 0.0147712985 -0.00841923
0.029678933 0.010154359 -0.020593805 -0.02120913 -0.029369 -0.014637019 -0.01849527 -0.011550577
0.0073088156 0.060963932 -0.02293566 -0.003956579 0.004374314 0.02328415 0.015089576 -0.011241334
-0.021391599 0.029548787 -0.016080132 0.0010266615 -0.012359592 0.020321518 -0.032646585 -0.011345847
0.055859845 -0.059100483 0.024231557 -0.009130314 0.05298992 -0.0061011985 -0.0044792662 0.0024345967
-0.004162582 0.003223523 -0.00073748094 0.019788733 -0.011870009 0.0063958666 0.0069907783 -0.023439871
-0.007507269 0.0018320774 -0.003173536 0.052648608 0.0032263387 -0.0132698 -0.026652334 -0.041990113
-0.022131298 -0.019211581 0.008420409 0.0233634 -0.0006467936 0.007410685 -0.009857334 0.0057279137
-0.0072967773 -0.0031945207 0.0016623462 -0.022279032 -0.011349219 -0.016349288 0.07631624 0.026548423
0.06718223 0.00065065 0.0093123745 0.0586826 0.004298103 0.035676807 0.042694893 0.00035243633
00000000: e7c8 22bd 53b7 dabd 916b 083d 6761 5b3c
00000010: 99f6 8cbd 9e6a 3abd 55d5 8abd c204 a9bd
00000020: 55af 423d 43a4 5ebd 83aa 80bd f08f 383d
00000030: ac9f 013d f74b 2ebd 7bee 52bd 68ff 4fbd
00000040: 965d 1b3d b9db 29bd f30d 343d 4f5a 3bbd
00000050: bc8e 0cbd 4d71 4b3c 23f4 ee3c d619 af3d
00000060: 51eb 773d 8f4c e33c 2bf9 f2b9 3dc7 2a3d
00000070: d839 1d3d 7ab7 a03d 28f7 2a3d 9165 8d3d
00000080: d06c bd3c 5b28 123d 61ec 233d ca25 0fbd
00000090: 8de6 593d 7e89 1a3d 04ad babc 77ce 493d
000000a0: adfe 1f3d cdf7 10bd 29e7 ef3c 194f 2fbd
000000b0: f9b9 70bd 66a6 0ebd 1077 6e3d 607d 68bc
000000c0: c2b9 c53c 246d 30bd 3380 123d c3cd 0e3c
000000d0: fe65 403d be9b 15bd cac6 4fbd df09 88bd
000000e0: 5cfa 00bd 4fe2 30bd 9a61 513d e4e6 2abd
000000f0: aa08 48ba b0a1 253d 3dd8 073d b0a3 543d
00000100: 644b 01bd 66c5 28bd 5616 fb3c 67a4 1d3d
00000110: 8e5f 303d 27cd 8ebd 7e92 f2bc dea8 3d3d
00000120: b646 1d3d f31f a8bd 2da0 b33c 42cd be3c
00000130: 10f1 88bc b5e1 8abd 5466 9f3d cddb e7bc
00000140: 31d2 aabd a6a9 803d 19e1 89bd 4928 2c3d
00000150: 9219 9cbd c281 8fbb 7a4c 423d d25c f63c
00000160: f014 8d3d 008f 37bd ba6e 1d3d 0ab3 1bbd
00000170: 42e6 b13c 7a3f 35bd 341a 1ebd b97f 463d
00000180: ce4a 713d 6184 24bd 269e 23bd 1b27 adbd
00000190: 79b1 1a3d 5e33 373d d3db 7b3d 80fe 4b3d
000001a0: ddbd 433d 5b6d 403d 07e9 bbbc 85c0 2ebd
000001b0: 1d32 acbb 6c05 61bd 13ca 893d 638f f43c
000001c0: 95d4 163d 27d2 36bd f727 453d 123b 3d3d
000001d0: 6a9b 4f3d 667f b13d 9f29 023d 2b6a 2fbd
000001e0: 734f 7a3b e69b cf3c 08e1 96bc 95a1 f3bc
000001f0: cfdb 3f3d 0141 133c 309a 1abd 7655 38bd
00000200: dac2 7e3c 36c1 323d bb09 d1bc dcd8 df3b
00000210: f9bf e53c 98a4 45bd 0ebf 193c b717 fe3c
00000220: 55f5 be39 a0a7 b33c a6fc dc3c f090 adbc
00000230: 0b9d aebb 863b 0d3b f159 043a 91f5 3c3b
00000240: 731b b83b 5e12 063c 36f4 883b 5ba4 1b3d
00000250: 299c 1bbc 8b18 123c 11fd 653d 9d51 8fbd
00000260: f429 b8bc 6786 39bc efc6 c23b 50c1 2bbc
00000270: 0f95 94bc 192b 0ebd f761 f7bb 023c 06bd
00000280: 0b9c 0d3d 66ee e7bb 85e9 f3bb ecfc 1ebb
00000290: 4482 60bc 5a64 ecbc cda8 6cbc 2ec8 d0bc
000002a0: 7ef6 3fbc 1098 44bb 21a6 07b9 8874 56bb
000002b0: 434b 9e39 bfe0 fb3c 73c0 96bc d681 183c
000002c0: f57f 643c 1609 013c 5801 2cbb e7d2 823a
000002d0: 6432 70bc 1883 133b 5103 723c cff0 09bc
000002e0: 3c21 f33c 785e 263c 57b4 a8bc c5be adbc
000002f0: 4297 f0bc 1bd0 6fbc 6483 97bc a23e 3dbc
00000300: ca7e ef3b 51b5 793d 91e3 bbbc 31a6 81bb
00000310: 6856 8f3b 67be be3c 453a 773c 922d 38bc
00000320: 6f3d afbc 4c10 f23c 7bba 83bc 0b91 863a
00000330: e37f 4abc 5079 a63c 6db8 05bd eee3 39bc
00000340: 4bcd 643d 5913 72bd 4281 c63c 5097 15bc
00000350: f50b 593d 90ec c7bb cfc6 92bb c18d 1f3b
00000360: 4566 88bb be41 533b 8253 41ba fb1b a23c
00000370: 6d7a 42bc 6b94 d13b e612 e53b f904 c0bc
00000380: 89ff f5bb 5122 f03a 19fb 4fbb 11a6 573d
00000390: fb70 533b 9369 59bc ff55 dabc d3fd 2bbd
000003a0: b24c b5bc 9b61 9dbc c1f5 093c 9a64 bf3c
000003b0: 958d 29ba 55d5 f23b a880 21bc 39b1 bb3b
000003c0: ce19 efbb 2a5b 51bb 15e3 d93a 8482 b6bc
000003d0: 13f2 39bc f1ee 85bc b04b 9c3d 147c d93c
000003e0: d696 893d 6290 2a3a ee92 183c 2a5d 703d
000003f0: 1ad7 8c3b d821 123d d7e0 2e3d 34c7 b839

action_model._discrete_distribution.branches.0.bias f4 [4]
-0.03473826 0.005968272 0.020840636 -0.03325318
00000000: b549 0ebd 7f91 c33b fbb9 aa3c 7d34 08bd

action_model._discrete_distribution.branches.1.weight f4 [1, 128]
0.006742815 0.013980629 -0.0069483495 0.02413716 -0.00895955 0.0037484881 -0.006444101 -0.0071872273
-0.004310116 0.0013241669 -0.0032203614 0.00023581284 -0.01267984 -0.004961915 -0.0057436824 -0.0019135288
0.00043418698 -0.020497305 0.0039900728 0.01029586 -0.00092031 -0.00012287764 0.0019331578 0.022025172
0.00037663538 -0.007038588 -0.000538899 0.0058279396 -0.0060697035 0.018457344 0.011404825 -0.0037406688
0.0044702766 -0.007554849 0.0070816413 -0.008497618 -0.006946118 0.0015790556 0.0058007385 0.001443629
-0.005563214 -0.0034188335 -0.010064702 -0.004747495 -0.0076941745 0.0022325767 0.0061662747 -0.008073495
-0.0029084876 -0.008371918 0.00510121 -0.014134099 0.00037530938 0.0055752066 -0.006735856 -0.0036634244
-0.0074495347 -0.0039663063 0.005130486 0.0016525522 0.0044306014 0.006891664 0.00014985313 0.012901741
-0.0010164541 -0.014937527 -0.004446212 0.005221575 -0.008337794 0.0048345225 -0.0154421395 -0.0011277408
-0.0028210122 -0.014216802 0.004309709 0.0018971976 0.014336467 0.0024751485 0.010317477 0.010739807
0.0058893557 0.004402283 -0.012069198 -0.0012471649 0.005905142 0.0007655269 -0.013360287 0.009828252
-0.00064283767 -0.008605555 0.00022850429 -0.00027376114 0.013418386 0.0070359446 -0.0121834725 -0.0057251677
-0.002286611 -0.015794551 -0.0045502423 -0.006416369 0.0008126654 0.016755907 0.0047067315 0.015407132
0.008643094 -0.0022022254 -0.014908405 0.0010295991 0.002103628 -0.01706934 -0.0028442766 0.0055383397
0.0023633733 0.007122196 0.0042281607 0.003589352 -0.002862836 -0.012932904 -0.008359472 0.008009109
0.0027784777 -0.011031008 0.004650717 -1.526808e-05 0.006283273 0.009241658 0.000810569 -0.0026180493
00000000: d5f2 dc3b 020f 653c fbae e3bb 4bbb c53c
00000010: 14cb 12bc 32a9 753b 0a29 d3bb d582 ebbb
00000020: e03b 8dbb ab8f ad3a b30c 53bb 8744 7739
00000030: 1bbf 4fbc 8f97 a2bb 8035 bcbb 5fcf faba
00000040: 97a3 e339 f7e9 a7bc 28bf 823b f7af 283c
00000050: f540 71ba b7d8 00b9 0362 fd3a 226e b43c
00000060: 2577 c539 f5a3 e6bb e644 0dba 4df8 be3b
00000070: 5de4 c6bb db33 973c 4edb 3a3c 0226 75bb
00000080: 667b 923b ab8e f7bb 1d0d e83b 9839 0bbc
00000090: 439c e3bb 50f8 ce3a 1f14 be3b 2738 bd3a
000000a0: 9f4b b6bb 820e 60bb 6be6 24bc e090 9bbb
000000b0: 6a1f fcbb 6c50 123b 760e ca3b b146 04bc
000000c0: 539c 3ebb 5f2a 09bc 0d28 a73b b592 67bc
000000d0: 2cc5 c439 39b0 b63b 75b8 dcbb 1016 70bb
000000e0: 3a1b f4bb caf7 81bb a31d a83b 739a d83a
000000f0: 942e 913b 78d3 e13b e521 1d39 d361 533c
00000100: 8a3a 85ba 87bc 74bc 88b1 91bb bf19 ab3b
00000110: 3e9b 08bc ea6a 9e3b 0701 7dbc b4d0 93ba
00000120: bbe0 38bb 97ed 68bc 7638 8d3b 63ab f83a
00000130: 80e3 6a3c 1a36 223b a30a 293c 04f6 2f3c
00000140: 7ffb c03b 0741 903b e3bd 45bc e977 a3ba
00000150: ec7f c13b a4ad 483a 1be5 5abc ad06 213c
00000160: 1b84 28ba 50fe 0cbc a79a 6f39 9987 8fb9
00000170: cad8 5b3c c88d e63b 309d 47bc 309a bbbb
00000180: f7da 15bb 9363 81bc 331a 95bb 6840 d2bb
00000190: 0d09 553a af43 893c ed3a 9a3b 326e 7c3c
000001a0: c49b 0d3c 3653 10bb 6242 74bc 9df3 863a
000001b0: 05dd 093b 00d5 8bbc 0b67 3abb f67a b53b
000001c0: d3e2 1a3b 4f61 e93b 628c 8a3b 553b 6b3b
000001d0: 6b9e 3bbb 88e4 53bc 2bf6 08bc a338 033c
000001e0: 1f17 363b 67bb 34bc 0b65 983b f413 80b7
000001f0: eae3 cd3b 536a 173c 5d7c 543a 9493 2bbb

onnx::LSTM_114 f4 [1, 512, 128]
-0.15198448 0.11570775 0.16261931 0.14489676 0.007384015 -0.13123481 0.058737945 0.007917592
0.07901777 -0.17033744 -0.010159493 0.10241205 -0.12995039 0.035101492 0.07192081 -0.14707586
0.007657383 -0.0108149145 0.14902231 0.0667092 0.02246806 -0.11051813 -0.040906284 -0.042882923
0.027290525 -0.015239302 0.10696488 0.017474964 -0.060296692 -0.0701607 0.056225967 0.011072641
0.041741423 0.011803328 0.123549536 0.10681678 -0.15515417 -0.035628844 -0.15527223 0.034781322
-0.08978373 -0.05909702 -0.0013019734 -0.10004304 -0.09976016 -0.039524402 0.010880594 0.03202536
-0.08028831 -0.06297092 0.06776275 -0.1463911 0.09476536 -0.17336096 0.020275028 0.095868304
-0.016076209 0.065309025 0.09580548 -0.023043761 0.084977776 0.008428987 0.03514447 -0.10611449
0.05198567 0.10862479 0.10749683 0.016604133 -0.08772003 0.08492486 -0.0392331 0.07942071
0.04069594 -0.095867895 0.07882228 -0.06538514 0.019866766 -0.1276485 -0.11314454 -0.097743556
-0.013721782 -0.023739224 0.1313498 0.014229356 0.049011704 -0.00061078713 -0.10305974 -0.023711314
-0.121196546 -0.049484782 0.096467845 0.0028486492 0.096747726 -0.031539597 0.03008894 -0.03568914
-0.049872316 0.019659098 -0.08409238 0.029756252 -0.066061705 0.0409573 -0.17942397 0.046261635
-0.16681539 0.11912014 0.06981585 -0.04530774 0.12159143 -0.07826514 -0.10886713 0.04738676
0.1398352 0.107365094 -0.008191033 -0.04368172 -0.03281971 -0.005481395 -0.01321576 -0.038213916
-0.009729488 -0.108915456 -0.100530446 0.037972752 0.114433765 0.11496945 0.1284314 -0.03853397
-0.15825433 -0.06148424 0.039221305 0.14475735 0.06048759 0.12170695 -0.13623582 0.13150094
0.056387074 0.06928005 -0.12123181 -0.0969864 0.029263293 0.0068771616 -0.122731574 -0.0544226
0.11340998 0.047114544 -0.07794667 0.039628465 0.016027346 0.095433556 0.019500496 -0.05461054
0.1389676 0.07027707 0.09805534 0.043649998 0.022013744 0.16128148 0.1416243 -0.136726
-0.09087672 0.07534657 0.085440114 -0.16275728 0.084265284 -0.08362354 -0.01871438 0.07455309
0.12054307 0.012867626 -0.065064885 -0.14084125 -0.045049552 -0.049105935 -0.016905539 0.049424056
0.05021233 -0.004657741 0.038195156 0.11392765 0.13612853 0.13976026 -0.08189489 0.14171846
0.05490182 0.056266565 0.023274647 0.1554233 0.0589733 -0.048150863 0.053205527 -0.057890736
0.0989612 0.089210875 0.007516787 0.1188522 0.10489548 0.021666622 -0.11589015 0.15999845
-0.031960595 0.13943215 -0.0012228534 0.07221143 -0.12652777 0.038489893 -0.07111504 -0.08429457
0.13666376 0.007719704 0.012521922 -0.06272837 -0.05836007 -0.15214345 -0.011927791 -0.09381487
-0.10559469 0.1156041 -0.05935599 0.12041024 0.019305492 -0.030059231 0.09723645 0.0010161656
0.13534823 -0.1296048 0.10652045 0.13704722 0.09353694 0.10111825 0.12447624 0.14534807
0.027835192 -0.06617852 0.10744801 0.049746774 -0.058254115 -0.10106731 0.07086517 -0.08248791
0.16114224 -0.085126124 0.09549782 0.07929037 0.15235326 0.051453844 -0.11761933 0.06398264
-0.06363524 0.13147345 0.14741844 -0.043335505 0.14207783 0.02926413 0.015533587 0.15385865
00000000: d2a1 1bbe 2ff8 ec3d ad85 263e d15f 143e
00000010: 9bf5 f13b 6b62 06be 3397 703d cab8 013c
00000020: 12d4 a13d f06c 2ebe 0174 26bc 69bd d13d
00000030: b711 05be 95c6 0f3d 384b 933d 0e9b 16be
00000040: c9ea fa3b 0a31 31bc 4e99 183e d59e 883d
00000050: f00e b83c 5457 e2bd 598d 27bd 01a6 2fbd
00000060: 6190 df3c 44ae 79bc 6710 db3d a827 8f3c
00000070: aaf9 76bd 6ab0 8fbd 334d 663d 066a 353c
00000080: 0ef9 2a3d bf62 413c 8a07 fd3d c2c2 da3d
00000090: bce0 1ebe 8def 11bd afff 1ebe dc76 0e3d
000000a0: 88e0 b7bd b80f 72bd faa6 aaba 5ee3 ccbd
000000b0: 0e4f ccbd 57e4 21bd 8544 323c 062d 033d
000000c0: 336e a4bd e6f6 80bd 32c7 8a3d 8ce7 15be
000000d0: 5714 c23d 8985 31be d117 a63c 9a56 c43d
000000e0: 41b2 83bc bdc0 853d aa35 c43d 45c6 bcbc
000000f0: d408 ae3d bc19 0a3c a6f3 0f3d 8e52 d9bd
00000100: edee 543d ad76 de3d 4c27 dc3d 6405 883c
00000110: 8fa6 b3bd 16ed ad3d e3b2 20bd 53a7 a23d
00000120: c9b0 263d 6356 c4bd 936d a13d a5e8 85bd
00000130: a1bf a23c 4ab6 02be 53b8 e7bd c62d c8bd
00000140: 53d1 60bc c378 c2bc 9080 063e 3f22 693c
00000150: 7fc0 483d 3b1d 20ba fc10 d3bd 3b3e c2bc
00000160: e535 f8bd 8eb0 4abd ef90 c53d 67b0 3a3b
00000170: ac23 c63d aa2f 01bd 157d f63c c72e 12bd
00000180: ea46 4cbd 1e0c a13c a038 acbd 62c3 f33c
00000190: 5c4b 87bd d8c2 273d ebba 37be d77c 3d3d
000001a0: a7d1 2abe 43f5 f33d 9dfb 8e3d 9c94 39bd
000001b0: ed04 f93d 7949 a0bd bbf5 debd 9f18 423d
000001c0: f530 0f3e 3be2 db3d af33 06bc 9aeb 32bd
000001d0: f66d 06bd 469d b3bb ea86 58bc 3286 1cbd
000001e0: 6e68 1fbc 110f dfbd e8e2 cdbd 5189 1b3d
000001f0: 405c ea3d 1a75 eb3d 8583 033e ccd5 1dbd
00000200: 6c0d 22be e6d6 7bbd 85a6 203d 453b 143e
00000210: d6c1 773d 7e41 f93d 6781 0bbe 2fa8 063e
00000220: 22f6 663d b3e2 8d3d 6248 f8bd cea0 c6bd
00000230: 93b9 ef3c d059 e13b b15a fbbd 3bea 5ebd
00000240: 7e43 e83d 2efb 403d 81a2 9fbd 7551 223d
00000250: c84b 833c ab72 c33d 81bf 9f3c 4daf 5fbd
00000260: 864d 0e3e 6ded 8f3d 3dd1 c83d 57ca 323d
00000270: 2b56 b43c f926 253e f605 113e e701 0cbe
00000280: 931d babd 4d4f 9a3d 3afb ae3d d8a9 26be
00000290: 4793 ac3d d242 abbd e64e 99bc 4aaf 983d
000002a0: 49df f63d bcd2 523c bd40 85bd b038 10be
000002b0: e185 38bd 4e23 49bd 7c7d 8abc e170 4a3d
000002c0: 72ab 4d3d f79f 98bb 8672 1c3d e652 e93d
000002d0: 4765 0b3e 501d 0f3e 82b8 a7bd a51e 113e
000002e0: bbe0 603d c577 663d 79aa be3c 4927 1f3e
000002f0: fd8d 713d d739 45bd 0aee 593d d61e 6dbd
00000300: 2bac ca3d 31b4 b63d 614f f63b c868 f33d
00000310: 71d3 d63d 337e b13c d157 edbd a2d6 233e
00000320: 1de9 02bd 4dc7 0e3e 2748 a0ba 96e3 933d
00000330: 7f90 01be 94a7 1d3d c3a4 91bd a2a2 acbd
00000340: 96f1 0b3e 92f5 fc3b bf28 4d3c bb77 80bd
00000350: f80a 6fbd 7ecb 1bbe c86c 43bc 0322 c0bd
00000360: 0742 d8bd d8c1 ec3d 441f 73bd a599 f63d
00000370: 8d26 9e3c c73e f6bc e723 c73d dc30 853a
00000380: ba98 0a3e 1fb7 04be 6527 da3d 1b56 0c3e
00000390: 4c90 bf3d 1617 cf3d 66ed fe3d 20d6 143e
000003a0: a106 e43c 9b88 87bd b40d dc3d 46c3 4b3d
000003b0: de9b 6ebd 61fc cebd c221 913d 6cef a8bd
000003c0: 7902 253e 9b56 aebd 5c94 c33d fd62 a23d
000003d0: 7e02 1c3e 44c1 523d 67e2 f0bd 5509 833d
000003e0: 3153 82bd faa0 063e dcf4 163e 9280 31bd
000003f0: da7c 113e 54bb ef3c 9680 7e3c 1f8d 1d3e

onnx::LSTM_115 f4 [1, 512, 128]
0.1081972 0.18786678 -0.1324943 0.13798206 -0.054398432 0.13617022 -0.06217254 -0.0536502
-0.035598516 0.0437084 0.05816121 0.012217412 -0.0062671015 -0.09368488 0.10327259 0.07483225
-0.14838462 -0.046235953 -0.06284492 -0.067846715 -0.06969756 0.12178242 -0.11007541 -0.0032465383
-0.04949279 -0.12304486 0.1576598 -0.047140576 0.03781549 0.017311485 -0.11477899 0.10753557
-0.06823931 -0.05631948 -0.04960478 0.094712965 -0.0065728794 0.011647889 -0.023042008 -0.1928741
-0.10050486 0.0053902674 -0.16693152 -0.10833464 -0.010580548 -0.120283365 -0.0897752 0.02858792
-0.13526933 0.14985695 -0.023261333 0.01866627 0.030927073 0.084219664 -0.06323296 -0.011449213
0.028307768 0.09812921 0.00020945084 -0.1389293 -0.041456226 -0.08234456 0.0013247749 -0.10749874
0.028858554 0.04755755 0.10182688 0.12184036 0.07342164 -0.028734684 0.07401666 -0.081434846
0.10503543 0.006493748 -0.1395347 0.08575283 0.09064423 -0.08293382 -0.1746605 -0.0040264353
-0.016173948 0.029078402 0.105412036 0.04618306 0.14296526 0.021172473 0.103895426 0.13147426
-0.17371395 0.112128034 0.055421684 -0.114011236 -0.08691707 0.024846805 0.13989061 0.07205457
0.05442712 0.093857616 0.15133747 0.11666635 -0.15665564 -0.021318123 0.108761095 -0.106095664
-0.15951216 -0.074876174 0.08308396 -0.11564484 -0.13773088 0.09254577 -0.09253325 -0.09806823
0.07540817 -0.10315232 -0.13103548 -0.04501655 -0.055545058 0.06626113 -0.12549244 -0.008053378
0.013962269 -0.014192273 -0.06193929 -0.016688284 -0.13313584 -0.025403207 0.037439127 0.13783517
-0.040842034 0.17859565 0.10514707 -0.11646349 0.06817195 -0.019577496 0.01663349 0.007709026
0.10030206 -0.09313314 0.08431064 0.08184929 0.052059837 -0.10121076 0.17622791 0.16101333
-0.08255421 -0.11479456 -0.09586039 0.078767076 0.16989124 -0.07131297 -0.092832096 0.13586456
-0.076362066 0.066130884 -0.02796198 -0.15258648 -0.071163006 -0.074516684 0.08712403 -0.015615129
-0.17458318 0.10005639 0.103756614 -0.01281345 -0.18581991 0.03689019 -0.06737094 0.0025290442
0.018827338 -0.062949486 -0.0104292445 0.13241458 -0.034516618 0.05078818 0.021076864 0.0060637216
-0.07031813 0.01608551 0.021655038 0.0810175 0.015060284 -0.07092059 0.05905416 -0.066992804
0.08473563 -0.1113932 -0.05309867 0.0037511813 0.059480105 -0.15982085 0.06529674 -0.12034747
0.119600356 0.0848231 -0.14978248 0.013253162 -0.10347711 0.0864444 -0.03208986 -0.16467072
0.115418464 0.06287714 0.08879834 0.11884506 -0.043071963 0.061045244 -0.018798037 -0.06439891
0.1563703 -0.1176871 -0.07783739 -0.03298281 -0.030516714 -0.014188685 -0.05266088 0.04849853
0.08055971 -0.07208711 0.10101984 0.06603457 0.11660188 -0.0641785 0.11445838 -0.0774877
-0.12715258 0.16652018 0.047681924 0.113534525 -0.07787031 0.10436141 0.024611384 0.076486535
-0.098054715 -0.14458133 0.107434444 -0.06233422 0.13467424 0.04274633 -0.16268505 -0.16560668
0.06911653 -0.06552378 0.07147294 0.033316527 -0.053772826 -0.08892769 -0.02261854 -0.013122176
0.038181484 -0.052598115 -0.038614277 0.075365216 -0.06642324 -0.031782586 0.18010263 -0.0030474833
00000000: 7e96 dd3d 2660 403e 96ac 07be 2b4b 0d3e
00000010: e4d0 5ebd 3570 0b3e a2a8 7ebd 50c0 5bbd
00000020: c0cf 11bd 9407 333d 733a 6e3d 8a2b 483c
00000030: 425c cdbb dcdd bfbd 9480 d33d a741 993d
00000040: 23f2 17be e961 3dbd d6b4 80bd 38f3 8abd
00000050: 98bd 8ebd 1069 f93d 376f e1bd e0c3 54bb
00000060: f4b8 4abd f2fe fbbd 9271 213e 7a16 41bd
00000070: 6ae4 1a3d d1d0 8d3c 3f11 ebbd 9c3b dc3d
00000080: 0dc1 8bbd 41af 66bd 622e 4bbd dff8 c13d
00000090: 4f61 d7bb cad6 3e3c 98c2 bcbc ca80 45be
000000a0: 7ed5 cdbd d7a0 b03b 19f0 2abe 8dde ddbd
000000b0: 095a 2dbc 2057 f6bd 0fdc b7bd 3731 ea3c
000000c0: 0b84 0abe 1a74 193e 8d8e bebc 01ea 983c
000000d0: c65a fd3c 5c7b ac3d 4880 81bd 7b95 3bbc
000000e0: b1e5 e73c f8f7 c83d 08a0 5b39 7b43 0ebe
000000f0: 01ce 29bd 44a4 a8bd 12a4 ad3a 4d28 dcbd
00000100: c668 ec3c b5cb 423d 9c8a d03d 7087 f93d
00000110: 165e 963d 0065 ebbc 0c96 973d 50c7 a6bd
00000120: d11c d73d 82c9 d43b 2fe2 0ebe 2e9f af3d
00000130: afa3 b93d 35d9 a9bd 34da 32be 30f0 83bb
00000140: 3a7f 84bc d435 ee3c 44e2 d73d 732a 3d3d
00000150: 7c65 123e e571 ad3c 20c7 d43d 30a1 063e
00000160: 12e2 31be 62a3 e53d d901 633d b97e e9bd
00000170: 9401 b2bd 878b cb3c 7c3f 0f3e 5991 933d
00000180: f9ee 5e3d 6c38 c03d 36f8 1a3e c4ee ee3d
00000190: 566a 20be 58a3 aebc 23be de3d af48 d9bd
000001a0: 2857 23be ae58 99bd ec27 aa3d 34d7 ecbd
000001b0: 5309 0dbe a388 bd3d 1382 bdbd ffd7 c8bd
000001c0: 996f 9a3d 8641 d3bd 2a2e 06be 4663 38bd
000001d0: 3783 63bd eab3 873d 1781 00be 51f2 03bc
000001e0: 00c2 643c b586 68bc 0eb4 7dbd deb5 88bc
000001f0: c354 08be 631a d0bc c559 193d aa24 0d3e
00000200: fa49 27bd c7e1 363e 5957 d73d 6984 eebd
00000210: bc9d 8b3d fc60 a0bc f542 883c ff9b fc3b
00000220: 2b6b cd3d 96bc bebd 0fab ac3d 9aa0 a73d
00000230: b23c 553d 9647 cfbd 1775 343e aee0 243e
00000240: 2f12 a9bd 6919 ebbd 7452 c4bd a250 a13d
00000250: f8f7 2d3e 890c 92bd c11e bebd 1420 0b3e
00000260: b763 9cbd a16f 873d 8610 e5bc a13f 1cbe
00000270: e9bd 91bd 349c 98bd 156e b23d 99d6 7fbc
00000280: efc5 32be 5dea cc3d 597e d43d 81ef 51bc
00000290: 9347 3ebe 2b1a 173d c7f9 89bd 52be 253b
000002a0: ca3b 9a3c a9eb 80bd 6cdf 2abc b097 073e
000002b0: 4c61 0dbd 4407 503d 63a9 ac3c 2fb2 c63b
000002c0: f402 90bd c2c5 833c e865 b13c 81ec a53d
000002d0: 69bf 763c d03e 91bd c6e2 713d 8633 89bd
000002e0: e089 ad3d 1e22 e4bd fe7d 59bd 61d6 753b
000002f0: 69a1 733d 14a8 23be 4cba 853d bc78 f6bd
00000300: 08f1 f43d bcb7 ad3d 9460 19be ca23 593c
00000310: cfeb d3bd c309 b13d a870 03bd 719f 28be
00000320: 8460 ec3d bbc5 803d e7db b53d 0a65 f33d
00000330: 3a6c 30bd 940a 7a3d 57fe 99bc 93e3 83bd
00000340: 891f 203e ef05 f1bd 3669 9fbd fc18 07bd
00000350: 30fe f9bc a977 68bc efb2 57bd 65a6 463d
00000360: 7dfc a43d 68a2 93bd 7de3 ce3d 223d 873d
00000370: f7cc ee3d 0470 83bd 2869 ea3d dfb1 9ebd
00000380: 4934 02be 4484 2a3e 1f4e 433d ca84 e83d
00000390: 787a 9fbd 6fbb d53d d09d c93c f9a4 9c3d
000003a0: e9d0 c8bd 210d 14be 9706 dc3d 2b52 7fbd
000003b0: 0be8 093e c716 2f3d e996 26be cc94 29be
000003c0: f88c 8d3d 5531 86bd 6860 923d e976 083d
000003d0: e540 5cbd b91f b6bd 844a b9bc 65fe 56bc
000003e0: 3064 1c3d 1f71 57bd 012a 1ebd 1459 9a3d
000003f0: e808 88bd 752e 02bd d36c 383e 49b8 47bb

onnx::LSTM_116 f4 [1, 1024]
0.02827213 0.01134091 0.011793027 0.0037212188 0.020303976 -0.006375794 0.025146771 0.0015756995
0.020784277 0.021196093 0.015051547 0.0051834574 0.020936413 0.02467533 0.020310346 0.02268986
0.013362628 0.016750552 0.019461041 -0.010969656 0.014801919 0.021632772 0.00036293705 0.0019736174
0.010977109 0.018333083 -0.012506259 0.025416292 0.016611593 0.000112741865 0.024005435 -0.0046637845
0.020569367 0.024226276 0.028935743 0.014515573 0.0075663887 0.0068386705 0.010085952 0.013261851
0.019334584 0.013513641 0.017026495 0.018895814 0.01744572 0.013456719 -0.0008862945 -0.027575282
0.016015166 0.016848681 0.02756287 -0.011281103 0.02435554 0.02258424 0.0195027 -0.02316862
0.006746674 0.013139824 0.0061164154 0.009366155 0.00072249066 0.0148438765 0.0049979757 0.025530538
0.01256029 0.0023769578 0.014041885 0.025093049 0.024321925 0.002751947 0.015371848 0.019378483
0.014146492 0.01809436 0.023840437 0.011402878 -3.9733015e-05 0.022040764 -0.008549052 0.01530838
0.01664748 0.0138408495 0.026113067 0.019616244 0.00052966416 -0.0004124441 0.02165087 0.021822931
0.031267315 0.021877138 0.0071182204 0.027121942 -0.004896022 0.016540589 0.013279444 0.011935452
0.008651176 0.014460245 0.023244876 -0.009576293 0.024218768 0.028496899 0.0056847287 0.0045135585
0.021409458 0.028426208 0.01490706 0.014281364 0.00097324036 0.0113625 0.03361997 0.021831932
0.01912807 0.028832564 0.010195615 0.019094557 0.024357386 0.019076979 0.0042093787 0.00032798285
0.01428439 0.012414101 0.016330086 0.011033721 0.015821742 -0.012340217 -0.0040046372 0.019489124
0.019128058 0.015997492 0.014599661 -0.012737611 0.0054731932 0.010729824 0.022616904 -0.00056753616
0.02039246 0.016507778 0.014590506 0.0049423026 0.018511469 0.018430527 0.019741103 0.015516417
0.019791087 0.020584185 0.019347377 0.019665338 0.02000989 0.0012909555 0.013150098 0.022758897
0.011437765 0.01357852 -0.0011813082 0.020916373 0.019133624 -0.0030648706 0.0221593 0.010121978
0.0008030848 0.015897773 0.017020393 0.021025535 0.014484279 0.010735776 0.0031894313 0.018909458
0.014364359 0.02213823 0.014520706 0.024947792 0.016051337 0.017116223 0.016540239 0.001075046
0.0040550195 0.017943412 0.019907359 -0.01670484 0.019189337 0.009343474 0.025128417 0.011015556
0.012559765 0.013373764 0.022897907 0.019760104 0.020826384 0.015945742 0.0051284204 0.018051028
0.0017576022 0.014318192 0.008648868 0.020765353 0.017174315 -0.0004899243 0.003526706 0.013377602
0.012195259 0.011859359 0.018470334 0.011626337 0.000247633 0.019425936 0.015537055 0.008951546
0.027277894 0.012183089 0.019685388 0.012489653 0.007738814 -0.0061069 0.018634554 0.016315944
0.018750459 0.023428712 0.022147415 0.018213516 -0.011264829 0.017555702 0.025244897 0.016603652
0.008748439 0.009530259 0.020611482 0.026867937 0.01746976 0.019737424 0.013425884 0.016871607
0.021463001 0.018396381 0.011381083 0.012814789 -0.015258806 0.016719405 0.024025507 0.011845695
0.01623692 0.02023468 0.0023050366 0.020175481 0.01772411 0.014478452 0.031335704 -0.006946184
0.023938194 0.018122716 0.015113486 0.02203624 0.010540571 0.002936861 0.0056872587 0.0048476476
00000000: f49a e73c 39cf 393c 8a37 413c b1df 733b
00000010: 8654 a63c 09ec d0bb 9a00 ce3c b487 ce3a
00000020: ca43 aa3c 6ea3 ad3c c49a 763c fed9 a93b
00000030: d782 ab3c eb23 ca3c e261 a63c 16e0 b93c
00000040: edee 5a3c 7438 893c c36c 9f3c 12ba 33bc
00000050: c083 723c 3637 b13c 9648 be39 ce57 013b
00000060: 55d9 333c 432f 963c 0de7 4cbc d435 d03c
00000070: 0915 883c d46f ec38 0ca7 c43c a9d2 98bb
00000080: 1781 a83c 2f76 c63c a70a ed3c bad2 6d3c
00000090: 78ef f73b ed16 e03b 8c3f 253c 3c48 593c
000000a0: 9063 9e3c 5268 5d3c 267b 8b3c 65cb 9a3c
000000b0: 54ea 8e3c 9279 5c3c 3856 68ba 8fe5 e1bc
000000c0: 3d32 833c 3f06 8a3c 87cb e13c 60d4 38bc
000000d0: 4585 c73c 9602 b93c 20c4 9f3c 1ecc bdbc
000000e0: 3413 dd3b 6b48 573c 366c c83b 8074 193c
000000f0: 8765 3d3a bb33 733c 0fc6 a33b 6b25 d13c
00000100: adc9 4d3c bcc6 1b3b ef0f 663c f08f cd3c
00000110: c63e c73c 025a 343b 34da 7b3c a0bf 9e3c
00000120: b0c6 673c a03a 943c 054d c33c 23d3 3a3c
00000130: 00a7 26b8 d58e b43c 5311 0cbc 00d0 7a3c
00000140: 4c60 883c bbc4 623c 12eb d53c 3fb2 a03c
00000150: 29d9 0a3a 4f3d d8b9 2a5d b13c 01c6 b23c
00000160: 2812 003d af37 b33c f63f e93b d62e de3c
00000170: cf6e a0bb 2180 873c 0692 593c ea8c 433c
00000180: a9bd 0d3c aaea 6c3c 0a6c be3c e2e5 1cbc
00000190: 7066 c63c 5472 e93c f646 ba3b 79e6 933b
000001a0: e362 af3c 14de e83c be3c 743c 62fc 693c
000001b0: 0e21 7f3a c729 3a3c 18b5 093d e1d8 b23c
000001c0: 78b2 9c3c 4532 ec3c 820b 273c 306c 9c3c
000001d0: 2489 c73c 5347 9c3c d4ee 893b 1df5 ab39
000001e0: 1309 6a3c 8364 4b3c acc6 853c c8c6 343c
000001f0: 999c 813c 9f2e 4abc 5539 83bb a8a7 9f3c
00000200: 72b2 9c3c 2c0d 833c 6b33 6f3c 6ab1 50bc
00000210: 7958 b33b 25cc 2f3c 1647 b93c b5c6 14ba
00000220: 170e a73c 523b 873c 050d 6f3c 0af3 a13b
00000230: 5da5 973c 9efb 963c 18b8 a13c 9238 7e3c
00000240: eb20 a23c 2aa0 a83c 647e 9e3c 3419 a13c
00000250: c8eb a33c 4735 a93a 8273 573c de70 ba3c
00000260: 7765 3b3c 7178 5e3c 20d6 9aba d058 ab3c
00000270: 1ebe 9c3c ffdb 48bb 6c87 b53c a7d6 253c
00000280: 1c86 523a 0c3c 823c 5a6e 8b3c be3d ac3c
00000290: 784f 6d3c 1ce5 2f3c c705 513b 02e8 9a3c
000002a0: 7d58 6b3c 3c5b b53c 41e8 6d3c 505f cc3c
000002b0: 187e 833c 5237 8c3c 657f 873c 8fe8 8c3a
000002c0: f8df 843b 10fe 923c c214 a33c 97d8 88bc
000002d0: f532 9d3c 5f15 193c 1cda cd3c 977a 343c
000002e0: 79c7 4d3c a21d 5b3c 6494 bb3c f1df a13c
000002f0: 189c aa3c a5a0 823c 4f0c a83b c0df 933c
00000300: 585f e63a da96 6a3c fbb3 0d3c 1a1c aa3c
00000310: 26b1 8c3c 436e 00ba 4f20 673b bb2d 5b3c
00000320: a0ce 473c c24d 423c 194f 973c 647c 3e3c
00000330: bdd4 8139 2423 9f3c 228f 7e3c 81a9 123c
00000340: e475 df3c 949b 473c 4043 a13c 67a1 4c3c
00000350: e195 fd3b 641c c8bb 7ea7 983c 04a9 853c
00000360: 909a 993c 92ed bf3c 7f6e b53c 8334 953c
00000370: 1e90 38bc fad0 8f3c 63ce ce3c 6204 883c
00000380: 9d55 0f3c ce24 1c3c 69d9 a83c 261a dc3c
00000390: be1c 8f3c 61b0 a13c 3df8 5b3c 5336 8a3c
000003a0: 2dd3 af3c 02b4 963c b977 3a3c 1ff5 513c
000003b0: 1200 7abc 22f7 883c 24d1 c43c 7214 423c
000003c0: 4a03 853c 33c3 a53c 1910 173b 0d47 a53c
000003d0: 2732 913c 0737 6d3c de59 003d d19c e3bb
000003e0: 081a c43c 1776 943c 8e9e 773c 5885 b43c
000003f0: 5cb2 2c3c 5a78 403b 2f5c ba3b 04d9 9e3b
