Machine-Learning-DRL/Assets/NN/Seeker.onnx (onnx, 610983 bytes, 11 tensors)

discrete_act_size_vector f4 [1, 2]
4.0 1.0
00000000: 0000 8040 0000 803f

network_body._body_endoder.seq_layers.0.weight f4 [128, 8]
0.22905792 0.13186656 -0.19869293 -0.19924968 0.039780855 0.3230979 0.15712057 -0.005866745
-0.5461194 -0.11956172 -0.16141744 0.41622078 0.4597614 0.03393495 0.10643012 0.35671806
-0.066106394 -0.25628084 0.078036256 0.097127184 -0.18219915 -0.12122374 0.25140065 0.17002082
0.09366299 0.3671652 -0.35079113 -0.2346558 -0.03381689 -0.60406417 0.105419956 0.43112376
-0.19012304 -0.20752263 0.21575916 0.11146673 -0.00283823 -0.23822092 -0.36096692 -0.5487292
-0.39626968 -0.02500229 0.085526146 0.5656571 -0.29255655 0.42176613 -0.21891911 0.32809427
0.13557549 -0.010286589 0.10027641 0.020229159 -0.2027368 -0.23957862 -0.7870837 0.15123662
-0.25324672 0.46112427 0.08185733 -0.70075625 0.4331652 -0.38838983 0.3152305 0.5096058
0.61106044 -0.09611465 -0.3962279 -0.059679538 -0.20939079 -0.50111717 -0.19157846 -0.15687568
-0.3110925 0.5503706 -0.28391916 -0.44058275 0.23058793 -0.012954985 -0.23989893 0.14723586
0.79300165 0.3526541 -0.62231964 0.16150403 -0.063340284 -0.6441948 -0.09093104 0.055438932
0.13695362 0.26176053 -0.36409077 -0.14524399 0.066411644 -0.67189866 0.5101615 0.50393575
0.13216199 -0.26335713 0.38317558 0.18274064 0.31059578 -0.18227668 -0.0035071375 -0.24128301
0.4865319 0.1446444 -0.8256208 0.044522744 -0.47302622 0.40983483 -0.5185889 0.42724445
0.22098298 -0.28717136 0.67624617 1.6171527 -0.8626556 0.108643055 0.21053316 -0.1172842
-0.061128605 0.29423037 0.63801515 -0.611646 -0.35985294 0.1368901 0.37961802 -0.6839618
-0.6085955 -0.14912197 0.56186277 -0.19073857 -0.54807633 -0.17986539 -0.17662223 -0.563641
0.29779968 0.281506 0.40206045 0.075603314 0.31390396 0.06543698 0.108280726 -0.35865662
-0.57484233 0.093192905 -0.893669 0.36823037 0.24816845 -0.4387303 0.07573416 -0.22309652
0.5190094 -0.8796086 -0.06983238 0.084143214 -0.029067146 -1.0392796 -0.15121017 -0.01201535
-0.22442561 -0.023508746 0.21941257 0.316838 0.5003845 0.14751807 -0.17696169 0.6943234
-0.7416173 0.2671245 0.6027566 -0.22989945 -0.48297602 -0.8421368 1.2253288 -0.028418023
-0.27324745 -0.1409742 -0.100205906 0.18338834 0.24849673 0.37041533 -0.025133682 -0.26839814
-0.040825523 0.32218894 -0.28863853 -0.034015507 -0.720114 0.16753642 0.17818642 -0.025112512
0.40678036 0.25616515 0.1464571 -0.20957744 0.5791546 0.13818674 0.5464838 -0.2035907
-0.55840486 -0.31722236 -0.08801459 -0.11656339 -0.27225482 0.60714525 0.2653026 -0.2797951
-0.331915 -0.17034465 0.09888593 -0.29871863 0.03706375 -0.027159804 0.2710794 -0.45445147
0.042430982 -0.18927887 0.3956672 0.24226809 0.14381407 0.3491318 0.28220657 0.12599708
-0.3282433 0.18214332 0.012496682 -0.0025350156 0.17499653 -0.46163264 0.42826462 0.24711923
0.096028544 -0.2417905 -0.6697458 0.35878256 -0.16834839 0.30342755 -0.08170205 -0.21893553
-0.09049583 -0.03483535 0.07809017 0.064261585 -0.01821284 -0.22790891 -0.1223767 -0.049976468
-0.5600411 0.3893904 -0.111908354 -0.14966942 0.27535948 -0.43355134 0.30400053 0.17154662
00000000: 298e 6a3e 0708 073e 2976 4bbe 1c08 4cbe
00000010: 40f1 223d 176d a53e 37e4 203e d33d c0bb
00000020: 7bce 0bbf c6dc f4bd 9d4a 25be e41a d53e
00000030: d965 eb3e 60ff 0a3d 09f8 d93d c0a3 b63e
00000040: ca62 87bd 3e37 83be 79d1 9f3d 9eea c63d
00000050: 6a92 3abe 2744 f8bd 96b7 803e f019 2e3e
00000060: 62d2 bf3d 14fd bb3e e59a b3be 9c49 70be
00000070: 9483 0abd f3a3 1abf 6be6 d73d 41bc dc3e
00000080: 9daf 42be d080 54be f8ef 5c3e ab48 e43d
00000090: 9901 3abb 2ff0 73be a8d0 b8be 8479 0cbf
000000a0: dce3 cabe 9ad1 ccbc 5528 af3d e7ce 103f
000000b0: f9c9 95be bbf1 d73e 552c 60be f9fb a73e
000000c0: 4dd4 0a3e 1589 28bc b85d cd3d 9fb7 a53c
000000d0: 3c9a 4fbe 1954 75be 517e 49bf c6dd 1a3e
000000e0: 8ea9 81be 7b18 ec3e d1a4 a73d c364 33bf
000000f0: d4c7 dd3e 08db c6be e465 a13e 8775 023f
00000100: 756e 1c3f c2d7 c4bd 62de cabe 8872 74bd
00000110: 8a6a 56be 3749 00bf 252d 44be 05a4 20be
00000120: 8447 9fbe 16e5 0c3f da5d 91be 1094 e1be
00000130: 3e1f 6c3e 2541 54bc 11a8 75be ffc4 163e
00000140: 2802 4b3f 148f b43e 5750 1fbf 5061 253e
00000150: 8db8 81bd f3e9 24bf 0e3a babd ef13 633d
00000160: 923d 0c3e 7a05 863e 1b6a babe d7ba 14be
00000170: d402 883d 8d01 2cbf f299 023f ef01 013f
00000180: 7955 073e bfd6 86be 972f c43e 5d20 3b3e
00000190: 6906 9f3e bda6 3abe 01d8 65bb e512 77be
000001a0: b61a f93e a91d 143e e25b 53bf 7b5d 363d
000001b0: 7e30 f2be dfd5 d13e 3ec2 04bf c9bf da3e
000001c0: 5d49 623e 2008 93be 781e 2d3f dcfe ce3f
000001d0: ffd6 5cbf 4080 de3d 0196 573e b332 f0bd
000001e0: fd61 7abd 5da5 963e f654 233f d594 1cbf
000001f0: a53e b8be eb2c 0c3e 4b5d c23e 1f18 2fbf
00000200: eacc 1bbf 6eb3 18be 3dd6 0f3f f950 43be
00000210: bb4e 0cbf a22e 38be 75dc 34be c74a 10bf
00000220: 3379 983e 8e21 903e deda cd3e e9d5 9a3d
00000230: 05b8 a03e d303 863d 49c2 dd3d d7a1 b7be
00000240: de28 13bf ecdb be3d 7ec7 64bf b188 bc3e
00000250: df1f 7e3e 42a1 e0be 831a 9b3d 6a73 64be
00000260: cddd 043f 072e 61bf 4704 8fbd 4753 ac3d
00000270: 391e eebc 1d07 85bf d7d6 1abe 08dc 44bc
00000280: d4cf 65be 6a95 c0bc b0ad 603e 9738 a23e
00000290: 3319 003f fa0e 173e 7235 35be 2ebf 313f
000002a0: a2da 3dbf 8bc4 883e 424e 1a3f c36a 6bbe
000002b0: a248 f7be 4796 57bf 93d7 9c3f eacc e8bc
000002c0: 17e7 8bbe 8a5b 10be c138 cdbd 27ca 3b3e
000002d0: ed75 7e3e 14a7 bd3e 27e5 cdbc 7b6b 89be
000002e0: aa38 27bd f3f5 a43e 6ec8 93be d853 0bbd
000002f0: 6459 38bf ab8e 2b3e 8076 363e c1b8 cdbc
00000300: 8445 d03e 1428 833e daf8 153e 789b 56be
00000310: 7a43 143f d380 0d3e 5de6 0b3f 157a 50be
00000320: 9ff3 0ebf f86a a2be fe40 b4bd c9b8 eebd
00000330: fc64 8bbe df6d 1b3f bed5 873e 4e41 8fbe
00000340: c3f0 a9be d46e 2ebe b584 ca3d a6f1 98be
00000350: 29d0 173d 3d7e debc ebca 8a3e ddad e8be
00000360: 1ccc 2d3d 52d2 41be e494 ca3e 2015 783e
00000370: ff43 133e 67c1 b23e 617d 903e 6105 013e
00000380: 810f a8be c783 3a3e e2be 4c3c 8122 26bb
00000390: 4a32 333e 1d5b ecbe 8045 db3e d30c 7d3e
000003a0: 9daa c43d ee97 77be 7674 2bbf 59b2 b73e
000003b0: 8563 2cbe db5a 9b3e 6853 a7bd a330 60be
000003c0: e155 b9bd 83af 0ebd bded 9f3d 949b 833d
000003d0: 1833 95bc f460 69be a3a0 fabd 20b4 4cbd
000003e0: db5e 0fbf 2e5e c73e 3530 e5bd f142 19be
000003f0: ebfb 8c3e 71fa ddbe f5a5 9b3e eba9 2f3e

network_body._body_endoder.seq_layers.0.bias f4 [128]
0.018752169 0.015194326 -0.0069521717 0.0034902063 -0.006753043 0.045045134 -0.0057434365 0.021057652
0.017899156 0.025389463 0.028237412 -0.0021261398 -0.013728978 0.03353027 -0.02209525 -0.0018745016
0.017549306 0.019715521 -0.021047372 0.0008524619 -0.0128158545 0.01353077 -0.0069761 -0.016303247
0.02298774 0.0027443196 -0.0069256853 -0.0033126518 -0.0049326704 -0.047844347 -0.004064622 0.016450362
0.02278677 -0.009896447 -0.0029822695 0.0018833313 0.0025218546 -0.00090029114 0.014644256 -0.016212728
0.0017231749 0.017210614 0.04037188 0.033112198 -0.002369723 0.028280001 0.025847103 0.019829448
0.0029436806 0.024999775 0.0335335 0.0062783533 0.023391709 0.0021291203 0.058426574 -0.075922616
-0.023589408 0.018985061 -0.0010637827 0.0010883122 0.0027994413 -0.01684665 0.0074020675 0.006458754
0.037797544 0.007480317 -0.0033073854 -0.0058611645 0.0094169425 0.03082471 0.037393976 -0.012467017
0.0083990265 -0.014625068 0.03410948 0.005194919 0.018799094 0.0021548977 -0.005348042 -0.010891211
0.016365392 0.013415496 0.012962661 -0.015692607 -0.014812651 0.0047463384 -0.009960035 0.043437153
0.011532166 -0.047292 0.018701402 0.044744343 -0.0033196078 -0.019863598 0.015688654 -0.0097694285
0.019731265 0.015415434 0.016711006 -0.0005198681 0.026036492 -0.01877284 -0.004470149 -0.010001901
0.038676385 -0.020189527 -0.00896714 0.013184318 0.025084462 0.027580002 0.03680436 0.022744065
0.0019846314 0.027030239 0.0072381194 -0.0008116947 -0.00757681 -0.015584391 0.012967591 -0.01520112
0.008913459 -0.0049201567 -0.011180676 0.007504114 0.0076084896 0.017258551 -0.026516106 0.0144518865
00000000: 269e 993c 9ff1 783c 0bcf e3bb f2bb 643b
00000010: a148 ddbb 3f81 383d 7033 bcbb 1981 ac3c
00000020: 40a1 923c 90fd cf3c 2552 e73c b556 0bbb
00000030: 82ef 60bc 0957 093d 1901 b5bc d6b1 f5ba
00000040: 90c3 8f3c 7282 a13c 8a6b acbc c077 5f3a
00000050: 97f9 51bc 2ab0 5d3c c597 e4bb 638e 85bc
00000060: c950 bc3c 0bda 333b dcf0 e2bb 1319 59bb
00000070: 3da2 a1bb 6ff8 43bd 8530 85bb e9c2 863c
00000080: 52ab ba3c b524 22bc 2e72 43bb 1dda f63a
00000090: b345 253b 8401 6cba 76ee 6f3c 8ed0 84bc
000000a0: 28dc e13a 46fd 8c3c fc5c 253d a8a0 073d
000000b0: 5b4d 1bbb 76ab e73c 4ebd d33c 5e71 a23c
000000c0: c4ea 403b 54cc cc3c 6c5a 093d a5ba cd3b
000000d0: f89f bf3c b688 0b3b b450 6f3d 517d 9bbd
000000e0: 933e c1bc 8f86 9b3c a06e 8bba b3a5 8e3a
000000f0: d576 373b fc01 8abc 0b8d f23b f5a3 d33b
00000100: 99d1 1a3d 721d f53b b8c0 58bb 030f c0bb
00000110: 8549 1a3c 1a84 fc3c 6d2a 193d 7642 4cbc
00000120: 129c 093c fb9d 6fbc 62b6 0b3d 243a aa3b
00000130: 8f00 9a3c 2f39 0d3b a13e afbb 0d71 32bc
00000140: b710 863c abcc 5b3c 5761 543c c88d 80bc
00000150: c3b0 72bc 2c87 9b3b 6a2f 23bc 28eb 313d
00000160: 69f1 3c3c 42b5 41bd af33 993c d845 373d
00000170: c78d 59bb fcb8 a2bc 7e85 803c f40f 20bc
00000180: 76a3 a13c 0491 7c3c 85e5 883c c247 08ba
00000190: 7b4a d53c 80c9 99bc 547a 92bb 03df 23bc
000001a0: 216b 1e3d 8264 a5bc e9ea 12bc 0a03 583c
000001b0: ee7d cd3c 75ef e13c 2bc0 163d c351 ba3c
000001c0: 9710 023b 856e dd3c bf2d ed3b e9c7 54ba
000001d0: e446 f8bb ac55 7fbc 0576 543c 1e0e 79bc
000001e0: c209 123c 4439 a1bb 272f 37bc 12e5 f53b
000001f0: a350 f93b ce61 8d3c 4e38 d9bc 9bc7 6c3c

network_body._body_endoder.seq_layers.2.weight f4 [128, 128]
-0.05481075 -0.031958908 0.17502798 0.22950234 0.16288832 -0.010581142 -0.07660992 0.024732746
0.16363654 -0.17061436 -0.00614986 -0.03554239 0.05870999 -0.10069685 0.04517645 -0.1240113
0.015888173 0.047177173 0.044049557 -0.061364938 0.11657445 0.022520998 0.109651156 0.12001033
0.15535432 0.04544017 -0.039922655 0.025052553 0.17225139 0.06862814 -0.10811106 -0.0023087522
0.13243008 0.06050746 0.03804122 -0.11342324 0.044393543 -0.061194137 0.054711692 0.085035235
-0.05039297 -0.0023237842 -0.03751001 0.07036919 0.16528746 0.10609723 -0.054603655 0.093530975
0.039912026 0.14559034 -0.061275437 -0.14025562 -0.11695792 0.03514556 0.09754563 -0.08852459
-0.02625172 0.055933908 -0.044003867 -0.02301167 0.03432129 0.06689203 -0.08271963 0.047842067
-0.12816012 -0.040295973 -0.013282341 -0.091326654 0.043453548 0.022725435 0.049648166 -0.025099607
-0.014400364 -0.07092424 0.07003973 -0.0037322743 -0.1328174 -0.0077794828 0.032189906 -0.13240613
0.0040005967 0.024217108 0.013638202 0.13368309 0.033073522 0.020434558 0.032452818 -0.057641152
-0.05034598 0.02997225 -0.12825434 -0.024820266 0.13797528 0.06289869 0.053616557 -0.011030522
-0.043486234 0.1334148 0.13712558 -0.09172123 0.058023576 0.01612974 0.04311059 0.06210159
0.094089486 -0.07609716 -0.080185145 0.17653832 0.1238002 0.01032786 0.05822668 -0.1599195
-0.13702372 0.095960334 0.109424956 0.095584996 -0.09564139 0.1333633 0.10533412 0.049123228
-0.018769054 0.016170315 -0.0457699 -0.10307521 0.0155106615 0.16803654 -0.19497773 0.04540349
0.070253715 -0.0029440862 -0.14656529 -0.03308472 -0.008240566 0.08282578 -0.1278275 -0.001464773
-0.023340305 -0.045009147 0.022442732 -0.073659755 -0.10899246 -0.021232741 0.0012185542 0.029184587
0.01582633 0.037129376 -0.12679246 0.041368313 0.032935273 -0.20295513 0.028769892 -0.16519032
-0.009584785 -0.027094707 0.08752491 -0.03675946 -0.0956388 -0.027356809 -0.05573419 -0.035438642
-0.068888664 -0.009704298 0.046107456 -0.05163699 0.0037407894 0.04835136 0.053932033 -0.049604684
-0.09364885 -0.010248783 0.0012181762 0.030927002 -0.056530777 0.077117704 0.02698719 0.024824549
0.023145447 0.08495533 0.051919524 0.058473263 0.064010404 0.025614893 0.011823354 0.071155354
0.053242072 0.021919178 0.08849347 0.14956225 0.07259986 0.09434107 -0.06086852 -0.12788828
-0.010831414 0.0077100107 -0.11501086 -0.18396564 0.01506948 -0.020896733 0.11833202 -0.05082347
-0.061272178 0.07914006 0.18603174 0.063513234 0.08107113 -0.020881753 -0.0038305575 -0.10147952
0.026657028 0.032929357 -0.16745469 0.12663789 -0.11966821 0.06852332 -0.13253017 0.12865819
-0.08941838 0.10884021 0.016844887 0.102361135 0.10804415 0.029446581 -0.10944561 -0.034027025
0.007792059 0.062467627 0.028892092 0.050250407 0.029078022 0.018543215 0.027222825 -0.00017378785
0.011908655 -0.089412384 -0.2111806 0.04654426 0.12187597 0.16373126 0.22816725 0.08346375
-0.05484185 0.07293957 0.21665153 0.051148616 -0.11525986 -0.018946687 0.1256276 -0.002478001
-0.0820164 -0.1424335 -0.009311492 0.048041306 -0.099106185 0.043041017 -0.15097548 0.008832717
00000000: 3d81 60bd 58e7 02bd 893a 333e a902 6b3e
00000010: 32cc 263e 875c 2dbc a9e5 9cbd 549c ca3c
00000020: 5690 273e 88b5 2ebe c484 c9bb e694 11bd
00000030: e379 703d 263a cebd f10a 393d a3f9 fdbd
00000040: ea27 823c da3c 413d 4f6d 343d cd59 7bbd
00000050: 96be ee3d f57d b83c c990 e03d fac7 f53d
00000060: 3415 1f3e 791f 3a3d f085 23bd 033b cd3c
00000070: ab62 303e e98c 8c3d 5569 ddbd 6f4e 17bb
00000080: c09b 073e acd6 773d 1cd1 1b3d 724a e8bd
00000090: 01d6 353d b4a6 7abd 5e19 603d f426 ae3d
000000a0: dc68 4ebd a14a 18bb 19a4 19bd b91d 903d
000000b0: 1e41 293e 8149 d93d 15a8 5fbd 2b8d bf3d
000000c0: cb7a 233d a215 153e f4fb 7abd 2b9f 0fbe
000000d0: a287 efbd caf4 0f3d 01c6 c73d 614c b5bd
000000e0: d90d d7bc f41a 653d 663d 34bd f882 bcbc
000000f0: 7b94 0c3d b0fe 883d e968 a9bd 0bf6 433d
00000100: 683c 03be 640d 25bd 2d9e 59bc 7809 bbbd
00000110: 59fc 313d b12a ba3c e05b 4b3d b19d cdbc
00000120: 81ef 6bbc ba40 91bd fd70 8f3d 2c99 74bb
00000130: 4901 08be 08eb febb 90d9 033d 7995 07be
00000140: 7017 833b f562 c63c c472 5f3c 38e4 083e
00000150: 1a78 073d 6066 a73c 3fed 043d 2119 6cbd
00000160: 9637 4ebd 5d88 f53c 1b55 03be df53 cbbc
00000170: 6449 0d3e 07d1 803d 099d 5b3d 5db9 34bc
00000180: 9f1e 32bd e49d 083e a66a 0c3e 57d8 bbbd
00000190: 21aa 6d3d 8422 843c bb94 303d 3d5e 7e3d
000001a0: fdb1 c03d d4d8 9bbd 1c38 a4bd 76c6 343e
000001b0: f68a fd3d 2f36 293c 197f 6e3d f0c1 23be
000001c0: f24f 0cbe da86 c43d 311a e03d 11c2 c33d
000001d0: a2df c3bd 6490 083e 6ab9 d73d 7035 493d
000001e0: 8fc1 99bc 9c77 843c 3879 3bbd 1819 d3bd
000001f0: 6e20 7e3c c511 2c3e 3ea8 47be 03f9 393d
00000200: 2ee1 8f3d 92f1 40bb 3615 16be d883 07bd
00000210: 7003 07bc 90a0 a93d 36e5 02be a0fd bfba
00000220: 2b34 bfbc 835b 38bd d2d9 b73c edda 96bd
00000230: 7037 dfbd 49f0 adbc e5b7 9f3a 8414 ef3c
00000240: 38a6 813c f914 183d e2d5 01be d271 293d
00000250: 23e7 063d 78d3 4fbe d6ae eb3c a727 29be
00000260: 8109 1dbc b8f5 ddbc 4340 b33d 1691 16bd
00000270: 46de c3bd 631b e0bc 8949 64bd 1c28 11bd
00000280: 8015 8dbd c7fe 1ebc 2cdb 3c3d 4f81 53bd
00000290: 0828 753b 130c 463d d6e7 5c3d 482e 4bbd
000002a0: f8ca bfbd 83ea 27bc 36ab 9f3a a05a fd3c
000002b0: d18c 67bd e3ef 9d3d 3d14 dd3c da5c cb3c
000002c0: 859b bd3c 0ffd ad3d 91a9 543d a981 6f3d
000002d0: e317 833d 53d6 d13c beb6 413c e6b9 913d
000002e0: 5c14 5a3d d98f b33c 103c b53d d926 193e
000002f0: 3caf 943d e435 c13d 4551 79bd 25f5 02be
00000300: 3e76 31bc 42a4 fc3b d08a ebbd 7d61 3cbe
00000310: fbe5 763c a02f abbc 0f58 f23d 452c 50bd
00000320: 89f8 7abd 2f14 a23d 1b7f 3e3e 3a13 823d
00000330: 9f08 a63d 3610 abbc 170a 7bbb 7fd4 cfbd
00000340: d75f da3c efe0 063d 3e79 2bbe 5dad 013e
00000350: 9b14 f5bd f455 8c3d fdb5 07be f9be 033e
00000360: fc20 b7bd 9ee7 de3d 4afe 893c b7a2 d13d
00000370: 4046 dd3d f539 f13c 0525 e0bd ec5f 0bbd
00000380: 8754 ff3b 0ede 7f3d 1caf ec3c 5fd3 4d3d
00000390: 0835 ee3c f1e7 973c 6702 df3c d23a 36b9
000003a0: 851c 433c d71d b7bd ba3f 58be 32a5 3e3d
000003b0: 1c9a f93d 2ba9 273e ada4 693e 0bef aa3d
000003c0: d9a1 60bd 5761 953d e6d9 5d3e 3681 513d
000003d0: 5d0d ecbd 1536 9bbc 86a4 003e f565 22bb
000003e0: 37f8 a7bd 16da 11be 3a8f 18bc f6c6 443d
000003f0: 2ff8 cabd c74b 303d 5199 1abe 1ab7 103c

network_body._body_endoder.seq_layers.2.bias f4 [128]
0.0032655606 0.016129797 0.024177812 -0.011474333 -0.015918445 0.040634602 0.017012278 0.00015085239
0.0017668892 -0.0064939153 0.026202947 0.012311569 0.007486461 -0.009143526 -0.00771178 -0.0038692239
-0.012516973 -0.009921089 -0.00029682164 -0.017048955 -0.0042257193 -0.014640698 0.011538897 -0.003375552
0.008713637 0.015394273 -0.0012595481 -0.0045694616 -0.00880059 -0.012428046 -0.00821912 0.024158053
0.019971043 0.01092066 -0.007363942 0.0038559614 0.012720845 0.010694366 -0.011307627 -0.00031326228
0.022857033 0.013749203 0.017190253 0.009444166 -0.0082078595 0.018683122 0.014976158 0.010508512
-0.021176929 0.0077093574 -0.005402521 0.004366714 -0.016580181 -0.017784353 -0.0043718317 0.024659144
0.012494356 0.020627826 0.0012949342 0.033246983 0.0038884126 -0.01093214 0.02221094 0.010060187
0.0047253673 0.011809123 0.039555833 -0.0022153088 0.024526171 0.0053839455 0.015963623 -0.009499127
0.0044474383 0.0010804675 -0.0023070988 0.035054736 0.032492604 -0.014016252 -0.020939585 0.02413847
0.0006195328 0.016619831 0.0047482857 -0.0043859417 -0.0019470766 -0.00068536313 0.0042225593 0.027950414
0.023096403 -0.018951459 0.022589752 0.005511885 0.021051325 0.0076151965 -0.0024111301 0.031848297
0.0267271 -0.0036214904 -0.0052226167 0.03420828 0.003163493 -0.017367855 -0.0035283004 0.011699725
-0.0014732652 -0.006992712 0.00195927 -0.014280883 -0.004580819 0.0071198894 -0.010460867 0.036734365
0.006139123 -0.00965084 0.002332257 0.009755219 -0.020617794 -0.01056711 0.012678299 -0.007599858
0.021020861 0.025065484 -0.001719698 -0.00908508 0.005522399 -0.004105889 -0.016868781 -0.002081646
00000000: 0403 563b a322 843c 8c10 c63c d7fe 3bbc
00000010: 6667 82bc 7870 263d 555d 8b3c 212e 1e39
00000020: f796 e73a e9ca d4bb 90a7 d63c 77b6 493c
00000030: fd50 f53b bace 15bc 19b3 fcbb ce92 7dbb
00000040: fd13 4dbc 108c 22bc ba9e 9bb9 40aa 8bbc
00000050: e777 8abb 8adf 6fbc a40d 3d3c 5d38 5dbb
00000060: a4c3 0e3c 4338 7c3c 6c17 a5ba 6cbb 95bb
00000070: 5a30 10bc 019f 4bbc 7da9 06bc 1ce7 c53c
00000080: 509a a33c 91ec 323c 394d f1bb 4cb4 7c3b
00000090: 176b 503c 6c37 2f3c a043 39bc 5a3d a4b9
000000a0: ac3e bb3c 5644 613c 93d2 8c3c b4bb 1a3c
000000b0: 427a 06bc 590d 993c 8f5e 753c e52b 2c3c
000000c0: 3d7b adbc c79e fc3b a207 b1bb a716 8f3b
000000d0: 29d3 87bc 7eb0 91bc 9541 8fbb f901 ca3c
000000e0: 21b5 4c3c b0fb a83c c8ba a93a fd2d 083d
000000f0: bdd4 7e3b b81c 33bc b8f3 b53c 7cd3 243c
00000100: 41d7 9a3b 0d7b 413c 4c05 223d b72e 11bb
00000110: 1ceb c83c cf6b b03b 25c6 823c 3aa2 1bbc
00000120: d1bb 913b 799e 8d3a b232 17bb 8e95 0f3d
00000130: f716 053d 6ca4 65bc 7e89 abbc 0abe c53c
00000140: 2468 223a 5026 883c 8297 9b3b f2b7 8fbb
00000150: 0d35 ffba f1a9 33ba 655d 8a3b 44f8 e43c
00000160: ab34 bd3c 1740 9bbc 250e b93c 0b9d b43b
00000170: d473 ac3c e688 f93b 0d04 1ebb 5c73 023d
00000180: cbf2 da3c 8756 6dbb 7c22 abbb fb1d 0c3d
00000190: 9b52 4f3b 0847 8ebc 0f3b 67bb 34b0 3f3c
000001a0: 941a c1ba 1f23 e5bb 1967 003b 5dfa 69bc
000001b0: b21a 96bb f64d e93b 0e64 2bbc c676 163d
000001c0: b22a c93b 8f1e 1ebc c8d8 183b 5bd4 1f3c
000001d0: a6e6 a8bc ac21 2dbc a4b8 4f3c 3b08 f9bb
000001e0: f133 ac3c 2156 cd3c 7d67 e1ba 96d9 14bc
000001f0: 3ef5 b43b b18a 86bb 6630 8abc 396c 08bb

action_model._discrete_distribution.branches.0.weight f4 [4, 128]
0.03583712 0.030360863 0.023281444 0.03672824 -0.025146775 0.015276472 0.028090443 0.034165602
0.035964284 0.03562522 -0.049469676 0.01988011 0.02448395 -0.03952859 -0.0036391476 -0.019218078
0.031584356 -0.037870016 -0.02391849 0.025392646 -0.0041391086 -0.011242446 -0.034027703 0.025353052
0.020363767 0.04118946 0.026693635 0.0693449 -0.031296145 -0.032057844 -0.021232346 0.04432492
-0.034206606 -0.0385961 0.0041428865 -0.030672994 0.022442348 0.015741002 0.047558356 0.030308476
-0.036071636 -0.043752868 0.029455017 0.0299627 -0.049100414 0.027645992 0.037727427 0.015652228
-0.030613018 0.050487727 -0.007053012 0.026738577 -0.01797698 0.076469004 0.022531204 -0.044252273
-0.03399645 0.049985927 0.03541226 -0.032544915 0.026224047 0.022888914 -0.049856193 0.032685768
0.02940857 0.032247256 -0.035745393 0.029848717 0.034477104 0.0003342878 -0.06280735 -0.011787925
-0.036134914 -0.043752916 0.022540055 0.064857185 -0.023300804 -0.07426462 0.022495298 0.018539242
-0.043669105 -0.03758918 -0.038029626 -0.0923016 0.019469894 0.02655236 -0.027424425 -0.047565293
0.02044745 -0.041783627 0.011038756 -0.010426196 0.034364223 -0.031646837 0.063355066 0.03036097
-0.037933968 -0.011030547 0.03813426 0.026120355 0.0398645 -0.027655207 -0.05568627 0.012279282
0.03789331 -0.03406191 0.043781705 0.017019916 -0.033462342 -0.015707387 -0.034240507 -0.0339822
0.04235533 -0.047572765 0.06373529 -0.030732172 -0.04602302 0.020047678 0.033914182 0.029788796
-0.03658454 -0.0068411278 -0.018399471 0.025854487 0.006260374 -0.05156334 0.004014869 -0.035451733
-0.054884143 -0.054847613 -0.04291944 -0.09018525 0.07159559 -0.030374475 -0.05844563 -0.05941795
-0.071264796 -0.061730873 0.051848587 -0.061250314 -0.06320569 0.06837718 0.023393475 0.06671353
-0.030599663 0.062276505 0.06118928 -0.029096102 0.03674507 -0.006134141 0.040726006 -0.044199266
-0.073747374 -0.052694432 -0.06023734 -0.092141666 0.05246038 0.059229404 0.070789985 -0.07199778
0.07580721 0.07718187 -0.055012867 0.058655057 -0.046799928 -0.02244357 -0.0823623 -0.0698935
0.03423169 0.050300386 -0.029943367 -0.039054196 0.098792545 -0.06136901 -0.07811477 -0.024490952
0.06331759 -0.09256346 0.025544345 -0.07108119 0.07168614 -0.07231947 -0.06807162 0.0628491
0.04879418 -0.088669606 -0.053545237 0.033338413 -0.046503294 -0.023048777 0.07280296 -0.055001803
-0.04146078 -0.07273294 0.07559349 -0.07136272 -0.027107012 -0.009835588 0.11231352 0.06066287
0.042408433 0.04497571 -0.036135636 -0.109645784 0.05060577 0.10084852 -0.06447468 -0.07118548
0.046525083 0.027462114 0.056256093 0.15550423 -0.029495606 -0.050064236 0.05559467 0.08513495
-0.036242872 0.068990506 -0.03959703 0.027136965 -0.063930035 0.06991148 -0.12729731 -0.050437152
0.050427645 0.059334274 -0.06319606 -0.07305498 -0.06804992 0.071946874 0.09034949 -0.010458708
-0.10313379 0.06759017 -0.061088197 -0.024265684 0.028581437 0.049249735 0.049579736 0.063716546
-0.094038755 0.06287434 -0.1115531 0.059388544 0.08493387 -0.030974718 -0.062170126 -0.055520266
0.05952828 0.011997859 0.05218042 -0.054678977 -0.01308029 0.085845426 -0.0027683645 0.07167578
00000000: f2c9 123d 58b7 f83c bab8 be3c 5a70 163d
00000010: 9c00 cebc 2b4a 7a3c ee1d e63c 3bf1 0b3d
00000020: 494f 133d c0eb 113d b7a0 4abd 9ddb a23c
00000030: 9192 c83c bbe8 21bd c47e 6ebb 3b6f 9dbc
00000040: 995e 013d 971d 1bbd b6f0 c3bc 3d04 d03c
00000050: 5ca1 87bb 3c32 38bc a260 0bbd 34b1 cf3c
00000060: ead1 a63c 47b6 283d 9cac da3c b304 8e3d
00000070: 6330 00bd 164f 03bd 75ef adbc 0c8e 353d
00000080: 3a1c 0cbd f216 1ebd 0dc1 873b ee45 fbbc
00000090: 04d9 b73c 46f3 803c 8dcc 423d 7b49 f83c
000000a0: dabf 13bd 3536 33bd a64b f13c 5674 f53c
000000b0: 841d 49bd d979 e23c 1388 1a3d 1a39 803c
000000c0: 27c8 fabc 38cc 4e3d f41c e7bb dc0a db3c
000000d0: 7644 93bc c89b 9c3d 5c93 b83c df41 35bd
000000e0: dd3f 0bbd 0bbe 4c3d 720c 113d d14d 05bd
000000f0: d0d3 d63c 8881 bb3c 0236 4cbd 83e1 053d
00000100: 3eea f03c b315 043d c369 12bd 4c85 f43c
00000110: dd37 0d3d 5943 af39 24a1 80bd 2422 41bc
00000120: 3402 14bd 4236 33bd eca5 b83c d8d3 843d
00000130: 54e1 bebc 0d18 98bd 0f48 b83c 9cdf 973c
00000140: 60de 32bd 1df7 19bd f4c4 1bbd 9f08 bdbd
00000150: 547f 9f3c 5684 d93c 30a9 e0bc d3d3 42bd
00000160: 6981 a73c 4f25 2bbd e6db 343c a3d2 2abc
00000170: 80c1 0c3d 1da0 01bd 4dc0 813d 92b7 f83c
00000180: a660 1bbd 78b9 34bc ab32 1c3d 5bfa d53c
00000190: f548 233d 2c8d e2bc 4917 64bd 0b2f 493c
000001a0: 0436 1b3d 8084 0bbd 7254 333d 5a6d 8b3c
000001b0: cf0f 09bd c7ac 80bc c63f 0cbd eb30 0bbd
000001c0: c87c 2d3d a9db 42bd a687 823d 09c2 fbbc
000001d0: a282 3cbd 073b a43c 99e9 0a3d a207 f43c
000001e0: acd9 15bd 8a2b e0bb 7dba 96bc cacc d33c
000001f0: d323 cd3b 1534 53bd 2a8f 833b d635 11bd
00000200: 32ce 60bd e4a7 60bd 4bcc 2fbd 0bb3 b8bd
00000210: b5a0 923d e4d3 f8bc af64 6fbd 3d60 73bd
00000220: 47f3 91bd 83d9 7cbd 2f5f 543d 9ce1 7abd
00000230: fc71 81bd 5609 8c3d aca3 bf3c 1aa1 883d
00000240: 25ac fabc a615 7f3d 9ca1 7a3d f35a eebc
00000250: 0082 163d e700 c9bb 50d0 263d 4a0a 35bd
00000260: dd08 97bd 1ed6 57bd 6ebb 76bd c5b4 bcbd
00000270: b2e0 563d 889a 723d 57fa 903d 9273 93bd
00000280: cf40 9b3d 8711 9e3d 2c55 61bd 4940 703d
00000290: 48b1 3fbd 94db b7bc 91ad a8bd 5324 8fbd
000002a0: 8736 0c3d c707 4e3d cb4b f5bc 4bf7 1fbd
000002b0: bf53 ca3d 125e 7bbd a3fa 9fbd 40a1 c8bc
000002c0: a7ac 813d e991 bdbd 6042 d13c 0493 91bd
000002d0: 2fd0 923d 3b1c 94bd 2269 8bbd 07b7 803d
000002e0: 68dc 473d 6998 b5bd 4052 5bbd dc8d 083d
000002f0: 3d7a 3ebd cad0 bcbc b819 953d 9249 61bd
00000300: c7d2 29bd 02f5 94bd c2d0 9a3d 9e26 92bd
00000310: 860f debc 7225 21bc a104 e63d a179 783d
00000320: 77b4 2d3d 7338 383d f602 14bd f88d e0bd
00000330: ff47 4f3d ab89 ce3d 4d0b 84bd b1c9 91bd
00000340: 1691 3e3d 3af8 e03c ca6c 663d 803c 1f3e
00000350: c5a0 f1bc 2810 4dbd 3db7 633d 3c5b ae3d
00000360: 6873 14bd e54a 8d3d 7f30 22bd 574e de3c
00000370: c0ed 82bd c02d 8f3d 3a5a 02be 3097 4ebd
00000380: 388d 4e3d 7f08 733d f06c 81bd d99d 95bd
00000390: c25d 8bbd e258 933d 2709 b93d 005b 2bbc
000003a0: cf37 d3bd b76c 8a3d 9e37 7abd d4c8 c6bc
000003b0: 9e23 ea3c 17ba 493d 1f14 4b3d d27d 823d
000003c0: 6497 c0bd 43c4 803d f475 e4bd 6741 733d
000003d0: cff1 ad3d b1be fdbc 1aa6 7ebd 3869 63bd
000003e0: edd3 733d ab92 443c 23bb 553d 10f7 5fbd
000003f0: b64e 56bc bacf af3d 736d 35bb c0ca 923d

action_model._discrete_distribution.branches.0.bias f4 [4]
-0.030272555 0.0501249 -0.028978491 -0.026362829
00000000: 26fe f7bc c44f 4d3d 4d64 edbc dcf6 d7bc

action_model._discrete_distribution.branches.1.weight f4 [1, 128]
-0.008072657 0.0034480859 -0.0042199004 0.008908164 -0.0044614673 0.008840926 0.0031771571 -0.0016786493
-0.013469939 0.0038357375 0.0081704855 0.0034303993 0.0060129124 -0.012083837 0.00438902 -0.0034654874
0.013278685 -0.018056123 0.009829029 0.0031086025 0.01601754 -0.013372635 0.009570202 -0.005935073
-0.0126721505 0.0024818864 -0.0010390978 0.004885127 -0.0008605756 -0.0054390123 -0.02509876 0.0011950381
-0.004439278 0.016240558 -0.0049358127 -0.006086378 -0.008460698 -0.00053395494 -0.0133889215 -0.014233217
-0.0022392813 -0.0073571648 -0.015256606 -0.0024558806 0.012609306 -0.016608054 0.023049593 -0.009780285
-0.0052148993 -0.0038157073 0.009051768 0.008034126 0.008710311 -0.0070805647 -0.013087674 -0.00990441
0.0032553342 -0.006792661 0.006409935 0.022876186 -0.0022743107 0.013759511 0.0022969414 -0.015068399
-0.0070078494 0.0036080515 0.018481212 -0.0073818774 -0.0012060168 -0.01006727 -0.00041811308 0.010805114
-0.011767778 0.0051722634 0.007788446 0.008499244 0.005139771 0.0028732093 0.0033459899 -0.019746123
0.0102677215 0.0040472997 -0.011698471 -0.004207052 -0.0076555335 0.009455716 -0.0004207481 0.017295664
-0.007813766 0.0063850093 0.0010846639 -0.004930842 -0.0018973773 0.0054968847 0.012164073 0.011984653
0.0044251215 -0.022696404 -0.00091204105 0.011888488 0.0034193639 0.004936489 0.0037389577 0.0065986635
-0.0019951973 0.0057885866 -0.0020009656 -0.007789152 -0.010337125 -0.008505263 0.019345103 0.0014141789
-0.011780652 0.0036364272 -0.0025759104 -0.0029999637 -0.0008982098 -0.011818859 -0.02056784 -0.013709726
0.00013868061 -0.0008775689 -0.0025892097 0.010909888 0.009542538 -0.008367129 -0.0066232556 -0.018603299
00000000: 2d43 04bc 48f9 613b 1747 8abb 8cf3 113c
00000010: 8031 92bb 88d9 103c da37 503b 2006 dcba
00000020: 05b1 5cbc ff60 7b3b 80dd 053c 8dd0 603b
00000030: f707 c53b 49fb 45bc c5d1 8f3b 3b1d 63bb
00000040: d78e 593c 6fea 93bc f009 213c b2b9 4b3b
00000050: 3737 833c e518 5bbc 56cc 1c3c 007b c2bb
00000060: da9e 4fbc 25a7 223b 5632 88ba 6a13 a03b
00000070: 4098 61ba be39 b2bb ea9b cdbc d3a2 9c3a
00000080: 5d77 91bb eb0a 853c 99bc a1bb 3d70 c7bb
00000090: bd9e 0abc 1cf9 0bba 355d 5bbc 7032 69bc
000000a0: e8c0 12bb 5f14 f1bb d8f6 79bc d7f2 20bb
000000b0: 4397 4e3c 9d0d 88bc 80d2 bc3c 7d3d 20bc
000000c0: bfe1 aabb f210 7abb de4d 143c 91a1 033c
000000d0: b1b5 0e3c 1504 e8bb af6d 56bc 1b46 22bc
000000e0: 7257 553b f894 debb 6f0a d23b d766 bb3c
000000f0: 9a0c 15bb 926f 613c 4888 163b 72e1 76bc
00000100: 1aa2 e5bb 0f75 6c3b e965 973c ade3 f1bb
00000110: 3513 9eba 31f1 24bc 3036 dbb9 ef07 313c
00000120: a3cd 40bc 177c a93b 3836 ff3b 6a40 0b3c
00000130: 866b a83b 744c 3c3b 6548 5b3b 9fc2 a1bc
00000140: f239 283c 369f 843b f2aa 3fbc 4fdb 89bb
00000150: 45db fabb 26ec 1a3c db97 dcb9 a3af 8d3c
00000160: 4f05 00bc 5739 d13b 482b 8e3a e792 a1bb
00000170: 6bb1 f8ba 361f b43b d24b 473c 475b 443c
00000180: 9c00 913b cfed b9bc 0a16 6fba efc7 423c
00000190: 6817 603b 45c2 a13b 4d09 753b 9a39 d83b
000001a0: dbc1 02bb 2fae bd3b a222 03bb 253c ffbb
000001b0: 0b5d 29bc a959 0bbc 9f79 9e3c f85b b93a
000001c0: a303 41bc 2051 6e3b 9bd0 28bb 0a9b 44bb
000001d0: d775 6bba e3a3 41bc e37d a8bc c29e 60bc
000001e0: cb6a 1139 a70c 66ba bbaf 29bb 63bf 323c
000001f0: 4e58 1c3c 4816 09bc e507 d9bb f265 98bc

onnx::LSTM_114 f4 [1, 512, 128]
-0.070755936 -0.06890179 0.07047758 -0.124906294 0.07692448 0.112795934 0.08705347 -0.031040559
0.020093238 -0.07639462 -0.0690282 0.108127505 -0.10481218 -0.10463083 -0.12967679 -0.06750931
-0.05966408 -0.019266253 -0.07477903 -0.07196898 -0.0074894167 -0.10295314 -0.017926507 0.094325006
0.1665824 0.1165539 0.11798596 -0.12821823 0.112860985 -0.007730349 0.039533157 0.014094275
-0.107290044 -0.0842154 0.07558179 -0.10547533 -0.14098687 0.121008836 0.07717751 0.08022562
-0.007045757 -0.03247457 0.16607003 -0.036104463 0.0764437 0.08408843 0.009224056 0.16239688
0.034977615 0.09916628 0.021451203 0.13483523 0.10904301 -0.06977289 0.051885042 -0.008838852
-0.14862505 0.18333828 -0.0050907903 -0.0071628154 0.14083654 -0.04434551 0.16344987 -0.03704526
-0.059567977 0.15454312 -0.05299753 -0.0728257 0.07895482 0.12604102 0.04442675 -0.018127609
0.17287424 -0.0066060787 -0.013698997 0.036711212 0.17366822 -0.19129008 0.039660953 0.15406667
0.1025274 0.060923226 0.1524077 0.070643865 -0.06650091 0.12353958 0.13958663 0.020904776
0.053141106 -0.05801625 0.010457789 0.093636215 -0.07165613 0.02599778 0.07124858 0.05382079
-0.027974196 -0.007893702 -0.008536885 0.19432738 -0.1095188 0.036408342 -0.055936705 0.023427898
0.10994046 -0.03060535 -0.14176026 -0.049752492 -0.05581731 -0.014377995 0.06993073 0.017170077
-0.0033677917 -0.076146536 0.03385835 0.16361944 -0.046350516 0.106913105 -0.040539876 -0.17841864
0.07339003 -0.009442254 -0.03711229 0.06566247 -0.115125716 -0.012701985 -0.18097141 0.0818539
-0.07581232 0.19645461 -0.14570369 -0.1518194 0.06461725 0.15306832 0.028959217 -0.13741778
0.071510844 0.11254704 0.19901487 0.09716735 0.17737287 -0.15424733 0.03270511 0.037985105
-0.10074841 0.15910679 0.07786251 -0.088257395 0.12194177 0.058676675 -0.091679044 -0.10812849
-0.012276703 0.096617915 -0.04340883 -0.045443382 -0.11781869 0.09613989 0.06067219 0.0701489
0.009941669 -0.06916556 -0.106121 -0.046401884 -0.17802346 0.028343832 -0.050822113 -0.12245361
-0.090102725 0.05899128 0.04995219 0.10722449 0.11017373 0.17999922 0.0403909 0.0077851284
-0.15937106 0.011156145 0.07541548 -0.04514674 -0.082748264 0.113807485 -0.13405181 0.12811081
0.07490781 0.17232873 0.15167281 0.10339154 0.14552459 -0.11493943 -0.094110265 -0.074099034
-0.047578298 -0.061521355 -0.031193 -0.07890472 0.0034046571 0.10425412 -0.10973377 -0.030686846
0.10411363 0.066604294 -0.1639607 -0.058956366 0.1497111 -0.17801182 -0.026809169 0.10212107
-0.095848404 0.039626744 -0.004827381 0.013624113 0.01880944 0.02266081 0.05652483 0.083162524
0.022451704 0.064538464 0.075680934 0.08869533 0.09980183 0.0113640325 0.07071788 0.022593431
0.04396867 0.14141344 0.07792173 -0.018025722 0.09926858 -0.117036484 0.15351185 0.11585698
-0.16667941 -0.099410295 0.05569048 0.11281891 -0.11694185 0.15103453 0.007751686 0.07134532
0.0932572 0.056562643 -0.13184309 -0.121411145 0.051972054 0.019485986 -0.0067364825 0.10890625
0.063342735 0.11427258 -0.17983761 -0.122471265 0.14643052 -0.1259127 0.103055805 -0.13869883
00000000: 7de8 90bd 621c 8dbd 8d56 903d dfce ffbd
00000010: 958a 9d3d 8e01 e73d 1749 b23d c548 febc
00000020: 939a a43c c874 9cbd a85e 8dbd f471 dd3d
00000030: c5a7 d6bd b048 d6bd fec9 04be 5242 8abd
00000040: 5362 74bd 43d4 9dbc c025 99bd 7964 93bd
00000050: c869 f5bb 19d9 d2bd 9cda 92bc 782d c13d
00000060: 9494 2a3e d0b3 ee3d 9fa2 f13d a44b 03be
00000070: a923 e73d de4e fdbb 85ed 213d adeb 663c
00000080: e2ba dbbd 2079 acbd a0ca 9a3d 7303 d8bd
00000090: dd5e 10be 7bd3 f73d 3e0f 9e3d 544d a43d
000000a0: 18e0 e6bb 0e04 05bd 430e 2a3e 46e2 13bd
000000b0: 848e 9c3d 8e36 ac3d 7f20 173c 5e4b 263e
000000c0: b044 0f3d b117 cb3d 6fba af3c 3f12 0a3e
000000d0: f151 df3d 17e5 8ebd 6985 543d d5d0 10bc
000000e0: 2a31 18be 08bd 3b3e a5d0 a6bb 0db6 eabb
000000f0: 7437 103e a3a3 35bd 675f 273e c5bc 17bd
00000100: 8dfd 73bd 8d40 1e3e f013 59bd a425 95bd
00000110: 11b3 a13d e610 013e d3f8 353d 5a80 94bc
00000120: f205 313e ce77 d8bb c271 60bc 7f5e 163d
00000130: 15d6 313e 8ce1 43be 8673 223d a7c3 1d3e
00000140: e3f9 d13d a28a 793d c410 1c3e bbad 903d
00000150: a131 88bd 5202 fd3d ccef 0e3e 7e40 ab3c
00000160: 7daa 593d 73a2 6dbd 2557 2b3c 58c4 bf3d
00000170: 73c0 92bd 4cf9 d43c c7ea 913d 3073 5c3d
00000180: 242a e5bc 9654 01bc 4ade 0bbc c2fd 463e
00000190: 654b e0bd ea20 153d e31d 65bd ddeb bf3c
000001a0: 7728 e13d 12b8 fabc 9a29 11be 45c9 4bbd
000001b0: b1a0 64bd af91 6bbc d837 8f3d 43a8 8c3c
000001c0: 2bb6 5cbb b7f2 9bbd 0eaf 0a3d db8b 273e
000001d0: 0ada 3dbd 42f5 da3d 240d 26bd 60b3 36be
000001e0: 834d 963d afb3 1abc 0e03 18bd 0c7a 863d
000001f0: 08c7 ebbd fd1b 50bc 9250 39be 04a3 a73d
00000200: 7d43 9bbd 662b 493e 5933 15be 8b76 1bbe
00000210: 0c56 843d f1bd 1c3e e13b ed3c 3fb7 0cbe
00000220: 4774 923d 107f e63d 8eca 4b3e adff c63d
00000230: 3ca1 353e 03f3 1dbe cbf5 053d 4596 1b3d
00000240: 2f55 cebd e4ec 223e 6176 9f3d 4bc0 b4bd
00000250: 9bbc f93d f456 703d 39c2 bbbd 7872 ddbd
00000260: 3924 49bc 9ddf c53d 75cd 31bd d722 3abd
00000270: ed4a f1bd fee4 c43d 6783 783d 3aaa 8f3d
00000280: 62e2 223c aca6 8dbd f855 d9bd e70f 3ebd
00000290: c84b 36be 5331 e83c d92a 50bd f5c8 fabd
000002a0: c787 b8bd d7a0 713d ab9a 4c3d 8398 db3d
000002b0: c4a2 e13d b751 383e ee70 253d 641a ff3b
000002c0: 2b32 23be 43c8 363c 6e73 9a3d caeb 38bd
000002d0: ec77 a9bd e613 e93d e144 09be 7b2f 033e
000002e0: 4469 993d f176 303e 1e50 1b3e f2be d33d
000002f0: 6604 153e 5d65 ebbd e2bc c0bd 3cc1 97bd
00000300: 76e1 42bd d1fd 7bbd 7688 ffbc cc98 a1bd
00000310: ab20 5f3b 2f83 d53d 19bc e0bd fb62 fbbc
00000320: 8739 d53d d567 883d 50e5 27be 3b7c 71bd
00000330: de4d 193e bb48 36be e79e dbbc da24 d13d
00000340: 2b4c c4bd a74f 223d 022f 9ebb ac37 5f3c
00000350: 4116 9a3c 2aa3 b93c 9586 673d 1d51 aa3d
00000360: a3ec b73c be2c 843d 9bfe 9a3d e6a5 b53d
00000370: e764 cc3d 3530 3a3c 89d4 903d dc15 b93c
00000380: 7e18 343d afce 103e 6e95 9f3d aeaa 93bc
00000390: 534d cb3d d3b0 efbd 3632 1d3e 6d46 ed3d
000003a0: 02ae 2abe a097 cbbd b31b 643d 9a0d e73d
000003b0: 357f efbd cca8 1a3e db01 fe3b 7f1d 923d
000003c0: a2fd be3d 3bae 673d e001 07be 68a6 f8bd
000003d0: a6e0 543d 13a1 9f3c b6bd dcbb 3d0a df3d
000003e0: d6b9 813d be07 ea3d 5a27 38be 37d2 fabd
000003f0: e2f1 153e 42ef 00be ec0e d33d 1107 0ebe

onnx::LSTM_115 f4 [1, 512, 128]
-0.07596368 0.09344735 0.0050236704 -0.038945235 -0.10390545 0.11514519 -0.06574522 -0.15892123
0.029235575 -0.10468064 0.16289325 -0.03481241 0.13419788 0.15799624 -0.03963405 -0.10532067
-0.14160734 -0.00740579 0.028971257 -0.16094896 0.13856582 -0.0026160716 0.037245113 0.009503589
-0.15206543 -0.12945911 -0.016909659 0.07215133 0.044303976 -0.028487403 0.04405206 0.059430968
-0.018244142 0.13644521 -0.016563464 0.087885045 0.06237486 -0.04932125 0.08894947 -0.014995913
-0.09133963 -0.08621299 0.0029914156 -0.13109052 -0.0070174565 -0.08804138 -0.054531246 -0.10974825
0.110565774 -0.15271428 0.06619612 -0.13494997 0.11033436 0.06835761 0.0936525 0.014800409
0.111331224 -0.1327331 0.12620948 0.1502538 0.070608735 -0.015693255 -0.051517766 0.027545411
0.032752376 -0.1648205 0.17425364 -0.10387666 0.10815704 0.1323848 -0.10975541 0.072547495
-0.09885464 -0.0392388 0.11516803 0.13749714 0.042748343 -0.13035062 -0.15085983 0.09024697
-0.05532461 -0.10885006 0.016717179 -0.06756649 -0.07503417 -0.07879279 0.02944809 0.1778059
0.121252775 0.14755446 -0.035113424 -0.12289977 -0.15605365 -0.057534598 -0.14050384 0.08738563
0.051266436 0.1213211 -0.039350607 -0.042497445 0.029845215 -0.090285115 0.027882118 0.15497345
-0.035150632 0.06972244 -0.10564239 -0.027506907 0.14106737 0.08997581 0.041503992 -0.096018866
-0.102413006 -0.023636993 -0.13705726 -0.070251875 0.054732177 0.12184033 0.12261288 -0.16222236
-0.12333896 -0.103029266 -0.14483584 0.03718922 -0.0899048 -0.111453615 0.064047225 0.11335351
0.057154085 -0.04506625 -0.09721504 -0.14000534 0.049325954 0.0893967 0.07050517 0.071316816
-0.121353924 -0.15236756 0.18025027 0.010170756 0.09220872 0.018514263 -0.074386045 -0.045770593
-0.15558268 0.04508666 0.07413455 0.10936739 0.14241184 0.0020788074 -0.009993586 0.09541174
-0.13553773 -0.027345527 0.033505764 0.07040482 0.101067856 0.07859959 0.052123096 0.01934311
-0.028503418 -0.11627215 0.09837263 0.11954957 0.010313422 -0.16268994 0.1255949 0.11608385
0.041962296 -0.08177351 0.013052412 -0.025423666 -0.033583503 -0.112702526 0.11007456 0.14102927
0.13068357 0.09005901 0.014015998 0.0038446041 0.048612077 -0.10899906 -0.09215366 -0.022805499
-0.06741033 0.007942475 0.0061872564 0.09889798 -0.03902566 0.04973118 -0.019168772 0.05114089
-0.118747234 0.0021457975 -0.08940123 -0.003750676 -0.0125693325 -0.13986997 0.10172014 -0.03612349
0.06909042 -0.08652466 0.104567535 -0.09841785 0.1388211 -0.027511513 0.111690834 0.11290104
0.062991776 0.0303705 0.023331286 0.13909963 -0.075163335 -0.058425285 -0.058861386 -0.058525596
0.020289378 0.09990277 0.07745464 -0.02771427 0.006476475 0.061399654 0.08637658 0.11725383
-0.055688 -0.099657565 -0.024034856 0.08518389 0.032351285 0.14724697 -0.1423578 0.0552574
-0.14008804 0.02522953 0.042566594 0.048190136 -0.03402479 0.13362549 -0.02528713 0.14286083
-0.11328819 0.072852775 -0.09049387 0.029511506 -0.057657562 0.0124555575 -0.13408174 0.0525161
-0.057024937 0.15146007 0.09598496 0.08495236 -0.05454446 -0.011624992 -0.11970352 -0.08312538
00000000: d992 9bbd 5361 bf3d 9a9d a43b 0a85 1fbd
00000010: 61cc d4bd 3ed1 eb3d 6ea5 86bd 3fbc 22be
00000020: 727f ef3c ce62 d6bd 7dcd 263e 7597 0ebd
00000030: 2b6b 093e c4c9 213e 5057 22bd 5db2 d7bd
00000040: 8401 11be 45ac f2bb 2155 ed3c cecf 24be
00000050: 33e4 0d3e 6672 2bbb 558e 183d f1b4 1b3c
00000060: 0ab7 1bbe ee90 04be 2086 8abc 14c4 933d
00000070: 1678 353d 6a5e e9bc ef6f 343d e36d 733d
00000080: bd74 95bc 4bb8 0b3e 1ab0 87bc 13fd b33d
00000090: c87c 7f3d 1405 4abd 242b b63d 6bb1 75bc
000000a0: 4610 bbbd 7090 b0bd a00b 443b 983c 06be
000000b0: b1f2 e5bb 0a4f b4bd 285c 5fbd b1c3 e0bd
000000c0: 4f70 e23d 2261 1cbe d591 873d 5330 0abe
000000d0: fbf6 e13d 13ff 8b3d e2cc bf3d 6a7d 723c
000000e0: a001 e43d 30eb 07be 0f3d 013e 22dc 193e
000000f0: 509b 903d 248f 80bc 4b04 53bd eaa6 e13c
00000100: 5b27 063d b5c6 28be 8c6f 323e 49bd d4bd
00000110: 7081 dd3d e28f 073e 72c7 e0bd c893 943d
00000120: 4d74 cabd ddb8 20bd 37dd eb3d 0dcc 0c3e
00000130: e318 2f3d a27a 05be 007b 1abe 67d3 b83d
00000140: 0f9c 62bd c8ec debd 77f2 883c 4d60 8abd
00000150: 84ab 99bd 1d5e a1bd 1f3d f13c c012 363e
00000160: 6053 f83d 8418 173e 18d3 0fbd e0b2 fbbd
00000170: 87cc 1fbe 66a9 6bbd 3de0 0fbe 3df7 b23d
00000180: c1fc 513d 3277 f83d 1a2e 21bd cd11 2ebd
00000190: f47d f43c 67e7 b8bd 0a69 e43c 5cb1 1e3e
000001a0: 1cfa 0fbd a3ca 8e3d 0a5b d8bd 2a56 e1bc
000001b0: f773 103e 3d45 b83d 1700 2a3d 8aa5 c4bd
000001c0: e9bd d1bd 5ea2 c1bc bd58 0cbe 37e0 8fbd
000001d0: d92e 603d 6c87 f93d 761c fb3d 9e1d 26be
000001e0: 2399 fcbd 0201 d3bd d94f 14be b953 183d
000001f0: 0220 b8bd cb41 e4bd 312b 833d e325 e83d
00000200: 671a 6a3d 6397 38bd ae18 c7bd 8f5d 0fbe
00000210: 030a 4a3d 9e15 b73d 0465 903d 8d0e 923d
00000220: 6888 f8bd 3e06 1cbe 8793 383e 3ea3 263c
00000230: edd7 bc3d 39ab 973c b657 98bd f279 3bbd
00000240: 1151 1fbe caac 383d dbd3 973d 03fc df3d
00000250: 69d4 113e 9a3c 083b 23bc 23bc 3b67 c33d
00000260: 67ca 0abe ba03 e0bc 573d 093d 6730 903d
00000270: aafc ce3d d2f8 a03d 077f 553d 7175 9e3c
00000280: 0080 e9bc 1820 eebd 9777 c93d 68d6 f43d
00000290: a1f9 283c 3198 26be f39b 003e 5fbd ed3d
000002a0: a8e0 2b3d df78 a7bd c9d9 553c 4b45 d0bc
000002b0: db8e 09bd 95d0 e6bd c56e e13d fa69 103e
000002c0: ead1 053e dc70 b83d 5ba3 653c c1f5 7b3b
000002d0: 751d 473d e63a dfbd 0fbb bcbd 99d2 babc
000002e0: 6d0e 8abd 2821 023c 78be ca3b 068b ca3d
000002f0: 5fd9 1fbd ecb2 4b3d d407 9dbc 1c79 513d
00000300: c031 f3bd 82a0 0c3b fe17 b7bd e7cd 75bb
00000310: 9aef 4dbc 133a 0fbe a652 d03d 3af6 13bd
00000320: 477f 8d3d d733 b1bd 8127 d63d 4c8f c9bd
00000330: 1e27 0e3e d35f e1bc 2abe e43d a938 e73d
00000340: d501 813d 8ecb f83c 4121 bf3c 2270 0e3e
00000350: 3cef 99bd 5a4f 6fbd a318 71bd 89b8 6fbd
00000360: e935 a63c d399 cc3d 8aa0 9e3d 0909 e3bc
00000370: 9c38 d43b 347e 7b3d 34e6 b03d c722 f03d
00000380: 1a19 64bd 4419 ccbd bfe4 c4bc e474 ae3d
00000390: c882 043d e9c7 163e 3ec6 11be 9555 623d
000003a0: 3d73 0fbe 29ae ce3c 4f5a 2e3d 0563 453d
000003b0: 945d 0bbd 1fd5 083e f526 cfbc 1c4a 123e
000003c0: a303 e8bd d633 953d da54 b9bd 1dc2 f13c
000003d0: 562a 6cbd 6512 4c3c b94c 09be 1f1b 573d
000003e0: fb92 69bd 5918 1b3e c393 c43d 81fb ad3d
000003f0: 036a 5fbd c076 3ebc 1e27 f5bd a43d aabd

onnx::LSTM_116 f4 [1, 1024]
0.0357371 0.03037797 -0.0077153267 -0.0018290179 -0.0041299034 0.02078109 0.00096761045 0.017395474
0.017016439 0.0118608875 0.015911955 0.030794675 0.024640027 0.033825614 0.008605937 0.023905715
0.019436637 0.016906831 0.027124904 0.031601362 -0.005986663 -0.004628303 0.0033921986 0.014866065
0.019256141 0.018150603 0.024041599 0.015159427 0.032502107 0.018057039 0.0040737195 0.04696478
0.016047193 0.03462255 0.0016086269 0.029971238 0.0019975335 0.03423808 0.034140013 0.028895084
0.013500648 -0.0016965398 0.0072385627 0.03495247 0.020998452 0.025033912 -0.029729962 0.009233211
0.03589238 0.041646414 -0.015597238 0.022981776 -0.0073351846 0.02938519 0.018807469 -0.0048316396
0.0076689576 0.012040308 0.015858466 0.019076193 0.005226944 0.0027258757 0.018632097 0.013546641
0.0038003915 0.03620067 0.019065619 0.034685306 0.015029512 0.015287101 0.01931884 0.010106723
0.03929778 0.038125496 0.002268442 -0.0038440123 0.0045238887 0.020526849 0.019465175 0.012833411
0.029481977 0.036976058 0.016622147 0.012989788 -0.022789577 0.024517756 0.021695111 0.04841514
0.0028829195 0.04133306 0.019206835 -0.0015147872 0.03042155 0.028433941 0.0070346617 -0.0075286804
0.015811455 0.017970396 0.03415994 0.03498552 0.029262695 0.019546878 0.009615877 -0.009359724
0.011103196 0.03773297 0.027464338 0.028889062 0.0035840445 -0.005584339 0.029773317 0.03541395
0.01988701 0.03309864 0.00040430122 0.03874103 0.0392027 0.013135571 0.027639901 0.0167715
0.02180606 0.0053190114 -0.010763505 0.029348195 0.022112692 0.012699905 0.01902883 0.0070388764
0.022513386 0.01687595 0.012183485 0.007983745 0.018673567 -0.00090002036 0.019938724 0.014040476
0.015179769 0.02298637 0.018239511 0.01825684 0.016347388 0.02425289 -0.0070568095 0.016500331
0.004069738 0.022082234 0.029409105 0.0066735097 0.01824117 -0.004333717 0.010433159 0.0051521123
0.033779677 0.019848088 0.016881501 0.028735366 0.014357679 0.021906901 0.029543323 0.019591248
0.022473076 0.016733788 0.019460691 0.02467543 0.008359545 0.020866908 0.023827229 0.0117079485
0.011694963 0.013599203 0.0016374746 0.005780806 0.022022992 0.028686024 0.021797987 0.0024596849
0.019781658 0.025897505 0.0016568134 0.019321058 0.014972826 0.02062518 0.020844497 0.016036779
0.0119457 0.016676039 0.022797095 0.005584649 0.0038111438 0.018949496 0.020880727 0.02528538
0.015273009 0.022004912 0.02729628 0.020042734 0.010348873 0.017716575 0.029498743 0.0031197376
0.018725574 0.0141104255 0.017240666 0.014262857 0.015587213 0.024575077 0.027578421 0.0206376
0.027474018 0.009191696 0.026167339 0.013946433 0.014186364 0.026114684 0.01838187 0.025733683
0.021821488 0.025122639 0.012036823 -0.0016321543 0.021274611 0.017579677 0.001753544 0.017805994
0.026488239 0.019925276 0.01644574 0.02107966 0.018587522 0.016923646 0.016564718 -0.011750189
0.025044521 0.020996986 0.02654699 -0.004419968 0.013649803 0.027652007 0.020400764 0.016616005
0.015151152 0.022035478 0.0068026497 0.02300563 0.018712334 0.002608362 0.021437064 0.013334347
0.012594006 -0.0010532631 0.028831929 0.025982754 -0.00015508548 0.023363667 0.00930856 0.012334408
00000000: 1161 123d 38db f83c dad0 fcbb a8bb efba
00000010: 2454 87bb 1b3d aa3c 3da7 7d3a f480 8e3c
00000020: 0f66 8b3c 2b54 423c ca59 823c 1d45 fc3c
00000030: e2d9 c93c ba8c 0a3d eaff 0c3c ebd5 c33c
00000040: 9539 9f3c 3280 8a3c 0c35 de3c 6e70 013d
00000050: c52b c4bb 05a9 97bb a64f 5e3b cc90 733c
00000060: 0ebf 9d3c 93b0 943c e3f2 c43c 3f5f 783c
00000070: ee20 053d 5bec 933c d67c 853b 245e 403d
00000080: 6775 833c 60d0 0d3d 90d8 d23a 3e86 f53c
00000090: 0de9 023b 3b3d 0c3d 66d6 0b3d 62b5 ec3c
000000a0: d231 5d3c 6e5e deba 7731 ed3b 522a 0f3d
000000b0: f204 ac3c eb13 cd3c 408c f3bc e546 173c
000000c0: e303 133d 6e95 2a3d 8f8b 7fbc 4744 bc3c
000000d0: fd5b f0bb 36b9 f03c 1f12 9a3c bb52 9ebb
000000e0: e14b fb3b b644 453c 9de9 813c ad45 9c3c
000000f0: c946 ab3b 9ba4 323b 57a2 983c bbf2 5d3c
00000100: fd0f 793b 2747 143d 802f 9c3c 2e12 0e3d
00000110: 583e 763c c076 7a3c 8b42 9e3c ab96 253c
00000120: b5f6 203d 7b29 1c3d 24aa 143b d3eb 7bbb
00000130: 213d 943b ec27 a83c 6e75 9f3c 3a43 523c
00000140: 3084 f13c 3574 173d 2b2b 883c 1fd3 543c
00000150: 35b1 babc 76d9 c83c f2b9 b13c f44e 463d
00000160: 5def 3c3b db4c 293d a757 9d3c d38b c6ba
00000170: 9d36 f93c 4cee e83c 0583 e63b 26b3 f6bb
00000180: 0687 813c a736 933c 4beb 0b3d fa4c 0f3d
00000190: 52b8 ef3c c620 a03c e98b 1d3c 8759 19bc
000001a0: 2eea 353c e38d 1a3d e4fc e03c c1a8 ec3c
000001b0: 4ae2 6a3b d5fc b6bb 2ce7 f33c 380e 113d
000001c0: 15ea a23c 7192 073d 64f8 d339 eaae 1e3d
000001d0: 0393 203d 9436 573c 136d e23c 6364 893c
000001e0: 9fa2 b23c 1a4b ae3b 6959 30bc a06b f03c
000001f0: ad25 b53c 4313 503c 59e2 9b3c 60a6 e63b
00000200: fe6d b83c 6f3f 8a3c 3d9d 473c 41ce 023c
00000210: 4ff9 983c 58ef 6bba 8956 a33c 060a 663c
00000220: 91b4 783c e94d bc3c 076b 953c 5e8f 953c
00000230: f5ea 853c ffad c63c cf3c e7bb b42b 873c
00000240: 705b 853b cde5 b43c 5deb f03c 75ad da3b
00000250: 826e 953c da01 8ebb d7ef 2a3c 0dd3 a83b
00000260: 8f5c 0a3d 7598 a23c 134b 8a3c 6e66 eb3c
00000270: 783c 6b3c 1a76 b33c d704 f23c d37d a03c
00000280: 7519 b83c 4c15 893c 076c 9f3c 2124 ca3c
00000290: 79f6 083c 14f1 aa3c 5231 c33c b2d2 3f3c
000002a0: 3b9c 3f3c 31cf 5e3c 88a0 d63a ea6c bd3b
000002b0: 9069 b43c f4fe ea3c b191 b23c aa32 213b
000002c0: 250d a23c 0127 d43c 6f29 d93a 3247 9e3c
000002d0: 9550 753c 23f6 a83c 14c2 aa3c 905f 833c
000002e0: e6b7 433c 309c 883c f9c0 ba3c 6eff b63b
000002f0: 62c4 793b f93b 9b3c 0f0e ab3c 4923 cf3c
00000300: a53b 7a3c a543 b43c 739c df3c a930 a43c
00000310: 528e 293c 5a22 913c 59a7 f13c 8374 4c3b
00000320: 6066 993c 6a2f 673c 4c3c 8d3c c2ae 693c
00000330: 8361 7f3c ac51 c93c 24ec e13c 2f10 a93c
00000340: 3111 e13c c498 163c e35c d63c 947f 643c
00000350: ec6d 683c 76ee d53c 9395 963c 72cf d23c
00000360: fac2 b23c fecd cd3c 1836 453c 03ee d5ba
00000370: 1848 ae3c 4103 903c 2cd7 e53a e0dd 913c
00000380: ddfd d83c 553a a33c 37b9 863c 40af ac3c
00000390: dc44 983c 75a3 8a3c bbb2 873c dd83 40bc
000003a0: 2b2a cd3c df01 ac3c 1379 d93c 61d5 90bb
000003b0: 6ca3 5f3c 7686 e23c 811f a73c 4a1e 883c
000003c0: 8a3c 783c bf83 b43c c3e8 de3b 4e76 bc3c
000003d0: 9c4a 993c 0df1 2a3b c89c af3c 4e78 5a3c
000003e0: 1757 4e3c a50d 8aba f030 ec3c c9d9 d43c
000003f0: 719e 22b9 2965 bf3c ee82 183c 4216 4a3c
