Machine-Learning-DRL/Assets/NN/Seeker.onnx (onnx, 644542 bytes, 15 tensors)

discrete_act_size_vector f4 [1, 2]
000000 00 00 a0 40 00 00 80 3f
       5.0 1.0

network_body.observation_encoder.processors.0.normalizer.running_mean f4 [44]
000000 ad b8 ce 3e b5 fe 1a 3e c7 c3 e3 3e 73 cb 1b 3f
       0.4037527 0.15136226 0.44485304 0.60857314
000010 37 66 bf 3e 2e fe 46 3e 68 13 dd 3e 8c 76 17 3f
       0.3738267 0.194329 0.43178868 0.59165263
000020 d8 c1 b9 3e 30 dc 74 3e 94 c9 cb 3e cd 7e 12 3f
       0.36280704 0.2391212 0.3980223 0.5722473
000030 2c de bf 3e ce dc 38 3e bd af e3 3e 9b 5b 1a 3f
       0.3747419 0.1805298 0.44470015 0.6029603
000040 01 a7 ba 3e 89 49 62 3e 98 2f d4 3e 96 04 14 3f
       0.3645554 0.22098364 0.4144256 0.578195
000050 ff 29 ca 3e 2b 85 43 3e 70 0c d4 3e 60 5d 1b 3f
       0.39485165 0.19093768 0.4141574 0.60689354
000060 95 c9 a8 3e 67 05 4a 3e a6 31 f2 3e 12 0f 1d 3f
       0.32966295 0.19728623 0.47303504 0.6135112
000070 84 4b ff 3e 94 02 4f 3e 0c 2d 99 3e 24 ff 13 3f
       0.498623 0.20215827 0.2991718 0.5781119
000080 71 4f ea 3e 5c 50 3e 3e 43 87 b6 3e c1 48 18 3f
       0.45763734 0.18585342 0.35650072 0.59486014
000090 0c 75 00 3f 89 bd 61 3e c7 ee 8d 3e c9 97 10 3f
       0.501786 0.22044958 0.27721235 0.56481606
0000a0 f9 d8 15 3f 08 3c 23 3e 5a ae 82 3e 9d 04 0f 3f
       0.585342 0.15940869 0.25523645 0.55866414

network_body.observation_encoder.processors.1.normalizer.running_mean f4 [24]
000000 33 a8 a0 40 82 69 f2 3e 94 e9 ba 3f 0d 6d 67 3f
       5.020532 0.4734612 1.4602532 0.90400773
000010 12 7e f2 3e 08 5c 2d 3f 92 2d 7d b0 e7 6b b7 b1
       0.4736181 0.67718554 -9.2105623e-10 -5.338268e-09
000020 8f 7d a5 40 b7 d5 fb 3e 28 8c cc 3f 62 4e 82 3f
       5.171577 0.4918649 1.5980272 1.018017
000030 bb ec fb 3e 6e 29 4a 3f 6c e2 7b b0 84 4a b4 b1
       0.4920405 0.78969467 -9.1635033e-10 -5.247161e-09
000040 06 2e aa 40 15 9c 02 3f 4d ac dd 3f ce e1 91 3f
       5.318118 0.5101941 1.7318207 1.1397035
000050 b8 ae 02 3f da e5 68 3f f5 57 7a b0 d2 47 b1 b1
       0.5104785 0.90975726 -9.1074465e-10 -5.159543e-09

network_body._body_endoder.seq_layers.0.weight f4 [128, 68]
000000 41 17 57 bd a5 d3 e4 bd f2 8f df 3d c4 9d 0d bd
       -0.05251241 -0.111731805 0.10916127 -0.034574285
000010 52 ee 82 be 9b 1e 11 3e bf ea a4 3d fd 87 0a bb
       -0.2557245 0.14171831 0.08052587 -0.0021138184
000020 f1 d0 13 3d db 4e fa 3d c1 a7 1e be b0 94 90 bd
       0.036087934 0.12222072 -0.1549368 -0.0705961
000030 32 a8 de bc 01 87 bd bc 96 38 ac 3d 70 21 06 be
       -0.027179811 -0.023135664 0.084092304 -0.13098693
000040 01 f0 4b 3e b1 2b 05 be 14 86 8c 3b 8d 09 c2 bc
       0.19915773 -0.13004948 0.0042884443 -0.023686195
000050 32 5b 5d be 12 55 10 3d fb 59 c8 3a 3d 46 34 3c
       -0.2161682 0.03523738 0.0015285605 0.011003074
000060 6e c6 cb bd 4c 86 65 3d e4 35 6e be d2 48 60 bc
       -0.09949957 0.05603628 -0.23262745 -0.013689237
000070 15 ad c9 3d a6 5e a1 bd 8e 26 8c bb 2f 88 5f 3e
       0.09847466 -0.07879381 -0.004277057 0.21829294
000080 a3 ca 2a be f9 0a 13 be 9d b9 dc 3d 80 a3 2c 3e
       -0.16678862 -0.14359654 0.107775904 0.16859245
000090 a9 7b cf 3c b1 90 52 be 55 2d 4f 3d 34 e4 16 bd
       0.02532752 -0.20563008 0.05058034 -0.036838725
0000a0 1e 6b be 3d d7 23 fd bd 8b 7e 18 be 86 35 c0 bd
       0.09297775 -0.123603515 -0.14892022 -0.09385209
0000b0 86 b5 59 3e 09 fb e3 bc 6e 3e da bd 6e 17 6e be
       0.21260652 -0.027829664 -0.10656439 -0.23251125
0000c0 43 4b 3e 3e b2 84 8c 3d 5b e3 50 3d f1 96 d7 bc
       0.18583398 0.06861247 0.050998073 -0.026317092
0000d0 8b 8d 94 3d cd 5d 47 be 32 f3 a7 bc 9c e3 65 be
       0.0725356 -0.19469376 -0.020501707 -0.22450107
0000e0 88 a4 1a be 04 89 89 3d 51 85 42 3c 72 57 dc 3d
       -0.15101826 0.06715587 0.011872605 0.10758866
0000f0 1d 3c 9e bd e4 59 84 3d 0e ac b5 3d e5 7b 57 be
       -0.077263094 0.06462458 0.088707075 -0.21043356
000100 22 c5 9c bc 51 0a 6a 3e 26 30 80 bd 28 7d 10 be
       -0.019136969 0.22855498 -0.062591836 -0.14110243
000110 8d 51 e3 bd 1a 04 2b 3d 02 fd 80 bd 9c 6b 84 3d
       -0.11099539 0.04175196 -0.062982574 0.06465837
000120 61 3c 3c be 17 3d d1 3d c9 df 4c 3d e3 fb 49 3e
       -0.18382408 0.1021673 0.050018106 0.19724993
000130 81 06 da bc c3 79 a3 3d 63 95 8c bd da c6 a5 3d
       -0.02661443 0.079822086 -0.06864431 0.080945686
000140 21 0d 44 3e 5a 67 79 3e 38 e9 b0 bc 33 d2 b6 be
       0.19145633 0.24355832 -0.021595582 -0.35707244
000150 d9 6f b2 3d c3 bd e0 3d 26 fb 0e 3d 98 d7 e6 3d
       0.087127395 0.10973694 0.034907483 0.1127159
000160 39 f4 af bd bf da a0 bc e5 c9 79 bd a8 c5 86 bd
       -0.08591504 -0.019635556 -0.060983557 -0.06580669
000170 ab 26 1e be 34 e7 11 3e ef 48 a0 3e a6 b1 5f bd
       -0.15444438 0.14248353 0.31305644 -0.054612778
000180 41 af 8d 3d 1a e9 33 3d 53 1e 2f 3c 20 d6 68 3e
       0.06918193 0.043923475 0.010688382 0.22737932
000190 df b4 5a bd 54 9c 27 be 82 78 14 3e 56 88 58 3d
       -0.05339515 -0.16368228 0.14499095 0.052864395
0001a0 9c 7a 48 be 78 99 f1 ba 62 60 6b 3d ee 11 82 bd
       -0.19578022 -0.0018432578 0.057464965 -0.06351076
0001b0 53 2d c3 bc 80 1a b6 bd 7c 2c 84 3d 82 a7 2b be
       -0.023825323 -0.08891773 0.06453797 -0.16763118
0001c0 dc 2e 0e be e6 4b 85 3d de de 0a be 85 84 c4 bc
       -0.13885063 0.06508617 -0.1356158 -0.023988971
0001d0 c4 85 82 3a 00 af 37 3d 7b e8 f0 3d 23 66 32 be
       0.0009958078 0.044844627 0.11763092 -0.17421775
0001e0 31 07 4b bc 1b 6a c5 3e 50 4c 08 3b 8d 75 71 3c
       -0.012391851 0.38557515 0.002079744 0.014737499
0001f0 2c e8 e0 bd 7b 8e 9c 3e a9 21 b4 bd 95 4c f1 bc
       -0.10981783 0.30577454 -0.08795483 -0.029455462
000200 7c d8 de bc 59 26 7e bc 8a fc 7b be 65 28 57 3d
       -0.027202837 -0.0155120725 -0.24608055 0.052528758
000210 53 f5 a8 bd 44 71 45 3e e3 9f 2a 3c 48 89 36 3e
       -0.08249917 0.19281489 0.0104140965 0.17825806
000220 54 90 d0 3d 33 40 fb 3d 9d 2a 09 bd c1 3a 21 3d
       0.101837784 0.122681044 -0.033487905 0.039362673
000230 b6 c3 0f be a6 d1 29 3e 7c 3a f4 bd 05 ff 27 3d
       -0.14039502 0.16583881 -0.119252175 0.04101469
000240 17 91 36 bd de 93 4c 3e 13 4d 39 3e e0 86 72 3d
       -0.044571962 0.19978282 0.18095808 0.059210658
000250 89 37 22 be f9 08 e3 3d 20 cd 8c bd 9c a8 60 bd
       -0.15841497 0.11085696 -0.06875062 -0.0548483
000260 ca ce 14 3d 41 3b 75 3e 5e 6d f1 bd 08 b3 74 3d
       0.036330022 0.23948385 -0.11788438 0.05974105
000270 e5 55 f3 bd c9 6f a0 3d ef b2 dc 3d b7 6c 9b 3d
       -0.118816175 0.07833821 0.107763164 0.07589095
000280 d3 fa 47 be 53 a9 9a bd fe b2 46 3d 93 89 27 bd
       -0.19529276 -0.07551827 0.048510544 -0.040902685
000290 e4 29 62 bd 69 5e 7a 3d 80 93 00 be d5 a3 d0 3d
       -0.05521573 0.061125193 -0.12556267 0.101874985
0002a0 48 e8 47 3e 41 13 4d 3d a3 1a 6b bd 3c 38 1e 3d
       0.19522202 0.05006719 -0.05739845 0.038627848
0002b0 0a d8 ba bd 6c 32 a2 bc 52 cb 8f bd 70 bb a5 bc
       -0.091232374 -0.019799434 -0.07021202 -0.020230979
0002c0 e9 70 18 be d1 fc 9b bd 36 08 d6 3c 8f 7d e6 3d
       -0.14886822 -0.0761658 0.026126962 0.11254417
0002d0 1c 66 5a 3e a6 1b ea bd 33 ee 0d be ed 7c 9c 3e
       0.21328014 -0.11431055 -0.13860397 0.3056406
0002e0 f7 82 b0 bd 89 c2 e0 3d 4b 36 ba bd bd 4b f7 bd
       -0.086187296 0.10974605 -0.09092387 -0.12074993
0002f0 1d fb 83 be ec 95 e3 3d 0f ca e9 bd 5b f4 6c 3e
       -0.25777522 0.1111258 -0.11415493 0.23140089
000300 63 b3 f4 bd 14 92 c3 bd eb 95 04 be f1 c8 6a bc
       -0.11948278 -0.095493466 -0.12947814 -0.014330135
000310 56 bb 1f be 3b d7 db bd 11 2a 62 3c e0 3e ad 3e
       -0.15598807 -0.10734411 0.013803975 0.33837032
000320 38 bc bc bd 47 ae 94 3d b7 cb 70 3d 8f 55 68 3d
       -0.092155874 0.07259803 0.058788028 0.05672222
000330 e4 d7 01 3e 1a ff 7b be 88 6c 57 be 60 92 21 be
       0.12680012 -0.24609032 -0.21037495 -0.15778494
000340 e6 f7 d1 3d f4 f0 75 be 40 7c 4c be 6b d7 38 bd
       0.10252361 -0.24017698 -0.19969273 -0.045127314
000350 d8 46 72 3e 94 7d 2e be 2c 59 53 be c9 66 c9 bb
       0.23659837 -0.17040092 -0.20639485 -0.006146286
000360 bf 84 86 3e b0 27 01 be 2d af b3 3e 55 fc ca 3c
       0.26273152 -0.12612796 0.35094586 0.024778524
000370 fa cb 75 3d 63 88 2d bd e7 52 ef bd 35 a3 0c be
       0.06000898 -0.042366397 -0.11685734 -0.13734134
000380 58 4f ba bd 85 5f 78 be 8b 4e 67 bb b4 84 a0 3d
       -0.09097165 -0.24255188 -0.0035294618 0.07837811
000390 30 21 27 3e 75 0f f1 bd aa 5b 62 3d 77 cb 47 3d
       0.16321254 -0.11770526 0.0552632 0.048778024
0003a0 03 34 8f bc fa 9c c4 be ee 38 92 bd 8d 47 81 bd
       -0.017480856 -0.38401014 -0.07139765 -0.06312475
0003b0 9b 64 ed 3d f9 e1 b8 bc 3e b1 2c bd c3 03 84 3d
       0.115914546 -0.02256869 -0.04216122 0.0644603
0003c0 5d 1a 58 3d 95 6e 15 be 54 1c 9b 3d 87 d3 71 3d
       0.052759517 -0.14592965 0.075737625 0.05903962
0003d0 fc ab f6 3c 66 f3 2d be 59 e5 89 3d 95 22 7d bd
       0.030111305 -0.1698738 0.06733198 -0.061800558
0003e0 d4 f9 48 3e 25 b8 4c be b1 74 37 bd 6f b1 f4 3b
       0.19626552 -0.1999212 -0.04478902 0.007467441
0003f0 0f 7d cc bd f7 6e f3 bd 07 3c 24 bd c2 f0 66 bc
       -0.099847905 -0.11886399 -0.04009631 -0.014095487

network_body._body_endoder.seq_layers.0.bias f4 [128]
000000 85 35 fe 3c 72 f0 17 3d 26 7c 3a 3d f6 5e 9e 3c
       0.03103138 0.03709454 0.045528553 0.01933239
000010 d5 a3 27 3d 09 71 23 3c cd 01 2b 3d df 46 9a 3c
       0.040927727 0.00997568 0.041749764 0.018832622
000020 79 6a 2b 3d 64 8f b2 3a 5c 88 f0 3c d4 89 14 3d
       0.041849587 0.0013623056 0.029361896 0.036264256
000030 17 30 b8 3c 7b f5 89 3c db 69 8a 3c 28 35 e3 3c
       0.022483869 0.016840687 0.016896179 0.027735308
000040 c2 e7 6b 3b cb bf 14 3d 08 a3 3a 3c 10 c4 33 3c
       0.0035996293 0.03631572 0.011391409 0.010972038
000050 e9 61 8f 3c 73 62 8c 3c 6d 0f 73 3c 99 03 06 bb
       0.017502742 0.017136788 0.014835221 -0.0020448922
000060 b6 a5 49 3d 40 6a 5b 3d da 85 25 3d bd a2 14 3d
       0.0492303 0.053568125 0.040410854 0.03628801
000070 57 18 ce 3c 46 ba 6f bb c8 2e 2b 3d 88 ae 67 3c
       0.02515809 -0.0036579533 0.04179266 0.014140733
000080 2e ab 43 3d b0 55 4a 3d cf 0c 62 3d ca e1 01 3d
       0.04777067 0.049398124 0.055187996 0.03170947
000090 a4 01 99 3c 80 35 a8 3c e6 d4 45 3d a4 68 9a 3c
       0.01867754 0.020533323 0.04829874 0.018848725
0000a0 bd fc 78 3c ab 7e 23 3d 8e 96 9d 3c 20 3d 01 3d
       0.015196976 0.039915722 0.01923683 0.031552434
0000b0 5c df a8 bc 60 7d 6c bb d4 2e df bc 40 d4 52 3d
       -0.020614319 -0.0036085472 -0.02724401 0.05147195
0000c0 04 f8 1a 3d f9 84 e5 3c 09 18 6c 3d 4d 99 32 3d
       0.037834182 0.028017508 0.05764011 0.04360323
0000d0 37 95 ac 3b 4a 8a e2 3c da 0f b4 3d 84 d7 17 3d
       0.0052668112 0.027653832 0.08792086 0.037070766
0000e0 62 45 25 3d dc ce 11 bc a5 25 1b 3d 8b 40 4f 3c
       0.04034937 -0.008899417 0.037877697 0.012649666
0000f0 5a 12 f2 3c 01 d8 15 3d 9d 52 44 3b ce 81 18 3d
       0.029549766 0.03658295 0.0029956468 0.037233166
000100 28 40 95 bc 91 d3 31 3c cf 40 0e 3d 4b 1c 41 3d
       -0.018219069 0.010853664 0.034729775 0.047146123
000110 ac cd 33 3c b5 ed ac 3c a9 1b 01 3d 55 09 94 3c
       0.010974329 0.021109441 0.03152052 0.018070856
000120 50 a5 81 3c a1 8a b5 3b 4b 9e 95 3d d8 42 27 3d
       0.015825897 0.0055402075 0.073055826 0.04083523
000130 83 b2 bb bc d0 0f 28 3d c9 42 e1 3b ae 14 3b 3d
       -0.02291227 0.041030705 0.0068744165 0.04567402
000140 dd 5a 44 3d 42 1a 61 3c 2c bd 2b bc 5d 58 cf 3b
       0.047938216 0.0137391705 -0.010482114 0.0063276724
000150 ce 0c 33 3d e3 4b a0 bc 3e 3b 5d 3d 8f c2 95 3b
       0.043713383 -0.019567436 0.054011576 0.0045703123
000160 ab ab d6 bc 28 5b 08 3d 35 64 96 3c 76 47 ed 3c
       -0.026204905 0.03329006 0.01835833 0.02896474
000170 21 81 ae 3c 6d a8 6f 3c 96 83 1a 3d e5 42 03 3c
       0.021301808 0.014627558 0.037723146 0.008011554
000180 b8 74 f1 3c 93 42 56 3d 0e 4f b0 3d 0e f9 73 3c
       0.029474601 0.052309584 0.086088285 0.014890922
000190 a2 25 14 3d 4f 9b 33 3d 95 d9 3e bc 93 4b 2f 3d
       0.036168702 0.043849286 -0.011648555 0.042796683
0001a0 80 93 c7 bc 57 b1 6b 3b bd ed ef 3b 85 7a 9d 3c
       -0.024362326 0.0035963857 0.007322042 0.01922346
0001b0 90 b0 46 3d b6 04 58 3b fa c2 19 3d a0 35 32 3d
       0.048508227 0.0032961792 0.03753946 0.043508172
0001c0 9e 7b 70 3c 6c 54 81 3c 06 f9 5f 3d 70 a8 0a 3c
       0.01467791 0.015787326 0.054680847 0.00846301
0001d0 92 4a 0d 3d 01 6f f9 bb 37 9f 28 3d c3 03 5e 3d
       0.034494944 -0.0076121096 0.041167464 0.054202806
0001e0 4c 3d 06 3d 0e db f9 3c 44 d3 28 3d ad ce 52 3d
       0.0327733 0.030499961 0.041217104 0.051466633
0001f0 3e 73 3a 3d 87 2b bb bc 26 cd ce 3b ee a3 f2 3c
       0.04552006 -0.022847904 0.0063110767 0.029619183

network_body._body_endoder.seq_layers.2.weight f4 [128, 128]
000000 7f 44 95 3d fb 64 80 bb b9 0c 91 bb 17 3d 03 3e
       0.07288455 -0.003918288 -0.0044265655 0.12816273
000010 61 74 b6 bb 4a 0f 84 3d 86 98 8e 3d ef 79 6b bd
       -0.0055680727 0.06448229 0.06962685 -0.05748933
000020 67 d7 50 bd 68 43 d8 3d c7 90 32 bd db 40 00 3e
       -0.050986674 0.10559732 -0.0435951 0.1252474
000030 c6 b3 4b be 77 56 ca bd 05 f1 8f 3d b1 94 c2 bd
       -0.19892797 -0.09879773 0.07028393 -0.09501017
000040 86 cb 0a be 29 94 39 3d 77 a9 e2 3d e6 ff 7c bd
       -0.135542 0.045307312 0.11067479 -0.06176748
000050 01 bc 90 3d d4 f7 80 3d e5 96 2a bd bf dc ac bd
       0.07067109 0.062972695 -0.04164781 -0.084405415
000060 96 de a8 3c 18 9f 6d 3c a7 f5 9c bd b6 05 cc bd
       0.02061395 0.014503263 -0.07664042 -0.09962027
000070 96 88 15 be 60 16 99 3d a8 96 16 bd 6a 82 e2 bc
       -0.14602885 0.07474971 -0.03676477 -0.027650077
000080 dd 94 1d be 11 cc fb bd d0 99 ea bd 3f af 01 3c
       -0.15388818 -0.12294782 -0.11455119 0.007915317
000090 cf d9 f8 3d d5 b5 9a bd 5d 02 f9 bd aa 64 16 3e
       0.12150919 -0.07554213 -0.12158654 0.14686838
0000a0 b0 65 b4 bd bb 27 66 bd 15 96 27 3e 78 16 8b 3d
       -0.08808458 -0.056190234 0.16365846 0.06791395
0000b0 1b 5a a2 3d e2 4e a2 bc 1e fb d7 bd e7 04 e3 3c
       0.079273425 -0.019813005 -0.10545944 0.027712299
0000c0 0a d1 f3 3c 99 64 21 3e 40 48 f1 3d 38 20 a1 bd
       0.029762764 0.15761031 0.11781359 -0.07867473
0000d0 91 94 d9 bd ab 92 20 3c 45 f0 72 3d 01 6e d3 3d
       -0.1062404 0.009800593 0.05931117 0.10323716
0000e0 9b ea 23 be fb 31 e3 3b e9 c3 89 bd d4 f4 26 3e
       -0.16007464 0.0069334484 -0.0672682 0.16304332
0000f0 ab a7 c6 bc 00 af 4d 3d 47 c0 44 3d be bb a9 bc
       -0.024249872 0.05021572 0.048034932 -0.020719405
000100 5a 8c e8 3d 4e 01 f6 3c 7e 75 01 3a 8b 88 bb 3d
       0.11354895 0.030029919 0.0004938467 0.09156903
000110 3b 87 c1 3c 35 0c 07 3e fb 90 07 be 95 05 5e 3e
       0.023624053 0.1318825 -0.132389 0.21681817
000120 b2 18 b4 3d 49 e0 2a be 94 21 32 bd e3 01 66 3d
       0.08793773 -0.1668712 -0.043489054 0.056154143
000130 19 09 aa 3c 67 c0 83 bd c8 e4 cf 3d 61 ef 04 3e
       0.020756291 -0.06433182 0.101510584 0.12981941
000140 59 85 63 3d b8 39 ff 3d 22 88 e1 3d e3 b6 17 be
       0.055547092 0.12462181 0.110122934 -0.1481586
000150 30 87 0e 3e af 3a 8c bd e7 f6 57 3e 8d 6f ad 3b
       0.13918757 -0.068471305 0.2109028 0.005292839
000160 f1 f1 23 3d c4 8a f3 bc 75 d6 8f bd e0 49 7b 3d
       0.040025655 -0.029729255 -0.07023326 0.06134975
000170 52 0e 12 bd 1e 77 cf bc ce b5 86 3d da 6e c8 bc
       -0.03565819 -0.025325354 0.06577645 -0.02446692
000180 7e 63 30 3e 26 12 d5 bc 39 a4 ba bd 76 bb c3 bd
       0.17225453 -0.02600963 -0.09113354 -0.0955724
000190 e4 c5 06 be f9 ec e9 bd cc 02 54 3d 60 91 0e bd
       -0.13161427 -0.11422152 0.05176048 -0.03480661
0001a0 d3 2d 93 3d 46 21 cb 3c 1f b6 b9 bd 2a 21 c2 bd
       0.07186475 0.02479614 -0.0906794 -0.09478982
0001b0 09 b3 8c 3d ff 26 cc bd c1 65 60 be 4c f0 96 3d
       0.06870086 -0.099683754 -0.21913816 0.07370052
0001c0 59 e9 14 3e 11 c8 05 be a8 dc 48 3d 8c d5 5c be
       0.1454214 -0.130646 0.04903856 -0.21565837
0001d0 dc fe 2b be 59 ec 50 be e1 1e 53 be 38 b3 28 3d
       -0.1679644 -0.2040266 -0.20617248 0.04118654
0001e0 aa 15 5c bc c6 22 1c 3c ee 18 00 be 3d fc 09 3e
       -0.0134328995 0.009529775 -0.1250951 0.13475128
0001f0 0b 32 14 bd 92 cf 02 be 07 a2 cf 3d 09 08 37 3e
       -0.036180537 -0.12774494 0.10138326 0.17874159
000200 1b de 95 3d 79 4b d0 bd d9 e5 94 bd 2c 47 25 bd
       0.07317754 -0.10170645 -0.072704025 -0.040351078
000210 1f 7a b8 bd c4 70 b5 bd 22 20 ff 3b 6c 20 f0 3d
       -0.09007668 -0.08859399 0.007785813 0.11724934
000220 2e ca d2 3c a8 8c 4e be 18 fc bc bb 4a 21 5c be
       0.025731172 -0.20170844 -0.0057673566 -0.21497074
000230 6a 50 0c 3b dc c4 ce 3d 4f e0 50 be bb c6 2d 3e
       0.0021410235 0.10096142 -0.20398067 0.16970341
000240 10 f5 8b be e9 91 dd 3d 23 2e 92 3e ab 0a e1 bc
       -0.27335405 0.10818846 0.28550825 -0.027470907
000250 64 0d d4 bd 92 df 76 3e c6 67 09 be 75 7f fb bc
       -0.103541166 0.24108723 -0.13418493 -0.030700425
000260 c0 de 52 3e 9f bf 79 bd ff 0b 0c bd df 15 10 3e
       0.20592785 -0.06097376 -0.034191128 0.14070843
000270 68 69 55 3b 95 7a d3 3d 77 b6 43 3c 6d a1 80 bd
       0.0032564048 0.10326115 0.0119453585 -0.062807895
000280 2e c8 f2 3d 6d 6e 48 be ab 35 0c 3e 6c 71 b1 bb
       0.118545875 -0.19573374 0.13692348 -0.0054151323
000290 e9 dc 1c bd fd 22 61 3d d5 91 27 3d b4 9b 46 be
       -0.038296614 0.054965008 0.04091056 -0.19395334
0002a0 f5 88 5a 3e d2 99 a9 bd a6 90 ff bc 3e b8 d5 bd
       0.21341307 -0.08281292 -0.031196903 -0.10435532
0002b0 cf fd 76 bd 17 09 1e bd 01 be 89 bd a9 36 67 3e
       -0.060300644 -0.038582888 -0.067256935 0.22579445
0002c0 fa 9b 05 be a2 d7 3b 3d 79 74 03 3e 47 5a e4 bd
       -0.13047782 0.04585994 0.128374 -0.111500315
0002d0 ff 5e 21 bd 5b 5a 25 be da 80 95 3d 74 f3 b4 bd
       -0.039397236 -0.16147749 0.07299967 -0.088354975
0002e0 5f 28 3a ba 7d 44 66 bd 19 9d 5e 3e 96 36 95 bd
       -0.00071013527 -0.05621766 0.21739615 -0.07285802
0002f0 c1 2a 83 3d 02 9a 89 bd ca 29 c0 3d 0e 48 d8 3d
       0.06404639 -0.06718828 0.09382971 0.10560618
000300 0c c7 b0 bb 04 d6 10 be 06 26 a4 3c d0 1f a1 3d
       -0.005394822 -0.1414414 0.020037662 0.07867396
000310 24 54 4a be 03 df 48 3d 73 9b b8 3c f1 21 ea bd
       -0.1975866 0.049040806 0.022535061 -0.11432255
000320 e8 b1 23 bd d9 bf 09 3e 01 2f 0d be 31 da ed 3a
       -0.039964586 0.1345209 -0.13787462 0.0018146691
000330 b0 f8 0e 3c 4f 60 10 3e f1 d9 d9 bd 27 5f 12 3d
       0.008726284 0.14099239 -0.10637272 0.035735276
000340 66 d7 02 3e 41 8f 0f 3d 9f 13 a9 bd 70 9b 11 be
       0.1277748 0.035048727 -0.082556956 -0.14219451
000350 40 bf bb 3c fe f0 48 3d d0 7b 6e 3e b8 23 c9 3d
       0.022918344 0.049057953 0.23289418 0.09821266
000360 94 b2 3a 3d 42 09 58 3d 87 e9 fc ba c8 8e ea 3d
       0.04558046 0.052743204 -0.0019295671 0.114530146
000370 4a d4 1d 3d fa 78 01 3d a4 27 f0 bb 42 5c ff 3d
       0.038532533 0.031609513 -0.0073289443 0.12468769
000380 f5 ce 29 be 72 1e 6e 3d 83 0c 8c 3c 49 51 04 3e
       -0.16582854 0.058134504 0.01709581 0.12921633
000390 7d 3e 48 3c ce ed b6 bc fc 26 27 be 7e 8d f2 3d
       0.01222193 -0.022330191 -0.16323465 0.11843394
0003a0 86 e7 00 3d cd eb 05 be 62 01 87 3d e2 d7 cf bd
       0.031470798 -0.13078232 0.065920606 -0.10148598
0003b0 3d 80 78 bd 18 35 0c bc 08 c2 01 be 3c ef 17 be
       -0.060669173 -0.00855758 -0.12671673 -0.14837354
0003c0 13 4f 2e be 49 19 1a 3e e5 4e b1 bd fa cf 13 bc
       -0.17022352 0.15048708 -0.08657626 -0.009021753
0003d0 9e 1f a5 3d 0c 5e 0c 3d d6 be c5 bd 2d 29 2f 3e
       0.08062671 0.034269378 -0.0965554 0.17105551
0003e0 d9 69 0a be 25 dc 3d bb 9d 06 a5 bd 9a 7b f6 bd
       -0.1351694 -0.0028970328 -0.08057902 -0.12035294
0003f0 90 c8 18 bd a5 ed 58 bd 11 70 d1 3d 66 a4 87 bd
       -0.037300646 -0.05296101 0.10226453 -0.066231534

network_body._body_endoder.seq_layers.2.bias f4 [128]
000000 93 35 50 bc 05 fb 86 3c 1c 3a b2 3c 61 53 02 3d
       -0.012708086 0.016477117 0.021756224 0.031817798
000010 38 33 cf 3c d8 03 35 3d 5c ee 15 bc ba 24 36 3d
       0.025292978 0.04419312 -0.009151068 0.04446862
000020 cc 54 72 3c 40 15 a9 3c dc e7 a7 3c be b5 57 3c
       0.014790725 0.020640016 0.020496301 0.013165889
000030 ac db 8f 3c 68 4c 8d 3b ce a5 61 3c eb b4 18 3d
       0.017560802 0.004312087 0.013772441 0.03728191
000040 c7 b6 b2 3c c2 ca f7 3c c7 84 78 b9 0f 83 f3 3c
       0.02181567 0.03024805 -0.00023700586 0.02972558
000050 c2 c9 62 3d 21 c1 ce 3c 2f a4 94 3c 2a c3 df 3b
       0.055368192 0.025238575 0.018144695 0.0068286853
000060 39 b9 c2 3c 7a 44 91 3c 0a bd 05 3d 91 fc 13 3d
       0.023769962 0.017732847 0.032650985 0.036129538
000070 0b 4e e9 3c 73 48 bc 3b 4b 01 3e 3d a2 f2 19 3c
       0.028479597 0.0057459413 0.04638795 0.009396227
000080 f6 2f b6 3c 72 17 07 3b a5 c5 1f ba 8e a0 ef 3c
       0.022239666 0.002061334 -0.000609482 0.029251363
000090 ca 1d b6 3c 02 2a 08 3c b0 b2 e1 3c bd f0 1d 3d
       0.022231001 0.008310797 0.027551025 0.038559664
0000a0 93 90 74 3b 85 3d 91 3c 9a 53 92 3c c0 86 a2 bb
       0.0037317618 0.01772953 0.01786213 -0.004959911
0000b0 8f a6 a5 3b 8d de 48 3d fa bd ee 3c b4 9c 9e 3c
       0.0050552557 0.049040366 0.029143322 0.019361831
0000c0 6f b9 e7 3c 56 3c 45 3b 18 1b 91 3c 9d 95 d0 bb
       0.028286664 0.0030095777 0.017713115 -0.0063654915
0000d0 20 72 68 bb b8 c2 19 3c d7 90 12 3d 47 f7 41 3a
       -0.0035468414 0.0093848035 0.03578266 0.0007399213
0000e0 b1 20 87 3c 10 7f 1d 3d 9a f8 21 37 8e be b4 3c
       0.01649508 0.038451254 9.65423e-06 0.02206352
0000f0 91 d0 01 3d d1 2f f5 3b f4 81 3c 3d a5 f7 00 3d
       0.031693045 0.007482507 0.04602237 0.031486172
000100 e2 1f 17 3d 2e aa f7 3c f2 a6 1b 3c 76 29 84 3c
       0.03689564 0.030232515 0.009500252 0.016133051
000110 c6 43 6e bc 40 af 9e 3b f4 cb 94 3c a9 03 a6 3c
       -0.014542526 0.004842669 0.018163659 0.020265417
000120 20 35 42 3c e5 e3 65 3c d0 1b 64 3c 1a df 03 3d
       0.011853486 0.014031385 0.013922647 0.032195188
000130 0f 88 18 3d 14 ef db 3c b4 84 f2 3c 5e 59 f5 3c
       0.03723913 0.0268474 0.029604293 0.02994984
000140 ff ea 45 3d 59 54 cd 3c 75 00 62 3c fd 36 41 3d
       0.048319813 0.025064634 0.013794054 0.04717158
000150 6a 20 1f 3d ba 6d 09 3d 19 e9 21 3d 99 64 3b ba
       0.03884927 0.03355191 0.03952894 -0.0007148474
000160 e9 21 0f 3d 80 d0 8d 3c ac e1 d5 3b b6 7b 04 3b
       0.03494445 0.017311335 0.0065271463 0.002021534
000170 4f 18 9f bb 64 27 12 3d 31 36 92 3c 90 b5 54 3d
       -0.0048551927 0.035682097 0.017848106 0.051930964
000180 2a f5 45 3c 5d 53 2e 3d 79 80 a5 3c b4 6f bc 3c
       0.012082377 0.04255997 0.020202862 0.023002483
000190 1e 97 89 bb f2 64 ab 3b c5 2c b2 3c 6d 19 86 3c
       -0.004198923 0.0052305395 0.021749863 0.016369546
0001a0 8b 6a 73 3c b5 48 e9 3c 59 3c 38 bc 3a fd 2d 3c
       0.014856945 0.028477052 -0.011244857 0.010619456
0001b0 f0 45 58 3c 49 82 e5 3c c2 3b 26 3c 03 66 2f 3c
       0.013200268 0.028016226 0.010146083 0.010705474
0001c0 b6 5b e2 3c a8 5b 85 3b 43 d6 ad 3c a7 f5 2c 3d
       0.027631622 0.004069764 0.021220332 0.04222646
0001d0 1a d2 08 3d 8c fd 03 3d 01 5c 23 3c 3b 7d 06 3d
       0.033403493 0.032224223 0.009970666 0.032834273
0001e0 a6 1d e3 3b 09 51 c3 3c 5c b2 77 bc 48 d7 05 3a
       0.0069310246 0.023842352 -0.015118208 0.0005105627
0001f0 58 50 f8 3b 7f 4e a0 3c 59 ff 2f 3d 5a 6d 55 3c
       0.007577937 0.01956868 0.042968128 0.01302656

action_model._discrete_distribution.branches.0.weight f4 [5, 128]
000000 0a 27 04 3e 29 6c a5 3c 6b 41 0c 3c 48 fa 68 3d
       0.12905517 0.020193176 0.008560519 0.05687931
000010 1d e5 f1 b9 46 0a 1c be 63 21 95 bd 42 95 48 3e
       -0.00046137805 -0.15238294 -0.07281759 0.19588187
000020 1f ea 35 be 20 17 d8 bd 00 f9 3f be 25 bb a0 bc
       -0.17765091 -0.10551286 -0.1874733 -0.019620487
000030 25 48 e8 3d 4e 61 af bd 03 45 29 3e 9b e5 89 be
       0.113418855 -0.08563481 0.16530232 -0.26932988
000040 38 6d 61 3d ab 99 36 3d 3a 61 21 bd a4 7a 0f be
       0.0550358 0.044580143 -0.039399363 -0.14011627
000050 85 f0 2d be 61 6d 71 3d 19 67 0f bc 7c d1 88 3d
       -0.16986282 0.058942202 -0.008752608 0.06680581
000060 9a 79 07 be 04 67 82 bd 6c dc 9b bd 30 4a 86 3e
       -0.13229981 -0.06367305 -0.076104015 0.26228476
000070 e0 d2 6e bd 43 68 22 3e 61 18 27 be d8 b6 bc bd
       -0.058306575 0.15860085 -0.16317894 -0.09214562
000080 2b 51 55 be f5 b0 8f bd 24 f8 0b 3d e8 50 36 3e
       -0.20831744 -0.07016174 0.034172192 0.17804301
000090 c5 a2 07 3d 85 19 30 3d e9 66 57 bd 1d 0a a3 bd
       0.033114213 0.042993087 -0.052588377 -0.07960913
0000a0 5e e8 c7 3c 29 63 49 3e af 59 3d 3d 23 51 31 be
       0.024402793 0.19666733 0.046228107 -0.17316107
0000b0 1f 19 e8 bd 93 0c b9 3d 95 44 20 3e 49 f3 23 be
       -0.113329165 0.090356015 0.15651162 -0.16010775
0000c0 91 9d 99 bc ef e0 6d bd 29 49 ef 3d 08 62 9b 3c
       -0.018751891 -0.05807584 0.11683876 0.018967643
0000d0 66 b2 87 3e 87 8c 53 3e e8 f9 43 be af 6d d9 3c
       0.26503295 0.20659076 -0.191383 0.026541559
0000e0 f7 c3 ca bb 91 2f ee bd 89 31 20 bb bc cc 14 bd
       -0.0061879116 -0.11630166 -0.0024443588 -0.036328062
0000f0 6f 99 91 3d 04 df a9 3d 4f 42 75 3d 05 df 81 bc
       0.07109343 0.0829449 0.05987769 -0.015853414
000100 d2 af 5a 3d 4c 3e c9 3d a5 60 5a 3d 5b fc 24 bd
       0.05339033 0.09826335 0.053314824 -0.040279727
000110 99 dc 93 bd 09 2c 5f bd 73 b2 f0 bd 3d 1f c9 3d
       -0.0721981 -0.054485355 -0.117527865 0.09820411
000120 d3 78 9c 3d c2 e3 73 bd cd 4d 37 3e 49 0d 0a 3c
       0.07640233 -0.05954338 0.17900772 0.008426019
000130 4c 87 05 3e ea 82 ec bc cd ac 1a 3e 42 e9 c0 3d
       0.13039893 -0.028871018 0.15104981 0.094194904
000140 d4 80 55 ba 25 5e 82 bd 39 fd ba 3d 44 23 f8 bd
       -0.0008144502 -0.06365613 0.0913033 -0.121161014
000150 d0 83 cf 3d db 54 69 be 45 39 82 bd 09 15 c0 bd
       0.10132563 -0.22786276 -0.063585795 -0.09379012
000160 73 31 08 3d af 4f cf bd 06 de 99 3d 1a 65 10 be
       0.033250283 -0.1012262 0.07513051 -0.14101067
000170 8a 62 06 bd d3 1c b0 bd 96 d2 4c bd f9 94 92 3d
       -0.032808818 -0.08599248 -0.050005518 0.071573205
000180 d8 11 b0 bd f9 9d 79 bd 69 9e e6 bd 68 cb 2c 3d
       -0.085971534 -0.06094167 -0.11260683 0.04218617
000190 1a 80 b6 3d e8 e2 23 bc ea fd 0f 3e 3c 08 02 be
       0.08911152 -0.010002829 0.14061704 -0.12698454
0001a0 b1 58 da bd 73 16 27 3d 93 67 a5 bd 01 9e 67 bc
       -0.10661448 0.040792894 -0.08076396 -0.014136792
0001b0 40 a2 d5 bd 59 b4 2b 3e c9 e7 b0 3d 6f 6e 54 be
       -0.10431337 0.16768016 0.086379595 -0.20745252
0001c0 ed 9b 75 3e 4c 09 c1 3d 5a d1 a9 3d c2 bb 92 3d
       0.23985262 0.09425601 0.08291884 0.07164718
0001d0 12 f0 8c 3c 16 d4 71 bd 45 9a 09 3e ac f7 66 bd
       0.017204318 -0.05904015 0.13437755 -0.056388542
0001e0 fb 26 bb 3d 9e 18 e1 3b 4e 21 b3 bd 63 bc 29 bc
       0.09138294 0.0068693897 -0.08746587 -0.010359856
0001f0 d4 bd 39 3c dc e6 32 bd 9a 01 f7 3d ab e7 24 3d
       0.011336762 -0.043677196 0.12060852 0.04026
000200 6e 0f 35 3c 3c 09 56 be 81 6a d2 bd ac fd 04 be
       0.011051042 -0.2090196 -0.1027422 -0.12987393
000210 a9 4c a3 bd 27 bc 4e 3e 0c 17 15 be fa 18 0d 3d
       -0.07973606 0.20188962 -0.14559573 0.034447648
000220 76 22 0f 3d 8d a9 bb bd ad f0 ab bd 17 98 57 be
       0.034944974 -0.091631986 -0.08395515 -0.21054111
000230 49 ff ef bc 66 74 96 be f2 da 5c 3e 51 b7 48 be
       -0.029296534 -0.2938568 0.21567896 -0.1960118
000240 f1 08 34 be 63 a7 4e 3d ff 9f be 3b fc 50 9c bc
       -0.17581536 0.0504526 0.005817413 -0.019081585
000250 2c 35 8a 3d a0 ca 83 bd e6 e3 30 3e 4a 0c 89 be
       0.06748423 -0.06435132 0.17274436 -0.26767188
000260 8a 27 37 3c b5 ff 08 bd 80 eb 9b bc 73 a4 94 3e
       0.01117886 -0.033446986 -0.019033194 0.29031715
000270 82 6e 38 bc de f0 61 3e 27 e5 c8 bb 9b d7 6c 3d
       -0.011256816 0.2206454 -0.0061308327 0.057822805
000280 87 93 88 be 28 70 80 bd 07 35 5a 3e 1e 57 1c be
       -0.26675054 -0.06271392 0.21309291 -0.15267608
000290 e7 ec 4a be 8a fa 0e 3e 59 d6 e6 bd 5d a6 bf bd
       -0.19816934 0.1396276 -0.11271352 -0.09357903
0002a0 1e fe c8 3d ce 90 0f be 11 12 0e 3d bb 78 dd 3d
       0.09814094 -0.14020082 0.0346852 0.10814043
0002b0 25 36 ce 3d 0a 52 53 bd 78 9b e8 bd b7 96 90 be
       0.10068921 -0.05159191 -0.11357778 -0.28239986
0002c0 e7 bf fc 3d 1b 75 60 be ce 16 03 3e 63 9c 0c be
       0.1234129 -0.21919672 0.12801668 -0.13731532
0002d0 00 58 cc bd 66 c2 3a 3d be dd f5 3c 7d bc 15 be
       -0.09977722 0.04559555 0.030012961 -0.14622684
0002e0 af 8f 00 be 92 13 71 bc 9d 05 52 3e d3 3d 99 3e
       -0.12554811 -0.014714139 0.20509954 0.2992998
0002f0 6f ce fa bd 3f 7d 89 bd 35 fc 75 3e 26 23 7b 3e
       -0.12246405 -0.06713342 0.2402199 0.24525127
000300 25 9f e4 3b 8e 50 49 bd fd 9a 6d bd 93 77 39 bd
       0.0069769793 -0.04914909 -0.058009136 -0.04528005
000310 d9 b0 df bc 8f c3 ab 3d 2b 9a 98 3d af 1e 52 bd
       -0.027306007 0.08386909 0.0745128 -0.051298793
000320 52 48 82 bc 8c 11 22 bd 29 75 44 3e e9 f4 a9 3c
       -0.015903626 -0.039567515 0.19185318 0.020746665
000330 12 3c 61 bd 6f f4 1f bd 2b 84 09 be fd 72 3a bd
       -0.05498893 -0.03905147 -0.13429324 -0.045519818
000340 c0 7f 7f bd 8b 94 56 3e c9 f9 83 be 02 3f a8 3d
       -0.06237769 0.20955102 -0.25776508 0.08215143
000350 a5 7c 75 bd 64 13 ad 3c 1a ac 39 be 7e 80 dc 3d
       -0.059933323 0.02112741 -0.18132058 0.107666954
000360 ae 34 97 3e 22 4a 05 bd 65 4c b3 bc a7 2d 06 bd
       0.2953238 -0.0325414 -0.021887014 -0.03275838
000370 5c 0e 34 bd f0 9e 93 3d 52 d7 10 bd 46 5d 04 be
       -0.043959007 0.07208049 -0.035361595 -0.12926206
000380 8d 38 8c 3e 85 ca 27 3e 03 a0 1b 3e 1f ce c4 3d
       0.27386895 0.16385849 0.15197758 0.09609627
000390 5b b0 9f 3d 55 7d f0 3c b8 43 b1 3d 0e 1a 3b bd
       0.07797309 0.029356638 0.086554945 -0.045679145
0003a0 25 8f ae 3d 11 2f 1b 3d 4b f0 62 3d 15 dd 1e bd
       0.085233964 0.037886683 0.055404942 -0.03878506
0003b0 56 44 ef 3d 97 ca 9c bd f7 e8 31 3e 40 42 f2 bd
       0.11682956 -0.076558284 0.17374025 -0.118290424
0003c0 81 a5 97 bd 1e 35 f1 bd db 31 b2 3d b8 19 86 3c
       -0.07404614 -0.117777094 0.087009154 0.016369686
0003d0 47 f8 76 be e7 b9 cb 3c b2 50 6e 3d 16 33 28 be
       -0.24118148 0.024868919 0.058182426 -0.16425738
0003e0 98 06 28 bd a5 ea 8e bd fa 88 18 3e 3c e3 1e 3e
       -0.041021913 -0.06978349 0.14896002 0.1551637
0003f0 a4 08 88 bd 0e ab ff 3d c7 91 05 be 8e b4 88 3c
       -0.06642273 0.12483798 -0.13043891 0.016687658

action_model._discrete_distribution.branches.0.bias f4 [5]
000000 f8 ab 62 bb f8 d1 a5 bc 5e d4 e5 3c ad ab 08 bc
       -0.0034587365 -0.020241722 0.028055366 -0.008341712
000010 a2 58 d0 bb
       -0.006358222

action_model._discrete_distribution.branches.1.weight f4 [1, 128]
000000 13 25 8c bb 65 b7 8b 3a b9 74 a3 ba 96 a7 2a bc
       -0.0042768805 0.0010659514 -0.0012470699 -0.010415932
000010 71 ed 41 bc b5 ae 40 3a 22 99 aa 3b bb 41 22 3c
       -0.011836396 0.0007350252 0.005206243 0.009903367
000020 a8 72 4b 3b d7 8c 58 3c b3 73 53 3c b7 dd 2b bc
       0.0031043682 0.013217173 0.012906003 -0.010489873
000030 3b 01 3b 3c e7 e9 2c 3c 27 f2 da bc 2e 04 87 3b
       0.011413868 0.010553814 -0.026726795 0.0041203713
000040 65 c8 57 3b e2 6a e4 3b 83 96 3c bb 0f 0c 25 bc
       0.003292584 0.0069707492 -0.0028776235 -0.010073676
000050 f8 d4 2c 3c 5d 57 35 3b 92 32 66 3c d9 92 b7 3a
       0.010548823 0.002767048 0.014050143 0.0014005556
000060 c7 11 48 bc c7 fa 18 3c 7f 77 52 3b b7 6d 5d bc
       -0.01221127 0.009337134 0.0032114682 -0.013514928
000070 df ea 5e bc 07 80 63 3b c8 03 a0 bb e3 6e 66 bb
       -0.013605802 0.0034713761 -0.0048832633 -0.0035161308
000080 39 46 b2 3b 5b 86 7f 3c d9 ce 1e 3b 41 aa 3e 3b
       0.0054405 0.015595998 0.0024232178 0.0029093178
000090 23 f6 60 3c 0c 83 b3 bb af f3 09 3c cd 59 1e bc
       0.013730559 -0.0054782685 0.008419915 -0.009664965
0000a0 b2 d0 71 3c f2 de d4 3b b3 c0 02 bc 3b 01 ac 3b
       0.0147592295 0.0064963037 -0.007980513 0.00524917
0000b0 bb 32 09 bc 73 6b 8b bb 08 f9 f0 3c 6b e2 c1 bb
       -0.0083739115 -0.0042547523 0.029415622 -0.0059168837
0000c0 79 32 32 bc 32 45 e6 bb 20 7d 69 3a 8b 01 b5 ba
       -0.010876291 -0.0070272917 0.00089068897 -0.0013809664
0000d0 35 c3 f5 3b 68 21 a3 3b d3 b6 36 bc 5f 68 e3 bb
       0.007500077 0.0049783476 -0.011151987 -0.0069399322
0000e0 d0 24 8d ba 6d fa e8 bb e0 35 4f bc e0 84 32 3c
       -0.0010768417 -0.007109931 -0.012647122 0.010895938
0000f0 48 99 ef ba cd e1 27 3c 67 bf bb bb 55 da e6 3b
       -0.0018279934 0.010246706 -0.005729604 0.00704507
000100 58 7b 4f 3b ba 98 dd 3b 15 fa e2 3b 3d c6 2b bb
       0.0031659212 0.006762591 0.0069267848 -0.0026210689
000110 73 73 4c 3c c6 de ac bb c5 30 45 3c cd e5 1b 3a
       0.012478697 -0.00527558 0.012035553 0.0005947024
000120 5a fa 47 3c 3a cd cc bb 54 12 22 bc cb e0 af 3b
       0.012205685 -0.006250051 -0.009892065 0.0053673736
000130 5b 62 ce bb 3a 51 3e 3b b0 03 50 3b f5 f2 ab 3b
       -0.006298346 0.0029040114 0.003174048 0.0052474686
000140 57 69 10 3c f7 7a 4f bc ff 07 d4 3b 57 e6 32 3c
       0.0088141775 -0.012663594 0.00647068 0.010919175
000150 a3 c2 f5 bb ef 4d 84 39 25 93 20 bc 22 40 ae 3b
       -0.007500009 0.00025235067 -0.009800707 0.005317704
000160 30 16 e9 ba 67 b8 39 3a fb b2 2a 3a b8 76 06 bc
       -0.0017783102 0.0007084668 0.00065116555 -0.008207016
000170 8b bb 48 3c eb 32 39 3b fd 9f 60 bc 65 78 57 3c
       0.012251745 0.002825911 -0.013710019 0.013151263
000180 1b 92 23 bc c9 4f 9e 3b ee d1 a8 3a e4 40 83 bc
       -0.009983565 0.0048312885 0.0012879947 -0.016022153
000190 6e 2d 2d 3b df 71 23 3a 67 cf 85 bb 5c f9 47 bc
       0.0026424783 0.00062349247 -0.004083562 -0.012205448
0001a0 fd 3f ec bb 13 d0 82 bb 78 dd 42 bc a2 ea d2 3b
       -0.0072097764 -0.0039920895 -0.011893623 0.006436662
0001b0 bf e9 f5 3b 9b 8c b6 bb 82 4d b8 bb 40 67 14 bc
       0.0075046713 -0.0055709607 -0.005624474 -0.00905782
0001c0 57 4c 14 3c 3a ef 9d 3b 73 aa b3 3b 4b 94 bb bb
       0.009051404 0.004819778 0.0054829656 -0.005724465
0001d0 43 09 4d 3b 50 f9 8c bc 13 bc 7f 3c c7 1f 3f 3b
       0.0031286038 -0.017208725 0.015608805 0.0029163228
0001e0 dd ce 51 bb 1d 9a 41 bc 37 98 c8 3b 9e 9c 43 bb
       -0.003201417 -0.011816529 0.006121661 -0.002984799
0001f0 9d 4e 58 3b 72 9f 6e bb dd 60 36 bb a6 70 82 ba
       0.0033005842 -0.0036410955 -0.002782873 -0.0009951785

onnx::Div_118 f4 [44]
000000 75 36 fb 3e 81 80 b7 3e b5 70 fe 3e b6 d8 c1 3e
       0.49064985 0.35840228 0.49695364 0.3786065
000010 a4 b7 f7 3e 76 97 ca 3e 8f 9b fd 3e 09 a5 c5 3e
       0.48382294 0.3956868 0.49532744 0.38602474
000020 e5 2c f6 3e 44 63 da 3e bb 9e fa 3e 32 47 c0 3e
       0.48081127 0.4265386 0.48949227 0.37554318
000030 e5 d5 f7 3e f9 ed c4 3e 2d 6e fe 3e e2 7f c6 3e
       0.48405376 0.3846281 0.49693432 0.38769442
000040 16 6e f6 3e 22 6e d4 3e 55 39 fc 3e b9 ad c3 3e
       0.48130864 0.41490275 0.4926249 0.38218477
000050 b3 45 fa 3e 8b 3c c9 3e 51 34 fc 3e d6 0e c4 3e
       0.488813 0.39304003 0.49258664 0.3829257
000060 51 b0 f0 3e 61 c0 cb 3e 03 a0 ff 3e a1 88 c8 3e
       0.4700952 0.3979521 0.49926767 0.3916674
000070 ec ff ff 3e e1 9f cd 3e dc 71 ea 3e 44 08 b3 3e
       0.4999994 0.4016104 0.45789993 0.34967244
000080 3b 14 ff 3e 70 29 c7 3e 25 3b f5 3e 4f bd ba 3e
       0.49820122 0.38898802 0.47896686 0.36472556
000090 bb ff ff 3e 32 3f d4 3e fb 2e e5 3e fa ac af 3e
       0.49999794 0.41454464 0.44762406 0.34311658
0000a0 56 3e fc 3e ca 6b bb 3e c5 3a df 3e bb b3 a8 3e
       0.4926631 0.36605674 0.43599525 0.32949623

onnx::Div_121 f4 [24]
000000 84 f7 91 40 2d 27 15 3e e9 23 97 40 7b 29 85 40
       4.5614643 0.14565726 4.7231336 4.1613135
000010 28 1b 15 3e 83 c9 68 40 5d 12 83 3a 5d 12 83 3a
       0.1456114 3.6372993 0.000999998 0.000999998
000020 eb e1 93 40 74 51 e6 3d 27 f9 9b 40 fb a4 89 40
       4.621328 0.11246005 4.874164 4.301389
000030 e9 24 e6 3d 42 5b 72 40 5d 12 83 3a 5d 12 83 3a
       0.11237509 3.78682 0.000999998 0.000999998
000040 b8 22 96 40 9e c1 6e 3d f3 81 a0 40 fe c6 8e 40
       4.691738 0.058290116 5.015863 4.461791
000050 dc ca 6d 3d f7 a8 7c 40 5d 12 83 3a 5d 12 83 3a
       0.05805479 3.9478128 0.000999998 0.000999998

onnx::LSTM_139 f4 [1, 512, 128]
000000 30 12 fb bd f5 b0 10 3d 33 4e 6e 3e 12 a6 2d 3e
       -0.12259328 0.03532501 0.23272018 0.16957882
000010 d0 f2 69 bd 74 0c ae 3d b5 35 09 3c d9 54 7b 3e
       -0.05711633 0.08498469 0.008374621 0.24544086
000020 27 44 9a bc 3d 29 2c 3e ac 24 99 bd fa 05 fb 3d
       -0.018831326 0.16812606 -0.07477698 0.12256999
000030 bf 28 7a be 42 4f c2 3c 09 88 ea 3d f9 01 69 3d
       -0.24429606 0.023719434 0.11451728 0.056886647
000040 dd 2b 3a 3e 8c 8a 0a 3e 20 50 bf bc 61 c4 98 3e
       0.18180795 0.13529414 -0.023353636 0.29837325
000050 a4 86 7a 3d ea 3d e1 3b 7a 1a 64 3c cc db ec bc
       0.06116356 0.006873836 0.013922328 -0.028913401
000060 1f 80 84 3c 02 62 b3 3e 2d 5d 0a bd 0b 6b 73 bd
       0.016174374 0.35035712 -0.033780266 -0.059428256
000070 f8 3b 49 3e 91 0a 2e be 33 47 05 3e 9f 6a 0e 3e
       0.19651783 -0.16996218 0.13015442 0.1390786
000080 ed 20 d9 bc 4b 45 e9 bc a4 37 6a bd 03 d6 fe 3b
       -0.026504958 -0.028475424 -0.05718197 0.007776977
000090 54 a9 3c 3e 90 c9 ff bc 52 da 94 3d 0f 05 1f be
       0.18423969 -0.031224042 0.07268204 -0.15529273
0000a0 99 5a 06 3e b8 4f 39 bb 1b b4 23 3e b1 8d 5a 3c
       0.13120498 -0.0028276276 0.15986674 0.013339446
0000b0 cc 21 2b 3e b7 94 99 3d 27 f9 3d 3e 8d c7 31 3e
       0.16712111 0.07499068 0.18552075 0.17361279
0000c0 c3 bc 54 3e d3 12 94 3c 23 59 1f bd 5e 12 d0 bb
       0.20775132 0.018075382 -0.038903367 -0.006349846
0000d0 ff c1 8f bd 91 05 80 3c 84 f2 86 3e 4f 93 e9 3d
       -0.07019424 0.015627654 0.263569 0.1140505
0000e0 97 60 f3 3d 67 dd c3 bd f0 28 48 3e bc 49 5b 3d
       0.118836574 -0.095637135 0.19546866 0.053537115
0000f0 33 2a ed 3c fa e4 73 3d 5f b0 53 be ee 51 a2 bc
       0.028950786 0.05954454 -0.20672749 -0.019814458
000100 98 7c 0b bb 94 76 a6 3d 35 13 2e 3e 69 aa a9 bd
       -0.002128398 0.08128086 0.16999514 -0.08284456
000110 a1 70 1d 3e 7a e0 66 3c b4 58 15 be 0c d6 89 3e
       0.15374996 0.014091605 -0.14584619 0.26921117
000120 bd 43 05 3e 23 b7 74 3b dc 98 0d 3e 27 af 54 bd
       0.13014121 0.0037340603 0.13827842 -0.05192485
000130 9a 0b 94 3d 21 c8 fc bc c1 90 08 bd 01 35 e4 bd
       0.07228775 -0.030857148 -0.033341173 -0.11142922
000140 72 10 9b 3d 4f 09 00 3e e1 4f 34 3e f4 28 26 3e
       0.07571496 0.12503551 0.17608596 0.1622656
000150 af 6e 85 bd 81 c2 ca 3d 8e 98 bc bd e3 d4 d5 bd
       -0.06515252 0.0990038 -0.09208785 -0.104409955
000160 79 25 6c 3a c7 da be 3a c6 a4 10 bd aa 08 4c bd
       0.00090082694 0.001456105 -0.03531339 -0.04981295
000170 57 40 82 bd 94 78 00 ba f7 0b 5d 3d 7f 53 07 3e
       -0.06359928 -0.000490078 0.05396649 0.13215445
000180 f4 5d 7d be a7 1d 50 bd fb d8 b0 3d a5 c5 29 3d
       -0.24742872 -0.05080953 0.08635136 0.041448254
000190 44 6a d8 bc 54 02 0f be fd 04 a2 3d 91 5e c8 bd
       -0.026417859 -0.13965732 0.07911108 -0.09783662
0001a0 40 ea 9f 3b 3a 0e 03 3e 6f 88 39 bd a6 05 ea bd
       0.0048802197 0.12798396 -0.04529613 -0.114268586
0001b0 11 a1 9c 3d 67 2e c9 bd 2c a7 85 bc 3e 17 43 3e
       0.076479085 -0.09823304 -0.016315065 0.19051835
0001c0 af 3b 3d 3e f4 18 ba 3c 82 23 98 3e 75 70 34 3e
       0.18479799 0.022716977 0.2971459 0.17621024
0001d0 92 41 1a bd 24 89 12 3e d3 25 61 3b 32 69 f9 3d
       -0.03766019 0.14310127 0.003435482 0.121782675
0001e0 8d e5 90 3c 51 ad fe bd a0 cc 3a 3e c7 39 ca bd
       0.017687583 -0.12435401 0.1824212 -0.098743014
0001f0 60 65 3f 3e 12 52 d0 bc 9d 67 ed 3d 6a 2b 31 3e
       0.18691015 -0.02542976 0.11592028 0.17301717
000200 96 26 98 bd d1 e5 54 3e 4e bb 09 3e a0 b3 21 3e
       -0.07429235 0.20790793 0.13450357 0.15791178
000210 40 a8 6e 3d b1 ae 48 3e 0c 9a 9d 3b db 35 91 bd
       0.058265924 0.1959789 0.0048096236 -0.0709035
000220 3e af 12 be e8 a2 d1 bd 30 96 49 3e d1 53 f3 bd
       -0.14324662 -0.1023615 0.19686198 -0.11881221
000230 60 7f 42 3e 98 6f e4 bd 71 13 c9 3d cf ae 8e 3c
       0.18993902 -0.11154097 0.09818161 0.01741734
000240 0f b1 11 3e 61 73 f0 bd e0 ac 79 3d 28 de e7 3d
       0.14227699 -0.11740757 0.060955882 0.1132167
000250 b2 ad a4 bd 04 26 0a 3e 72 3e 66 3e 75 bd f3 3d
       -0.08040942 0.13491064 0.22484758 0.119013704
000260 ea 5d 19 3e 16 00 8b 3d 8e 75 c6 bd 78 42 61 3d
       0.14977232 0.06787126 -0.096903905 0.05499503
000270 74 76 fd 3d c3 5c 02 be 13 73 5a be 9e 6e e5 bd
       0.12376109 -0.12730698 -0.2133296 -0.11202739
000280 0d 1b 30 3e d6 db a9 3a db 6a 3c bd 92 73 d9 3d
       0.17197819 0.0012959193 -0.046000343 0.106177464
000290 4b d3 b3 bd 5b eb be bd 23 1b 40 3d eb 9c f2 bc
       -0.08780535 -0.09322234 0.04690088 -0.02961584
0002a0 1e 83 27 bd 9e 22 65 be 0f 93 ed 3d bd 15 48 bd
       -0.040896527 -0.22376487 0.11600315 -0.048848856
0002b0 96 b3 8d 3d a5 6b db 3c e5 04 da bd 04 eb 24 3e
       0.06919019 0.026784727 -0.10645465 0.16105276
0002c0 4a 89 9f bb 80 f7 13 3e ec 19 b8 3d 13 b9 2d 3d
       -0.004868661 0.14449883 0.08989319 0.04241283
0002d0 17 5c ac 3d 92 cf 2a 3d 74 15 42 3d 2b 4c 66 3e
       0.08416002 0.04170186 0.04738374 0.22489993
0002e0 85 8b 11 be 0a b3 41 3e 19 a9 2f bd b7 53 51 bd
       -0.14213379 0.18915954 -0.042885873 -0.051105227
0002f0 c0 db c0 bc 74 67 86 3d 4f a0 f6 3d be 2d 9f bd
       -0.023542285 0.06562701 0.12042295 -0.077723965
000300 54 95 fc bd b5 e1 48 3e ed 9c 29 3e 34 48 2e be
       -0.123331696 0.1961735 0.16563769 -0.17019731
000310 c7 62 fb 3c d4 46 5d 3d 16 58 2c ba 2f 8e d4 3c
       0.03068675 0.054022625 -0.0006574405 0.025946705
000320 9f e3 03 3e 1e fd 04 3d e7 f5 ef bd 29 cb a7 3d
       0.128798 0.032467954 -0.11716824 0.081930466
000330 f6 bd 34 3d e2 7e d9 bc 71 cf 68 3c d8 84 f9 3d
       0.044126473 -0.02654976 0.014209614 0.12183541
000340 fb b7 d1 3d 1c 84 01 3e cc ac 0d bc 8a 9f 4c be
       0.102401696 0.12648052 -0.008647155 -0.19982734
000350 fa 7f 14 ba 98 31 41 3d c8 1e 02 be 32 8b 26 be
       -0.0005664822 0.047166437 -0.12707055 -0.16264036
000360 92 06 f5 bd 0a 28 d7 bb 26 10 c0 3d f2 c8 6b 3d
       -0.11964144 -0.0065660523 0.0937808 0.057564683
000370 27 22 54 3e f4 2a d4 3d 36 00 94 3d ce 00 ce 3a
       0.20716153 0.10359755 0.07226603 0.0015716793
000380 35 b5 8e bd 6a f3 ab 3d c2 e3 68 3e 41 68 80 3d
       -0.06968156 0.08396037 0.22743133 0.06269885
000390 69 ab 49 bd 61 92 12 3e db ca ed bd 71 f0 26 be
       -0.049235735 0.14313652 -0.11610957 -0.16302659
0003a0 83 1f aa bd e0 b1 d2 3d 0f 53 a2 bd 03 8f dd bd
       -0.08306792 0.10287833 -0.079259984 -0.10818293
0003b0 b8 3a 89 bd e3 3c f7 3d d0 3b 0d 3e d5 f5 1d 3e
       -0.06700653 0.1207216 0.13792348 0.15425809
0003c0 ec c9 43 3d 1d 7a 0b 3e 00 de bc bd fd 94 af bc
       0.04779999 0.13620801 -0.09222031 -0.021433348
0003d0 49 5c 79 bc 64 45 f6 3b 7e 79 e6 bd a6 a9 c6 bd
       -0.015219756 0.007515596 -0.112536415 -0.097003266
0003e0 f0 ee 9f bd d0 69 32 bd 3d 3c 8a bd f8 99 14 be
       -0.078092456 -0.043557942 -0.06749771 -0.1451186
0003f0 29 ff 8a bd 55 fa 52 3d 4d 48 0a 3e 8d a0 c3 bc
       -0.06786949 0.051508266 0.13504143 -0.023880268

onnx::LSTM_140 f4 [1, 512, 128]
000000 d4 7c f0 bd 01 51 e7 3d 8e 19 a3 3d 6f 5c 4d 3d
       -0.11742559 0.11294747 0.079638585 0.05013698
000010 16 61 6c bc be 00 56 3d a0 fe ec bb fb 7a 5c be
       -0.014427444 0.0522468 -0.007232502 -0.21531288
000020 37 d0 d1 bc fa e2 c6 bd ff b0 1e 3e d5 a8 5b 3d
       -0.02561198 -0.09711261 0.15497206 0.053627808
000030 91 7a 38 bd 41 3b df bd 97 8c 1e be 01 96 b3 bd
       -0.045038763 -0.10899974 -0.15483318 -0.08768845
000040 fb 6a 2f 3d fb 29 83 bd 7c c1 b4 3d 97 c8 e6 bd
       0.042826634 -0.064044915 0.08825967 -0.11268728
000050 b8 a8 c8 bb 67 ef 04 3d e2 62 b6 bb 4d da 8d bc
       -0.0061236285 0.032454874 -0.005565987 -0.017316008
000060 a6 84 88 bd 54 c2 ef 3c 10 a1 f2 3d 4d c8 73 3c
       -0.06665926 0.029267468 0.118471265 0.014879298
000070 fe 34 25 be ea d2 a4 3d 2f 39 6a 3d fc 1b 37 be
       -0.16133496 0.08048041 0.05718344 -0.17881769
000080 0f b8 6a 3c 6f fa 3b 3d dc b5 e5 bd a3 e5 e7 bb
       0.01432611 0.04589313 -0.112163275 -0.0070769354
000090 33 fd f7 3d 49 7c cf 3d ab 17 35 bd c0 bc e7 3d
       0.12108841 0.101311274 -0.044212025 0.11315298
0000a0 ae 4e 1e bd 6b 2d 13 3e f4 37 00 3d 66 7e d3 bd
       -0.038649254 0.14372794 0.03130336 -0.10326843
0000b0 6c 65 4e bd 0a 32 c9 bd 64 2a 8d bd 98 5f 00 be
       -0.050389692 -0.09823997 -0.06892851 -0.12536466
0000c0 0c f2 fe 3d 15 ed 1a 3e 1f 19 72 3d a1 d8 f8 bd
       0.124485105 0.15129502 0.05910599 -0.12150694
0000d0 67 e2 13 3e ca bc c9 3d 2b cf 1b bd 7c c1 c8 bd
       0.14441834 0.09850462 -0.038039368 -0.09802529
0000e0 1f 31 ea 3d 9b e9 cd 3c 77 b6 0f be 23 4d c4 bd
       0.1143515 0.025135806 -0.14034449 -0.09585025
0000f0 90 c7 d5 3d fc e3 23 3e 73 a9 c7 bd 52 10 7f 3d
       0.10438454 0.16004938 -0.09749117 0.062271424
000100 4b 90 18 be 68 13 80 3c 3f ef 17 be 02 0d a5 bd
       -0.14898793 0.015634254 -0.14837359 -0.08059122
000110 54 e0 c9 3d 4e 83 11 bd 6f a6 74 bd 01 9f 1e be
       0.0985724 -0.035525613 -0.059729036 -0.15490343
000120 99 89 3f 3d 7b 71 25 be 51 53 ad bd 71 ec 85 3d
       0.046762083 -0.1615657 -0.08463157 0.06539238
000130 99 6f c0 3d 95 43 11 3e d1 53 6a 3d ac 19 dc 3d
       0.093962856 0.14185937 0.05720884 0.10747084
000140 f8 cb 9b bd 7c 12 8e 3d f6 19 d2 3d c5 f6 97 3c
       -0.07607263 0.06937119 0.10258858 0.018550286
000150 03 cd d3 3c 73 66 b5 3d 5c 3c e2 bc 12 13 2b 3c
       0.025854593 0.08857431 -0.027616672 0.010441558
000160 e9 13 9e 3c 96 dc e1 bc 1d a9 ec bd 60 3f cb bc
       0.019296603 -0.027571004 -0.11555693 -0.024810493
000170 74 cc e8 3c a2 f3 77 3e e2 eb ef bd 9c 7f 8f 3d
       0.028417803 0.24214032 -0.11714913 0.070067614
000180 82 1c 22 be 6c f5 50 3b 81 f7 e8 bd 1f dc d1 bd
       -0.15831187 0.0031884564 -0.113753326 -0.10247063
000190 50 97 4c be 37 55 ea bc 51 63 2b be a2 a1 2b be
       -0.19979596 -0.028605087 -0.16737105 -0.16760877
0001a0 46 14 12 3e b7 76 e3 3d 9b b6 e6 3d 61 fd 1c 3d
       0.14265546 0.111066274 0.11265298 0.03832758
0001b0 54 84 84 bd c5 32 dd 3d aa cf ee 3d 05 d3 84 3d
       -0.06470552 0.10800699 0.116607025 0.06485561
0001c0 15 3f 27 be 6c 59 06 3d 04 2b da 3d bc 9b 08 be
       -0.16332658 0.032800123 0.10652736 -0.13340658
0001d0 62 c8 40 bd e5 17 5d bd cb dc 32 bd 16 4d 4b 3e
       -0.0470661 -0.053977866 -0.043667596 0.19853625
0001e0 a1 8d b8 3c 98 7d 62 3d c4 10 c2 3d 44 74 6f bd
       0.022528471 0.055295557 0.09475854 -0.05846049
0001f0 af 01 b4 bd 95 1c ea bc 27 30 24 be d1 53 19 3e
       -0.087893836 -0.028578082 -0.16033994 0.1497338
000200 c7 2e 2b 3e 45 28 1a be d4 d0 a6 3c 5a 9e 78 3d
       0.16717063 -0.15054424 0.020363249 0.06069789
000210 91 db 1b be 4c 42 c9 3d 51 60 14 3b 5b 35 98 bd
       -0.15220477 0.09827098 0.0022640417 -0.07432052
000220 93 c0 2e 3c 25 79 0c 3d 68 15 9f bb e2 13 0b bc
       0.01066603 0.03429522 -0.0048548467 -0.008488627
000230 ac 4d 3e be 56 f6 44 bd 5f ef 18 be 62 8b 0b 3e
       -0.18584317 -0.048086487 -0.14935063 0.13627389
000240 59 51 bf 3d d2 d6 b5 bd 6b 79 0f be ca d0 58 3d
       0.09341688 -0.08878864 -0.14011161 0.05293349
000250 69 9b bc 3c be 7d 2c be fe bb ce bd b7 c2 2e bc
       0.023023324 -0.16844842 -0.100944504 -0.010666541
000260 70 8a e3 3d cd ae b1 3d 42 f2 0b bc 4e 93 98 3d
       0.11110389 0.08675919 -0.0085416455 0.07449971
000270 52 48 3b 3e 6c 58 97 3d 9f 03 16 3e 85 4e 88 bc
       0.18289307 0.07389912 0.14649819 -0.016639004
000280 18 c5 45 3e 25 33 97 3d cd 92 f7 bd 2a 01 41 be
       0.19313467 0.07382802 -0.12088547 -0.188481
000290 d4 5d 2d 3e d5 46 67 3d 35 d6 c1 bd d7 24 29 3d
       0.16930324 0.056464035 -0.09464685 0.0412949
0002a0 ea 52 e0 3c 63 f0 bc 3d 34 73 ba 3c 9e 19 2e be
       0.027383287 0.09225538 0.022760011 -0.1700196
0002b0 21 f9 03 3e 7e 38 a5 3d 98 a8 95 bd 06 f8 66 3e
       0.12888004 0.08067416 -0.07307547 0.22555551
0002c0 70 49 30 3e e7 8b d8 3d cf 45 31 be 92 45 9c 3a
       0.17215514 0.10573559 -0.17311786 0.0011922589
0002d0 59 7f da 3d ab 8d b7 3c bf 42 6b 3d a6 eb a7 3d
       0.10668821 0.02240642 0.0574367 0.08199243
0002e0 fb 9d 24 3d b2 8d fe bd 0d 59 dd bc f5 8f ee 3b
       0.040189724 -0.1242937 -0.027020002 0.0072803446
0002f0 cc af 11 3d 9e 34 9c bd 24 18 1c be 55 9a ba 3d
       0.035568044 -0.076272234 -0.15243584 0.09111468
000300 a9 47 5d bd b8 b0 57 3d c6 54 f4 3d 0a 5f 56 3d
       -0.05402342 0.052658767 0.11930232 0.05233673
000310 7c ec 63 bd cb 36 ee 3c d3 6c 89 bd 95 d2 b8 bd
       -0.05564545 0.029078862 -0.0671021 -0.0902454
000320 1e bf 81 3d de c4 c6 3d b7 2d 21 3b 9e df bc 3d
       0.06335281 0.09705518 0.0024593899 0.09222339
000330 5e 11 23 be c2 7e 63 3e 09 a9 e8 3c fc 91 d0 bd
       -0.15924594 0.22216323 0.028400915 -0.10184094
000340 53 bd 7b 3c 98 01 2c 3d 89 0a 7c 3d 41 1a 8c 3d
       0.015364963 0.041993707 0.061533485 0.06840945
000350 a9 f2 2f bd 1c 19 4c 3d ff 33 d7 3c d5 8d 24 3e
       -0.042956028 0.049828634 0.02626991 0.1606973
000360 7f a1 b2 bb a5 2c 6f 3d 61 6e c6 bd 0c 6d 0c be
       -0.0054513807 0.058392186 -0.09689022 -0.13713473
000370 bc 39 3b 3d 99 cb df 3d fa f7 93 bc f1 cc a1 bd
       0.045709357 0.10927505 -0.01806258 -0.079004176
000380 0c dc 1f bd 3d c3 41 3d 5a b2 b1 bd 70 66 8c 3d
       -0.039028212 0.047305334 -0.08676596 0.06855476
000390 94 eb f7 3d 1d bd 05 3e c4 7e 35 be 01 bc 3e 3e
       0.1210548 0.13060422 -0.17724138 0.18626405
0003a0 d3 bf 3b 3d 8b 81 8b 3d f5 0c d1 3d 50 e6 0f 3e
       0.045837235 0.06811818 0.102075495 0.14052701
0003b0 08 08 31 bd f6 47 32 be cf 38 e3 3d 29 fc a0 bd
       -0.04322055 -0.17410263 0.1109482 -0.07860596
0003c0 3e 16 38 3c 46 65 8c bd 87 9c e8 bd b5 e4 81 3d
       0.011235772 -0.06855254 -0.1135798 0.063424505
0003d0 87 a2 d8 bb 9b 83 67 be 30 8a a8 bc 77 38 e2 3d
       -0.0066111716 -0.22608797 -0.020573705 0.11045926
0003e0 7e 28 14 be 93 2a ff bd b7 f7 b8 bd 5c b6 48 3d
       -0.14468572 -0.12459292 -0.09031623 0.049002036
0003f0 ab f2 67 3d f5 65 45 3c d4 7f d4 3d d1 f2 36 3e
       0.05662791 0.012048234 0.10375944 0.17866065
