Machine-Learning-DRL/Assets/NN/SR.onnx (onnx, 609843 bytes, 11 tensors)

network_body._body_endoder.seq_layers.0.weight f4 [128, 8]
000000 8b 4d 3f 3e 34 68 aa 3e 21 b7 06 bf 78 12 29 be
       0.18681924 0.33282626 -0.5262318 -0.16510952
000010 30 1b 80 be 3e 8b 84 3f c4 55 af be 94 43 72 3f
       -0.25020742 1.0354993 -0.3424512 0.94634366
000020 5d 73 07 3f 00 ac 35 be 8d 75 d1 3e 16 59 a0 be
       0.52910405 -0.17741394 0.40909997 -0.31317967
000030 14 2c a7 be fa 50 50 bf 94 b2 28 be ab 30 52 be
       -0.32650816 -0.8137356 -0.16474372 -0.20526378
000040 85 46 59 be 6c 28 a5 3e ab 1e a4 be c8 2b 1f 3f
       -0.21218307 0.32257402 -0.32054648 0.6217618
000050 e0 5c 48 3e 81 5f a8 bd ec 6f bb 3e 8e e3 44 3e
       0.19566679 -0.08221341 0.36608827 0.1922743
000060 bf 26 b9 3d 8d 77 15 3f 11 df 9c 3d e6 a3 15 3e
       0.09040593 0.58385545 0.07659734 0.14613304
000070 8e d3 9f be 7b f5 38 be 50 45 b9 be d5 4d 7e 3e
       -0.3121609 -0.18062393 -0.36185694 0.24834378
000080 10 f5 47 bd 06 3f 92 3e a0 94 af bd 8c 43 45 be
       -0.048817694 0.28563708 -0.0857327 -0.19264048
000090 c7 33 8b 3e 5e f4 d6 bd b5 cc 71 bd a7 4a 24 be
       0.2718794 -0.10495828 -0.059033114 -0.16044103
0000a0 fb 7a 23 3f 8e 9c 09 3f bf ea 51 3e 70 4e af 3e
       0.6385953 0.5375451 0.20499705 0.3423953
0000b0 57 3a 93 3e b2 39 48 3f 8c 22 dd 3d 8a 36 55 be
       0.28755447 0.78213036 0.10797605 -0.20821586
0000c0 6e 55 ab bd 15 37 9a bd 70 e0 4d bd 21 db 98 be
       -0.08365904 -0.07530037 -0.05026287 -0.29854682
0000d0 cb d9 98 3e ea 05 1e 3e da 0b 6f 3d a3 e3 85 3e
       0.29853663 0.15431944 0.058360912 0.26150236
0000e0 d1 f3 ec 3e be c7 ad 3d 9d dc 0b 3f 63 09 6b be
       0.46279767 0.084853634 0.54633504 -0.229528
0000f0 f0 eb b9 be 34 ce 26 bf 2b 15 40 3e 6d b4 94 3e
       -0.3631282 -0.6515839 0.18758075 0.29043904
000100 ed 8d 6b 3f 9b 4d 42 3e c9 07 a4 3e 91 60 f2 3e
       0.92013437 0.18974917 0.3203719 0.473393
000110 a4 34 c2 3e 2c d4 81 bd 53 30 de bd 50 d6 f4 be
       0.37930787 -0.06339297 -0.10849061 -0.47819757
000120 6e 84 6d be ab 62 ff be b7 70 94 be b3 63 cf be
       -0.23195049 -0.49879965 -0.28992245 -0.40505752
000130 cf a8 29 bf 27 52 c0 be 7c a0 8e 3e e9 6d f3 be
       -0.66273206 -0.37562677 0.27856815 -0.47544792
000140 0d d2 66 be 6e b2 18 3e cc 5b 9d be 07 24 1f be
       -0.22541066 0.14911816 -0.30734098 -0.15541087
000150 68 96 96 be 2b 49 a0 be 16 1c b8 be 41 c1 85 be
       -0.29411626 -0.31305823 -0.35958928 -0.26124004
000160 3e 0d 1d bf 5e 3f 32 be 93 be 0c 3e 6e af b2 3e
       -0.6134833 -0.17406985 0.13744573 0.34899467
000170 e7 be 66 bf cd e7 09 3e fc 1c 1a 3e b1 db 0c bc
       -0.90135044 0.13467331 0.15050119 -0.0085973
000180 6b 9d 56 be 27 d1 38 be 95 c3 bf 3e 61 80 21 3f
       -0.20958488 -0.18048535 0.37453905 0.63086516
000190 56 f7 c7 3e 23 d5 bd 3a 35 4e f9 3e 59 ce 03 bd
       0.3905589 0.0014483075 0.4869248 -0.03217921
0001a0 b4 b4 83 3e 08 9e 85 3d e6 9f 28 3f 6d 62 83 be
       0.25723803 0.06524283 0.65868986 -0.2566103
0001b0 37 a7 99 3c 5b 18 fe 3e f7 ae f2 3e 0e 4e ec 3e
       0.018756492 0.49627957 0.47399113 0.461533
0001c0 7f 93 00 be 04 7f 24 3e c0 ad dc 3d 6b 87 b8 be
       -0.12556265 0.16064078 0.10775328 -0.36040816
0001d0 b3 4a 35 3f c5 b8 e6 3e b1 26 ef 3e 6b 57 33 3e
       0.70817107 0.45062843 0.46709207 0.17513816
0001e0 67 dd f2 be 9e 51 06 bf f5 ee ac be 8e 67 33 bf
       -0.47434542 -0.5246829 -0.3377606 -0.70079887
0001f0 7a db d9 be d2 9a d3 be 6b af 38 3e 10 2e 8a 3e
       -0.4255026 -0.41329056 0.18035667 0.26988268
000200 3f 57 06 bf d1 af f9 3c 42 98 c6 3e 06 fd 0f 3f
       -0.52476877 0.030479344 0.38788038 0.5624546
000210 ac 7f de 3e 21 81 09 bf c1 6c b9 3e 8b 1d 9c be
       0.4345678 -0.5371266 0.36215785 -0.3049129
000220 f6 19 d2 3e 1a 6a 0e bf 4a d1 a5 bc 81 50 08 3e
       0.41035432 -0.5563065 -0.020241398 0.1331196
000230 d2 86 bd be d2 fc 6f 3e 20 4f a0 3e a4 75 17 3f
       -0.37016922 0.23436287 0.31310368 0.5916388
000240 9d 84 82 3e b9 76 5b be d8 54 40 bf c8 89 da bd
       0.254918 -0.21432008 -0.7512946 -0.10670811
000250 42 5a 84 be 3f a0 e6 3b 9b f1 ee bd 61 72 ef be
       -0.2585011 0.007038146 -0.11667176 -0.46766952
000260 e4 55 b8 3e 8b 50 b3 be 2e 3b 53 3e 74 11 85 3d
       0.3600303 -0.35022387 0.20628044 0.064974695
000270 e3 e6 9a be 2d 1e e6 3e 64 33 82 bc a6 d8 da bd
       -0.30254278 0.44944897 -0.015893646 -0.10685854
000280 fa c0 93 3b c9 8e c8 bd d7 5f de 3e 39 d8 ea be
       0.0045090886 -0.09792859 0.43432495 -0.4586809
000290 b2 24 e4 3c 20 1f 09 3d 31 53 82 3d 13 b7 d0 3e
       0.027849529 0.03347695 0.06363524 0.40764675
0002a0 94 9b 15 3e 81 97 00 3e 9b a6 25 be 36 7f f8 3d
       0.1461013 0.12557794 -0.16176836 0.121336386
0002b0 67 09 7c 3e 01 1e 0a bf ed e5 85 3f 4a ce a8 3d
       0.24612962 -0.5395203 1.0460793 0.082424715
0002c0 ff a2 36 bd 70 a7 0c 3f d3 ef eb be 67 94 62 3d
       -0.04458904 0.5494299 -0.4608141 0.05531731
0002d0 3b ee ee 3e e6 25 01 be 3f db 8b be 06 b6 0a bd
       0.4666613 -0.12612113 -0.2731571 -0.033864997
0002e0 4d 77 fa 3e 34 d7 8e bc 96 73 d0 3d e3 da 0b 3e
       0.48919144 -0.017436601 0.10178296 0.13657717
0002f0 a1 85 31 be 48 8e 2c bd 47 ed f3 bd 4b 60 c0 be
       -0.17336132 -0.042127877 -0.119104914 -0.37573466
000300 a5 b5 00 bf 59 86 63 3e 1b f9 f0 be ea ac d2 be
       -0.5027717 0.22219218 -0.47065052 -0.41147548
000310 41 bb 9a 3d 3a 5a ff 3a 31 ee 91 3e 35 18 15 3f
       0.07555247 0.0019481846 0.28502038 0.5824006
000320 0b ae ad be b8 29 cb 3e ba 52 11 bd 2c 63 c7 be
       -0.33921847 0.39680266 -0.035479285 -0.3894285
000330 13 45 b3 be f6 0c c0 bd 3a 06 a8 3e 3a e6 ce be
       -0.35013637 -0.09377472 0.3281725 -0.40410024
000340 2e f4 2f bf 7e 0e 44 be 34 f0 59 3e d3 c6 68 3e
       -0.68731964 -0.19146153 0.21283036 0.22732095
000350 92 fa e9 3c 18 1e 50 be fe 51 0d be 14 6a 19 3e
       0.028561864 -0.2032398 -0.13800809 0.14981872
000360 52 18 7e be 5c db 4a bf 55 87 11 3e 6a 69 e8 be
       -0.24813965 -0.79240966 0.14211781 -0.45392925
000370 49 84 74 be 40 e9 7e 3d 03 11 6b 3f c3 b1 24 be
       -0.23878588 0.062234163 0.9182283 -0.16083436
000380 01 3d 6b be 6e 63 7d be a9 db f0 3c d4 f3 91 3e
       -0.2297249 -0.2474496 0.029401617 0.2850634
000390 80 79 9b be 53 54 33 3e 53 4c 09 3f ec 94 24 3e
       -0.30366135 0.17512636 0.53632087 0.16072434
0003a0 66 b6 a3 3d 36 2d 51 be 37 0e df be 40 be 3a be
       0.07993774 -0.20427403 -0.43565533 -0.18236637
0003b0 31 87 84 3d 8c f2 db 3e 43 5a 47 3e 13 1c 2f be
       0.06471098 0.42958486 0.19468026 -0.17100553
0003c0 19 8b 86 3e eb 95 da 3e f1 5e 97 3e 98 ef 09 3e
       0.26277998 0.42692503 0.29564622 0.13470304
0003d0 8c ad d1 be 9d a7 20 3e a1 f7 d1 3c 6b c0 ed be
       -0.40952718 0.1568894 0.025630774 -0.46435866
0003e0 e9 ba 16 bf 6b 55 88 be 1c a4 c6 bd 8d 65 9d 3d
       -0.5887895 -0.2662767 -0.0969927 0.07685385
0003f0 75 47 46 bf ad 3f 50 be 6c dd 04 bf ed e9 91 bd
       -0.77452785 -0.2033679 -0.5190036 -0.07124696

network_body._body_endoder.seq_layers.0.bias f4 [128]
000000 6d e8 82 3c 70 3d 59 bd e7 20 d6 bc e8 1e 48 3d
       0.01597997 -0.053037107 -0.026138736 0.0488576
000010 46 af b9 bd 4a c0 81 3d 9e fb 68 bd 8c ce 5c bd
       -0.09066634 0.06335504 -0.056880586 -0.053907916
000020 b1 1e 68 bd c3 6b 5a bd 13 49 bc bb fc aa 14 3d
       -0.056669895 -0.053325426 -0.005746016 0.036295876
000030 8d ef 55 3d 56 46 be bd cf 34 f4 bc f3 8f f7 bc
       0.052230407 -0.09290759 -0.029810337 -0.030220008
000040 06 5a 72 3d 25 09 69 bd 90 55 06 bd 41 3d 1d 3d
       0.059167884 -0.056893487 -0.032796443 0.038388494
000050 4c 8c 95 bd 64 39 53 bc c5 45 54 bd 0b 82 d6 bd
       -0.0730215 -0.012892101 -0.05182435 -0.104740225
000060 67 49 d6 bb 24 5c 09 bd c4 11 63 bd 14 d2 20 3d
       -0.006539512 -0.033535138 -0.055436864 0.039262846
000070 fc a6 bb bd 3a ab 30 bd 86 c4 e2 3b d4 9e 29 bd
       -0.09162709 -0.043132044 0.0069204 -0.041411236
000080 39 1c cc bc 1c 92 23 bd 56 40 03 3e 54 71 49 bd
       -0.024915801 -0.039934263 0.12817511 -0.049180344
000090 39 c2 22 bc be 4a cc bd 9a 53 1a 3c f5 75 81 bd
       -0.009934002 -0.099751934 0.009419346 -0.06321327
0000a0 4a f1 50 bd e4 0e 67 be 0a 27 55 3d 0d 5d 39 bd
       -0.05101136 -0.22564274 0.052039184 -0.045254756
0000b0 eb 38 dc bd db dd 96 bd a1 b9 ff bc e6 99 23 bc
       -0.10753044 -0.07366534 -0.031216444 -0.009985423
0000c0 ae 3b 34 3d 26 3c 97 3d 46 c0 5f bd b2 5b 16 3d
       0.044002227 0.07384519 -0.054626726 0.03670854
0000d0 db ba 36 3d 1d 05 80 bd c3 9d b5 bc 3c 31 54 bc
       0.044611793 -0.06250975 -0.022169953 -0.0129511915
0000e0 2e 9f 7c 3c 30 f2 be bd 50 a5 9a 3d 98 7f 2d ba
       0.015418811 -0.09323537 0.07551062 -0.0006618439
0000f0 d7 77 bf bd 65 3f 09 bd 9d e1 8b 3d d2 f2 be 3d
       -0.093490295 -0.033507723 0.06830142 0.09323658
000100 0f 90 d0 bd 1b cd 00 3e 8a 36 74 bd 26 9f 11 bd
       -0.10183727 0.12578242 -0.059622325 -0.035552166
000110 5c fd e7 bc d9 44 a1 bd 75 f2 d9 bd 01 b2 a6 bc
       -0.028319053 -0.0787446 -0.10641948 -0.02034855
000120 f2 86 a9 bd 5e f4 48 bd 27 ce aa 3d d3 cc 99 3b
       -0.08277692 -0.04906117 0.08340102 0.0046936064
000130 12 93 36 bd c9 d5 b1 bd df 64 0c bd f4 25 ae bd
       -0.04457385 -0.086833544 -0.034275886 -0.08503333
000140 7d 96 03 bd e5 59 56 3d 3c 43 79 3d 26 3f f7 3c
       -0.03212594 0.052331824 0.060855135 0.030181479
000150 ae cf e2 3c 79 4e aa 3d bf 88 29 bd 9a 2b 95 bb
       0.02768692 0.08315749 -0.041390177 -0.004552317
000160 8b bf 92 3d ff db a5 bd 52 f1 35 3e a8 cb 3c bd
       0.0716544 -0.080986015 0.17767838 -0.04609266
000170 23 b6 99 3d cb 14 d3 bc 2e c9 98 3c 3d 9a b3 bd
       0.07505443 -0.02576675 0.018650617 -0.08769653
000180 54 55 e9 bd 8e 5a 88 bc bc 02 0c bd bd 74 51 bd
       -0.11393228 -0.016644742 -0.034182295 -0.05113672
000190 2f 74 bc bd ed 8c 06 bd 4e 9f 41 bd 0d 86 98 bd
       -0.09201848 -0.03284924 -0.047271065 -0.07447443
0001a0 cd 79 62 bd ba c4 0e 3d b7 73 e5 bd e3 b0 45 3d
       -0.05529194 0.03485558 -0.112037115 0.048264395
0001b0 32 18 ba bd 88 6b 0a bd 8e 64 8c 3d 0a 67 53 3c
       -0.09086646 -0.033793956 0.06855117 0.012902984
0001c0 c9 f4 39 bd d7 a1 06 bd 10 46 88 bc 64 ac 36 3d
       -0.04539946 -0.032869186 -0.01663497 0.044598
0001d0 8a 28 cb 3d 7b 20 94 bd 0c a0 83 bd 60 ca 14 bc
       0.099198416 -0.07232758 -0.06427011 -0.009081453
0001e0 bf 6a 85 3d 1e 56 8b bd 54 1c 18 be 9c 15 1a be
       0.06514501 -0.06803535 -0.14854556 -0.15047306
0001f0 28 ed 16 bd 96 96 0f 3d a3 8e 8a bd f2 fb 8b 3c
       -0.036847264 0.03505572 -0.06765487 0.01708791

network_body._body_endoder.seq_layers.2.weight f4 [128, 128]
000000 a0 1e 17 3e e3 e1 94 bc 1d 74 bb 3d 81 8b 1a be
       0.14757776 -0.018174117 0.09153006 -0.15092279
000010 73 f6 a1 bd 65 e0 ec bd c3 a1 61 bb 0b 53 0e bc
       -0.079083346 -0.11566237 -0.0034428693 -0.008686791
000020 52 e3 71 bd 6a aa 42 3d df a2 d4 3c ed 9f 3c 3e
       -0.05905468 0.0475258 0.02595657 0.18420382
000030 38 35 ca bc bc 38 54 bc 9f fd 11 3c 63 8f 83 3d
       -0.02468358 -0.01295298 0.008910566 0.06423833
000040 a5 0d cf bd d8 c0 01 bc 5a ee ca bd 50 91 d4 bd
       -0.10110024 -0.007919513 -0.09908743 -0.10379279
000050 4b 5e fc bc f2 76 9a 3c 2b b9 85 bd cf 00 7f bd
       -0.030806681 0.018855546 -0.065294586 -0.06225663
000060 17 6b 69 3e 9d 9f 23 3d 4d c2 cf 3d 70 21 18 3e
       0.22794758 0.03994714 0.10144482 0.14856505
000070 bd 95 07 3e 1e ec 73 bd a7 98 c4 3c 25 fc de bd
       0.13240714 -0.05955135 0.023998572 -0.108879365
000080 ba e1 7f bd 85 5b 01 3d 7e 3a 8c 3e ab 13 cc 3d
       -0.06247113 0.03158142 0.27388376 0.09964689
000090 a9 6b f6 3d bb 87 45 3c 40 5d 8a bd f2 ac 0e bd
       0.12032253 0.012056286 -0.06756067 -0.034832902
0000a0 85 cc 87 bc 01 76 53 3d 0a e1 be 3d 04 4a b9 bb
       -0.016577015 0.05162621 0.093202665 -0.0056545753
0000b0 b8 a7 17 bd 14 94 d4 bd 64 a1 d0 3d d0 44 10 be
       -0.037025183 -0.10379806 0.10187033 -0.1408875
0000c0 34 7c 23 3e 8e 0b 1c bd f1 4a 51 3d cf 68 1c be
       0.15965348 -0.038096957 0.05109686 -0.15274356
0000d0 26 2d 12 bd ae 64 e0 bd e5 7a 2e bd ec ba 03 be
       -0.03568759 -0.10956703 -0.04259767 -0.12864274
0000e0 9d 96 94 bd d3 c2 1d bd 83 1f 26 be eb 8e 17 3e
       -0.0725529 -0.038515877 -0.16222958 0.14800613
0000f0 72 10 06 be 32 f5 15 3d 62 80 43 3c 13 a1 1d 3d
       -0.13092211 0.03661079 0.011932464 0.03848369
000100 84 37 35 bd 93 a0 ab bd ae d0 b3 bb c9 84 33 3e
       -0.044242397 -0.083802365 -0.005487523 0.17531122
000110 3c aa cc bd 1d 2f 93 bd 59 a3 f0 bc 4b 4f 66 bb
       -0.09993407 -0.071867205 -0.029374765 -0.0035142477
000120 2d 0a 1d be f9 25 1a 3e 34 3d 71 be 06 c9 d1 bc
       -0.15335913 0.15053548 -0.23558503 -0.02560855
000130 ec 4d 48 3c 1d be eb bd 57 f8 13 3d 2b 64 ba bb
       0.012225609 -0.115108706 0.036125507 -0.0056882105
000140 21 82 4b 3d 98 52 1f be 97 4b 8d bc 83 df 1f bd
       0.049684647 -0.15558851 -0.017247958 -0.039031517
000150 f4 d1 55 be eb b9 f7 bd 76 87 89 3c d8 65 b1 3d
       -0.20880872 -0.12096008 0.016788226 0.08662003
000160 b6 dd fb bc 6a e0 fc 3c ba 8f 14 be 45 1a 92 3d
       -0.030745368 0.030868728 -0.14507952 0.07133917
000170 19 cd 5a 3e bb 3e 9c bd 36 ee 5a 3d 0f 75 d1 bb
       0.21367301 -0.076291524 0.053449832 -0.0063921283
000180 43 36 6c 3c 5b 21 ea 3d 2c 2a 0d be d4 94 14 bc
       0.014417234 0.11432143 -0.13785619 -0.0090686865
000190 fc 55 21 bd 1f 9d 20 3e 0e 8d 48 3e ed e0 2c 3d
       -0.03938864 0.15684937 0.19585058 0.042206693
0001a0 ba e7 b7 bd 74 4c e8 bd c8 3f 83 bd 0f 6d 8c 3e
       -0.08979745 -0.11342707 -0.0640865 0.27426955
0001b0 6f 40 e2 3d d2 ca 01 3e 77 a9 21 3e 85 a1 87 3d
       0.11047446 0.12675026 0.15787302 0.06622604
0001c0 5d 58 ed bd 1c 16 1a 3e 93 41 09 3e d2 e3 93 3d
       -0.115891196 0.15047497 0.13403921 0.07221188
0001d0 5b 6f 12 3e 5f bd 5e bd 10 e7 b0 3d d0 35 1c be
       0.14300291 -0.054379817 0.08637822 -0.15254903
0001e0 69 9c 6e bd 1b 6d 94 bc cb 38 f6 3d a6 db a4 bd
       -0.058254633 -0.018118432 0.12022551 -0.08049707
0001f0 e7 b6 ff 3c dd f7 53 3d 8c c1 4a bd 9a a9 8f 3d
       0.031215144 0.051750053 -0.049500987 0.07014771
000200 49 b4 b2 3d dc c0 c1 bd 82 6f e3 3d 99 f9 9d bd
       0.08725793 -0.09460613 0.11105253 -0.077136226
000210 19 46 f9 bb 22 08 e8 39 1e a3 b8 3c e3 f6 84 be
       -0.0076072332 0.00044256548 0.022538718 -0.2596961
000220 18 d4 cf bb c3 60 c9 bc c1 0b 6e be d5 30 01 bd
       -0.006342422 -0.024582272 -0.23246671 -0.03154071
000230 92 af a3 bd 0e 8c 8c 3d 88 d8 0b 3d 5c 0a fc bd
       -0.07992472 0.06862651 0.034142047 -0.123066634
000240 ca 3f 00 3e cd c6 03 3e e4 cc 1d 3e 06 70 e3 bd
       0.12524334 0.12868805 0.15410191 -0.11105351
000250 31 09 8f 3c e4 8f 26 bd c5 04 83 bc b4 c5 ab 3c
       0.017460437 -0.04066457 -0.015993485 0.020968296
000260 9f 81 d0 bd f9 9e fb 3c 13 49 7e bd a8 a1 0c 3c
       -0.10180973 0.030715453 -0.062081408 0.008583464
000270 5d 7c 9e 3c 0a ad 13 be 8d 32 f7 bc 22 3d 86 3d
       0.01934641 -0.14421478 -0.030175472 0.06554629
000280 4d de 2b be 76 ca 06 bd 7d 13 9b 3c 3d 06 d2 bc
       -0.1678402 -0.032907926 0.018930191 -0.02563774
000290 de ed 33 bd 60 32 5f 3a 7d af b9 bc 5a 06 09 3e
       -0.04392802 0.00085142814 -0.022666687 0.13381329
0002a0 e1 14 cc 3d 26 86 fa 3a 20 8d 7a bd 99 fc a7 bd
       0.0996492 0.0019113466 -0.061169744 -0.08202476
0002b0 4d 2a b5 bd 51 0e 28 3e f0 ca 86 3c b2 1f 0d 3d
       -0.08845959 0.16411711 0.01645419 0.034454055
0002c0 6e e7 5b bd 8f 76 81 bd 9c 11 dd bd d1 01 b3 3b
       -0.053687505 -0.063214414 -0.10794374 0.005462863
0002d0 d0 1d 00 3d d8 cf ea bd 44 1c 3b bd da 42 83 3c
       0.03127843 -0.11465424 -0.045681253 0.016023088
0002e0 f0 b2 8d 3d c4 09 09 be 81 57 7c bd 80 70 89 bc
       0.06918895 -0.13382632 -0.061606888 -0.016777277
0002f0 a0 2d 72 3d 44 40 b9 3d a6 41 07 bd 78 86 fc bd
       0.059125543 0.09045461 -0.03302159 -0.123303354
000300 bb 05 a9 3d 95 32 d2 3b fc 97 4d bb 49 83 9a 3d
       0.08253046 0.0064147213 -0.0031371107 0.07544572
000310 85 d4 42 3c 60 06 92 bc dc 26 bc bd bb 46 f3 bc
       0.011891489 -0.017825305 -0.09187099 -0.029696813
000320 a7 63 ae 3d e2 46 aa bb 81 3d 8a bd e5 6c 55 3c
       0.08515101 -0.005196438 -0.06750012 0.013026451
000330 2e 5f cb 3d b5 b1 5d bd 01 12 6f 3c 7b 44 ee 3b
       0.099302635 -0.054124553 0.014591695 0.007271347
000340 81 99 62 bb e2 44 f1 3d 5f e1 d5 3c 69 d7 1f 3e
       -0.0034576359 0.117807165 0.026108442 0.15609516
000350 f9 d5 3b bc 00 dc 91 bd c3 8d 0f bd a7 de f4 bd
       -0.011464589 -0.0712204 -0.035047304 -0.1195653
000360 9f 72 5c 3d ec a5 79 bd bb a6 f3 bd a5 48 d4 3d
       0.05382025 -0.06094925 -0.11897036 0.10365418
000370 ee 83 aa bc 0f b0 b4 bd f3 57 c5 bc 4e 02 17 be
       -0.020814862 -0.08822643 -0.024089789 -0.14746973
000380 1e 02 ac 3d e9 17 0b bb 68 08 30 3d bc 5c 5e 3d
       0.08398841 -0.0021223968 0.042976767 0.054287657
000390 d1 bf ad 3d c6 fa a4 3d b2 eb d7 bd 81 4c 0f 3e
       0.08483852 0.08055644 -0.10543002 0.13994028
0003a0 06 9a bd bd 5d 4f 43 bd 56 87 bc 3d d2 ce 0d 3d
       -0.09257893 -0.04768311 0.09205501 0.034621067
0003b0 77 3c 0a 3d 41 36 06 3e 7c ee fa 3d 79 31 a1 3d
       0.03374907 0.13106634 0.122525185 0.07870764
0003c0 78 56 a1 ba 68 96 ad 3d c0 80 57 3d aa f7 23 be
       -0.0012309095 0.08475953 0.05261302 -0.16012445
0003d0 da b6 0d 3d 8e cb f3 bb 2c 87 22 be f5 e9 ab bd
       0.03459821 -0.007440037 -0.15871876 -0.08394233
0003e0 58 4a 34 3d 92 a9 2b be e1 f8 1f 3c a3 7b 83 3d
       0.044016212 -0.16763905 0.009763927 0.06420066
0003f0 cf a9 06 3e 40 6e 4a be 0d c7 56 be aa 56 a1 3d
       0.13150714 -0.1976862 -0.2097437 0.07877858

network_body._body_endoder.seq_layers.2.bias f4 [128]
000000 84 72 d2 bc ff 15 5b bc 7c f8 bb bc 0a 9c 47 bb
       -0.02568937 -0.0133719435 -0.022945635 -0.0030457997
000010 19 f8 d1 bc bc 06 08 bd b4 b1 2c bc 71 68 a4 3b
       -0.025630997 -0.033209547 -0.010540415 0.005017333
000020 00 85 f3 bc 8b 51 7b 3a 19 33 d1 3c 78 11 fa bb
       -0.029726505 0.0009587041 0.02553706 -0.007631477
000030 ff 77 d6 bb e4 bc d6 37 dd 80 3e bb 15 e4 4e 3c
       -0.0065450664 2.5598747e-05 -0.0029068508 0.012627621
000040 92 5f e5 bc aa c1 27 bd 9e c6 66 3c fe 5d 57 ba
       -0.027999673 -0.040956177 0.01408544 -0.0008215605
000050 b2 cb 64 bd e1 01 19 3b f7 c7 01 3c f4 0b 21 bc
       -0.05585832 0.0023347067 0.0079212105 -0.00982951
000060 6a 3c b1 3c c6 65 b2 3c 6b 9e 4a 3b 5a 5b cf bc
       0.021635253 0.021777045 0.0030917178 -0.025312115
000070 e7 53 84 3c 4c 3c c5 3c 87 8c 19 bd 7a c2 7f bc
       0.016153289 0.024076603 -0.037487533 -0.015610332
000080 c7 b6 2b 3c 0b 6c a5 3c 25 d4 89 bc 4f 83 e8 bc
       0.010480589 0.02019312 -0.016824791 -0.028382925
000090 3d 48 ec bc 92 13 3b bd 2a 1b 84 3c 73 55 6d ba
       -0.02884304 -0.04567296 0.016126234 -0.00090535654
0000a0 1b 72 b9 bc 61 a1 49 bb 2e e2 27 bd 6d 6d 25 bd
       -0.022637418 -0.0030766355 -0.040987186 -0.04038756
0000b0 8f 58 98 bc 0a e3 67 bd 9c ea c1 bc 95 84 83 3c
       -0.018596916 -0.056613006 -0.02367144 0.016054431
0000c0 7a 02 4e 3d 43 5f 22 3c 9e be eb bc e4 18 dd bc
       0.05029533 0.0099104075 -0.028777417 -0.026989408
0000d0 d1 ce 07 b9 fa b4 30 3c 9b 84 ac bd 83 ed 5b 3d
       -0.00012951648 0.010785336 -0.0842373 0.053693306
0000e0 95 66 c1 bb 3a 4f 39 bd d3 e4 9e bc 34 83 25 3c
       -0.0059021213 -0.045241572 -0.019396221 0.010102082
0000f0 ce 8e 76 3c 33 de 64 3c 72 49 8e 3b 16 28 d6 3c
       0.015048696 0.013968992 0.0043422515 0.026142161
000100 f4 fe 1e bc 33 d4 6e bb 31 4b 27 bd 41 f9 b8 bb
       -0.00970434 -0.0036442399 -0.040843192 -0.0056449478
000110 7f e0 93 bc 09 ba 20 bc 80 bf 6e bd 46 97 50 bc
       -0.018051384 -0.009809979 -0.058288097 -0.012731379
000120 40 b3 3e 3c bf 11 e8 3b e6 a0 f4 bb 4d e7 91 3c
       0.011639416 0.0070821936 -0.0074654697 0.017810488
000130 6e c6 5d ba 94 7a 1b 3c b1 c7 66 bc 2e 69 d1 3a
       -0.0008460049 0.009489674 -0.014085696 0.001597678
000140 d9 08 d3 bc 50 ff d7 bc ed 73 34 3c 06 87 8b 3b
       -0.025761055 -0.02636686 0.011013967 0.0042580394
000150 2c cc 68 3c 46 ba d8 bc 0e 67 07 bd 74 eb f5 3c
       0.014208835 -0.02645601 -0.033057265 0.0300195
000160 6d 7a 28 bc b1 9b c4 3b fb 26 d0 3c 37 40 93 bc
       -0.010283095 0.006000005 0.025409212 -0.017974956
000170 6f 36 c1 3c 2e c2 87 3d 43 01 d0 bc 8d 64 5a 3d
       0.023585526 0.06628834 -0.025391227 0.05331855
000180 55 17 64 bc 59 86 43 bc ca 94 c1 3c 45 b4 08 3c
       -0.013921578 -0.011933886 0.023630518 0.008343761
000190 73 14 de bc 7a e1 f2 bb 63 d1 9c bc 93 fe 9c 3b
       -0.02710936 -0.007412133 -0.019142812 0.00479109
0001a0 db b3 06 3d f6 ce 80 bb 69 21 a7 3d 62 66 ec bc
       0.032886367 -0.0039309217 0.08160669 -0.028857414
0001b0 6f 71 44 bc 79 d7 80 bd 32 4e 35 bb 21 03 a0 3c
       -0.011989935 -0.06291098 -0.0027665016 0.019532742
0001c0 8c d9 15 3a 35 29 ea bc 96 f5 c1 ba 78 2e 84 3c
       0.0005716316 -0.028584102 -0.0014797922 0.01613544
0001d0 71 1b 93 3c 4d 24 ad 3b ce a9 1b 3c 20 4d 9e 3c
       0.017957421 0.0052838684 0.009500934 0.019323885
0001e0 b6 47 f8 bc ad e3 31 3d 4e db b5 bc 53 8d cd 3c
       -0.030307632 0.04343002 -0.0221993 0.025091803
0001f0 da de a6 3c 3b 43 59 bd 78 11 e1 3c 80 14 53 bd
       0.020369936 -0.05304263 0.02747415 -0.051533222

action_model._continuous_distribution.log_sigma f4 [1, 2]
000000 8e db 89 be 13 82 97 be
       -0.2692532 -0.29591426

action_model._continuous_distribution.mu.weight f4 [2, 128]
000000 31 07 c1 3c 06 6e 44 bd 60 0e 78 bd b4 2d bd 3c
       0.023563 -0.04795649 -0.060560584 0.023093082
000010 0a 47 7b 3d 66 13 17 bc f6 0d 2a 3c fb 8b 07 bd
       0.061347045 -0.009220934 0.010379305 -0.03309248
000020 fc 89 dc bc 28 59 dc 3c 93 7a 44 bd 82 a3 05 3d
       -0.026921265 0.026897982 -0.04796846 0.032626636
000030 4e f6 21 bc 55 37 b3 bc 51 89 26 3d 5e fd a6 3b
       -0.009885384 -0.02187697 0.0406583 0.0050961217
000040 fe e5 43 bb af 3b b0 bc b2 61 88 bd 43 da 55 bd
       -0.0029891725 -0.021512834 -0.06659259 -0.052210104
000050 03 49 2f bd 54 2c 3b bd b3 20 4c bd 77 08 98 3b
       -0.04279424 -0.04569657 -0.049835872 0.004639681
000060 75 18 65 3c a0 cd 82 bb ea a0 40 3d 0f e3 a0 3c
       0.013982882 -0.0039917976 0.04702846 0.01963952
000070 5e ab f9 3c c3 45 03 3d c6 a6 06 3d 18 ee 6e bc
       0.030477222 0.03204895 0.03287389 -0.014583133
000080 c0 1c f8 3c ac 51 fc 3c 72 db 3c bd 41 ca 43 3c
       0.030287147 0.030800663 -0.046107717 0.011950077
000090 d4 a5 d3 bc c8 9c 14 3c 0e 85 b4 3b 70 2e d8 3c
       -0.025835909 0.009070583 0.0055090254 0.02638933
0000a0 8b 9c 1a 3d 80 73 32 3d 6a 3e d9 3c 0f 66 1d bd
       0.037746947 0.04356718 0.02651902 -0.03842741
0000b0 49 7f 46 3d e9 5a 0f 3d c7 6d ce bc 42 78 34 3d
       0.048461232 0.034998808 -0.02519883 0.04406
0000c0 3a f9 89 3c b8 45 a4 3c 45 71 25 3c c5 dd 6c bd
       0.016842473 0.020052776 0.010097806 -0.057828683
0000d0 8d 1d 0f bd f9 e0 83 3d 01 3e c0 bc 96 2e a1 3c
       -0.03494029 0.064393945 -0.023467066 0.019675534
0000e0 25 2b 10 3d fe 10 3b bd 06 43 72 3c ac 27 2d 3c
       0.035197396 -0.045670502 0.014786487 0.010568541
0000f0 bf 60 5d bc 28 55 94 bc e2 5a 84 3d 2a 0c 38 bd
       -0.013511836 -0.018107012 0.06462647 -0.044933476
000100 1f d2 38 bd d9 ec b6 3d 85 13 87 3b 6f 31 32 3d
       -0.045122262 0.08931894 0.0041222 0.043504175
000110 ad 8a f6 ba 88 fd 9b 38 33 63 c3 bc 3b ca 03 bd
       -0.0018809639 7.4382e-05 -0.023851013 -0.032175284
000120 6d 49 42 3d b1 be 54 3d 97 36 7c 3d df f7 6c 3c
       0.047433306 0.05193967 0.0615755 0.014463394
000130 bc 03 19 bc 94 a9 47 3d ee 08 05 bd 72 bd e1 3c
       -0.009339269 0.048745707 -0.03247922 0.027556155
000140 20 2a 9d bc 64 11 cd 3c 24 4d 40 3c 9d c7 07 bd
       -0.019185126 0.025032707 0.011737142 -0.03314935
000150 a2 c0 a5 bc c2 55 b6 3d f0 47 a3 bc 4c 12 5f 3d
       -0.020233456 0.08903076 -0.019931763 0.05446081
000160 8c c9 ba bb 42 04 93 bc 2a 4d 28 bd d7 ac 44 3c
       -0.005700296 -0.017946366 -0.041089214 0.012004099
000170 98 ea af 3c 57 0d 04 bd 5a 91 82 bd bc b4 2e 3d
       0.021474168 -0.032239284 -0.0637538 0.04265283
000180 2a 6c ae 3c 16 dc e7 bc 59 e3 1b bd e7 89 27 bd
       0.021291811 -0.028303187 -0.038058612 -0.040903
000190 06 52 a8 3b 3c e4 6f bd f5 b9 5b 3c ff 10 e5 3c
       0.005136731 -0.05856727 0.013411035 0.027962206
0001a0 c2 9f 0a bd 80 14 41 bd 66 ad 3e 3d 3d 06 a0 3c
       -0.033843763 -0.04713869 0.046552084 0.019534225
0001b0 7b 19 b4 bb 02 38 0a 3d ce b2 a7 bd 66 ee e2 3d
       -0.0054962016 0.03374482 -0.08188401 0.11080627
0001c0 bd e6 02 3b 5b 6b 19 bd 9d 1a 49 bd 2d 82 6c 3d
       0.0019973957 -0.037455898 -0.049097646 0.057741333
0001d0 e6 4e 88 bd d6 67 97 bc ae e7 5d 3d 46 ad 21 bd
       -0.06655674 -0.01848213 0.054176025 -0.039471887
0001e0 56 64 cb bc 05 4f da 3c 61 e0 b9 bc 8e 1e c8 bc
       -0.024828117 0.026649008 -0.02269 -0.024428632
0001f0 fc b8 fb 3c 1b 05 47 3c 37 df 07 3d 39 2f 71 3d
       0.030727856 0.012147213 0.03317186 0.058882926
000200 63 0e 09 bb 37 67 e6 bb 3d b2 ec 3b 4f 24 b7 3a
       -0.0020913116 -0.007031347 0.007223396 0.0013972613
000210 85 e6 14 3b 18 38 40 3c 08 c3 ff 3b e1 c9 0f bc
       0.0022720408 0.011732124 0.007805232 -0.008776159
000220 ed 4f 3a bd bb 49 42 3c aa aa 6c bc e1 4e 5a 3d
       -0.04548638 0.011858399 -0.014444986 0.05329788
000230 44 e5 d8 bc c8 95 29 3c 75 f1 8f bb 57 59 0e bb
       -0.02647651 0.010350652 -0.0043927976 -0.0021720731
000240 53 65 9c bb 68 16 7a bd d6 f8 14 3d 56 b3 64 3d
       -0.004772821 -0.061056525 0.03637012 0.05583509
000250 34 87 a1 3a 5a 6d 07 3c bc 7f 8d bc 58 39 e2 3a
       0.0012323619 0.008265818 -0.017272823 0.0017259521
000260 ef 56 40 3c d9 66 93 3b 14 71 41 bd 16 ea 17 3c
       0.011739477 0.0044983444 -0.04722698 0.009272119
000270 38 12 1a 3b 9d f1 27 3c b7 0f 7b 3a f1 82 66 bb
       0.0023509394 0.010250476 0.0009577232 -0.0035173262
000280 10 76 1a 3d 77 12 34 bd 85 ec 1c bd 61 94 4e bb
       0.03771025 -0.043962922 -0.0383115 -0.0031521546
000290 b2 ff 84 3c a1 c6 46 bd 2a 3a 75 3c 12 91 cc b9
       0.016235206 -0.04852927 0.014967481 -0.00039017998
0002a0 8d ac 52 3c a7 a4 e2 3c 97 d4 a9 3b b7 17 b1 3c
       0.012858522 0.027666403 0.0051828134 0.021617753
0002b0 fb 01 00 3d aa 6b e2 b8 45 42 15 3c a4 f0 b9 ba
       0.03125189 -0.00010796574 0.009110038 -0.0014186096
0002c0 49 ae b6 3b d0 08 eb 3b 30 6d e1 3b e2 19 74 3c
       0.0055749756 0.0071726814 0.0068794712 0.014898749
0002d0 7c 28 25 bd 36 a6 a4 bc d6 c4 2a 3c b0 36 ef 3b
       -0.040321812 -0.020098787 0.010422906 0.0073002204
0002e0 da 51 a7 3c 53 2b 0c bc 03 30 c6 3c e3 14 25 bc
       0.020424772 -0.008555251 0.024192816 -0.010075781
0002f0 2b ac 57 bc a2 45 2b bc b6 0e 2a 3c d1 1b 61 3b
       -0.013163607 -0.0104536135 0.010379484 0.0034348855
000300 0e 38 d7 3c f3 02 ca bc 34 61 46 3c c6 3e ad 3c
       0.026271846 -0.02465961 0.012108136 0.021148097
000310 bc 1d 20 3b fe 4a 47 3b 0a ba d1 3b a9 f0 9a 3c
       0.0024431786 0.003040969 0.0064003514 0.018913584
000320 7e 12 ae 3d c0 d2 67 bb e3 9e aa bb e7 f7 f5 3b
       0.08499621 -0.003537342 -0.005206929 0.007506359
000330 66 52 17 3c 89 27 5e 3d 64 12 2e bc 72 f6 46 3c
       0.009235954 0.054236922 -0.010624502 0.012143718
000340 eb 22 31 3d e9 49 e4 bc 49 ce 43 bc ed ae 89 bc
       0.04324619 -0.027867274 -0.011951038 -0.016807044
000350 30 66 e1 bb c5 aa 15 3c c4 78 30 bc 2c 00 bf bc
       -0.006878637 0.009134953 -0.01077098 -0.023315512
000360 63 8d 0b bb 65 f0 68 bb a8 57 c2 3c 2e 16 58 3c
       -0.002129399 -0.0035543677 0.023723438 0.013188882
000370 1d 80 86 3c ce c9 bc 3a 42 23 4d bd ce 02 0b 3c
       0.016418511 0.0014403404 -0.050082453 0.008484555
000380 a9 4a 49 3c be fc 6a bd 00 b8 07 bc b3 4e 38 3c
       0.012285867 -0.05736994 -0.008283615 0.011249232
000390 2f 21 ac 3d 91 da 0f bd 14 ce bd 3c d7 f7 3b bb
       0.08404767 -0.03512055 0.023169555 -0.002868166
0003a0 f4 92 1b 3c 9c c7 12 bc 43 87 9f bd fc b6 a0 3b
       0.009495486 -0.008958723 -0.07789471 0.004904626
0003b0 ab 2d f4 bc 09 9f 46 3d 9e 3b 78 bd 8b 52 6a bc
       -0.029806932 0.04849151 -0.06060373 -0.014301906
0003c0 31 19 41 bc 0e 4d 51 ba 85 55 14 3d 0e 53 04 3d
       -0.011785791 -0.00079841993 0.03621437 0.03230577
0003d0 2e 01 1d bb df fc a3 3c cb be 8a bc 7a 5b e3 3c
       -0.0023957002 0.02001804 -0.01693668 0.02775358
0003e0 e4 66 23 bc 77 28 8a 3d 84 13 37 b9 9f b1 8d bb
       -0.0099732615 0.06745999 -0.0001745951 -0.0043241526
0003f0 18 36 00 3c 2f d1 36 3c 02 55 b9 3b e3 ec 16 bd
       0.007825397 0.011158272 0.0056558857 -0.036847007

action_model._continuous_distribution.mu.bias f4 [2]
000000 f6 84 57 3c 36 41 62 3c
       0.013154259 0.013809493

action_model._discrete_distribution.branches.0.weight f4 [1, 128]
000000 cb 1d 82 bb f2 c7 d7 3b 76 c5 c1 3a f3 3e a7 b9
       -0.0039708368 0.0065851146 0.0014783579 -0.00031899623
000010 47 d5 a7 bb fa 82 17 bc 2d fa be bb c7 fe 40 bc
       -0.00512186 -0.009247536 -0.005828163 -0.011779494
000020 60 76 e0 3b f7 02 90 bb 02 c8 ef ba 11 35 89 b8
       0.006850049 -0.0043948847 -0.001829386 -6.5425535e-05
000030 8b 29 92 3a bf aa df ba b8 9f 2a bc d7 51 02 3c
       0.0011151297 -0.0017064436 -0.0104140565 0.007954082
000040 7d 05 aa 3c c6 14 4a bc 0f 99 87 ba d7 dc d3 3b
       0.02075457 -0.012334054 -0.0010345298 0.006465535
000050 83 38 4a 3c b4 f1 25 bc b0 44 cd 3b a8 63 de bb
       0.012342575 -0.010128427 0.0062642917 -0.0067867823
000060 df ec ca 39 d2 42 6e bc 83 2b 0e 39 4f 71 14 bc
       0.00038704925 -0.014542298 0.00013558385 -0.009060218
000070 5c f4 9e bb 7f f9 2b 3c d7 75 1a bb b7 a7 67 3c
       -0.0048509073 0.010496496 -0.0023568773 0.014139107
000080 cb f6 9f bb b7 90 ee bb 87 11 8c bb ab f1 cf ba
       -0.004881715 -0.007280435 -0.0042745504 -0.0015864869
000090 e5 23 ce 3b 87 4a 15 bc 3f d9 a7 3b 83 07 31 3c
       0.0062909 -0.009112007 0.0051223333 0.010805014
0000a0 bb 82 39 bb 92 8b 7b bb af a0 03 bc a7 a6 ea 3b
       -0.0028306681 -0.003838275 -0.008033915 0.00716098
0000b0 f3 f3 6f 3b af 06 c9 bb f3 1f c6 3a 03 bd 8a bc
       0.003661391 -0.00613483 0.0015115723 -0.016935831
0000c0 2a cd 76 3c 56 90 0c bc 10 99 29 bc c5 ee b4 3b
       0.015063563 -0.008579334 -0.010351434 0.0055216276
0000d0 a3 c1 d5 3b e3 ad 17 3c 08 eb da ba 58 ab b6 3c
       0.0065233274 0.009257766 -0.0016702125 0.0222985
0000e0 b9 5b ad bc 70 bc 52 ba 2a ff 3f 3c b5 3a 07 3b
       -0.0211619 -0.00080389436 0.011718551 0.0020634357
0000f0 06 98 26 bc 15 91 ca bb 2d ca ee b9 d7 34 63 bc
       -0.010168081 -0.006181846 -0.0004554553 -0.0138675785
000100 5e 9c 3e bc eb 52 93 3b 2e ca 2b bb 2a 27 0d 3b
       -0.0116339605 0.0044959686 -0.0026213038 0.0021538236
000110 cb 1a c0 bb 54 65 b1 bb d1 65 05 bc 57 09 fd 3a
       -0.005862569 -0.0054136906 -0.008141951 0.0019305152
000120 f2 b8 07 bc 07 fe 15 bc e4 28 18 3c 35 5f 3f 3c
       -0.0082838405 -0.009154803 0.009287093 0.011680414
000130 4f 5b af 3b 2b d7 b6 bb 5b 28 90 3b 9b bc 84 3c
       0.005351461 -0.0055798492 0.004399342 0.016203215
000140 7e bf 0c 3c af b4 a0 39 bf fa 3c 3c 60 6e 23 3c
       0.008590577 0.00030652198 0.011534392 0.009975046
000150 4c 8b be ba 11 e2 3c 39 10 bd e8 3b 15 6f 54 3b
       -0.0014537363 0.00018013293 0.007102616 0.0032414843
000160 57 3a 3d 3c ba 16 b4 3b 7a 85 aa bb a4 84 0c bb
       0.011549554 0.0054958733 -0.0052039 -0.0021441365
000170 cc 55 b2 bb d7 d0 8d 3b f0 93 cf 3b 38 dd 1d 3c
       -0.0054423567 0.004327874 0.006334774 0.009635262
000180 87 36 14 3b 66 82 2d bc da 62 12 3c 28 47 b7 3b
       0.0022615509 -0.010590171 0.008934701 0.0055931993
000190 16 b1 08 3c 55 b8 3e 3c a9 b6 1b 3b ca ba 52 bc
       0.008343002 0.011640628 0.0023759997 -0.012861917
0001a0 2a 2c d9 bb 5b 28 a7 3a c8 1c 71 bc 7f d1 6b 3c
       -0.006627579 0.0012753116 -0.014716335 0.0143932095
0001b0 e5 a2 bf 39 a7 39 8c 3c 32 7f ac 3b 6e d6 43 b9
       0.00036551725 0.017117335 0.0052641863 -0.0001867653
0001c0 d3 2f cb 3b 43 f5 f8 3a 43 f9 17 3b 6a b3 d1 3b
       0.0062007695 0.0018993992 0.0023189343 0.0063995617
0001d0 44 94 40 bb 2e 3e 8a 3c bf e3 95 3b 63 49 15 bb
       -0.0029385248 0.016875353 0.0045742686 -0.0022779338
0001e0 fd 5a e8 3b 01 f5 2f bc d8 fa 12 3c 12 cd 6e 3c
       0.007090925 -0.010739566 0.008970939 0.01457526
0001f0 c7 e6 41 3c d4 fe a4 ba 60 65 1d 3b b7 78 2a bc
       0.011834807 -0.0012588152 0.0024016723 -0.010404757

onnx::LSTM_116 f4 [1, 512, 128]
000000 f8 60 d6 bd a4 83 29 bd ab 4c c6 3c c5 00 b1 bc
       -0.10467714 -0.041385308 0.02420648 -0.021606812
000010 06 ba 50 be f8 5d 0c 3e 58 1c 4b bc 66 4b 6a bd
       -0.20383462 0.13707721 -0.012396894 -0.05720081
000020 fc 8f 65 3e f5 84 0b bd 42 00 39 be 00 2b 5f 3e
       0.22418207 -0.034062345 -0.18066505 0.21793747
000030 91 9e 3c be 32 d5 93 bd 3c 1d 27 be c2 01 82 be
       -0.18419863 -0.07218398 -0.16319746 -0.25391966
000040 66 2d a4 bc 32 dc 43 3e 95 6a b3 3c e4 cd 87 bc
       -0.020041179 0.19126967 0.021901408 -0.016577668
000050 13 dc 23 bc f3 03 87 3b 4d 37 1b bd 95 4a 37 bd
       -0.0100012 0.004120344 -0.037894536 -0.04474886
000060 bc ca 88 3d d3 fd d4 bd 22 4a 23 be b6 70 71 3d
       0.066792935 -0.10399976 -0.15946248 0.05894538
000070 4b c5 8b be c0 48 39 3b 80 f0 57 bd e2 dc a6 bc
       -0.2729896 0.0028272122 -0.052719593 -0.020368997
000080 1b 7d 0a be 82 21 fa 3c 98 8c b3 bd 95 d8 a6 3c
       -0.13524286 0.030533556 -0.087670505 0.020366946
000090 f8 c1 59 3e 85 f8 d1 3d 8a 80 b5 bd cd 83 16 3e
       0.212654 0.102524795 -0.088624075 0.14698716
0000a0 b2 d5 ca bc 25 f7 5e bd 09 33 4b bb 14 79 ea bd
       -0.024760101 -0.054434914 -0.003100576 -0.11448875
0000b0 67 8c aa 3d 43 30 3b 3e 69 d3 26 be 06 c3 74 be
       0.08327561 0.18280129 -0.16291584 -0.2390252
0000c0 70 38 16 be 78 db 28 bd c2 58 1a 3e b5 25 06 3e
       -0.14669967 -0.041224927 0.15072921 0.13100322
0000d0 57 ff 42 3e c5 c3 d0 bd a5 2b 64 3c a1 85 53 be
       0.19042717 -0.1019359 0.013926421 -0.20656444
0000e0 b8 fb 51 3d 24 38 f2 bc 94 25 d7 bd b7 bb 83 bc
       0.05126545 -0.029567786 -0.10505214 -0.01608072
0000f0 f5 a3 9b 3c be 36 21 3e 40 05 32 3e 01 b5 ec 3c
       0.01899908 0.15743539 0.17384815 0.028894903
000100 ff f7 bf bd 57 ec 03 3e 10 b0 31 3e fa ac 0d bd
       -0.093734734 0.12883125 0.17352319 -0.03458879
000110 34 62 ae bc 40 f1 07 3e ce c6 7f 3d 2d 24 22 be
       -0.021287061 0.13275623 0.062445454 -0.15834112
000120 b6 bc 8d bd 54 45 31 be 44 18 80 3e 63 f9 cd bd
       -0.069207594 -0.17311603 0.25018513 -0.10057332
000130 fd cc c6 bd 77 f1 7c be 8c 08 6a 3d 2c c9 44 3d
       -0.09707067 -0.24701487 0.057137057 0.048043415
000140 31 26 08 3d 34 71 03 be 85 ab 59 be cf 39 be 3d
       0.033239547 -0.12836152 -0.21256836 0.0928837
000150 26 ab c8 bc 2c 83 5d 3e 4b f7 44 be 4e 26 95 bc
       -0.024495672 0.2163207 -0.1923496 -0.018206742
000160 a3 67 fa bc 45 14 1e 3e a3 9f ef 3d 1c ba 00 3e
       -0.030566996 0.1543742 0.1170037 0.12570995
000170 4a d2 17 3d 40 3a b0 bc b2 eb 54 bd 7f 70 55 bd
       0.03706578 -0.02151215 -0.05198259 -0.052109238
000180 a6 fe d2 bc d4 f5 4a be 0c 52 1e be 97 27 0b ba
       -0.025756191 -0.19820338 -0.15460986 -0.00053083285
000190 54 37 27 be 64 97 71 be 5f c7 14 3e f5 43 8c 3c
       -0.163297 -0.23592907 0.14529179 0.017122248
0001a0 4c 06 7d bd cc 1f 72 3d 25 e4 30 bc 1a 51 3c bd
       -0.061773583 0.059112355 -0.010796581 -0.045975782
0001b0 44 87 65 bc e0 a5 f3 3c aa 33 ee bd e1 55 ef bb
       -0.014009301 0.029742181 -0.11630948 -0.0073039387
0001c0 3f 96 09 3d ac f0 85 3d aa 14 d9 bd 47 9a 14 be
       0.03359055 0.06540045 -0.105996445 -0.14511977
0001d0 5d 58 dd bd ed dc 30 3d 38 88 09 3e 8c 9b 26 3d
       -0.108078696 0.04317944 0.1343087 0.040675685
0001e0 95 2f 9e 3b 58 ca b8 bd f2 60 7f bc ce 42 6c bd
       0.0048274496 -0.09022969 -0.015587078 -0.057680897
0001f0 e3 61 4d 3d 81 48 33 3e 54 51 3b bd 75 a1 02 3e
       0.05014218 0.17508127 -0.045731857 0.12756903
000200 0f 43 2e bc 9b 51 6a bb c3 d3 45 bd 31 93 b3 bb
       -0.010636105 -0.0035754207 -0.048297655 -0.005480193
000210 76 31 53 3d 4e 4f 4b bd 4a 44 51 3d 2a 91 91 bd
       0.05156084 -0.049636178 0.051090516 -0.07107766
000220 d2 e8 8c bc 1f 0e 0b 3e fa f9 aa bd 4f a2 95 bd
       -0.017200861 0.13579606 -0.083484605 -0.073063485
000230 00 a1 2f 3e ae 6e 83 bd ea 58 ec bd 61 bd 86 bd
       0.1715126 -0.06417595 -0.115403965 -0.0657909
000240 52 d9 52 bd 0b 12 05 be 1f b1 a7 bd 6a 35 f9 3d
       -0.051476784 -0.12995164 -0.0818808 0.12168391
000250 2a 59 35 be 18 27 2c 3e af b5 85 bd 8c 76 59 3c
       -0.17709795 0.16811788 -0.06528794 0.013272893
000260 21 c5 ec bd f5 79 22 3e 66 07 e2 bc 17 9e 50 bd
       -0.11561037 0.15866835 -0.027591418 -0.050932016
000270 a5 7e 1f 3e 10 ce 66 bd ae 01 f5 3d 0c 3d 9e 3d
       0.15575655 -0.05634886 0.11963211 0.077264875
000280 2f c0 80 3d ba 78 95 3d 84 2f b8 3d 77 b9 da bd
       0.06286656 0.072984174 0.08993438 -0.10679906
000290 47 1d d5 3c e1 77 00 bd d1 41 86 3d 13 f3 82 3d
       0.026014937 -0.031364325 0.06555522 0.06394019
0002a0 4a 8a 07 bd 5c 61 c1 3c 79 1d 12 be 38 51 d4 bb
       -0.033090867 0.023605995 -0.14269055 -0.0064794086
0002b0 2a d7 d2 bd 1c 79 af 3d ea eb 03 3e 80 aa b9 bc
       -0.102949455 0.08568022 0.12882963 -0.022664309
0002c0 c1 11 1b 3e 2e b7 1f 3d 30 6b 11 be 60 cb b7 bc
       0.15143491 0.038993053 -0.14201045 -0.022435844
0002d0 95 99 d6 bc 1c ad 95 bd f4 37 13 be 30 28 8b bb
       -0.02619628 -0.073084086 -0.14376813 -0.004246734
0002e0 ff 81 dc bd 3d f3 fa bc 68 6a d4 3d 16 11 4e bc
       -0.10766982 -0.030633563 0.10371858 -0.012577316
0002f0 dc 51 c9 bd 3e 1a 1f 3e 84 8e 37 bd c6 d1 4e bd
       -0.098300666 0.15537354 -0.044813648 -0.050493024
000300 cd db 37 3e f1 83 99 bb 86 af 6b 3d bd 3c c7 bd
       0.17954941 -0.004684918 0.05754044 -0.09728382
000310 bb 38 7e bd 5a 16 88 3c 4a 2f 16 3d 6f 29 46 3e
       -0.06206582 0.01661222 0.036666192 0.19351743
000320 01 6b db bd c5 c4 11 3e 28 b3 a5 bd c4 44 d4 3d
       -0.10713769 0.14235218 -0.08090812 0.103646785
000330 c6 7e b3 3d b1 d6 1f bd d6 8f 0d 3e 70 29 04 be
       0.087644145 -0.039023105 0.138244 -0.12906432
000340 a9 5d 1e be 64 f4 4f bd ca 1b 9b bc 4d 86 20 bc
       -0.15465416 -0.05077018 -0.01893415 -0.009797645
000350 56 90 08 3d 11 35 a2 3d 1d e1 02 3e 8e 00 09 3d
       0.033340774 0.07920278 0.12781186 0.033447795
000360 7f 30 fa 3c 9c 52 e9 bc 98 ef 8b bd cb 55 4e 3c
       0.030540703 -0.028481774 -0.06832808 0.012593697
000370 31 96 47 3c fe 18 30 3e 01 c0 57 3d 13 44 97 bd
       0.0121818045 0.17197034 0.052673344 -0.07386031
000380 27 94 3a be 30 3f 40 3d 3e 25 31 bc b6 54 d4 bc
       -0.18220578 0.04693526 -0.010812102 -0.0259193
000390 95 e5 f9 3d 9c 94 d8 3d f3 41 6b bc bd 56 e3 bb
       0.122019924 0.1057522 -0.014358985 -0.0069378302
0003a0 8d c7 a4 3c 2b 99 b4 3b 59 6d c9 3c 08 90 d4 bd
       0.020114684 0.005511423 0.024588274 -0.10379034
0003b0 48 ed 0f bd a9 1b 60 3d da ae 89 3d f7 70 bb 3d
       -0.0351384 0.05471388 0.067228034 0.09152406
0003c0 0d 64 f7 3d 08 35 b9 bd c2 31 07 3e 8f 92 c7 bd
       0.1207963 -0.09043318 0.13202575 -0.09744751
0003d0 93 0f 80 bd 8e ec da bc dd b2 11 3e b9 71 0e bd
       -0.062529705 -0.026724126 0.14228387 -0.034776423
0003e0 23 67 11 3e 6e b4 38 bd 83 a4 83 ba 3e 63 00 3e
       0.141995 -0.045093946 -0.0010043535 0.12537858
0003f0 b3 f1 73 3c ba 7d a6 3d 87 98 26 3e 85 55 10 be
       0.014889169 0.08129449 0.16269122 -0.14095123

onnx::LSTM_117 f4 [1, 512, 128]
000000 6d 7e 07 3c da 71 02 be 3d 95 0f be 23 11 cf bd
       0.008269888 -0.12738743 -0.14021774 -0.101106904
000010 91 57 07 be f6 7d 2c 3e 06 ef ae bd a6 08 18 bd
       -0.13216998 0.16844925 -0.08541684 -0.037117623
000020 ea 20 c6 3c e8 b4 f1 bd b0 91 a2 3c d6 43 f7 3d
       0.024185617 -0.11802083 0.01984486 0.120734856
000030 f1 ff d5 bd 19 61 20 3e 27 eb 5a 3d 3e 37 46 bd
       -0.104492076 0.1566204 0.053446915 -0.048392527
000040 01 60 d7 bc 9f 38 a8 bd ea e1 19 3e 92 15 6b 3d
       -0.026290895 -0.082139246 0.15027586 0.057393618
000050 9c d2 10 bd ba 21 1a 3e 26 b2 42 bd 5f a0 7c 3d
       -0.035357103 0.15051928 -0.047533177 0.06167638
000060 ba 0e f2 3c 71 03 1b be 02 c2 ab 3d 2b 1c 0f be
       0.029548038 -0.15138032 0.083866134 -0.13975589
000070 6b 44 89 bd 38 0c 66 bd 84 38 0e be f6 ae b3 bd
       -0.06702503 -0.056163996 -0.13888747 -0.087736055
000080 a1 2d ca bd 83 f8 5e 3e 47 e8 d0 bd 53 5b 86 3d
       -0.09871984 0.21774487 -0.102005534 0.065603875
000090 69 f0 d5 bd 60 c6 a6 bd e8 33 44 bd 85 2e 64 bd
       -0.10446245 -0.08143306 -0.047901064 -0.055708427
0000a0 1c 72 a9 bc c0 68 29 3c ba bd c8 3d 70 9a 27 be
       -0.020684294 0.010339916 0.098018125 -0.16367507
0000b0 0e 50 b1 3d 85 f4 90 3c 44 2f ed 3d 1e 54 f0 3d
       0.08657847 0.017694721 0.11581281 0.11734794
0000c0 82 0e 32 bd 16 6f 0e 3d 12 40 66 bd 7f fb 2e be
       -0.043470867 0.03477391 -0.056213446 -0.17088126
0000d0 bf 83 03 be 55 86 42 bd 96 d5 3b be 3a fa ae bd
       -0.12843226 -0.04749139 -0.18343195 -0.08543821
0000e0 60 34 80 3d 9b 4f 1c bd 62 69 1e 3c 1d 89 00 3e
       0.0625999 -0.038161855 0.00966868 0.12552305
0000f0 38 ce 8e 3c 80 17 c2 bd 87 92 3e 3e 27 2b 48 be
       0.017432317 -0.094771385 0.18610583 -0.19547711
000100 27 80 3e be 42 be 60 be 50 06 bd bd 44 8b 01 bd
       -0.18603574 -0.21947578 -0.0922972 -0.031626955
000110 2e 5c 1b 3e d4 02 4c 3e 8b 22 6b 3d f6 fe ff bd
       0.15171883 0.19922954 0.05740599 -0.12499802
000120 44 58 3e 3d 2f ef e9 3d e1 4f 28 3e c8 ec 4b be
       0.046470895 0.11422574 0.16436721 -0.19914544
000130 7d 31 e0 3d b1 21 a5 bc 97 c8 f8 3d ea 23 51 3d
       0.10946939 -0.020157667 0.121476345 0.05105964
000140 81 b4 22 be 7d 2c 0b 3d d5 35 8d 3d 01 25 0e be
       -0.1588917 0.033977974 0.06895033 -0.13881303
000150 96 fb 55 3d 45 58 fb bd 5a 75 bb 3d ff 23 33 3e
       0.052241884 -0.122726955 0.091532424 0.174942
000160 a0 19 b6 3d ec 12 a0 bd 70 0d df bc 43 38 32 3c
       0.08891606 -0.07816109 -0.027228087 0.010877672
000170 b3 a1 71 bc 4f 00 80 3d 73 dc 13 be b2 a1 ab bd
       -0.014748025 0.06250059 -0.14439563 -0.0838045
000180 ab a8 cb 3c c3 a9 c0 3d e1 8a e9 bd 3a 86 bd bd
       0.0248607 0.094073795 -0.11403442 -0.09254117
000190 33 8c f8 3d 40 4d 0e be 86 5e d0 3d 05 5a d2 3c
       0.12136116 -0.13896656 0.10174279 0.02567769
0001a0 e0 28 ee bc 8c 57 78 3d 0d cd 2f 3e 76 52 99 3d
       -0.029072225 0.060630366 0.17168064 0.07486431
0001b0 00 45 a4 bd af e4 1b be c1 51 26 3d 1f 61 c0 3c
       -0.08020973 -0.15223955 0.04060531 0.023483811
0001c0 bb 67 53 3d 2e b0 0d be 8d da 5c bd 50 e7 16 bd
       0.051612597 -0.13836738 -0.053919364 -0.03684169
0001d0 82 1e 90 3d 0e 27 fd bd 47 ce 32 bc 95 7b 19 be
       0.07037069 -0.12360965 -0.010913438 -0.14988549
0001e0 11 09 b3 3c 1b 28 f8 3d 09 bc cb 3d cf d1 0c be
       0.02185491 0.121170245 0.09947974 -0.1375191
0001f0 ab 52 1b 3d 69 84 af 3a 03 2e e4 3d 92 26 52 3e
       0.037920635 0.0013390902 0.111415885 0.20522526
000200 c9 de 16 be 13 d8 1c bd 8f eb 77 3d af fa 02 bd
       -0.14733423 -0.038292002 0.06052738 -0.03197735
000210 75 c1 04 be df 6e db bd 89 74 e2 3c 4b f3 fb bc
       -0.12964423 -0.10714506 0.027643459 -0.03075566
000220 60 ba 00 be 1e 0b 76 3b c4 d8 f4 3c 73 0c 8e bd
       -0.12571096 0.0037543247 0.029888518 -0.06935968
000230 80 27 0d be 06 56 f1 bd 6c cf 02 be 14 33 a4 bd
       -0.137846 -0.11783986 -0.12774438 -0.08017555
000240 7c 41 38 bd 09 4f bb bd 98 b8 00 be 2e 6b 66 3d
       -0.044984326 -0.09145934 -0.12570417 0.05625456
000250 4a 44 f3 3d 61 74 11 3e 2e 7e b4 3c 2b 78 69 3d
       0.118782595 0.14204551 0.022032823 0.056999367
000260 09 34 94 bd 57 6a 90 3d f4 d5 72 3d 48 ab 0a bd
       -0.072364874 0.07051533 0.059286073 -0.033854753
000270 bb 47 be bc c9 12 3a 3d 1c 04 93 bc eb b3 02 3e
       -0.023227563 0.04542807 -0.017946295 0.12763946
000280 d3 f3 ca bd 94 b6 09 be 3b d9 0b be c5 47 71 bd
       -0.09909787 -0.13448554 -0.13657086 -0.058906335
000290 94 88 84 bb 2e 0a d4 bd e8 f9 20 3d ad e7 01 bd
       -0.0040446017 -0.10353504 0.03930083 -0.031715084
0002a0 fc 7a 07 3e 59 3e 8b bd 7f 3a 80 3d 52 c0 c1 3d
       0.13230509 -0.06799001 0.06261157 0.0946051
0002b0 56 9f df bd b3 ae fd bc 02 f4 fd 3c 7a 17 fd 3d
       -0.10919063 -0.030967092 0.031000141 0.123579934
0002c0 c9 c5 f8 3d 84 b1 b8 3d 79 a0 e7 3d 1e 7a 04 3e
       0.121470995 0.090182334 0.113099046 0.12937209
0002d0 ce de e9 ba 1b 5f e8 ba b7 9e 29 bc 3e 43 ce 3d
       -0.001784289 -0.0017728539 -0.010352782 0.10071419
0002e0 38 45 11 bd 21 2b 63 3d 20 a8 e5 bd 7f bb 79 bd
       -0.035466403 0.055461053 -0.11213708 -0.060969826
0002f0 d1 57 c8 bc 84 0c 06 3e 6b 17 9c 3d c4 64 bd 3d
       -0.024455937 0.13090712 0.07621654 0.09247735
000300 d9 e4 2e 3e db 00 45 3d cd fb f0 3d 95 a0 da 3d
       0.17079486 0.04809652 0.11766777 0.1067516
000310 13 12 83 3d 1f 53 04 be 77 33 8e bd 6d b4 0e 3e
       0.06399932 -0.12922333 -0.0694341 0.13936014
000320 5a 85 bb 3d 91 a1 0e 3e b3 ff c3 ba 52 39 02 3b
       0.09156294 0.1392882 -0.0014953524 0.0019870591
000330 e5 8e 32 bd 7e d5 1c 3e 0c 52 af bd 09 50 8f 3d
       -0.043593306 0.15315816 -0.08560571 0.06997687
000340 b2 40 be 3d e8 ad bd bd 7f ff 17 bc 02 98 df 3d
       0.092896834 -0.092616856 -0.009277224 0.10917665
000350 00 9a dd 3d b1 be 01 be 5f 58 11 be 56 1a b4 3d
       0.10820389 -0.12670399 -0.14193867 0.08794086
000360 bc 2b b8 bc 27 cf 01 3d d1 0c 0f 3e 36 9d 1a be
       -0.022481792 0.031691696 0.13969733 -0.15099034
000370 97 37 6a 3d f4 e3 00 bd 6e b9 14 bd 60 81 85 bd
       0.05718192 -0.031467393 -0.036309652 -0.06518817
000380 e3 42 f7 bd 00 2f b8 3c 2a 8d 36 bb 5b 37 e4 3c
       -0.120733045 0.022483349 -0.0027855136 0.027858427
000390 2c 1e 51 bd ed 81 29 bd 81 67 21 be 62 2e ca bd
       -0.051054165 -0.041383673 -0.1576214 -0.09872128
0003a0 54 ba 34 bd fb 68 5c bd 48 26 d7 3c 61 be 83 ba
       -0.04412301 -0.053811055 0.026263371 -0.0010051244
0003b0 57 2b 62 3d 70 c2 4b bd fa ef 05 be 91 00 c6 bc
       0.055217113 -0.049745977 -0.13079825 -0.024170192
0003c0 9e 81 37 3d ea 9a d9 3d 9f e7 26 be a9 73 11 3e
       0.044801347 0.10625251 -0.16299294 0.14204277
0003d0 af cc 1f 3d 79 de 85 3d 1d 72 84 bd cc c2 0f 3e
       0.03901356 0.06536574 -0.06467078 0.14039153
0003e0 e0 1c ef bd 6a 1c 16 bd 63 fc 1b bd f4 9c 06 be
       -0.11675429 -0.03664819 -0.03808249 -0.1314581
0003f0 b9 3d 13 be 30 5d ab 3b 35 4e d0 ba 80 47 29 bd
       -0.14379014 0.0052296147 -0.0015892448 -0.041327953
