Machine-Learning-DRL/results/SeekerTrainingWall8/Seeker/Seeker-499993.onnx (onnx, 610983 bytes, 11 tensors)

discrete_act_size_vector f4 [1, 2]
000000 00 00 80 40 00 00 80 3f
       4.0 1.0

network_body._body_endoder.seq_layers.0.weight f4 [128, 8]
000000 45 93 ce 3e 48 02 de 3e 8b 38 c5 3e f2 7d 40 bf
       0.40346733 0.43361115 0.385197 -0.7519218
000010 09 9a 42 bf 5b 29 d5 bd 6a 0c e0 3c c0 0e 1d bf
       -0.7601629 -0.104082786 0.02734967 -0.6135063
000020 c7 6f 06 bf 19 aa c3 3e b3 ae 29 bd 4f cc d6 3d
       -0.5251431 0.38215712 -0.04142637 0.104881875
000030 46 bb 1f 3f 16 46 95 3e 1b 21 cb be 15 b4 92 3e
       0.6239513 0.29155034 -0.39673695 0.28653017
000040 60 b9 bc 3d 13 c5 b7 3e 29 9a 74 3d a2 34 8c 3e
       0.09215045 0.35892543 0.05971733 0.27383906
000050 f0 08 a9 3e 0d 92 b5 bc 85 f0 a9 be ff 92 7c 3e
       0.3301463 -0.022164369 -0.33191314 0.2466545
000060 c3 bb c5 3e f7 bc 6b be aa 56 c6 be 18 51 27 be
       0.38619813 -0.23021303 -0.38737994 -0.16339529
000070 be 6b 3a bd 9d ce 28 3e c5 9c 1a 3f e8 b7 8f bd
       -0.045512907 0.16485067 0.6039546 -0.07017499
000080 a8 b1 19 3f 45 f9 87 3f d8 4a f1 bd 4a 34 c5 3e
       0.60036707 1.0622946 -0.117818534 0.38516456
000090 88 08 38 be d8 06 41 bf ec 8e 20 3e 5c 1c b3 3e
       -0.17972004 -0.7540107 0.1567952 0.34982574
0000a0 5e 2d a1 bc b8 1e ea 3e 35 98 ca 3e aa 40 97 be
       -0.019674953 0.45726562 0.3956925 -0.29541522
0000b0 25 fe 44 be bb 95 2a 3e 5b 2a 33 be 66 d7 fc be
       -0.19237573 0.1665868 -0.17496626 -0.49383086
0000c0 ac d3 a3 bd 17 c0 cc 3e 97 21 83 3d 60 aa bc 3e
       -0.079993576 0.39990303 0.06402891 0.36848736
0000d0 7d 78 f4 3e dd ed fa be a2 85 8d 3d 00 83 a7 be
       0.47748175 -0.490096 0.06910254 -0.32717133
0000e0 d7 26 6f 3d a7 b9 e1 3e 98 9a 87 3e 81 22 62 bd
       0.05838665 0.44086954 0.26485133 -0.055208687
0000f0 be c4 5a 3f 3d 2b 9a 3d 58 3c 86 be 23 42 07 3e
       0.85456455 0.07527778 -0.26217914 0.13208823
000100 7d e1 a3 be 11 3a 8a 3e 5a b2 56 be a3 6d b6 be
       -0.3200797 0.26997426 -0.20966473 -0.3563052
000110 7d 9e 1b be 9a fd b7 3d a7 1d 8e 3e 07 a5 82 be
       -0.15197177 0.089839175 0.27756998 -0.2551653
000120 a5 60 7e be dc a0 da bb a6 0e f9 be 8b c6 95 be
       -0.24841554 -0.006672008 -0.48643988 -0.2925304
000130 69 31 41 bc 2a af b0 bd e1 81 af be a2 2b c4 3e
       -0.011791565 -0.0862716 -0.34278777 0.3831454
000140 c4 df 84 3d 64 f1 1b 3f 3f 29 de 3c 95 77 de 3e
       0.064879924 0.6091521 0.027119277 0.4345061
000150 32 72 e4 be a0 4c 32 3f 64 f7 28 be bf 8a 0c 3e
       -0.44618374 0.6964817 -0.16500622 0.13724802
000160 84 8a 5d 3e f3 c6 44 3d 11 13 98 be 23 dd b1 3e
       0.21634871 0.048041295 -0.29702047 0.34739026
000170 c5 df b5 be 52 04 01 bf 9d 05 48 3f 5b 6b d0 3e
       -0.35522285 -0.5039722 0.78133565 0.40706906
000180 57 cf b3 3e 39 b1 d4 be b9 90 b0 be f8 10 20 be
       0.35119125 -0.4154146 -0.34485415 -0.15631473
000190 60 04 0b bf ae 8a 99 3e 50 4e 34 be 3c f4 92 bd
       -0.5430355 0.29988617 -0.17607999 -0.0717549
0001a0 db 90 18 bf 76 76 40 bf 0c 60 4b 3d 87 72 5e bc
       -0.5959603 -0.7518076 0.049652144 -0.01357711
0001b0 ab d8 36 bf 43 bc 5e be e7 39 92 be 55 48 c1 3d
       -0.7142436 -0.21751504 -0.285598 0.09437624
0001c0 30 10 17 3f a7 ac fa be 1c 00 31 3e 7c 47 08 be
       0.59009075 -0.48959848 0.17285198 -0.13308519
0001d0 97 6f 9e be 52 35 82 3e cc 2d 5d 3d bf 7b 5b bf
       -0.3094451 0.25431305 0.053998753 -0.85735697
0001e0 a2 85 60 be 54 a8 a8 3c 16 0d 11 bf 58 b7 eb be
       -0.21925977 0.020588078 -0.5666059 -0.46038318
0001f0 ba d7 f5 bd f5 95 b4 bd 11 9a 49 3e 71 57 c0 3c
       -0.12004037 -0.088176645 0.19687678 0.023479195
000200 8a 40 5d 3c 67 77 9e 3e 29 b7 11 bf a2 38 59 be
       0.013504157 0.30950472 -0.56920105 -0.2121301
000210 b4 ef 1a be b3 b1 e2 3e 8f 64 d0 be fd e1 ff be
       -0.15130502 0.442762 -0.4070172 -0.49977103
000220 91 17 02 bf be af 28 3f c7 ab e7 3c a1 2b 5a 3d
       -0.5081721 0.6589316 0.028280152 0.053264264
000230 f9 3c 9c 3d 59 01 77 be 04 de 30 be 1f 23 55 be
       0.07628817 -0.24121608 -0.17272192 -0.20814179
000240 83 7f ff 3d 6f d7 02 3f 5a dd f7 3c 91 f2 72 be
       0.12475493 0.51109976 0.030256916 -0.23725344
000250 fe d7 7f be 31 22 1f bf 9c 35 b4 3e 64 f3 c2 3e
       -0.24984738 -0.62161547 0.3519715 0.38076317
000260 46 da 34 be 70 9e d4 3b e3 da da 3e 28 dc 03 3d
       -0.1766139 0.006488614 0.42745122 0.03219238
000270 ee a3 fe be 3d 02 2e bf 16 24 18 bc bd 69 a5 bd
       -0.49734443 -0.67972165 -0.009285947 -0.080768086
000280 4d fc 17 bf 24 04 15 3e 41 7d db bc 97 55 7b be
       -0.59369355 0.14552361 -0.026793124 -0.24544369
000290 05 9e 85 be 5f e0 7f 3e c3 85 69 3e 86 89 81 be
       -0.26097122 0.24987935 0.22804932 -0.25300235
0002a0 21 49 be 3e 80 d6 a8 3e 98 c4 36 be 24 32 ba be
       0.37165168 0.3297615 -0.17848432 -0.3636638
0002b0 9a df 40 be 37 bf fb 3e 86 62 ff be 77 3d 1a be
       -0.18835297 0.49169323 -0.49879855 -0.1506251
0002c0 ba 50 52 3e 89 d2 61 bd 0c e2 ca 3c 43 4c d3 be
       0.20538607 -0.055132423 0.02476599 -0.4126912
0002d0 0a 15 0b be aa fd 27 bf 5e 80 25 bd a4 2b a7 3d
       -0.13582245 -0.65621436 -0.040405624 0.08162621
0002e0 10 d3 16 bf f8 a8 77 bf a3 19 33 be a6 2e 76 3d
       -0.58915806 -0.967422 -0.17490248 0.06010308
0002f0 15 4b b0 3c ef 27 bb be 2b 43 32 be e6 55 1e bf
       0.021520177 -0.36553904 -0.17408435 -0.6184982
000300 2e 66 7c 3e cb c0 65 3e aa 7e 98 be b3 6b 17 3f
       0.24648353 0.22436826 -0.29784137 0.5914871
000310 5f 56 7a 3e 3b 83 d3 be b6 63 68 3f 0c 27 39 be
       0.2444701 -0.41311058 0.90777147 -0.18081301
000320 76 03 87 3e c0 3d 1b 3f 85 97 d6 3e 25 3e 14 3f
       0.26369828 0.606411 0.41912475 0.57907325
000330 cd c3 3e be b3 9c 22 bf 11 18 91 3e 9a ab cf be
       -0.1862938 -0.63520354 0.28338674 -0.4056061
000340 d7 d1 22 3f 38 88 6a 3e 08 75 d2 bd a1 3c 55 3e
       0.6360144 0.22903526 -0.10276228 0.2082391
000350 52 07 2e 3f 1d 51 13 be f1 d0 e3 bd 9c e1 18 bf
       0.6797992 -0.14386411 -0.11123837 -0.5971925
000360 ef 0d 3c be 3b 9a a1 be d1 ba 21 3e 0f b4 b4 bd
       -0.1836469 -0.3156298 0.15793921 -0.08823406
000370 70 1a 64 3e 8a 96 e8 3e 1e 21 a3 3e fc 81 f4 3e
       0.2227571 0.45427352 0.31861204 0.4775542
000380 4d f9 c5 3c ea da a6 be dc cc b8 3c 31 6a d2 3d
       0.024166727 -0.32588893 0.022558622 0.10274161
000390 54 b6 0b 3f 74 75 3a be b8 a4 84 be 8c 2b ec 3d
       0.54575086 -0.18208867 -0.2590692 0.115317434
0003a0 65 e5 1e bf 68 6f 9d 3e f5 95 b8 be 7c e4 cd be
       -0.6206878 0.3074906 -0.36051908 -0.40213382
0003b0 0b 6c 9e 3e c0 44 00 3e 70 9d 14 be 2d d0 95 3f
       0.30941805 0.12526226 -0.14513183 1.1704155
0003c0 5b d2 68 be cb f1 a0 be f2 1f 02 be f6 ab 09 3e
       -0.22736494 -0.31434473 -0.12707499 0.13444504
0003d0 06 66 22 bf 51 72 80 be 9c a7 b2 3e e6 6f 22 3e
       -0.63436925 -0.25087216 0.348935 0.15862998
0003e0 c8 ca 5d 3b 11 de eb be 7b 92 d0 3c ce 15 15 bd
       0.003384279 -0.4606786 0.025460472 -0.036397748
0003f0 2b f4 33 3e eb fd 23 3e 9b 55 86 3e b8 ba 57 3e
       0.17573611 0.16014831 0.26237187 0.21067321

network_body._body_endoder.seq_layers.0.bias f4 [128]
000000 af 78 9b bc ec 7f 07 bd c4 13 3b 3d 66 02 b0 bb
       -0.018978445 -0.03308098 0.045673147 -0.0053713797
000010 06 0d f9 3a d4 66 8f 3c 67 10 83 3d e6 81 85 bc
       0.0019001074 0.017505087 0.06399613 -0.016297292
000020 fc 1b 9a 3d 17 e2 22 3c 95 2d 28 bc 4d 4b 09 3d
       0.07524869 0.009941599 -0.010264774 0.033519078
000030 4a 29 4d bc c8 de 6d bc ed af 1d bd 3a eb 4c bb
       -0.012522051 -0.014518447 -0.038497854 -0.0031268136
000040 49 57 aa 3c 7c a3 a1 b9 9b f9 7e bc f8 3b 0d 3d
       0.020793574 -0.00030830118 -0.01556244 0.03448102
000050 0e 8d c4 ba 11 bd d0 bc 5d e2 f9 bb 0a ae 78 bc
       -0.0014995651 -0.025480779 -0.0076258616 -0.015178213
000060 07 da d0 3d 0d f3 ea 3d e3 a3 a8 3b 9a 9b 42 bd
       0.101978354 0.114721395 0.00514649 -0.047511674
000070 cd 0f 8e 3c fc 2d 8b 3c d9 02 8c bc c0 9c 9b 3c
       0.017341519 0.0169897 -0.017091202 0.018995643
000080 bc 57 aa 3c 1f 7b f8 3c 26 a7 dc bb 60 b3 37 bc
       0.020793788 0.030332146 -0.006733793 -0.0112122
000090 22 26 b2 3c 69 03 a4 bc e8 17 4c bc 16 e5 d8 bb
       0.021746699 -0.020021157 -0.012456872 -0.006619106
0000a0 c9 fc 92 bb 92 83 99 3c 34 8b 2b 3c 7b 02 c7 3a
       -0.0044857007 0.018739495 0.0104702 0.0015183234
0000b0 ec 2b c8 3c 86 76 aa 3b ac 2d fd 3c b5 21 15 bb
       0.024435006 0.0052021174 0.030905567 -0.0022755687
0000c0 5d 3f 5c bc 61 cf 62 bc ea e1 1d 3c 43 33 bf ba
       -0.013442841 -0.013843388 0.009636382 -0.0014587421
0000d0 4c bf 21 bc 99 fa 7d 3c 81 59 ee 3c f3 c1 9f 3b
       -0.009872269 0.015501642 0.029095413 0.0048754155
0000e0 46 97 45 bc 31 c5 31 3d 1b f3 12 3c d8 04 66 3c
       -0.012059992 0.043400947 0.008969094 0.014039241
0000f0 6e b6 5d bc dd 6a 1b bb 02 52 b9 3b 9e a3 15 bd
       -0.013532264 -0.0023714819 0.005655528 -0.03653299
000100 97 84 a7 3b 2b 3b 53 bc 97 38 05 3a 22 b4 b3 bb
       0.0051122415 -0.012892525 0.000508198 -0.00548412
000110 b2 0c 42 bc b9 0a c0 3d d3 4a 14 3d 28 a6 06 bd
       -0.011843847 0.09377045 0.03620417 -0.032873303
000120 ec 26 86 3c c9 b0 cf 3b 58 c4 ad 3c 8a c7 80 3c
       0.016375981 0.006338213 0.021211788 0.015720148
000130 81 b0 c0 3a b9 f1 c5 bb 3a e0 54 3a 53 77 71 ba
       0.001470104 -0.0060407785 0.00081205706 -0.0009211201
000140 13 08 d3 bc f5 80 83 3c c0 d2 80 3c 07 d5 be bc
       -0.025760686 0.016052702 0.015725493 -0.023294939
000150 94 3c 0d 3c 8d 7e 17 3b d5 8f 95 bc da cb 2a bc
       0.0086204 0.0023116202 -0.018257061 -0.010424579
000160 8d 13 e4 3b 76 b7 6f bd b6 6c df 3b 15 96 7b 3c
       0.0069603384 -0.05852457 0.0068183793 0.015355607
000170 66 fa a7 3c c8 00 99 bc d6 15 5f bb 5d cb 92 3d
       0.020505141 -0.01867713 -0.0034040115 0.07167695
000180 8d 26 ac 3b 1a 93 17 3b ff 81 dd bb 82 b2 71 bd
       0.005253619 0.002312845 -0.0067598815 -0.05900813
000190 f5 f8 f8 3b 63 a4 bf 3a d7 8c 7f bb 8d 8c 74 3c
       0.0075980374 0.0014621135 -0.003899386 0.014926088
0001a0 0e 22 9d 3c 52 9d c8 ba ff 96 de 3c 5a 30 30 bc
       0.019181278 -0.0015305674 0.02717161 -0.010753715
0001b0 b6 39 00 bd 8b 18 49 bc 5e 22 fb bc 8b 11 82 3b
       -0.031305037 -0.012273918 -0.030656036 0.0039693764
0001c0 ad 28 8b 3d f6 66 3d bc b7 86 f2 3c 77 a0 1a 3c
       0.06794868 -0.011560192 0.029605253 0.009437672
0001d0 b5 c7 c9 bb 22 d1 c3 bb c8 ae 0e 3c 75 ab 95 bc
       -0.00615784 -0.0059758583 0.008708663 -0.018270234
0001e0 4a 67 c0 bc db e5 a2 3c 13 9d 45 bc f3 99 45 3b
       -0.023486752 0.019884994 -0.012061375 0.0030151575
0001f0 d2 40 d3 bc 3f 58 88 3c 2c 30 29 3c 73 04 2b 3d
       -0.025787745 0.016643642 0.0103264265 0.04175229

network_body._body_endoder.seq_layers.2.weight f4 [128, 128]
000000 cf ed cd bd 81 29 0b be f4 c9 34 3e f8 4d f7 bc
       -0.10055124 -0.13590051 0.17655164 -0.030188546
000010 48 ec 4a 3d 95 39 78 3c cd be 1d 3e b3 c5 7b 3d
       0.04954174 0.015150447 0.15404816 0.061467838
000020 da 50 3b 3d 10 2e 52 bc 0b 63 cc 3c ff ad b5 3d
       0.045731403 -0.012828365 0.024949571 0.08871078
000030 a2 d8 c1 bd 93 c2 50 3b 80 f5 e9 bd 57 11 cd bd
       -0.094651476 0.0031854257 -0.114237785 -0.10013073
000040 58 0b bf 3c 35 ee 27 3d 01 58 17 bc 4b 73 a4 3d
       0.023320839 0.040998656 -0.00923729 0.08029803
000050 e0 7f fb 3c 53 ca 24 bd 47 98 b0 bc 83 31 8e 3c
       0.030700624 -0.040232014 -0.021556986 0.017357593
000060 67 27 2d bd f9 37 66 bc 2d 66 20 3d 73 2c 79 3d
       -0.042273905 -0.014051431 0.039159942 0.060833406
000070 e8 0f ec bd a3 71 63 3d 80 83 ac 3d 2c 67 63 bd
       -0.115264714 0.055528294 0.08423519 -0.055518314
000080 ad c7 49 bc fd 76 f5 bc 65 5a 8b bd d6 ef 28 bd
       -0.012315673 -0.029963965 -0.06804351 -0.04124435
000090 7e f6 5c be 72 29 2f 3e 04 e1 c7 3c 50 59 7d 3b
       -0.21578404 0.17105654 0.024399288 0.003865797
0000a0 21 74 c9 bc a3 b2 d1 3d 1d 6f 90 3d 10 35 de 3c
       -0.024591507 0.102391504 0.07052443 0.027124912
0000b0 4e 29 dc bc ae 1f ee bd 90 ed f6 3d d7 7f 84 3d
       -0.026875164 -0.11627136 0.1205703 0.06469696
0000c0 ff 3a 21 3e cc 9d f3 bc 3c b1 df 3c fc f6 63 bd
       0.15745161 -0.02973833 0.027306192 -0.055655465
0000d0 44 41 bc bc 0e e8 0d be 44 0e 59 bd 4a 74 e5 bb
       -0.02298034 -0.13858053 -0.05299212 -0.007002388
0000e0 c2 b0 1c 3e 85 8c 5e 3d 37 49 16 3c ff 73 91 bd
       0.15301803 0.05433323 0.009172729 -0.071022026
0000f0 bc 0e f3 bd 77 94 dc bd 3d c3 9b 3d 05 71 e1 3c
       -0.11868045 -0.10770505 0.07605598 0.027519712
000100 b6 bd 1a bd e2 38 d7 3d 80 76 d1 3c 31 b1 2f 3d
       -0.03777858 0.105088964 0.0255692 0.042893592
000110 ee e4 c8 bd 4c d2 f0 3d e6 a7 2f bc a2 2b 61 3d
       -0.0980929 0.11758861 -0.010721182 0.054973252
000120 66 48 03 be 6e d7 38 be 60 31 00 3e 7d e1 ba bc
       -0.12820587 -0.1805093 0.12518835 -0.0228126
000130 2a 53 bd bc 31 c1 a4 3d 19 f5 48 be f4 5e 1f 3c
       -0.023110945 0.08044661 -0.19624747 0.009727228
000140 38 21 03 be 8a aa 2d 3d a9 2b d0 3d 46 7e ab bc
       -0.1280564 0.042398967 0.101645775 -0.020934235
000150 e0 48 97 3d 37 d6 b9 3d 57 48 92 39 f4 19 a3 3d
       0.07386947 0.09074061 0.00027901187 0.079639345
000160 2a c6 95 bc f5 2d 2b 3d fb d5 17 3e 95 bc d0 ba
       -0.018282969 0.041791875 0.14827721 -0.0015925342
000170 d3 a7 c1 3d c7 fa 12 3e 5a 35 99 bd 41 b4 91 bb
       0.09455838 0.14353476 -0.07480879 -0.004446537
000180 a1 5e 58 bd 49 11 b8 3d a3 96 1c 3e 72 04 26 3d
       -0.05282462 0.08987672 0.15291838 0.040531583
000190 ad 37 67 3d 02 b2 19 3d 94 1e 57 3e 0e 33 a1 bc
       0.05644958 0.037523277 0.21007758 -0.019677665
0001a0 f5 ee ea bd c9 2f d2 bd 62 c9 be 3d 8d a7 38 bd
       -0.11471359 -0.102630205 0.093157545 -0.045081664
0001b0 00 27 f0 3d af 1d d4 bb 1d f8 2a bd 4a b0 2a 3d
       0.11726189 -0.006473265 -0.041740526 0.04167203
0001c0 4f 7e 11 bd 20 de 37 bc f0 d8 39 bd 7b 98 9d bd
       -0.035520848 -0.011222392 -0.045372903 -0.07695099
0001d0 8b 89 11 3e fc 69 71 bc 4c d4 87 bd bc e3 8b bd
       0.14212625 -0.014734741 -0.06632289 -0.06830546
0001e0 54 21 af 3d 4a 2e 61 3a 01 d9 a5 3c 9e 83 23 3d
       0.08551279 0.00085899665 0.020245077 0.03992044
0001f0 7a b5 9f 3d e8 7a 2c bd 37 d0 36 bd 63 13 9f bd
       0.07798286 -0.0421094 -0.044632163 -0.077673696
000200 aa e5 b4 3c ee f4 a1 bc a0 50 53 3d b4 1d 7d 3d
       0.022082169 -0.019770112 0.051590562 0.061795905
000210 3e 7c 25 bd a1 e9 14 bd d0 4d 83 3d 4e be 1f be
       -0.04040169 -0.03635562 0.06411326 -0.15599939
000220 b5 72 55 3d fc 9a 82 3c e2 6e 58 bd 04 fd cc 3b
       0.052111346 0.015943043 -0.05284012 0.0062557478
000230 f6 16 dd bc 03 1b b4 3d 27 60 2d 3e 19 02 c2 bd
       -0.026988488 0.087942146 0.1693121 -0.09473056
000240 de 1d 10 be fc 37 14 be 53 b7 97 bd 82 47 fa 3d
       -0.14073893 -0.14474481 -0.07408013 0.1222067
000250 c3 ec cb bc d3 41 da 3c 33 44 d7 3c aa fe cb bd
       -0.02489317 0.026642716 0.026277637 -0.09960683
000260 09 a5 15 3e fa 59 22 3e 42 24 11 bd 8e 02 6b bd
       0.14613737 0.15854636 -0.03543497 -0.057375483
000270 1f 3a 50 3e 97 90 3b 3c be e9 71 be 36 48 63 bc
       0.20334671 0.011448047 -0.23624322 -0.013872197
000280 26 3d a7 bc 04 b6 02 be 69 3e 27 3e c5 d7 4a 3d
       -0.0204149 -0.12764746 0.16332401 0.04952218
000290 68 ab 3a bd bd d9 8f 3d 89 3e d4 3d 43 70 de 3d
       -0.045573622 0.07023952 0.1036349 0.10861256
0002a0 15 06 2b 3e c1 03 44 bc a6 17 68 bc 0e 95 94 bd
       0.16701539 -0.011963786 -0.0141657945 -0.072549924
0002b0 d2 df 03 be b8 36 18 3d c4 8b fc 3d 6a bf 3f 3e
       -0.1287835 0.03716156 0.12331346 0.18725362
0002c0 66 4c a7 3b 76 f9 90 3d c3 e6 b4 bd 25 9f 5a 3d
       0.005105543 0.07078831 -0.08833077 0.05337443
0002d0 14 17 f2 bd d6 d3 a0 3d 2f d7 63 bd cc 8f 92 bb
       -0.11820808 0.078529045 -0.055625137 -0.0044727083
0002e0 09 ba 9c 3d 9a 2f 54 3d 3a 2b d9 3d 9c da ba 3d
       0.07652671 0.05180321 0.10603948 0.09123728
0002f0 4d 5a 4d bd d0 4a 80 bd 03 58 0d bd 28 61 62 bd
       -0.050134946 -0.06264269 -0.034507763 -0.055268437
000300 8e 70 61 bd 19 07 ae 3d 9e 5e 1b be 98 8f 42 bd
       -0.05503898 0.084974475 -0.15172812 -0.047500223
000310 24 6c 82 bd 64 19 05 3e 4e e0 89 bc ab 32 8c 3d
       -0.063682824 0.12997967 -0.01683059 0.06845602
000320 de 01 11 3e 44 96 8c bd 3c 88 dd bd d1 51 1c 3e
       0.14160869 -0.068645984 -0.10817 0.15265585
000330 34 38 39 bd 33 9d 74 3c ff 08 b7 be d0 60 4c 3e
       -0.045219615 0.014930057 -0.3574905 0.19958806
000340 8e a8 08 3e 1f ca 0a be fb cd c0 bd 9d 25 a1 bd
       0.13345549 -0.13553666 -0.09414288 -0.07868502
000350 a4 72 6e 3c 06 a8 ac bd 31 c3 bd 3d 6e 3c f3 3b
       0.0145537 -0.084304854 0.092657454 0.0074229753
000360 35 96 66 3e c7 7e 1e 3d 61 1d 52 3d 74 a7 0e be
       0.22518237 0.038695123 0.05129755 -0.13931066
000370 13 fc 1d be 61 e8 8a bc 44 5e 91 3d 49 6b d5 3d
       -0.1542819 -0.01695651 0.07098058 0.10420854
000380 b4 bf 9a bd 95 03 13 3d 12 61 07 be aa 43 f8 bd
       -0.07556096 0.035892088 -0.13220623 -0.12122281
000390 6a e7 13 3d 14 4f 4b 3d 2e 3d 2e be f6 bb de bc
       0.036109366 0.04963596 -0.17015526 -0.027189236
0003a0 d8 95 a7 bd 3c 8b b6 3b e3 20 36 3d d4 26 7e bd
       -0.08182877 0.0055707972 0.044464957 -0.062048748
0003b0 5b c3 77 3d 73 42 bc 3d 5e ee 0d 3e fd fd 73 be
       0.06048904 0.09192362 0.13860461 -0.23827358
0003c0 3f 4a 00 be 8a 3a fc bd 0e 7a 47 3d f1 51 d5 bc
       -0.12528323 -0.12315853 0.048700385 -0.02604005
0003d0 59 ab 1b 3d 46 9f 9b 3e b3 30 28 be 16 57 c4 3b
       0.038005207 0.30394953 -0.16424827 0.0059918268
0003e0 98 1f c9 bd c6 81 f6 bd 84 f7 c5 3c 1d d5 34 3e
       -0.09820479 -0.12036471 0.024165876 0.17659421
0003f0 be ea 40 bd 9f 2a 6c bd fb 0f bf 3d d3 d6 06 be
       -0.047098868 -0.057657834 0.0932922 -0.13167886

network_body._body_endoder.seq_layers.2.bias f4 [128]
000000 c0 e3 77 bc e4 4b 6b bb b2 6c 59 bc 29 b9 99 bc
       -0.015129983 -0.0035903389 -0.013270544 -0.018765049
000010 f1 41 84 3c 25 73 ba bb 8c 41 06 bc d1 8d ee 3b
       0.016144725 -0.005689996 -0.0081943385 0.0072800894
000020 a0 3a af bb 1c 7f cb 3b 47 03 84 bc 61 d0 34 bc
       -0.005347565 0.006210221 -0.016114844 -0.0110360095
000030 50 02 c3 3c bc cf 77 3b 1c 0c 5b bc 0e a1 a0 b8
       0.023804814 0.0037813028 -0.013369586 -7.659393e-05
000040 6f 70 27 3c 99 30 f4 ba 33 52 a6 bb 4a a8 83 bc
       0.010219677 -0.0018630206 -0.005075717 -0.016071457
000050 fc 3d cb bc a3 ce 29 3c 3f 9d a1 3b a3 16 81 ba
       -0.02480983 0.010364207 0.0049320753 -0.0009848665
000060 3f 7f 0e 3c 6a 5c 24 3c aa ad c0 bb e4 c4 ce 38
       0.00869733 0.010031799 -0.0058800774 9.859519e-05
000070 2b fd 6d bc c0 e5 b3 3b 7c d2 ae bc fe 6d d7 ba
       -0.014525692 0.005490035 -0.021340601 -0.0016435978
000080 90 42 94 bb 8b 02 d1 bb 1d b9 0c 3c 47 a5 30 bc
       -0.0045245364 -0.006378477 0.008589056 -0.010781593
000090 4c 36 0d 3b f0 13 8c bb d2 62 69 bc 56 28 9a bc
       0.0021547256 -0.0042748377 -0.014244752 -0.018818062
0000a0 36 6e 53 3b 11 9b bb bc 29 cc 07 bb c1 a5 4f bc
       0.0032261736 -0.02290109 -0.0020721054 -0.012673796
0000b0 3e bc 8b 3b 16 19 ce 39 b2 a5 14 3c f2 42 74 bc
       0.0042643836 0.00039310072 0.009072708 -0.014908539
0000c0 a7 65 19 3c 2c 27 17 bc a7 c1 ee bb 60 95 0b 3c
       0.009362615 -0.009225648 -0.0072862688 0.0085195005
0000d0 4b 98 6c bc 9b 20 a3 bb 09 ad e8 bb c1 96 40 bc
       -0.014440606 -0.004978252 -0.0071007055 -0.0117546925
0000e0 2c 03 4f 3c e7 98 01 3c 59 68 f5 3b fa c7 62 bb
       0.012635034 0.00790999 0.007489246 -0.0034604059
0000f0 5c 3f 14 bc a8 45 06 3b d0 78 38 3c b3 28 b2 3c
       -0.009048309 0.0020488296 0.011259273 0.021747923
000100 1a 6d 64 3c a2 76 12 3c 9c 7f 85 bb 87 8e bc 3b
       0.013942027 0.008939417 -0.00407405 0.0057542953
000110 4e 34 5c 3c 09 b8 72 bc 80 7c 09 3c fc 7d 8d 3c
       0.013440205 -0.014814385 0.0083914995 0.017271988
000120 b2 8b bd 3c d6 b1 99 bb 9b 8b c4 bb 07 16 ab bb
       0.023137901 -0.004690389 -0.0059980876 -0.0052211317
000130 46 cb 79 bc 0d fe ad bb 7d 6c 9f 3c 86 f6 a6 bb
       -0.015246218 -0.005309826 0.01946091 -0.005095306
000140 b0 7a 38 3c 0b e6 77 bc 9b d4 80 bc ec c1 74 bc
       0.01125972 -0.01513053 -0.015726378 -0.014938813
000150 5a 68 28 3c d1 4a c1 bb 38 63 a9 3b a9 12 33 3a
       0.010278786 -0.0058988114 0.0051692985 0.00068310887
000160 8d 1c 63 bb 05 c1 9a 3b c3 a8 55 3c a4 3f 94 bb
       -0.0034654469 0.0047227168 0.013040724 -0.004524188
000170 31 8b 76 3c 72 1a 31 ba 75 68 e5 ba dc 46 15 39
       0.015047834 -0.0006755955 -0.0017502444 0.00014236144
000180 06 f0 d2 3b 60 32 2a ba 78 2b 60 bb 44 8f 84 bb
       0.0064373044 -0.0006492492 -0.0034205597 -0.004045399
000190 cc 78 1c 3b 97 20 24 bc 60 ea 61 3c 3b fc fb bb
       0.0023875711 -0.010017536 0.0137887895 -0.0076899803
0001a0 89 6f 99 3c 6e 65 fc 3b 3d cb b8 3c 0a a1 b2 bb
       0.018729942 0.007702521 0.022557849 -0.0054513263
0001b0 78 f1 68 bb 86 50 7f bb 83 8d db 3a 2a 39 8d 3a
       -0.0035544317 -0.0038957908 0.0016750548 0.0010774483
0001c0 29 cb 9c 3c 5c 32 24 bc a2 c9 ba 3c 86 a6 de ba
       0.019139843 -0.010021772 0.022801224 -0.0016986884
0001d0 0e c8 9d bb 0c 5e b0 bb 3f cf 67 3b 4c b6 e9 3b
       -0.004815108 -0.005382305 0.003537133 0.007132327
0001e0 1c 9d 15 bc 9f ac 1d 3c 33 26 8d 3c 54 43 bc ba
       -0.009131696 0.009623676 0.017230129 -0.0014363327
0001f0 1c 46 18 bc ea 53 76 bc e3 59 0c 3a c4 6b 1b 3c
       -0.009294059 -0.015034655 0.00053539703 0.009486143

action_model._discrete_distribution.branches.0.weight f4 [4, 128]
000000 65 29 87 bd 7d 2e 52 3d c5 81 f3 3d bb df d7 bc
       -0.06599692 0.051313866 0.11889986 -0.0263518
000010 e2 1b d5 bc 68 7f c1 bd f7 70 02 bd 20 f3 79 bc
       -0.026014272 -0.09448129 -0.031846013 -0.015255719
000020 aa b7 67 3d 63 52 23 3d cf 82 c0 3c 07 0f 90 3d
       0.05657164 0.039873492 0.023499874 0.07034116
000030 4c eb 49 bd 45 3c 50 bd 81 59 3d bd f8 92 54 3d
       -0.049296662 -0.050838728 -0.046227936 0.051897973
000040 d4 b0 2b 3d a0 3d a2 bd 42 a1 36 3d 24 8d 3b 3b
       0.041916683 -0.0792191 0.04458738 0.0028618062
000050 c8 9a 10 bd cd c5 00 bd de a8 0e 3d 64 91 71 bd
       -0.03530386 -0.031438638 0.034829013 -0.058976546
000060 8e ce f4 bd 5f cb 30 3d a2 65 58 3d a4 3a 14 3d
       -0.1195346 0.0431627 0.0528313 0.036188737
000070 65 a9 5f 3d 26 ed 9d 3c 98 af 61 3b 0e cc 9c bc
       0.054604907 0.01927812 0.0034436937 -0.01914027
000080 86 db 32 3c 56 1e 56 bd 9e 7a 44 3d f8 4c 7a bd
       0.010916596 -0.052275024 0.0479685 -0.06110856
000090 d9 31 7b bd da e3 3a 3d d6 4c c2 3c ca dc 5d bd
       -0.061326835 0.045627452 0.023718279 -0.05416564
0000a0 a1 8d 65 3c cf f8 39 bd aa 72 1c bd 31 5e 36 bd
       0.014010818 -0.045403298 -0.03819529 -0.04452342
0000b0 8c 50 02 bd 73 ea 42 bd 8f 60 23 3d 96 08 c4 bd
       -0.031815097 -0.04758687 0.039887007 -0.0957195
0000c0 c9 b2 8c bd 8e c5 dd bd 63 cd 10 3d c3 3e dc bd
       -0.06870038 -0.10828696 0.035352122 -0.10754158
0000d0 8e 30 5d bd 13 4f 95 bd ea 5e ed 3b 46 c5 3d 3d
       -0.054001383 -0.07290473 0.0072439807 0.046330713
0000e0 91 8d 32 bd 1c c3 8d 3d e1 e3 ba bd 10 57 cd bd
       -0.04359204 0.0692198 -0.09125496 -0.100263715
0000f0 fd 08 96 bd 39 8b 9f 3d 07 e5 d3 3b 2d cb 75 3d
       -0.07325933 0.077902265 0.006466511 0.060008217
000100 34 4c 3a 3d be e8 69 3d a8 06 8d bd 3b 44 e6 3d
       0.04548283 0.057106726 -0.06886035 0.11243483
000110 1b 5d 45 bd e3 ce 2c bd a6 4f cc bd a0 e9 89 3d
       -0.048184495 -0.04218949 -0.09976129 0.067340136
000120 5e ab 93 bb 07 8e 9b 3b 5e 67 ad bd dd 55 18 bd
       -0.0045065125 0.0047471556 -0.08466981 -0.03719126
000130 81 b1 97 bd fd 23 60 3d e9 ee 0e 3d ea 38 19 bd
       -0.07406903 0.05472182 0.03489581 -0.037407793
000140 5f 54 2f 3d 70 9c 90 3d 71 56 c0 bd 13 a0 16 3d
       0.042805072 0.07061088 -0.093914874 0.036773752
000150 22 02 f0 3b c3 8e 44 3d 74 db 2a 3d fb 28 7a 3d
       0.007324473 0.04798771 0.041713193 0.06107424
000160 de 54 5f bd 70 3a 9a 3d 81 7c 66 3d 36 f6 b3 bd
       -0.054524295 0.07530677 0.05627108 -0.087871954
000170 21 8b 56 3d 29 52 2f bd 93 07 a4 bd 75 6b 38 bd
       0.052378777 -0.042802963 -0.08009257 -0.045024354
000180 cd fc b6 bd 3d 5e 2b bd 15 72 a0 3d dc 43 40 3d
       -0.08934937 -0.04183792 0.078342594 0.046939716
000190 2b 76 2a bd 6c 95 8c 3c e1 8e 47 3d 65 76 15 bd
       -0.0416166 0.017161094 0.048720244 -0.036489863
0001a0 08 96 28 bd 2e fc 28 3d b9 c2 a4 3b bf 24 9b bd
       -0.041158706 0.041256122 0.0050280956 -0.07575368
0001b0 43 4d 8b 3d c6 8b e7 ba 78 c8 80 bd 4c 1c 7a bd
       0.06801846 -0.0017665557 -0.062882364 -0.061062142
0001c0 7d 18 c9 bd 9b 04 b8 bd 3f 3c 62 3d 85 1d fa bc
       -0.09819124 -0.089852534 0.055233236 -0.030531654
0001d0 a9 e6 16 3d 7c 5e d2 bc 17 87 ab bd 17 a7 38 bd
       0.03684107 -0.02567982 -0.08375376 -0.045081224
0001e0 5d 71 e5 bb dc a8 89 3d 7b 14 13 bd 4c 04 c7 3c
       -0.0070020393 0.067216605 -0.035908204 0.024294041
0001f0 ef a5 6e bd 6a 24 44 bd fa f9 26 3c e0 ed ba 3c
       -0.058263715 -0.04788629 0.010191435 0.022818506
000200 c8 7e 52 bc fb 3a 04 3c 80 08 97 3d 5c 2e 4c bd
       -0.01284761 0.008070703 0.07374668 -0.0498489
000210 98 b5 85 bd 3c e3 05 3d cb b7 51 bc 6d e0 0c be
       -0.06528777 0.03268741 -0.012800167 -0.13757487
000220 3e 00 62 bb d9 fc 7a bc 33 d2 a0 3c 4a 9b c4 bc
       -0.0034485008 -0.015319073 0.01963148 -0.023999829
000230 a2 c1 c7 bd 15 2f 85 bc e2 1a c4 3c f8 44 15 be
       -0.097537294 -0.016257802 0.0239386 -0.1457709
000240 75 4a 60 3b 48 cc 27 3c 82 4e 2b ba 8c 5c a9 3c
       0.0034224067 0.010241576 -0.0006534831 0.020674013
000250 69 66 cc ba 63 6c 63 bc c2 f6 0d 3d 88 59 d1 3b
       -0.0015594485 -0.013880822 0.034659155 0.006388847
000260 42 3c 5b 3d 4d 45 be 3b bb c3 c9 3d 7d 48 e9 3b
       0.053524263 0.005806601 0.09851786 0.007119237
000270 e4 f8 5e bc 54 ce d5 3d 56 51 b0 3a a5 21 58 bd
       -0.013609145 0.104397446 0.0013451974 -0.05276646
000280 84 17 85 bc d1 f3 f3 bc ff 8f b6 3b e8 cd c7 3d
       -0.016246565 -0.029779347 0.005571365 0.097560704
000290 33 21 2a bc 83 5c be 3d aa 45 30 3e f7 21 22 bd
       -0.010383892 0.09294989 0.17214075 -0.039583173
0002a0 45 9d e3 bd 9a f8 7a 3c d3 21 4f 3d 44 3c 9d bc
       -0.11113981 0.01531806 0.050569367 -0.019193776
0002b0 da b9 ba b9 6b d1 ae 3a b0 8a 4b bc ff 74 ba 3d
       -0.00035615155 0.0013337558 -0.012423202 0.091043465
0002c0 0c b8 12 3d e4 f1 44 3d 51 d8 55 3b 58 d4 aa bc
       0.035820052 0.048082247 0.0032630155 -0.020853207
0002d0 11 19 89 bc a2 d2 61 bc 7d 6b ed bc 48 27 8e 3d
       -0.016735585 -0.013783129 -0.028981918 0.06941086
0002e0 ce ae 40 3a e3 f2 66 bc 86 d0 7e 3c ed 9a 2f bd
       0.00073502667 -0.014095995 0.015552646 -0.042872358
0002f0 11 ef 81 3d c8 51 b5 3c b4 9f ce bc 7f b2 6a 3c
       0.063444264 0.022133723 -0.025222637 0.014324783
000300 3e cf 81 bc c8 c6 0c 3c 96 75 2a bc 02 16 f4 bd
       -0.015845891 0.008592315 -0.010404011 -0.1191826
000310 3b d4 14 bc 29 9b d9 bb 33 bc c0 3d d1 45 84 3d
       -0.009083803 -0.006640811 0.09410896 0.06458629
000320 94 19 6e 3c 4e 19 7b 3c 38 f7 d3 3c 75 f7 1e 3c
       0.0145324655 0.015325857 0.025874719 0.009702553
000330 cf 3c ce 3d 23 51 33 3c d2 7a bf bd 77 c0 8d bc
       0.10070192 0.0109446375 -0.09349598 -0.017303688
000340 9d 81 6e 3b ec 79 99 3d c4 cb 44 3e 7e d6 75 bb
       0.0036393174 0.07493958 0.19218355 -0.003751188
000350 1c 52 22 be 62 db 59 3b e3 12 3c 3e 7d fa 06 bc
       -0.15851635 0.0033242335 0.1836658 -0.008238432
000360 b8 67 48 3c 85 55 2b bc da eb c3 bc f3 2a 1c bc
       0.01223176 -0.010457401 -0.023916174 -0.009531724
000370 87 08 22 3c 76 79 95 bb 64 a1 ea 3c bd 9e b6 3b
       0.009889728 -0.0045615984 0.02864141 0.0055731223
000380 cb 6c 4c 3c f9 70 d7 bc f8 6f a0 3c cf 3c 82 3b
       0.01247711 -0.026298987 0.01958464 0.003974534
000390 55 7c d1 bb b9 a3 cf 3d 1f b8 eb 3d 19 25 42 3d
       -0.0063929954 0.101386495 0.11509728 0.04739866
0003a0 bf 86 72 bd 6b fc f1 3b e6 00 69 bc be b6 09 bc
       -0.059210535 0.007384827 -0.014221406 -0.008405386
0003b0 27 50 80 bd 4b c9 96 bd a0 7c b0 bb ac 90 46 bc
       -0.06265288 -0.07362612 -0.00538595 -0.012119453
0003c0 f2 b9 24 3d 6f 45 6a 3d 35 09 b4 bc 68 4d cd bc
       0.040216394 0.057195123 -0.021977047 -0.025061324
0003d0 09 3b 9f 3b 88 0a 00 be 7d 1a b0 3d a6 8f 05 bc
       0.0048593325 -0.12504017 0.08598802 -0.008151924
0003e0 82 1b 49 b8 a8 22 66 bc c8 c2 7f bc 4f 56 c7 3b
       -4.7947753e-05 -0.014046349 -0.015610404 0.006083287
0003f0 67 74 22 bc 37 7d ba 3b f1 e0 c7 3c 57 54 b3 3c
       -0.009915448 0.0056911963 0.024399253 0.021890802

action_model._discrete_distribution.branches.0.bias f4 [4]
000000 9b 89 13 bd 70 8c 82 bb 98 b2 03 3d d8 2b 2f bd
       -0.036019903 -0.0039840266 0.032152742 -0.042766422

action_model._discrete_distribution.branches.1.weight f4 [1, 128]
000000 79 87 8a ba 9f 78 1c 3a da e0 57 bc 3b 7f 12 bc
       -0.0010568938 0.00059689017 -0.013176167 -0.008941467
000010 77 b2 8d bb 8f b7 54 3b 77 b5 da 3a 0b 17 87 3b
       -0.004324253 0.0032458042 0.0016686161 0.00412262
000020 f7 61 34 3b c7 1e 02 3c 94 cb 8f ba f8 65 66 bc
       0.0027524212 0.007941908 -0.0010970705 -0.014062397
000030 08 2c 20 3c 34 9d 06 bc fe 30 28 3c 7b 45 88 3c
       0.009776123 -0.008216191 0.010265587 0.016634693
000040 12 5b 3b 3b de 4f bb 3a 19 64 1d bc a2 72 18 3c
       0.0028588218 0.001429077 -0.009606385 0.009304674
000050 a2 ac 40 bb f7 92 57 3c cb 18 6a 3b aa b9 5e bc
       -0.0029399772 0.013157598 0.0035720344 -0.01359407
000060 15 7c b7 bc fa 1a 42 bc 89 24 ca bb 1a c4 08 bc
       -0.022398034 -0.011847252 -0.006168906 -0.0083475355
000070 cd 0d 58 3b c4 42 c7 3b a5 43 0d 3c 80 c5 99 3b
       0.003296721 0.006080957 0.008622085 0.0046927333
000080 22 a2 52 bb d5 2d bd 3b 07 77 9a bb 0f 76 a0 3b
       -0.0032140096 0.005773286 -0.004713896 0.004896886
000090 0b 24 b4 bb 97 a2 55 bb db 74 01 3c 20 dd c6 3b
       -0.0054974607 -0.0032598132 0.007901396 0.0060688406
0000a0 96 85 20 bc be ad 2f 3c 15 3d 71 bc 2f 9e 08 bc
       -0.009797474 0.010722576 -0.014724036 -0.008338495
0000b0 63 92 16 bc 02 7b 85 bb e0 87 f2 bb c6 45 83 b7
       -0.009190175 -0.0040735016 -0.0074014515 -1.5648908e-05
0000c0 d3 03 e6 ba e7 dd a7 3b 55 8f 71 bc 95 76 3c 3b
       -0.0017548747 0.0051228884 -0.014743646 0.0028757204
0000d0 a9 d2 32 bb 9c 5b 45 3b da 68 61 bc a2 f2 4d bc
       -0.0027286208 0.0030114418 -0.013757909 -0.012570055
0000e0 8b b6 bf 3b fa 1a cd 3b cf f6 99 ba f7 c4 04 3c
       0.0058506182 0.0062593194 -0.0011746528 0.008103601
0000f0 bf 82 27 3c 7b b3 14 39 a4 17 34 bc 53 90 d2 3b
       0.010224043 0.00014181242 -0.0109919645 0.006425896
000100 57 2c 67 3c c1 0e 9d bb 6f fb 95 bb 43 25 99 3c
       0.014109693 -0.0047930186 -0.0045770924 0.018694526
000110 31 59 2e 3c 8f fc de bb a7 19 9a 3b eb aa bf 3c
       0.010641382 -0.0068050097 0.004702765 0.02339693
000120 60 81 66 3b 0a 67 c7 bb 2a 02 53 3c 08 a4 73 3b
       0.0035172328 -0.0060852813 0.012878934 0.0037176628
000130 6b b2 ce ba 7f e1 35 3c 2b 50 db 3b d3 60 ef ba
       -0.0015769725 0.011101126 0.0066929064 -0.0018263109
000140 d0 8f 8f 3c 9a e4 f1 b9 52 7e fd 3b c2 e9 45 bb
       0.01752463 -0.00046137423 0.007736006 -0.0030199145
000150 fb a3 9c ba 26 0b a2 bb 03 5b 92 bb 8c 63 09 bc
       -0.0011950725 -0.0049451767 -0.004466416 -0.00838555
000160 4b 81 0f 3b 94 5b a0 bb 9a 56 6d 3c ba 82 80 3b
       0.0021897133 -0.0048937295 0.014485979 0.003921834
000170 6d f0 b5 bb cd 1f 21 3c 9f 8b 80 bc 2b 74 b8 3b
       -0.0055523426 0.009834242 -0.015691577 0.0056290827
000180 78 ce 70 bc 7b 3d 73 bb 03 b6 02 bc 85 64 25 bc
       -0.0146976635 -0.0037115503 -0.007977965 -0.0100947665
000190 88 1a 17 ba 63 f1 45 bc 0e 21 ad 3a 20 1b f3 bb
       -0.00057641463 -0.012081477 0.0013208704 -0.007419005
0001a0 ce 1e 30 3c 20 0e 67 3c d7 00 79 bc a7 cd 11 3b
       0.010749532 0.014102489 -0.015197954 0.0022247822
0001b0 ab 43 02 bc 1a 83 a3 3b 50 91 05 bb 27 d6 80 bb
       -0.007950704 0.0049899938 -0.0020380802 -0.003931779
0001c0 d4 45 04 bc bc 1a 27 3c 48 f7 56 3b 06 ce 41 3b
       -0.008073289 0.010199245 0.00328012 0.0029572262
0001d0 f7 82 34 3c 4a 45 25 3a 8c a0 2d bc 2b 53 83 bb
       0.011017553 0.00063045754 -0.010597359 -0.004007717
0001e0 66 45 0c bc 7b 58 92 3c 08 97 92 3a 98 15 a8 3b
       -0.008561468 0.017864456 0.0011183927 0.0051295273
0001f0 39 85 91 3c 35 ca 14 bc 1f 5a 60 bb 05 6a db bb
       0.01776372 -0.009081413 -0.0034233404 -0.006695988

onnx::LSTM_114 f4 [1, 512, 128]
000000 6e 0e 6e 3d 61 d6 c9 bc 81 ff af 3d a5 2b a2 3d
       0.05811923 -0.024638357 0.085936554 0.07918481
000010 60 f8 47 3d dd 07 0e 3e 49 52 b9 3c 96 f8 c5 bd
       0.048820853 0.13870187 0.022622244 -0.09666555
000020 f6 c2 93 bd c3 eb 27 bd e0 f8 56 bd db 99 c6 bd
       -0.0721492 -0.040996324 -0.05248344 -0.09697314
000030 14 b6 05 3e 16 80 da ba 9d 6b 08 bd 10 d2 ec 3d
       0.13057739 -0.0016670253 -0.033305753 0.11563504
000040 e9 44 01 be 03 d6 03 be 99 7f 30 bd db a4 fe bd
       -0.12623943 -0.12874608 -0.043090437 -0.124337874
000050 4a 2a b5 bc bc 3c 8c 3d 18 2f fd bd ab 5b b2 bc
       -0.022114892 0.06847522 -0.12362498 -0.021772226
000060 7b f8 1c 3e bf 63 1e 3e 5f 6f 15 3e cf 8c c0 3d
       0.15329163 0.15467738 0.14593266 0.09401857
000070 72 0c be bd e6 c3 bc bd 66 c1 2a be 7b 4d 82 bd
       -0.092797175 -0.09217052 -0.16675338 -0.063624345
000080 40 6b 24 3d 29 d3 7c bc 21 d2 3a 3d 91 3f 52 bc
       0.040141344 -0.015431204 0.04561055 -0.012832538
000090 90 e4 95 bc 47 46 0d 3e 2c 59 80 3d 37 39 5e bd
       -0.018297464 0.1379634 0.06267008 -0.054253783
0000a0 87 46 54 ba b6 d6 b1 bd 10 6e 0a bc e1 ec 65 bd
       -0.00080976676 -0.08683531 -0.0084490925 -0.05613411
0000b0 1f c0 73 bd 8a 32 fd 3c d7 2d 07 be 9b bb ca bc
       -0.059509393 0.030907888 -0.1320108 -0.02474766
0000c0 f6 78 f0 bd 1a b7 a2 bc a9 50 11 be ed 3a 22 be
       -0.117418215 -0.0198627 -0.14190926 -0.15842791
0000d0 64 29 d2 bd 22 61 77 3d 5a 46 65 bb 3e 7b e2 bc
       -0.10261801 0.060395367 -0.003498456 -0.027646657
0000e0 cc 57 a2 3d 4d 58 44 3d 41 59 e4 bc 45 da b9 3c
       0.07926902 0.047935773 -0.02787459 0.022687087
0000f0 3a 54 dc bd 81 58 1e 3e 2c 28 92 3d e1 59 fa bc
       -0.107582524 0.15463449 0.071365684 -0.030560436
000100 29 1e 58 3d c5 fa 37 3d b3 62 40 3d ca 1e 47 bd
       0.052763138 0.044916887 0.046969127 -0.048613347
000110 df 06 97 bc 10 18 d8 bd 5d da b0 3d d8 47 65 3d
       -0.018435894 -0.105514646 0.086353995 0.05597672
000120 3a 35 02 be 07 f2 65 bd 1b c2 c2 3d 9d ef 06 bd
       -0.12715617 -0.05613902 0.09509679 -0.032943357
000130 8a af 20 be 5d 5a 3b 3d fc 92 b9 bd 23 a7 c3 bb
       -0.15691963 0.045740474 -0.09061238 -0.005970852
000140 47 32 0d be 8c 06 a2 3d 9c 31 82 3d bd ae 12 3e
       -0.1378871 0.07911405 0.063571185 0.1432447
000150 b9 57 d0 3c d2 4b 9b 3c 97 1d 04 be 69 df 21 3e
       0.025432454 0.018957052 -0.12901913 0.1580788
000160 6c 44 74 bd dc 62 31 3c 86 33 b6 3b b9 a2 d6 bc
       -0.059635565 0.010826793 0.0055603413 -0.02620064
000170 a8 65 b6 3d a0 5d 22 be fb d8 d1 bb 1a 3f 0f 3e
       0.08906108 -0.15856028 -0.00640404 0.13988915
000180 8b 12 fe bd d7 b2 2e bc d0 03 66 3d a1 2b a1 bd
       -0.124058805 -0.010662756 0.05615598 -0.0786965
000190 96 8b 04 be 52 a1 74 bd ee cb d7 3d e5 8c 56 bd
       -0.12943873 -0.05972416 0.105369434 -0.05238046
0001a0 bf b5 eb 3d f0 0d 74 bd f3 37 ec bd 91 32 2a 3e
       0.11509275 -0.059583604 -0.11534109 0.16620852
0001b0 99 1c dc 3d 01 c1 b6 bc c7 1e 66 bd 65 22 de 3d
       0.10747642 -0.022308828 -0.056181695 0.10846404
0001c0 05 a0 2b 3d 11 80 a2 bd 20 30 97 3d 75 ec c2 bd
       0.041900653 -0.07934583 0.07382226 -0.09517757
0001d0 04 e1 8d 3d 32 cd 56 bd 7c 1e 8b 3d 18 27 18 3e
       0.06927684 -0.052441783 0.06792924 0.14858663
0001e0 0d a4 1f bd 72 a9 81 3c 8b 3d 46 bd f5 61 51 bd
       -0.03897481 0.015827868 -0.048398536 -0.05111881
0001f0 1a 7a 16 bd d9 53 d1 3d f9 b7 0e bd c5 b4 ca bc
       -0.03673754 0.10221071 -0.03484342 -0.0247444
000200 34 5b d2 3d 63 85 d4 bd 5c 1f b4 3d 1e 58 52 3d
       0.10271302 -0.10377004 0.08795044 0.051353566
000210 56 18 1a bd 59 ae 1c be dd ff 16 3d f4 11 26 3d
       -0.037620865 -0.15300883 0.036865104 0.040544465
000220 7a 48 79 bd 6b 88 fb 3d e3 e0 e2 bd 9d 24 8f bd
       -0.060860135 0.12281879 -0.1107805 -0.06989405
000230 79 a4 df bd 64 dc f8 3c e1 25 ac bd 8f 16 ab bd
       -0.109200425 0.030378528 -0.08405662 -0.08353912
000240 90 b8 0e be 7c c9 b4 3d 24 e2 b2 3d 52 b4 ad 3d
       -0.13937593 0.088274926 0.08734539 0.08481659
000250 03 21 b7 3d d4 d8 36 be c3 ad eb bc a3 c6 e1 bd
       0.08941843 -0.17856151 -0.02876938 -0.11024215
000260 ff 71 79 bd 7b 15 2a 3e e0 1b 89 bd 40 58 a1 3c
       -0.06089973 0.16609757 -0.0669477 0.019695401
000270 b0 aa 9c bd db ae 11 bd b7 48 6d bd 32 19 0f 3e
       -0.076497436 -0.035567146 -0.057930674 0.13974455
000280 9f 4d bf bd a9 8e c1 3d 65 71 ce bc 1a b1 84 3d
       -0.09340977 0.094510384 -0.025200555 0.06479092
000290 8e 94 33 be cb a6 52 bd 8c 78 69 3d 5a 8e a9 bd
       -0.17537138 -0.051428597 0.056999728 -0.082791045
0002a0 6d 16 8f bd 4e 74 24 3c b9 46 87 bd f9 3a 8b 3d
       -0.06986699 0.010037495 -0.06605286 0.067983575
0002b0 8c 1c 0b 3e 99 cb 50 bd 0c 60 1e bd 89 4d 54 3d
       0.13585109 -0.050975416 -0.038665816 0.051831756
0002c0 68 20 29 3e a0 26 88 bc be 17 8f bb 0e f5 34 bd
       0.16516268 -0.01661998 -0.004366844 -0.044179015
0002d0 71 64 9d 3d 62 87 8c bd 4d d3 30 be f6 1e 6a bd
       0.07685173 -0.0686176 -0.17268105 -0.057158433
0002e0 9e c3 05 3e cd 2e e9 3d 03 d8 c5 bc 26 63 cb 3d
       0.13062903 0.1138588 -0.024150854 0.099310204
0002f0 98 f7 2d 3e 60 cb 0e 3e 0a ed 72 bd a0 3d 01 be
       0.16988981 0.13944769 -0.05930809 -0.12621164
000300 a2 1e e1 3d d1 43 69 3d 23 bd 5f 3d 8c d8 26 3d
       0.10992171 0.05694944 0.054623734 0.04073386
000310 fe 9c 22 bc c7 ac a6 bd 03 73 ac 3c 52 d0 16 3e
       -0.009925125 -0.081384234 0.021050936 0.14727905
000320 d0 c0 84 bd 68 e0 12 bd dc e6 0a be c3 4b 77 bc
       -0.064820886 -0.03585854 -0.13564628 -0.015093747
000330 bc e0 f7 bd ba 4f 95 bd b6 1e b3 bd 62 61 0c 3e
       -0.121034116 -0.07290597 -0.08746092 0.13709024
000340 8a f9 92 3d 74 6f d6 3d 92 2b 02 be a6 f3 fa bd
       0.07176502 0.10470477 -0.12711933 -0.122535035
000350 54 cd a6 bd 36 de 2f be 20 22 58 3d 77 0c b8 bd
       -0.08144632 -0.1717461 0.05276692 -0.089867525
000360 ca aa b2 bd a8 1d 2b bd 5e 2e 5a bb 8e 2e a5 bc
       -0.08723982 -0.04177633 -0.0033291797 -0.0201638
000370 69 c8 29 3a a6 97 1a be e7 d7 16 bd ed 42 87 3b
       0.0006476702 -0.15096912 -0.036826994 0.004127851
000380 67 90 d5 3d 02 2e 07 bd 20 4b a3 bc ef c4 c1 bd
       0.10427933 -0.03300286 -0.019933283 -0.0946139
000390 50 48 a9 bd e8 63 da bd 58 cc 0b be 8e 15 4c 3c
       -0.08265746 -0.10663587 -0.1365217 0.012456311
0003a0 07 d8 47 bd fa fb 9b 3d e2 b3 e4 bd e2 61 ba 3b
       -0.048790004 0.0761642 -0.111671224 0.005687938
0003b0 62 9d 55 3d 9d 68 dd 3c e9 8e 82 3d 08 8d a2 bc
       0.052152045 0.027027423 0.06374914 -0.01984264
0003c0 cd 2b 78 bd 5a 1d 3a 3c 2b 33 eb bd 39 9d 90 bd
       -0.060588647 0.011359537 -0.11484369 -0.07061238
0003d0 f8 b4 d1 3d 4b 06 61 bd 18 ad 01 bd bf 5a e2 bd
       0.10239595 -0.054937642 -0.031659216 -0.11052465
0003e0 89 3c e4 bd 31 ea c9 3d b9 81 e4 3d bf 9a a1 3d
       -0.11144359 0.098591216 0.11157555 0.078908436
0003f0 87 f3 22 be 60 ca cf 3d 48 fc d5 3d c5 c9 26 be
       -0.15913211 0.10146022 0.104485095 -0.16287906

onnx::LSTM_115 f4 [1, 512, 128]
000000 1d ec 46 3c 03 c8 d8 3d 5a 94 26 3c 19 5f aa 3c
       0.012141255 0.10585024 0.010167206 0.0207973
000010 b1 b4 9a bd 67 ca 56 bc 75 44 60 3d d8 59 78 bd
       -0.075539954 -0.01310978 0.054752786 -0.060632557
000020 a8 d1 d2 bd d1 10 17 be c7 95 de 3d bf 3c 48 3d
       -0.10293895 -0.14752509 0.108684115 0.048886057
000030 e7 af 9c 3d ce e7 cd 3d 32 65 23 bd 36 e0 9d 3c
       0.07650738 0.10053979 -0.03989143 0.019271951
000040 e7 c1 a6 bd e7 93 ae 3d d0 c3 99 bb ee eb 9a 3d
       -0.08142453 0.08524304 -0.004692532 0.07564531
000050 d3 4f fb 3d d0 3d cf 3b f7 01 cd bd ab ed 15 be
       0.12271085 0.0063245073 -0.100101404 -0.14641444
000060 20 9f 21 3e 10 5c 19 3c ce ff 29 39 b0 9e 15 be
       0.15783358 0.009360328 0.0001621239 -0.14611316
000070 65 89 0e be 04 01 0f bd 54 10 89 3d 2b 86 8c bd
       -0.139196 -0.034913078 0.066925675 -0.06861528
000080 bf 21 f4 bd af 42 bc bc d0 95 60 3d e3 ef 38 bd
       -0.11920499 -0.022981016 0.054830372 -0.04515065
000090 0f 13 09 3e 17 7f 38 bb 1b 11 d3 bc 81 5f 35 bc
       0.13386177 -0.0028151923 -0.025764992 -0.011070133
0000a0 3c 3f 81 bd 08 3b be 3d ee 10 95 bd b7 cb 01 be
       -0.06310889 0.09288603 -0.0727862 -0.12675367
0000b0 db fc 97 bd ca 88 83 bd 57 72 c1 3d 28 55 bb bd
       -0.07421275 -0.06422575 0.09445637 -0.09147102
0000c0 68 c5 12 3e 93 b1 0c 3e 5b da c7 3d b2 03 2c bb
       0.14333117 0.13739614 0.09758445 -0.002624732
0000d0 3f 05 82 3d 26 d8 d6 bb ea 69 05 be 2a 74 78 3d
       0.06348657 -0.0065565286 -0.13028684 0.060657658
0000e0 c7 53 51 bd 78 c6 de 3d 43 ad e4 3d 37 b6 14 bd
       -0.051105287 0.10877699 0.111658596 -0.036306586
0000f0 3c 95 02 3c ad ea 9a 3d 75 11 1f 3c d4 f7 76 3d
       0.007970151 0.07564292 0.009708752 0.06029494
000100 ea a1 34 3d c6 9d 32 3d bc c0 f8 3d cf 7f 1a bc
       0.044099726 0.043607496 0.12146136 -0.009429886
000110 76 72 0c be 75 71 e1 3d 9c 56 75 3d d8 9b 8a bb
       -0.13715538 0.11007968 0.05989705 -0.004230004
000120 fe cc ca 3d 92 71 10 bd c5 69 99 bc 04 03 d2 3d
       0.099023804 -0.03526456 -0.018727193 0.102544814
000130 d3 13 80 3c c3 48 8b 3d 88 86 0a 3e 6d 98 90 3b
       0.015634453 0.068009876 0.13527882 0.004412702
000140 1e 90 41 3d b1 91 2c 3d ca 1a 21 bd 96 df a0 3d
       0.04725658 0.04213113 -0.03933219 0.07855146
000150 41 47 be bd 24 3f 09 be 87 7f d4 bd 95 f0 b8 3d
       -0.09290934 -0.13402992 -0.103758864 0.090302624
000160 07 25 ef bd c1 04 9b 3c e5 bc 08 3e cc 38 d2 bd
       -0.11676984 0.018923165 0.13353308 -0.102647394
000170 88 e3 dc 3c 09 f9 14 be e4 b1 48 bd 80 22 c5 bc
       0.026963964 -0.14548124 -0.048997775 -0.024064302
000180 9d bc 2f 3c 8e 5e 56 3d 56 af 00 3d 6d 48 5a bd
       0.010726121 0.052336268 0.031417213 -0.053291727
000190 47 4a 07 3e f9 e9 e9 3d cd 9f 08 be 78 89 ce bd
       0.13211928 0.1142158 -0.13342209 -0.10084814
0001a0 f3 dc 14 3e 74 03 19 be 74 c9 dc bd 24 00 95 3d
       0.1453741 -0.14942724 -0.10780612 0.072754174
0001b0 81 ee 2e bd c9 f2 4d bc b3 1d 82 bd 24 41 ba 3d
       -0.042707924 -0.0125700915 -0.06353321 0.09094456
0001c0 c5 dd e4 3c bd 62 e6 bd 0f 05 b3 bd 49 3a c3 bc
       0.02793778 -0.112493016 -0.08741199 -0.023831503
0001d0 bf e4 ae 3d 9f d1 f8 bd f8 e0 ed 3b 5f 0c 85 3d
       0.085397236 -0.12149357 0.0072594844 0.064965
0001e0 2b b9 f6 bc c2 9c 76 3d 9b 34 ad 3c 68 d0 93 3d
       -0.030117592 0.06020809 0.021143248 0.07217485
0001f0 da 03 a6 bd cc f8 92 3d ba ca 15 be 9d ee c8 bd
       -0.081062034 0.071763605 -0.14628115 -0.09811137
000200 3c 29 5d bd 92 1e 7c 3d 90 49 a5 bc 95 36 d6 bd
       -0.053994402 0.06155259 -0.020176679 -0.104596294
000210 ca fd 8b 3d 95 51 67 bc 1e de c4 bd 28 df e0 bd
       0.06835516 -0.014118572 -0.09612678 -0.10980064
000220 38 30 99 3d 5d a9 02 be cc cd e1 bd fd cb 14 be
       0.074799 -0.1275992 -0.11025581 -0.1453094
000230 09 79 1b 3c da 6e e5 bd 38 43 a0 bb b4 d1 22 be
       0.009489306 -0.11202784 -0.0048908256 -0.15900308
000240 77 03 b9 3d e6 3f a6 bc 12 48 3c 3d 43 60 41 bc
       0.09033864 -0.020294141 0.04596717 -0.011802736
000250 a3 34 b8 bd a0 3f ea 3d 83 6e f9 bd cc 87 dd 3d
       -0.08994415 0.11437917 -0.121792816 0.10816917
000260 a3 f9 bd bd f5 95 93 3d ab 64 1a be 29 3b 38 be
       -0.0927613 0.072063364 -0.15077464 -0.17991318
000270 46 de c7 bd f2 37 c2 3d 7a ce 11 3c 96 75 d0 bd
       -0.09759192 0.09483327 0.0088993255 -0.10178678
000280 12 85 30 3d d4 cd 8d 3d b8 37 9c 3d 14 d6 fb bd
       0.043095656 0.06924024 0.07627815 -0.122966915
000290 56 1f 61 bd 4d ed d5 bd 3f 28 a1 3d e2 1a 57 3d
       -0.054961525 -0.10445652 0.078690045 0.05251587
0002a0 a7 55 c2 ba 44 1b 09 be 0c 71 19 3e fe 61 0a 3e
       -0.0014826552 -0.13389307 0.1498453 0.13513944
0002b0 52 20 87 bd f6 58 ff 3c 1a 04 93 bd fc 3d 55 bd
       -0.065979615 0.03117035 -0.07178517 -0.052061066
0002c0 98 2e f0 bc 83 e6 e8 bc 57 e1 c6 3d 6c 27 10 be
       -0.029319093 -0.028430229 0.09710949 -0.14077538
0002d0 2c d4 e4 3d 2e 02 fa 3d a1 b9 ee bc 15 7d 12 3d
       0.11173281 0.12207447 -0.02914125 0.03576382
0002e0 8a 36 63 3d 70 26 1d be a4 51 d2 3d 65 42 d4 bd
       0.055471934 -0.15346694 0.10269478 -0.10364226
0002f0 b9 b3 b7 bd 95 2c c9 3d 16 8e 87 3d a5 2d a3 3d
       -0.08969826 0.098229565 0.066188976 0.079676904
000300 84 f2 d4 bd ee 32 06 be a5 29 95 3d 54 c3 cb bc
       -0.10397819 -0.13105366 0.07283334 -0.024873413
000310 51 3e c6 bd b9 4c a6 3d 3f b7 1f 3e 8b d6 1d 3d
       -0.09679855 0.081201024 0.15597247 0.038534682
000320 1a 6a 3d 3d ef 5a 3e bd 78 f0 d0 3c 82 8c 82 3c
       0.046243764 -0.04647344 0.02550529 0.01593614
000330 fb 51 8d bd 11 de 3f bd 4c ab af bd 6e d6 24 3e
       -0.06900402 -0.04684264 -0.08577594 0.16097423
000340 a9 b0 91 bd 6f 86 db 3d d9 82 99 3c b6 bc 3b bc
       -0.071137734 0.107190005 0.01873915 -0.011458566
000350 1c b4 0d 3e 88 3e 1e be 85 ee d2 3d 2f 50 92 bd
       0.13838238 -0.15453541 0.102994 -0.071442
000360 98 7a 15 be 91 3f a3 3c 90 07 07 3e e4 f6 e0 bd
       -0.14597547 0.019927772 0.13186479 -0.10984591
000370 7b 6a fb bd b6 c7 05 3d 08 bf b3 3d 07 e9 49 3d
       -0.12276169 0.032661162 0.08776671 0.049294498
000380 44 be b7 3d 8c ac f1 bd d9 46 3b be 64 a7 25 be
       0.08971837 -0.11800489 -0.18288745 -0.16177136
000390 88 26 93 bd 08 05 95 bd d2 8a d6 bd a4 46 db bd
       -0.07185084 -0.0727635 -0.104756966 -0.10706833
0003a0 41 65 30 3e 60 29 d0 bd 18 3b 25 bd 65 78 9e 3d
       0.17226125 -0.10164142 -0.04033956 0.07737807
0003b0 a7 c0 41 3d 47 e6 f0 bc b1 e6 6f bd 65 27 0a 3e
       0.04730287 -0.02940668 -0.058569614 0.1349159
0003c0 f8 fe d2 bc 80 ce a7 3c 53 70 a6 bd b9 be be 3c
       -0.025756344 0.020484209 -0.08126893 0.023284303
0003d0 4d 02 57 bd f9 25 f7 3d 34 df 84 3d 1d 54 a6 bd
       -0.05249243 0.120677896 0.06487885 -0.08121512
0003e0 cb 21 68 3d 03 bf 72 bd 58 30 51 3d 2f 0a 21 be
       0.056672852 -0.059264194 0.051071495 -0.15726541
0003f0 0a d0 1e bd 06 80 a1 bd 9e ea de bd 12 4e db bd
       -0.03877262 -0.07885747 -0.108845934 -0.1070825
