Machine-Learning-DRL/results/SeekerTrainingWall7/Seeker.onnx (onnx, 610983 bytes, 11 tensors)

discrete_act_size_vector f4 [1, 2]
00000000: 0000 8040 0000 803f
4.0 1.0

network_body._body_endoder.seq_layers.0.weight f4 [128, 8]
00000000: 1c39 9e3e 0b32 73bf 2649 883d 8cf7 13bf
00000010: 8f05 1a3f f940 253f 730c 3cbe 5c23 6d3e
00000020: 8657 813e 793d 293d 6923 fc3e b02d f43d
00000030: 9f5c ccbe bd3a b03e 7cfd b3bd 0fd0 8b3e
00000040: a912 773c 9d74 42bf d3aa 443d af8b e639
00000050: 1fd7 ffbd 9555 1bbe 9bf3 78be 134f 803e
00000060: c16d 1a3f 59e5 67bd d085 94be 138a 2e3f
00000070: 1cd3 9dbe 6190 a7be 129e d7be 30e3 173f
00000080: e909 0ebf 5630 a43d 0098 e73e f6d9 1abf
00000090: 7a32 b1bd 2a8a 11bf ebde a23d 690c 0cbd
000000a0: 37a2 83be f3f5 3cbd 9606 33be bb46 0b3e
000000b0: 0a66 56be e350 183d 5039 d93e bf78 d33d
000000c0: 1721 533f 5a71 ae3e 6269 bf3c cedb c2be
000000d0: e100 a1bd 8c0a 2e3e fd2a 8ebd 515f 8e3e
000000e0: eec8 2fbe 4cf8 6e3e cfa3 623e 1ce0 663f
000000f0: 3f7f 77be f632 f73e 7215 29bf 0898 be3d
00000100: 2ff7 87be 3492 333f ad38 96bd df8b 39bf
00000110: 5bdc 8fbe f74e 0f3c 925a 093f 4880 f93e
00000120: ce28 ae3c 5d49 02bf 5ab1 3bbe c51c 06bf
00000130: 429b adbe bf0d 93be c35a 03bf 7f1e 50be
00000140: 24f6 2fbe 5071 efbe 0687 13be a14e 943e
00000150: a7a0 fcbe 3a9f fb3e c92f 533f 316c ad3e
00000160: eb61 993e 37f5 35be 9166 843c 8604 85bd
00000170: 162e f73e e064 30be 755a 773e 1ee1 0bbf
00000180: 26ef 9bbd df3b 053f b9ac c63d c14b 2a3d
00000190: 1d1f dc3e af46 1cbf a825 8abe 3f78 63be
000001a0: ed87 bf3d 40bc 85be 817e 043f 0e89 2fbe
000001b0: 069d 48bf d73c 853e b682 933d 4223 66bd
000001c0: 7746 04bf 182f 7cbe 42bd 0cbf 9d94 663e
000001d0: 4f88 483e 974b 083f 3290 8ebd abbe 6abd
000001e0: d9ce 603d 0dd5 f53e a44d 383b 8775 133e
000001f0: 451f 0c3f e217 85bf 49e0 c63e 333d ebbe
00000200: 935e b23e 870a 86be f08c 53be 7f3a 973e
00000210: 46fb 593e f790 acbc abba e53e 417b 853e
00000220: 005e 303f 8d4c 76be 96e3 b83e 1cd5 043f
00000230: 4d9e f3bd 8f86 d23e 8cff 86be bee9 ec3d
00000240: e124 113e 5a54 19bf 77e6 aebe 2e41 633e
00000250: 7929 123f 3361 ca3e 790f 4bbe cd81 8d3e
00000260: 6023 ec3d 81e8 8bbe d867 843e 1880 bfbd
00000270: 8d50 2a3d ae2c 5dbe d874 20be 38b8 48bf
00000280: a055 2cbe dcdb c8bd bcd0 963e e1eb 7dbf
00000290: 1c1b 63bc 2fba 6dbe 8a1a bbbe 64c7 02bf
000002a0: 68e7 26be 21ff 873e 669b 62bd d115 8cbe
000002b0: 39e6 273d ae46 0a3f e543 183d b778 6d3d
000002c0: 2026 a03e c692 063e 7030 40be ba35 0e3f
000002d0: fcee 953d 23d5 d0be c5d1 003f f770 0e3e
000002e0: a334 ebbd bf68 4e3e d0a1 49be ade4 953d
000002f0: cf35 08bd 5c98 343e 9acf 113f 25d4 c13d
00000300: 4e7b bbbe 5ba4 d0bc 3ca6 093e 1373 01be
00000310: b46c 163f 8fff 1dbe a7fd c5bd 07e0 6a3e
00000320: c078 2b3e 5cdf 9d3e d1f2 6fbd ec1a 393e
00000330: edd0 223e 55d2 db3d 1494 4bbd cd4e 143f
00000340: f548 a23d 34a9 ba3e e063 f4be 4ad5 8a3e
00000350: 182f e7be 0ca5 e5be a604 eebe e796 933c
00000360: f827 713e a60e 0ebc d2fc 873e 2657 753d
00000370: fcc7 e1be c640 393f 8cc9 11bf 391b 873d
00000380: c929 8c3e 7499 0a3e b84f dfbe fb2b 023f
00000390: 18dd 7a3e cd33 a1be e256 9dbd 5bc1 2ebf
000003a0: 64ee 7d3e 6f63 cf3e 18a4 3c3f d8d0 2dbc
000003b0: d4e2 20be 5d53 2abd 1264 b73d fa6a babe
000003c0: 3072 bf3d 66ec 83be d136 ae3e 1ec5 0e3f
000003d0: 2061 b43e b330 eebd b45c 65be 0e39 39be
000003e0: d3c3 0bbd 9d69 a63e 0d30 ef3d 3475 58bf
000003f0: f2f2 923d ba82 dcbe 47c4 a83e b0d1 bebe
0.30902946 -0.94998235 0.06654577 -0.577996 0.6016473 0.64552265 -0.18364124 0.2315802
0.25262088 0.04131839 0.49245766 0.11922777 -0.39914414 0.34419814 -0.08788583 0.27307174
0.0150801325 -0.7595919 0.048014473 0.0004397309 -0.12492203 -0.15169366 -0.24311678 0.2506033
0.6032372 -0.056615207 -0.2900834 0.68179435 -0.30825126 -0.3272734 -0.42112786 0.59331036
-0.5548387 0.08017032 0.45233154 -0.6048883 -0.08652206 -0.56851447 0.079526745 -0.034191523
-0.25709698 -0.046132993 -0.17482981 0.136012 -0.20937362 0.037186515 0.42426538 0.10325765
0.82472366 0.34070855 0.02336568 -0.38058323 -0.07861496 0.16996211 -0.06941793 0.27807096
-0.17166492 0.23336905 0.221328 0.90185714 -0.24169634 0.48281068 -0.6604835 0.093063414
-0.26555774 0.70144963 -0.07335029 -0.7247905 -0.28097805 0.008746854 0.53653824 0.48730683
0.021259692 -0.50893193 -0.18329373 -0.5238765 -0.33907515 -0.28721425 -0.51310366 -0.20324133
-0.17183739 -0.46766138 -0.14406976 0.2896624 -0.49341318 0.49144918 0.8249479 0.33871606
0.29957518 -0.17769323 0.016162189 -0.064950034 0.48277348 -0.17225981 0.241556 -0.54640377
-0.07613973 0.5204448 0.09700913 0.04157615 0.42992488 -0.61045355 -0.26981854 -0.22213839
0.09352098 -0.26120186 0.5175553 -0.17142126 -0.783646 0.2602298 0.072026655 -0.05618597
-0.5167002 -0.2462734 -0.54976285 0.22517629 0.19583248 0.5324034 -0.06961097 -0.05731074
0.054884765 0.48014107 0.002812245 0.14400302 0.54735214 -1.0397913 0.3884299 -0.4594513
0.3483778 -0.26179907 -0.20659232 0.29536816 0.2128726 -0.021065218 0.4486898 0.26070598
0.6889343 -0.2405264 0.36111134 0.5188768 -0.11895428 0.41118285 -0.26366842 0.1156802
0.14174224 -0.59894335 -0.34160206 0.22192833 0.5709453 0.39527282 -0.19830121 0.27638093
0.11530185 -0.27325824 0.25860476 -0.09350604 0.041580725 -0.21599075 -0.15669572 -0.78406096
-0.16829538 -0.0980756 0.29456127 -0.9918805 -0.013861444 -0.23215555 -0.36543685 -0.51085496
-0.16299212 0.26561835 -0.05532398 -0.27360395 0.04099104 0.540141 0.037174124 0.05797645
0.31279087 0.13141927 -0.18768477 0.5555073 0.07320973 -0.4078761 0.5032008 0.1391028
-0.11484649 0.20157145 -0.19690633 0.07319007 -0.03325444 0.17636245 0.569574 0.094642915
-0.36617512 -0.025468996 0.1344232 -0.12641554 0.5875962 -0.15429519 -0.09667521 0.22937022
0.16745281 0.30834472 -0.058581177 0.18076676 0.15900011 0.10733477 -0.049701765 0.5793274
0.07924072 0.36457217 -0.4773245 0.27115852 -0.45153117 -0.44852483 -0.4648792 0.018016292
0.23550403 -0.008670485 0.26560074 0.059897564 -0.44097888 0.7236446 -0.5694816 0.06596989
0.2737563 0.135351 -0.43615508 0.5084836 0.24498403 -0.31484833 -0.07682587 -0.6826379
0.2479797 0.4050555 0.7368789 -0.010608874 -0.15711528 -0.041583408 0.08954634 -0.36409742
0.093479514 -0.25766295 0.34026197 0.55769527 0.3523035 -0.116303824 -0.22398645 -0.18088171
-0.0341223 0.32502452 0.11679087 -0.8455384 0.071752444 -0.43068486 0.32962248 -0.37269354

network_body._body_endoder.seq_layers.0.bias f4 [128]
00000000: f0ca 1b3c 2668 f23c ca16 983a 66ef b53c
00000010: ebf5 c73c 668f 10bc ef28 f0bb 56f7 863c
00000020: 175e 6dbb d7ce 4739 a537 623b 4da3 40bc
00000030: 8b30 ddba d9a8 103d 67d1 bebc f647 243c
00000040: 534f c83b ae7f 3f3b 1a3e 363c 6b3f 17bc
00000050: 0fe2 873b 0e7d 483d c242 673d eaf7 943c
00000060: 5350 cebc a686 20bc 5613 873b bf26 093b
00000070: 6015 243d d84f de3a 7f1a 323c 116a 75bc
00000080: 3212 9cbb deae 4bbc 80a4 553c d4a0 bd3b
00000090: 6694 3d3c 95a5 bfbc 23c7 92ba 1c96 303c
000000a0: 8ff2 7d3c 3094 6fbc 7c95 2cbc d2ea aabb
000000b0: 442f 9d3b b011 34bc 8bf4 45bb 884a bc3c
000000c0: 4619 1e3d 459b 243c 350c 6a3d 9c95 523d
000000d0: 1843 ec3c c2b4 9d3c c76a 433c 51f1 77bb
000000e0: dd47 89bc e1d2 523c 2a72 36bd dabe abbb
000000f0: 286d ffbb 68e8 7fbc 75f8 373d 7129 2a3d
00000100: 132d 503c f102 2bbb feaa 853a ee9d bfbc
00000110: 0a02 033c 7b3a 9fbb a55c 943b b9c1 3a3d
00000120: 174a 7e3c 4bed d1bb 2598 a53c bab6 853c
00000130: 00d6 74bb 2d60 0c3a c8ff 18bd 169f cf39
00000140: d6ce 2c3b 233b a5bc 5d92 323c db9f 993b
00000150: d776 823c 5bc3 43bc 0e85 963a 40e9 3abc
00000160: fd6f babc b1db c4ba a167 d93b 754f 97bc
00000170: 52d9 0c3d 4e7f eabb 2782 cf3b 0f33 703c
00000180: fbe8 b8bb 652c 39bc 8441 2f3c b4f1 4abc
00000190: a0b1 953b c2e2 22bc 67e2 2e3b 79af 31bc
000001a0: a349 1d3c d595 b33a d11e d5bb 49f6 b73b
000001b0: 3f7f c63b a101 e8bb ec50 22bc 13ce 4f3d
000001c0: bb66 1dbc 7aac 3d3c 95db 0ebc e3fd c53b
000001d0: 2202 a33a 358d 993b 4da1 683c 502d ce3b
000001e0: 072f 66bc 4fd6 89bb d4b2 ba3c 1052 bd3c
000001f0: 9144 a33b 2f95 beba 03ac cb3b ed8d 8e3c
0.009508833 0.029590677 0.0011603471 0.02220888 0.024409255 -0.008823251 -0.0073290984 0.01647536
-0.0036219412 0.00019055173 0.003451803 -0.011757684 -0.0016875429 0.035317276 -0.02329321 0.010026922
0.006112972 0.002922039 0.011123205 -0.009231429 0.0041468213 0.048947386 0.05646015 0.01818462
-0.025184786 -0.009797728 0.004122178 0.0020927635 0.040059447 0.0016961051 0.010870575 -0.0149789015
-0.0047629112 -0.012431828 0.013039708 0.0057869945 0.0115710255 -0.023394385 -0.0011198263 0.010777976
0.015499725 -0.014622733 -0.010533687 -0.005215981 0.0047968943 -0.010990545 -0.0030205573 0.022984758
0.03859832 0.010046785 0.057140548 0.05141221 0.028840587 0.019251231 0.011927313 -0.0037833045
-0.0167579 0.01286766 -0.04454247 -0.005241257 -0.007794995 -0.015619375 0.04491468 0.041543428
0.012706059 -0.0026094283 0.0010198054 -0.023390736 0.007996092 -0.0048592663 0.0045276457 0.045594905
0.015520594 -0.0064064614 0.02021415 0.016322482 -0.0037359 0.00053549075 -0.037353307 0.00039600645
0.00263684 -0.0201698 0.010899154 0.0046882457 0.015925808 -0.011948432 0.0011483745 -0.01140815
-0.022758478 -0.0015019086 0.006634668 -0.018470505 0.03438694 -0.007156289 0.006332654 0.014660611
-0.005643008 -0.011302088 0.0106967725 -0.012386728 0.0045682937 -0.009941759 0.002668524 -0.010845059
0.009600076 0.001370127 -0.0065039177 0.0056140763 0.0060576494 -0.0070802723 -0.009906989 0.050733637
-0.009607012 0.011576766 -0.008719345 0.0060422285 0.0012436549 0.0046860226 0.014198613 0.0062920228
-0.014049298 -0.004206456 0.02279035 0.02311042 0.004982539 -0.001454031 0.0062155738 0.01740166

network_body._body_endoder.seq_layers.2.weight f4 [128, 128]
00000000: 74e6 2abd 76be 1a3d 769f 55bd 0385 60bd
00000010: f970 30bd 245d 2ebd 71fd 90bd 1780 88bd
00000020: 01ec b43d 7056 e2bc c198 203e 84e1 d0bd
00000030: 3723 d23d cd3c 583d ad65 543d c147 0ebe
00000040: 9288 a1bd fdfa 1f3e af88 e73d bb9d be3c
00000050: 94dc 193e ec81 533c 7090 093e a6cd 0a3d
00000060: d836 b63d 8d8f 1fbd 8e43 2f3d 0ca1 9bbd
00000070: 5237 8abb 0a17 f2bd 335f f8bc 8976 a03d
00000080: e3d4 a73d 1b32 cc3c 1456 5fbd 42ab 37bb
00000090: a7df d0bd ddec ad3a 29e6 97bd 2f12 0ebd
000000a0: 00f2 b03c c3a5 5bbd d27c 35bd 2577 c03c
000000b0: e61d 0e3e 0272 df3d 8d1c 33bd d0ed 42bb
000000c0: 5a3e d4bd f73b c03d d203 a2bd 18b7 c83d
000000d0: b0d1 37bc 586b f1bc f8be 31bc 6abf 823d
000000e0: 2fe2 d23c 1059 063e 8a99 9fbb d098 55bd
000000f0: b04e cdbd 175a f1bd 4fc1 f5bc 668f 083e
00000100: 1a9e a9bc 5c34 563d 9d52 363c 5655 493c
00000110: 18ea 32be 3487 bfbc d509 983d 6c33 513d
00000120: 033e e13d 671b 543d 7c24 5bbe 8918 a6bd
00000130: d913 4d3d 861c 6a3d e1c2 7a3d 2030 863d
00000140: 3319 f93c 896f 42bd 8858 1f3e c107 3dbd
00000150: 74a5 353b dd67 84bd adb4 32bd 180d aabd
00000160: f882 413d 428a 9f3d db52 94bd 706f 1e3d
00000170: 0e4b 8b3d 0ef7 9b3c f66d d6bc c614 15bd
00000180: f172 8ebd b7be e03d 266a df3b 6998 413d
00000190: 7c2b e6bd 675b 07be f730 adbd 41d4 813e
000001a0: 744e 04be 9eec 7fbd 60be 223c 8b57 36bd
000001b0: 7868 1b3c 1043 99bd 38fa dfbd 2410 50bd
000001c0: fdf1 ba3d 647a d73d 8c60 05be 5a9f c73c
000001d0: 0044 28be 6f3e 213d dee0 f83d ac91 8ebd
000001e0: 2c76 d8bc 28d6 b43d e4fe dfbd 43bd b8bd
000001f0: e7d6 66bd 18e8 2dbd d3d6 553d d072 373c
00000200: 4679 673d 3176 08bd c82f 193d 5fd7 893c
00000210: eaa2 8bbd 750f b03c de39 a1bd e6c2 f4bc
00000220: d470 03bd 0aad b93d 2e26 b73c 3198 4dbc
00000230: 7374 843c 4f7d 40bd 6323 ebbd 2aef 1d3d
00000240: c22f cdbd 10a0 c3bd a82c 993d b748 68bd
00000250: fa2e fdbd 6f22 c6bd 67bb 27be c380 003e
00000260: 26a8 c73d 590f 35bd d06d 68bb 6513 8abd
00000270: 3c1e 6bbd 3bb9 1bbd 6a73 203e 4985 7f3b
00000280: 55c4 e33c 44fc 04be 3833 4e3e 5cce 39be
00000290: 62da fb3c 183a 3ebd 421a c3bd fb99 33be
000002a0: 3017 90bd c29d cf3c 3b81 75bd fc2f 92bc
000002b0: 5bf6 4e3d c68b 88bd 5833 f5bd 7ca9 703d
000002c0: fc37 d33d 5555 c7bb 0251 87bc 6959 9c3c
000002d0: 6a3a 963c 6474 e13c 383a 1a3d 8ec5 6bbd
000002e0: 4122 1a3e cd0d 24be da1e b5bb 91d0 353e
000002f0: 3e90 8e3d a2fd 173d 40b0 6e3d 1b2d 9bbd
00000300: faf0 283e 426e 0ebe b3e0 02be 250b 263d
00000310: ca29 f23c f3c4 6abe e0ca 50bd 04a5 b53b
00000320: c6f0 50bc a4f5 8c3d 1c61 003e 152a bf3d
00000330: 8a76 483d b90a 8dbd 38a2 633e f354 2a3c
00000340: cc19 893d d8b1 9e3c 7ab8 7c3d 7a10 603e
00000350: c5e9 86bd c715 da3c 6477 54bd da76 b53d
00000360: 3a39 b9bd cf61 723d 4cbe c2bc d75b c83c
00000370: a5c0 afbd aa04 0e3e 8f2d 883c 60fa 2d3d
00000380: 228e 8dbc 73bb 503d 9253 b03d 4afa b3bd
00000390: dd70 983d b008 fcbd bfb1 003d d742 b63c
000003a0: 4f47 843d d469 1b3d 0992 6dbc 1356 333e
000003b0: f1f6 b93d fe68 63be 3159 6a3d cf08 a13d
000003c0: 617f d9bd 0d37 913b 41b1 19be 154c b6bd
000003d0: aa73 e5bd cf2c 59bc 09b7 0c3e 41bb 26be
000003e0: 2094 473d 6c5b 2dbd 1bbb dcbd 3527 023c
000003f0: fbab 82bd 6365 ccbc 3b9b 80bd a9a2 1fbe
-0.041723683 0.037779294 -0.052154027 -0.05481435 -0.04307649 -0.042569295 -0.0707959 -0.06665056
0.08834077 -0.027629107 0.15683271 -0.10199264 0.10260623 0.05279236 0.051854778 -0.1389456
-0.07887377 0.15623088 0.11305367 0.023268571 0.1502555 0.012909394 0.13434005 0.033887528
0.08897179 -0.03895526 0.042789035 -0.07599077 -0.0042180205 -0.118208006 -0.030318832 0.07835109
0.08194902 0.024926236 -0.05452545 -0.0028025662 -0.10198908 0.0013269443 -0.074169464 -0.03468531
0.02159977 -0.05362488 -0.04430849 0.023494313 0.13878593 0.10910417 -0.0437284 -0.0029743798
-0.10363455 0.093864374 -0.07910885 0.09800547 -0.011219427 -0.02947013 -0.010848753 0.063841656
0.025742618 0.13119912 -0.004870598 -0.052147686 -0.10024774 -0.117847614 -0.029999403 0.13335952
-0.020705272 0.052296028 0.011128095 0.012288412 -0.17472112 -0.0233799 0.0742375 0.05107443
0.10998156 0.051783945 -0.21400636 -0.081101485 0.050067756 0.05715611 0.061221007 0.06552148
0.030407524 -0.04746965 0.15561116 -0.046149973 0.0027717026 -0.06465123 -0.043629337 -0.08303279
0.047244042 0.077900425 -0.07242366 0.038680494 0.06801425 0.019038703 -0.02617548 -0.036396764
-0.06955517 0.10973876 0.006818074 0.04726449 -0.11238763 -0.13218461 -0.08456605 0.2535725
-0.12920552 -0.062481515 0.009933084 -0.04451708 0.0094853565 -0.07483494 -0.10936397 -0.050796643
0.09128187 0.10521391 -0.13025111 0.024367977 -0.1643219 0.039366182 0.12152265 -0.069613785
-0.026423536 0.088299096 -0.109372884 -0.09020474 -0.05635729 -0.04245767 0.052206825 0.011196807
0.05651214 -0.03331584 0.037399083 0.01682633 -0.06818183 0.021491745 -0.078723654 -0.029878091
-0.032090023 0.09066208 0.022357073 -0.012548492 0.016168809 -0.046994504 -0.11481359 0.038558163
-0.10018875 -0.09552014 0.07479221 -0.05670997 -0.12362476 -0.096745364 -0.16380082 0.12549119
0.09748869 -0.04420409 -0.0035465844 -0.067419805 -0.05740188 -0.038018446 0.15669027 0.0038989356
0.02780358 -0.12986857 0.20136726 -0.18145126 0.030743781 -0.04644212 -0.09526493 -0.17539208
-0.07035673 0.02534378 -0.059937697 -0.017845146 0.05052791 -0.06667285 -0.11972684 0.058755383
0.103134125 -0.0060831704 -0.01651812 0.019085603 0.0183384 0.02752132 0.037653178 -0.05756145
0.1505213 -0.1602089 -0.0055273594 0.17755343 0.06961106 0.037107117 0.058273554 -0.075769626
0.16498175 -0.13909248 -0.12781028 0.040537972 0.029560942 -0.22926693 -0.050974727 0.005543353
-0.012752717 0.0688279 0.12537044 0.093341984 0.048941173 -0.06886811 0.2222985 0.01039623
0.066943735 0.019371912 0.061699368 0.21881285 -0.06587557 0.026621712 -0.051871672 0.0886056
-0.09044118 0.05917531 -0.023772381 0.024457855 -0.08581666 0.13868967 0.016623287 0.042475104
-0.017279688 0.050960016 0.0860969 -0.08787973 0.07443402 -0.123063445 0.031419512 0.022248669
0.064589135 0.037942722 -0.0145001495 0.17513303 0.090803035 -0.2220802 0.057213966 0.07863008
-0.10619999 0.0044316114 -0.15009023 -0.0890123 -0.11203702 -0.013255312 0.13741697 -0.16282369
0.048725247 -0.042323515 -0.10777875 0.007943918 -0.06380459 -0.024950689 -0.06279608 -0.15589394

network_body._body_endoder.seq_layers.2.bias f4 [128]
00000000: ce92 45bb 577a 373b 4f53 a53b 427f 65bb
00000010: adc5 183c 756f d43b 4761 9abc 05eb b53c
00000020: 4891 b8bb c32a 913b 280a 833a 1e38 583c
00000030: 46f0 ca3b f301 25bc 0f2c b7bb fc64 98bb
00000040: 43bc 373c d9c7 beba f280 9cbb fa0e 3bbb
00000050: e083 47bc f6b6 70bb 5ec7 013c e3a1 a7ba
00000060: 6aaa f43b 2d7b 133c da58 9bbb 2e89 a2bb
00000070: b0e9 ffbb be7d 17bc 7afd 9f39 89aa 003c
00000080: cc0f e63b 73a2 143c 8a93 983c d1a9 fa3b
00000090: bb21 56bc ae04 8f3a 39b6 813a 1c5d 1eba
000000a0: 351e 14bb 23ca 9d3b e83a 1cbb a9ed 763b
000000b0: 176e c13b ba61 933c 4a28 d2bb 89b5 cdba
000000c0: 9f76 493c 27ea 17bc ae31 7bba dbe0 85bc
000000d0: ae0c 74bb e093 84bc 391f 553b b37f fabb
000000e0: 46e2 b73a 15af d43c 31ee 64bc 7a13 953c
000000f0: d949 3d3b a7ab de3c 713a d83b 3e03 ab3c
00000100: 1383 5fbc c1c9 573c 563a 843c 0c46 d2ba
00000110: 326a 4ebc a240 29bc f5e1 b3bb 939e d3bb
00000120: 8db3 d33b 5c62 66bc 2c29 ee3b aec7 f3ba
00000130: 9684 b73b ce26 73bc f3f5 fc3b bdc8 473c
00000140: c21d 893b a990 ba3c 2371 2b3c 9c0e f5bb
00000150: 917f 283c e938 62bb 2bbd 55bc 4210 063c
00000160: 8fcf cd3b 4bab 50bb 4d5a ac3c 30c6 fbbb
00000170: 7f98 7abb 09e6 8e3c b057 2cbc fde5 2c3c
00000180: 92ee 933b 60f7 1e3a 1e7d cf3b 987a 613b
00000190: 1bb2 1cbc 86b6 bdba 6ced 243c 020b 73b9
000001a0: 5767 033c 69d8 b83c 50e1 b5ba 2745 373c
000001b0: 6fb0 bbba a228 a1bb 4f80 95bb 0d05 3b3c
000001c0: 1c14 ad3c 040e 9dbb 9198 65bb c1d6 1c3c
000001d0: 3ec1 033c 7ab6 91bb 12fc 533c f8f0 64b7
000001e0: 91f6 af3c bc17 8dbb 1325 223c ac79 ac3c
000001f0: a87d 073a 52f8 2d3b 76be 69bc c8ca 933b
-0.0030147317 0.0027996504 0.0050453315 -0.0035018479 0.009324473 0.0064830133 -0.018845214 0.022206793
-0.0056325532 0.0044301464 0.0009997534 0.013196973 0.0061931936 -0.0100712655 -0.005589969 -0.00465071
0.011214319 -0.0014555409 -0.0047761137 -0.0028542862 -0.012177438 -0.0036730147 0.007921068 -0.0012789335
0.007466604 0.009001535 -0.0047408165 -0.0049602007 -0.00780984 -0.009246288 0.00030515698 0.007853159
0.007020926 0.009071934 0.01862504 0.007649638 -0.013069565 0.0010911429 0.0009896226 -0.0006041096
-0.0022601013 0.0048153563 -0.0023838822 0.0037678278 0.0059030163 0.017990936 -0.0064134942 -0.001569436
0.012296348 -0.009272135 -0.0009582293 -0.016342571 -0.0037239003 -0.016183794 0.003251983 -0.0076446175
0.0014029227 0.025962392 -0.013972805 0.018197764 0.0028883128 0.02718146 0.0065987636 0.02087557
-0.01364209 0.0131706605 0.016141098 -0.0016042604 -0.012598561 -0.010330351 -0.0054895827 -0.0064581125
0.006460613 -0.014061537 0.0072680917 -0.0018598938 0.0056005223 -0.014840795 0.007719749 0.012193856
0.0041844556 0.022774057 0.010463986 -0.007478548 0.01028432 -0.0034518784 -0.013045589 0.008182587
0.0062808464 -0.003184038 0.021039153 -0.007683538 -0.0038237867 0.017443674 -0.010518953 0.01055288
0.004514524 0.00060640834 0.006332054 0.0034405347 -0.009563948 -0.0014473952 0.010066371 -0.00023178387
0.008020244 0.02256413 -0.0013876352 0.011185921 -0.0014319549 -0.004918174 -0.0045624147 0.011414778
0.021127753 -0.0047929306 -0.0035033564 0.009572686 0.008041678 -0.0044468017 0.012938516 -1.3645964e-05
0.021479877 -0.004305808 0.0098965345 0.021054111 0.00051685655 0.0026545716 -0.014266601 0.0045102574

action_model._discrete_distribution.branches.0.weight f4 [4, 128]
00000000: aa03 2ebd cf48 e13c 851c fc3c 7354 01bd
00000010: 8538 dc3c 6ef9 e33c 8c43 803d bdc9 24bd
00000020: 3a2b 1ebd fc89 32bc b27a b23c 8115 0fbd
00000030: 45c9 2f3d 9701 103d cb8b 07bd 6f34 a43d
00000040: 83e9 f2bc 4ec2 883d 84c6 693d c220 11bd
00000050: eafb 743c d586 90bd c4fe 3d3d 063b cebc
00000060: 64d0 f7bc f9c7 a93c 5818 5d3d 8a52 113d
00000070: 514f 103d 8f58 1fbd 3e19 06bd c792 18bd
00000080: 70e5 2dbd 558f 393d 0859 f13c 114c d0bc
00000090: ad37 3dbb e689 fbbc f02b 32bd c56d 3dbb
000000a0: 97c8 0dbd b67a ecbc f8dc 20bd e2be ecbc
000000b0: 4f1d 1ebd 0c31 2e3d 3766 143d 6a72 083d
000000c0: 22f2 1dbd fc23 61bd 9c5d 3ebc 18a0 27bd
000000d0: 6432 1a3d 4d8d cf3c 5fb3 12bd 9324 e43c
000000e0: b616 27bc 8858 203d 910c d73c bbbb fd3c
000000f0: c56d deba 2729 fd3c e11f c7bc f6e9 b63c
00000100: eb7c 563d 4207 543d d98e 79bd 356b a13d
00000110: 243e ee3c 12f0 6abd 024c 363d dae6 973d
00000120: 8ebd 0f3d c3fe 2a3d f63f 323d 0dea 28bd
00000130: 1c52 1cbd 32ac 873c 2e5f 8e3c 8dc5 213d
00000140: 1639 be3c 399c 0c3d af5c 38bd dece 8dbd
00000150: a506 e43c ee8e 00bd 852b 5abd 10a9 cebd
00000160: 38bb e63a f372 4dbd 582d 0b3d c119 3e3c
00000170: 955e 9b3c f18d bf3b 96f5 273d bd7d 0f3d
00000180: 91ea 5c3d 3411 d63c 3fa8 34bd c339 b43c
00000190: 358d bebc 0e91 18bd b4e7 35bd 7421 74bd
000001a0: 81e1 ee3c d74d 5abc b1d7 07bd 8c6f 113d
000001b0: 99bf 143c 0b97 273d 822e b73c df32 d63c
000001c0: 8aa5 f0bb 4917 a3bc 2b8e 733d 8391 313d
000001d0: 8236 10bd a1ef 3cbd 0656 8e3d 5ce6 85bc
000001e0: c6f7 14ba 6f8e bd3c 655f db3c 41f1 ae3c
000001f0: 25d8 093d 8920 453d 5c32 193d 95d2 973b
00000200: 1a0a e63b 177c 913b 8906 b23c 4566 413c
00000210: 4542 97bc c414 93bb 2e1d 90bc bca8 b73c
00000220: 05a6 873c 7032 413c 001a 993d c2cd 053a
00000230: f3a4 a83c aea0 b53a 5a48 54bc b1c2 eb3c
00000240: 6bcd 133c 6dbd 6cbc 2d96 c0bb 01c6 b03c
00000250: 9d5c b23d dbe9 b2bb 507a 56bb b3f9 18bd
00000260: 00c8 41bc ea7f 603b f8d0 86bb d40c 87bb
00000270: 7625 e2bb ad12 b43c 9903 823b 91d6 8fbc
00000280: d70a 7ebc c650 9bbc 016d 933c 2519 1f3c
00000290: 5f70 cd3b 59ef 243d 7fcf c93b c709 16bc
000002a0: 56f8 053d d78f 153c 93a1 993b 17a2 9ebd
000002b0: e0ea 813a 632d a9bc 87c2 223c 5b12 d4bc
000002c0: b05f b0bb bea8 50ba 23c0 523c 8ede 363c
000002d0: 6b2c 9bbb ee73 123c 6ba5 c33b b728 5c3c
000002e0: 23da 093d 58f9 b4bb 3083 0b3b 78ee 223c
000002f0: a085 573a d5f4 d7bc d60f e03b 7842 253c
00000300: cf98 28bd 0734 60bc c7dd 9b3c 9541 0a3d
00000310: 7a9e f3bc 0456 893c 9b7c e2bc bc8d eb39
00000320: 578b 3eba a27a 37bc d3b9 84bc 3130 3c3c
00000330: b7e6 1b3b 400e cebb bdaf 533c b14f 0ebc
00000340: 30fc 993d 9128 293c 271f 323d a19a ab3c
00000350: dab3 6ebb 8341 19bc 9a11 1dbc f515 bc3b
00000360: 20be 80bc 3c4f 90bc 9b03 a7bb 4f47 f2bc
00000370: 0be9 fabb 9832 8ebd 609b 74bc bd2e 60bd
00000380: 8bc5 b8bd 9b11 e0bc 8ebd aa3a e35d 6d3c
00000390: cdc6 e2bc 2b60 20bc a22e 1d3d f041 c53c
000003a0: 0047 773d 6b88 363c e935 f9bb c13c 8fbb
000003b0: 82f7 a8ba 733b 1dbc 6fdb 543c d4ef 553c
000003c0: 860a 8ebc 48de 2dbc 34bb 99bb df8c ebbb
000003d0: 80c6 a7bc 0563 ea3c 3633 15bc cb26 7f3d
000003e0: 2ca2 1f3c aff4 0ebc 7b8a c2bc 1ba2 383b
000003f0: 18db 37bc edd1 b5bb b1d1 a2bc a29e d13b
-0.042483963 0.027500538 0.030775318 -0.031574678 0.02688242 0.027828898 0.062628835 -0.040231455
-0.038615443 -0.010897156 0.021787021 -0.034932617 0.042916555 0.035157766 -0.0330923 0.080178134
-0.029652363 0.06677686 0.057074085 -0.03543163 0.014952639 -0.07056967 0.04638554 -0.025174629
-0.030250736 0.020725237 0.053978294 0.035479106 0.035231892 -0.038902815 -0.032738917 -0.037249353
-0.042455137 0.045302708 0.029461399 -0.025426896 -0.0028872297 -0.030705404 -0.043498933 -0.002890454
-0.034615126 -0.028867107 -0.039273232 -0.028899614 -0.03860217 0.042527243 0.036230292 0.03331224
-0.038560994 -0.054965958 -0.011618998 -0.04092416 0.037645712 0.025335932 -0.035815593 0.027849471
-0.010198286 0.03914693 0.02625111 0.030973306 -0.001696997 0.030903412 -0.024307193 0.022328358
0.052365225 0.051764734 -0.060927246 0.07881776 0.029082365 -0.057357855 0.04450608 0.07417078
0.035092883 0.041746866 0.04351803 -0.041238833 -0.038164243 0.016561601 0.01737937 0.03949504
0.02322058 0.034328673 -0.045010265 -0.069242224 0.0278352 -0.03138631 -0.05326416 -0.1009084
0.0017603403 -0.050158452 0.03397879 0.01160282 0.018965999 0.005845778 0.041005693 0.035032023
0.053934637 0.02613125 -0.044105764 0.0220002 -0.023260692 -0.03724771 -0.044410422 -0.059602216
0.029160263 -0.0133242225 -0.033164684 0.03550677 0.009078884 0.04091553 0.022361044 0.026147304
-0.0073439525 -0.019908564 0.059461754 0.04335166 -0.035208233 -0.046126965 0.069500014 -0.016345195
-0.0005682673 0.023139207 0.026778886 0.021355273 0.033653397 0.04812673 0.037401542 0.0046332576
0.007020247 0.0044398415 0.021731632 0.011804168 -0.018464217 -0.0044885594 -0.017592039 0.022419326
0.016558656 0.01179181 0.07475662 0.00051042077 0.020586466 0.001385709 -0.012956703 0.02877936
0.009021143 -0.0144494595 -0.0058772773 0.02157879 0.08709071 -0.0054600067 -0.0032726713 -0.037347507
-0.011827469 0.003425593 -0.0041142665 -0.0041214023 -0.0069014383 0.021981562 0.003967714 -0.017558368
-0.015505514 -0.018959414 0.017996313 0.009710585 0.006269499 0.040267322 0.0061587687 -0.009157605
0.032707535 0.009128532 0.0046884506 -0.0774576 0.0009911917 -0.020651525 0.009934074 -0.025887659
-0.0053825006 -0.0007959715 0.012863192 0.01116146 -0.0047355196 0.008938773 0.005970647 0.013437442
0.033655297 -0.005522888 0.002128791 0.009944551 0.0008221511 -0.026361862 0.0068378253 0.010086648
-0.041161355 -0.013684279 0.01902665 0.03375395 -0.029738653 0.016764648 -0.027647307 0.00044928293
-0.0007268688 -0.011198672 -0.01620189 0.011486099 0.002378864 -0.00628832 0.012920317 -0.008685992
0.07518804 0.010324613 0.04348674 0.020947756 -0.0036423118 -0.009353998 -0.009586716 0.005739922
-0.015715659 -0.017615907 -0.0050968654 -0.029575018 -0.0076571754 -0.06943244 -0.014929622 -0.054732073
-0.09022053 -0.027352145 0.0013026462 0.014487716 -0.027682686 -0.009788553 0.03837455 0.024079293
0.060370445 0.011140923 -0.0076053035 -0.004371256 -0.0012891146 -0.009596693 0.01299177 0.013057668
-0.017339002 -0.010612078 -0.004691506 -0.007188424 -0.020480394 0.02861167 -0.009106448 0.062292855
0.009743255 -0.008725329 -0.023747673 0.0028172794 -0.01122167 -0.0055487067 -0.01987538 0.0063970843

action_model._discrete_distribution.branches.0.bias f4 [4]
00000000: 5121 febc b0c5 ef3b eafe 923c c24e 0ebd
-0.031021746 0.0073172674 0.017943818 -0.034743078

action_model._discrete_distribution.branches.1.weight f4 [1, 128]
00000000: e141 b63b d8bf aebb f084 3c3b 9230 f2bb
00000010: 31b0 b43c 811d 1bbc 6308 a438 968f 11bc
00000020: 462d 263b efdc 47bb 94a4 953b 966d b239
00000030: 05b7 fc3b 3ae8 d5bb f84a 203c 0de1 66bc
00000040: f22b dd3b d851 db3b 8686 2f3c da53 283a
00000050: 5f4c f7bb b2d3 1f3c d39d c13b e53f 92bc
00000060: ab85 3abc 6b3a a53b e7cf 1fba 1552 58ba
00000070: 7abf a13b a68e 43bc bd1b 593c 387e 523b
00000080: 6a79 b1bb 3b93 e13b da9f 25bb b71b 85bb
00000090: a929 cb3b 98f0 3fbc d363 56bc 72f9 3a3c
000000a0: b204 603a cb99 6dbb 2b00 a8bb 7630 a8ba
000000b0: 8358 053c 78ed af3c 7b9b 8abb 43fb 8e3b
000000c0: 768a 3abc 2a38 b8ba b7ac 813c fb72 1cbc
000000d0: d2cb c0bb 6f29 85ba 138d 533a afba 2bb9
000000e0: 2473 313c 90c8 603c e254 a2bc f7d9 61bc
000000f0: 93cc cd3b 4ded f83b fbd6 e63b 2007 99bb
00000100: 999c 8fbb 7b81 683c 7ffd 653c f8d2 b9bb
00000110: 238a 333c 0f2d 533c 2cb5 3bbc 1fef 11bc
00000120: b355 983b 4d30 873c 3cfe b73c 08af febb
00000130: 1ae7 483a 17b1 8c3a c2b7 6b37 bbbc dcba
00000140: d0c0 efbb ed66 5e3b 5f95 6ebc 8f4c 18bc
00000150: 16d7 843a fb83 a5bb d7b9 b03c f836 513a
00000160: 8bf0 07bc e75d 13bc 9289 07bb 0451 24ba
00000170: 3f81 c63b 6ff9 94bb 370b 443c f321 1abc
00000180: 0588 74bb 27ab c23b 2dfb efbb 2a07 e4bb
00000190: d360 f63b 5739 d1bc f7a5 a3bc a3e5 8cba
000001a0: 9354 92ba cff2 123c 9b89 42ba c872 1fbc
000001b0: ed03 4838 f9f1 aabb d8f1 3ebc 0cfa 40bc
000001c0: b3c4 3fbc 1b21 95bb 103f 553c ea8f e5bb
000001d0: 7b0d 84bb 0915 08bc 789a db39 6df4 61ba
000001e0: 2088 e93b 24f9 803b c263 953a c4b9 833b
000001f0: 45e6 613b b7a2 42ba 8789 1dbc 40a5 5dbc
0.0055620526 -0.005332928 0.002876576 -0.007391044 0.02205667 -0.0094674835 7.8216915e-05 -0.008884331
0.0025356575 -0.0030496677 0.0045667384 0.00034032454 0.0077122473 -0.0065279277 0.009783499 -0.014091742
0.0067496235 0.006693106 0.010713225 0.0006421186 -0.007546946 0.009755062 0.0059087067 -0.017852733
-0.011384408 0.0050423644 -0.00060963485 -0.0008251977 0.004936156 -0.0119358655 0.013251242 0.003211869
-0.005416085 0.0068840063 -0.002527228 -0.0040621418 0.0062000346 -0.011715077 -0.013085323 0.011412011
0.00085456215 -0.0036254998 -0.005126973 -0.0012831825 0.008138779 0.021475539 -0.0042299605 0.004363449
-0.011385551 -0.0014054824 0.015829427 -0.009548898 -0.0058836723 -0.0010159443 0.0008070033 -0.00016377376
0.010830674 0.013719693 -0.019815866 -0.013784877 0.0062804907 0.007596648 0.0070446706 -0.004670039
-0.0043826816 0.014191027 0.014037489 -0.0056709014 0.010958227 0.012889161 -0.011456769 -0.008907109
0.004648888 0.016502524 0.022460096 -0.00777233 0.00076638313 0.0010733929 1.4049876e-05 -0.0016840914
-0.007316686 0.003393586 -0.01456198 -0.009295597 0.0010134901 -0.0050511337 0.02157299 0.0007980908
-0.008297096 -0.008994556 -0.0020681364 -0.0006268176 0.006057888 -0.0045463364 0.011965564 -0.009407508
-0.003731252 0.005940813 -0.0073236437 -0.006958862 0.0075188666 -0.025540037 -0.0199766 -0.001074959
-0.0011164121 0.008969023 -0.00074210175 -0.009731956 4.7687372e-05 -0.0052168337 -0.01165434 -0.011778366
-0.011704612 -0.0045510656 0.013015524 -0.0070056813 -0.0040299273 -0.008305796 0.00041886023 -0.0008619491
0.007126823 0.00393595 0.0011397528 0.0040199477 0.0034469527 -0.0007424759 -0.009615309 -0.013528168

onnx::LSTM_114 f4 [1, 512, 128]
00000000: d165 d0bd 7345 abbd 64fd 0cbe 1a5b eb3d
00000010: 19b5 34be 40af 783d 5bda be3d 8a3f fd3d
00000020: 1264 4dbd c064 d2bd 14aa abbd 404f 003e
00000030: 4012 88bd e08d e13b 9f3b c4bc 1446 a5bd
00000040: 5e53 f03d cd03 e0bd 10b2 71bd 4098 b93b
00000050: 6b58 87bb 8983 803d bfdc 50bb 60c1 32bd
00000060: cb25 093e d072 0cbd b1ae e7bc 1698 debd
00000070: a553 903d 3d12 a1bc 9c8e 14be 5f33 00be
00000080: 2d53 96bd 8954 a8ba 68fa 5abd 91e2 053e
00000090: 3dd5 e0bd 8e88 85bc 3df2 b43d 8e9d 14be
000000a0: a0d4 d5bb 207e f93d 9284 aa3c 84de 233e
000000b0: 4ecb 703d e7d4 8dbc fb9a 23be 12b3 55bc
000000c0: c34b fd3c 7ecd 93bd 9044 3a3d e943 00be
000000d0: 6e5c 1ebe 8faa 293e 7dd7 84bc ad7b 303d
000000e0: 54f3 c1bd 0c53 0a3e cb96 0f3e b81c 0ebe
000000f0: 8805 583c f173 2e3e dbfe bebd 6049 223e
00000100: 84c7 58bd 99f7 08be 4df7 2c3d c327 dbbd
00000110: b4d4 6abd 074c 64bd afe9 883d eee2 a0bd
00000120: ec9a 0abe 8de2 693d 6585 9abd 9098 bbbd
00000130: 38ab 6ebd d36b 0c3d 9761 e73c b78c f6bd
00000140: b66f 633c 6057 03be 02d4 e2bd 717a 92bd
00000150: 4f86 9dbd 683e 74bc 41f1 c03d 7aa4 963d
00000160: fe7d 4fbd 56d4 e7bd c33b 8c3c 9df9 2dbe
00000170: 8875 8abc a1f5 96bd 45c5 c2bd f3ee 5e3d
00000180: fa90 21bc 5768 cbb8 753d 9d3d 5175 ccbb
00000190: 65fd e33d 7b03 35bd d24b 35bd f6ab aa3d
000001a0: 96e4 b2bd e180 1c3d a768 2e3e 2a67 c2bd
000001b0: 230e 19bd 23d8 f83d 9532 0c3e 77c9 5c3d
000001c0: 5660 66bd 5ee1 033e 0e17 a2bd b401 85bc
000001d0: 3a48 703d 1f55 94bd 57e2 9dbd 0db5 dc3d
000001e0: a9fe b43d c92f 603d 3ed3 9a3c 0b6f 2b3e
000001f0: a2a0 093c 529f 9cbd eb19 543c 16da c4bd
00000200: b603 96bd 2f2f ad3c 6da5 6abd f65e 1a3e
00000210: 40cd 6e3d c470 b2bd b000 fabd 02a6 3dbd
00000220: c996 b73d e11b 243e 4e08 a53d c96b 3bbd
00000230: 9c06 d8bc ee67 a23d c67b 2d3d c8de 35bd
00000240: 7ae6 a93d 6811 e9bd e69f 56bd dc24 b7bd
00000250: 5850 213a 3663 fa3d c800 723d 019f 093e
00000260: faf1 32bd da7a 8bbd b6e8 9f3d c806 263e
00000270: fd92 8dbd 308b ec3d eaea 67bd 419d c63d
00000280: ad9a 12be 1f47 d4bc 1db4 ddbd b60d 783c
00000290: 8bd4 143e e6cb afbc d58d 1abe d425 87bd
000002a0: d22d 153e a90b f53d 3d8e 033e 466f cbbb
000002b0: 97fb 933d 01ec 0bbe f5dc e9bd acd3 6dbd
000002c0: 3294 96bc b6ac 683d 0df7 2abd 4298 9ebd
000002d0: 760e e53d 7484 b03d 5559 e33b e95a 92bd
000002e0: 8ec1 afbd c670 94bd 6b67 023e 6cd4 d83d
000002f0: 11ad d3bd ea29 163d d04a ee3d 5f0e 893d
00000300: 6e64 d5bd 8798 5bbc 42e9 dfbd c0c9 83bd
00000310: aba6 bdbd c4d9 623d 5550 543d 0315 bcbd
00000320: 2d23 01be 4ca8 07be f09f d1bd 84da 103c
00000330: 5826 cfbd 4d1c 07be c902 c9bc 0797 1a3e
00000340: 6fce dabd 81d3 c7bc 8190 013d f75b 55bd
00000350: a4b7 d6bb a651 93bd d7ce d8bd bc61 8f3c
00000360: 1c14 7c3c e40d d8bd 1364 293d 0347 cbbd
00000370: cb77 6c3d 2eb0 ffbd b285 c13d b96d 71bd
00000380: 5018 f23d 4ce7 b33d 7aa1 60bd 3bda 4f3c
00000390: a8d8 60bd fb7e 9c3c 680e 57bd e512 623d
000003a0: 286d 963d d320 df3b f3aa e1bd bb0c 3a3e
000003b0: afd0 fdbd 24e1 173e 641c 75bd e52c 893c
000003c0: 15fc d23b 9ea3 5bbd 9f96 a93d a796 be3d
000003d0: e176 973d c107 023e 23b2 40be 0913 4a3d
000003e0: 773f ef3d cfe1 2dbd 558b f0bc b7b1 003d
000003f0: 1c22 a6bd ce67 8a3d 5050 c7bd d3c5 103e
-0.1017567 -0.08362856 -0.13768536 0.114919856 -0.17647208 0.060714006 0.09318992 0.12365635
-0.050144263 -0.10273123 -0.08382049 0.12530231 -0.06644106 0.006883368 -0.02395421 -0.08070007
0.11734651 -0.10938225 -0.059007704 0.0056639016 -0.0041304133 0.06275088 -0.0031869856 -0.043641448
0.13393323 -0.03428918 -0.028281542 -0.10868852 0.07047204 -0.019662017 -0.14507526 -0.12519597
-0.07340083 -0.0012842576 -0.053461462 0.1307471 -0.10978172 -0.016300466 0.08835266 -0.14513227
-0.006525591 0.121822596 0.020815168 0.16002852 0.058787636 -0.017313434 -0.15977089 -0.013043182
0.030919915 -0.07216929 0.045475543 -0.12525906 -0.15464947 0.16568969 -0.016216034 0.043086696
-0.09470239 0.13508242 0.14022367 -0.13878143 0.0131849125 0.17036416 -0.093259536 0.15848303
-0.052924648 -0.13375701 0.042228032 -0.10700943 -0.057331756 -0.055736568 0.066851966 -0.078557834
-0.1353566 0.05710082 -0.07544974 -0.09159958 -0.058268756 0.034282517 0.028244777 -0.12038558
0.013881614 -0.128263 -0.110755935 -0.0715226 -0.07691633 -0.014907457 0.094210155 0.0735559
-0.050657265 -0.11319797 0.01711834 -0.16989751 -0.016901746 -0.07371069 -0.095102824 0.0544271
-0.009861225 -9.699229e-05 0.076777376 -0.006239571 0.111323155 -0.044192772 -0.04426176 0.0833358
-0.087350056 0.038208846 0.17032109 -0.09492333 -0.037366997 0.121506 0.1369117 0.05390307
-0.056244217 0.1287894 -0.079145536 -0.016236164 0.05866263 -0.07242798 -0.077091865 0.1077672
0.08837635 0.05473307 0.018899556 0.16741578 0.008400114 -0.076475754 0.012945632 -0.09611909
-0.073249266 0.021140663 -0.05728667 0.15075287 0.05830121 -0.087129146 -0.122071624 -0.046300896
0.08964307 0.1602626 0.080582246 -0.04575709 -0.02637034 0.07929979 0.042354368 -0.044401914
0.08295913 -0.11380273 -0.052398585 -0.08942577 0.0006153635 0.12225954 0.059082776 0.13439561
-0.043687798 -0.068105415 0.07808058 0.16213524 -0.069128014 0.115499854 -0.056620516 0.096979626
-0.14316817 -0.02591282 -0.108253695 0.015139988 0.14534204 -0.021459531 -0.15093167 -0.06599012
0.1456826 0.119651146 0.12847228 -0.006208333 0.07225721 -0.13664247 -0.11419097 -0.058063194
-0.018381212 0.056805335 -0.041739512 -0.077438846 0.11184399 0.086190134 0.0069381394 -0.07146246
-0.085818395 -0.07248072 0.12734763 0.10587391 -0.10335744 0.036661066 0.11635363 0.06692194
-0.10419546 -0.013403065 -0.10933162 -0.06434965 -0.09260305 0.05538346 0.051834423 -0.09183695
-0.12611075 -0.13247794 -0.10235584 0.008841161 -0.10114735 -0.1319439 -0.02453746 0.15096675
-0.10683905 -0.024392845 0.03163195 -0.052089658 -0.0065526534 -0.071933076 -0.105863266 0.017502658
0.015385654 -0.105495244 0.041355204 -0.09925654 0.05773143 -0.124847755 0.094493285 -0.05894253
0.118210435 0.08784351 -0.054841496 0.012686308 -0.05489412 0.019103518 -0.052503973 0.0551938
0.07345039 0.006809333 -0.11018934 0.18168919 -0.12393319 0.14831978 -0.05984153 0.01674504
0.006438742 -0.053622834 0.08280682 0.093060784 0.07395721 0.1269827 -0.18817954 0.04933456
0.11682027 -0.042451676 -0.029363314 0.031419482 -0.081119746 0.067580804 -0.09732115 0.14137964

onnx::LSTM_115 f4 [1, 512, 128]
00000000: c499 c1bc bcba 013e 934f ff3d 88f0 b43d
00000010: 3923 973d b5b8 923d 9066 eebd 32db 01be
00000020: 385e 033e 8ecf 023c e26e 003e b2ca 31bd
00000030: f88a 133e 76a1 973d 7d0b 1ebd c005 0cbd
00000040: 203b 1a3e d2d8 39bd caaf 48bc 9810 7bbd
00000050: 9fbd cabc 1661 08bc c254 be3d 4828 babc
00000060: 4f0f a9bc b69d 893d 591b d6bd e840 f7bd
00000070: 5f66 b23d 74f0 d33c ceb2 a9bd 4b79 cc3d
00000080: ba84 01be 8c6a 3d3d 2893 e23b 2274 653d
00000090: 9833 f6bd f6d7 a2bd c59c acbd b563 0cbe
000000a0: 9dd6 b9bc 1c45 d23d 0b18 dc3d 965c d23a
000000b0: 5b32 46bd 3cb9 113e 848c f5bd e95e a4bd
000000c0: b9f8 583d 41f4 6e3d 1bd0 eabd c76a 07be
000000d0: 7f91 2b3d 48c0 c5bd df38 b63d 5368 46bd
000000e0: 0745 d2bd a020 31bd 60df 30bd 751c 9bbd
000000f0: 78d1 d63c bbef 1dbe 3f30 db3d 5e52 23be
00000100: ab5b 723d 8c39 f0bc 4179 e83d 3627 a73b
00000110: c423 f8bc 0aa6 0b3e 00eb 08be e11f 073d
00000120: f037 65bd 50b5 283d 835e 0dbe 8255 7ebc
00000130: 4835 bbbd 452f e93d 4d27 e63b fa2a 67bc
00000140: 80b1 a43d 085c 63bd d134 4e3d 87c0 c13d
00000150: 336a cdbd 3265 2f3d 6ed4 2e3d b18e 733d
00000160: 9a1e a139 2bca 063e 82aa 103e a497 4b3d
00000170: 21c3 5ebd 66eb a03d 2299 19be ed20 1ebe
00000180: 5e1e ec3d b406 bf3d 5ba8 97bd 4278 f7bd
00000190: e655 0fbe 1bb7 c83d 3fca d53b 3e38 d03d
000001a0: a709 233d 9dd8 0ebc 84fd 0d3d b239 bd3b
000001b0: e6f3 7cbd 33a7 abbd bfb8 073d 9783 063e
000001c0: 53e3 4abd 9bac 74bd b745 c63d ce45 9bbc
000001d0: 8033 f439 cc85 8a3d 37da c43d f308 d2bd
000001e0: 6500 c2bd 83a2 8c3c 916b a4bd dd92 813d
000001f0: 0c42 0fbe f188 c4bd f998 233d e475 e5bc
00000200: 8dc7 92bc 57f1 aebc 0145 ccbd 8a58 b4bd
00000210: 9a20 00be 5ad1 acbd fbe6 eb3d 8185 1ebe
00000220: 230a 11be 2f13 dabd 958a d9bd 29a1 b8bd
00000230: 2761 273d 2ee3 0b3e 62d0 f8bd dbfd 11be
00000240: 8472 24be b760 e03b 5d0f 193e 3171 fa3d
00000250: c59d 7cbc 39c1 11bd 6e5b f33c 8835 cd3d
00000260: d951 28bd 10d4 ebbd f5dc 773d f011 053e
00000270: 31bb aa3c e8ff 063d 0d99 023e 385d 6abd
00000280: 4d7a f33c 3a16 213e 975e 9bbd e787 e23d
00000290: 4774 653d c1fc ff3d c4b1 c2bd 1d9e 0b3d
000002a0: 3ea7 b23d a380 c3bd fa4b 34bc 08da 1bbd
000002b0: 7695 37bd f1fe 063e 5779 8f3d 6b09 0bbd
000002c0: e1ab 9b3d 11de 463d cb66 883d 9f6a a03c
000002d0: 5452 073d 279b 883d 7001 ef3d 7f96 b23a
000002e0: fc73 1cbe ccd4 5ebd b653 b33d 2411 6f3d
000002f0: 47ba d93d 9431 773d 198f ad3d 0b52 e63d
00000300: 7c71 62bd d74e e8bd 16c4 ea3c 9e8c 953d
00000310: 5a86 143e 855f 4a3d 3b5d fa3d d7f2 8bbd
00000320: fab3 d2bd 3be0 b73d d06c 253e b3de 9eba
00000330: bbd6 28bd e507 883c 87b1 b4bd bf05 12be
00000340: 7adf 013d 0b50 dc3d 0aa3 1dbd 97d2 0ebd
00000350: 6a8f c13c b018 fe3d a47e 123e 6d30 adbd
00000360: 3159 923d 2974 633c b90c 11be 5c80 ecbd
00000370: 7d6d 953c 7413 7dbc 5c4c 043e b973 5bbc
00000380: 973b 203e cad3 163e a883 80bd c114 9f3d
00000390: 788e 063e 2888 54bd ae89 b43d 9ecf 12be
000003a0: 1b01 ed3d 82e3 c33d 0437 f73d bb10 8f3d
000003b0: 3e02 223e dd1e fdbb 7550 123e a8f8 b93c
000003c0: c1e5 68bd 5834 0f3d fee2 2a3c 4f75 e5bd
000003d0: 8544 043d f217 d93d 5708 a5bd fcc5 293c
000003e0: 61d0 c7bd 3104 aabd fd71 da3d 5161 8cbd
000003f0: 0e1c b6bd c155 033e e776 9bbd f16c edbc
-0.023632891 0.1266889 0.124663495 0.0883494 0.07379765 0.07164136 -0.11640656 -0.12681273
0.1282891 0.007984055 0.12542298 -0.043406196 0.14408481 0.07403843 -0.038585175 -0.03418517
0.15061617 -0.04537279 -0.012248943 -0.061295122 -0.024748622 -0.008323928 0.0929351 -0.022724286
-0.020637183 0.06719534 -0.10454435 -0.12072927 0.08710932 0.025871493 -0.082860574 0.09984072
-0.12648287 0.04624419 0.006914515 0.056018956 -0.120215595 -0.079513475 -0.08428339 -0.1370991
-0.022685343 0.10267088 0.10746773 0.0016049321 -0.048387866 0.14230818 -0.11989692 -0.08025915
0.052971575 0.058338407 -0.11465474 -0.13224326 0.041886803 -0.09655815 0.08897566 -0.048439335
-0.10267072 -0.043244004 -0.043181777 -0.07573787 0.02622293 -0.15423481 0.107025616 -0.1594939
0.059169453 -0.029324315 0.11351252 0.00510111 -0.030290492 0.13637558 -0.13370895 0.032989386
-0.05596155 0.041188538 -0.13805585 -0.015523316 -0.09141022 0.11385969 0.007023728 -0.0141093675
0.08041668 -0.05550769 0.05034334 0.0946055 -0.100300215 0.042821117 0.042683057 0.059462253
0.00030731113 0.13163058 0.14127544 0.049705163 -0.05438531 0.07857399 -0.14999822 -0.15442248
0.115292296 0.093274504 -0.07405158 -0.12083484 -0.13997611 0.098005496 0.0065243538 0.10166977
0.039804127 -0.008718637 0.0346656 0.0057747 -0.061756037 -0.083815 0.033135172 0.13136135
-0.0495332 -0.059734922 0.09681266 -0.018954184 0.00046577677 0.06763801 0.09611934 -0.10255613
-0.094727315 0.017167335 -0.08028329 0.0632684 -0.13990039 -0.09596432 0.039940808 -0.028010316
-0.017917419 -0.021355314 -0.09974099 -0.0880595 -0.12512437 -0.08438368 0.115186654 -0.15480615
-0.14164023 -0.1064819 -0.106221355 -0.09015114 0.040864136 0.13660881 -0.12149121 -0.14256994
-0.16059309 0.006847467 0.14947267 0.12228621 -0.015418475 -0.035584662 0.029706683 0.10019976
-0.04109368 -0.11515057 0.060513455 0.12995124 0.020841213 0.032958895 0.12753697 -0.057217807
0.029721403 0.15731135 -0.07586401 0.110610776 0.056019094 0.12499381 -0.09506562 0.034086335
0.08723305 -0.0954602 -0.011004442 -0.038049728 -0.04482027 0.1318319 0.070055656 -0.03394453
0.07601143 0.048551623 0.06660231 0.01958209 0.0330375 0.06670218 0.11670196 0.0013625174
-0.1527862 -0.054402158 0.08756201 0.058365956 0.10631233 0.060350016 0.08474559 0.11246117
-0.05528401 -0.113431625 0.028657954 0.07302211 0.14504376 0.0494075 0.122248136 -0.068334274
-0.10288234 0.089783154 0.1615479 -0.0012120813 -0.041220408 0.016605327 -0.08822923 -0.14260004
0.031707264 0.107574545 -0.038485564 -0.034868803 0.023627955 0.124070525 0.14306122 -0.08456502
0.07145918 0.013882675 -0.1416501 -0.1154792 0.018240685 -0.0154465325 0.12919754 -0.01339429
0.15647732 0.14729229 -0.062751114 0.0776763 0.13140285 -0.05188766 0.08815323 -0.14337012
0.115724765 0.09564878 0.1207104 0.06985613 0.15821168 -0.0077246265 0.14288504 0.022701576
-0.056859735 0.03496203 0.010430096 -0.112040155 0.032291908 0.1060027 -0.08058231 0.010362145
-0.09756542 -0.08301581 0.10666273 -0.06854499 -0.0889207 0.12825681 -0.07591038 -0.028982611

onnx::LSTM_116 f4 [1, 1024]
00000000: 9048 aa3c 19e2 a039 ef95 1b3d 1958 ef3c
00000010: 2b81 d63c cc6d 693c 9999 bd3b a574 e03c
00000020: 3d3a d43c 4b62 49bc 2b30 783c ea8d 173d
00000030: ac3c ae3c f85b 7e3c 7f8f 5b3c 639d 193d
00000040: f9b7 1a3c 7b15 a13c ec30 203c d238 0d3d
00000050: c6ec 993c 07b0 233d e20b 763c b448 063d
00000060: 1a53 843c 1dc2 ab3b 6c5d 0d3d 2e40 1f3b
00000070: 8e2d 8e3c da1a 6d3c 748f fa3c 300f fe3c
00000080: 455d 46bc 639e 383c 10d4 053d 5cb2 7e3c
00000090: 5839 ffbb cf35 80bc 4a4d f83c dabc 433c
000000a0: 6f92 1fba 0a80 a43c b552 093d 00ac d13c
000000b0: 4f6b 0b3b 8314 433c d1f2 d73c a9b5 9f3c
000000c0: 29e7 d03c ce3d ff3c 27bf 963c d68e c73c
000000d0: 0be3 073d fef8 1aba 56fb 243c 585b c53c
000000e0: 551b 56bc ed64 8f3c 90eb d73c 2302 f03b
000000f0: 119d 49bb 42c7 603c b43f 2e3c 5d79 c13c
00000100: 52b2 2f3c c311 ce3c d0d5 f93c efc7 123d
00000110: e54e 82bc e12f c83c c73f cc3c d177 533c
00000120: 4ae9 e33c b1d9 bb3c d172 f13c 7f6e 0f3d
00000130: 1a83 a23c 55b8 033c b35f 9d3c 3ec9 c53c
00000140: 6535 c33c ff60 8c3c 2ed1 f1bb 9f76 8bba
00000150: b671 d23c 3624 bd3b 16e3 6b3c 9b84 bd3c
00000160: 328f 9a3c 5f56 f33c c37b d13c 484d fabc
00000170: 1a2b ae3c 023a 283c 6def d03c dc17 173a
00000180: 799c 98bb e602 e53c dd19 c73c bd2d 333c
00000190: 82e9 193d e561 963c 12c6 d2bb df89 debb
000001a0: 0e72 823c 1bd3 3c3b 2fea 193d a7be 4e3c
000001b0: 9742 1a3c 5723 9c3c 5f88 993c 17c3 bf3c
000001c0: dfdc e0ba 7a1c 1a3c 529b 7a3c d54f cb3b
000001d0: 831b ef3c 840a 453a b695 d0ba 497f 123b
000001e0: e2f7 7abc 03c2 4c3b dad1 773c 4696 323c
000001f0: 85c9 0c3d 9a9f e63c 6b1a fe3c b1f5 4ebc
00000200: e290 5e3c d513 083b 23d8 cf3b 3d57 723c
00000210: 0ccd 313c 76ea 5c3c c868 963b fd71 c83b
00000220: d99c c43c 34d8 3cbc 46e8 ad3c 8f79 3d3c
00000230: 7795 38bb c11c 593c 8043 073c 9d07 a33c
00000240: 329b 6f3c 7468 7a3c 378b d4ba ac43 3a3c
00000250: a64c 043d 9efa 973c e346 553c a8d3 c93c
00000260: 4cd4 ed3b 432f 9dbb 7a68 413c d988 683b
00000270: 0c5d 303c 5aab 803c ba5d 083c 5161 8b3b
00000280: e062 86bb 715b b63b df36 573b 0a76 2b3c
00000290: b97f d6bb b848 443c 0f58 323c eedc 63ba
000002a0: 54ed 0e3c 5d2e 343c c6a6 a03c a597 b13c
000002b0: 3244 b63c cb60 0b3c 56a4 823c deed 783c
000002c0: d4b6 213c 8827 963c 3cc6 ec3b ba3d 853c
000002d0: d8e5 993c 33ef adbb af59 883c 9086 0a3c
000002e0: 2f6c 013c aeec b739 0f52 213c 76f2 a0bb
000002f0: aad8 b1bb 849a 453c d5c6 923c fdaf dc3b
00000300: ceb6 133d 136f 5e3c 8be6 7d3c 3d54 143d
00000310: 4f4d f43b 1797 bf3c 37fe 9b3c b71e f43b
00000320: e946 873b fc7f 9f3c 7302 703c c59c ad3c
00000330: 26e6 6d3c 991c ef3b a1ae 853b c0af 3b3c
00000340: 5cfb c93c dabe 023c c398 0e3c 61df 2e3c
00000350: 5a47 7a3c 7887 2dbb 2a43 ae3b 49fb 053c
00000360: 1958 983b 848f c53b 18de 733c 53b6 86ba
00000370: c6bb 343c 92f5 893c 9301 3e3c bca4 423c
00000380: afac 013d 7082 8c3c 4e89 873c 7fcb c1ba
00000390: 2970 cd3b 2631 433b 79ca a63c 2b9e f13b
000003a0: 34e5 f13c f941 0cbc 567f 6e3c 4207 643c
000003b0: b99f 2bbc 7a43 473c b253 3d3c 886b 06bc
000003c0: db88 f1bb e902 cd3b 8432 193c f362 573b
000003d0: 0195 ac3a 16cf a03c 9c3e 7c3b 4f05 913c
000003e0: 6366 14bc f169 cc3b 2c03 8ebb 57ce c33b
000003f0: 7443 603c c950 3c3c 6358 c03c 2867 02bc
0.020786554 0.00030686034 0.037984785 0.029216813 0.026184639 0.014247369 0.0057861325 0.02739937
0.025906676 -0.012291501 0.015148203 0.037000574 0.021269165 0.015524857 0.013400911 0.03750361
0.009443277 0.019663563 0.009777289 0.034478016 0.01878966 0.039962795 0.0150174815 0.03278418
0.016152907 0.005241646 0.034512922 0.0024299729 0.017355707 0.014471734 0.030585982 0.031013101
-0.012107198 0.011268231 0.03267294 0.015545454 -0.0077888183 -0.015650658 0.030310292 0.011946881
-0.0006087189 0.020080585 0.03352614 0.025594711 0.0021273678 0.011906746 0.026360901 0.019495802
0.02550085 0.0311574 0.018401695 0.024360102 0.03317551 -0.00059117365 0.010069689 0.024091408
-0.01306804 0.01750418 0.026357442 0.0073244735 -0.0030763785 0.013719382 0.010635305 0.02361744
0.010723667 0.025154954 0.030497462 0.035835203 -0.01590676 0.024436893 0.024932755 0.012906984
0.027821202 0.022930952 0.029473694 0.035017487 0.019837905 0.008039554 0.019210672 0.024143811
0.023829171 0.017136095 -0.0073796725 -0.001064021 0.025688987 0.005772139 0.014397403 0.02313452
0.018867109 0.02970427 0.02557171 -0.030554429 0.021260787 0.010267736 0.025504792 0.0005763748
-0.004657325 0.027955484 0.024304325 0.010936198 0.037576206 0.018357227 -0.006432303 -0.006791338
0.015923526 0.0028812352 0.03757685 0.012618697 0.00941529 0.01905982 0.018741785 0.023408456
-0.0017155668 0.009406203 0.01529582 0.006204585 0.029187923 0.00075165206 -0.0015913758 0.00223537
-0.015317889 0.003124357 0.015125716 0.010900086 0.03437187 0.028152276 0.031018456 -0.01263182
0.013584347 0.0020763774 0.006342904 0.014791307 0.01085211 0.013483634 0.0045901276 0.006117104
0.024000572 -0.011526156 0.02122892 0.011564626 -0.002816526 0.013251484 0.008255839 0.019901091
0.014624404 0.015283693 -0.0016215806 0.011368673 0.03229966 0.01855212 0.013017389 0.024637058
0.007257974 -0.004796894 0.011804694 0.0035481958 0.010764372 0.015706707 0.008323127 0.0042535444
-0.0041011423 0.0055651 0.0032839102 0.010465154 -0.0065459874 0.011980228 0.010885253 -0.0008692284
0.008723576 0.010997382 0.019610774 0.021678755 0.022249315 0.008506964 0.015947502 0.015193431
0.00987025 0.018329397 0.00722578 0.016264785 0.018786356 -0.005308056 0.016644327 0.008454934
0.007899328 0.0003508082 0.009846224 -0.004911716 -0.0054274397 0.012060765 0.017917076 0.0067348466
0.036063008 0.013576287 0.01549686 0.03621315 0.007455505 0.023387475 0.019042118 0.0074499506
0.004128326 0.019470207 0.014649021 0.021192918 0.014520204 0.0072971103 0.0040796553 0.011455476
0.02465599 0.007980073 0.008703413 0.010673375 0.015275801 -0.002647845 0.005318065 0.008177587
0.004649174 0.0060290713 0.014884494 -0.0010277726 0.011031097 0.01684073 0.011597055 0.011880096
0.031658825 0.017152041 0.016544964 -0.0014785378 0.006269474 0.0029783933 0.020360218 0.0073735914
0.029528238 -0.008560651 0.014556726 0.013917746 -0.010475093 0.012162084 0.011555599 -0.008204348
-0.007371051 0.0062564504 0.009350423 0.0032865375 0.0013166965 0.019629996 0.0038489467 0.017702727
-0.009057614 0.006238215 -0.004333874 0.0059755254 0.013687957 0.01149387 0.023479646 -0.007959165
