Machine-Learning-DRL/results/SeekerTrainingWall/Seeker/Seeker-999959.onnx (onnx, 610983 bytes, 11 tensors)

discrete_act_size_vector f4 [1, 2]
00000000: 0000 8040 0000 803f
4.0 1.0

network_body._body_endoder.seq_layers.0.weight f4 [128, 8]
00000000: fe6f eb3e 6455 9cbd 542a d13d 635e babe
00000010: e85d 703e 35ef 5c3f 6dc2 c8be 7ae1 70bc
00000020: 8a8d c83e 82e3 6dbc 2f27 1f3f 9e06 2ebe
00000030: 9ce6 b5bd 8966 563e d640 553e 097e 28bd
00000040: a6e8 91be edd1 babe a2fc 773b 602c d53d
00000050: 47a1 52bf 87eb 613e 9b29 58bd 2002 8c3e
00000060: d9c9 003f 78e2 34bf 79c7 b6be c3c6 003e
00000070: c31d 03bf 155e ffbd e8a3 d23e e2b8 253d
00000080: bf4a 173e 80b6 c83e 9475 8bbc fbcf a5be
00000090: f5a7 2ebe fc95 a3be f79b 113e f7ea e0be
000000a0: 7e52 d0be 662a 2f3f afd7 933d 7939 62bd
000000b0: 064f 24bf 7ffe c13e 527d 1a3f 6ace 1e3f
000000c0: 08fd 7ebc c7c3 113e df6a b7bd c603 ed3d
000000d0: 10df a4be 25f1 04be 831a 2ebf 0f99 1b3f
000000e0: edb7 523f dcca 923d faa7 753e c20f d4bd
000000f0: 3a31 f6be 92e5 f6be 0e3d 83be afbe e7be
00000100: 84e2 9cbe c61c 1bbe 9ccd 893d c44b 553e
00000110: d354 843e 73a4 87be 96b2 0a3e b856 85be
00000120: 14bd a83e 510c 3bbe 8dd9 ab3d d73e d53e
00000130: 20f5 b4be 1423 abbe 9642 c03e 98f5 7f3d
00000140: c69e a8be 3295 5d3e bb87 883e bd45 9fbc
00000150: bf83 10bf 27ae 7ebe 9ef1 86be ccf7 52bd
00000160: 5f4e f33e 34f2 07be 66d0 a43d 44ed 9fbd
00000170: a39f 0c3e 4d41 2c3f 2e80 263e 8f01 f73e
00000180: 20f4 993f 13c5 103f afd7 cbbd 6c1d 87be
00000190: 4584 88be b775 d33d 6820 fa3e 773a 38be
000001a0: 7550 c8bd 2a8a 0cbf 241d 3ebe dcd4 133f
000001b0: 418a 28be de07 e4bb c961 98be 64d4 743f
000001c0: 42ec e23b d59d d0be 7364 46be eb1e dabd
000001d0: d5af 9b3e b95d d33e d143 b93e 9872 033f
000001e0: a02e a5bd 5c52 11bf 4c18 cf3e 1b7a a8bc
000001f0: 6b1a 8ebe dff9 763d be6d 583d c460 e7be
00000200: c4a5 463e 30a6 c1be 794c b0be 9189 103e
00000210: fd14 2f3f fb76 dd3d 901c 6a3e 38af e2be
00000220: 957d 753e 668d 003f 8d93 fc3e 69fe 983d
00000230: ff12 88be c543 cebe b7a0 7abe 5b65 b03e
00000240: 5cee c63e be06 833e edc2 bf3e 8cb4 583e
00000250: f3c4 f0be edba 1e3e 9b83 ce3d e52d 0ebd
00000260: 6315 44be bee4 e6bd 28a4 d6bd d4b1 d2be
00000270: 5bf8 183e 5ff1 e93c 77c5 a33b 1c5c 5bbe
00000280: ecb4 6bbf 2a77 90be f5bf dabe 55c2 2fbe
00000290: 32a9 55be fd88 2c3f d03a 233f 0778 e23c
000002a0: 96a6 fdbe 1345 9ebe 11f2 88bd 450d b33e
000002b0: ce80 c43e 0daa 8e3e 82da 70bf 40ae 333f
000002c0: 3e61 93be 3bcb 8d3e c824 d4be 92f6 dfbe
000002d0: 2bdb 2f3f e719 dcbe 5ddf 953e 3f52 9fbe
000002e0: 5815 80bf b6da 85be 0360 5abe 0807 acbd
000002f0: bfeb 003e fbc9 7bbe 64a5 383e 863a 4f3f
00000300: be4a 823e f363 5cbe b988 adbd ac08 d9be
00000310: a9c1 ccbe ef73 2a3d ef44 58be 20b0 dfbe
00000320: ef7c 90be 7694 44be 838d 1bbe 4735 a1be
00000330: 531e 223e 8921 2dbd a5e7 05bd 5ad8 06bf
00000340: c143 7dbe ae3c ab3c 7307 3ebe 7754 b5be
00000350: 4927 ec3e 5633 3ebe 1a00 66bc 6742 aabe
00000360: 2d71 033f 4f8d b8be c651 b2bd 65e3 ecbe
00000370: 6dc2 5cbe c134 9e3e e3f1 3ebe c966 8a3e
00000380: b2a8 09bd 8a3b 62ba 1a95 ac3e 9c9a d8be
00000390: ec7d e73e 924e cebe d17a 7a3d b189 14bf
000003a0: 51c4 a33e 535c d53e a251 97bd 5335 e93e
000003b0: f7e6 22be 6ba2 eabd e8cf 893e 4000 30bf
000003c0: 7f80 40bd c833 0dbe c5e7 98be c14a e9be
000003d0: 2497 3dbe 3e21 1abe 872f bebd ed0c 433e
000003e0: 0d8e 4abe 5e27 a03e 1527 393f 1476 56be
000003f0: c62e 10bf 24d6 543f 54fe f63e 4257 3e3e
0.4598388 -0.076334745 0.102131516 -0.36400136 0.23473322 0.863025 -0.39210835 -0.014702195
0.39170486 -0.014519574 0.62169164 -0.16994712 -0.08881876 0.20937552 0.20825514 -0.04113582
-0.2849781 -0.36488286 0.003783979 0.104088545 -0.8227734 0.22062503 -0.052774053 0.2734537
0.50307995 -0.70658064 -0.3569906 0.12575822 -0.5121729 -0.124691166 0.41140676 0.04045952
0.14774607 0.39201736 -0.017023839 -0.3238524 -0.17056258 -0.31950366 0.14219652 -0.43929264
-0.40687937 0.6842407 0.07218873 -0.05523059 -0.6418308 0.37889478 0.60347474 0.6203371
-0.015563257 0.1423484 -0.08955931 0.11572985 -0.32201433 -0.12982614 -0.68009204 0.60780424
0.823119 0.071675986 0.23989859 -0.10354568 -0.48084432 -0.48222023 -0.2563252 -0.45262668
-0.30641568 -0.15147695 0.0672867 0.20829684 0.25845966 -0.26492652 0.13544688 -0.26042724
0.32956755 -0.18266417 0.08391104 0.41649505 -0.35343266 -0.334252 0.375508 0.062490076
-0.32933635 0.21638945 0.26666054 -0.019442433 -0.5645103 -0.24871121 -0.26356214 -0.05150585
0.4752073 -0.13275987 0.08047561 -0.07808927 0.13732772 0.6728714 0.16259834 0.48243377
1.2027626 0.5655071 -0.09953248 -0.26389635 -0.26663414 0.10325187 0.4885285 -0.17991053
-0.09780971 -0.5489832 -0.18565804 0.5774667 -0.1645899 -0.0069589457 -0.29762104 0.9563658
0.006925137 -0.40745416 -0.19374256 -0.106504284 0.30407587 0.41282442 0.36184552 0.5134673
-0.08065534 -0.56766295 0.40448225 -0.020566037 -0.2775453 0.06029689 0.052839033 -0.45191014
0.19399172 -0.37822104 -0.34433344 0.14114977 0.683914 0.10813709 0.22862458 -0.44274306
0.23973687 0.50215757 0.49331322 0.074704 -0.26576993 -0.4028608 -0.2447537 0.34452328
0.3885373 0.2559108 0.37453404 0.21162623 -0.4702526 0.15500994 0.100836955 -0.034711737
-0.19148783 -0.11274098 -0.10480529 -0.41151297 0.1493849 0.028557478 0.004997905 -0.21421856
-0.9207294 -0.28215915 -0.42724577 -0.17163976 -0.20865324 0.6739653 0.63761616 0.027645124
-0.49541157 -0.30912074 -0.066867955 0.3497106 0.3837952 0.27864113 -0.94083416 0.7018776
-0.28785127 0.27694115 -0.41434312 -0.43742806 0.686938 -0.42988512 0.29271975 -0.31117436
-1.0006514 -0.26143426 -0.21325688 -0.083997786 0.1258993 -0.24588768 0.18031842 0.80948675
0.2544765 -0.21522503 -0.084733434 -0.4238943 -0.399915 0.04161447 -0.21120046 -0.4368906
-0.28220317 -0.19197258 -0.15190701 -0.3148596 0.1583188 -0.04226831 -0.032691617 -0.52673876
-0.24732877 0.020902958 -0.18557529 -0.35416004 0.46123722 -0.1857427 -0.01403811 -0.33253786
0.5134457 -0.3604531 -0.08707003 -0.46267238 -0.21558543 0.30899623 -0.1864696 0.27031544
-0.033608146 -0.0008630088 0.33707505 -0.42305458 0.45213258 -0.4029432 0.061152283 -0.580226
0.31985715 0.41672 -0.07388617 0.45548496 -0.15908419 -0.1145676 0.26916432 -0.6875038
-0.046997543 -0.13789284 -0.29864326 -0.45564845 -0.18514687 -0.15051743 -0.09286409 0.190479
-0.1978075 0.31280035 0.7232526 -0.2094348 -0.5632137 0.8313925 0.48240912 0.18587974

network_body._body_endoder.seq_layers.0.bias f4 [128]
00000000: 61a9 a7bc 8a89 9cbc 04ea 2bbc bd28 aa3b
00000010: 2ce2 87bb bafb 1e3c fd08 753c e2b5 84bc
00000020: 0033 a83b 2b75 8c3d 534e 0a3b 6d36 51bb
00000030: f921 8dbc 22ef 203d e218 8e3c a641 d83b
00000040: e7d1 303b ec0a afbb 6bf5 233b 412a b13c
00000050: 977a bcbc cec5 efb8 1306 ff3b cb0a 31bc
00000060: b471 07bc a827 5a3d d4b7 ae3c 2fad e0bc
00000070: b719 85bc 7ea4 8e3d 8680 03bc 3894 31bd
00000080: 1fcc 253d f396 73bc a10d cfbb e7a2 1c3c
00000090: dc6e ad3c 0975 4dbc 272e c1bb 7e88 10bd
000000a0: d528 a53c bfa2 8ebc 6b7a 813a f185 323b
000000b0: 3564 c6bc d5ca 733c 0db5 f4bb 6123 c7bc
000000c0: 6239 213c a321 f3bc 642d a739 1d7d 393d
000000d0: 66a1 00bc 4fbf 313c 941c a93b 4fbe af3b
000000e0: d93b 0b3d 5bce 47bc 5118 883b 218c 203a
000000f0: 76a1 9cbb 97e4 d43a b9ee 25bd 5863 2f3d
00000100: d37a 3dbc 33ea 423c 83dc 383c 448f 8abc
00000110: 6076 533c f3cd ac3b 3b4a 363d eddd c9bb
00000120: aa09 2ebd 795c 3ebc a128 e1bb f3bc 2e3b
00000130: 2811 0c3d 1fe3 3a3c 4985 de3d b6f9 00bb
00000140: aafd 87bc a764 203c de34 6839 5898 a63c
00000150: b1be 4bbc 80ec c4bb 60c2 0cbc 78d3 673c
00000160: f8d8 9fbc 68c1 863d d6f0 6c3d 94ad 2cbd
00000170: 8fb7 bcbc 4ec2 2abc cb7b a83c 6a59 68bb
00000180: 9647 7dbc 6205 4cbc c20e a0bb 4ac2 8fbc
00000190: 1045 f2bc 1cd9 d43c b00f 3f3d 119b f83c
000001a0: 9c12 2dbc 4d7e 93bc f2ce 9ebb ba16 6cbc
000001b0: 4aa9 d9bc bf00 a03c 5caa 99bb f589 d83c
000001c0: b053 9c3b 7f1b a4bb 17a6 143c a74d 0b3d
000001d0: 849b 9abc eef8 bf3c 7f07 973b 481f 5cbc
000001e0: daa0 8cbb 791a dfb9 f130 89bc bacf 123b
000001f0: 9169 83bc 7edf 183c a835 bfbb af9f 6e3d
-0.020466508 -0.019108552 -0.010492805 0.0051928447 -0.004146835 0.009703571 0.014955756 -0.01620001
0.005133033 0.068582855 0.0021103814 -0.003192331 -0.017228113 0.039290555 0.01734585 0.006599623
0.002698058 -0.005341878 0.0025018107 0.021626594 -0.023007674 -0.00011433252 0.0077827065 -0.010805796
-0.008266855 0.053260475 0.02132789 -0.02742633 -0.016247613 0.06964968 -0.008026248 -0.043354243
0.04047787 -0.014867532 -0.0063187634 0.009560323 0.021171026 -0.01254011 -0.0058953944 -0.03528642
0.020161072 -0.017411588 0.0009878402 0.002724048 -0.024217704 0.014879902 -0.007467872 -0.024308862
0.009840341 -0.029679125 0.0003188654 0.045285333 -0.00785098 0.010848834 0.0051608775 0.0053632627
0.033992622 -0.012195195 0.0041532894 0.00061243965 -0.00477999 0.0016242441 -0.040510867 0.04281935
-0.011564928 0.011896658 0.011283043 -0.016914017 0.012906641 0.0052735745 0.044504385 -0.006160489
-0.042489685 -0.011618727 -0.0068712984 0.0026662915 0.03419605 0.011406689 0.10865266 -0.001968009
-0.016600449 0.009789622 0.00022144939 0.020336315 -0.012435601 -0.0060096383 -0.0085912645 0.014149539
-0.019512638 0.06579858 0.057846867 -0.042157724 -0.023036746 -0.010422302 0.020566842 -0.0035453686
-0.015458962 -0.012452455 -0.004884572 -0.017548699 -0.029573947 0.025982432 0.04664582 0.030347379
-0.010563519 -0.01800456 -0.004846447 -0.014409715 -0.026569981 0.019531606 -0.004689498 0.02643297
0.0047707185 -0.0050081606 0.009072802 0.034009602 -0.018872984 0.023434129 0.004609048 -0.013435192
-0.004291636 -0.00042553598 -0.01674697 0.0022401647 -0.016041549 0.009330628 -0.0058352537 0.058257755

network_body._body_endoder.seq_layers.2.weight f4 [128, 128]
00000000: d15b b3bd 0103 a33a 2674 b7bd 957f 103d
00000010: c84c ec3c 2fca 2d3d 951e 6cbd 0abb 0abd
00000020: cd37 003e c713 20bd 29c8 123d bd30 abbd
00000030: 4d60 afbd ed49 a63a 257d 9cbd 7b2d 703a
00000040: a573 cf3d 546b 103e 3303 89be c200 613d
00000050: d7ba a83d f86a d7bc 47a8 50bd c5c0 7bbc
00000060: 3af8 933c 9d31 73bc e9cf 3e3d cee7 e53c
00000070: d354 2f3e b145 d4bd c09c 64bc a066 383e
00000080: ca12 efbd 120c 80bd 7499 36bd 69de ddbd
00000090: 6202 123e f446 86bd fc13 8b3c 3b38 38bd
000000a0: 7514 9e3d aed6 08bd 5f4d 86bc c603 8d3d
000000b0: 0b26 3f3d 6be6 f53c 54a0 5abd 7e58 293c
000000c0: 35ec fcbd c320 c03d 5bd9 0c3c 2049 ddbc
000000d0: 7511 69bd f874 4bbe 6611 823c 9544 9dbc
000000e0: eaff 99bd 4cbc 363d 0f2f 653d e708 283e
000000f0: 3d2d 95bd e4e9 183d 098c 87bd c3bc 8a3d
00000100: 4b69 e53d 826b cbbd 7b3b bebd c0c1 913a
00000110: d3b1 803b d5b2 23be 0f80 a73d e095 6cbd
00000120: 79e0 14bd 28ef 063e ec29 07bd 6fdf a63d
00000130: 4f31 e53b 392b b8bc 5d94 febc d8b4 893c
00000140: 787f f83a df1c 323d 24c1 483d 5b6c 49bd
00000150: 259f 85bd 83f7 893c 3500 08be d792 dd3d
00000160: dd5a f7bd 501b fe3b 7199 db3d 5f5b d3bc
00000170: 3662 c1bd 7a70 d0bc 996b 9dbd 1777 ec3c
00000180: f38e b6bd 4096 8f3d 1d0c c9bd cdc1 bb3d
00000190: 23b3 ef3d c054 c9bd c2e1 31bd 80ac c9b9
000001a0: f5ea 143c 41bb 17bd 3561 a9bb 92b0 d8bd
000001b0: 9fcb d9bd 3c8a 94bc f992 e5bc 7f17 f33d
000001c0: d3e0 353d da99 67bd a0c0 e4bd e8ae ed3d
000001d0: e8e9 73bd f98b 2fbd b332 a3bd 5dfb a3bd
000001e0: c441 9a3d 9ac0 1dbe 4496 6fbd 6481 0cbe
000001f0: 0156 d8bd 7aae 8d3d d580 01bd a436 4a3d
00000200: 7c49 e4bd d63a 863d 39a7 003d 1044 25be
00000210: 4cd3 c3bd 6ec0 90bc d173 dc3d b4a9 11be
00000220: 03c0 1ebd f01f 4d3b 4137 f0bc 8680 f53d
00000230: b86d a73d a1a9 2ebd de14 a2bc 914c c33d
00000240: e623 f03c e032 79bc 52ae bfbd eac1 94bc
00000250: 77ed d33c b15d 04bd 7fb1 e53d f7ba b6bc
00000260: d411 d8bc 2cec b1ba 88af c8bd 0dea 443e
00000270: c65e 9c3d ce50 75bd 9675 8dbd eeb2 2cbd
00000280: 57ed 3e3e d96e c13d 8562 eabd 3151 583e
00000290: b051 ca3d aa3e 163d 1229 75ba 26b5 b3bd
000002a0: 3b16 e7bb 6d10 d3bd 1115 e23d 6bf1 c8bd
000002b0: 046f b53c 5e05 b43d 6e4a 92bd 17c5 873d
000002c0: eec0 53be 48dd 4fbe 2a7a 293c 463b adbd
000002d0: d8a2 39bd fd51 833d 0331 633c 3511 9ebe
000002e0: 242a a63d 6b25 a33d 5e71 13be 27b0 d33d
000002f0: df06 1bbe 1f92 05bd 12e3 1f3d f4ee 2dbc
00000300: 5c5f afbd 8854 5c3d 26f5 8c3d 5add febb
00000310: 58d4 2dbd 36ee b2bd 988d 9b3d a6f3 84bd
00000320: 5e31 25bd 4dcc 903d 280a 1b3e 992d 28be
00000330: 1441 2c3e b2b8 9c3d cb24 9ebc a3e0 e7bc
00000340: fcbb 3dbd 7f1f 153d 36e4 aabc 404b 113c
00000350: a256 033d b90a 0cbd 565e 07bd 2aae f73d
00000360: f1fe 303e d62c 833e 9572 af3d 2037 53bd
00000370: c1fd 2dbe 0146 fa3d a764 dd3d 3bc1 b63d
00000380: 87de 833d 8fdf 113e 3e7e 3a3d 4db4 42bc
00000390: 93cb 103d 6f44 173e 70ca afbd 97af 313d
000003a0: d09e 39bd 2166 363d ed65 dcbc bb8c 8bbe
000003b0: 5fd0 213d 6197 f1bd 1e9a 563d 5a8f 793d
000003c0: 3eb3 a03b b568 90bd 10be 46bd c956 bf3c
000003d0: df56 afbd c3c7 9b3d b421 733d 17cf 893d
000003e0: 5c54 e43c 26be a13d ee55 99bd f617 a5bd
000003f0: f7f0 b8bc 8328 8d3d 40ca 023e 41f8 cdbd
-0.08757747 0.0012436808 -0.089577004 0.03527792 0.028845206 0.042429145 -0.057646353 -0.03386978
0.12521286 -0.03908136 0.03583542 -0.083589055 -0.0856329 0.0012686827 -0.07641057 0.00091620506
0.10129479 0.14103442 -0.26760253 0.054932363 0.08238762 -0.026296124 -0.05094173 -0.015365784
0.0180627 -0.014843372 0.046584997 0.028064635 0.17122202 -0.10364855 -0.013953388 0.18007898
-0.116735056 -0.06252302 -0.044579938 -0.10833437 0.14258721 -0.06556502 0.016977303 -0.0449755
0.077187456 -0.03340786 -0.016394315 0.06885485 0.04666714 0.030017098 -0.053375557 0.01033604
-0.123497404 0.09381249 0.008596743 -0.027012408 -0.056901414 -0.19868839 0.015877437 -0.019197742
-0.07519515 0.044613168 0.05595308 0.16409646 -0.07284019 0.03733243 -0.066185065 0.06774285
0.11201724 -0.09932615 -0.09288689 0.0011120364 0.0039274483 -0.15986188 0.08178722 -0.05776012
-0.036346886 0.13177168 -0.032998964 0.08148085 0.0069944034 -0.022481548 -0.031076605 0.016809866
0.0018958887 0.043484565 0.04901232 -0.0491756 -0.06524495 0.016841656 -0.13281329 0.10819023
-0.12077878 0.0077547207 0.10722626 -0.025800405 -0.094425604 -0.025444258 -0.07686538 0.02886538
-0.08913984 0.0701108 -0.098167636 0.09167824 0.117040895 -0.09830618 -0.04342819 -0.0003846623
0.009089221 -0.037043814 -0.0051690587 -0.10580553 -0.10634541 -0.018132322 -0.028024184 0.11869716
0.044403862 -0.05654321 -0.11169553 0.11605626 -0.059549242 -0.042858098 -0.079686545 -0.08006928
0.07532075 -0.15405503 -0.058492914 -0.13721234 -0.10563279 0.069180444 -0.031617004 0.049368516
-0.111468285 0.06554191 0.031409476 -0.16139245 -0.09561786 -0.017669883 0.10764278 -0.14224893
-0.038757335 0.0031299554 -0.029323222 0.119874045 0.08175224 -0.04264224 -0.01978534 0.09536088
0.029313993 -0.015209883 -0.09359421 -0.018158872 0.025870068 -0.032315914 0.11215495 -0.022305949
-0.026375689 -0.0013574413 -0.09799105 0.19229908 0.07635264 -0.059891514 -0.06907193 -0.04216283
0.18645225 0.09444971 -0.11444572 0.21124722 0.09878862 0.036680855 -0.0009352128 -0.08774786
-0.0070522106 -0.10305867 0.11039174 -0.09811672 0.022147663 0.08790086 -0.071431026 0.06629389
-0.20679066 -0.20299256 0.010344068 -0.08458571 -0.045321316 0.064121224 0.013866666 -0.30872503
0.081135064 0.07966121 -0.14398715 0.10336333 -0.1513934 -0.032610055 0.03903491 -0.010616053
-0.0856311 0.053791553 0.06882696 -0.007777852 -0.042438835 -0.087368414 0.07595366 -0.06491785
-0.040330283 0.07070217 0.15140593 -0.16423644 0.168217 0.07652415 -0.019304654 -0.028305357
-0.046321854 0.03640699 -0.020860773 0.008868039 0.03206504 -0.034189913 -0.03304895 0.12093766
0.17284752 0.25620145 0.08566777 -0.051566243 -0.1699133 0.122203834 0.108102135 0.089235745
0.06438928 0.14245437 0.04553055 -0.011883807 0.035350394 0.14772199 -0.08583534 0.043380346
-0.04531747 0.04453099 -0.02690407 -0.27255806 0.03950536 -0.11796451 0.05239307 0.060927726
0.00490418 -0.07051221 -0.0485211 0.023356812 -0.08561491 0.07606461 0.059358314 0.067289524
0.027872257 0.07897596 -0.07487093 -0.08061211 -0.022575838 0.068924926 0.12772465 -0.10057116

network_body._body_endoder.seq_layers.2.bias f4 [128]
00000000: 2bb3 3cbc 0897 75ba 8787 ef3c eefd 2ebc
00000010: b402 0ebc ff51 0dbc d9da d93c b40b 4a3c
00000020: d0eb 363b cf8f 0fbc cd67 053c 359d c93c
00000030: 6866 9d3b 14e1 693b 03d3 89bc 16b7 27bb
00000040: bd58 863b 8118 c2bc 5638 083b 9950 e2bb
00000050: c523 fabb 4d6a 1b3c e744 90bb e8ee dabb
00000060: 2907 863b af18 ddbb bbe0 87bc 6c45 a6bb
00000070: 1f53 36bc 08d2 05bc e68d a7bb d38d 2cbb
00000080: a0c2 e23a d615 41bc 50a6 c23a cff5 77bc
00000090: facd 3cbb 1489 deba cece 633c c881 72bc
000000a0: 6795 bd3b 03be ee3b 94c1 55bc 08a1 a1bb
000000b0: 6ae1 183b fa24 94bb 2152 1f3b 49e6 103c
000000c0: 406b 9ebb d198 54bb 14ed 693a edfc 62bc
000000d0: 3bcd 1c3c 4fa3 083c a3d3 393c adac 12bb
000000e0: 0fbf 03ba 2a1f feba d485 a6bc 1171 90bc
000000f0: 54ea 4e3c eb37 2d3c 20ef 07bb f2fd e43b
00000100: 0ccb 5bbc 1701 b8bb 03d2 323c 6446 30bb
00000110: c332 2dbc 6c7d e93b eefe 2f3b ae91 b0bc
00000120: a6e2 b43b 3144 afba 99ca 31bb 95af 213b
00000130: 09eb 99bb 9e70 1cbc 68b4 3cbc 0f80 0cbc
00000140: 77c3 ccbc 99e5 ceba b668 e9bb 6c2a 31bc
00000150: 6809 363c b1ea c3bb 259b d83c 6b0a 26bc
00000160: 62f9 baba efdb bebb ec74 3d3b fc23 e7bb
00000170: 2afc b1bb 430d acbc 470b e6ba df92 16bc
00000180: 23fb e139 da94 42bb eb4a 3dbc e4c7 35bc
00000190: 90a7 1c3a e357 94ba 0f85 a2bb 762a 8e3c
000001a0: 23a5 233c dfe9 3bbc dc7a ea3c d953 3f3c
000001b0: 6dbc abbc b92d 71bb 3978 5b3b eb16 a8bc
000001c0: b872 f13c d0fc 5bbc 108c 3dbb d835 703c
000001d0: 5b5f 61bc 80b6 c23b edfc c53b d3d6 423c
000001e0: 5612 0b3c 04d1 acbb e8a2 133c 3a10 96bc
000001f0: 1e06 e6ba acbe 6a3c d4d8 d5bb 8c51 27bc
-0.011517326 -0.0009368514 0.02923943 -0.010680659 -0.008667637 -0.008625506 0.026593613 0.012331892
0.0027911551 -0.008762314 0.008142424 0.024611095 0.0048034675 0.0035687136 -0.016824251 -0.0025591305
0.004099934 -0.023693325 0.0020785532 -0.0069065806 -0.0076336586 0.009485793 -0.004402745 -0.006681312
0.004090209 -0.0067473273 -0.016586652 -0.0050741937 -0.011128216 -0.008167751 -0.005113351 -0.002632965
0.0017300434 -0.011784991 0.001485059 -0.015134289 -0.0028809295 -0.0016978108 0.013904287 -0.01480145
0.0057856324 0.0072858348 -0.013046641 -0.0049325265 0.0023327717 -0.0045210095 0.0024310427 0.008843967
-0.0048345625 -0.0032439718 0.0008923572 -0.0138542475 0.009570415 0.008339717 0.011341962 -0.0022380755
-0.00050257234 -0.001938795 -0.020327486 -0.01763204 0.01262911 0.010572414 -0.0020741895 0.0069882805
-0.013415109 -0.0056153643 0.0109143285 -0.0026897425 -0.010571185 0.007125547 0.002685483 -0.02155384
0.0055201827 -0.0013371763 -0.0027128814 0.0024671305 -0.004697208 -0.009548334 -0.011517622 -0.008575453
-0.024995549 -0.0015784978 -0.007123078 -0.010813337 0.011110641 -0.005978905 0.026441166 -0.01013432
-0.0014264996 -0.005824558 0.0028908802 -0.00705385 -0.0054316716 -0.021002417 -0.0017550968 -0.00919029
0.00043102456 -0.0029690773 -0.011553506 -0.011095021 0.00059758965 -0.0011317696 -0.0049597095 0.017354231
0.009988102 -0.011469333 0.028623037 0.011677706 -0.020963872 -0.0036800934 0.0033488406 -0.02051874
0.029473647 -0.013426974 -0.0028922595 0.014661275 -0.013755645 0.005942166 0.006042114 0.011892038
0.008488258 -0.00527394 0.009011008 -0.018318284 -0.001754943 0.014327686 -0.006526092 -0.010212313

action_model._discrete_distribution.branches.0.weight f4 [4, 128]
00000000: 9049 423d df2d 3cbd dde2 3dbd 487a 743d
00000010: 6d2c 06bc 1657 cdbc 8a6c 3bbd 0cce 6ebc
00000020: d31c 31bd d262 e93c 9b6f bebb 8035 4d3d
00000030: 955d 1e3d 2149 673d 469b d5bc 53e8 113d
00000040: dd75 223d 80a0 3c3d d78e f1bc 531d f23c
00000050: 8959 86bd a9a0 16bd 82f5 2abd af6d 67bd
00000060: b047 cf3c 74d9 6fbd bc3f 09bd c722 293d
00000070: 9305 3b3d a2f8 10bd 2e2e 05bd 8224 15bd
00000080: 6c08 af3c 501c cdbc ffe5 34bd b860 aabc
00000090: 42db 22bd e67c fa3c 44d4 18bd e10b ffbc
000000a0: 7c48 81bd 434c 03bd 06b5 9cbd 4d63 463d
000000b0: d68c 183d 553b 743d a560 633d e1a4 75bd
000000c0: 48f0 923b c6d0 bbbc fa67 61bd fb1e 0fbd
000000d0: 159b 4eba ac4e 0e3d 4503 79bd a13c 95bc
000000e0: 4d7c 5e3d ecba 193d 8fda a7bc 96a9 7dbd
000000f0: 6f7b 323d 8fdb f8bc fc84 823d fb32 e6bb
00000100: 9f6b 07bd a2ff 0ebd 08c7 c03a e762 08bd
00000110: 2de3 98bc 88c4 513d f957 2b3d 009f f7bc
00000120: 0e61 90bd cef4 eebc 89a6 363d 4fb8 2c3d
00000130: 55ad 20bd 2279 273d 750f 3e3d 1276 253d
00000140: 88f8 6e3d f6ee 4d3d 023b 8c3d f621 13bd
00000150: 189e fcbc d710 6dbd 9378 96bd 3dc7 d9bc
00000160: bd17 4e3c 4cf2 e5bc 2b06 d1bc e802 97bd
00000170: 2e42 3c3d f9e4 623d 5350 9dbb 4021 103d
00000180: 2024 163d 4c51 2fbc 7a0b 33bd 8a62 4bbc
00000190: 73e6 1c3d c1cb 2bbd c5aa f13c 6d07 e83c
000001a0: c4cf 20bd d72b b0bc ae99 61bd 0d04 2cbd
000001b0: 165d 7d3c 3bc5 313d ee72 2abd 1c6f 70bd
000001c0: d0fa fa3c 5895 78bb 898b 28bd 332e 693c
000001d0: bdd8 f1bc ee34 e9bc 45c8 7bbd 0e62 cfbc
000001e0: a1e7 fabc 5453 193d 9753 2d3d 88a9 0ebb
000001f0: 25a6 14bc a757 063d fb50 30bc b22e ffbc
00000200: 09b8 34bd 01c1 ca3a 6b5e 183d e309 43bd
00000210: 850b 8cbb a0df a93c 8880 7ebc 946e 3fbd
00000220: b106 6e3d e0ec e4bb a627 983d 78b3 53bd
00000230: 1d85 30bc 3226 0fbd fdd4 673d 0237 b4bc
00000240: e85b 8ebd e733 193c e099 283c 4ede 89bd
00000250: f5ee f1bb 0649 883c 3592 143c e6f8 553d
00000260: b17d 27bd 75ea a93c 66fd 8e3a 2024 0e3d
00000270: 085a e2b9 5327 9d3c bad9 7e3d 3cda b93a
00000280: 82e2 ae3b e21e d73b 573a 4ebd 6200 263d
00000290: be54 c23c 2d3b b33c 2f24 0a3d 5a3f 86bc
000002a0: 03a5 d53c c2fd fa3a 03fc 4b3a 54d8 103c
000002b0: 83f2 89bc e1b3 c0bc e30b b5bc bbd9 2e3d
000002c0: 5d64 3abc d498 ba3d d0a0 853c caf6 643c
000002d0: 01fc 243d c73a 16bc 64db 4a3c cb0a a9bb
000002e0: d85c 4fba bd76 a3bc 8eab 923b ef74 373d
000002f0: 3983 60bd caf5 bcbb ad04 fdbc f0c1 95bd
00000300: f01c 7e3d f4d0 693d 366b 63bd 32fd 8dbc
00000310: a15a a43d 1c2a 09bd df6d 7f3c 0c25 8b3b
00000320: 3f47 f13c 8dba 5a3d 5291 00bc 6243 1f3c
00000330: 7d19 c73b 1e62 cdbc b080 d1bc f055 2fbc
00000340: 225c 7dbb 64ce 24bc 9764 0a3c c2be b23c
00000350: 921e 0a3d a1f5 703c 0927 e7bc 17fe 003c
00000360: c29b bd3b 1f3d a63c 3c35 3e3d 0c39 33bc
00000370: 3811 b5bc 1a9a ecbc d55f b13b bbe6 16bc
00000380: a42a 2bbc 7282 3c3b 25eb 813c 3d90 c6bc
00000390: ef7e bbbc 3199 383d c87c 4e3c ecc8 11bc
000003a0: fba7 7e3c 5cc4 7a3d 02ca 493d c3ed 053d
000003b0: b4e1 163c 0fe4 a03b e01d 6b3c ce40 af3b
000003c0: 9649 5cbb 9b5d 10bd 1574 de3b c44e 88bc
000003d0: 7daa 29bb e762 c23c b68b 1f3d 9a5d 0abd
000003e0: 970f 113c 3218 aabc 3398 f8bb 8223 693c
000003f0: a0b7 6bbd 6381 893d 408e c7bc 17ae 7f3c
0.047433436 -0.045942184 -0.04635893 0.05968693 -0.008189303 -0.02506594 -0.045757808 -0.014575493
-0.04324038 0.028489504 -0.0058116443 0.05009985 0.038663466 0.056466226 -0.026075017 0.035621952
0.039663184 0.046051502 -0.029487057 0.029554999 -0.06560046 -0.03677431 -0.04173804 -0.056501087
0.025302738 -0.05855699 -0.033508047 0.041292932 0.045659613 -0.035393365 -0.032514744 -0.03641177
0.02136632 -0.025037915 -0.044164654 -0.020798072 -0.03975988 0.030577134 -0.037311807 -0.031133594
-0.063126534 -0.03205515 -0.07651715 0.048434544 0.037243687 0.059626896 0.05551209 -0.059971694
0.00448421 -0.0229267 -0.0550308 -0.034941655 -0.00078813854 0.034742996 -0.060794134 -0.018217387
0.05431776 0.03753178 -0.020489959 -0.061929308 0.043574747 -0.030378131 0.06373021 -0.0070251203
-0.03306162 -0.03491176 0.0014707753 -0.033297446 -0.018663013 0.051212817 0.041831944 -0.030227184
-0.07049762 -0.029169466 0.044592414 0.042167958 -0.039227802 0.040887006 0.04640146 0.040395804
0.058342487 0.05027672 0.06847192 -0.03592106 -0.030837104 -0.057877388 -0.073472165 -0.026584262
0.012578902 -0.028069638 -0.025515636 -0.07373601 0.04596155 0.055394147 -0.004800835 0.03518796
0.036655545 -0.010700535 -0.043712117 -0.01241363 0.03830571 -0.04194236 0.029500375 0.028323853
-0.03926064 -0.02150528 -0.0550782 -0.04199605 0.015464088 0.043400984 -0.04161351 -0.058699712
0.030637175 -0.0037930813 -0.041148696 0.014232206 -0.029522294 -0.028467622 -0.06147029 -0.02531531
-0.030628027 0.037432984 0.042316046 -0.002176853 -0.009072815 0.032798436 -0.010761495 -0.031150196
-0.044120822 0.0015468897 0.03719942 -0.04761685 -0.004273834 0.020736516 -0.015533574 -0.046736315
0.05811185 -0.0069862455 0.07429437 -0.051684827 -0.010773924 -0.034948535 0.056599606 -0.021998886
-0.069511235 0.009350753 0.010290593 -0.067318544 -0.007383222 0.016636383 0.009068062 0.05223932
-0.040891353 0.02074168 0.0010909259 0.03470242 -0.00043173158 0.01918379 0.06221936 0.0014179419
0.0053370604 0.006564961 -0.050348606 0.04052771 0.023722049 0.021878803 0.033725914 -0.01638763
0.02607966 0.0019149112 0.0007781388 0.008840639 -0.016839271 -0.023523273 -0.022100395 0.042688113
-0.0113764675 0.09111181 0.016312033 0.013974855 0.040279392 -0.009169287 0.012381408 -0.0051587573
-0.0007910258 -0.01995408 0.0044760173 0.04478925 -0.054812644 -0.005766605 -0.030886019 -0.07312381
0.062039316 0.05708404 -0.055522166 -0.017332647 0.080250986 -0.033487424 0.01559016 0.0042463597
0.029452918 0.053400565 -0.007847147 0.009720655 0.0060760365 -0.0250712 -0.025574058 -0.010701641
-0.0038659652 -0.010058973 0.008446834 0.021819476 0.03372056 0.014707 -0.028216856 0.00787308
0.00578639 0.020292817 0.046437487 -0.010938894 -0.022102937 -0.028882075 0.0054130354 -0.009210284
-0.010447178 0.0028764275 0.015859196 -0.0242387 -0.022887675 0.04506797 0.012602992 -0.008898001
0.015542979 0.06122242 0.049264915 0.03269745 0.009209085 0.004909999 0.0143503845 0.0053483015
-0.0033613197 -0.03524552 0.0067887404 -0.01663912 -0.0025888972 0.023728801 0.038951598 -0.03378067
0.008853815 -0.02076349 -0.007586503 0.014229657 -0.057548165 0.06714132 -0.024359822 0.015605471

action_model._discrete_distribution.branches.0.bias f4 [4]
00000000: ce95 0cbd f104 853c 570d 653c 97ce 31bd
-0.034322552 0.016237708 0.013980231 -0.04340991

action_model._discrete_distribution.branches.1.weight f4 [1, 128]
00000000: 2bde a23b ea70 61bc eb55 12bc cd9b bdbb
00000010: 1b05 d5bb 28b4 873b 1dd8 3f3c cb67 523b
00000020: 9270 0739 fb9b 173b d6d4 c5bb c27a 3d3b
00000030: 195c 8dbb 6f9d 90bb 3bc5 a8bb 3b89 dd3b
00000040: 1b5b b83b c62b 8b3b a222 53bc 629b a6bc
00000050: 3592 42ba 95a3 f5ba 1c5e 453c da41 793b
00000060: b7c8 62bc eaa6 f73b 6126 c93b 9ab5 36bc
00000070: 9265 923a a567 f7bb fd24 da3c 77cd cbb9
00000080: 6cad 0ebc 6939 a33b 5984 8a3a b78b 81bc
00000090: 37ed ed3b 6d39 013c 78df c5ba 5713 eabb
000000a0: 53c2 2c3b ed6f 9dbb 237d 2f3b e81d 77bc
000000b0: b70d 523b ddc2 00bb 4701 38bb a5af 4fbb
000000c0: cb65 e639 fda7 ba3b 483f 0ebc c5b0 d43a
000000d0: 0c5a 323c e173 863c 0ff7 bebb 875b 583b
000000e0: 5e8a 153c 910e 0bbb 1ac2 fb3b d636 203c
000000f0: 68c4 4dbc 1294 783b 9f1e dbbb c1fd c4bb
00000100: 9b14 08bc fa50 7ebc 676d 16bc 33f6 723b
00000110: 9fea af3a 752c 523b 3ac6 273c 7fdc 79bb
00000120: 8dde 56bc 1f73 75bb 4c30 9dbb 5b69 bbbb
00000130: 708b a4bb df0f 31bb ad4b cdbb 9fa5 3a3c
00000140: 707f 243c 08c0 123c cacb 72bc 3f7d 853b
00000150: 12a1 00bc fbc5 493b f809 d83a 4a48 873b
00000160: f34f 14bc 93b1 d43b 1e36 2bba 9d55 db3a
00000170: 2f60 5b3c ef96 50bc 83c3 d73b 24f5 49bb
00000180: 5f28 063c 0cc8 183c d9dd ba3a 33f7 a6bb
00000190: 43ff 90bb 0c0c 8f37 2f69 023b 7905 05bc
000001a0: 0197 bdba 0db0 cabb 279b 9c3c 4fe9 3abb
000001b0: 5473 a43c 671a d3bb 685c b3bb 8d99 68bb
000001c0: 8a6b 6cba 1df1 2e3c 22b4 5c3c 4e0e 073c
000001d0: 11d3 853b 45b3 74bc 89db 0dbb 9fee bd3a
000001e0: da7b 4e3c 58a8 9a3b 565a ad3c 36f0 beba
000001f0: d4ae 053b 6fa9 9c39 b7a9 74bb 4580 f23b
0.004970332 -0.013759831 -0.008931617 -0.005786395 -0.0065008528 0.0041413493 0.01170924 0.0032105322
0.00012916539 0.0023133743 -0.006037335 0.002891228 -0.0043139574 -0.004413299 -0.005150465 0.006760744
0.005626095 0.0042471616 -0.012886675 -0.020337764 -0.0007422299 -0.0018740768 0.012046363 0.0038033635
-0.013841799 0.0075577395 0.0061386083 -0.011151696 0.0011169186 -0.007550197 0.026628966 -0.0003887226
-0.008708339 0.004981209 0.0010568007 -0.015813692 0.007260944 0.0078872265 -0.0015096506 -0.007143419
0.0026360943 -0.0048046024 0.0026777468 -0.015082814 0.0032051632 -0.0019647398 -0.0028076933 -0.0031690386
0.0004394486 0.0056962953 -0.00868208 0.0016226998 0.010885727 0.016412677 -0.0058277915 0.003301354
0.009127228 -0.00212184 0.007683051 0.009778699 -0.012559034 0.0037930054 -0.006687 -0.006011695
-0.008305694 -0.015522236 -0.009181357 0.0037073016 0.0013421363 0.0032069955 0.010240132 -0.003812581
-0.013114584 -0.003745265 -0.004797017 -0.0057193465 -0.005021505 -0.0027017517 -0.006265125 0.011392026
0.010040149 0.008956917 -0.014819095 0.0040737684 -0.007850902 0.0030788172 0.0016482463 0.0041284906
-0.0090522645 0.006490895 -0.00065311964 0.0016733889 0.013389631 -0.012731298 0.006584586 -0.0030816281
0.008188336 0.009325039 0.001425679 -0.0050953864 -0.004424961 1.7052538e-05 0.001989912 -0.008118981
-0.0014464558 -0.0061855377 0.019116951 -0.002852041 0.020074524 -0.0064423564 -0.005473662 -0.0035491914
-0.000901871 0.010677603 0.013470681 0.008243157 0.004083999 -0.014935319 -0.0021645746 0.001449067
0.012602771 0.004719775 0.02116124 -0.0014567438 0.0020398395 0.00029880877 -0.0037332603 0.007400545

onnx::LSTM_114 f4 [1, 512, 128]
00000000: 30ee 113e e1f4 a33d 1b88 c3bc a0cb e13c
00000010: f505 b0bd 9710 d1bd 7951 353e 73b8 6fbd
00000020: 58fb 513c a7ae 9d3c 08d7 183d be22 35bd
00000030: 1183 cc3d 427c 1bbe 84e8 113e 58c9 ebbd
00000040: 2f74 1fbe c22f de3d 1ba3 8fbd cd18 013e
00000050: 1ea0 21be 85b5 31bd 92b8 183e a1b6 743d
00000060: 172e b03c 678b 03be 0afe 983d 2d98 ebbd
00000070: 9ba2 a93d 4254 b3bd 1fe2 e33d 3d10 9c3c
00000080: e9c8 ec3d 4b7b a4bd f031 cabc 2ed2 f43d
00000090: 2355 ce3d dde1 ec3d 98cc 093e 39d4 94bb
000000a0: fd22 1bbe 7c71 66bd 64b6 16be 4591 a1bd
000000b0: 9a3f c4bd 3f2d 16be 1ee1 f93d c824 fc3d
000000c0: 0d1f 0a3e 66e7 343d d525 dcbd 29fc 643d
000000d0: 4fb4 c03d 6147 1b3b 91e1 e63d 6064 ff3d
000000e0: 8ea5 f23d 7638 16be 7f0b 9dba cd81 793d
000000f0: 2fe8 ccbc 8dd7 ee3d a062 27be 358b 083e
00000100: a719 043e 078c 473d a485 b7bd d8ce 543d
00000110: 4b52 153e f5ad a73d e99f 15be 6c32 073e
00000120: d054 78bd b14d 15be 492b 64bc a1c9 873d
00000130: 1a69 66bd 7917 db3d 2f7f ba3a 5075 babd
00000140: c6b2 0b3e 92d5 40bd b4f5 d8bd a390 d1bd
00000150: c71a cb3b 7759 db3c eea3 65bd 4cc5 4f3c
00000160: e44e f93d 4a55 07be c401 d93b 82a9 a2bd
00000170: 5417 96bd f520 62bc 0c7c 1fbe d33c c8bd
00000180: e7e3 7a3d fd27 1bbe 9135 f4bd 23f0 163d
00000190: 36b3 a8bd 0aea 8b3d 9dfc 20be c6e2 333e
000001a0: a6ee 10bd 1237 9f3d 67ac dc3b fed0 da3d
000001b0: 20f6 d0bd 928a 563d efbe 17be 4cba 4d3d
000001c0: 8258 d53c b975 ed3d 5e7c d7bd c00c 71bd
000001d0: 55ea 2fbd cb39 15bd 497b 80bd f0e6 2dbe
000001e0: 2e4b 143e 4d11 13be 8d40 62bd 028b 78bb
000001f0: 7859 eebd 32a5 063e 1c2e 8c3d 07e9 e5bd
00000200: c070 d4bc 3746 0fbd ff10 91bd 1820 17be
00000210: 9736 fb3b 0359 f13d 1de6 323d cfd6 ae3b
00000220: 7aa3 273d c44a b83d 1b63 0ebe bbdc 1d3d
00000230: acf3 c4bd 41bc dd3d 8dbb e93d ee55 f6bd
00000240: 7d4d d6bd 9772 27be ad87 0bbd 0c99 f6bd
00000250: 412e fa3c d6c6 c33d 4a1d abbd c14c 7d3d
00000260: 4fdf c43c f311 833c dbb8 d73d 925c d2bd
00000270: ba5b eabd a936 f63d 3fd9 4cbd bfd6 a53d
00000280: b2bf f13d 1df2 733d 952a 423c 6e49 c3bd
00000290: 04a1 263d 9fa7 31bc 5906 9339 91e3 233d
000002a0: c531 88bd 9b46 f13d 82f4 f13d 10a3 b63d
000002b0: 0bc9 c9bd e148 943c bbf9 353d 9029 a9bd
000002c0: fa06 2e3d 9ddc bcbd 2965 273e 2b1b 763d
000002d0: 217b 7f3d e597 03bd b5e7 843d 9600 a9bc
000002e0: ac05 cb3d c030 8bbc b682 d93d 4d8c 1fbe
000002f0: da5c dcbd 2290 e63b edc6 e03c 39e6 303e
00000300: 570b ff3c a3ae e6bd 12cb 2ebd 31ad 55bd
00000310: be2c d23c 5a85 bc3d c1f7 273d 6d00 f43d
00000320: c7ba 193a 553f e73d 515f ddbd a351 aa3d
00000330: 27c1 233e 5bf1 8c3d 4350 833d 99dd af3d
00000340: 9ea8 05bb 5d5b 923d 940d 26bb 0acb e73d
00000350: c8d4 bebd 59ce 2ebe 4577 0b3e d26d 2abd
00000360: 1f47 b4bd f3d7 86bc e176 2d3e 283f 0abe
00000370: 875b 6fbd 3666 28be fc0c ef3d 8b49 5a3d
00000380: 37b1 edbd 543b 80bd 282a 903d 364d 73bd
00000390: 58ef d53c 472a 85bd fbff ebbc 02d0 a23d
000003a0: f311 72bc 9af5 f4bd 7a35 8fbc d6c3 91bb
000003b0: 53ef e3bd 10e3 f83d f9aa f23b 78eb f83c
000003c0: 7b81 07bb 0cb3 c03c ee89 c9bd ac20 51bd
000003d0: 854c 84bb c6e2 28bc e4fa efbd 3b7f c03d
000003e0: 1208 b83d a12f 003e f5e7 583d 7829 fa3c
000003f0: 9e18 dbbd 20b2 2a3c e9e7 5f3d eae3 51bd
0.14251018 0.08005691 -0.023868611 0.027562916 -0.08594886 -0.102082424 0.1770686 -0.058525514
0.012816273 0.01924832 0.037314445 -0.044222586 0.099859364 -0.1518412 0.14248854 -0.11513013
-0.15571664 0.10848953 -0.07013532 0.12607117 -0.15783736 -0.043386 0.14914158 0.05974448
0.021506352 -0.12846147 0.07470329 -0.115036346 0.08282968 -0.08756305 0.111271136 0.019050712
0.11561758 -0.08031329 -0.024682015 0.11954151 0.10074832 0.115665175 0.13456953 -0.0045419005
-0.15150066 -0.05626057 -0.14718014 -0.07889036 -0.095824435 -0.14665698 0.12201141 0.12311703
0.13488407 0.04416599 -0.107494034 0.05590454 0.09409391 0.0023693668 0.11273492 0.12470317
0.11847983 -0.14669976 -0.0011981576 0.060914803 -0.025013058 0.11662207 -0.16346216 0.13334353
0.1290041 0.048717525 -0.08961037 0.051955074 0.14582174 0.081874765 -0.14611782 0.13202828
-0.06062776 -0.14580418 -0.013926336 0.066302545 -0.056252576 0.106978364 0.0014228577 -0.09104407
0.13642415 -0.047078677 -0.10593739 -0.102326654 0.0061982605 0.026776059 -0.05606454 0.012681317
0.1217325 -0.13216129 0.006622525 -0.07942487 -0.07328668 -0.013801803 -0.15574664 -0.09777226
0.0612525 -0.15151973 -0.119242795 0.036850106 -0.08237307 0.06831749 -0.15721364 0.17566976
-0.035383843 0.07774176 0.006734419 0.10684393 -0.102031946 0.052378245 -0.14818929 0.050226495
0.02604318 0.115947194 -0.10521768 -0.05885005 -0.042948086 -0.03643207 -0.06273515 -0.16982627
0.14481804 -0.14362068 -0.05523734 -0.0037924652 -0.116381586 0.13148955 0.06844732 -0.11226087
-0.02593267 -0.03497907 -0.0708332 -0.14758337 0.0076664197 0.11784556 0.043676484 0.005335666
0.040927388 0.089986354 -0.13904993 0.038540583 -0.09616789 0.10826922 0.114127256 -0.120281085
-0.104639985 -0.16352306 -0.034064937 -0.1204091 0.030539634 0.09559409 -0.08355196 0.061840776
0.024032263 0.01599977 0.10533305 -0.10271563 -0.11443277 0.12022144 -0.05001187 0.080976
0.11804141 0.05955707 0.011850973 -0.0953549 0.0406809 -0.010843187 0.00028042754 0.040011946
-0.06650118 0.11781045 0.11814214 0.089178205 -0.09852799 0.018101158 0.044427615 -0.082598805
0.042487122 -0.09221766 0.16347183 0.060084503 0.062373284 -0.03212728 0.06489507 -0.020630162
0.09913191 -0.01699102 0.10620634 -0.15580864 -0.107598975 0.007036225 0.027438605 0.17275323
0.031133337 -0.11263778 -0.04267413 -0.05216712 0.0256561 0.09205122 0.04100776 0.11914144
0.0005864319 0.112913765 -0.10809196 0.08316352 0.1599165 0.068819724 0.06411793 0.08587188
-0.0020394693 0.071463324 -0.0025337683 0.113180235 -0.093179286 -0.17070903 0.13619716 -0.04160864
-0.08802628 -0.016460394 0.1693988 -0.13500655 -0.058436897 -0.1644524 0.116723984 0.053292792
-0.11606067 -0.06261316 0.07039291 -0.059399806 0.026115105 -0.065022044 -0.028808584 0.079498306
-0.014774787 -0.11960907 -0.017481554 -0.0044483943 -0.11129632 0.12152684 0.0074056354 0.030385718
-0.0020676542 0.023522876 -0.09840761 -0.05105655 -0.004037442 -0.010307973 -0.117177755 0.09399267
0.08985914 0.12518169 0.052955586 0.030537352 -0.10698055 0.010418445 0.054664526 -0.051242746

onnx::LSTM_115 f4 [1, 512, 128]
00000000: 3c02 05be ae7a 45bd d5f7 87bd e765 acbd
00000010: 9e17 ebbc badd 37bd bb08 ffbd b05c 55bd
00000020: 3a1b 01be f6ab 04be a20e 373e 363f 9ebd
00000030: d35b 24be bb8c cbbd d4bc 0e3d 86c6 cd3d
00000040: dbe5 09be e2d5 bb3d 38fd 57bc a3ea e0bd
00000050: 089f 513d bc67 babd 71e4 86bd 1f48 e2bd
00000060: 5034 9a3d 58b7 c9bd 50e0 6bbd d51b c5bc
00000070: 4961 0a3d 0893 103d 3c7c c9bd 1582 40bd
00000080: 9aaa 01be 095e 013e dd62 243d 475c 0e3e
00000090: 33af 94bd 555f 643c 58d5 24be c85a c3bd
000000a0: 3daa 6ebd 3f85 b5bc 9643 8f39 517d 403d
000000b0: 472a c63d 2356 8b3d fa83 383d a5bc 093e
000000c0: 6ea1 f9bd 4746 bcbc e0c0 dabd 1997 113e
000000d0: 3e7c eebd 8988 1d3d 2b95 20bd f58a 483d
000000e0: 4271 80bd 72a0 e43d 6240 7b3c dd36 dabc
000000f0: 0389 a9bd 27a0 ae3d fc12 cb3c 1b6d 88bd
00000100: eb3b 163e 98b5 2b3e d945 1dbe dca9 5a3b
00000110: 10ea 5fbd 114c 0cbe 2f6d a83b 9f9f c0bd
00000120: d6e2 81bd 96f3 5f3e 3c9e 963d bed4 00bd
00000130: 6c78 1a3e c249 fd3d 2551 81bd 1381 3dbd
00000140: da94 0b3e 7f79 8abd 82e6 013e 061a 6ebc
00000150: bdf3 94bd d7b7 053e 3849 0bbd a6ac 2a3d
00000160: 7f14 19be a8e3 11bd 9330 b8bd 8b54 2f3d
00000170: b99c 20be 9e76 2e3d 6bfb 92ba 13a2 a6bc
00000180: 56f4 0c3e b260 e2bd 4e9c aa3d b63f e4bd
00000190: 6dba e4bd a139 bbbd 08ec f4bd 820c 8fbd
000001a0: 5df9 283e 5a45 e03d a385 0c3d 25c0 a23d
000001b0: 05f7 16bd 1dba 1d3d 54e1 193e 3fd7 eabd
000001c0: 63f2 6dbd 0a3d 07be 49cb 91bd 1067 e1bd
000001d0: 1b3e 9d3d 2ca2 08be 20ec 1b3e 9f3d 45bd
000001e0: f778 b4bc 2b82 02be abb3 7f3d 1768 ea3d
000001f0: 91b0 ddbd 9986 b73d d251 b9bd b34a 41bc
00000200: 77f1 ab3a 34ba 4fbd 42ac 383d e14d 39bc
00000210: 6c2f a9bd a53d 1e3c 1030 b73c bc4a b03d
00000220: 0310 fe3d ea43 f53d c6cc 6e3d cd0f 3dbe
00000230: fac5 f63d 62fc 0bbe 02ba 56bb df6e 8bbc
00000240: 5eae 0b3e d7ef cdbc 628d f73d cb0d b33d
00000250: 1dd8 513d 6eb1 c23d 6c31 cebd 61f0 833d
00000260: 9521 93bd 3594 35bd 3233 dfbd a068 bebc
00000270: 0ace 20be 499e f0bd e9ea 14bc 3261 dfbc
00000280: 384a 1dbe b92c 103d c693 c6bc 001e 333c
00000290: 768d 93bd 3ea7 27be 6de6 77bc 2019 acbd
000002a0: 84de d03d be07 29bd ff7b 053e 3477 223d
000002b0: 3363 f0bd 5dfe 38be b968 e53d 4ebb d53d
000002c0: c155 af3d d9ff 1abe 1b96 16bd 57c9 b33b
000002d0: 65ca 03bd fbdb cc3d 779e 9cbc 0a6f fabd
000002e0: 7a07 dd3d 5ccc ffbd 68e3 693c ee68 1d3e
000002f0: f36c 123e 480c 0f3e 0ce6 4abd e654 9abd
00000300: 1379 92bd 6922 a7bd 27c0 953c e0cb a1bd
00000310: 6599 21be 09d3 19be 145e 26be 5d69 efbd
00000320: 154d ac3d 6476 3e3d 0c54 a63d 2110 87bd
00000330: 5ce4 41bc 3390 f4bd d92b d6bd 0829 9e3d
00000340: 47e1 0bbe 3b23 163e 641f ea3d bf33 303c
00000350: 9708 b03d 9c10 ad3d 25b8 86bd e110 eb3d
00000360: d331 99bd 015b a43b 06a9 e9bb 6541 273d
00000370: 8d51 f03d 206a 083e 4931 8d3d 5499 e3bd
00000380: 4966 103d fa95 b2bd 9ee4 833d e7de babc
00000390: e9de 0bbe d0dc 0c3d 23ad 0b3e 4256 d73c
000003a0: 2ec2 533d 59e9 19be 16ee 8a3d cf0b 063e
000003b0: 57df 483b 2e2a 55bd 2b33 ab3c 5f01 71bd
000003c0: 03df ad3d d986 023d 316b e2bd 74bd 573c
000003d0: e0a4 fd3d 3502 8cbd d5c3 d5bd 8c03 c7bd
000003e0: 45b3 23bd 4455 26bd ff96 0dbe 1d46 113d
000003f0: adb8 ab3d 3bd1 f13d 29d8 783d 35d7 44bb
-0.12989134 -0.0482127 -0.06639067 -0.08417874 -0.028697785 -0.04488919 -0.12452837 -0.052090347
-0.12608042 -0.12956223 0.17876676 -0.077269 -0.16050653 -0.099389516 0.03484805 0.10047631
-0.13466589 0.09171654 -0.013182931 -0.109822534 0.051177055 -0.09101817 -0.065865405 -0.11048912
0.07529509 -0.09849423 -0.057586968 -0.024061123 0.033784185 0.03529647 -0.09838149 -0.046999056
-0.12662736 0.12633528 0.040133346 0.13902389 -0.07259979 0.013938745 -0.16097009 -0.095387995
-0.05826782 -0.022158263 0.0002732544 0.04699451 0.096760325 0.06803539 0.045047738 0.13450868
-0.121889934 -0.02298273 -0.10681319 0.14217795 -0.11644791 0.03846029 -0.039204758 0.048960645
-0.06271602 0.11163415 0.015335174 -0.026637489 -0.08278086 0.085266404 0.024789326 -0.06661435
0.14671294 0.16768491 -0.15358676 0.0033365404 -0.05466658 -0.13700892 0.005139969 -0.09405445
-0.06342094 0.21870264 0.073543996 -0.031452887 0.15085 0.12367584 -0.06314305 -0.046265673
0.13631001 -0.06761455 0.12685588 -0.014532572 -0.07273052 0.1305841 -0.034005374 0.041668557
-0.14949225 -0.0356175 -0.0899364 0.042805236 -0.15684785 0.04259359 -0.0011213844 -0.020340955
0.13765082 -0.110535994 0.08330594 -0.111449644 -0.111683704 -0.09141851 -0.11959082 -0.069848076
0.16501375 0.10950728 0.034307133 0.07946805 -0.03685667 0.03850757 0.15027362 -0.11466836
-0.058092486 -0.13206878 -0.07118852 -0.11005986 0.07677861 -0.13343114 0.15226793 -0.04815447
-0.022030337 -0.12744968 0.062427204 0.11445635 -0.10824693 0.08961219 -0.09048809 -0.011797595
0.0013118227 -0.050714687 0.045086153 -0.011310072 -0.08260998 0.009658252 0.022361785 0.086080045
0.12405398 0.11975844 0.058300756 -0.18463059 0.1204948 -0.13670495 -0.0032764678 -0.01702064
0.13640735 -0.025138779 0.120875135 0.08742865 0.051231492 0.09506498 -0.1006802 0.06442333
-0.0718414 -0.044330794 -0.108984366 -0.023243248 -0.15703598 -0.117489405 -0.00908921 -0.027268026
-0.15360343 0.0351989 -0.024240386 0.0109324455 -0.07204716 -0.16372392 -0.015130621 -0.0840323
0.101986915 -0.04126715 0.13035582 0.039664462 -0.11737671 -0.18065782 0.11201615 0.10436116
0.08561278 -0.1513666 -0.036764245 0.005486648 -0.03217544 0.100028954 -0.01911853 -0.1222821
0.10792442 -0.1249015 0.014275409 0.15372059 0.14299373 0.13969529 -0.049535796 -0.07535724
-0.07151999 -0.0816086 0.018280102 -0.07900214 -0.15781172 -0.1502191 -0.16246825 -0.11690018
0.0841314 0.046499625 0.081214994 -0.06594873 -0.01183423 -0.11941566 -0.10457582 0.0772267
-0.13660155 0.14661877 0.114317685 0.010754525 0.085953884 0.084504336 -0.065780915 0.11477829
-0.07480206 0.0050157313 -0.007130745 0.04083385 0.117343046 0.13321733 0.06894166 -0.111132294
0.035253797 -0.08720012 0.0644009 -0.022811366 -0.13659252 0.03439027 0.13640265 0.026286248
0.051698856 -0.15030421 0.067836925 0.13090442 0.00306507 -0.05204218 0.020898422 -0.0588392
0.08489802 0.031866882 -0.110556014 0.013167728 0.12384963 -0.068363585 -0.104377426 -0.097174734
-0.039965887 -0.04060866 -0.13827132 0.035467256 0.083848335 0.11807486 0.06075302 -0.00300355

onnx::LSTM_116 f4 [1, 1024]
00000000: 0012 3c3a 524a 853c 3438 8d3b 5972 4bba
00000010: 241e 4abc ee3c 9c3c 7383 aa3b 0d7a fb3c
00000020: 3a03 cfbc a06a 063a 4b3f dabb 9ff4 be3b
00000030: 223d 9c3c df5f 353c cd76 0f3c f62f c6bc
00000040: d5cb 443c 2cf6 5ebc c13a c93c b009 5e3c
00000050: 3e2c 4e3c 95e3 4d3b 18bf d43c 31a1 8d3c
00000060: a4e7 7aba d576 623c ac23 e83a 3f16 173c
00000070: bb92 5d3b a56c a23b b4c3 0b3b 82d0 3e3c
00000080: 9b68 933b 74bd 473c 05b5 c93c de9a 773b
00000090: 0575 74bb 246d 3d3b 9b96 9e3c a213 1a3c
000000a0: 67e4 833b 3400 c93b 78ad 7e3c cd3c 993c
000000b0: 476f 183c 5da8 363a 7d83 563c 2a89 fc3b
000000c0: e7c9 033c cf80 3d3c 5a92 8dba 5cdd 513c
000000d0: e994 c6bc 52e0 db3a f70f 8d3c 6787 2a3c
000000e0: f9fd 903c 6c88 cc3b 3369 8c3c 132e 3f3c
000000f0: 87c8 203d 754f 223c 90f1 9ebb 606d 9a3c
00000100: c2fb 49bb 97e4 3d3b b60c 7d3c 9395 843c
00000110: 4873 933c cef0 163c ede0 8dbc 9eea 033c
00000120: 6644 933c 37ae 92bb 36dd 7f3c a77b 863c
00000130: 8a7e 853b 532e 5c3c d9ba 573c 99af cf3b
00000140: b536 febb 1098 4e3c 2439 953c 7019 593c
00000150: 1d9e 7f3a 2429 3c3c 4e12 983c 4ab5 553c
00000160: b6a1 9c3c ff7f d03c 6af1 eeb9 b2af 353c
00000170: 8ba3 7f3c a786 4c3c 9c23 eb3a 81e1 81bc
00000180: a889 283c a5a5 1d3c 9086 493c 01d5 a03c
00000190: 2609 a03b 8cdb 373c 0711 c33b 3f5f 85bb
000001a0: 31e1 9e3c 27d8 0b3c 5062 61bb 82e1 063c
000001b0: a807 2d3c a51a aa3b 7697 973c a0e1 003c
000001c0: fe07 003c 18d4 35bc 1712 6d3c 95e4 96bb
000001d0: ef4d 853c 8345 06bc 314e aeba 2baf 443c
000001e0: bfd4 903c b6e6 5b39 0881 233c 7079 84bc
000001f0: d295 6d3c d53e bbbb 1f6f ba3c e3e0 443c
00000200: b930 8e3c b88f 173c bfd6 663c 1b57 df3c
00000210: f385 81bc 5f48 1fbc 062f d8bb 5e56 993c
00000220: 70ca ab3c 3b33 1e3c bfde e33c 34c4 073d
00000230: 9bd0 253b f8e8 d53c 8ab6 fe3c cfe4 8e3c
00000240: ed64 083d b885 febb d259 52bb 25a1 293d
00000250: 2a64 4c3c aa3e 8d3c 4b01 433c 805c a83c
00000260: 5020 923c a3d9 933c 3dac 0abc bdbe 743c
00000270: e357 103c 4653 3c3c f305 853c 9372 983b
00000280: 5ad6 ecb9 1e9c 273c 8caf bc3c 115a a43c
00000290: 0e80 b53c 2ad2 85bc d9c2 8f3c 79b4 8abb
000002a0: e274 8c3c bf02 c2bb 1484 d63b b5e1 fd3b
000002b0: e18e da3b 5957 dd3c 937f 633c f380 053d
000002c0: acb4 3cbc 6a22 cd3b 835a 373a e328 e23a
000002d0: 7795 873c 4c62 183c b5ab 0b3c 8016 38bc
000002e0: 1f4e 5e3c 515a 183b 33c6 b5ba 62bc 953c
000002f0: 6882 a03c 510e 233c 20a9 3f3c 3917 e83c
00000300: 6ce0 c43c c309 b43c abec a83c d3f8 103a
00000310: 94f8 203d 2bd9 ce3c a372 ec3b 15b7 f9bb
00000320: 53a5 9a3c 6b15 9a3c 3c73 483c eda9 ff39
00000330: 74a3 243c 6b6d 963c 8476 623c a2a5 283c
00000340: 5655 7aba b169 5b3b 0dcf f73b dbf1 3d3c
00000350: 7209 1a3c 3c5c 2f3c f4fa f13c 93ce 8dbb
00000360: 04a6 e4b8 195f 333c 465e 9e3c bd7e e93b
00000370: 7b25 3b3c 5abb 963c 2702 febb e1be d939
00000380: 9d23 463b d6d0 903b ad5f 183c cf62 b03c
00000390: 7ae8 9a3c c918 ac3c 247e 03bc cd47 003c
000003a0: e0b0 bd3b 63af e93b 6993 bb3c 6ffd 353c
000003b0: 6463 8abb ba76 613b 8b8b ad3c 31ae f43b
000003c0: 3c1c e9bb 3975 d1b8 2eed 243c 42e3 2abb
000003d0: 063b 13bc 8a66 f83b d0a8 d63c f764 be3c
000003e0: f484 0bbb 45f5 373c 3324 99bb 173b 33bc
000003f0: 925d ee3c 1624 123d 7af5 963c 15d8 263c
0.0007174313 0.01627079 0.0043096785 -0.00077608746 -0.012336288 0.019072022 0.0052036582 0.030697847
-0.025270093 0.00051275827 -0.006660377 0.005827501 0.01907212 0.011070221 0.008756352 -0.024192791
0.012011488 -0.013608497 0.024564149 0.013552114 0.01258379 0.0031416167 0.025970027 0.017288776
-0.00095712603 0.013822277 0.0017710826 0.0092216125 0.0033809382 0.004956799 0.0021326365 0.011646392
0.004498554 0.012191165 0.02462245 0.0037781517 -0.0037301194 0.0028904164 0.019358924 0.009404095
0.0040250304 0.0061340574 0.015544288 0.01870575 0.009303874 0.0006967837 0.013092873 0.007706781
0.008043743 0.011566355 -0.0010801062 0.012809124 -0.024240928 0.0016775227 0.017219527 0.010408259
0.017699229 0.0062418487 0.017140007 0.0116687 0.039253738 0.009906639 -0.004850574 0.018850982
-0.0030820225 0.0028975361 0.015444925 0.016184604 0.017999306 0.009212686 -0.017319167 0.008051543
0.01797695 -0.0044763344 0.015616706 0.016416384 0.0040739225 0.013438779 0.013167107 0.0063380715
-0.0077579864 0.012609497 0.018215723 0.013250694 0.0009751039 0.011484418 0.018563416 0.013043711
0.019120079 0.025451658 -0.00045574765 0.011089252 0.0156029565 0.0124832755 0.001793969 -0.015854599
0.010286726 0.009622012 0.012300149 0.019632818 0.004883903 0.011221778 0.0059529576 -0.004070192
0.019394489 0.008535421 -0.0034390874 0.008232476 0.010560907 0.0051911646 0.01850484 0.007866293
0.0078144055 -0.01109793 0.014469645 -0.004604886 0.016272513 -0.008195284 -0.0013298449 0.012004654
0.01767957 0.00020971414 0.009979494 -0.016171187 0.014501052 -0.0057142773 0.022758065 0.012016508
0.017357217 0.009250574 0.014089285 0.027263215 -0.015810942 -0.009721844 -0.0065974025 0.01871794
0.020970553 0.009655769 0.027816175 0.0331461 0.002530134 0.026112065 0.0310929 0.017443089
0.033299375 -0.0077674054 -0.0032096994 0.041413445 0.012475053 0.017241795 0.011902164 0.02055192
0.017837673 0.018048113 -0.008463916 0.014938054 0.008810016 0.011494463 0.016238188 0.00465233
-0.00045173132 0.010230092 0.023032926 0.020062478 0.022155788 -0.016335566 0.017548965 -0.00423294
0.017145578 -0.0059207375 0.0065465067 0.0077478536 0.0066698645 0.02701919 0.0138853965 0.03259368
-0.011517685 0.006260206 0.00069943833 0.0017254617 0.016550763 0.00930078 0.008524825 -0.011235833
0.01356843 0.0023247192 -0.0013868272 0.018278304 0.019593433 0.009952144 0.011698037 0.028331386
0.024032794 0.021977311 0.020620665 0.0005530242 0.039299563 0.025250038 0.007215814 -0.007620702
0.01887766 0.018809041 0.012234505 0.00048763995 0.010048736 0.018362721 0.013822202 0.010293396
-0.0009549459 0.0033479745 0.007562524 0.011593307 0.009401666 0.010703143 0.02953861 -0.004327604
-0.0001090281 0.010947966 0.019332062 0.007125704 0.01142251 0.018399883 -0.0077517214 0.0004153168
0.003023363 0.0044194264 0.009300155 0.02153149 0.018909682 0.021007912 -0.00802568 0.007829619
0.0057889074 0.0071315034 0.02289744 0.011107787 -0.004223274 0.0034403042 0.021184703 0.0074670543
-0.0071139615 -9.987731e-05 0.010066314 -0.0026075398 -0.00898624 0.007580583 0.026203543 0.023241503
-0.0021288963 0.01122791 -0.0046735047 -0.010939381 0.029097352 0.035678945 0.0184276 0.010183354
