Machine-Learning-DRL/results/SeekerTrainingWall/Seeker/Seeker-499984.onnx (onnx, 610983 bytes, 11 tensors)

discrete_act_size_vector f4 [1, 2]
0	0x40800000	4.0
1	0x3f800000	1.0

network_body._body_endoder.seq_layers.0.weight f4 [128, 8]
0	0x3eec6dd6	0.46177548
1	0xbd98add5	-0.07455031
2	0x3dcd32f1	0.10019482
3	0xbeb9e1ed	-0.3630518
4	0x3e7231a9	0.23651756
5	0x3f5ca5d1	0.86190516
6	0xbec8c26d	-0.39210835
7	0xbc70e17a	-0.014702195
8	0x3ec97093	0.393437
9	0xbc52ddf8	-0.012870304
10	0x3f1eb5c0	0.6199608
11	0xbe2cdddb	-0.16881506
12	0xbdb285e4	-0.08716944
13	0x3e5575ab	0.20845668
14	0x3e5540d6	0.20825514
15	0xbd287e09	-0.04113582
16	0xbe917579	-0.28409937
17	0xbeba5af7	-0.36397526
18	0x3b3e5f2c	0.0029048426
19	0x3dcd8606	0.100353286
20	0xbf5265a5	-0.8218635
21	0x3e60359e	0.21895453
22	0xbd58299b	-0.052774053
23	0x3e8c0220	0.2734537
24	0x3f0108a8	0.50403833
25	0xbf3488ee	-0.7052144
26	0xbeb7453b	-0.35795006
27	0x3df9c649	0.12196023
28	0xbf02c439	-0.5108066
29	0xbe01524d	-0.12629052
30	0x3ed2a3e8	0.41140676
31	0x3d25b8e2	0.04045952
32	0x3e1918cc	0.14950866
33	0x3ec98403	0.3935853
34	0xbc99e694	-0.018786706
35	0xbea55137	-0.32288525
36	0xbe2d0d02	-0.16899493
37	0xbea41442	-0.32046705
38	0x3e119bf7	0.14219652
39	0xbee0eaf7	-0.43929264
40	0xbed048dd	-0.4068059
41	0x3f2f3118	0.68434286
42	0x3d93b15d	0.07211564
43	0xbd6d1cae	-0.05788868
44	0xbf244855	-0.6417287
45	0x3ec19090	0.37805605
46	0x3f1a7d52	0.60347474
47	0x3f1ece6a	0.6203371
48	0xbc9f7c9d	-0.0194686
49	0x3e0d861f	0.13820694
50	0xbdaf6b9b	-0.08565446
51	0x3dea9e73	0.11456003
52	0xbea6fddb	-0.3261555
53	0xbe021809	-0.12704481
54	0xbf2e1a83	-0.68009204
55	0x3f1b990f	0.60780424
56	0x3f52d823	0.8236105
57	0x3d945efa	0.07244678
58	0x3e752728	0.23940718
59	0xbddb1639	-0.10697598
60	0xbef5cc45	-0.48007408
61	0xbef78dca	-0.48350364
62	0xbe833d0e	-0.2563252
63	0xbee7beaf	-0.45262668
64	0xbe9b1b6f	-0.30294368
65	0xbe1782ab	-0.1479594
66	0x3d82b1b6	0.06381552
67	0x3e4e99d1	0.20175864
68	0x3e8621ed	0.26197758
69	0xbe89b3d6	-0.26895016
70	0x3e0ab296	0.13544688
71	0xbe8556b8	-0.26042724
72	0x3ea77749	0.32708195
73	0xbe3d926f	-0.18512891
74	0x3db0f099	0.0863964
75	0x3ed4dcfd	0.4157485
76	0xbeb63838	-0.35589767
77	0xbeaa4ebd	-0.33263198
78	0x3ec04296	0.375508
79	0x3d7ff598	0.062490076
80	0xbea7e03a	-0.3278826
81	0x3e5f0468	0.21779025
82	0x3e87c92a	0.26520663
83	0xbc92561c	-0.017863326
84	0xbf1027e6	-0.5631088
85	0xbe7f4d23	-0.24931769
86	0xbe86f19e	-0.26356214
87	0xbd52f7cc	-0.05150585
88	0x3ef57223	0.47938642
89	0xbe03eeba	-0.12884036
90	0x3d9c4126	0.076296136
91	0xbda343c5	-0.079719104
92	0x3e10a31d	0.14124723
93	0x3f2b6838	0.669559
94	0x3e26802e	0.16259834
95	0x3ef7018f	0.48243377
96	0x3f9a4b4f	1.2054232
97	0x3f1181a7	0.5683846
98	0xbdd14a88	-0.10219294
99	0xbe8a25c0	-0.26981926
100	0xbe870b2d	-0.26375714
101	0x3dcc7dd7	0.099849395
102	0x3efa2068	0.4885285
103	0xbe383a77	-0.17991053
104	0xbdcbc7f4	-0.099502474
105	0xbf0cf44f	-0.55060285
106	0xbe3c617e	-0.18396565
107	0x3f13761f	0.57602113
108	0xbe2a32b6	-0.16620907
109	0xbbc88238	-0.006119039
110	0xbe9861c9	-0.29762104
111	0x3f74d464	0.9563658
112	0x3bfc703c	0.007703809
113	0xbed04dcd	-0.40684357
114	0xbe473092	-0.19452122
115	0xbdd5b1d6	-0.1043431
116	0x3e9bffdd	0.30468646
117	0x3ed3601a	0.41284257
118	0x3eb943d1	0.36184552
119	0x3f037298	0.5134673
120	0xbda66183	-0.08124068
121	0xbf123918	-0.5711837
122	0x3ecf641f	0.40506074
123	0xbc89ed20	-0.016836703
124	0xbe8fe7b7	-0.28106472
125	0x3d7addb6	0.061246596
126	0x3d586dbe	0.052839033
127	0xbee760c4	-0.45191014
128	0x3e468678	0.19387233
129	0xbec1a91c	-0.37824333
130	0xbeb03cce	-0.3442139
131	0x3e0d9698	0.13826978
132	0x3f2f1386	0.68389165
133	0x3ddc08f3	0.107438944
134	0x3e6a1c90	0.22862458
135	0xbee2af38	-0.44274306
136	0x3e76d83e	0.24105927
137	0x3f00f803	0.50378436
138	0x3efbe647	0.49199125
139	0x3d90c941	0.07069636
140	0xbe873db8	-0.26414275
141	0xbecf406d	-0.4047884
142	0xbe7aa0b7	-0.2447537
143	0x3eb0655b	0.34452328
144	0x3ec6afd9	0.38806036
145	0x3e82cbd8	0.25546145
146	0x3ec0016d	0.37501088
147	0x3e561ea5	0.20910127
148	0xbef0ffd9	-0.47070196
149	0x3e1e608f	0.15466522
150	0x3dce839b	0.100836955
151	0xbd0e2de5	-0.034711737
152	0xbe461b88	-0.1934644
153	0xbdeb2092	-0.11480822
154	0xbdd297db	-0.102828704
155	0xbed03d6b	-0.40671858
156	0x3e16da56	0.14731726
157	0x3d005468	0.031330496
158	0x3ba3c577	0.004997905
159	0xbe5b5c1c	-0.21421856
160	0xbf6a0a52	-0.91422
161	0xbe8d9fc7	-0.27660963
162	0xbede132e	-0.43374008
163	0xbe341841	-0.17587377
164	0xbe4ffa3f	-0.20310305
165	0x3f2b22f0	0.66850185
166	0x3f233ad0	0.63761616
167	0x3ce27807	0.027645124
168	0xbefec378	-0.49758506
169	0xbe9f5e4a	-0.31126624
170	0xbd847ee1	-0.06469513
171	0x3eb2abeb	0.34896788
172	0x3ec36797	0.3816497
173	0x3e8f4edc	0.27989852
174	0xbf70da82	-0.94083416
175	0x3f33ae40	0.7018776
176	0xbe936f97	-0.28796074
177	0x3e8dba4e	0.27681202
178	0xbed4166c	-0.41423357
179	0xbede5c5a	-0.43429834
180	0x3f2fd2c7	0.68680996
181	0xbedb9f29	-0.42894867
182	0x3e95df5d	0.29271975
183	0xbe9f523f	-0.31117436
184	0xbf7d6499	-0.98981625
185	0xbe816325	-0.25270954
186	0xbe656f20	-0.22405672
187	0xbdc1f3e5	-0.09470347
188	0x3e09dad1	0.13462378
189	0xbe82cf21	-0.25548652
190	0x3e38a564	0.18031842
191	0x3f4f3a86	0.80948675
192	0x3e82ed76	0.25571793
193	0xbe5b252b	-0.21400897
194	0xbdb013be	-0.085975155
195	0xbed8308a	-0.42224532
196	0xbecc2240	-0.3986988
197	0x3d28d00f	0.041214045
198	0xbe5844ef	-0.21120046
199	0xbedfb020	-0.4368906
200	0xbe92add9	-0.2864826
201	0xbe494a4d	-0.1965725
202	0xbe172b9e	-0.14762732
203	0xbe9d9dd0	-0.30784464
204	0x3e1d687c	0.15371889
205	0xbd184638	-0.03717634
206	0xbd05e7a5	-0.032691617
207	0xbf06d85a	-0.52673876
208	0xbe7eac53	-0.24870424
209	0x3c9f204f	0.019424586
210	0xbe3c9ee3	-0.18419985
211	0xbeb32204	-0.3498689
212	0x3eeb6589	0.45975903
213	0xbe3bf4e9	-0.18355145
214	0xbc66001a	-0.01403811
215	0xbeaa4267	-0.33253786
216	0x3f03d3f3	0.51495284
217	0xbeb7c4ef	-0.35892436
218	0xbdb56878	-0.088578165
219	0xbeec40ff	-0.46143338
220	0xbe5b31d7	-0.21405731
221	0x3e9ddf43	0.30834398
222	0xbe3ef1e3	-0.1864696
223	0x3e8a66c9	0.27031544
224	0xbcf903b5	-0.030397275
225	0x3b15eafa	0.0022875653
226	0x3eaaf037	0.33386394
227	0xbed8d387	-0.42348883
228	0x3ee91ada	0.455283
229	0xbecf7f7e	-0.40526956
230	0x3d7a7ad1	0.061152283
231	0xbf1489b1	-0.580226
232	0x3ea26af1	0.31722215
233	0x3ed4085b	0.41412625
234	0xbd91ec48	-0.07125145
235	0x3ee8e6ce	0.4548859
236	0xbe258ee3	-0.16167788
237	0xbde704c0	-0.11280203
238	0x3e89cfe8	0.26916432
239	0xbf300040	-0.6875038
240	0xbd3ffe76	-0.046873532
241	0xbe0d30c9	-0.13788141
242	0xbe98f7f4	-0.29876673
243	0xbee7d268	-0.45277715
244	0xbe3d9425	-0.18513544
245	0xbe197094	-0.14984351
246	0xbdbe2f87	-0.09286409
247	0x3e430ced	0.190479
248	0xbe4959fa	-0.1966323
249	0x3ea0bcb2	0.31393963
250	0x3f38da26	0.7220787
251	0xbe54ab2c	-0.20768422
252	0xbf0fe40c	-0.56207347
253	0x3f54bdf7	0.83102363
254	0x3ef6fe54	0.48240912
255	0x3e3e5742	0.18587974

network_body._body_endoder.seq_layers.0.bias f4 [128]
0	0xbc97cc2f	-0.01852998
1	0xbc8e596b	-0.017376622
2	0xbc1d82a0	-0.009613663
3	0x3bc9934d	0.006151593
4	0xbb1c3c27	-0.0023839565
5	0x3c202ec6	0.009776777
6	0x3c350eec	0.011050921
7	0xbc80aec0	-0.015708327
8	0x3c0cf934	0.0086043365
9	0x3d875e22	0.06609751
10	0x3b69914d	0.0035639585
11	0x3a816044	0.0009870608
12	0xbc6eacb5	-0.014567544
13	0x3d1a0055	0.037597973
14	0x3c9479d1	0.018124493
15	0x3bc54cc2	0.006021113
16	0x3b29016e	0.0025788206
17	0xbb83b7dc	-0.0040197205
18	0x3b04b503	0.0020249493
19	0x3ca0f8b3	0.019649839
20	0xbc8746ce	-0.016513254
21	0xbb15e381	-0.0022871199
22	0x3bfb715a	0.0076734247
23	0xb6c45cc4	-5.8520545e-06
24	0xbbe63186	-0.0070249466
25	0x3d48a02d	0.04898088
26	0x3ca3732e	0.019952383
27	0xbcd45263	-0.025918191
28	0xbc55984c	-0.013036799
29	0x3d893f23	0.067014955
30	0xbc01787e	-0.007902263
31	0xbd2cc44c	-0.04217939
32	0x3d18910e	0.03724771
33	0xbc53f4f1	-0.012936817
34	0xbb7c6003	-0.0038509376
35	0x3c130c92	0.008975165
36	0x3ca46749	0.020068781
37	0xbc280e56	-0.010257324
38	0xbbb8e5ec	-0.005642643
39	0xbcf4a0bd	-0.029861802
40	0x3c9832d0	0.018578917
41	0xbc2bb9a5	-0.010481273
42	0x3a90779d	0.0011021976
43	0x3b1a8f54	0.0023583965
44	0xbc222cbc	-0.009898361
45	0x3c653ae6	0.013991093
46	0xbbce0690	-0.0062874034
47	0xbca571a0	-0.020195782
48	0x3c1258a7	0.008932269
49	0xbc983c60	-0.018583477
50	0x380601e8	3.1949865e-05
51	0x3d37b5fa	0.04485128
52	0xbba124a9	-0.0049177003
53	0x3c31e7aa	0.010858456
54	0x3bc123b4	0.0058941487
55	0x3b925d8d	0.0044667185
56	0x3d048854	0.032356575
57	0xbc2b52f1	-0.0104567865
58	0x3b45f7d7	0.0030207539
59	0x3afd65d2	0.0019332713
60	0xbb466e84	-0.0030278275
61	0x3b3fc185	0.0029259634
62	0xbd15e54d	-0.03659563
63	0x3d2820ac	0.041046783
64	0xbb1f63b7	-0.002432091
65	0x3c48d865	0.012258624
66	0x3c1e4d8c	0.009662043
67	0xbc82b418	-0.015955016
68	0x3c57164f	0.013127877
69	0x3babce0b	0.005243068
70	0x3d2ac858	0.04169497
71	0xbbb5f2d6	-0.00555263
72	0xbd15a9bb	-0.03653882
73	0xbc23b686	-0.009992247
74	0xbbbb7406	-0.005720618
75	0x3b1e9c87	0.0024202184
76	0x3c7db885	0.015485887
77	0x3c11b5db	0.008893455
78	0x3dd59331	0.10428465
79	0xbb27e3c4	-0.0025617937
80	0xbc59dd2b	-0.013297359
81	0x3c35d39e	0.011097817
82	0x36e6fc5c	6.8839126e-06
83	0x3c901e11	0.017592462
84	0xbb1c635a	-0.002386293
85	0xbb6396ec	-0.0034727408
86	0xbaa6539b	-0.0012689711
87	0x3c49f344	0.012326065
88	0xbc9b132c	-0.01893004
89	0x3d82333e	0.0635743
90	0x3d5c5781	0.053794388
91	0xbd194c95	-0.03742655
92	0xbcae040f	-0.02124217
93	0xbc1ad82e	-0.009450955
94	0x3c98ad02	0.018637184
95	0x3c610404	0.013733868
96	0xbc4023e2	-0.011727305
97	0xbc1c5d5a	-0.009543741
98	0xbb904e87	-0.0044038924
99	0xbc3ed8b3	-0.011648345
100	0xbcd6bdd9	-0.026213573
101	0x3cd16f96	0.025565904
102	0x3d353fc7	0.044250276
103	0x3cdabef5	0.026702384
104	0xbc1a9967	-0.009435988
105	0xbc7b5e66	-0.015342331
106	0xba43b942	-0.0007466265
107	0xbc274619	-0.010209584
108	0xbc919d12	-0.017775092
109	0x3c95b079	0.018272625
110	0xbab36e0e	-0.0013689415
111	0x3cc9d3eb	0.024637183
112	0x3b912510	0.004429467
113	0xbb7d013c	-0.0038605472
114	0x3c05ff94	0.00817861
115	0x3d04a15d	0.03238045
116	0xbc93a166	-0.018021297
117	0x3cbb8fec	0.022895776
118	0x3b9e8359	0.004837435
119	0xbc452d6c	-0.012034755
120	0xbb394f18	-0.0028275903
121	0x39b4b1fa	0.00034464878
122	0xbc709296	-0.014683386
123	0x3abd3e7d	0.0014438179
124	0xbc7313e5	-0.014836286
125	0x3c0befe8	0.008541085
126	0xbb70811b	-0.0036698047
127	0x3d564cb1	0.052319232

network_body._body_endoder.seq_layers.2.weight f4 [128, 128]
0	0xbdaf88b2	-0.085709944
1	0x3b435963	0.0029807917
2	0xbdb95203	-0.090488456
3	0x3d14451b	0.036198717
4	0x3cfc47db	0.030795982
5	0x3d27cf5b	0.040969234
6	0xbd74c317	-0.059756365
7	0xbd0507b6	-0.032478057
8	0x3dfef3ca	0.12448843
9	0xbd3fb1a8	-0.046800286
10	0x3d0d7ea4	0.034544602
11	0xbda821cf	-0.082095735
12	0xbdac65be	-0.08417843
13	0x3b15cc0c	0.0022857217
14	0xbd973fff	-0.07385253
15	0xb9bb9a2e	-0.00035782292
16	0x3dcffbfe	0.101554856
17	0x3e114d36	0.1418961
18	0xbe896930	-0.26838064
19	0x3d6d7a6a	0.05797807
20	0x3da4fadc	0.0805566
21	0xbcd443e8	-0.025911286
22	0xbd452e21	-0.048139695
23	0xbc8a656a	-0.016894061
24	0x3ca47cbb	0.020079007
25	0xbc25d026	-0.010120427
26	0x3d4bcb2f	0.049754318
27	0x3cf4b84e	0.02987304
28	0x3e31dda8	0.17369711
29	0xbde3373e	-0.11094521
30	0xbc3b680f	-0.011438384
31	0x3e36b36b	0.1784188
32	0xbe013035	-0.12616046
33	0xbd78048e	-0.06055122
34	0xbd2fa26a	-0.0428795
35	0xbde329e5	-0.11091975
36	0x3e1070af	0.14105485
37	0xbd824697	-0.0636112
38	0x3ca28157	0.019837065
39	0xbd3b3847	-0.045707967
40	0x3d9fa4ae	0.07795082
41	0xbd00fc92	-0.03149087
42	0xbc649e65	-0.01395378
43	0x3d92198d	0.0713378
44	0x3d3751a5	0.044755597
45	0x3cea20a6	0.028580021
46	0xbd521fa8	-0.05129972
47	0x3c41884c	0.011812281
48	0xbe0063b9	-0.12538041
49	0x3dc300d8	0.09521645
50	0x3c39859d	0.01132336
51	0xbcebba85	-0.028775463
52	0xbd6119cb	-0.05495624
53	0xbe4aa00d	-0.19787617
54	0x3c9369ee	0.017994847
55	0xbc7f6026	-0.015586888
56	0xbd940b40	-0.07228708
57	0x3d2f930d	0.042864848
58	0x3d6edce7	0.058316138
59	0x3e270022	0.16308644
60	0xbd997439	-0.07492871
61	0x3d14af08	0.036299735
62	0xbd888e0f	-0.066677205
63	0x3d82db8f	0.06389534
64	0x3de2d138	0.110750616
65	0xbdcb6b99	-0.09932632
66	0xbdbfd317	-0.09366434
67	0x3b0bb04f	0.0021314805
68	0x3bd542d2	0.0065082097
69	0xbe241faa	-0.16027704
70	0x3d9ed428	0.07755309
71	0xbd6ba302	-0.057528503
72	0xbd0eb8ef	-0.034844335
73	0x3e062a57	0.13102089
74	0xbd0d0b09	-0.034434352
75	0x3da89e9f	0.082333796
76	0x3ba2cee3	0.0049685105
77	0xbcb4249c	-0.021990113
78	0xbd27e60f	-0.040990885
79	0x3c835d3b	0.016035667
80	0x3b6faa05	0.0036569845
81	0x3d3edca5	0.04659714
82	0x3d52ac4f	0.051433858
83	0xbd3b4bee	-0.04572671
84	0xbd82d844	-0.06388906
85	0x3c822160	0.015885055
86	0xbe06638e	-0.13123915
87	0x3dd1be29	0.10241348
88	0xbdf32a79	-0.118733354
89	0x3a5df187	0.00084664713
90	0x3ddf5500	0.10904884
91	0xbcd5605f	-0.02604693
92	0xbdbde89e	-0.09272884
93	0xbcd713a1	-0.026254477
94	0xbd979750	-0.074019074
95	0x3ce7729d	0.028252894
96	0xbdb92d7e	-0.0904188
97	0x3d8d2f29	0.06893761
98	0xbdc8441d	-0.097786166
99	0x3db9089a	0.09034844
100	0x3ded6b4a	0.115927294
101	0xbdcc96b4	-0.09989682
102	0xbd390aac	-0.045176193
103	0x3a47cad2	0.000762147
104	0x3c36fa1e	0.011168031
105	0xbd10b8bd	-0.03533243
106	0xbbc6003b	-0.006042508
107	0xbdd6abd4	-0.10481992
108	0xbdde3381	-0.10849667
109	0xbc7079ca	-0.014677474
110	0xbcd915e5	-0.026499698
111	0x3de4837b	0.111578904
112	0x3d36fdcd	0.044675637
113	0xbd5fca43	-0.05463625
114	0xbde2d59f	-0.11075901
115	0x3deff2d3	0.11716237
116	0xbd69b884	-0.057060733
117	0xbd2995f2	-0.041402765
118	0xbda76b17	-0.08174723
119	0xbda0de44	-0.07854894
120	0x3d9cefc4	0.07662919
121	0xbe1b077e	-0.15139577
122	0xbd69a43d	-0.057041395
123	0xbe0cc27f	-0.1374607
124	0xbdd47f1f	-0.10375809
125	0x3d8a93f5	0.06766502
126	0xbcf52961	-0.029926958
127	0x3d53df0a	0.05172638
128	0xbde471f0	-0.11154544
129	0x3d859980	0.065234184
130	0x3d067b58	0.032832474
131	0xbe269cad	-0.16270705
132	0xbdc30bb0	-0.095237136
133	0xbc8c9ba7	-0.017164065
134	0x3ddbf8d5	0.1074082
135	0xbe123980	-0.14279747
136	0xbd194459	-0.037418697
137	0xbbcb628c	-0.006206816
138	0xbce8ee8f	-0.028434066
139	0x3df3ab31	0.118978865
140	0x3da663fc	0.08124539
141	0xbd1effd1	-0.038818184
142	0xbc9fe743	-0.019519454
143	0x3dc511f6	0.096225664
144	0x3ce17322	0.02752072
145	0xbc823b71	-0.015897484
146	0xbdc607aa	-0.096694306
147	0xbc48b918	-0.012251161
148	0x3cd8b753	0.026454603
149	0xbceefc09	-0.029172914
150	0x3debb0df	0.11508345
151	0xbcb660e5	-0.022263
152	0xbcd5299d	-0.02602082
153	0x3b5781d2	0.0032883775
154	0xbdbca747	-0.09211593
155	0x3e44d99e	0.1922364
156	0x3d9ff4db	0.07810374
157	0xbd8c77f0	-0.06858814
158	0xbd8a2ac8	-0.06746441
159	0xbd2aab79	-0.041667435
160	0x3e2f5bd1	0.17124869
161	0x3dc3a231	0.0955242
162	0xbdead4c7	-0.11466365
163	0x3e542aa2	0.20719388
164	0x3dc3a41b	0.09552785
165	0x3d17cbe0	0.037059665
166	0x3ad036b3	0.0015885442
167	0xbdb0eddf	-0.0863912
168	0xbb6abb0b	-0.0035817053
169	0xbdd1c2ff	-0.10242271
170	0x3de48926	0.111589715
171	0xbdc6cbfc	-0.09706876
172	0x3cb31a7b	0.021863213
173	0x3dad0030	0.084473014
174	0xbd911f48	-0.070860445
175	0x3d86cb72	0.06581773
176	0xbe5462a4	-0.20740753
177	0xbe50772d	-0.20357962
178	0x3c4f9118	0.01266887
179	0xbdad04b8	-0.08448166
180	0xbd37d843	-0.044883978
181	0x3d80d747	0.06291061
182	0x3c649e79	0.013953798
183	0xbe982f60	-0.29723644
184	0x3daed584	0.085368186
185	0x3da35e50	0.07976973
186	0xbe12c9d4	-0.14334804
187	0x3dd4d055	0.10391299
188	0xbe1b57b5	-0.15170176
189	0xbd01845b	-0.031620365
190	0x3d266ded	0.040632177
191	0xbc881024	-0.016609259
192	0xbdad4520	-0.0846045
193	0x3d53d2f2	0.051714845
194	0x3d901351	0.07034934
195	0xbc1485e1	-0.009065122
196	0xbd280b1c	-0.04102622
197	0xbdae9fd7	-0.08526581
198	0x3d898246	0.06714301
199	0xbd7f72cc	-0.06236534
200	0xbd25db6a	-0.040492453
201	0x3d933573	0.07187929
202	0x3e1ba307	0.15198909
203	0xbe290328	-0.1650511
204	0x3e2b8309	0.16749205
205	0x3da1a076	0.078919336
206	0xbd264285	-0.04059078
207	0xbcf2e9d9	-0.029652523
208	0xbd3de1ca	-0.046357907
209	0x3d116a7e	0.03550195
210	0xbc9e843c	-0.019350164
211	0x3c942a36	0.018086534
212	0x3d03510e	0.03205972
213	0xbd070a39	-0.032968733
214	0xbd08832a	-0.033328213
215	0x3dea02bd	0.114263035
216	0x3e317d6c	0.17333001
217	0x3e77d005	0.24200447
218	0x3db99adb	0.090627395
219	0xbd4ad8c2	-0.049523123
220	0xbe2e1eff	-0.17004012
221	0x3dfd22d6	0.1236016
222	0x3de957b7	0.113936834
223	0x3db8b4c5	0.09018854
224	0x3d85c8ff	0.065324776
225	0x3e12d0da	0.14337483
226	0x3d32f634	0.04369183
227	0xbc361039	-0.011112266
228	0x3d14bf03	0.036314975
229	0x3e152279	0.14563932
230	0xbdaeefb2	-0.08541812
231	0x3d4325aa	0.04764334
232	0xbd383064	-0.044968024
233	0x3d330ef7	0.043715443
234	0xbcd301e8	-0.025757745
235	0xbe8c2111	-0.27368978
236	0x3d1efa76	0.038813077
237	0xbddca924	-0.107744485
238	0x3d56145b	0.052265506
239	0x3d374550	0.044743836
240	0x3bfb6ff5	0.0076732584
241	0xbd900587	-0.07032304
242	0xbd3729c8	-0.04471758
243	0x3cde4d2a	0.027136404
244	0xbdabcc74	-0.08388606
245	0x3d9dd2bb	0.07706209
246	0x3d71838a	0.058963336
247	0x3d89490e	0.06703387
248	0x3cdedb89	0.027204292
249	0x3da58d5d	0.080836035
250	0xbd9a4f66	-0.07534675
251	0xbda1651b	-0.078806125
252	0xbcb7db5b	-0.022443464
253	0x3d8e760e	0.06956111
254	0x3e02246e	0.1270921
255	0xbdc15b54	-0.094412476

network_body._body_endoder.seq_layers.2.bias f4 [128]
0	0xbc27b202	-0.010235311
1	0xbae7327c	-0.0017638947
2	0x3cf0196e	0.029309
3	0xbb4bd49e	-0.0031102072
4	0xbc36d17a	-0.011158342
5	0xbc1c9f27	-0.009559429
6	0x3cd33b69	0.025785165
7	0x3c32b91b	0.01090839
8	0x3b8b8ded	0.004258862
9	0xbc0a9853	-0.0084591685
10	0x3bbda782	0.0057877908
11	0x3cc630cf	0.024193196
12	0x3b8702d1	0.004120209
13	0x3ba892d3	0.005144456
14	0xbc7b6210	-0.015343204
15	0xbb65009c	-0.003494299
16	0x3b72606d	0.0036983744
17	0xbc9ed6fb	-0.01938962
18	0x3b181c5c	0.0023210263
19	0xbc10bab2	-0.008833574
20	0xbbcf1cc0	-0.006320566
21	0x3c3b7191	0.011440651
22	0xbad7872a	-0.001644348
23	0xbbf98178	-0.007614311
24	0xbb3cd811	-0.002881531
25	0xbbccbb57	-0.0062479186
26	0xbbbed93e	-0.005824237
27	0xbb8bbd35	-0.0042644986
28	0xbc0411a1	-0.008060844
29	0xbb8f8b0d	-0.00438059
30	0xbbb62d73	-0.005559617
31	0xbafaf873	-0.001914753
32	0x3b8f9674	0.004381949
33	0xbc2cb643	-0.010541501
34	0x3a914b93	0.0011085145
35	0xbc88c5d2	-0.01669589
36	0xbb283219	-0.0025664626
37	0xbb609b16	-0.0034272126
38	0x3c690001	0.014221192
39	0xbc35c795	-0.011094947
40	0x3c4615f2	0.012090193
41	0x3a790b78	0.0009500305
42	0xbbd346aa	-0.006447633
43	0xbb8e1d8f	-0.0043370198
44	0x3b15bd7a	0.0022848533
45	0xbbb9a2cb	-0.0056651584
46	0x3b02bbf9	0.0019948466
47	0x3bc96696	0.0061462624
48	0xbb8f3397	-0.0043701637
49	0xbb805dc3	-0.0039174273
50	0xb8d97b82	-0.000103703715
51	0xbc452e30	-0.012034938
52	0x3c0bd323	0.008534226
53	0x3c1778de	0.009245126
54	0x3c2b516d	0.010456425
55	0xbafdcee0	-0.0019364022
56	0x3aac6f2c	0.001315569
57	0xbb3f6510	-0.0029204525
58	0xbc93b39f	-0.018029986
59	0xbc86fb25	-0.016477177
60	0x3c466df2	0.012111174
61	0x374b5b74	1.2121036e-05
62	0xbb2d8895	-0.0026479114
63	0x3bf883dc	0.0075840782
64	0xbc6062f7	-0.01369547
65	0xbb6410f4	-0.0034800144
66	0x3c2cff87	0.010558969
67	0xbb2a1de5	-0.002595776
68	0xbc03da63	-0.008047673
69	0x3bc1a6c0	0.0059097707
70	0x3b896d8b	0.0041939667
71	0xbc91d12b	-0.017799934
72	0x3b9d92a0	0.004808739
73	0xb9cc63ff	-0.00038984415
74	0xbbbc6e79	-0.005750474
75	0x3b03bec6	0.0020102724
76	0xbb182e46	-0.002322094
77	0xbc095397	-0.008381746
78	0xbc0aec79	-0.008479231
79	0xbbb7777c	-0.0055989604
80	0xbca3b855	-0.019985357
81	0xbc287fbc	-0.0102843605
82	0xbc030ce0	-0.007998675
83	0xbc2a55d5	-0.0103964405
84	0x3c16e98a	0.0092109535
85	0xbbbfdc0a	-0.005855088
86	0x3ccd8813	0.0250893
87	0xbb35aa7d	-0.0027720027
88	0xbb1b3092	-0.0023680073
89	0xbb96797f	-0.00459212
90	0x3b49ca83	0.0030790872
91	0xbbbf91b2	-0.0058462257
92	0xba61f353	-0.0008619327
93	0xbc6980bf	-0.014251887
94	0xba797852	-0.00095165253
95	0xbc18467a	-0.009294147
96	0xbb0554ce	-0.0020344737
97	0xbb93ff28	-0.004516501
98	0xbc4a68db	-0.012354101
99	0xbc3636af	-0.011121436
100	0xbad8655a	-0.0016509697
101	0xbaf12165	-0.0018396793
102	0xbb547228	-0.0032416675
103	0x3c8e6c05	0.017385492
104	0x3c1e2480	0.009652257
105	0xbbde3e67	-0.0067823413
106	0x3cdd744a	0.02703299
107	0x3c3e2fb8	0.011608057
108	0xbc995c86	-0.018720876
109	0xbb57443f	-0.0032847074
110	0x3be317b4	0.006930316
111	0xbc8d6016	-0.017257731
112	0x3ce9ab97	0.028524203
113	0xbc4d37ee	-0.012525542
114	0xbb0305c3	-0.0019992448
115	0x3c6a6872	0.014307128
116	0xbc219559	-0.009862267
117	0xbb4916a3	-0.0030683659
118	0x3a53d364	0.0008080511
119	0x3c3599be	0.011084018
120	0x3c03b530	0.008038804
121	0xbb87a825	-0.0041399174
122	0x3c1761fd	0.009239671
123	0xbc978ac3	-0.018498784
124	0xbb968b5c	-0.0045942497
125	0x3c7c7581	0.0154088745
126	0xbb6e03b5	-0.0036318128
127	0xbc346186	-0.0110095795

action_model._discrete_distribution.branches.0.weight f4 [4, 128]
0	0x3d02d42c	0.031940624
1	0xbcd5323c	-0.02602493
2	0xbd16b65d	-0.03679501
3	0x3d1bf6c9	0.03807715
4	0xbc056db2	-0.008143829
5	0xbc9a5133	-0.018837547
6	0xbd29484a	-0.041328706
7	0xbc5faa9b	-0.013651515
8	0xbd24cc0f	-0.040233668
9	0x3cb7f868	0.022457317
10	0x3b2fd178	0.0026827734
11	0x3d213d8a	0.03936533
12	0x3d038941	0.032113317
13	0x3d42d48b	0.047565978
14	0xbc8e8643	-0.017398005
15	0x3ca538e8	0.020168737
16	0x3d0023cd	0.031284142
17	0x3d1b51e7	0.037919905
18	0xbcc9b7a9	-0.024623709
19	0x3caf95c3	0.021433717
20	0xbd66743a	-0.056263186
21	0xbce9cd9a	-0.028540421
22	0xbd0273e4	-0.031848803
23	0xbd19b59a	-0.037526704
24	0x3c8a268f	0.01686409
25	0xbd4a1c34	-0.049343303
26	0xbcdfe791	-0.0273321
27	0x3d029455	0.03187974
28	0x3d1c977f	0.038230415
29	0xbcea69cb	-0.0286149
30	0xbcc49651	-0.023997458
31	0xbcff79a5	-0.031185934
32	0x3c7164f9	0.014733546
33	0xbc8f9eed	-0.017531836
34	0xbd436292	-0.047701426
35	0xbc5918d3	-0.013250547
36	0xbcdc421d	-0.026886994
37	0x3cd0ada3	0.025473421
38	0xbc69e1bc	-0.014275011
39	0xbcdeb539	-0.027186023
40	0xbd57ef25	-0.0527183
41	0xbcd77057	-0.026298685
42	0xbd48d6b6	-0.04903289
43	0x3d2c1dfb	0.04202078
44	0x3cf9c5ef	0.03048989
45	0x3d41546a	0.047199644
46	0x3d3a0057	0.04541048
47	0xbd35688d	-0.04428916
48	0x3b6a1953	0.003572066
49	0xbc8d89cc	-0.01727762
50	0xbd2d84db	-0.04236303
51	0xbce933ef	-0.028467147
52	0x3bc05adf	0.0058702077
53	0x3cc69d5e	0.02424496
54	0xbd4602d3	-0.048342537
55	0xbc528ca4	-0.012850914
56	0x3d249d0b	0.04018883
57	0x3cdd3933	0.027004814
58	0xbc656a3a	-0.014002377
59	0xbd51a433	-0.051181983
60	0x3cfa0bd5	0.03052322
61	0xbcc4fae5	-0.024045417
62	0x3d3af059	0.04563937
63	0xbb9a6f59	-0.0047129807
64	0xbce72464	-0.028215595
65	0xbcf3d221	-0.029763283
66	0xbbae0992	-0.0053111995
67	0xbcd0d4c7	-0.025492085
68	0xbc29a9fe	-0.010355471
69	0x3d2d5f21	0.04232705
70	0x3cf3a09d	0.029739672
71	0xbcb4e988	-0.022084013
72	0xbd61b30b	-0.05510239
73	0xbc90345a	-0.017603088
74	0x3d19d5ec	0.037557527
75	0x3d06dc3e	0.032924883
76	0xbd050197	-0.03247222
77	0x3cfe9e77	0.031081421
78	0x3d1f882e	0.03894823
79	0x3d04b614	0.032400206
80	0x3d4425e4	0.047887698
81	0x3d2a764e	0.04161673
82	0x3d78e737	0.06076738
83	0xbceef9e0	-0.029171884
84	0xbcaee912	-0.021351371
85	0xbd4d7935	-0.05016442
86	0xbd8201a6	-0.06347971
87	0xbcaf28fc	-0.021381848
88	0x3bc7ddef	0.0060994546
89	0xbcaa3592	-0.020777497
90	0xbc6f6b0d	-0.014612925
91	0xbd7b2ee5	-0.06132402
92	0x3d1f3874	0.038872197
93	0x3d3378ee	0.0438165
94	0xbb39fd8f	-0.0028379892
95	0x3ce8f7f1	0.02843854
96	0x3cf8fc4a	0.030393738
97	0xbb0881e9	-0.0020829386
98	0xbd16d5bc	-0.036824927
99	0xbc3ab6df	-0.011396139
100	0x3cff53ff	0.031167982
101	0xbcda7cc1	-0.026670815
102	0x3cd14d1b	0.025549462
103	0x3cb0ba76	0.021573287
104	0xbd044793	-0.03229482
105	0xbc742bd9	-0.014903032
106	0xbd1c3d92	-0.038144656
107	0xbd1029c9	-0.0351961
108	0x3c0bf9bc	0.008543428
109	0x3d17a46e	0.037022047
110	0xbd0c9ab5	-0.034327228
111	0xbd4d71f5	-0.050157506
112	0x3ccb17ae	0.024791565
113	0xbc06caa1	-0.008227021
114	0xbd0bf688	-0.034170657
115	0x3c69b313	0.014263886
116	0xbccfd41d	-0.025369698
117	0xbcb0e39c	-0.021592908
118	0xbd51fba2	-0.051265366
119	0xbcb0f5bf	-0.021601556
120	0xbcb57262	-0.022149269
121	0x3ce6ea2a	0.02818783
122	0x3d097d14	0.03356655
123	0xbb072b62	-0.0020625223
124	0xbc7ded24	-0.015498433
125	0x3d0a09f8	0.033700913
126	0xbbcd7cec	-0.0062709954
127	0xbcc571fe	-0.024102207
128	0xbd1bd363	-0.03804339
129	0xbc450d5b	-0.01202711
130	0x3cf1b34f	0.029504446
131	0xbd1cd738	-0.038291186
132	0xbb9028c4	-0.004399391
133	0x3c71b9c9	0.014753767
134	0xbcd1cc4d	-0.025610114
135	0xbd1f4319	-0.03888235
136	0x3d49a421	0.04922879
137	0x3a90e369	0.0011054102
138	0x3d884062	0.06652905
139	0xbd2baa9e	-0.04191076
140	0xbb8377d0	-0.0040120855
141	0xbce0cfa3	-0.027442759
142	0x3d463bb0	0.048396766
143	0xbb151e17	-0.002275353
144	0xbd794c1a	-0.06086359
145	0x3c5e7d0e	0.01357962
146	0x3b779b90	0.0037781931
147	0xbd72b020	-0.059249997
148	0xbc767f51	-0.015045003
149	0x3c162bde	0.009165732
150	0x3b6f3aa8	0.0036503468
151	0x3d3dce60	0.046339393
152	0xbd07bc98	-0.03313884
153	0x3c58fe34	0.0132442005
154	0xbb8899a5	-0.0041687065
155	0x3d2dbc73	0.042416047
156	0x3ba57078	0.0050488077
157	0x3c41c337	0.011826328
158	0x3d68e617	0.056860056
159	0xbb7a9619	-0.0038236438
160	0x3c59e301	0.013298751
161	0xba8ff212	-0.0010982177
162	0xbd6a91f9	-0.057268117
163	0x3d0767eb	0.03305809
164	0x3c795fb9	0.015220576
165	0x3cd830e0	0.026390493
166	0x3ce6283e	0.02809536
167	0xbcc99488	-0.024606958
168	0x3c983d56	0.018583935
169	0xbb90f7eb	-0.0044240854
170	0xbc690977	-0.014223448
171	0x3c870649	0.01648249
172	0xbc177000	-0.0092430115
173	0xbc80c045	-0.015716681
174	0xbc71aea9	-0.014751115
175	0x3d094912	0.03351695
176	0xbc569750	-0.013097599
177	0x3da7d4d1	0.081948884
178	0x3c0e71cd	0.008694124
179	0x3bee40b1	0.0072708954
180	0x3d0e7d5c	0.03478752
181	0xbb11ae2d	-0.002222906
182	0x3ba37170	0.004987888
183	0xbc62a52f	-0.013833328
184	0x3bca46d4	0.006172994
185	0xbc4caf10	-0.01249291
186	0xbb30850e	-0.0026934776
187	0x3d185cbe	0.03719782
188	0xbd411351	-0.047137562
189	0xbc448b57	-0.011996112
190	0xbcbea73d	-0.023273105
191	0xbd7f3d03	-0.062314045
192	0x3d33876e	0.043830328
193	0x3d591cfe	0.053006165
194	0xbd5041fa	-0.05084417
195	0xbcd57094	-0.026054658
196	0x3d93a2b8	0.072087705
197	0xbccef1b2	-0.025261734
198	0x3cba6f95	0.022758285
199	0xbb0ff62c	-0.0021966798
200	0x3cac83b4	0.021058895
201	0x3d381d13	0.044949602
202	0xb989c6cd	-0.00026278794
203	0x3c8772af	0.016534178
204	0xbaae748b	-0.0013309879
205	0xbc8e5d4e	-0.017378476
206	0xbc951777	-0.018199665
207	0xbba13942	-0.0049201557
208	0x3b28fa58	0.0025783982
209	0xbb369f0f	-0.0027865802
210	0x3c5d120f	0.013493075
211	0x3c68504a	0.014179299
212	0x3ccfc7dd	0.025363857
213	0x3bd2ce62	0.006433294
214	0xbd14028d	-0.036135245
215	0x3af1a91a	0.0018437237
216	0x3c3fca4a	0.011705944
217	0x3c53a065	0.012916659
218	0x3d1ad135	0.03779717
219	0xbc79c8a4	-0.01524559
220	0xbc70e47b	-0.0147029115
221	0xbcaf5fd8	-0.021408007
222	0xbab46c46	-0.0013765178
223	0xbab2f297	-0.001365262
224	0xbb55e61a	-0.0032638372
225	0xbb9b8aab	-0.004746755
226	0x3c0f08c1	0.008730114
227	0xbcb1522e	-0.021645632
228	0xbc7d8720	-0.015474111
229	0x3d1460f5	0.036225278
230	0x3ca99ceb	0.020704707
231	0xba22d4d3	-0.0006211523
232	0x3c038c70	0.008029088
233	0x3d6a4ac5	0.057200212
234	0x3d2b8c94	0.041882113
235	0x3cced307	0.02524711
236	0x3c58838b	0.013214956
237	0x3c3c209b	0.011482383
238	0x3be2a0f6	0.0069161607
239	0xba8c1d82	-0.0010689946
240	0x3b501dfc	0.0031756153
241	0xbcdbbc4f	-0.026823191
242	0xba193013	-0.00058436504
243	0xbc8a0dfb	-0.01685237
244	0xbc387efb	-0.011260743
245	0x3c85dfd3	0.01634208
246	0x3d003051	0.031296078
247	0xbd105965	-0.035241503
248	0x3afd6034	0.0019331039
249	0xbc5795f9	-0.013158315
250	0xba9ee8a3	-0.0012123775
251	0x3c63c4c9	0.013901898
252	0xbd4c1494	-0.049824312
253	0x3d8c9747	0.06864791
254	0xbcd452bb	-0.025918355
255	0x3c084bf4	0.00831889

action_model._discrete_distribution.branches.0.bias f4 [4]
0	0xbce3389b	-0.027736953
1	0x3c13082b	0.008974115
2	0x3c8c4ca9	0.017126398
3	0xbd042a01	-0.03226662

action_model._discrete_distribution.branches.1.weight f4 [1, 128]
0	0x3ba2de2b	0.004970332
1	0xbc6170ea	-0.013759831
2	0xbc1255eb	-0.008931617
3	0xbbbd9bcd	-0.005786395
4	0xbbd5051b	-0.0065008528
5	0x3b87b428	0.0041413493
6	0x3c3fd81d	0.01170924
7	0x3b5267cb	0.0032105322
8	0x39077092	0.00012916539
9	0x3b179bfb	0.0023133743
10	0xbbc5d4d6	-0.006037335
11	0x3b3d7ac2	0.002891228
12	0xbb8d5c19	-0.0043139574
13	0xbb909d6f	-0.004413299
14	0xbba8c53b	-0.005150465
15	0x3bdd893b	0.006760744
16	0x3bb85b1b	0.005626095
17	0x3b8b2bc6	0.0042471616
18	0xbc5322a2	-0.012886675
19	0xbca69b62	-0.020337764
20	0xba429235	-0.0007422299
21	0xbaf5a395	-0.0018740768
22	0x3c455e1c	0.012046363
23	0x3b7941da	0.0038033635
24	0xbc62c8b7	-0.013841799
25	0x3bf7a6ea	0.0075577395
26	0x3bc92661	0.0061386083
27	0xbc36b59a	-0.011151696
28	0x3a926592	0.0011169186
29	0xbbf767a5	-0.007550197
30	0x3cda24fd	0.026628966
31	0xb9cbcd77	-0.0003887226
32	0xbc0ead6c	-0.008708339
33	0x3ba33969	0.004981209
34	0x3a8a8459	0.0010568007
35	0xbc818bb7	-0.015813692
36	0x3beded37	0.007260944
37	0x3c01396d	0.0078872265
38	0xbac5df78	-0.0015096506
39	0xbbea1357	-0.007143419
40	0x3b2cc253	0.0026360943
41	0xbb9d6fed	-0.0048046024
42	0x3b2f7d23	0.0026777468
43	0xbc771de8	-0.015082814
44	0x3b520db7	0.0032051632
45	0xbb00c2dd	-0.0019647398
46	0xbb380147	-0.0028076933
47	0xbb4fafa5	-0.0031690386
48	0x39e665cb	0.0004394486
49	0x3bbaa7fd	0.0056962953
50	0xbc0e3f48	-0.00868208
51	0x3ad4b0c5	0.0016226998
52	0x3c325a0c	0.010885727
53	0x3c8673e1	0.016412677
54	0xbbbef70f	-0.0058277915
55	0x3b585b87	0.003301354
56	0x3c158a5e	0.009127228
57	0xbb0b0e91	-0.00212184
58	0x3bfbc21a	0.007683051
59	0x3c2036d6	0.009778699
60	0xbc4dc468	-0.012559034
61	0x3b789412	0.0037930054
62	0xbbdb1e9f	-0.006687
63	0xbbc4fdc1	-0.006011695
64	0xbc08149b	-0.008305694
65	0xbc7e50fa	-0.015522236
66	0xbc166d67	-0.009181357
67	0x3b72f633	0.0037073016
68	0x3aafea9f	0.0013421363
69	0x3b522c75	0.0032069955
70	0x3c27c63a	0.010240132
71	0xbb79dc7f	-0.003812581
72	0xbc56de8d	-0.013114584
73	0xbb75731f	-0.003745265
74	0xbb9d304c	-0.004797017
75	0xbbbb695b	-0.0057193465
76	0xbba48b70	-0.005021505
77	0xbb310fdf	-0.0027017517
78	0xbbcd4bad	-0.006265125
79	0x3c3aa59f	0.011392026
80	0x3c247f70	0.010040149
81	0x3c12c008	0.008956917
82	0xbc72cbca	-0.014819095
83	0x3b857d3f	0.0040737684
84	0xbc00a112	-0.007850902
85	0x3b49c5fb	0.0030788172
86	0x3ad809f8	0.0016482463
87	0x3b87484a	0.0041284906
88	0xbc144ff3	-0.0090522645
89	0x3bd4b193	0.006490895
90	0xba2b361e	-0.00065311964
91	0x3adb559d	0.0016733889
92	0x3c5b602f	0.013389631
93	0xbc5096ef	-0.012731298
94	0x3bd7c383	0.006584586
95	0xbb49f524	-0.0030816281
96	0x3c06285f	0.008188336
97	0x3c18c80c	0.009325039
98	0x3abaddd9	0.001425679
99	0xbba6f733	-0.0050953864
100	0xbb90ff43	-0.004424961
101	0x378f0c0c	1.7052538e-05
102	0x3b02692f	0.001989912
103	0xbc050579	-0.008118981
104	0xbabd9701	-0.0014464558
105	0xbbcab00d	-0.0061855377
106	0x3c9c9b27	0.019116951
107	0xbb3ae94f	-0.002852041
108	0x3ca47354	0.020074524
109	0xbbd31a67	-0.0064423564
110	0xbbb35c68	-0.005473662
111	0xbb68998d	-0.0035491914
112	0xba6c6b8a	-0.000901871
113	0x3c2ef11d	0.010677603
114	0x3c5cb422	0.013470681
115	0x3c070e4e	0.008243157
116	0x3b85d311	0.004083999
117	0xbc74b345	-0.014935319
118	0xbb0ddb89	-0.0021645746
119	0x3abdee9f	0.001449067
120	0x3c4e7bda	0.012602771
121	0x3b9aa858	0.004719775
122	0x3cad5a56	0.02116124
123	0xbabef036	-0.0014567438
124	0x3b05aed4	0.0020398395
125	0x399ca96f	0.00029880877
126	0xbb74a9b7	-0.0037332603
127	0x3bf28045	0.007400545

onnx::LSTM_114 f4 [1, 512, 128]
0	0x3e181538	0.14851844
1	0x3da62d22	0.08114077
2	0xbd00ba6a	-0.03142778
3	0x3d04e5df	0.032445785
4	0xbda265f5	-0.07929603
5	0xbdd7f417	-0.10544603
6	0x3e2c2ba6	0.16813526
7	0xbd795a9b	-0.060877424
8	0x3c3d6256	0.01155909
9	0x3cbcffac	0.023071133
10	0x3d03cf8e	0.03218036
11	0xbd5a466a	-0.05328981
12	0x3dd7ae7f	0.10531329
13	0xbe161808	-0.14657605
14	0x3e163394	0.14668113
15	0xbdf134a6	-0.1177762
16	0xbe19a1d9	-0.15003146
17	0x3deaa5c5	0.11457399
18	0xbd845a83	-0.06462576
19	0x3e06883c	0.13137907
20	0xbe1b5977	-0.15170847
21	0xbd20fe75	-0.03930517
22	0x3e139c6d	0.1441514
23	0x3d5c3d88	0.05376962
24	0x3cb45428	0.022012785
25	0xbdfeefd5	-0.12448088
26	0x3d89d5cb	0.06730231
27	0xbdf2bec7	-0.11852794
28	0x3db0a959	0.086260505
29	0xbdbb7b7e	-0.09154414
30	0x3def5c68	0.11687547
31	0x3c844105	0.016144285
32	0x3de57b6a	0.1120518
33	0xbdae081c	-0.084976405
34	0xbcff08ec	-0.031132184
35	0x3dfa0276	0.12207501
36	0x3dbf28a6	0.09333925
37	0x3de89239	0.11356015
38	0x3e0e5c11	0.13902308
39	0xbc1f28b0	-0.0097142905
40	0xbe1ee0f5	-0.15515502
41	0xbd5cc839	-0.053901885
42	0xbe1b0270	-0.15137649
43	0xbdaa7221	-0.083225496
44	0xbdb735c2	-0.089458
45	0xbe125a01	-0.14292146
46	0x3df2b8d6	0.11851661
47	0x3e029754	0.1275304
48	0x3e1157ba	0.14193621
49	0x3d19a2fb	0.037508946
50	0xbde3b7f3	-0.1111907
51	0x3d6e6912	0.05820567
52	0x3db48305	0.088140525
53	0x3bec178e	0.0072049564
54	0x3de47b12	0.11156286
55	0x3df7837e	0.12085627
56	0x3deb2491	0.11481584
57	0xbe13cb57	-0.14433037
58	0x39669b21	0.000219923
59	0x3d876032	0.06610145
60	0xbd080494	-0.03320749
61	0x3df004dc	0.11719677
62	0xbe228b80	-0.15873528
63	0x3e048881	0.12942697
64	0x3e0849a4	0.13309342
65	0x3d738c58	0.059460014
66	0xbdc02e56	-0.09383838
67	0x3d716c11	0.05894095
68	0x3e198241	0.14991094
69	0x3db049df	0.0860784
70	0xbe1f5b99	-0.15562285
71	0x3e069780	0.1314373
72	0xbd868dd7	-0.065700226
73	0xbe1157bb	-0.14193623
74	0xbc3148c8	-0.010820575
75	0x3d7d7ae7	0.061884787
76	0xbd73fcdd	-0.05956732
77	0x3de5b286	0.11215691
78	0x3c06bb6e	0.008223398
79	0xbdafc161	-0.08581806
80	0x3e0fbee4	0.14037663
81	0xbd4ec41e	-0.05048
82	0xbdd0925a	-0.10184164
83	0xbdd5a80f	-0.10432445
84	0x3b60247e	0.0034201439
85	0x3cffaed3	0.031211292
86	0xbd817d34	-0.06322709
87	0x3c8c2bb9	0.017110692
88	0x3df4408a	0.11926372
89	0xbe0af760	-0.13570929
90	0xbbbb42ce	-0.005714751
91	0xbd9b5ebc	-0.075864285
92	0xbdaf97cd	-0.085738756
93	0xbc01c861	-0.007921309
94	0xbe1a2f89	-0.15057196
95	0xbdd1c76d	-0.102431156
96	0x3d85088a	0.06495769
97	0xbe14f935	-0.1454819
98	0xbdf6f625	-0.12058667
99	0x3d09920f	0.033586558
100	0xbdba9a42	-0.091114536
101	0x3d97d987	0.07414537
102	0xbe249969	-0.16074146
103	0x3e2c3d32	0.16820219
104	0xbd2442ad	-0.04010265
105	0x3d98e581	0.074656494
106	0xbaa33b56	-0.0012453597
107	0x3dcf3b03	0.101186775
108	0xbdc23b5c	-0.09483978
109	0x3d432af7	0.047648396
110	0xbe1bdd7f	-0.15221213
111	0x3d567e6e	0.052366666
112	0x3c9f8d47	0.019476546
113	0x3df5aa5e	0.119953856
114	0xbde0c5b9	-0.109752126
115	0xbd871801	-0.06596375
116	0xbd3f4383	-0.046695244
117	0xbd190a5b	-0.03736339
118	0xbd84c00e	-0.06481944
119	0xbe2977bf	-0.16549586
120	0x3e0e12a7	0.13874303
121	0xbe0ef694	-0.1396125
122	0xbd712e39	-0.058881972
123	0x39d6607a	0.0004088914
124	0xbded0a53	-0.11574235
125	0x3e0b7c88	0.13621724
126	0x3d9518e2	0.07280137
127	0xbdda6ef3	-0.10665693
128	0xbccffebd	-0.025390023
129	0xbd0b83ff	-0.03406143
130	0xbd90407c	-0.070435494
131	0xbe16b4c5	-0.14717396
132	0x3b2d00b1	0.0026398117
133	0x3dec72a7	0.11545306
134	0x3d34ab5a	0.044108726
135	0x3b88e9de	0.0041782698
136	0x3d2ae5f3	0.041723203
137	0x3dbb165a	0.091351226
138	0xbe0e32ac	-0.13886517
139	0x3d205933	0.039147567
140	0xbdc11dfc	-0.09429547
141	0x3ddedfc2	0.10882522
142	0x3ded9a99	0.11601753
143	0xbdfb4008	-0.12268072
144	0xbdd5ef7d	-0.104460694
145	0xbe27398c	-0.16330546
146	0xbd0a3c96	-0.033749186
147	0xbdf608ea	-0.12013419
148	0x3cffa821	0.0312081
149	0x3dc6d35d	0.09708283
150	0xbdabe4be	-0.083932385
151	0x3d6f5d70	0.05843872
152	0x3cafa5e8	0.021441415
153	0x3c84fd85	0.016234169
154	0x3dd75075	0.10513393
155	0xbdd7b8df	-0.10533308
156	0xbdea1e4e	-0.114315614
157	0x3df31264	0.11868742
158	0xbd4c1805	-0.049827594
159	0x3da02558	0.07819623
160	0x3deea0bd	0.11651752
161	0x3d6a6380	0.057223797
162	0x3be1c6c0	0.006890148
163	0xbdc0e886	-0.0941935
164	0x3d27b970	0.04094833
165	0xbc616b3b	-0.013758476
166	0x3aa7ae1a	0.0012792975
167	0x3d232595	0.039830763
168	0xbd8a6e0d	-0.06759272
169	0x3df4a1ab	0.11944898
170	0x3def0058	0.116699874
171	0x3db0ba68	0.08629304
172	0xbdc6e1d1	-0.0971104
173	0x3c9fe207	0.019516958
174	0x3d280998	0.041024774
175	0xbda5f02c	-0.0810245
176	0x3d3708e6	0.04468622
177	0xbdba65e9	-0.09101469
178	0x3e240b2c	0.16019887
179	0x3d778d38	0.06043741
180	0x3d7e298c	0.06205134
181	0xbcf75a75	-0.0301945
182	0x3d81f7a9	0.063460656
183	0xbcc19b0f	-0.023633508
184	0x3dc42793	0.09577861
185	0xbc94e176	-0.018173914
186	0x3dd92cc2	0.1060424
187	0xbe1df032	-0.15423658
188	0xbddaf987	-0.10692125
189	0x3b90cffb	0.0044193245
190	0x3ce358e3	0.027752345
191	0x3e2e0804	0.16995245
192	0x3d054d0b	0.032544177
193	0xbde61448	-0.11234337
194	0xbd3ee8de	-0.0466088
195	0xbd4bda1f	-0.049768563
196	0x3cdf36a6	0.027247738
197	0x3dbd37e2	0.092391744
198	0x3d11d38c	0.035602137
199	0x3df4826a	0.11938937
200	0x3adf7cae	0.0017050707
201	0x3dea3a59	0.1143691
202	0xbddca6f5	-0.10774032
203	0x3da33a65	0.07970122
204	0x3e221512	0.1582835
205	0x3d8d5e49	0.06902749
206	0x3d888f7c	0.066679925
207	0x3db11f1d	0.086485125
208	0xbaf08581	-0.0018350334
209	0x3d98b0ea	0.07455619
210	0xba8046b2	-0.0009786694
211	0x3de5396f	0.11192595
212	0xbdc551df	-0.09634756
213	0xbe2cb419	-0.16865577
214	0x3e0b8b94	0.13627464
215	0xbd2569f6	-0.040384255
216	0xbdbaad19	-0.09115047
217	0xbc9afe5b	-0.018920114
218	0x3e266ac1	0.16251661
219	0xbe08eca4	-0.13371521
220	0xbd7421e1	-0.059602622
221	0xbe279458	-0.16365182
222	0x3df023e9	0.11725599
223	0x3d4b21c6	0.049592756
224	0xbdea8afc	-0.114522904
225	0xbd7f134b	-0.06227426
226	0x3d925cd0	0.07146609
227	0xbd7ee850	-0.06223327
228	0x3cd93691	0.026515277
229	0xbd856bf0	-0.06514728
230	0xbcfbe89e	-0.030750569
231	0x3da33e00	0.0797081
232	0xbc9690a0	-0.01837951
233	0xbdf6321b	-0.120212756
234	0xbc8e9aff	-0.017407892
235	0xbb47c765	-0.0030483839
236	0xbde32e6b	-0.11092838
237	0x3df15a2b	0.11784776
238	0x3bb082bf	0.00538668
239	0x3cfda765	0.030963609
240	0xbad760bf	-0.0016432031
241	0x3cccee5e	0.025016006
242	0xbdc9c775	-0.098524965
243	0xbd4fc78d	-0.050727416
244	0xbbb46b09	-0.0055059236
245	0xbc9a92c3	-0.01886881
246	0xbdf51761	-0.1196735
247	0x3dc4c0fc	0.09607121
248	0x3db82b95	0.089926876
249	0x3e01a3a6	0.12660083
250	0x3d4ac358	0.0495027
251	0x3d0580a4	0.032593384
252	0xbdd7b692	-0.105328694
253	0x3c2d7233	0.010586309
254	0x3d618337	0.055056777
255	0xbd50397c	-0.05083607

onnx::LSTM_115 f4 [1, 512, 128]
0	0xbdf687b0	-0.12037599
1	0xbd674cf0	-0.056469858
2	0xbd95e343	-0.07318737
3	0xbd963157	-0.073336296
4	0xbcb5b246	-0.022179734
5	0xbd529040	-0.0514071
6	0xbe0601f5	-0.13086684
7	0xbd70e160	-0.058808684
8	0xbe0584e0	-0.13038969
9	0xbdfb539a	-0.12271805
10	0x3e284b83	0.16435055
11	0xbd9a59e4	-0.075366765
12	0xbe1da8a3	-0.15396361
13	0xbdbe2348	-0.09284073
14	0x3c87a353	0.016557371
15	0x3deedf9a	0.11663742
16	0xbde6ca5f	-0.11269068
17	0x3dc96478	0.09833616
18	0xbca65972	-0.020306323
19	0xbdb2a40d	-0.087226965
20	0x3d3666bb	0.044531565
21	0xbdc75153	-0.09732308
22	0xbd94489c	-0.07240412
23	0xbde64b3f	-0.11244821
24	0x3dbfc4f8	0.09363741
25	0xbdda4f5c	-0.10659668
26	0xbd83a1bc	-0.06427333
27	0xbc9175e5	-0.017756412
28	0x3d2600cf	0.040528115
29	0x3ced1c92	0.028944287
30	0xbdd191db	-0.10232898
31	0xbd5bb3be	-0.053638212
32	0xbdf5a6b2	-0.11994685
33	0x3df55a58	0.11980122
34	0x3d307e6f	0.043089326
35	0x3e07677a	0.13223067
36	0xbda76acd	-0.081746675
37	0x3cb1953b	0.021677604
38	0xbe1ab861	-0.15109397
39	0xbdd35b00	-0.10320091
40	0xbd848f6a	-0.064726666
41	0xbcea247f	-0.028581856
42	0xbc360900	-0.011110544
43	0x3d5de409	0.05417255
44	0x3dd7aa8e	0.105305776
45	0x3d995a80	0.07487965
46	0x3d535504	0.05159475
47	0x3df21af4	0.11821547
48	0xbdf7b884	-0.120957404
49	0xbcd0be99	-0.025481509
50	0xbde804c9	-0.11329038
51	0x3e0a991c	0.13534969
52	0xbe01c90e	-0.12674353
53	0x3d38e74e	0.045142464
54	0xbd3af7bb	-0.04564641
55	0x3d2c6c4a	0.04209546
56	0xbd654067	-0.055969622
57	0x3df1c8ae	0.11805855
58	0x3c071f68	0.008247234
59	0xbd072a97	-0.0329996
60	0xbda473b4	-0.08029881
61	0x3da05080	0.07827854
62	0x3d150247	0.036379125
63	0xbd949013	-0.072540425
64	0x3e06bd8f	0.13158248
65	0x3e2a1daf	0.16612886
66	0xbe2d1cd9	-0.16905536
67	0xbb738684	-0.0037159035
68	0xbd91fb81	-0.07128049
69	0xbe00a23e	-0.1256189
70	0x3c4d0c45	0.012515132
71	0xbdcec67d	-0.100964524
72	0xbd90ed35	-0.07076494
73	0x3e4b19fb	0.1983413
74	0x3da4b9de	0.08043264
75	0xbcc6c5ec	-0.024264298
76	0x3e13e13d	0.1444139
77	0x3e04ccc2	0.12968734
78	0xbd686862	-0.056740172
79	0xbd2314e5	-0.03981485
80	0x3e1228d1	0.14273383
81	0xbd77c8c9	-0.060494218
82	0x3e092be4	0.13395649
83	0xbcc8213d	-0.024429912
84	0xbdbdd82b	-0.092697464
85	0x3dfc2a51	0.12312759
86	0xbd256e98	-0.040388674
87	0x3d109a9e	0.035303704
88	0xbe11e75f	-0.14248417
89	0xbd2ca0d7	-0.042145576
90	0xbddb760a	-0.107158735
91	0x3d13b932	0.036065288
92	0xbe1a18f1	-0.15048577
93	0x3d4980be	0.049195044
94	0xbbcbb5d1	-0.0062167426
95	0xbc22d50e	-0.0099384915
96	0x3e138ca8	0.14409125
97	0xbdf01c76	-0.117241785
98	0x3d9d6617	0.07685488
99	0xbdf22b5e	-0.11824678
100	0xbdd7d133	-0.105379485
101	0xbdd95234	-0.10611382
102	0xbde5e11a	-0.11224575
103	0xbd7bf0cb	-0.061508935
104	0x3e218900	0.15774918
105	0x3dd93678	0.10606092
106	0x3ca6b96b	0.020352086
107	0x3d94723c	0.07248351
108	0xbcf601bc	-0.030030124
109	0x3d3b3e43	0.045713674
110	0x3e12f830	0.14352489
111	0xbdf88cfa	-0.12136264
112	0xbd5054c6	-0.050862096
113	0xbe03625f	-0.12830494
114	0xbd9f34de	-0.077737555
115	0xbde32bd9	-0.11092348
116	0x3d8efb5e	0.06981538
117	0xbe0f247f	-0.13978766
118	0x3e151b66	0.14561233
119	0xbd5fcc26	-0.05463805
120	0xbcec64d8	-0.02885668
121	0xbdf761bf	-0.120791905
122	0x3d8d193a	0.06889577
123	0x3deadb5e	0.11467622
124	0xbdd0bc86	-0.10192208
125	0x3de61713	0.1123487
126	0xbdd1b342	-0.10239269
127	0xbc96d87a	-0.018413771
128	0x3ad95be3	0.001658317
129	0xbd54c90b	-0.051949542
130	0x3d380d4f	0.044934567
131	0xbc303be0	-0.010756463
132	0xbda9369c	-0.08262369
133	0x3c1b1abd	0.009466824
134	0x3cb58dc0	0.022162318
135	0x3dafc82b	0.08583101
136	0x3dfdfb9f	0.124015085
137	0x3df58aa1	0.11989332
138	0x3d6e73ff	0.05821609
139	0xbe3d20cb	-0.18469541
140	0x3df72c3d	0.12068985
141	0xbe0bd698	-0.1365608
142	0xbb5b8033	-0.003349316
143	0xbc846652	-0.016162071
144	0x3e0bbb72	0.13645723
145	0xbccb838e	-0.024843004
146	0x3df73933	0.12071457
147	0x3db32e02	0.0874901
148	0x3d5120b5	0.051056582
149	0x3dc25d6b	0.09490474
150	0xbdceb34e	-0.100927934
151	0x3d83922e	0.06424366
152	0xbd93042b	-0.07178529
153	0xbd3607e7	-0.04444113
154	0xbddfc5f3	-0.10926428
155	0xbcbd1236	-0.023079973
156	0xbe20820c	-0.15674609
157	0xbdf0eea3	-0.11764266
158	0xbc1475d7	-0.009061298
159	0xbce14432	-0.027498338
160	0xbe1cfb20	-0.15330172
161	0x3d0f0a4d	0.034921933
162	0xbcc59faa	-0.024123985
163	0x3c30dcf3	0.010794866
164	0xbd93c611	-0.072155125
165	0xbe274927	-0.16336499
166	0xbc7f4fbc	-0.015582975
167	0xbdace121	-0.084413774
168	0x3dd087f3	0.1018218
169	0xbd29f470	-0.04149288
170	0x3e03690b	0.1283304
171	0x3d23b8e1	0.039971236
172	0xbdf04111	-0.117311604
173	0xbe38cd48	-0.18047059
174	0x3de5bf81	0.11218167
175	0x3dd58541	0.10425807
176	0x3daf2685	0.08552269
177	0xbe1aef13	-0.15130262
178	0xbd178802	-0.03699494
179	0x3baebc5c	0.005332513
180	0xbd03e323	-0.032199036
181	0x3dcd69f8	0.100299776
182	0xbc9e8582	-0.01935077
183	0xbdfb20f6	-0.12262146
184	0x3dddaaa9	0.108235665
185	0xbdff5e40	-0.12469149
186	0x3c673a7f	0.014113068
187	0x3e1d3d2e	0.1535537
188	0x3e12b48a	0.14326683
189	0x3e0eb763	0.13937144
190	0xbd4acc05	-0.049510974
191	0xbd9adc64	-0.075615674
192	0xbd91db6d	-0.0712193
193	0xbda7185c	-0.08158943
194	0x3c96f055	0.018425146
195	0xbda29d5a	-0.07940169
196	0xbe21a9b2	-0.1578739
197	0xbe1a024a	-0.15039936
198	0xbe25e129	-0.16199173
199	0xbdefece2	-0.11715104
200	0x3dabdb63	0.08391454
201	0x3d3dfce8	0.04638377
202	0x3da6a0f4	0.08136168
203	0xbd86959b	-0.06571504
204	0xbc445b5d	-0.011984673
205	0xbdf432f8	-0.11923784
206	0xbdd5daf3	-0.10442152
207	0x3d9e92ec	0.07742867
208	0xbe0b99a4	-0.13632828
209	0x3e164c4a	0.1467754
210	0x3deab486	0.11460213
211	0x3c317d98	0.010833167
212	0x3dafe529	0.08588631
213	0x3dacbeae	0.08434807
214	0xbd870f93	-0.065947674
215	0x3dea9e9b	0.11456033
216	0xbd98a029	-0.07452423
217	0x3b9f7689	0.0048664254
218	0xbbec2378	-0.0072063766
219	0x3d261cb9	0.040554736
220	0x3df0a295	0.1174976
221	0x3e089834	0.13339311
222	0x3d8d48a9	0.068986244
223	0xbde35cba	-0.111016706
224	0x3d112fed	0.035446096
225	0xbdb2ec2d	-0.08736453
226	0x3d83918f	0.064242475
227	0xbcbc2f17	-0.022971673
228	0xbe0bb5e4	-0.13643605
229	0x3d0d7cb0	0.03454274
230	0x3e0be41f	0.1366124
231	0x3cd81c88	0.026380792
232	0x3d534c12	0.05158622
233	0xbe19e141	-0.15027334
234	0x3d8a8514	0.06763664
235	0x3e05eb0e	0.13077947
236	0x3b5d7ef4	0.0033797594
237	0xbd53d87f	-0.05172014
238	0x3caa1060	0.020759761
239	0xbd71fd19	-0.059079263
240	0x3dae73e4	0.08518198
241	0x3d025d3a	0.03182719
242	0xbde2babf	-0.11070775
243	0x3c57c527	0.013169563
244	0x3dfd7210	0.12375271
245	0xbd8c53c0	-0.068519115
246	0xbdd610c5	-0.10452417
247	0xbdc77b72	-0.09740342
248	0xbd247ef0	-0.04016012
249	0xbd25bd74	-0.04046388
250	0xbe0d58c8	-0.13803399
251	0x3d1145e9	0.035467062
252	0x3dabbc6b	0.08385547
253	0x3df1afb9	0.118010946
254	0x3d78750b	0.060658496
255	0xbb4fd203	-0.003171087
