Machine-Learning-DRL/results/SeekerTrainingWall5/Seeker/Seeker-274444.onnx (onnx, 610983 bytes, 11 tensors)

discrete_act_size_vector f4 [1, 2]
0	0x40800000	4.0
1	0x3f800000	1.0

network_body._body_endoder.seq_layers.0.weight f4 [128, 8]
0	0xbebfea6e	-0.37483543
1	0xbdcd2ed3	-0.10018697
2	0x3e251a0b	0.16123216
3	0x3eb7652c	0.35819376
4	0xbec7deba	-0.39037114
5	0xbf14045d	-0.5781916
6	0xbe56fe20	-0.20995378
7	0x3ea50ab3	0.32234725
8	0xbf04a938	-0.5182071
9	0x3ecdfa68	0.40230107
10	0xbe973e1c	-0.29539573
11	0x3e898d0b	0.2686542
12	0x3ecb78fd	0.39740744
13	0xbef43b85	-0.4770166
14	0x3e92c3f2	0.2866512
15	0xbeca85d5	-0.3955523
16	0xbecdce5f	-0.4019651
17	0x3e2e35b4	0.17012674
18	0xbe910b7d	-0.28329077
19	0x3e694288	0.22779286
20	0xbf409bbc	-0.7523763
21	0x3d2205fa	0.03955648
22	0x3e1ad638	0.1512078
23	0x3ec3cb08	0.38240838
24	0x3e2a315c	0.16620392
25	0xbe18c128	-0.14917433
26	0x3e2888c7	0.16458426
27	0x3f4b9288	0.79520464
28	0xbd255982	-0.040368564
29	0xbe840b9f	-0.25790116
30	0x3e1c4e53	0.15264253
31	0xbece070e	-0.40239757
32	0xbdac5662	-0.08414914
33	0x3e33f652	0.17574432
34	0xbf34315f	-0.70387834
35	0x3dae9fa1	0.085265405
36	0xbf5b6878	-0.8570628
37	0xbe167c58	-0.14695871
38	0x3eb225ab	0.34794363
39	0x3de3b24d	0.111179926
40	0x3e9971ca	0.29969627
41	0x3e029619	0.1275257
42	0x3d967c77	0.073479585
43	0xbf0028b6	-0.5006212
44	0xbe1e0a9e	-0.15433738
45	0x3e92f4b9	0.28702334
46	0xbe54635e	-0.2074103
47	0xbe448cbf	-0.19194315
48	0xbebaad7a	-0.36460477
49	0x3e34ff21	0.17675449
50	0xbe03da21	-0.12876178
51	0xbef8d046	-0.485964
52	0xbe0cc129	-0.1374556
53	0x3d401a47	0.04690006
54	0x3e672076	0.22570977
55	0xbcde4c73	-0.027136063
56	0xbe752d09	-0.23942961
57	0xbd3dc321	-0.046328668
58	0xbda5dc84	-0.08098701
59	0xbf554e75	-0.8332284
60	0xbf80adfb	-1.0053095
61	0xbc7307b0	-0.014833376
62	0x3d5af51b	0.053456407
63	0x3f1d4a7b	0.61441773
64	0xbeb4c6ef	-0.35308024
65	0x3cfda125	0.030960629
66	0xbe1e3443	-0.15449624
67	0xbec8e2e9	-0.3923562
68	0xbe7c0ab8	-0.24613464
69	0xbef23215	-0.47303835
70	0xbeefc1cf	-0.46827552
71	0xbe633189	-0.22186865
72	0xbf40b1f4	-0.75271535
73	0x3f0a2ad6	0.5397161
74	0xbe7c9405	-0.2466584
75	0xbeae6fa3	-0.34069547
76	0xbe8e3da8	-0.27781415
77	0x3e7ae6e6	0.24502143
78	0x3ef15caf	0.47141024
79	0xbe6d0801	-0.23147584
80	0xbdbe8667	-0.09302979
81	0x3f05f3a5	0.523249
82	0x3eedc0fb	0.46436295
83	0x3de70b47	0.11281448
84	0x3f2cc92c	0.67494464
85	0x3e023183	0.127142
86	0x3eb84646	0.35991114
87	0x3e52b85e	0.20578143
88	0xbe864516	-0.26224583
89	0xbd4dd097	-0.050247755
90	0x3eae11c3	0.33997926
91	0x3e765569	0.24056019
92	0xbecef336	-0.4041993
93	0x3e24f212	0.16107967
94	0xbeb33cea	-0.3500741
95	0x3ed4c990	0.4156003
96	0xbe01562b	-0.12630527
97	0x3ea1702f	0.31530902
98	0x3d365e1b	0.04452334
99	0x3ddfd728	0.1092971
100	0xbe9bfcc3	-0.3046628
101	0x3f191506	0.59797704
102	0xbe3fb8db	-0.1872286
103	0xbf0c45e0	-0.5479412
104	0x3e0574b1	0.13032795
105	0xbecab215	-0.3958899
106	0xbeeafab0	-0.45894384
107	0x3e87ad1d	0.26499262
108	0xbd322555	-0.043492634
109	0x3e12b8d5	0.1432832
110	0xbd7c192c	-0.061547443
111	0xbe2075c1	-0.1566992
112	0xbd8b9fa0	-0.068175554
113	0xbf2712f2	-0.65263283
114	0xbd23eaa9	-0.04001871
115	0xbec5a77d	-0.38604346
116	0xbf610c15	-0.8790906
117	0xbf287478	-0.6580272
118	0xbe1ee662	-0.15517572
119	0x3e539ef7	0.20666109
120	0x3ea1b727	0.31585047
121	0x3ed0d195	0.40784898
122	0x3f12907e	0.5725173
123	0x3eb81ae9	0.3595803
124	0x3e99e824	0.30059922
125	0xbf0e72ff	-0.5564422
126	0x3f8721c3	1.0557178
127	0xbeb7565f	-0.35808083
128	0xbe296c55	-0.16545232
129	0x3d118b2b	0.03553311
130	0x3f1f0fb1	0.6213332
131	0x3e313215	0.17304261
132	0x3e965a84	0.29365933
133	0xbea8e0b2	-0.3298393
134	0xbf077eff	-0.52928156
135	0xbdc6bc09	-0.097038336
136	0xbef6ec91	-0.4822736
137	0x3f077510	0.52913
138	0x3e4597f5	0.19296248
139	0x3d6ac7f8	0.05731961
140	0xbe7199e0	-0.23593855
141	0xbed6ba23	-0.41938886
142	0xbc16e820	-0.009210616
143	0x3d47e609	0.048803363
144	0xbc077d45	-0.008269613
145	0x3d822089	0.06353862
146	0xbe629601	-0.22127534
147	0xbe1f0136	-0.15527806
148	0xbe4f0aa7	-0.20218907
149	0x3eb846dc	0.3599156
150	0xbe0981f3	-0.13428478
151	0xbda9be30	-0.082882285
152	0x3db23fcf	0.08703577
153	0xbed798b1	-0.42108682
154	0x3ed34373	0.41262397
155	0x3e24618c	0.16052836
156	0x3f16327d	0.5867079
157	0xbf0165d2	-0.5054599
158	0xbdaa3831	-0.08311499
159	0xbea34cdb	-0.31894574
160	0xbf16b9b1	-0.5887709
161	0x3e14b38b	0.14521615
162	0xbed0915a	-0.40735894
163	0xbd7ff325	-0.06248774
164	0x3eb8aecb	0.36070856
165	0x3d9abcfd	0.07555578
166	0x3eec463d	0.46147338
167	0xbeb26dd6	-0.34849423
168	0x3d48da26	0.049036168
169	0x3dc8bd06	0.09801678
170	0xbd5ef8c8	-0.054436475
171	0x3e94e60c	0.29081762
172	0xbf1eabfd	-0.61981183
173	0x3f122a32	0.57095635
174	0xbf611f3c	-0.87938285
175	0xbcfd04ba	-0.030886043
176	0x3e55d91c	0.20883602
177	0xbf026867	-0.50940555
178	0x3dae38dc	0.08506939
179	0x3f1b79c2	0.6073266
180	0x3eb7531f	0.35805604
181	0x3e88b967	0.2670395
182	0x3d893e1b	0.06701299
183	0xbe16f796	-0.14742884
184	0x3efea33f	0.49733922
185	0x3e352f3a	0.17693797
186	0x3f114552	0.567464
187	0xbf022878	-0.50843
188	0x3dbab374	0.09116259
189	0xbdb7347e	-0.08945559
190	0xbf0b81c1	-0.54494864
191	0xbd1554e3	-0.036457907
192	0x3e6afbbb	0.2294759
193	0xbde77913	-0.1130239
194	0x3e6e12f9	0.23249425
195	0xbef0cff6	-0.47033662
196	0xbdd4b63a	-0.103863195
197	0xbeefaa6b	-0.46809706
198	0xbdf3f521	-0.11911989
199	0x3efaed0b	0.49008974
200	0x3e8565c2	0.26054198
201	0x3eb4feb0	0.3535056
202	0xbeccd384	-0.40005124
203	0x3b53ea95	0.0032335867
204	0x3e151c0e	0.14561483
205	0x3df94726	0.121717736
206	0x3da9fc0d	0.08300028
207	0xbd9aae11	-0.07552732
208	0xbd4c2e89	-0.049849067
209	0x3ce7d8f8	0.028301701
210	0xbdbd6675	-0.09248058
211	0xbea174ec	-0.31534517
212	0xbd9e107d	-0.07717989
213	0x3e5cad43	0.21550469
214	0xbf5a64d0	-0.8531008
215	0x3bdb3d48	0.006690655
216	0xbe14d7da	-0.14535466
217	0xbe27b067	-0.16375886
218	0x3eb0ea7a	0.3455389
219	0xbf0caeea	-0.549544
220	0x3d06e1b8	0.032930106
221	0x3eb6f384	0.35732663
222	0xbd2e643c	-0.04257606
223	0x3e533519	0.20625724
224	0x3d7224ac	0.059117004
225	0x3ea0a6c1	0.31377223
226	0xbf3e64fc	-0.7437284
227	0x3d89b397	0.06723707
228	0x3d868538	0.06568378
229	0x3e1798c3	0.14804368
230	0x3f04342a	0.51642096
231	0xbe4b8b5c	-0.1987738
232	0x3de64e10	0.11245358
233	0x3e56e2da	0.20984975
234	0xbe34286f	-0.17593549
235	0x3e5f8dd2	0.21831444
236	0x3e83bcdd	0.2573003
237	0xbeb501ff	-0.35353085
238	0x3eb8cf1b	0.3609551
239	0x3f180b74	0.59392476
240	0x3dd6956f	0.10477721
241	0xbe03a466	-0.12855682
242	0xbeec4856	-0.46148938
243	0x3cc1cee4	0.023658223
244	0xbf3fbfa2	-0.74901783
245	0xbe4f571e	-0.20248076
246	0xbdbcefa8	-0.09225398
247	0xbf205d2f	-0.62642187
248	0xbeeca946	-0.46222895
249	0x3e369747	0.17831145
250	0xbd5db4d0	-0.054127514
251	0x3e581dd1	0.21105124
252	0x3defdc66	0.117119595
253	0x3ea65503	0.32486734
254	0xbe281903	-0.16415791
255	0xbea2f147	-0.31824705

network_body._body_endoder.seq_layers.0.bias f4 [128]
0	0xbbcd1690	-0.006258793
1	0x3b8e10ef	0.0043355147
2	0xba746368	-0.0009322674
3	0xbc131531	-0.00897722
4	0x3c96263c	0.018328778
5	0xbc7812a0	-0.015141159
6	0x3d256635	0.040380675
7	0xbc307e68	-0.010772325
8	0x3b24768f	0.002509508
9	0x3c2af5d1	0.010434584
10	0x3ca6e955	0.020374933
11	0x3a90cf9e	0.0011048203
12	0xbc833ba4	-0.01601965
13	0x3d1ab987	0.03777459
14	0xbc2747f3	-0.010210025
15	0x3b0e0ea0	0.0021676198
16	0x3c2a6f0b	0.010402451
17	0x38964d1c	7.16692e-05
18	0x3c537d36	0.012908271
19	0x3bf1aca7	0.007375318
20	0x3c411ca1	0.011786611
21	0x3a016d34	0.0004937232
22	0xbd2ae319	-0.041720483
23	0xbc8fd42d	-0.017557228
24	0xb9af48c7	-0.00033432824
25	0xbc114a29	-0.008867779
26	0xbc688ae5	-0.014193271
27	0x3c6396cf	0.013890936
28	0xbb4c4be4	-0.0031173164
29	0x3bbcaa20	0.005757585
30	0xbcb49369	-0.022042947
31	0x3bed7cc4	0.0072475392
32	0xbba6cfdd	-0.005090697
33	0xbc61e62f	-0.01378779
34	0xba270f67	-0.00063728396
35	0xbc8efaed	-0.017453635
36	0x3a153f8c	0.0005693368
37	0x3d8e6e65	0.0695465
38	0xbc87f0a8	-0.016594246
39	0x3bd44b79	0.0064787236
40	0x3b21313b	0.0024595994
41	0xbc4d8355	-0.012543519
42	0xbbe31d9b	-0.0069310195
43	0x399bcc3e	0.00029716076
44	0x3c8813f7	0.016611082
45	0x3c511ce8	0.012763239
46	0x3b43a150	0.0029850788
47	0xbc87ac6e	-0.016561713
48	0xba9ae03b	-0.0011816093
49	0x3bd13632	0.0063846344
50	0xbace2235	-0.0015726747
51	0xbc55f36d	-0.0130585255
52	0xbb8c5c80	-0.004283488
53	0xbc392ce4	-0.011302207
54	0x3cc83cfb	0.02444314
55	0x3cdb551b	0.02677398
56	0x3c87b5ed	0.016566241
57	0xbbda4ca1	-0.006661967
58	0x3c3ae7b9	0.011407786
59	0x3c89882f	0.01678857
60	0xbb7b1580	-0.0038312376
61	0xbc9358cb	-0.017986676
62	0xb9d5725f	-0.0004071174
63	0x3d3c45ce	0.04596501
64	0x3c69d5aa	0.014272133
65	0x3c88df04	0.016707905
66	0x3ca05777	0.019572956
67	0xbb89a31e	-0.0042003533
68	0x3c162392	0.009163754
69	0x3bca324b	0.006170546
70	0x3c2473c5	0.010037367
71	0xbc82f269	-0.01598473
72	0xbca60724	-0.020267077
73	0xbb3a88d1	-0.0028462897
74	0xbd6d3dec	-0.05792038
75	0xbb22c2b2	-0.0024835286
76	0xbcd3e8c1	-0.025867822
77	0x3c9a8c28	0.01886566
78	0xbd102efc	-0.035201058
79	0x3b9db451	0.004812755
80	0x3c547570	0.012967452
81	0xbb855897	-0.0040693986
82	0x3c8c1001	0.017097475
83	0x3b65141e	0.0034954618
84	0xbc7fe26b	-0.015617947
85	0xbc50e62f	-0.012750193
86	0xbc8417dd	-0.01612466
87	0x39abefc6	0.00032794307
88	0xbc669c28	-0.0140753165
89	0xbc943adf	-0.018094478
90	0xbc78866d	-0.015168768
91	0xbc6df7b5	-0.01452439
92	0x3c8477a3	0.016170328
93	0xbc262d22	-0.010142596
94	0xbc713614	-0.014722366
95	0x3c863069	0.016380506
96	0xbb02affb	-0.0019941318
97	0x3c141deb	0.009040336
98	0xbac71db6	-0.001519135
99	0xbc2a09e2	-0.010378333
100	0x3bc9be9b	0.006156755
101	0x3d216ad8	0.039408535
102	0x3c78947e	0.015172122
103	0xbb5b4173	-0.0033455759
104	0xbc72523b	-0.014790113
105	0xbc2a29a7	-0.010385907
106	0x3c635609	0.013875493
107	0xbc0ed3e7	-0.008717514
108	0xbc097e5d	-0.008391944
109	0xbc35cb36	-0.011095813
110	0xbb627627	-0.0034555288
111	0x3d0103c1	0.03149772
112	0x3c81480e	0.015781429
113	0xbbb12839	-0.0054064062
114	0x3cdcf49d	0.02697211
115	0x3bb86245	0.005626949
116	0xbcbc7c71	-0.023008557
117	0xbbf6d146	-0.0075322716
118	0x3c175054	0.00923546
119	0xbb81e6aa	-0.003964265
120	0xbbd0af9c	-0.0063685905
121	0xbb9a9099	-0.0047169444
122	0x3b1bbf3b	0.0023765105
123	0x3c8ddbdb	0.01731675
124	0xbbf20f72	-0.007387095
125	0xbc3f91d2	-0.011692481
126	0xbc4ae342	-0.012383284
127	0xbbd9feb9	-0.0066526798

network_body._body_endoder.seq_layers.2.weight f4 [128, 128]
0	0x3e042438	0.12904441
1	0x3cadc6fe	0.021213051
2	0x3e25d470	0.1619432
3	0xbdc32d74	-0.09530154
4	0x3dec2297	0.11530035
5	0xbd321ec6	-0.04348638
6	0xbc91b1e5	-0.017785022
7	0x3cdd670c	0.027026676
8	0xbcafb02a	-0.021446306
9	0x3cff9161	0.031197252
10	0xbd2d3a2d	-0.04229181
11	0xbddde73d	-0.10835121
12	0xbde452e6	-0.11148624
13	0x3e331115	0.17486985
14	0xbc7828d9	-0.015146458
15	0xbd67267b	-0.056433182
16	0xbce1043e	-0.027467843
17	0xbcdeac5b	-0.027181795
18	0xbd20fcdb	-0.03930364
19	0x3e3a6f7d	0.18206592
20	0xbd481047	-0.04884365
21	0xbe1d2ac5	-0.15348347
22	0xbc85e691	-0.016345294
23	0x3d063005	0.03276064
24	0x3e08176b	0.13290183
25	0xbdde0ddf	-0.108424895
26	0xbe0f9cc1	-0.1402464
27	0xbd9a2510	-0.075266
28	0x3c9d84d1	0.01922837
29	0x3daa40c4	0.08313134
30	0x3c08c6ce	0.00834818
31	0x3c1b68f4	0.009485472
32	0xbe2a2d92	-0.16618946
33	0xbe7687d8	-0.24075258
34	0xbd0d11dd	-0.034440864
35	0x3da61841	0.08110095
36	0xbd6e2aae	-0.05814617
37	0x3da41e66	0.080136105
38	0x3da336ac	0.07969412
39	0xbe408d0f	-0.1880381
40	0x3dbbed46	0.09176116
41	0xbc75a9ff	-0.0149941435
42	0x3c430585	0.011903171
43	0x3d92fdbb	0.071773015
44	0xbcc7c95c	-0.024388008
45	0x3e2ad8c9	0.1668426
46	0x3e38e169	0.18054737
47	0xbe1879da	-0.14890233
48	0x3e6dff11	0.23241831
49	0x3cc32a93	0.023824012
50	0x3b4a9656	0.003091236
51	0xbbf39b16	-0.007434259
52	0xbdfa1347	-0.12210708
53	0x3d49e519	0.04929075
54	0x3d8ba2c1	0.06818152
55	0xbac841cc	-0.0015278398
56	0xbc01bcc1	-0.007918538
57	0x3dd06262	0.10175015
58	0x3da97747	0.082747035
59	0x3dc36346	0.09540419
60	0x3dcb03fa	0.09912868
61	0xbd6df979	-0.058099244
62	0xbe1f10ca	-0.15533748
63	0x3dcbe668	0.09956056
64	0x3d0e52bd	0.034746874
65	0xbe4aeb1b	-0.19816248
66	0xbe267670	-0.16256118
67	0xbd7c7f33	-0.061644744
68	0xbd57e411	-0.052707735
69	0x3e97473a	0.2954653
70	0x3d24da3b	0.040247183
71	0xbb04a33e	-0.0020238901
72	0xbd1208af	-0.035652813
73	0x3d26d3b0	0.040729225
74	0xbb8a94c7	-0.0042291614
75	0xbdc31ae5	-0.09526614
76	0xbda581da	-0.08081408
77	0xbd543686	-0.05180981
78	0x3d96ae1e	0.07357429
79	0x3e666147	0.22498046
80	0xbd67e264	-0.056612387
81	0x3d8f6b55	0.07002894
82	0xbd5e3ded	-0.054258276
83	0x3d2334a7	0.039845135
84	0xbda4bc80	-0.08043766
85	0x3e0a0efe	0.13482282
86	0xbde161dd	-0.11004994
87	0x3da52d2a	0.08065255
88	0xbd9253dd	-0.07144902
89	0xbd9cad75	-0.07650272
90	0x3d24e670	0.040258825
91	0x3e1c9544	0.15291315
92	0x3cdb7324	0.026788302
93	0xbe0cd626	-0.13753566
94	0x3e174f4d	0.14776345
95	0x3d9c535a	0.076330855
96	0x3e2e56a0	0.17025232
97	0xbc78ad9c	-0.01517811
98	0x3d3eb1c1	0.046556238
99	0xbe0667c9	-0.13125528
100	0xbd2e7169	-0.042588625
101	0x3c1ba1fb	0.009499068
102	0xbca2a840	-0.019855618
103	0x3d9efe2b	0.077633224
104	0x3de5d63a	0.11222501
105	0x3dbcf9fc	0.09227368
106	0xbd146bf9	-0.036235783
107	0xbdb4a76d	-0.088209964
108	0xbe56148f	-0.2090628
109	0x3dd3c4ba	0.10340257
110	0x3df3e137	0.11908191
111	0x3e26476a	0.1623818
112	0x3de972c3	0.11398842
113	0xbdd90e6c	-0.10598454
114	0x3e31d5ae	0.17366669
115	0x3d7df5cc	0.06200199
116	0xbcb35c7d	-0.021894688
117	0x3d992785	0.07478241
118	0xbc16cbef	-0.009203895
119	0x3d61c5d1	0.055120293
120	0xbe06a3b2	-0.13148382
121	0x3d95c9e4	0.07313898
122	0xbd6f4067	-0.05841103
123	0xbdb280f7	-0.08716004
124	0x3d9e0971	0.077166446
125	0x3d3b1e88	0.045683414
126	0xbe455ae8	-0.19272959
127	0xbd27f628	-0.041006237
128	0x3d2f54f0	0.042805612
129	0xbc559fa4	-0.01303855
130	0xbc5faa5a	-0.013651455
131	0xb9963be0	-0.0002865484
132	0x3caab609	0.020838754
133	0x3da89cbc	0.0823302
134	0xbe82c1d6	-0.2553851
135	0xbcfa4f24	-0.030555315
136	0xbd86c3cb	-0.06580313
137	0x3c085e36	0.008323243
138	0x3da49112	0.080354825
139	0xbcca68ab	-0.024708113
140	0xbdb38a7a	-0.08766647
141	0xbc1ea4a6	-0.00968281
142	0xbd0c20b7	-0.034210887
143	0xbc87b808	-0.016567245
144	0xbd3bcc2d	-0.045849014
145	0x3d8a6c46	0.06758933
146	0x3dc1b67f	0.094586365
147	0xbe18b2b2	-0.14911917
148	0xbe1f4e45	-0.15557201
149	0xbb76c415	-0.0037653495
150	0xbda88b11	-0.0822965
151	0x3cb1bb00	0.021695614
152	0x3e04eb02	0.12980273
153	0x3c6e5695	0.01454701
154	0x3d5aa64d	0.053381253
155	0xbd02e2cc	-0.03195457
156	0x3b05a3b4	0.0020391764
157	0xbaebbe9f	-0.0017985887
158	0x3da4bd93	0.08043971
159	0xbd4a6e93	-0.049421858
160	0xbc33004d	-0.010925365
161	0xbd9142dc	-0.070928305
162	0xbd91dd97	-0.07122343
163	0x3c16f1e8	0.009212948
164	0xbda23710	-0.079206586
165	0x3dce5e44	0.100765735
166	0x3e1d8845	0.15384014
167	0xbd19c7ff	-0.037544247
168	0xbe8596f6	-0.26091737
169	0x3dd1e6cf	0.10249101
170	0xbd101e64	-0.035185233
171	0x3e15bc74	0.1462267
172	0xbe712464	-0.23549038
173	0xbda97981	-0.08275128
174	0xbd3eb92a	-0.046563305
175	0xbd93035d	-0.07178376
176	0xbd5f7512	-0.054555006
177	0x3df6fb6c	0.12059674
178	0x3cd6714e	0.026177075
179	0x3d10e288	0.035372287
180	0xbda1056a	-0.07862361
181	0x3dc0f4e5	0.0942171
182	0x3e1f6c45	0.15568645
183	0xbe172945	-0.14761837
184	0x3d2298ff	0.03969669
185	0xbd44c065	-0.048035044
186	0x3dc1fb29	0.09471733
187	0x3d5b0ab7	0.053477015
188	0xbd1dbe0f	-0.038511332
189	0xbc20eea0	-0.009822518
190	0xbe49c0a2	-0.1970239
191	0xbcef7490	-0.029230386
192	0x3b781b80	0.0037858188
193	0xbdfc1e17	-0.12310427
194	0xbe310e56	-0.17290625
195	0x3dd8c92f	0.10585248
196	0xbe08eb8c	-0.13371104
197	0xbc4cfb6e	-0.012511117
198	0xbd4d67b1	-0.050147716
199	0xbdbf9573	-0.09354677
200	0x3d6c348a	0.057667293
201	0x3da1db67	0.07903176
202	0xbb5055c7	-0.0031789409
203	0x3e1f01c3	0.15528016
204	0x3d69d876	0.0570912
205	0xbc1411ad	-0.009037417
206	0xbdd95888	-0.10612589
207	0xbd522a71	-0.051310007
208	0xbd176adc	-0.036967143
209	0x3de99e3b	0.11407133
210	0xbce5fb13	-0.028073823
211	0xbe2a0d5c	-0.16606659
212	0xbd4b6801	-0.049659733
213	0xbd85a29a	-0.065251544
214	0x3bf10855	0.0073557296
215	0xbe1e4bc0	-0.15458584
216	0x3d287123	0.04112352
217	0x3d5a9858	0.053367943
218	0xbdc23242	-0.09482242
219	0x3c4bf1cc	0.012447786
220	0xbdab4611	-0.083629735
221	0xbca8ca99	-0.020604419
222	0xbd32ed3d	-0.04368328
223	0x3c07a898	0.008279942
224	0xbcd887cf	-0.026431946
225	0xbdd0a246	-0.10187201
226	0x3d7c0e8a	0.061537303
227	0xbbf17019	-0.0073680994
228	0xbe08f8e8	-0.133762
229	0x3ccd796e	0.025082316
230	0xbce27ea0	-0.02764827
231	0xb99d187d	-0.0002996362
232	0xbb8ea445	-0.0043530785
233	0xbda6a559	-0.08137006
234	0xbd4e682d	-0.05039232
235	0xbc9beecc	-0.019034766
236	0xbe3b5070	-0.18292403
237	0xbd28db13	-0.04122455
238	0xbdd8f866	-0.10594253
239	0xbd7f319a	-0.062303163
240	0x3e46d6d1	0.19417883
241	0xbd682c16	-0.05668267
242	0xbe168709	-0.1469995
243	0x3e2923a8	0.16517508
244	0xbc0ce0a5	-0.008598481
245	0xbdca33d2	-0.09873165
246	0x3e532797	0.20620571
247	0xbc5d9653	-0.01352461
248	0xbde60276	-0.11230938
249	0x3d97f778	0.07420248
250	0xbdb801b7	-0.08984702
251	0xbe5e1424	-0.2168737
252	0xbb906a39	-0.004407194
253	0xbdc4133d	-0.09573982
254	0xbc1fccff	-0.009753465
255	0xb9991238	-0.00029196008

network_body._body_endoder.seq_layers.2.bias f4 [128]
0	0x3c825452	0.015909348
1	0x3bc9909b	0.0061512715
2	0xbb3bab78	-0.002863614
3	0x3b62f793	0.003463243
4	0xbb7aca82	-0.0038267677
5	0x3bd13cab	0.006385406
6	0x3c14e0a1	0.009086759
7	0x3b8988d8	0.0041972212
8	0xbbc1e2f6	-0.0059169484
9	0xba6edf7d	-0.0009112282
10	0x3b49dfc0	0.0030803531
11	0x3c3d6018	0.011558555
12	0xbbc73dfc	-0.006080387
13	0x3c979b59	0.018506693
14	0x3c0c4400	0.008561134
15	0x3c17a25a	0.009255016
16	0xbc446911	-0.01198794
17	0x3c66b5c9	0.014081427
18	0x3ae4fe69	0.001747084
19	0xbca9306a	-0.020652968
20	0xbb743215	-0.0037261297
21	0xbadbf445	-0.0016781172
22	0xba85c501	-0.0010205806
23	0x3b99bce2	0.004691706
24	0xbc09dd4e	-0.00841458
25	0xbc4d145f	-0.012517064
26	0x3c36159b	0.01111355
27	0x3be51b08	0.0069917478
28	0x3c0b5f4a	0.008506605
29	0xbba67a38	-0.0050804876
30	0x3bef4899	0.0073023555
31	0x3b79ebfc	0.0038135042
32	0xbc2a6d54	-0.010402042
33	0x3b876b29	0.0041326475
34	0xbc0745b1	-0.008256362
35	0x39a09656	0.00030629587
36	0x3bc78915	0.0060893395
37	0x3be0078a	0.006836836
38	0x3a9a1404	0.0011755233
39	0x3bb90a99	0.0056470153
40	0xbc8b16be	-0.016978618
41	0x3c3dce33	0.011584806
42	0x3c71c881	0.0147572765
43	0xbae6fe54	-0.0017623403
44	0x3c2591c4	0.010105554
45	0x3bf3f323	0.0074447556
46	0x3ad77a11	0.0016439577
47	0xbac228fa	-0.0014813237
48	0xbc0bb182	-0.008526208
49	0x3c3dbc02	0.011580469
50	0x3a91a9c6	0.0011113218
51	0x3ad3d9f8	0.0016162982
52	0x37d927e4	2.5886991e-05
53	0x3b848e16	0.0040452583
54	0xbb43283d	-0.0029778623
55	0xbb2ac888	-0.0026059467
56	0xb930a1b4	-0.00016844907
57	0xbbb3e6b5	-0.005490149
58	0xbaecbef8	-0.0018062284
59	0xbba4d22b	-0.005029937
60	0x3c535e30	0.012900874
61	0x3c5f405f	0.013626187
62	0x3c297101	0.010341884
63	0x3b828db2	0.0039841766
64	0xbc160208	-0.009155758
65	0x3c830156	0.015991848
66	0xbaa609ec	-0.0012667752
67	0x3c3984e8	0.011323191
68	0x3bd049cb	0.006356453
69	0x3c37d955	0.01122125
70	0x3b549753	0.003243883
71	0x3b408e31	0.0029381628
72	0x3be26618	0.006909143
73	0xbc40c391	-0.011765377
74	0xbb46a24b	-0.0030309136
75	0xbbdf0ff9	-0.006807324
76	0x3b77e697	0.0037826651
77	0x3bc4d761	0.0060071205
78	0x3c1ba09a	0.00949874
79	0xbbe18c41	-0.0068831746
80	0xba83fc97	-0.0010069784
81	0x3b6e2d1b	0.0036342803
82	0x3ce404d6	0.027834337
83	0x3c40e582	0.011773469
84	0xbb5206f6	-0.0032047606
85	0xbc03f61c	-0.0080542825
86	0x3c11f4e6	0.008908486
87	0xbc41e165	-0.011833523
88	0x3c170b83	0.009219053
89	0x3c2e3af2	0.010634171
90	0x3c94cf01	0.018165113
91	0xbb852285	-0.004062953
92	0x3c12672b	0.00893573
93	0x3c6143d5	0.013749083
94	0xbc55fd52	-0.013060885
95	0xbc44f759	-0.012021863
96	0xbc1fdf71	-0.009757862
97	0xb6b37d2e	-5.3491885e-06
98	0x3c9281cb	0.017884156
99	0xbc172ed1	-0.0092274705
100	0x3ba968a2	0.005169944
101	0xbae3f56a	-0.0017391865
102	0xbc320b93	-0.010867017
103	0xbbf58b91	-0.0074934443
104	0xbc5e26a7	-0.01355902
105	0xbab451e7	-0.0013757319
106	0x39f74b24	0.00047167495
107	0xbc1c42ea	-0.009537438
108	0xbbb48368	-0.005508829
109	0xbc025003	-0.007953647
110	0xbb24a35a	-0.002512178
111	0xbb05131f	-0.0020305587
112	0xba990ca4	-0.0011676741
113	0x3949fc82	0.0001926292
114	0xbbd1c414	-0.006401548
115	0xbc568519	-0.013093256
116	0x3c1cf9c7	0.009581036
117	0x3baf73ee	0.005354396
118	0xbc7cf5b7	-0.015439442
119	0xbb4f21a9	-0.0031605756
120	0x3b7be21c	0.0038434332
121	0xbc46b763	-0.012128684
122	0xbc7b51ac	-0.015339296
123	0xbc12ecc5	-0.008967583
124	0x3d09a59d	0.033605207
125	0x3bafddf7	0.0053670364
126	0xbc3a1072	-0.01135646
127	0xbc8733b1	-0.01650414

action_model._discrete_distribution.branches.0.weight f4 [4, 128]
0	0x3cd06531	0.025438877
1	0xbcfc0098	-0.030762002
2	0x3d1d040d	0.03833394
3	0x3cd659c6	0.026165854
4	0xbcc6edce	-0.024283316
5	0xbafedcd8	-0.0019444479
6	0x3bbb0572	0.0057074362
7	0x3ca134a6	0.019678425
8	0x3cad5bcf	0.021161942
9	0x3c9078fc	0.017635815
10	0xbc39bc90	-0.011336461
11	0x3d02562b	0.031820457
12	0x3c5e3fb8	0.013564996
13	0x3cbe18d9	0.023205208
14	0x3c1206d3	0.00891276
15	0x3c7645cb	0.015031288
16	0xbc86e2c8	-0.01646556
17	0xbca6f0a5	-0.02037842
18	0x3bcbff50	0.006225504
19	0x3d09bef2	0.033629365
20	0xbcb43d9e	-0.022002038
21	0xbc3955f8	-0.011312
22	0xbc8d1161	-0.017220201
23	0xbcb28b2f	-0.021794884
24	0xbc837611	-0.01604751
25	0xbd151c4e	-0.036403947
26	0x3d11e9d6	0.035623394
27	0x3cb227e2	0.021747533
28	0x3d0260c9	0.031830583
29	0xbc83fa80	-0.016110659
30	0xbc9b40e2	-0.018951837
31	0xb8dd0b3b	-0.00010540193
32	0xbcd1eb70	-0.02562496
33	0xbcaab081	-0.020836117
34	0xbc69b5a5	-0.014264499
35	0xbca393c6	-0.019967925
36	0xbcc40a6c	-0.02393075
37	0xbb9886e2	-0.004654751
38	0x3cc7c38d	0.024385238
39	0x3d183675	0.03716131
40	0xbc1a7ae8	-0.009428717
41	0xbcd394b3	-0.025827741
42	0x3cc3505e	0.023842033
43	0x3d012f87	0.031539466
44	0xbcd6a860	-0.026203334
45	0x3aa0fcf6	0.001228242
46	0x3bc4ab13	0.006001839
47	0xbad34b1e	-0.0016120409
48	0xbca0f9ec	-0.019650422
49	0x3cd4e9b9	0.025990354
50	0xbc9147f3	-0.017734503
51	0x3bd5e92a	0.0065280395
52	0x3cb14f57	0.021644277
53	0x3d063b3e	0.03277134
54	0xbcd20f53	-0.025642073
55	0xbbe27e87	-0.006912056
56	0x3d4faec7	0.05070379
57	0x3c65258b	0.013986002
58	0xbc471573	-0.01215111
59	0xbc3d0b9b	-0.0115384115
60	0x3cde9ec2	0.027175311
61	0xbcb01c48	-0.02149786
62	0xbcb38830	-0.021915525
63	0xbcbf79da	-0.023373533
64	0x3d0d95b8	0.03456661
65	0x3cc2b8b0	0.023769706
66	0x3ce47d62	0.027891818
67	0xbcf74d13	-0.030188119
68	0x3b66d8f4	0.003522453
69	0x3c77e5f3	0.015130508
70	0x3c152c97	0.009104869
71	0x3d2772bf	0.040880915
72	0xbbcae0cc	-0.0061913487
73	0x3bac1ea5	0.0052526766
74	0x3cd09d15	0.025465528
75	0xbc895124	-0.016762324
76	0x3cecccf6	0.028906327
77	0xbc88ed53	-0.016714728
78	0x3d2829e6	0.041055582
79	0xbca3d054	-0.0199968
80	0x3d13eba6	0.036113404
81	0xbc211183	-0.009830835
82	0xb9aeceaf	-0.00033341857
83	0x3c938612	0.018008266
84	0xbc1a7b70	-0.009428844
85	0x3d00bf4c	0.031432435
86	0x3cf641da	0.030060697
87	0xbc01a587	-0.007913
88	0x3ce65b21	0.028119626
89	0x3c4d169c	0.0125175975
90	0xbcd4e468	-0.025987819
91	0xbccd223f	-0.025040744
92	0xbc7bc41a	-0.0153665785
93	0xbc2217cc	-0.009893369
94	0x3c4eb1b6	0.012615612
95	0x3c3e71c4	0.0116238035
96	0x3cd886e5	0.02643151
97	0xbc3ea5c0	-0.011636198
98	0x3d04b186	0.032395862
99	0x3d01e03c	0.031707987
100	0x3cc006de	0.023440775
101	0x3d110446	0.035404466
102	0xbc93d95a	-0.018047977
103	0x3c82be72	0.015959952
104	0x3c832b5f	0.016011892
105	0x3d0b7e03	0.03405572
106	0xbcac861b	-0.02106004
107	0x3c527d36	0.012847235
108	0x3d086da2	0.03330768
109	0xbd392394	-0.045199946
110	0x3cf571fc	0.029961579
111	0x3cd8dec3	0.026473409
112	0xbd07e791	-0.033179823
113	0x3c82101f	0.015876828
114	0x3c0b1c20	0.008490592
115	0xbd0e9ba0	-0.034816384
116	0xbc86d9b3	-0.016461229
117	0xbd08bdc5	-0.033384103
118	0x3cdca665	0.026934812
119	0x3c7498bf	0.014928996
120	0xbc8aca0a	-0.016942043
121	0xbd08acc1	-0.033367876
122	0xbc19b20e	-0.00938083
123	0xbd2f7f23	-0.042845856
124	0xbce57576	-0.028010111
125	0xbd0246b6	-0.031805716
126	0xbd24d788	-0.04024461
127	0x3c93974f	0.018016485
128	0xbc27a8b3	-0.010233092
129	0x3c20ed4f	0.009822204
130	0xbb738066	-0.003715539
131	0x3b81c4cd	0.003960228
132	0x3cb5c7ba	0.022189964
133	0xbc4a18b5	-0.012334992
134	0x3d48d0e6	0.049027346
135	0xbd5dee6f	-0.054182466
136	0xbcab29f8	-0.020894036
137	0xbcb1f953	-0.021725332
138	0xbd409cdc	-0.047024593
139	0x3cb0b122	0.021568839
140	0xbc1ebd07	-0.009688622
141	0x3d0dfba6	0.03466382
142	0x3d174ec5	0.036940355
143	0x3c6319d9	0.013861143
144	0x3cfdcbe1	0.030981006
145	0xbcae3b93	-0.021268642
146	0x3a717ce5	0.0009212031
147	0x3bea5ba7	0.007152039
148	0x3a1ad22e	0.0005905953
149	0xbd89469e	-0.06702922
150	0xbc9dd94b	-0.019268652
151	0xbce3fad4	-0.027829565
152	0x3d081f24	0.033232823
153	0x3cfc6b6b	0.03081294
154	0xbca6d51f	-0.020365296
155	0xbd216acf	-0.0394085
156	0xbcb3fa50	-0.021969944
157	0x3c00a7fb	0.00785255
158	0x3c18b57d	0.009320614
159	0xbd754d20	-0.059888005
160	0x3d2433b4	0.04008837
161	0x3ce3d21b	0.027810147
162	0x3c26e286	0.010185843
163	0x3c402b61	0.011729092
164	0x3c68fc76	0.014220348
165	0x3c525f86	0.012840157
166	0xbb5a50d5	-0.003331234
167	0xbb45a07b	-0.0030155468
168	0x3cb9db75	0.022687653
169	0x3c34dd3d	0.011039075
170	0xbc88238c	-0.016618513
171	0x3bc06c65	0.0058722966
172	0x3bab963d	0.0052364157
173	0x3c86ad47	0.016440047
174	0x3daac617	0.08338564
175	0x3d2ef523	0.04271425
176	0xbcf40f41	-0.02979243
177	0xbc1ed3a0	-0.00969401
178	0xbc4bb283	-0.012432697
179	0xbcb2948b	-0.021799346
180	0xbb695f23	-0.0035609684
181	0xbbd029a6	-0.006352621
182	0x3cc3d135	0.023903469
183	0xbccab5d5	-0.024744907
184	0xbc5f22cb	-0.013619135
185	0xbcbcb8d6	-0.023037355
186	0xbd057627	-0.032583382
187	0x3c10192b	0.008795063
188	0x3d23b07a	0.039963223
189	0x3c5fc724	0.013658319
190	0xbc3340c6	-0.010940736
191	0x3cc9156b	0.024546346
192	0xbc2e74da	-0.010647977
193	0xbbb101e7	-0.005401838
194	0xbcceddae	-0.02525219
195	0x3c1d6817	0.0096073365
196	0xbd57c0ae	-0.052673988
197	0xbce9efd8	-0.02855675
198	0xbd2a5978	-0.04158923
199	0x3d93639c	0.07196733
200	0x3ce4d162	0.027931873
201	0xbb48e9f5	-0.0030657027
202	0xbc6447e6	-0.013933158
203	0x3c76ee84	0.015071515
204	0xbc390bcf	-0.011294319
205	0x3c626e07	0.013820178
206	0xb9a44581	-0.00031332302
207	0x3ce606ce	0.028079417
208	0xbc051644	-0.008122984
209	0x3d0d889c	0.03455411
210	0xbc853d93	-0.016264712
211	0x3cc14726	0.023593497
212	0xbcb89970	-0.022534102
213	0xbc901827	-0.017589642
214	0xbbb582e7	-0.0055392864
215	0x3931e355	0.00016964723
216	0xbd4915c8	-0.049093038
217	0xbb5c67b8	-0.0033631157
218	0x3c881946	0.016613614
219	0xbbe1850c	-0.0068823155
220	0x3aa7cb10	0.0012801606
221	0xbb1ea8da	-0.002420953
222	0x3c170587	0.009217626
223	0x3c8ea23f	0.01741135
224	0xbc1cfb17	-0.009581349
225	0x3be3fad0	0.0069573894
226	0xbb10ede1	-0.0022114443
227	0xbca0c497	-0.019624991
228	0xbd035e82	-0.03207255
229	0x3d0e7161	0.034776095
230	0x3c9c1d3b	0.019056907
231	0xbc0f1733	-0.0087335585
232	0xbcf6f31c	-0.03014522
233	0xbcd3e23e	-0.025864717
234	0x3c05bd13	0.008162755
235	0x3d77e065	0.060516734
236	0xbce2884b	-0.02765288
237	0x3c19bb40	0.009383023
238	0xbc80ef62	-0.015739147
239	0x3c30df45	0.010795419
240	0xbb8831aa	-0.004156311
241	0xbb248fa4	-0.002511003
242	0x3b40120c	0.0029307632
243	0xbd83a0f1	-0.064271815
244	0x3bdd1bc8	0.0067476965
245	0x3c097010	0.008388534
246	0x39310654	0.00016882393
247	0xbbedb816	-0.007254611
248	0x3cb650bf	0.0222553
249	0x3c68cf33	0.014209556
250	0xbbd64941	-0.0065394943
251	0x3c851f60	0.016250312
252	0x3bc20355	0.0059208074
253	0x3ba32fe7	0.0049800756
254	0xbc1e8da0	-0.009677321
255	0x3c99dedd	0.018783027

action_model._discrete_distribution.branches.0.bias f4 [4]
0	0xbca5c2a4	-0.020234413
1	0x3becdfe9	0.0072288406
2	0x3c95e4b6	0.018297534
3	0xbcebb2b1	-0.02877173

action_model._discrete_distribution.branches.1.weight f4 [1, 128]
0	0x3bcf5d70	0.0063282773
1	0x3b1c8772	0.0023884443
2	0xba3d2426	-0.00072151644
3	0xbb269367	-0.0025417448
4	0x3c503732	0.012708472
5	0xbc32e146	-0.010917967
6	0x3b6932dd	0.0035583295
7	0x3cbae99f	0.022816477
8	0x3c9dc387	0.019258274
9	0xbb468852	-0.0030293656
10	0xb9e7e02b	-0.00044226772
11	0x3baac5fb	0.0052115894
12	0x3b88cd5b	0.004174871
13	0xbbd1109a	-0.006380153
14	0x3b15fd77	0.0022886673
15	0x3b3fd574	0.0029271515
16	0x3c04d0b3	0.008106398
17	0xbaadc1d4	-0.0013256618
18	0xb9dc3c4f	-0.00042006603
19	0x3aefeee5	0.0018305449
20	0x39f05b1d	0.00045844252
21	0xbc2b9aca	-0.010473916
22	0xbc3d7bfc	-0.011565205
23	0xb99ba784	-0.00029688713
24	0x3ba02a96	0.004887889
25	0xbaafcf7c	-0.0013413276
26	0x3c0f44b7	0.00874441
27	0x3bf5352a	0.0074831443
28	0xbb9fdb4f	-0.0048784385
29	0x3c11d877	0.008901707
30	0xbbbf39ef	-0.0058357636
31	0x3c5dbe4f	0.013534143
32	0xbb6806f0	-0.0035404526
33	0xbc0ca795	-0.008584877
34	0xbc26b3a6	-0.010174667
35	0x3b38e5ed	0.0028213218
36	0xbb93f017	-0.004514705
37	0x3bb493cb	0.0055107824
38	0x3af303d8	0.0018540574
39	0x3b06025a	0.002044818
40	0x3c0f467b	0.008744831
41	0x3c3c12f1	0.011479125
42	0x3bd3e99f	0.006467059
43	0x3b41d1d5	0.0029574533
44	0x3a03e5eb	0.0005031514
45	0xbbde24c8	-0.006779287
46	0x3ba9c943	0.005181463
47	0x3b86b395	0.0041107633
48	0x3a1d2d20	0.0005995799
49	0x3bac5cfb	0.0052601076
50	0x3b75468a	0.0037426078
51	0xbadc5ecf	-0.0016812923
52	0xbbaa7852	-0.0052023316
53	0x3bd139fa	0.006385085
54	0x3b8cdf32	0.004299068
55	0xbbc33a83	-0.005957903
56	0x3c30016f	0.010742529
57	0x3c30db8f	0.010794534
58	0x3cb552e5	0.022134254
59	0x3c133597	0.008984945
60	0xba8a492b	-0.001055037
61	0x3c463d3c	0.01209956
62	0x3be430b3	0.006963813
63	0xbc3893b3	-0.011265683
64	0xbaf8e110	-0.0018987972
65	0x3c34a8b7	0.011026553
66	0x3acfa600	0.0015842319
67	0x3a02a70b	0.0004983998
68	0x3b7e917b	0.0038844037
69	0x3c268ad8	0.010164939
70	0xbb067f48	-0.0020522643
71	0x3ad83c13	0.0016497396
72	0x3befc833	0.007317567
73	0x3c873536	0.016504865
74	0xbc9dcf97	-0.019264026
75	0x3b712523	0.0036795817
76	0x3be5f8f5	0.0070182034
77	0x3a7a0640	0.00095376745
78	0x396d8d2d	0.00022654673
79	0x3b93bbc8	0.0045084693
80	0x3baaec85	0.0052161836
81	0x3b25bd44	0.0025289813
82	0xbc55f52f	-0.013058945
83	0xbc092750	-0.008371189
84	0xbb0224ef	-0.001985844
85	0x3af308b8	0.0018542027
86	0x3b84c7e2	0.004052148
87	0x3bd88f7b	0.006608901
88	0x3c424e75	0.011859526
89	0x3ad8f963	0.0016553815
90	0xba92d3d3	-0.0011202045
91	0xbc0223c2	-0.007943096
92	0xbca84e10	-0.020545036
93	0xbaf3525a	-0.0018563971
94	0xba17adbb	-0.0005786081
95	0xbbf78b78	-0.007554468
96	0xbb8a8b19	-0.0042280075
97	0x3997605b	0.00028872755
98	0xbacba75d	-0.0015537549
99	0xbc0154e2	-0.007893773
100	0xbbb3c10b	-0.005485659
101	0x3adfa485	0.001706258
102	0xbbab7f42	-0.005233676
103	0xbbbcf55e	-0.0057665547
104	0xbb8fc21c	-0.0043871533
105	0x3c0a8dd7	0.008456669
106	0xbbbc6a9f	-0.005750015
107	0xbb159472	-0.0022824076
108	0x3c587f70	0.013213977
109	0x3b8a8789	0.004227583
110	0x3c0cf603	0.008603576
111	0x3c24557a	0.010030145
112	0x3b4db6bb	0.0031389433
113	0xbb6cf6cf	-0.0036157852
114	0xbb2b854a	-0.0026171976
115	0x3a20f3bb	0.00061398343
116	0x3ba38b41	0.0049909656
117	0xbc15ee2a	-0.009151021
118	0x3ba70a8b	0.0050976924
119	0x3b01c86b	0.0019803296
120	0xbad07cdd	-0.0015906353
121	0xbc8d8cb9	-0.017279016
122	0x3a37872e	0.00070010393
123	0x382f6854	4.1820414e-05
124	0x3884eb46	6.3380736e-05
125	0xbb22f8d7	-0.0024867558
126	0x3c1bbcb4	0.00950544
127	0x3a82e669	0.000998688

onnx::LSTM_114 f4 [1, 512, 128]
0	0x3dca54f8	0.09879488
1	0x3e1ecdfa	0.15508261
2	0xbd040215	-0.032228548
3	0xbc84a00e	-0.016189601
4	0x3dc95def	0.098323695
5	0xbb8c43c1	-0.004280538
6	0xbe1c69d5	-0.15274747
7	0xbd5310bc	-0.05152963
8	0x3e10b69c	0.1413216
9	0xbe078abb	-0.13236515
10	0x3d02ddee	0.03194993
11	0x3d1558c1	0.036461595
12	0xbe065aed	-0.13120623
13	0x3dc7ec62	0.09761883
14	0xbcbaf7d8	-0.02282326
15	0xbcbfa339	-0.02339326
16	0x3e173bb6	0.14768872
17	0x3ca44899	0.020054149
18	0xbde92da3	-0.11385658
19	0xbd59eb0e	-0.05320268
20	0xbe0240fc	-0.12720102
21	0xbd94e693	-0.07270541
22	0x3c8eec59	0.017446684
23	0x3e14b697	0.14522777
24	0xbe121f36	-0.14269719
25	0x3de47454	0.11155
26	0x3d38593b	0.04500697
27	0xbd2b1465	-0.041767497
28	0x3d5fab93	0.054606985
29	0x3dd2ab84	0.1028662
30	0x3dacf73f	0.08445596
31	0x3e255d1f	0.16148804
32	0xbe1a7c06	-0.15086374
33	0x3d174077	0.036926713
34	0xbd1f80e9	-0.038941298
35	0xbdd36270	-0.1032151
36	0xbd4086af	-0.047003444
37	0xbdeda417	-0.11603563
38	0xbd4103fa	-0.047122933
39	0x3cf2d3de	0.029642042
40	0x3dac4701	0.084119804
41	0x3d6662d7	0.056246605
42	0x3dd6f3d7	0.104957275
43	0x3d9184fb	0.07105442
44	0xbc6cc941	-0.01445228
45	0x3de0e95c	0.1098201
46	0x3dab0515	0.08350579
47	0xbdb74cdb	-0.08950206
48	0xb98ec7c2	-0.00027233182
49	0x3e180b1a	0.14847985
50	0x3d417f1a	0.047240354
51	0x3df4e9de	0.11958669
52	0x3ca9ccbd	0.02072751
53	0xbdd18343	-0.10230114
54	0x3e089da5	0.13341387
55	0xbda5e4c5	-0.08100275
56	0xbdf25223	-0.118320726
57	0x3d558c35	0.052135665
58	0x3dc65e9f	0.09686016
59	0xbcc8f104	-0.024528988
60	0xbc5d829c	-0.013519909
61	0xbd0fb216	-0.035081945
62	0xbdad5314	-0.084631115
63	0x3d177ea6	0.036986016
64	0x3d56252d	0.052281547
65	0x3cbee9fa	0.023304928
66	0x3e195225	0.14972742
67	0x3c4869a6	0.01223222
68	0x3e0da31a	0.1383175
69	0xbe076db7	-0.13225447
70	0xbdafc042	-0.08581592
71	0xbd60fb53	-0.05492718
72	0x3d15c12e	0.036561184
73	0xbcb25504	-0.021769054
74	0xbdb6e7a7	-0.08930903
75	0x3d952a27	0.072834305
76	0x3e1aec25	0.15129144
77	0x3c6503f0	0.01397799
78	0xbde529d7	-0.11189621
79	0xbd6f3261	-0.058397654
80	0x3d93d7b2	0.07218875
81	0x3ce45d31	0.027876468
82	0x3db7f27b	0.08981796
83	0xbe1bf1c7	-0.1522895
84	0xbe21dd38	-0.15807045
85	0x3d8cc189	0.068728514
86	0xbdbcaa90	-0.0921222
87	0xbd91098a	-0.070818976
88	0xbb19a8d4	-0.0023446577
89	0xbd9bd84b	-0.07609614
90	0xbd9d2cf7	-0.07674592
91	0xbe06c576	-0.13161263
92	0xb9db30da	-0.00041807332
93	0xbd02dc3f	-0.031948324
94	0x3bf45c7e	0.007457315
95	0x3d44474b	0.047919553
96	0x3dfa4e42	0.12221958
97	0xbe067054	-0.13128787
98	0xbe01360d	-0.12618275
99	0xbc85b3e2	-0.016321126
100	0x3e09ee20	0.13469744
101	0x3dae815b	0.08520766
102	0x3d4b5eaf	0.049650844
103	0xbc692c8f	-0.014231815
104	0xbc0caa82	-0.008585574
105	0x3dac3d28	0.08410102
106	0xbddbc905	-0.10731701
107	0x3e120259	0.14258708
108	0xbdf0a036	-0.11749308
109	0xbe223032	-0.15838698
110	0xbd8e1857	-0.06938236
111	0xbc971094	-0.018440522
112	0xbd15317c	-0.036424145
113	0x3c7757f3	0.015096652
114	0xbdbe543c	-0.0929341
115	0x3e106af9	0.14103307
116	0x3e099eab	0.13439433
117	0x3d5dd586	0.05415871
118	0x3c835e11	0.016036065
119	0x3db82421	0.08991266
120	0xbde31e5f	-0.11089777
121	0xbe0f7f6a	-0.14013448
122	0x3db5408e	0.088502035
123	0xbe16c1ea	-0.1472241
124	0xbde992b8	-0.114049375
125	0xbe17e218	-0.14832342
126	0x3cc3a631	0.023882957
127	0xbc7fc0d6	-0.0156099405
128	0xbd65c51a	-0.056096174
129	0xbc66d038	-0.014087729
130	0xbd98a1b3	-0.07452717
131	0x3daf9d05	0.08574871
132	0x3ce99fd3	0.028518593
133	0x3b3c5843	0.0028739132
134	0x3d8a024b	0.067387186
135	0xbdd2bb64	-0.10289648
136	0xbd0d9afb	-0.03457163
137	0x3e0e6e26	0.13909206
138	0x3da13e15	0.07873169
139	0xbd6b2bd7	-0.057414856
140	0x3db920a6	0.0903943
141	0x3d9acfce	0.07559167
142	0xbe0458f4	-0.12924558
143	0x3dc04863	0.09388807
144	0x3dfc79d2	0.12327923
145	0x3d8d1e94	0.06890598
146	0xbddcb800	-0.10777283
147	0x3dd54c17	0.104149036
148	0xbd463739	-0.04839251
149	0x3d9c2b14	0.07625404
150	0xbe08c263	-0.13355403
151	0xbc1b76ed	-0.009488803
152	0x3deff108	0.11715895
153	0xbd7b806e	-0.061401777
154	0x3d444061	0.04791296
155	0x3aaed36c	0.0013338155
156	0x3e01c8a9	0.12674202
157	0x3d8cda92	0.068776265
158	0xbd23f989	-0.040032897
159	0x3b0b4ae7	0.0021254362
160	0x3dee0422	0.11621882
161	0xba927d20	-0.0011176206
162	0x3d426dc4	0.047467962
163	0x3e084da2	0.13310865
164	0x3dc25031	0.094879515
165	0xbd33c207	-0.04388621
166	0xbda9f13e	-0.082979664
167	0xbdf52499	-0.11969871
168	0x3e0756b3	0.13216667
169	0xbd08713e	-0.03331112
170	0xbcf77525	-0.030207226
171	0x3c05e827	0.008173025
172	0x3d92a101	0.07159615
173	0x3e08419f	0.13306282
174	0xbccf693f	-0.02531874
175	0x3e107bf2	0.14109781
176	0x3bb8e9b8	0.005643096
177	0x3d3767df	0.044776794
178	0xbca7422e	-0.0204173
179	0x3d1e57d5	0.038657982
180	0xbd909eac	-0.07061514
181	0xbd4b9cc0	-0.049710035
182	0x3d498050	0.049194634
183	0x3e037dc9	0.12840952
184	0x3db9a211	0.09064115
185	0x39da34e6	0.00041619613
186	0xbdcecdd8	-0.10097855
187	0x3e06f889	0.13180746
188	0xbdaf27b1	-0.085524924
189	0x3d46c002	0.048522957
190	0x3d266efa	0.04063318
191	0xbdb4010d	-0.08789263
192	0xbdfec2c4	-0.12439492
193	0xbe0bcfb8	-0.13653457
194	0x3da71078	0.08157438
195	0x3b05027c	0.002029567
196	0x3a82dd4d	0.0009984166
197	0xbe2ee7fc	-0.17080683
198	0x3d65cc60	0.05610311
199	0x3c3edd72	0.011649476
200	0xbe0393d7	-0.12849365
201	0x3dd2af2b	0.10287317
202	0x3c7fd268	0.01561413
203	0xbe0c602b	-0.1370856
204	0x3e1f614d	0.15564461
205	0x3e020a78	0.12699306
206	0xbd0fb261	-0.035082225
207	0x3cedaeb5	0.02901397
208	0xbe1aea1c	-0.15128368
209	0xbd0fb5a6	-0.035085343
210	0x3d4875d1	0.048940483
211	0x3ce8f84d	0.028438712
212	0x3e00ad98	0.12566221
213	0x3dc6466e	0.09681402
214	0xbd1ff6e7	-0.039053824
215	0x3be4ac84	0.0069785733
216	0xbd325f09	-0.043547664
217	0xbd921d3e	-0.07134484
218	0x3c94c876	0.018161993
219	0x3c910883	0.017704254
220	0x3c586b37	0.013209156
221	0xbd545b9a	-0.05184517
222	0x3d7caf5c	0.061690673
223	0x3dbe8008	0.09301764
224	0xbd0941c7	-0.033509996
225	0x3dbe9538	0.09305805
226	0xbd037138	-0.032090396
227	0x3cff58a0	0.03117019
228	0xbe170a86	-0.14750108
229	0x3cbdfff8	0.023193344
230	0x3dd71af0	0.10503185
231	0xbdddaf3f	-0.10824441
232	0xbd913f29	-0.07092125
233	0x3d455a54	0.048181847
234	0x3e07e502	0.13270953
235	0x3d40b359	0.04704604
236	0xbdbca442	-0.09211017
237	0x3ddca3e6	0.10773449
238	0xbdfb3e49	-0.12267739
239	0x3cab5937	0.020916564
240	0x3dcc5f37	0.09979098
241	0x3d3d05ff	0.046148296
242	0x3bc510b2	0.006013953
243	0x3ddd87fd	0.10816953
244	0x3cbe8363	0.02325601
245	0xbda999a3	-0.08281257
246	0x3d958c1d	0.07302115
247	0x3e09f5c2	0.13472655
248	0xbd81abf7	-0.06331628
249	0xbd4df200	-0.050279617
250	0xbdb10c38	-0.08644909
251	0x3dee621e	0.11639808
252	0xbe027e50	-0.12743497
253	0xbd7556d8	-0.059897274
254	0xbd98432d	-0.07434688
255	0xbe07e146	-0.13269529

onnx::LSTM_115 f4 [1, 512, 128]
0	0xbe191d6c	-0.1495263
1	0x3db5f3c2	0.08884384
2	0xbc4d75ba	-0.012540275
3	0xbdc11ea2	-0.09429671
4	0x3d42b475	0.04753538
5	0x3e0e1498	0.13875043
6	0x3d8a2611	0.06745542
7	0x3d860770	0.06544387
8	0x3d6f86f8	0.058478326
9	0x3c1c8612	0.009553449
10	0xbdfbc339	-0.12293095
11	0xbdc13259	-0.09433431
12	0xbd9821e3	-0.074283384
13	0x3de49c1f	0.1116259
14	0x3d5d382b	0.054008644
15	0x3c1752c6	0.009236043
16	0xbe060531	-0.13087918
17	0xbdbbc8a1	-0.09169126
18	0x3dfeabfd	0.12435148
19	0x3e091a03	0.13388829
20	0x3e0e8863	0.13919215
21	0x3e34fc21	0.17674305
22	0x3d6307af	0.05542725
23	0x3c2aeed4	0.010432918
24	0xbe062e9d	-0.13103719
25	0x3d82f8f5	0.06395141
26	0x3d662e38	0.05619642
27	0x3e126072	0.14294603
28	0xbc0f4e02	-0.008746626
29	0xbe023fd4	-0.12719661
30	0xbdc1a180	-0.09454632
31	0x3d8cc200	0.0687294
32	0xbe1e41aa	-0.15454736
33	0xbd2b6456	-0.041843735
34	0xbc0cc92a	-0.008592883
35	0xbc87625c	-0.016526394
36	0xbdaf8a27	-0.08571272
37	0x3d25fb76	0.040523015
38	0xbde8bda5	-0.11364297
39	0xbd21cdd0	-0.03950292
40	0xbdcddad6	-0.10051505
41	0xbd8969bf	-0.067096226
42	0x3e1ffaa8	0.15622962
43	0xbdf34c7a	-0.11879821
44	0x3dbf2e69	0.09335024
45	0x3e0ceba1	0.1376176
46	0x3d672353	0.056430172
47	0xbdc67278	-0.09689802
48	0x3d138e64	0.036024466
49	0xbd02254e	-0.031773858
50	0x3c62ba4a	0.01383836
51	0xbe0e8e99	-0.13921584
52	0xbd86d2ba	-0.06583162
53	0xbde2c937	-0.11073535
54	0x3e0d08e8	0.13772929
55	0xbd723ea8	-0.059141785
56	0xbe17dd66	-0.1483055
57	0x3b441649	0.002992051
58	0xbd2e8cf4	-0.042614892
59	0x3d92dfed	0.07171617
60	0xbceb387c	-0.028713457
61	0x3ddcb181	0.10776044
62	0x3dfdc4ec	0.123910755
63	0xbcc56a22	-0.02409846
64	0x3c837f97	0.01605205
65	0x3d06068f	0.0327211
66	0xbd95ac7c	-0.073082894
67	0xbddfedd2	-0.109340325
68	0xbcfb0d9e	-0.030646142
69	0x3d786fed	0.060653616
70	0x3e1279e0	0.14304304
71	0x3d7c4d05	0.06159689
72	0x3dc7bec3	0.09753182
73	0x3e096334	0.13416749
74	0xba862497	-0.0010234293
75	0xbe1fab7d	-0.15592761
76	0xbda709e8	-0.08156186
77	0xbdefdb61	-0.11711765
78	0x3d709f6a	0.05874578
79	0xbd8c84ed	-0.06861291
80	0x3d84bef7	0.06481736
81	0x3d5493f0	0.051898897
82	0x3d7952aa	0.06086985
83	0x3e169ce1	0.14708282
84	0xbdcc79b3	-0.0998415
85	0xbc96b082	-0.018394712
86	0xbd893cf1	-0.06701077
87	0xbda3c021	-0.0799563
88	0x3dd5bce5	0.104364194
89	0xbe0ac3a6	-0.13551196
90	0x3dc1c53e	0.09461449
91	0xbd486d8c	-0.048932597
92	0xbd7cea41	-0.06174684
93	0xbdff5865	-0.12468032
94	0xbce631a0	-0.028099835
95	0xbd5624c9	-0.052281175
96	0x3cc77416	0.024347346
97	0x3dbee0af	0.09320199
98	0x3d9097ad	0.0706018
99	0x3c9f640b	0.019456884
100	0x3d0a9cde	0.033841006
101	0xbd6adb99	-0.05733833
102	0x3e1a0391	0.15040423
103	0xbd175e8e	-0.03695541
104	0x3e0f266d	0.13979502
105	0xbc873603	-0.016505247
106	0x3e092944	0.13394648
107	0x3c30af9e	0.010784058
108	0x3d86bc3c	0.065788716
109	0xbe10a82d	-0.14126654
110	0xbe1f0f78	-0.15533245
111	0xbe20cb48	-0.15702546
112	0x3e0c4a60	0.13700247
113	0x3d8e720a	0.06955345
114	0xbe179583	-0.14803128
115	0xbdaccf18	-0.084379375
116	0xbd0c0117	-0.034180727
117	0xbe0a1a69	-0.13486637
118	0xbdcfed9e	-0.10152744
119	0xbc80430c	-0.01565697
120	0xbe24d892	-0.1609824
121	0x3d22d8ec	0.039757654
122	0xbdf705f6	-0.12061684
123	0x3d108d16	0.0352908
124	0xbe0dca08	-0.138466
125	0x3b27cc5d	0.0025603988
126	0xbdd3a367	-0.10333901
127	0xbd4873d6	-0.048938595
128	0xbce2363b	-0.02761375
129	0x3dcb0608	0.0991326
130	0x3b1a7799	0.002356982
131	0x3e007819	0.12545814
132	0x3cd77938	0.026302919
133	0xbda05a4d	-0.078297235
134	0xbe1e21b2	-0.15442541
135	0xbdfcd7ad	-0.123458244
136	0xbe21d542	-0.15804008
137	0xbe221c83	-0.15831189
138	0x3e219d5f	0.15782689
139	0xbded5437	-0.11588328
140	0x3d673d96	0.056455217
141	0x3dc4a70b	0.096021734
142	0x3cbc3803	0.022975927
143	0x3d92d429	0.071693726
144	0xbc671448	-0.0141039565
145	0xbd555ea2	-0.052092202
146	0x3d8fd954	0.07023874
147	0xbda59433	-0.080849074
148	0xbe0b0517	-0.1357616
149	0x3e2353b8	0.15949905
150	0xbdda64c4	-0.10663751
151	0x3d58ced2	0.052931614
152	0xbe10dd16	-0.14146838
153	0xbda5c3ea	-0.08094008
154	0xbda6b00b	-0.08139046
155	0x3d7b4919	0.06134901
156	0x3dc0d078	0.09414762
157	0x3c218212	0.009857671
158	0xbd7e9469	-0.062153254
159	0xbda3abf8	-0.07991785
160	0xbdf8603d	-0.12127731
161	0xbc99c563	-0.01877088
162	0xbdfe692e	-0.12422405
163	0x3e110d4a	0.14165226
164	0x3d787464	0.060657874
165	0x3de2ea2e	0.110798225
166	0xbd346a30	-0.04404658
167	0x3dd0ea7f	0.102009766
168	0xbddd1b29	-0.10796196
169	0x3e1ca54f	0.15297435
170	0x3c63761d	0.013883141
171	0xbd98bef4	-0.074582964
172	0x3c27f73f	0.010251819
173	0xbe017be8	-0.12644923
174	0x3d11617d	0.035493363
175	0xbd3d557e	-0.04622411
176	0xbd8540c8	-0.06506497
177	0xbd93ebde	-0.072227225
178	0x3dc0fb39	0.09422917
179	0xbd2c0179	-0.041993592
180	0x3cb93979	0.022610413
181	0x3d8921cd	0.066959
182	0x3dc4749b	0.09592553
183	0xbdaed8eb	-0.085374676
184	0x3da5b634	0.08091393
185	0xbd909144	-0.07058957
186	0xbd009d19	-0.03139982
187	0x3d501c11	0.050808016
188	0x3d872f87	0.06600862
189	0x3e0f975a	0.1402258
190	0xbd6b5368	-0.05745259
191	0x3e21759b	0.15767519
192	0xbd062750	-0.032752335
193	0x3dfaaa68	0.12239534
194	0xbe164eb1	-0.14678456
195	0x3cfaaddf	0.030600486
196	0xbb377d6d	-0.0027998344
197	0xbde4ddd8	-0.11175126
198	0x3dd63e66	0.1046112
199	0x3db28c9d	0.08718226
200	0xbe0297f5	-0.1275328
201	0xbe08ba11	-0.13352229
202	0xbd8c0dfe	-0.06838606
203	0xbd46e16c	-0.048554823
204	0x3db5894d	0.08864079
205	0x3dcad836	0.0990452
206	0xbca93e21	-0.020659508
207	0x3d0dd0a4	0.034622803
208	0x3ca152a7	0.019692732
209	0x3df1c4f1	0.11805142
210	0xbd5700e5	-0.052491087
211	0x3dfc7d2e	0.12328564
212	0x3ba1fd67	0.004943538
213	0x3dd223ea	0.10260756
214	0xbdf57a06	-0.11986165
215	0x3b7e444f	0.003879804
216	0xbd3ecb43	-0.046580564
217	0xbbe5ba66	-0.007010746
218	0x3df08963	0.117449544
219	0xbcc39aea	-0.02387758
220	0x3d23032f	0.039797958
221	0x3ce866ee	0.028369393
222	0x3da5b975	0.08092014
223	0xbd03b8b4	-0.03215857
224	0xbd1d67ac	-0.038428947
225	0x3d4eea06	0.05051615
226	0xbe21d45a	-0.15803662
227	0xbb400294	-0.0029298412
228	0x3d3dcf28	0.046340138
229	0xbdcb7198	-0.09933776
230	0x3e106ce2	0.14104035
231	0xbe0f5cfa	-0.14000311
232	0xbdc6f9ba	-0.097156
233	0xbe2c2107	-0.16809474
234	0xbc9a73e2	-0.018854085
235	0x3cdb4215	0.026764909
236	0xbd62767e	-0.055288784
237	0x3dfda657	0.123852424
238	0xbddebe2f	-0.108761184
239	0x3d5a1004	0.05323793
240	0x3e28bad2	0.16477516
241	0xbd878ec6	-0.06619029
242	0x3c669c8a	0.014075408
243	0x3c882d8c	0.016623281
244	0xbd8d555d	-0.069010474
245	0xbd38bcfa	-0.045102097
246	0x3dc58c52	0.096459046
247	0x3dbfba49	0.09361703
248	0xbd7ab7e4	-0.061210528
249	0xbe0cbfb5	-0.13745005
250	0x3cb2a26c	0.021805964
251	0x3d5c0916	0.053719603
252	0x3e0846be	0.13308236
253	0x3b3c3db4	0.0028723301
254	0x3e0bed83	0.13664822
255	0x3d88dc2d	0.0668262
