Machine-Learning-DRL/results/SeekerTraining/Seeker/Seeker-866202.onnx (onnx, 610983 bytes, 11 tensors)

discrete_act_size_vector f4 [1, 2]
0	0x40800000	4.0
1	0x3f800000	1.0

network_body._body_endoder.seq_layers.0.weight f4 [128, 8]
0	0x3d03acae	0.032147102
1	0x3e8a7d33	0.27048644
2	0xbf321fa5	-0.69579536
3	0xbe0d5a69	-0.1380402
4	0x3cea9bc2	0.028638724
5	0x3ef2418f	0.47315642
6	0x3eb925b8	0.3616159
7	0x3e92aa9f	0.286458
8	0x3e5bdf74	0.2147196
9	0x3c8e9ef7	0.017409785
10	0xbec571de	-0.38563436
11	0xbf068b55	-0.52556354
12	0x3e7d27af	0.2472217
13	0x3e5cc18d	0.21558209
14	0x3e07114b	0.1319019
15	0xbea558c8	-0.32294297
16	0x3ece8a25	0.4033977
17	0xbe8c30d4	-0.27381003
18	0xbe07e256	-0.13269934
19	0x3e27e374	0.1639536
20	0xbed7c0a2	-0.42139155
21	0xbd1e5ebd	-0.03866457
22	0x3e69308d	0.22772427
23	0xbe727d4e	-0.23680612
24	0x3e962b4f	0.29329917
25	0xbf00c3d7	-0.5029883
26	0xbe8f1cee	-0.2795176
27	0x3dfbeff6	0.12301628
28	0x3e6636c2	0.22481826
29	0xbe8d03a1	-0.2754183
30	0xbed65f3a	-0.41869527
31	0x3de2cc8c	0.110741705
32	0x3da2912c	0.079378456
33	0x3ec85538	0.39127517
34	0x3ea8bba3	0.32955655
35	0x3d76c310	0.06024462
36	0x3ea6f5b5	0.32609335
37	0xbf1f487b	-0.6221997
38	0xbef6d8f5	-0.482124
39	0xbdc9c439	-0.098518796
40	0xbf26b08a	-0.6511313
41	0x3dcf4410	0.10120404
42	0xbe8d9357	-0.27651474
43	0x3f0d822c	0.5527675
44	0xbf18bfbc	-0.59667563
45	0x3e1aae85	0.15105636
46	0x3f45c7de	0.772581
47	0xbf05afef	-0.5222158
48	0x3e663741	0.22482015
49	0x3d0cbd81	0.034360413
50	0xbf0414b0	-0.51594067
51	0x3e513172	0.20429018
52	0x3d93eda0	0.07223058
53	0x3d51dcf8	0.051236123
54	0xbdca211d	-0.09869597
55	0x3ef481e6	0.47755355
56	0xbe2ee7e6	-0.1708065
57	0x3e8928e5	0.26789013
58	0x3d6b85a6	0.057500504
59	0xbec341e5	-0.3813621
60	0x3ea31c11	0.3185735
61	0x3f0c166d	0.5472172
62	0x3f4d138e	0.80107963
63	0x3db6bb4a	0.08922441
64	0x3d2d8a80	0.042368412
65	0xbef99c3a	-0.48752004
66	0xbeb7c783	-0.35894403
67	0x3c2bae5d	0.010478583
68	0x3d8f6b26	0.07002859
69	0x3dc9933c	0.09842536
70	0xbebfc52d	-0.3745512
71	0xbe020ec5	-0.12700947
72	0x3e9c15ca	0.30485374
73	0x3f04d2a5	0.5188392
74	0x3ef7bd2e	0.4838652
75	0xbae96e23	-0.0017809313
76	0x3ed92128	0.4240811
77	0xbe968901	-0.294014
78	0xbb850dcc	-0.0040604826
79	0xbe109ebb	-0.14123051
80	0x3e24452b	0.1604201
81	0x3d106c78	0.035259694
82	0x3eac02d3	0.33595905
83	0xbe8824e3	-0.26590642
84	0xbf6838aa	-0.9071146
85	0x3d6913a6	0.056903504
86	0xbf10cc7b	-0.5656201
87	0x3c1b23f5	0.009469022
88	0x3c450475	0.012024988
89	0xbdc04070	-0.093872905
90	0xbed71b53	-0.42013034
91	0x3f20713c	0.6267278
92	0x3ec9487c	0.39313114
93	0x3e314c90	0.17314363
94	0x3d79f880	0.061028004
95	0x3d548e30	0.051893413
96	0x3e529984	0.20566374
97	0xbd01d88c	-0.031700656
98	0x3ed51ce6	0.4162361
99	0xbda069e4	-0.07832697
100	0x3d61a7d8	0.05509171
101	0xbe776a2d	-0.24161597
102	0xbe8cd26b	-0.27504286
103	0x3eb986db	0.362357
104	0x3e9b1cbd	0.30295363
105	0xbe27d199	-0.16388549
106	0x3f07c94a	0.5304152
107	0x3e8a0349	0.2695563
108	0x3f4be563	0.7964689
109	0xbdab3232	-0.08359183
110	0x3de04534	0.109506994
111	0xbc175bb6	-0.009238174
112	0xbe8dce1e	-0.27696317
113	0x3ef89263	0.48549184
114	0xbd25b7fa	-0.040458657
115	0xbf88d52d	-1.0690056
116	0x3b17bbd5	0.0023152728
117	0x3d9b0e42	0.07571079
118	0x3e2131db	0.15741675
119	0xbec7b768	-0.39007115
120	0x3e96438d	0.29348412
121	0x3ebb60ec	0.36597383
122	0x3e8dab6f	0.27669856
123	0xbe479a96	-0.19492564
124	0x3ddc8072	0.107666865
125	0xbe90e9d0	-0.28303385
126	0xbf2d93cf	-0.67803663
127	0xbe3bcfd4	-0.18340999
128	0x3f73d49c	0.9524629
129	0xbe84d32c	-0.2594236
130	0x3e3af433	0.18257217
131	0xbe8a493e	-0.27009004
132	0x3ee0dc3f	0.43918034
133	0x3e9f6778	0.31133628
134	0xbd1b587e	-0.03792619
135	0x3d2c9d80	0.04214239
136	0x3e101af4	0.14072782
137	0xbeaaf8df	-0.33393
138	0x3e2138b9	0.15744294
139	0xbe713a80	-0.23557472
140	0x3e71e8a0	0.23623896
141	0xbebd71e9	-0.3700097
142	0xbea72772	-0.32647282
143	0x3db950e4	0.09048632
144	0xbd807368	-0.06272012
145	0x3e4f7761	0.20260383
146	0xbe9824df	-0.2971563
147	0xbeea80a5	-0.45801273
148	0x3ebf5840	0.37372017
149	0x3e7af806	0.24508676
150	0x3e4bf91a	0.19919243
151	0x3d53debb	0.051726084
152	0x3e7d0263	0.24707942
153	0xbf087328	-0.53300714
154	0x3e1c1a4d	0.15244408
155	0x3d22350d	0.039601374
156	0xbed7aa65	-0.42122188
157	0xbf7febe7	-0.99969333
158	0xbe99191a	-0.29901963
159	0x3e74beef	0.2390096
160	0xbed34f5c	-0.41271484
161	0x3ea15c52	0.31515747
162	0xbedabd8a	-0.42722732
163	0x3f21feab	0.6327922
164	0x3e40b20a	0.18817917
165	0xbe3b6663	-0.18300776
166	0x3eda6934	0.4265839
167	0x3e415eef	0.1888387
168	0xbc895b41	-0.016767146
169	0x3f3a7992	0.7284175
170	0x3ed28593	0.41117534
171	0xbeb73b02	-0.35787207
172	0x3eb22549	0.3479407
173	0x3e406dd9	0.18791904
174	0x3f0db653	0.5535633
175	0xbead1d60	-0.33811474
176	0x3ee0ae5e	0.43883032
177	0xbef2e313	-0.4743887
178	0xbf0076ec	-0.5018146
179	0x3f1a5ef5	0.6030114
180	0x3e1420a3	0.14465575
181	0xbe20251c	-0.15639156
182	0xbdfde72f	-0.123976104
183	0x3e1c1b51	0.15244795
184	0xbe960003	-0.29296884
185	0xbf28503b	-0.6574742
186	0x3d08f97a	0.033441044
187	0x3e303fdf	0.17211865
188	0xbe457a4c	-0.19284934
189	0x3ebaf91c	0.3651818
190	0xbd84d957	-0.06486767
191	0xbdd6e21d	-0.104923464
192	0xbeb6be3b	-0.3569201
193	0xbe587021	-0.21136524
194	0x3e5f079e	0.2178025
195	0xbf088d40	-0.5334053
196	0xbe050ea6	-0.12993869
197	0xbf080cf7	-0.5314478
198	0x3d96de2e	0.07366596
199	0x3db86b44	0.09004834
200	0x3e8dae0c	0.2767185
201	0x3efb882b	0.49127325
202	0xbd6b9a6a	-0.057520308
203	0x3f127c24	0.57220674
204	0x3d79f40a	0.06102375
205	0x3ead17a4	0.338071
206	0xbf067131	-0.52516466
207	0x3e7ac2e4	0.24488407
208	0xbeb576cd	-0.354422
209	0xbe19318e	-0.1496031
210	0x3f59f6d7	0.8514227
211	0x3ef78dcb	0.48350367
212	0xbf1de188	-0.6167226
213	0xbef2bfb5	-0.47411886
214	0xbe8b002e	-0.27148575
215	0x3e907e50	0.2822137
216	0xbefcb4b0	-0.49356604
217	0xbdf5f3d7	-0.120093994
218	0xbe0668ce	-0.13125917
219	0x3eb3c2de	0.3510961
220	0xbed9955f	-0.42496774
221	0x3e8dbf42	0.2768498
222	0x3ed594d4	0.4171511
223	0xbe8e3b8a	-0.277798
224	0xbe16e024	-0.1473394
225	0x3ce6e6b2	0.028186176
226	0xbe4940c1	-0.19653608
227	0xbeea770f	-0.4579396
228	0xbe043724	-0.1291166
229	0x3e3f9da0	0.18712473
230	0xbe6814a6	-0.22664127
231	0xbe50f631	-0.20406415
232	0x3e8c56a4	0.27409852
233	0xbf0d3df1	-0.5517264
234	0xbf3107d4	-0.6915257
235	0x3ea27cbd	0.31735793
236	0x3d6ba243	0.05752779
237	0xbdbd7fbb	-0.09252878
238	0xbebf3468	-0.3734467
239	0xbebd0e18	-0.36924815
240	0x3e186464	0.14882046
241	0x3ebe6ba0	0.37191486
242	0x3dde6a94	0.10860172
243	0xbf32ad84	-0.69796014
244	0x3dfb855f	0.12281298
245	0xbc43e4bc	-0.01195639
246	0x3e49a6ac	0.19692487
247	0x3e337586	0.175253
248	0xbebc9978	-0.36835837
249	0x3ee59124	0.44837296
250	0x3cba9110	0.02277425
251	0x3dd47786	0.1037436
252	0xbd6043fb	-0.05475233
253	0xbe8b5f05	-0.27220932
254	0xbe710eca	-0.23540798
255	0xbd6991b3	-0.057023715

network_body._body_endoder.seq_layers.0.bias f4 [128]
0	0xbc23ad4c	-0.009990048
1	0xbb12dc25	-0.0022409048
2	0xbcade428	-0.021226957
3	0xbad9526d	-0.0016580351
4	0xbccd7046	-0.02507795
5	0x3d2940ee	0.041321687
6	0xbc5e44cb	-0.013566206
7	0x3c4d5957	0.012533507
8	0x3c8a88a8	0.016910866
9	0xbc0a5717	-0.008443615
10	0xbb90c655	-0.0044181743
11	0xbd6ec073	-0.058289003
12	0xbc9f3b9a	-0.0194376
13	0x3be6b79b	0.0070409304
14	0x39a7cccf	0.00032005316
15	0xbc69c26f	-0.014267548
16	0xbc25402d	-0.0100861015
17	0xba1b94d8	-0.000593496
18	0x3bab125e	0.0052206954
19	0xbc358193	-0.011078256
20	0xbc7c9c3f	-0.015418111
21	0x3bdbf416	0.006712447
22	0x3d036ed4	0.032088116
23	0xbaa4bdf1	-0.0012568814
24	0x3c206c8e	0.009791506
25	0x3c9d9c9a	0.019239713
26	0x3d0066de	0.0313481
27	0xbb93cb89	-0.0045103473
28	0x3c3f874f	0.011689975
29	0x3c7e0373	0.015503752
30	0x3b569ffb	0.0032749164
31	0xbcee0c5c	-0.029058628
32	0xbc2e595c	-0.010641422
33	0x39fd651c	0.00048331253
34	0x3cc1a581	0.023638489
35	0xbd500a68	-0.050791174
36	0x3cf7a0f3	0.030228114
37	0xbc8cce8a	-0.01718833
38	0x3bd0b1c1	0.006368846
39	0xbcd38dfd	-0.025824541
40	0x3d1f5100	0.038895607
41	0xbb6b267b	-0.003588109
42	0x39917d2b	0.00027749813
43	0xbbce65fc	-0.0062987786
44	0x3b46cff1	0.0030336345
45	0x3a85af01	0.001019925
46	0x386f37e4	5.7034093e-05
47	0xbaf3feaf	-0.001861533
48	0x3b9399df	0.004504427
49	0x3abdba11	0.0014475008
50	0xbbc77c29	-0.006087799
51	0xbcfa67af	-0.030567018
52	0x3c9c526a	0.019082267
53	0xbc9dfb6b	-0.019284924
54	0xbc49642b	-0.012291948
55	0x3b3e85c7	0.0029071437
56	0x3c0319eb	0.008001785
57	0xbab0edcd	-0.0013498605
58	0xbbc7d772	-0.006098681
59	0xbd01b3f0	-0.031665742
60	0x3bc5b849	0.0060339314
61	0x3c4cf8a6	0.012510454
62	0xbc06d8bd	-0.008230385
63	0xbce8ebf1	-0.028432818
64	0x3db0531d	0.086096026
65	0x3b61d4f6	0.003445921
66	0x3da18aba	0.07887788
67	0xbc763ce1	-0.015029163
68	0x3b45a557	0.0030158365
69	0xbca9950c	-0.020700954
70	0xbc71ddd8	-0.014762364
71	0xbbc8be35	-0.00612619
72	0x3b10b4c1	0.0022080394
73	0xbb796d80	-0.0038059652
74	0xbca88496	-0.020571034
75	0xbc68e4dc	-0.014214721
76	0xbcb0342d	-0.021509254
77	0xbade2f8c	-0.0016951426
78	0xbc28c1c3	-0.010300103
79	0x3c97ba01	0.01852131
80	0xba68aed7	-0.0008876151
81	0xbd044992	-0.032296725
82	0x3c1f77a7	0.009733117
83	0x3c1c48ee	0.009538872
84	0x3cc07392	0.023492608
85	0xbc6c1116	-0.0144083705
86	0xbbff45da	-0.0077903094
87	0x3cfb9fc5	0.030715832
88	0xbc9f2b91	-0.019429954
89	0x3b30c869	0.0026974923
90	0xbc66e2f2	-0.014092194
91	0xbbecdf6b	-0.007228782
92	0xbab74dda	-0.0013984994
93	0xbbc81fbd	-0.006107299
94	0x3bd86f0a	0.0066050338
95	0x3c010b96	0.007876297
96	0x3bbea035	0.005817438
97	0x3c9b1539	0.018931018
98	0xbc71307c	-0.014721032
99	0x3cb908b1	0.022587152
100	0xbc4de07d	-0.012565729
101	0x3b195292	0.0023395163
102	0x3ce954b9	0.028482782
103	0x3cee6101	0.02909899
104	0xbbd943ad	-0.006630382
105	0x3a4319e5	0.0007442518
106	0xbcae44e1	-0.021273078
107	0x3c74ba23	0.014936957
108	0xbcea6a51	-0.028615149
109	0x3c79e26a	0.015251735
110	0x3c83d976	0.016094904
111	0xbbda0c9c	-0.006654335
112	0x3cd915d4	0.026499666
113	0x3c817d55	0.015806833
114	0x3c351f65	0.011054848
115	0xbc1fae73	-0.009746182
116	0xbd3ad2bd	-0.045611132
117	0xbd1e3ae7	-0.038630392
118	0xbb1b66d6	-0.0023712418
119	0x3bf12ed4	0.0073603187
120	0xbcd409fd	-0.025883669
121	0xbc9d1038	-0.019172773
122	0x3bcc808c	0.00624091
123	0xbc888e1e	-0.01666933
124	0xbd3a24a8	-0.045445114
125	0xbb3f40ec	-0.0029182984
126	0xbc52c699	-0.012864732
127	0x3c8e0b79	0.017339455

network_body._body_endoder.seq_layers.2.weight f4 [128, 128]
0	0x3de25d0c	0.110529035
1	0x3d8e7a79	0.069569536
2	0x3e2ac6df	0.16677426
3	0x3de669e0	0.11250663
4	0x3d3b5989	0.045739684
5	0xbd96ee6a	-0.073696926
6	0x3ce29f15	0.027663747
7	0xbab02b38	-0.0013440615
8	0x3b427492	0.0029671532
9	0xbdc7d9af	-0.09758317
10	0x3dc673fa	0.096900895
11	0xbd81ebfc	-0.063438386
12	0xbe1f1cab	-0.1553828
13	0xbda7c06a	-0.08190997
14	0xbdb8243a	-0.08991285
15	0xbdba2254	-0.09088579
16	0xbca1a715	-0.019732991
17	0x3e1b2b8c	0.1515333
18	0xbdad13f7	-0.084510736
19	0x3d6961ce	0.05697804
20	0x3e15e037	0.14636312
21	0xbd6cf550	-0.057851136
22	0x3e04d64c	0.12972373
23	0x3d52ce98	0.051466554
24	0xbd9890ab	-0.07449468
25	0xbd0b3401	-0.03398514
26	0xbcc007b5	-0.023441175
27	0xbcf78f29	-0.030219631
28	0x3d0cd803	0.034385692
29	0x3d30a1b6	0.04312297
30	0x3d4f4f8e	0.05061298
31	0xbc507451	-0.0127230445
32	0x3d87a8a3	0.06623962
33	0xbcb97646	-0.022639405
34	0xbce97ab6	-0.028500896
35	0xbd8bb394	-0.06821361
36	0x3a01d6a7	0.0004952945
37	0x3d966831	0.07344092
38	0xbd33565f	-0.04378354
39	0xbcccd1a1	-0.025002303
40	0x3e4ffdf8	0.20311725
41	0x3d71603b	0.058929663
42	0x3dae8a3e	0.08522461
43	0x3c05cdf8	0.008166783
44	0x3e6d6cf6	0.23186097
45	0xbc4c6fc9	-0.0124778235
46	0x3dc6d532	0.097086325
47	0x3e7dd610	0.2478869
48	0x3d927a36	0.07152216
49	0xbc346170	-0.011009559
50	0xbd516fa9	-0.051131878
51	0x38b321d6	8.5416876e-05
52	0xbd37fbf7	-0.044918027
53	0x3d9c62d6	0.07636039
54	0xbc2e5ffe	-0.0106430035
55	0x3ce13d2a	0.027494986
56	0xbdbd95aa	-0.09257062
57	0x3cf3447d	0.029695744
58	0xbd0dbb5e	-0.034602515
59	0xbe06afff	-0.13153075
60	0x3dbf49bc	0.093402356
61	0xbd7ed78c	-0.06221728
62	0xbc8a2063	-0.016861146
63	0x3e037d68	0.12840807
64	0xbdbc66e1	-0.0919931
65	0x3d69790a	0.057000197
66	0x3d597823	0.053093087
67	0x3c0c39d6	0.008558711
68	0xbd2dcec4	-0.042433515
69	0x3d0897a9	0.03334776
70	0x3e17ade3	0.14812426
71	0xbdf49e1e	-0.11944221
72	0x3d0f6d34	0.035016254
73	0x3daf7725	0.08567647
74	0x3e316f50	0.17327619
75	0xbdc4f5d8	-0.096172035
76	0xbdb97a08	-0.09056479
77	0xbc3be8ed	-0.011469108
78	0xbac73350	-0.0015197787
79	0xbd7fd82d	-0.06246202
80	0x3dadb890	0.08482468
81	0x3dc85516	0.09781854
82	0x3d3ff0e0	0.046860576
83	0x3e2493b2	0.16071966
84	0x3d54c763	0.051947962
85	0xbd66aaba	-0.05631516
86	0x3d8610c8	0.065461695
87	0xbc3ac1ec	-0.011398774
88	0x3da696f9	0.081342645
89	0xbdad6e92	-0.08468355
90	0x3c5d6021	0.013511688
91	0xba18238f	-0.00058036385
92	0x3d64c01f	0.055847283
93	0x3d16c926	0.036812924
94	0x3d75adee	0.059980325
95	0xbaf500f2	-0.0018692298
96	0x3d99e036	0.07513468
97	0x3df03ddf	0.11730551
98	0xbbb653cf	-0.00556419
99	0x3af21a7d	0.0018471029
100	0x3cfedc71	0.031110974
101	0xbd000a0e	-0.03125959
102	0x3d51dae6	0.05123415
103	0xbdf856be	-0.1212592
104	0x3dc50990	0.096209645
105	0xbda9af34	-0.082853705
106	0x3dc6df7c	0.09710595
107	0x3d9a258a	0.07526691
108	0x3d2e9838	0.042625636
109	0xbddd571c	-0.108076304
110	0x3d4071f0	0.04698366
111	0x3db15c5c	0.08660194
112	0x3d5941ed	0.053041387
113	0xbcda9d94	-0.026686467
114	0xbc513d6d	-0.012770993
115	0xbddee121	-0.10882784
116	0xbc9c562f	-0.019084064
117	0x3e0cd2a5	0.1375223
118	0xbe06beb9	-0.13158692
119	0x3decb407	0.11557775
120	0x3d547b0f	0.05187517
121	0x3ca4ce1b	0.02011781
122	0xbd528ce1	-0.051403884
123	0x3d363c73	0.044491243
124	0xbcb13c7d	-0.021635288
125	0xbdb3563d	-0.08756683
126	0x3b24375b	0.0025057408
127	0x3d54650c	0.05185418
128	0x3d923b47	0.071402125
129	0xbd4c9369	-0.04994527
130	0x3c270c22	0.010195764
131	0xbd3c0495	-0.045902807
132	0xbd24e03d	-0.040252913
133	0xbc32b200	-0.010906696
134	0xbe05568f	-0.130213
135	0x3cce805d	0.025207693
136	0xbd9c5fc3	-0.076354526
137	0xbe86f347	-0.2635748
138	0xbd1cdd8e	-0.03829723
139	0x3db14fc5	0.08657793
140	0x3ddca0b8	0.10772842
141	0x3dd5009c	0.10400507
142	0xbca84c49	-0.020544188
143	0xbdcdb79a	-0.10044785
144	0x3d471402	0.048603065
145	0xbdaa7266	-0.08322601
146	0xbd0a24b3	-0.033726405
147	0x3d01ddd8	0.031705707
148	0x3da492e5	0.080358304
149	0xbdba5f56	-0.09100215
150	0xbc15cea5	-0.009143506
151	0x3e0eeba7	0.13957082
152	0xbe223c00	-0.158432
153	0x3d8047ed	0.06263719
154	0x3dad07ee	0.08448778
155	0x3d2a5f2e	0.041594677
156	0xbd1c0024	-0.03808607
157	0x3d882507	0.066476874
158	0xbe3693ab	-0.17829768
159	0xbce648a8	-0.028110817
160	0x3d734476	0.05939146
161	0xbdedf9e7	-0.11619931
162	0xbdedd0b2	-0.11612071
163	0xbb803bc5	-0.003913375
164	0x3e4dd002	0.2009888
165	0xbc782c31	-0.015147255
166	0xbd49966b	-0.049215715
167	0x3d58feae	0.052977256
168	0xbd8ce3b8	-0.068793714
169	0xbd3c7413	-0.046009135
170	0x3d3e7377	0.046496835
171	0x3b358887	0.0027699785
172	0x3d2aa891	0.041664664
173	0x3b6646d9	0.0035137443
174	0xbccf268d	-0.025286937
175	0xbe43b593	-0.19112234
176	0x3e01416a	0.1262261
177	0xbdfcc611	-0.12342466
178	0x3e0fa235	0.14026721
179	0x3d8a16da	0.0674264
180	0x3e1c7bfe	0.15281674
181	0x3d35292e	0.044228725
182	0xbc949264	-0.01813621
183	0xbc07aeb1	-0.008281396
184	0x3deb5d1b	0.11492368
185	0x3d055f8a	0.032561816
186	0x3de2b46f	0.11069571
187	0x3d597f59	0.053099964
188	0x3dc18f90	0.094512105
189	0xbdae0ea3	-0.084988855
190	0x3e0b0348	0.1357547
191	0x3d75be24	0.059995785
192	0xbd950b0d	-0.072774984
193	0xbd13c369	-0.03607503
194	0x3e3fd842	0.1873484
195	0xbcc37181	-0.023857834
196	0xbdfb5a0e	-0.12273036
197	0xbda48eae	-0.080350265
198	0xbbf0ee22	-0.0073526064
199	0x3c7cd0d7	0.015430651
200	0xbb63c0fa	-0.0034752474
201	0x3dc78400	0.09741974
202	0xbb25a4b5	-0.0025275175
203	0xbe4f8c1b	-0.2026829
204	0xbd97db34	-0.074148566
205	0xbe00af10	-0.12566781
206	0xbb5e41d3	-0.0033913746
207	0xbd9c1c57	-0.07622593
208	0x3c169334	0.009190369
209	0xbe56a3fc	-0.20960993
210	0xbd7f54e7	-0.06233683
211	0xbd9896c0	-0.07450628
212	0x3dad6d1f	0.08468079
213	0xbd37bc7c	-0.044857487
214	0xbd9a9a6d	-0.07548986
215	0x3e3c1b6b	0.18369834
216	0x3b4bd9cf	0.0031105166
217	0x3d953dab	0.07287153
218	0xbe4bf129	-0.19916214
219	0xbc920447	-0.017824305
220	0xbd71a356	-0.05899366
221	0xbe087166	-0.13324508
222	0x3d585b6d	0.052821565
223	0x3d264bf5	0.040599782
224	0xbd20d833	-0.039268684
225	0xbd88a1f2	-0.066715136
226	0x3d7b2655	0.061315853
227	0xbd41264c	-0.047155663
228	0x3dcf0af4	0.10109511
229	0x3d69142c	0.056904003
230	0x3d0c8af2	0.034312196
231	0xbddd4289	-0.10803706
232	0xbcbcf051	-0.02306381
233	0xbdba5d30	-0.09099805
234	0x3dba2f46	0.09091048
235	0xbdc337bb	-0.09532114
236	0xbdcd9641	-0.10038424
237	0xbe0526ae	-0.13003036
238	0xbe0953c7	-0.13410865
239	0xbd2a1ed8	-0.04153332
240	0xbd85e673	-0.06538095
241	0x3d581ea2	0.05276359
242	0xbd746ea8	-0.059675843
243	0xbde5b29e	-0.11215709
244	0xbe282a0b	-0.16422288
245	0xbc5d76b6	-0.013517072
246	0x3d67672e	0.056494884
247	0x3c046557	0.008080802
248	0x3dc8715c	0.097872466
249	0xbbe52be1	-0.006993756
250	0x3c92dec7	0.017928494
251	0x3d282d9b	0.041059118
252	0x3ce85b2a	0.028363783
253	0xbe793d36	-0.24339756
254	0xbdef65b8	-0.11689323
255	0x3c6099be	0.01370853

network_body._body_endoder.seq_layers.2.bias f4 [128]
0	0xbc14ed3f	-0.009089767
1	0xbcbebf03	-0.02328444
2	0xbca67e82	-0.020323996
3	0xbc2f9cac	-0.010718506
4	0xbbbaa3d6	-0.0056958003
5	0xbb0bb2cd	-0.002131629
6	0x3c3bdbe5	0.011466001
7	0x3b10d7e0	0.0022101328
8	0xbad76bf0	-0.0016435366
9	0xbc67fff1	-0.014160142
10	0xbc1d999c	-0.009619143
11	0x3c770e00	0.015079021
12	0x3c7c26ed	0.01539014
13	0x38247458	3.9209e-05
14	0x3b7f0ebe	0.00389187
15	0xbc6a3a86	-0.01429618
16	0x3c5bae92	0.01340832
17	0x3c3bc2b4	0.011459995
18	0x3b97f108	0.0046368875
19	0xba8865fe	-0.0010406373
20	0x3c988a91	0.018620761
21	0x3c1199f8	0.008886807
22	0x3c0e9560	0.008702606
23	0xbd05cca0	-0.03266585
24	0x3ab87945	0.0014074227
25	0xbbbe57ed	-0.0058088214
26	0xbbc50ddd	-0.0060136155
27	0xbbdfeb2f	-0.006833456
28	0xbbc60906	-0.006043556
29	0xbb85f6bd	-0.0040882514
30	0x3bd9bcb7	0.006644811
31	0x3c307aa7	0.01077143
32	0x3c1fe700	0.009759665
33	0xbb93c4ba	-0.0045095356
34	0x3ca48a0e	0.02008536
35	0x3b0081e5	0.0019608673
36	0x3a590525	0.00082786597
37	0xbc8a3cb5	-0.01687465
38	0x3c14ec0c	0.009089481
39	0x3c501e1b	0.01270249
40	0xba988172	-0.0011635257
41	0x3c0719ea	0.0082459245
42	0x3c46f033	0.012142229
43	0x3a2cfd97	0.0006599067
44	0xbcb3f867	-0.021969033
45	0x3ccd54da	0.025064874
46	0xbc9d62fa	-0.019212235
47	0x3bca4fb3	0.0061740517
48	0x3aba7d90	0.0014228094
49	0x3a597fa2	0.0008296912
50	0x3b8d65c6	0.004315111
51	0xbc19cf16	-0.009387752
52	0xbca205db	-0.019778183
53	0x3b2d89ac	0.0026479764
54	0x3b9b0114	0.004730353
55	0xbc7319f4	-0.014837731
56	0xbadc8b98	-0.001682627
57	0x3c7a0359	0.015259587
58	0xbc82789d	-0.015926654
59	0x3d0e4f5f	0.034743663
60	0x3c2f6bf4	0.01070689
61	0x3c9e6e5e	0.019339737
62	0x3a0669ca	0.0005127458
63	0x3a2b9dd4	0.00065466505
64	0x3b05c408	0.0020411033
65	0x3cb6ba85	0.022305736
66	0xbc114941	-0.008867563
67	0xbc384e8d	-0.011249197
68	0x3b1fc8ed	0.0024381236
69	0xbc0a2373	-0.008431303
70	0x3bb5535c	0.005533619
71	0x3be1bd00	0.0068889856
72	0x3bdb40e6	0.006691086
73	0xbcbdf944	-0.023190148
74	0xbc443c90	-0.01197733
75	0xbbb44fd0	-0.0055026785
76	0x3cc27388	0.02373673
77	0xba7bba78	-0.0009602676
78	0xbaeeae31	-0.0018209872
79	0xbc7c2633	-0.015389967
80	0xbbc9b53a	-0.006155637
81	0xbc94ad20	-0.018148959
82	0x3c3759a9	0.01119081
83	0xbc3edc9a	-0.011649275
84	0x3ad720ab	0.0016412934
85	0x3c369ce7	0.011145807
86	0x3c8818d1	0.016613396
87	0xbbc0ddd7	-0.0058858204
88	0xbc8601c2	-0.01635826
89	0xbc234e44	-0.00996739
90	0xba871c11	-0.0010308047
91	0xbc64db28	-0.013968267
92	0x3b103619	0.00220049
93	0xbb9dcb26	-0.004815477
94	0x3c92516a	0.017861087
95	0x39b8a968	0.00035221432
96	0x3c7706c8	0.0150773
97	0x3c490dc4	0.012271348
98	0xbc628755	-0.013826211
99	0xbbcc2e80	-0.006231129
100	0xbc5a94dc	-0.013341155
101	0xbc11d2ad	-0.008900327
102	0xbc0a8efb	-0.008456941
103	0xbb461eb7	-0.003023071
104	0xbb248d98	-0.002510881
105	0xbc6c5edd	-0.014426914
106	0xbaa2610f	-0.0012388545
107	0xbca4d487	-0.020120872
108	0xbb88b231	-0.0041716327
109	0x3c56fbd8	0.013121568
110	0xbc0d8f2d	-0.008640093
111	0x3b66fa75	0.00352445
112	0xbc28e982	-0.010309579
113	0x3c9be033	0.019027805
114	0x3c4b6f99	0.012416744
115	0x3c3b0b43	0.011416259
116	0xbb931228	-0.0044882484
117	0x39fcb881	0.00048202652
118	0x3c34b5e9	0.011029699
119	0x3a4a1975	0.0007709482
120	0xbc9a67d4	-0.018848337
121	0xbc22710e	-0.00991465
122	0x3c6a854b	0.014314006
123	0xbc865f9c	-0.016403012
124	0x3c15fe01	0.0091547975
125	0xbc21be45	-0.009872024
126	0x3b128eed	0.0022363022
127	0x3bcd52e4	0.006265985

action_model._discrete_distribution.branches.0.weight f4 [4, 128]
0	0x3c37d2fe	0.011219738
1	0x3b3f1575	0.0029157076
2	0x3d1fa163	0.03897227
3	0x3d06d243	0.032915365
4	0x3ca3052d	0.019899929
5	0x3b6b1dba	0.0035875873
6	0xb80d241f	-3.365066e-05
7	0x3d1ce57a	0.038304783
8	0xbceeeab0	-0.029164642
9	0x3d363d2a	0.044491924
10	0x3d2456cd	0.040121842
11	0xbcb558f4	-0.022137143
12	0x3cffde9f	0.031234084
13	0xbcca8fb2	-0.024726722
14	0x3cf72753	0.030170118
15	0xbd08d1ec	-0.033403322
16	0xbccc6f56	-0.024955433
17	0x3c87a96a	0.016560275
18	0xbd28e99c	-0.041238412
19	0x3ce03a05	0.027371416
20	0x3ce557dc	0.027995996
21	0x3cf5c864	0.03000278
22	0x3d383c26	0.044979237
23	0x3d46e94a	0.048562326
24	0xbcadda25	-0.021222183
25	0xbb9c60e2	-0.0047722915
26	0xbabbd435	-0.001433021
27	0x3d09ed67	0.03367367
28	0x3c947f01	0.018126966
29	0x3d289995	0.041162092
30	0x3c530d0f	0.012881531
31	0xbd23e68d	-0.040014792
32	0xbd89702b	-0.067108475
33	0x3d0766cf	0.03305703
34	0xbcebd296	-0.028786939
35	0xbd34d166	-0.04414501
36	0x3ced0f4a	0.028937954
37	0xbd317630	-0.043325603
38	0x3d0aaf6d	0.033858705
39	0xbcb0004d	-0.021484518
40	0x3ca3248c	0.019914888
41	0xbcd7a945	-0.026325831
42	0x3d073d59	0.03301749
43	0x3cf1d009	0.029518144
44	0x3cf51382	0.029916529
45	0xbd214075	-0.03936811
46	0x3d058e4f	0.03260642
47	0x3d0f2d8e	0.034955554
48	0xbc861f6a	-0.016372401
49	0x3d1881bb	0.037233096
50	0x3d09528f	0.033526
51	0xbd3f569f	-0.046713468
52	0x3c4a2158	0.012337051
53	0xbd30775a	-0.043082573
54	0xbc8478f9	-0.016170966
55	0x3ccd297c	0.025044195
56	0xbd002382	-0.031283863
57	0x3cf0450f	0.029329805
58	0xbd757c78	-0.059933156
59	0xb8b1ae25	-8.472455e-05
60	0x3b3f7f9a	0.0029220344
61	0xbd255724	-0.040366307
62	0x3ce8ab43	0.028401976
63	0x3cab1fc6	0.020889174
64	0xbd6deb9b	-0.05808602
65	0x3d3d9ed2	0.04629404
66	0xbd0b4efe	-0.03401088
67	0xbd3887c8	-0.045051366
68	0x3d07e7a9	0.033179913
69	0xbd3ab552	-0.045583077
70	0x3ca92b48	0.02065052
71	0xbd3aa362	-0.04556597
72	0x3cc771a2	0.024346177
73	0x394a63c2	0.00019301384
74	0xbc2e8420	-0.010651618
75	0xbc80e92c	-0.015736185
76	0xbd2bb147	-0.04191711
77	0x3bd82f49	0.0065974337
78	0x3d140f6c	0.03614752
79	0x3d1da2ae	0.03848522
80	0x3cca0c5d	0.024664098
81	0xbd5f797a	-0.05455921
82	0x3cc6c1e0	0.024262369
83	0x3d3fe23a	0.046846606
84	0xbd09b950	-0.033623993
85	0xbbb23eb3	-0.0054396032
86	0x3d43f385	0.04783966
87	0x3cfb7b19	0.030698346
88	0x3ce6cbec	0.02817341
89	0xbd0bf55c	-0.03416954
90	0xbd126a0b	-0.03574566
91	0x3c695de5	0.014243578
92	0xbd444100	-0.04791355
93	0xbbc4bc7d	-0.006003915
94	0x3c43522d	0.011921448
95	0x3c03b56c	0.00803886
96	0x3cba9152	0.022774372
97	0xbca9db31	-0.020734401
98	0xbc80441e	-0.01565748
99	0xbd3f15ed	-0.04665177
100	0x3b8b3c12	0.0042491043
101	0xbd539785	-0.051658172
102	0xbcc3cf2a	-0.023902494
103	0x3d18095a	0.037118293
104	0xbcded8d2	-0.027202997
105	0x3cf1cc90	0.029516488
106	0xbd3a3560	-0.04546106
107	0xbd1f4794	-0.03888662
108	0xbd78e3ae	-0.060764007
109	0xbd5f860e	-0.054571204
110	0x3d13fdae	0.0361306
111	0xbd41a379	-0.04727504
112	0xbc8af2ac	-0.016961418
113	0xbccec9a8	-0.025242642
114	0xbd43d06c	-0.04780619
115	0x3d3f083b	0.04663871
116	0xbcbc6349	-0.022996562
117	0xbd4f9e34	-0.050687984
118	0xbd007005	-0.03135683
119	0x3d05b2db	0.032641273
120	0x3d0a8fa6	0.0338284
121	0xbd2a70bf	-0.04161143
122	0xbd00ac41	-0.031414274
123	0x3d2ce6f6	0.04221245
124	0xbd30bfd3	-0.043151688
125	0xbd2705df	-0.040777083
126	0x3c7c1356	0.015385469
127	0x3b92ae87	0.0044763717
128	0x3d1037f3	0.035209607
129	0xbc76f4f5	-0.015073051
130	0xbc22045a	-0.009888733
131	0x3ab1a7d6	0.0013554047
132	0xbc832219	-0.01600747
133	0xbd5e1210	-0.054216444
134	0x3d5db943	0.054131757
135	0xbd198092	-0.03747613
136	0xbc78fd01	-0.01519704
137	0x3c13c10f	0.009018197
138	0xbcc9385d	-0.024563009
139	0xbb69395d	-0.003558717
140	0x3d12ab08	0.03580764
141	0x3d2b436e	0.041812353
142	0x3bbce3b7	0.0057644504
143	0x3d0d5175	0.03450151
144	0x3c9ed66f	0.01938936
145	0xba7fbe21	-0.00097558094
146	0x3cc6b10d	0.024254346
147	0xbc2de592	-0.010613816
148	0xbd769ce1	-0.060208205
149	0xbcc5fe03	-0.024168974
150	0xbd569199	-0.052384946
151	0xbcc70a8f	-0.024297027
152	0x3cdcaa08	0.026936546
153	0xbd80f401	-0.0629654
154	0x3d0bc299	0.03412113
155	0x3c85a5c8	0.016314402
156	0xbd35a06d	-0.044342447
157	0xbd2bb845	-0.04192378
158	0xbd0fb799	-0.0350872
159	0x3d09177b	0.03346966
160	0x3c179661	0.009252162
161	0x3a825d7c	0.0009946073
162	0xbb408f3f	-0.0029382256
163	0x3c654ad0	0.0139948875
164	0x3dac885b	0.08424445
165	0x3c6df41d	0.014523533
166	0xbd0bba11	-0.034112994
167	0xbcc860c5	-0.024460206
168	0xbc365bde	-0.011130301
169	0x3c3b5a6f	0.011435135
170	0xbd10bcd3	-0.035336327
171	0x3c2b08d5	0.010439117
172	0x3c0c0841	0.00854689
173	0x3d255729	0.040366326
174	0xbca98d54	-0.020697273
175	0xbca16fa4	-0.019706555
176	0x3cc1ad96	0.023642343
177	0xbc0b00d9	-0.008484089
178	0x3ca20cdb	0.01978152
179	0x3d0e744d	0.03477888
180	0xbb06c895	-0.0020566334
181	0x3cf807e2	0.030277196
182	0x3d0a54b5	0.03377219
183	0xbd10ff16	-0.03539952
184	0x3bf57298	0.0074904673
185	0x3bad90e0	0.0052968115
186	0x3d0fcba3	0.035106312
187	0x3d7e7753	0.062125515
188	0xbd3d1c38	-0.04616949
189	0x3cd307cf	0.02576056
190	0xbc3403d0	-0.010987237
191	0x3d91342e	0.070900306
192	0x3bbfc67a	0.0058525177
193	0xbca409bf	-0.020024179
194	0x3d06a081	0.032867912
195	0xbc5415ec	-0.01294468
196	0xbd12ffb0	-0.035888374
197	0x3cdbf718	0.026851222
198	0x3cb2a052	0.021804962
199	0x3cd42b90	0.025899678
200	0xbb9ff9fc	-0.0048820954
201	0xbd116a74	-0.035501912
202	0xbd1094cf	-0.035298165
203	0x3cfc0eee	0.030768838
204	0x3b5f00c8	0.0034027565
205	0x3d78f78a	0.060782947
206	0xbd1569c5	-0.036477823
207	0xbd2c9752	-0.042136498
208	0x3d55cf12	0.05219943
209	0xbbe5c5ad	-0.00701209
210	0x3cab46a3	0.020907706
211	0xbbd84ef8	-0.0066012107
212	0xbc8fd67d	-0.01755833
213	0xbd08f2e3	-0.03343476
214	0x3c26f36c	0.010189872
215	0x3c6f8093	0.014618057
216	0xbd0c3334	-0.03422852
217	0x3c698f06	0.014255291
218	0xbcb2f2c9	-0.021844285
219	0xbd145222	-0.03621114
220	0x3bbddb1e	0.005793943
221	0x3ca4a4ea	0.020098168
222	0xbba6ae7c	-0.005086718
223	0xbd118938	-0.035531253
224	0xbbdf6a34	-0.0068180803
225	0xbc02320f	-0.007946505
226	0x3d4d466a	0.05011598
227	0x3a73f566	0.00093062816
228	0x3cc45499	0.02396612
229	0xbc3d983d	-0.011571941
230	0x3caec0d1	0.021332176
231	0xbcccee1d	-0.025015885
232	0x3bf796a4	0.0075557996
233	0xbcaabcb3	-0.020841932
234	0x3c9de2ef	0.01927325
235	0x3d0d9828	0.034568936
236	0xbd15a580	-0.036534786
237	0x3c91d353	0.017800963
238	0xbd1052a4	-0.035235062
239	0x3ca2fa72	0.019894812
240	0x3cd8e670	0.026477069
241	0x3d4686dc	0.048468456
242	0xba934a35	-0.0011237325
243	0xbc10e930	-0.008844659
244	0xbad4a300	-0.0016222894
245	0x3ba3fe02	0.0050046453
246	0x3cb5bd48	0.022184983
247	0xbd43e6b1	-0.047827426
248	0xbbaacf7f	-0.0052127237
249	0x3d0aaf16	0.03385838
250	0xbbb497e5	-0.0055112713
251	0x3c64040d	0.013916981
252	0x3d0b9435	0.034076888
253	0x3b8a7754	0.004225651
254	0xbcc12dcb	-0.023581406
255	0xbc870ac3	-0.016484624

action_model._discrete_distribution.branches.0.bias f4 [4]
0	0xbcf25547	-0.029581679
1	0x3ca5383c	0.020168416
2	0x3c6f8680	0.01461947
3	0xbd345f12	-0.04403598

action_model._discrete_distribution.branches.1.weight f4 [1, 128]
0	0xbc12453b	-0.008927639
1	0x3c27d223	0.010242972
2	0x3c1c5294	0.0095411725
3	0x3bb6c4b1	0.0055776467
4	0x3b3a664b	0.002844232
5	0xbc4658b0	-0.012106106
6	0xbbc4d6df	-0.00600706
7	0xbc3457b2	-0.011007236
8	0x3c85b902	0.01632357
9	0xbcadf291	-0.021233829
10	0xbc5246df	-0.01283428
11	0x3c8990fe	0.01679277
12	0x3c7fbfc0	0.015609682
13	0x3c499d72	0.012305604
14	0x3c948c8f	0.01813343
15	0x3c5319ad	0.01288454
16	0xbaccabdb	-0.0015615182
17	0xbc2451ee	-0.010029299
18	0x3b0be155	0.0021344025
19	0xbbec8153	-0.007217565
20	0x3ae4c717	0.0017454353
21	0xbbbe9dcc	-0.0058171507
22	0x3bcb98ff	0.006213307
23	0x3bd9befa	0.0066450806
24	0xbc81329d	-0.015771205
25	0xbc0b60d6	-0.008506974
26	0x3a7f98c5	0.00097502425
27	0x3bf0dab8	0.007350292
28	0x3b66d7e0	0.0035223886
29	0xbc306e14	-0.010768432
30	0xbc05b4bc	-0.008160766
31	0x3b20cd9e	0.002453662
32	0x3b8ec8c2	0.0043574283
33	0x3bd1bfc0	0.006401032
34	0x3c18a360	0.009316295
35	0x3af60c3d	0.0018771958
36	0xba3d20c0	-0.0007214658
37	0x3c2d5367	0.010578967
38	0xbbfce265	-0.007717418
39	0xbbbb91f4	-0.005724186
40	0x3ba47c23	0.005019681
41	0xbc719b6b	-0.014746527
42	0xbc96dfff	-0.018417357
43	0xbc6c5b75	-0.014426102
44	0x3c58cfd0	0.01323314
45	0xbb5aa1ef	-0.003336068
46	0x3be669a3	0.007031636
47	0xbbbf6d8b	-0.005841916
48	0x3bce94ba	0.0063043507
49	0xbbf11743	-0.0073575093
50	0xbb5af938	-0.0033412706
51	0xbc1df459	-0.009640777
52	0x3b73213d	0.003709867
53	0x3b39002f	0.002822887
54	0x3bf6a905	0.007527473
55	0xbbb23bbf	-0.005439251
56	0xbb600a87	-0.0034185962
57	0xb9f2a85d	-0.00046283277
58	0x3c1d6213	0.009605902
59	0xbba32224	-0.004978435
60	0x39fa3145	0.00047720424
61	0xbc0c7914	-0.008573789
62	0x3b397282	0.0028297012
63	0x3b9d2f75	0.004796917
64	0x3c7bddf7	0.015372745
65	0x3b147875	0.0022654806
66	0x3bbacfb3	0.005701029
67	0xbb115a43	-0.0022179044
68	0xbc0069a1	-0.007837684
69	0x3b1a4cda	0.0023544342
70	0xbc4726cc	-0.012155246
71	0x3aae3f1f	0.0013293958
72	0xbb5440ba	-0.0032387213
73	0x3c56bac7	0.013106055
74	0x3b95bcef	0.004569642
75	0xbafe8d83	-0.0019420836
76	0xbbc122fb	-0.0058940626
77	0x3b84299f	0.004033282
78	0x3c2040c3	0.009781065
79	0xbc1ca4e1	-0.009560795
80	0xbb058dbd	-0.0020378672
81	0x3b2d25f7	0.0026420334
82	0xbc56be4b	-0.013106893
83	0xba88be89	-0.001043276
84	0xbb389122	-0.0028162678
85	0xbc22855b	-0.00991949
86	0x3b83eab8	0.0040257834
87	0x3b9de949	0.0048190695
88	0xbbb24366	-0.0054401634
89	0xbbd096aa	-0.006365617
90	0xbc8412af	-0.01612219
91	0x3ca2c40e	0.019868877
92	0xbad0a085	-0.0015916979
93	0x3a741218	0.00093105575
94	0xbb9d31f3	-0.004797214
95	0x3a8203dc	0.0009919363
96	0xbc4305c0	-0.011903226
97	0x3aba0d4c	0.0014194637
98	0xbba1971b	-0.0049313433
99	0xbbb8c673	-0.0056388914
100	0x3b4dab87	0.0031382756
101	0x3a6e6f95	0.00090956065
102	0xbb68c9cd	-0.0035520673
103	0x3b2d7e67	0.0026473047
104	0x3c84e73e	0.016223546
105	0xbc101aac	-0.008795422
106	0x3b2da825	0.0026497927
107	0xbaaf6446	-0.0013381324
108	0x3c84630d	0.016160512
109	0xbad00f93	-0.0015873782
110	0x3bddd2ca	0.006769513
111	0x3b6d031d	0.0036165186
112	0xbacdb322	-0.0015693645
113	0x3c38beff	0.011276006
114	0x3b874dd5	0.0041291513
115	0x3b90f43a	0.0044236453
116	0x3bb235e3	0.0054385527
117	0x3c829fc3	0.015945321
118	0x3cbded0f	0.023184327
119	0xbc5149f8	-0.012773983
120	0x3b42652c	0.0029662354
121	0xbc930286	-0.01794554
122	0xbc2651c1	-0.010151328
123	0xbb39576f	-0.0028280874
124	0x3bd18197	0.006393622
125	0xbaeba8ba	-0.0017979362
126	0x3c8c789c	0.017147355
127	0xbb3e7beb	-0.002906556

onnx::LSTM_114 f4 [1, 512, 128]
0	0x3d58a668	0.052893072
1	0x3d120c1a	0.035656072
2	0xbcc6cb26	-0.02426679
3	0xbe1ce6ae	-0.15322372
4	0xbd652d48	-0.055951387
5	0xbdc73a6a	-0.097279385
6	0x3d70ab05	0.058756847
7	0xbdc4f724	-0.09617451
8	0xbd9a3fda	-0.0753171
9	0xbe28c009	-0.16479506
10	0xbded8cae	-0.11599098
11	0xbdd9c868	-0.106339276
12	0xbcc54f03	-0.024085527
13	0xbda63ad5	-0.0811669
14	0x3c998544	0.018740304
15	0xbd3aabcd	-0.045574
16	0xbbe98b62	-0.0071272114
17	0x3e00ac4a	0.12565723
18	0x3e095bfb	0.13413994
19	0x3cb03b9e	0.021512803
20	0xbcbcc335	-0.0230423
21	0x3deaba2c	0.11461291
22	0xbb031a55	-0.0020004709
23	0x3db363b3	0.087592505
24	0x3d1427dd	0.03617083
25	0xbdb23e28	-0.087032616
26	0xbd1aff27	-0.03784099
27	0x3d4a15a7	0.049337056
28	0xbd951c2f	-0.07280766
29	0xbcd71f71	-0.02626011
30	0x3e28c25b	0.1648039
31	0x3cf06aeb	0.029347857
32	0x3e08fb77	0.13377176
33	0x3dcb8419	0.09937305
34	0xbd65ad1f	-0.056073304
35	0x3df93775	0.12168781
36	0x3aa036c5	0.0012223354
37	0xbdbb20dc	-0.09137127
38	0x3e03ae4a	0.12859455
39	0x3b07b8ff	0.0020709631
40	0xbe2a380c	-0.16622943
41	0x3de5109a	0.11184807
42	0x3d93c2d9	0.072148986
43	0x3dc4c5ed	0.09608064
44	0xbd9aa9b6	-0.07551901
45	0x3df8d9f6	0.12150948
46	0xbd3640d7	-0.04449543
47	0xbd6e0935	-0.05811425
48	0xbe1f1c4e	-0.15538141
49	0x39a96e85	0.00032316535
50	0xbd8e00e2	-0.06933762
51	0x3d6d3f86	0.05792191
52	0xbd80a503	-0.062814735
53	0xbda5e7a3	-0.08100822
54	0x3d91d6b5	0.0712103
55	0xbd9b2aeb	-0.07576545
56	0x3db62969	0.08894617
57	0x3db3e1f4	0.087833315
58	0xbdf3ec27	-0.11910277
59	0x3df6fdaf	0.12060105
60	0x3df60ea2	0.1201451
61	0xbbe09531	-0.0068537225
62	0xbceeeeb6	-0.02916656
63	0x3dff397c	0.12462136
64	0x3d9fe235	0.078068174
65	0x3d2eae1c	0.042646512
66	0x3e21d79c	0.15804905
67	0xbe056608	-0.13027203
68	0x3d8641f8	0.06555551
69	0x3d89b5b7	0.067241125
70	0x3e1d1af7	0.15342318
71	0x3dd1f768	0.10252267
72	0x3dc6a922	0.09700228
73	0xbb001e9e	-0.00195495
74	0x3dec8f6a	0.115507916
75	0x3d75db2b	0.060023468
76	0xbdde14db	-0.108438216
77	0x3db161d9	0.08661241
78	0xbcec1eed	-0.02882334
79	0x3d827971	0.06370819
80	0x3d772ae3	0.060343634
81	0xbd8f9765	-0.07011298
82	0xbdab49be	-0.083636746
83	0x3dd1f9d5	0.1025273
84	0x3d2f09cc	0.042733952
85	0x3cf8b9bb	0.030362
86	0xbdce1624	-0.10062817
87	0xbdb73ad8	-0.089467704
88	0xbdf7ffb1	-0.12109316
89	0xbd2f99b0	-0.042871177
90	0x3e16df94	0.14733726
91	0x3d78979c	0.06069146
92	0xbd2ac8a0	-0.041695237
93	0xbdf084a8	-0.11744052
94	0xbddc29ba	-0.10750146
95	0x3cff32e9	0.031152206
96	0x3d03a09e	0.0321356
97	0x3de278a2	0.11058165
98	0x3d1903f6	0.037357293
99	0xbdbe1b7d	-0.09282587
100	0xbd103df2	-0.035215326
101	0x3d1e7dfd	0.03869437
102	0xbdaf2b87	-0.08553224
103	0xbb0a879f	-0.0021137965
104	0xb9dab989	-0.00041718435
105	0xbdfa0df1	-0.1220969
106	0xbd39f25a	-0.04539714
107	0x3d2b829a	0.0418726
108	0x3dab88e8	0.08375722
109	0xbdb4cc9c	-0.08828089
110	0xbe1b0624	-0.15139061
111	0x3d6ba3ca	0.05752925
112	0xbe01230a	-0.12611023
113	0xbc3aecc1	-0.011408986
114	0x3dbd42fe	0.09241293
115	0xbdb07049	-0.08615167
116	0xbdfbd50b	-0.12296494
117	0x3d71a2e2	0.058993228
118	0x3d7af33e	0.06126713
119	0x3daa4e9f	0.08315777
120	0xbda0b81d	-0.07847617
121	0x3e0b18c6	0.13583669
122	0xbd2bff7a	-0.04199169
123	0xbcffcea1	-0.031226458
124	0x3df2d1bb	0.11856409
125	0xbe18a28f	-0.14905761
126	0xbd37f6fc	-0.044913277
127	0x3db31f9f	0.087462656
128	0xbe18eb1b	-0.14933436
129	0xbe080912	-0.1328471
130	0x3e0060a3	0.12536864
131	0x3de61c2e	0.112358436
132	0xbdaa1da9	-0.083064385
133	0xbdf8865d	-0.12135003
134	0xbdca0faf	-0.09866273
135	0xbdb62e0b	-0.08895501
136	0xbd1c87db	-0.0382155
137	0xbd1c0225	-0.038087983
138	0x3e06c4ac	0.13160962
139	0xbd28bc36	-0.041195117
140	0x3d765227	0.06013694
141	0xbbb0ec0a	-0.005399232
142	0x3e2bd4db	0.16780417
143	0xbdbeff4c	-0.09326038
144	0xbd9756d4	-0.07389608
145	0xbd4257b4	-0.04744692
146	0xbbc034f6	-0.0058656884
147	0xbd0f8ec2	-0.035048254
148	0xbdedaf46	-0.116056964
149	0x3d73c9c5	0.059518594
150	0x3dd62ff7	0.10458367
151	0x3ca85b9e	0.020551499
152	0x3e0ad59c	0.13558048
153	0xbdcd61f9	-0.100284524
154	0xbe18f3c4	-0.14936739
155	0x3dde5e77	0.108578615
156	0x3dfee99b	0.124469005
157	0x3dd49899	0.10380668
158	0xbe0ab1e9	-0.1354443
159	0xbb986b6f	-0.004651479
160	0x3d152221	0.0364095
161	0xbc833d42	-0.016020421
162	0x3dd83b45	0.1055818
163	0x3dcd6520	0.10029054
164	0xbdc41a2c	-0.095753044
165	0x3d9094d7	0.07059639
166	0xbdfa3386	-0.122168586
167	0x3c993899	0.018703746
168	0x3da122ee	0.078679904
169	0xbe20a212	-0.15686825
170	0xbd6b3bd9	-0.057430122
171	0xbce71e14	-0.028212585
172	0xbc8096ea	-0.015696961
173	0xbc1ac131	-0.0094454745
174	0xbe039a96	-0.12851939
175	0xbd991e65	-0.074765004
176	0xbc9149f2	-0.017735455
177	0x3d8dfc09	0.069328375
178	0xbe0877bf	-0.1332693
179	0x3dcde0d8	0.10052651
180	0xbdb27cb9	-0.08715195
181	0x3d819c82	0.063286796
182	0xbd712cb7	-0.058880534
183	0x3e0d1773	0.13778476
184	0xbc5af261	-0.013363452
185	0x3e049e08	0.12950909
186	0x3dd37210	0.1032449
187	0x3db21ff5	0.086975016
188	0x3dd4fdbd	0.10399959
189	0x3e145f8b	0.14489572
190	0xbde4d2d7	-0.11173027
191	0xbdcfd6c6	-0.10148387
192	0x3c9d2bd1	0.019185932
193	0xbd66cd45	-0.056348104
194	0xbe03e8ad	-0.12881728
195	0x3c354ca5	0.011065637
196	0x3de976d0	0.11399615
197	0xbd77ade5	-0.060468573
198	0xbe147208	-0.14496624
199	0x3d903d49	0.07042939
200	0xbe000635	-0.12502368
201	0xbd031de3	-0.032010924
202	0x3d20e3ce	0.03927975
203	0x3e125b89	0.1429273
204	0xbdd3d729	-0.10343773
205	0xbe1f527a	-0.15558806
206	0xbe08ba9d	-0.13352437
207	0xbd53f293	-0.05174501
208	0xbd46d7d8	-0.04854569
209	0xbd6d6cba	-0.057965018
210	0x3d17cd03	0.03706075
211	0xbda51aee	-0.08061777
212	0xbc7c2839	-0.015390449
213	0x3d987792	0.07444681
214	0x3cca920a	0.02472784
215	0xbdd00715	-0.10157601
216	0xbdec1f5c	-0.11529419
217	0x3da72004	0.08160403
218	0xbcf1a82a	-0.029499132
219	0x3acf5539	0.0015818245
220	0xbd1bc934	-0.03803368
221	0xbd86c094	-0.065797
222	0x3d0f6b82	0.035014637
223	0xbd913c47	-0.07091575
224	0xbd9f8886	-0.07789712
225	0x3c483af1	0.012221084
226	0xbdf0710c	-0.11740312
227	0x3e00b2f0	0.12568259
228	0x3dd3566a	0.103192165
229	0xbdc471d0	-0.095920205
230	0x3dd49a6e	0.103810176
231	0xbb49022b	-0.0030671458
232	0x3d179a62	0.037012465
233	0xbc1d1d0c	-0.009589445
234	0x3c84b925	0.016201565
235	0xbca47707	-0.020076288
236	0xbe0cb04f	-0.13739131
237	0x3da856e9	0.08219702
238	0xbc7f696d	-0.0155891
239	0xbe1cf770	-0.15328765
240	0xbd1e0f55	-0.03858884
241	0xbe0d36f9	-0.13790502
242	0x3e1895c5	0.14900883
243	0x3b081010	0.0020761527
244	0x3dfe7278	0.12424177
245	0xba953574	-0.0011383728
246	0xbd805ff1	-0.06268299
247	0xbdebb648	-0.11509377
248	0xbb58e354	-0.0033094482
249	0xbdf1771e	-0.11790298
250	0x3d1841dd	0.037172187
251	0xbdf6a6c4	-0.12043527
252	0x3dd5d965	0.10441855
253	0x3d63f08c	0.055649325
254	0xbe03926f	-0.12848829
255	0xbdd05206	-0.10171895

onnx::LSTM_115 f4 [1, 512, 128]
0	0xbdaa9677	-0.0832948
1	0x3dfc1f35	0.1231064
2	0xbd8dd109	-0.06924636
3	0xbe02badc	-0.12766594
4	0xbdc2a5ba	-0.09504266
5	0xbe112fb0	-0.14178348
6	0x3da2fa31	0.079578765
7	0x3de801df	0.11328482
8	0x3d779174	0.06044145
9	0xbd70e887	-0.058815505
10	0xbd6faec9	-0.058516297
11	0x3d7e91b6	0.06215068
12	0xbd333bee	-0.043758325
13	0xbdc50dcb	-0.096217714
14	0x3cdfca88	0.027318254
15	0x3d8110d0	0.06302035
16	0x3e28d8fb	0.16489021
17	0x3cdde8b6	0.027088504
18	0x3ddee236	0.1088299
19	0x3dec9ebd	0.115537144
20	0xbe388cdb	-0.18022482
21	0x3c992ffc	0.018699639
22	0xbe057c21	-0.13035633
23	0xbd76c4fa	-0.060246445
24	0x3c39a164	0.011329982
25	0xbe1a63f1	-0.15077187
26	0xbd4ae022	-0.049530156
27	0x3df9314f	0.12167608
28	0xbd62d5ae	-0.055379562
29	0xbd191c6f	-0.037380632
30	0xbe2299d4	-0.15878993
31	0xb9f4bfea	-0.00046682294
32	0xbdcf8a06	-0.10133748
33	0x3d712939	0.058877204
34	0x3e249a85	0.1607457
35	0xbdc76601	-0.097362526
36	0x3d7f3783	0.0623088
37	0xbc328ba6	-0.010897553
38	0xbdd5cffa	-0.10440059
39	0xbdbe8509	-0.09302718
40	0xbd08e4ac	-0.033421203
41	0xbdca49d0	-0.0987736
42	0x3d99081b	0.07472249
43	0xbc9077ad	-0.01763519
44	0x3d5920cf	0.053009804
45	0x3de5ad35	0.11214677
46	0xbe1dfc60	-0.15428305
47	0x3dace2b9	0.084416814
48	0xbd31cb81	-0.043406967
49	0xbb5a7663	-0.0033334724
50	0xba896ead	-0.0010485254
51	0x3dfc04f3	0.123056315
52	0x3a31ebf2	0.0006787173
53	0xbddd04e9	-0.10791952
54	0xbd452419	-0.04813013
55	0xbcb272d8	-0.021783277
56	0x3c85d749	0.016338008
57	0x3d9fa446	0.077950045
58	0x3e190cfd	0.14946361
59	0x3e147983	0.14499478
60	0xbe0a9afc	-0.13535684
61	0x3de8ecdc	0.11373302
62	0x3e02b38b	0.12763803
63	0xbe21b797	-0.1579269
64	0xbd082432	-0.033237644
65	0x3c23f6b1	0.010007546
66	0xbdca2112	-0.09869589
67	0x3d8aeb71	0.06783188
68	0x3df080b5	0.11743299
69	0xbc9809f1	-0.018559428
70	0xbdf1b19a	-0.11801453
71	0x3d800786	0.06251435
72	0xbdf98f96	-0.1218559
73	0xbde03304	-0.109472305
74	0x3de8ef88	0.11373812
75	0xbd4d1adb	-0.05007444
76	0xbc646338	-0.013939671
77	0xbd84677e	-0.06465052
78	0x3c564ae8	0.0130793825
79	0xbd93a1cf	-0.07208597
80	0xbcee1006	-0.029060375
81	0x3dcd1913	0.10014548
82	0xbdc3a6db	-0.095533095
83	0x3dd34386	0.103156134
84	0xbdcb13f1	-0.09915913
85	0xbdab5c55	-0.0836722
86	0xbe23d12f	-0.15997766
87	0xbd99f855	-0.07518069
88	0x3d35d9eb	0.044397276
89	0xbd19cb25	-0.03754725
90	0xbce95af3	-0.02848575
91	0xbc83e3b7	-0.016099794
92	0xbde31c58	-0.110893905
93	0x3dd6cdae	0.10488449
94	0x3deecb03	0.11659815
95	0x3d726445	0.059177656
96	0x3caf19ac	0.021374546
97	0x3d96ad02	0.07357217
98	0x3e1f1a24	0.15537316
99	0x3d5299da	0.051416256
100	0x3d8c76ec	0.0685862
101	0x3df325f4	0.11872473
102	0x3e09b85e	0.13449237
103	0xbc69afbe	-0.014263092
104	0xbd33ddb8	-0.04391262
105	0x3dfff4eb	0.12497886
106	0xbdcbc87f	-0.09950351
107	0xbd36fbb2	-0.04467363
108	0xbdee6e84	-0.11642173
109	0xbd900893	-0.070328854
110	0xbd80d0fc	-0.062898606
111	0xbdc5970f	-0.09647953
112	0xbdeb2952	-0.114824906
113	0x3e0ff75c	0.14059204
114	0x3de6bc17	0.11266344
115	0xbb5dbca2	-0.0033834358
116	0xbd556d8c	-0.052106425
117	0xbbaf02a0	-0.005340889
118	0xbdbd4ae8	-0.09242803
119	0x3c9f7299	0.019463824
120	0xbddd5274	-0.10806742
121	0x3d204a51	0.039133374
122	0xbd897608	-0.06711966
123	0x3de30d04	0.11086467
124	0x3e17e9a4	0.1483522
125	0x3dbfba13	0.09361663
126	0x3dc122c4	0.09430459
127	0x3d8d4458	0.06897801
128	0x3db003a6	0.08594446
129	0xbdc98c5f	-0.09841227
130	0xbcac0c13	-0.021001851
131	0xbe022a23	-0.12711386
132	0x3d58a5c4	0.05289246
133	0xbd3adefb	-0.045622807
134	0xbd962830	-0.07331884
135	0x3e1d6ea2	0.15374234
136	0x3d8897e2	0.06669594
137	0x3dfc851a	0.123300746
138	0xbdd5bf83	-0.104369186
139	0x3d0624bd	0.03274988
140	0x3dbfedca	0.093715265
141	0x3dbb372b	0.09141382
142	0x3dfaa827	0.12239104
143	0xbd83758e	-0.06418906
144	0xbe01a3cb	-0.12660138
145	0xbdc7ff2f	-0.09765469
146	0xbc809524	-0.015696116
147	0x3cabc580	0.020968199
148	0xbdd9a8e0	-0.106279135
149	0xbd0739ca	-0.033014096
150	0xbccc44da	-0.024935175
151	0x3db631ae	0.088961944
152	0xbdf4f92c	-0.11961588
153	0xbd5e246d	-0.054233957
154	0x3db5a575	0.08869449
155	0x3dec8c27	0.115501694
156	0x3dae29c2	0.085040584
157	0x3e2d6cc1	0.16936018
158	0x3e0bf6df	0.13668393
159	0x3ab461a3	0.0013762008
160	0xbc7ff23a	-0.015621716
161	0xbcf99814	-0.030468024
162	0xbdf6b7f1	-0.12046803
163	0xbe265bb5	-0.16245921
164	0xbd584b25	-0.05280604
165	0x3d82a7ff	0.06379699
166	0xbc4cfe54	-0.012511808
167	0xbcba1972	-0.022717211
168	0xbe0b9ed2	-0.13634804
169	0xbdfc8bc8	-0.12331349
170	0xbc9ce9f6	-0.01915453
171	0x3c6eb5ac	0.014569681
172	0x3d034946	0.0320523
173	0x3b047433	0.0020210862
174	0xbca670ad	-0.0203174
175	0x3df1682a	0.11787446
176	0xbe262dcd	-0.16228409
177	0x3df27136	0.118379995
178	0xbd9ff05e	-0.07809518
179	0x3d493254	0.049120262
180	0x3dd908e0	0.10597396
181	0x3d00c236	0.031435214
182	0x3da47c5f	0.080315344
183	0x3c066014	0.008201618
184	0x3e031cfb	0.12804024
185	0xbd920619	-0.07130069
186	0x38a7f9c8	8.009706e-05
187	0xbdc7684e	-0.097366914
188	0x3e1a3b34	0.15061647
189	0xbc8c140c	-0.017099403
190	0x3caec9a1	0.021336379
191	0x3d76971c	0.060202703
192	0xbbafa268	-0.0053599365
193	0x3d12c453	0.03583176
194	0xbdbdf98e	-0.092761144
195	0x3bd38628	0.0064552017
196	0x3cd1aef5	0.025596121
197	0xbdc3b0fe	-0.09555243
198	0xbe1103dc	-0.14161628
199	0xbe2c2ce2	-0.16813996
200	0xbe0adead	-0.13561507
201	0xbd1fd489	-0.03902105
202	0xbda59316	-0.08084695
203	0x3dd7b88b	0.10533246
204	0x3cbf3f55	0.023345629
205	0xbdd47262	-0.10373379
206	0x3d0f06e2	0.034918673
207	0xbdb2a307	-0.08722501
208	0x3dc4c116	0.09607141
209	0x3dc19a42	0.094532505
210	0x3de5f1fc	0.112277955
211	0xbd3514d7	-0.044209328
212	0xbd8c7d2a	-0.06859811
213	0xbdee0739	-0.11622471
214	0xbdb09cd9	-0.08623666
215	0x3dd0e214	0.10199371
216	0x3d970ad5	0.07375113
217	0xbd7ac40d	-0.061222125
218	0xbd05ef20	-0.03269875
219	0x3e0bf843	0.13668923
220	0xbd8df7e0	-0.06932044
221	0x3b4c89c6	0.003121005
222	0x3d07f607	0.033193614
223	0xbdaec35d	-0.08533356
224	0x3dddebde	0.10836004
225	0xbe0205d4	-0.12697536
226	0xbd8a9f8a	-0.06768711
227	0xbe0fb2bc	-0.14033026
228	0x3d1c1688	0.038107425
229	0xbe1bd821	-0.15219165
230	0xbd902188	-0.070376456
231	0x3d50e71d	0.051001657
232	0x3d5212a1	0.051287297
233	0x3d49c962	0.04926432
234	0xbd68b420	-0.056812406
235	0xbb92deb9	-0.004482117
236	0xbdaa26f9	-0.08308215
237	0x3d0a97cf	0.033836182
238	0x3e0f6141	0.14001943
239	0xbc3e0052	-0.011596756
240	0xbdeb21f3	-0.11481085
241	0x3c7fde39	0.015616947
242	0xbd9e4431	-0.0772785
243	0xbc855b49	-0.01627888
244	0xbbf6d5de	-0.007532819
245	0xbd9e3912	-0.07725729
246	0xbe2045cf	-0.1565163
247	0x3dc2878e	0.09498511
248	0x3e02c433	0.12770157
249	0xbd297fae	-0.04138153
250	0xbdeb7441	-0.11496783
251	0x3e1cd243	0.15314583
252	0xbdf4caf8	-0.11952776
253	0xbe193e2a	-0.1496512
254	0x3ccb8e5a	0.024848152
255	0xbe0e5f90	-0.13903642
