Machine-Learning-DRL/results/SeekerTraining/Seeker/Seeker-499974.onnx (onnx, 610983 bytes, 11 tensors)

discrete_act_size_vector f4 [1, 2]
000000 00 00 80 40 00 00 80 3f
       4.0 1.0

network_body._body_endoder.seq_layers.0.weight f4 [128, 8]
000000 e8 d1 0d 3d 87 b7 8b 3e f5 c1 32 bf 98 be 0b be
       0.03462401 0.27288458 -0.69827205 -0.13646924
000010 34 40 fe 3c bf 23 f1 3e b8 25 b9 3e 9f aa 92 3e
       0.031036474 0.47097585 0.3616159 0.286458
000020 35 52 5c 3e dc e1 91 3c 45 ab c5 be 3c a4 05 bf
       0.21515734 0.017807893 -0.3860723 -0.52203727
000030 27 90 7d 3e bf 8e 5c 3e 4b 11 07 3e c8 58 a5 be
       0.24762021 0.21538828 0.1319019 -0.32294297
000040 9c 17 d2 3e 3b b4 88 be 32 fd 0e be b4 50 1d 3e
       0.41033638 -0.26700005 -0.13963774 0.15362817
000050 15 44 d4 be 84 83 39 bd 8d 30 69 3e 4e 7d 72 be
       -0.41458192 -0.04529144 0.22772427 -0.23680612
000060 16 2d 97 3e d3 46 00 bf b5 1e 90 be 5c 3c f0 3d
       0.29526585 -0.5010807 -0.28148428 0.11730263
000070 77 2a 68 3e d8 23 8e be 3a 5f d6 be 8c cc e2 3d
       0.22672449 -0.27761722 -0.41869527 0.110741705
000080 4d 90 a7 3d 3f 9b c9 3e da 7b a7 3e b8 9c 5d 3d
       0.0818182 0.39376256 0.3271168 0.054104537
000090 b0 3b a8 3e 02 f6 1f bf f5 d8 f6 be 39 c4 c9 bd
       0.32858038 -0.62484753 -0.482124 -0.098518796
0000a0 e4 52 28 bf 71 41 c2 3d c8 4f 8a be 05 eb 0d 3f
       -0.6575148 0.09485138 -0.27013993 0.55436736
0000b0 1b 60 1a bf 90 df 20 3e de c7 45 3f ef af 05 bf
       -0.60302895 0.15710282 0.772581 -0.5222158
0000c0 14 83 68 3e a0 0d 16 3d a6 a7 04 bf 21 00 4b 3e
       0.22706252 0.036634088 -0.5181831 0.19824268
0000d0 73 95 98 3d 0d 8c 47 3d 1d 21 ca bd e6 81 f4 3e
       0.0745038 0.048717547 -0.09869597 0.47755355
0000e0 6a 27 34 be 11 8a 86 3e bd 41 80 3d fd 90 be be
       -0.1759316 0.2627721 0.062625386 -0.37219992
0000f0 3c 7d a0 3e 9c 6f 0d 3f 8e 13 4d 3f 4a bb b6 3d
       0.31345546 0.5524843 0.80107963 0.08922441
000100 0a 17 14 3d a6 d3 fc be 38 99 b4 be 79 3e 51 3c
       0.036154784 -0.49380225 -0.35273147 0.012771242
000110 c1 8d 82 3d 84 98 d3 3d 2d c5 bf be c5 0e 02 be
       0.06374694 0.103318244 -0.3745512 -0.12700947
000120 6e 73 9e 3e a1 00 06 3f 92 5f f5 3e 30 2e 1f bc
       0.3094744 0.5234471 0.47924477 -0.009715602
000130 0d 7d db 3e 84 f0 98 be cc 0d 85 bb bb 9e 10 be
       0.42868844 -0.29871 -0.0040604826 -0.14123051
000140 b1 e2 23 3e fa cf 0e 3d 19 34 ac 3e f4 07 86 be
       0.16004445 0.03486631 0.33633497 -0.26177943
000150 6e 52 68 bf 66 6a 6b 3d 7b cc 10 bf f5 23 1b 3c
       -0.9075078 0.057474516 -0.5656201 0.009469022
000160 41 b3 b5 3c bf 8f ab bd 32 4e dc be 37 1b 1d 3f
       0.022180201 -0.08377027 -0.43028408 0.6136965
000170 99 74 ce 3e 0f f1 26 3e 80 f8 79 3d 30 8e 54 3d
       0.40323332 0.16302894 0.061028004 0.051893413
000180 d2 f6 5c 3e 4e f6 ad bc 58 ee cf 3e 18 ca b2 bd
       0.2157853 -0.021235611 0.4061153 -0.087299526
000190 9c 43 86 3d 4c 38 80 be 6b d2 8c be db 86 b9 3e
       0.06555864 -0.2504295 -0.27504286 0.362357
0001a0 1d b6 9a 3e dd 97 28 be 9b fc 07 3f 34 49 88 3e
       0.30217066 -0.16464181 0.5311982 0.2661835
0001b0 cc b3 4b 3f af 24 aa bd 34 45 e0 3d b6 5b 17 bc
       0.79571223 -0.08307778 0.109506994 -0.009238174
0001c0 4f 9d 8d be 9d bf f8 3e c0 3e 27 bd 32 61 88 bf
       -0.2765908 0.4858369 -0.040831327 -1.0654662
0001d0 b0 59 2e 3b 11 d0 9a 3d db 31 21 3e 68 b7 c7 be
       0.002660375 0.07559217 0.15741675 -0.39007115
0001e0 62 75 99 3e e4 9b be 3e af 79 8a 3e 05 5b 51 be
       0.29972368 0.3722831 0.27045962 -0.20444877
0001f0 65 6c e9 3d bb 20 94 be cf 93 2d bf d4 cf 3b be
       0.11397628 -0.2893122 -0.67803663 -0.18340999
000200 30 76 74 3f c1 90 83 be f4 6d 38 3e 4d 63 8d be
       0.9549284 -0.25696376 0.18010694 -0.27614823
000210 ac 1e e2 3e 46 17 9e 3e 7e 58 1b bd 80 9d 2c 3d
       0.44164026 0.3087713 -0.03792619 0.04214239
000220 68 ed 12 3e 56 90 a9 be 5b 66 1e 3e f1 4a 70 be
       0.14348376 -0.33117932 0.15468733 -0.23466088
000230 fa b9 74 3e c6 ad be be 72 27 a7 be e4 50 b9 3d
       0.2389907 -0.37241954 -0.32647282 0.09048632
000240 cd a4 7c bd 8a 83 50 3e 30 ad 98 be cb 46 e9 be
       -0.061680604 0.20362678 -0.29819632 -0.45561823
000250 5f de bf 3e a5 16 7a 3e 1a f9 4b 3e bb de 53 3d
       0.37474343 0.244227 0.19919243 0.051726084
000260 fe 8c 80 3e 88 6b 07 bf ce 02 18 3e 0e 0a 06 3d
       0.25107569 -0.52898455 0.1484482 0.032724433
000270 44 9b d5 be d8 79 80 bf 1a 19 99 be ef be 74 3e
       -0.4172002 -1.0037184 -0.29901963 0.2390096
000280 8d 99 d3 be b3 11 a1 3e 74 73 da be 00 2a 21 3f
       -0.41328087 0.31458816 -0.4266621 0.6295471
000290 b4 1c 40 3e a4 12 3b be 34 69 da 3e ef 5e 41 3e
       0.1876095 -0.1826883 0.4265839 0.1888387
0002a0 b5 89 97 bc 38 06 3a 3f 6d 68 d3 3e a3 71 b4 be
       -0.018498281 0.7266574 0.41290608 -0.35242948
0002b0 a4 3e b1 3e f6 5d 42 3e 53 b6 0d 3f 60 1d ad be
       0.34618104 0.18981156 0.5535633 -0.33811474
0002c0 68 5a df 3e 7b 36 f4 be e8 99 ff be f4 ec 19 3f
       0.43623662 -0.47697815 -0.4992211 0.60127187
0002d0 bf 79 11 3e f1 d3 1d be 2f e7 fd bd 51 1b 1c 3e
       0.14206599 -0.1541288 -0.123976104 0.15244795
0002e0 47 67 95 be 97 ff 27 bf a5 33 04 3d b6 e3 2a 3e
       -0.29180357 -0.65624374 0.032275815 0.16688427
0002f0 f8 37 44 be e8 45 ba 3e 57 d9 84 bd 1d e2 d6 bd
       -0.19161975 0.3638146 -0.06486767 -0.104923464
000300 26 69 bb be 75 c8 61 be a5 5d 68 3e af 3c 05 bf
       -0.3660366 -0.22049125 0.22691973 -0.5204572
000310 e1 66 0e be 3e af 05 bf 2e de 96 3d 44 6b b8 3d
       -0.13906433 -0.52220523 0.07366596 0.09004834
000320 5a b7 83 3e 6a 92 f1 3e 1a e9 1b bd 37 02 16 3f
       0.25725824 0.47182018 -0.0380641 0.5859713
000330 d5 45 2a 3d 22 9c b6 3e 31 71 06 bf e4 c2 7a 3e
       0.041570503 0.35665995 -0.52516466 0.24488407
000340 51 8a b7 be 1d 58 1d be 9c 00 5b 3f 24 6d f7 3e
       -0.35847715 -0.15365644 0.85547805 0.48325455
000350 43 eb 1e bf 05 e0 f0 be 2e 00 8b be 50 7e 90 3e
       -0.6207773 -0.47045913 -0.27148575 0.2822137
000360 04 6b fa be c2 cf ec bd 6b f9 0a be 5a ce af 3e
       -0.4890977 -0.11563064 -0.13571708 0.3433712
000370 72 4c d7 be 67 8a 8b 3e d4 94 d5 3e 8a 3b 8e be
       -0.4205051 0.2725403 0.4171511 -0.277798
000380 47 0c 1a be 0d 33 cd 3c a6 14 46 be 85 e8 e6 be
       -0.15043746 0.025048757 -0.19343814 -0.45099273
000390 a9 6d 07 be b7 ed 42 3e a6 14 68 be 31 f6 50 be
       -0.13225426 0.19035994 -0.22664127 -0.20406415
0003a0 17 39 8c 3e 79 4c 0d bf fb f8 30 bf 62 98 a0 3e
       0.27387306 -0.55194813 -0.69129914 0.3136626
0003b0 ef b9 6a 3d 64 87 bd bd 68 34 bf be 18 0e bd be
       0.057306226 -0.09254339 -0.3734467 -0.36924815
0003c0 7f 03 19 3e f4 b5 be 3e 64 2c dd 3d 28 d6 31 bf
       0.1494274 0.37248194 0.107994825 -0.694674
0003d0 df ae fc 3d d3 d0 49 bc ac a6 49 3e 86 75 33 3e
       0.123380415 -0.012317854 0.19692487 0.175253
0003e0 70 67 bb be 18 c8 e6 3e 77 71 a7 3c 10 9e c8 3d
       -0.36602354 0.45074534 0.020439846 0.09795773
0003f0 fb 8c 56 bd 5d a8 8c be ca 0e 71 be b3 91 69 bd
       -0.052380543 -0.274722 -0.23540798 -0.057023715

network_body._body_endoder.seq_layers.0.bias f4 [128]
000000 81 31 f6 bb b9 55 ec ba d6 1a 6a bc e6 05 a2 39
       -0.0075132255 -0.0018030918 -0.014288625 0.00030903443
000010 20 74 b9 bc 27 24 0f 3d 51 88 39 bc ff c3 f2 3b
       -0.02263838 0.034946587 -0.011324004 0.0074086185
000020 ce 47 2f 3c 2e 8a 7a bb 5a 16 9d bb a1 29 45 bd
       0.010698272 -0.0038229334 -0.0047939243 -0.048135404
000030 25 a5 18 bc c9 0f cd 3b a2 94 35 3a 8f 89 03 bc
       -0.009316717 0.0062579853 0.000692675 -0.008028402
000040 6e b6 f9 bb aa b7 0d 3b 37 22 cd 3b 50 11 e8 bb
       -0.0076206243 0.0021624365 0.0062601822 -0.007082142
000050 08 f0 82 bc 51 3a a3 3b 23 9e f1 3c be 37 c0 b8
       -0.015983596 0.004981317 0.02949435 -9.165656e-05
000060 de cd 30 3a f0 00 63 b9 10 97 df 3c 90 da 5a b8
       0.0006744544 -0.00021648756 0.027293712 -5.2178802e-05
000070 73 c5 0c 3c 92 4f 7a 3c e8 65 7e 3b ca ec da bc
       0.008591997 0.01527776 0.0038818065 -0.026724238
000080 e3 a3 0d bc 38 95 85 3a c4 05 b2 3c 44 3f 1c bd
       -0.008645031 0.0010191565 0.021731265 -0.038146272
000090 6d 1f f0 3c 1c d6 2b bc 91 8e 8d 3b e3 5f ad bc
       0.02931186 -0.010488059 0.0043199738 -0.021163886
0000a0 00 9a 09 3d bc 80 28 bb 81 b9 86 39 c5 c2 f6 ba
       0.03359413 -0.0025711497 0.00025696683 -0.0018826356
0000b0 ec dd 8f 3b 2c a9 92 3b 82 01 b9 3a af 3d 8a ba
       0.004390469 0.0044757333 0.0014114829 -0.0010546948
0000c0 dd 24 e1 3b da 5a b5 3a d3 6d 79 bb fb 31 af bc
       0.0068708495 0.001383628 -0.0038059845 -0.021386137
0000d0 ae 95 94 3c cf a0 44 bc 8c b1 26 bc 9f 3a 12 3b
       0.01813778 -0.01200123 -0.010174166 0.0022312773
0000e0 bd a9 20 3c 91 3d 7a ba f6 0b 0a 3c 3d 76 c9 bc
       0.009806094 -0.0009545917 0.008425703 -0.024592513
0000f0 27 02 f9 3b 73 ff 56 3c 57 ff bf bb fb 60 ba bc
       0.0075991335 0.013122427 -0.0058592963 -0.022751322
000100 fd 2a 8b 3d e0 82 7d 3b 5f 96 91 3d 63 57 56 bc
       0.06795309 0.0038682744 0.07108759 -0.013082358
000110 fc 2e 4a 3b a3 6f 2e bc 31 05 2c bc 9d 6b d1 bb
       0.0030850759 -0.010646733 -0.010499285 -0.0063910023
000120 27 53 27 3a 0d 4c 56 bb 45 81 70 bc 15 e6 3c bc
       0.0006382935 -0.0032699138 -0.014679258 -0.011529465
000130 c6 40 80 bc 02 17 41 3a 5f 0e d0 bb 56 e8 66 3c
       -0.015655886 0.0007365794 -0.0063493694 0.014093479
000140 1e 9b 02 39 94 82 a4 bc de f2 19 bb 6c 83 24 3b
       0.00012455552 -0.020081796 -0.0023490707 0.0025102748
000150 91 ed ba 3c 2a 9c 53 bc 9b b2 05 bc 35 69 e5 3c
       0.022818359 -0.01291565 -0.008160259 0.028004268
000160 01 56 37 bc 24 11 24 bb a7 8c 29 bc 5f 81 74 bb
       -0.0111899385 -0.002503463 -0.010348476 -0.0037308556
000170 06 38 25 bb c4 e8 7b bb 1e 10 17 3c 2f 3c df 3b
       -0.0025210395 -0.00384383 0.009220151 0.0068125944
000180 fd 7c 98 3b c1 78 73 3c 53 da 50 bc 8f 2c ab 3c
       0.0046535716 0.014860333 -0.012747365 0.02089527
000190 f1 46 39 bc b5 40 0b 3c 4d 18 b7 3c 30 5e a6 3c
       -0.011308418 0.008499314 0.022350455 0.020308584
0001a0 78 c6 b3 bb e4 fb 38 3b a0 ae 42 bc f8 30 24 3c
       -0.005486306 0.002822631 -0.011882454 0.010021441
0001b0 0a c2 d3 bc 34 ad 42 3c ff 41 8a 3c 99 b7 a5 bb
       -0.025849361 0.011882115 0.016877173 -0.005057287
0001c0 e8 0b 72 3c e8 a7 5f 3c 7f b6 f8 3b 88 5d c4 bb
       0.0147733465 0.013650872 0.0075901146 -0.005992595
0001d0 86 d7 0d bd ff a8 c1 bc 6b 14 5e bb 39 b2 05 3c
       -0.034629367 -0.023640154 -0.0033886682 0.008160167
0001e0 b4 cd 9a bc 36 78 69 bc 95 87 42 3b ec 0b 06 bc
       -0.018896915 -0.014249852 0.0029682864 -0.008181553
0001f0 76 61 ef bc 76 fe 2a bb a6 40 a3 bb c3 59 41 3c
       -0.029221278 -0.0026091612 -0.004982072 0.011801186

network_body._body_endoder.seq_layers.2.weight f4 [128, 128]
000000 aa 5b e9 3d 8b 97 96 3d de 83 2c 3e 53 d0 ea 3d
       0.11394437 0.07353123 0.16847178 0.11465516
000010 93 dd 44 3d 82 60 92 bd b0 de e9 3c 0e c1 83 3c
       0.048062872 -0.07147314 0.028548568 0.016083267
000020 9c f9 d8 3b 5b f7 c1 bd 57 45 d0 3d cd 95 83 bd
       0.0066215526 -0.094710074 0.101694755 -0.064250566
000030 75 f6 1b be 28 f9 aa bd 88 d9 aa bd b5 08 b3 bd
       -0.15230735 -0.08348304 -0.08342272 -0.08741895
000040 9a 33 88 bc a4 04 1f 3e 66 4f a2 bd 81 76 74 3d
       -0.016626168 0.15529114 -0.079253 0.059683327
000050 39 f0 17 3e 6d 7f 56 bd 7a db fb 3d 8f 30 4b 3d
       0.14837731 -0.052367616 0.12297721 0.049606856
000060 d5 1e 68 bd 8d 40 2d bd 53 e4 b8 bc 21 69 f7 bc
       -0.05667003 -0.04229789 -0.022569811 -0.030201497
000070 32 45 2c 3d 8b 16 2d 3d bc 1e 61 3d 6c 96 77 bc
       0.042058177 0.042257827 0.05496095 -0.015111547
000080 e8 29 83 3d 32 c6 b9 bc 66 0a b1 bc 65 25 8f bd
       0.06404477 -0.022677515 -0.021611404 -0.06989554
000090 77 cc b9 bb ad a9 9d 3d 31 42 5b bd a1 45 d4 bc
       -0.005670126 0.07698379 -0.053529922 -0.025912108
0000a0 84 0b 4d 3e 0e 56 66 3d b5 1d 99 3d 65 41 c3 3b
       0.20023924 0.056234412 0.07476369 0.0059587234
0000b0 b4 c0 6a 3e 1b 21 19 bc 95 29 c7 3d 03 77 7b 3e
       0.22925073 -0.009346272 0.09724728 0.24557118
0000c0 04 56 97 3d 6a 3d 23 bc 40 21 5d bd e6 62 cc ba
       0.07389453 -0.009963373 -0.053986788 -0.0015593439
0000d0 0a 98 33 bd 67 c2 96 3d 31 39 dd bb cf 02 c9 3c
       -0.043846168 0.07361298 -0.0067512025 0.024537472
0000e0 17 19 c4 bd fe d2 f1 3c ff b8 18 bd 24 c3 02 be
       -0.09575098 0.029519554 -0.0372858 -0.12769753
0000f0 45 f4 ba 3d 91 5e 72 bd 73 21 98 bc 44 27 05 3e
       0.09128622 -0.059172217 -0.018570637 0.1300326
000100 75 67 9f bd 16 3f 65 3d 8f 48 e1 3c 94 21 83 3b
       -0.07783405 0.055968367 0.027500419 0.0040018056
000110 46 cb 1c bd 30 f3 0c 3d 32 e9 1b 3e 9e d4 f9 bd
       -0.038279794 0.03441161 0.15225676 -0.12198757
000120 db f5 10 3d e8 19 b5 3d 61 11 30 3e 30 fe c5 bd
       0.035390716 0.08842832 0.1719413 -0.09667623
000130 71 9e c2 bd c6 e6 05 bc a2 75 9e bb 95 fe 53 bd
       -0.095028765 -0.008172696 -0.0048358003 -0.05175646
000140 46 c5 a5 3d 40 c2 c3 3d 66 95 39 3d 26 62 23 3e
       0.080942675 0.095585346 0.045308493 0.1595541
000150 65 a3 47 3d fd 58 73 bd 70 f8 58 3d f3 08 a4 bc
       0.04873981 -0.059411038 0.052971303 -0.020023799
000160 39 23 aa 3d 97 5a ae bd fb 99 92 3c 19 b3 20 3a
       0.083074994 -0.085133724 0.01789569 0.0006130203
000170 60 5b 7c 3d d1 5b 1e 3d 54 93 69 3d 8f 86 92 bb
       0.06161058 0.03866178 0.05702527 -0.004471607
000180 51 43 94 3d 6a 30 f5 3d 74 51 00 bb 48 d4 11 bb
       0.07239402 0.11972125 -0.00195798 -0.0022251774
000190 ab 90 16 3d c0 5d 04 bd 5d 0f 59 3d 24 c8 d6 bd
       0.03675906 -0.03231597 0.052993167 -0.104873925
0001a0 22 05 c5 3d b3 fb a2 bd c8 fa be 3d 07 b2 b6 3d
       0.0962012 -0.07958164 0.093251765 0.08920675
0001b0 6f 99 3e 3d e2 ea cb bd 1e 8b 3d 3d e8 f8 ad 3d
       0.046533044 -0.0995691 0.04627525 0.08494741
0001c0 57 80 28 3d fa d1 ef bc e5 03 81 bb 34 d0 e0 bd
       0.04113802 -0.02927493 -0.003937232 -0.109772116
0001d0 26 12 b1 bc 2e 43 0a 3e c7 b3 fb bd e1 51 e5 3d
       -0.0216151 0.1350219 -0.12290149 0.11197258
0001e0 1c 51 48 3d 06 e9 9e 3c 38 08 74 bd a9 c8 46 3d
       0.048905477 0.019398224 -0.05957815 0.04853121
0001f0 08 35 8f bc 13 86 af bd a0 d0 ca 3b 57 0a 45 3d
       -0.017481342 -0.085704945 0.006189421 0.048105564
000200 7a 46 97 3d 44 5d 40 bd 3c 17 1c 3c 0d a1 3c bd
       0.07386489 -0.046963945 0.009527024 -0.046052027
000210 69 07 23 bd 7d b2 8f bb 6f 99 07 be 32 9b 66 3d
       -0.03980199 -0.004385291 -0.13242124 0.05630035
000220 f2 e9 98 bd 0c 60 86 be 4a 4a 0a bd 76 a0 b5 3d
       -0.074664965 -0.26245153 -0.033762254 0.08868496
000230 a1 0b e0 3d 88 e2 c8 3d 69 99 58 bc b9 41 c9 bd
       0.10939718 0.098088324 -0.01322017 -0.09826989
000240 92 1c 4d 3d aa e2 a4 bd af dc e8 bc d9 1c 05 3d
       0.050076075 -0.08051045 -0.028425543 0.032498214
000250 ca 59 b1 3d fc 8f ae bd 70 e2 b3 bc 5b 9a 0f 3e
       0.08659704 -0.085235566 -0.02195856 0.14023726
000260 3f 61 06 be 77 5f 5b 3d a3 d2 b6 3d 05 b1 37 3d
       -0.13123034 0.05355784 0.089268945 0.044846553
000270 c5 b3 e8 bc a0 2d 7c 3d b3 db 32 be a5 e8 e8 bc
       -0.028406033 0.06156695 -0.17466621 -0.028431246
000280 00 66 71 3d ef 05 e7 bd c0 d4 dc bd dd 48 51 bb
       0.058935165 -0.112804286 -0.10782766 -0.00319343
000290 57 ae 41 3e 06 38 53 bc 8a 16 84 bd 41 41 60 3d
       0.18914162 -0.012891775 -0.064496115 0.05474973
0002a0 c8 b8 8f bd 12 a9 3f bd a2 46 e9 3c fc 2f 3c 3b
       -0.07017666 -0.046792097 0.028476063 0.0028715124
0002b0 f6 96 27 3d ee a0 a4 3b 27 d0 e9 bc e0 f8 43 be
       0.040915452 0.005024067 -0.028541638 -0.19137907
0002c0 84 89 01 3e be 6d 00 be bf 83 0e 3e a4 8d 8b 3d
       0.12650114 -0.12541863 0.13917445 0.06814125
0002d0 c8 a6 21 3e dd bb 31 3d 63 5e 7a bc bb 58 83 bc
       0.15786278 0.04339205 -0.015281293 -0.01603352
0002e0 8e 0f e8 3d a2 68 ec 3c 99 20 e1 3d 18 12 65 3d
       0.11331092 0.028858487 0.10992546 0.05592546
0002f0 9d c1 c1 3d 61 a2 ab bd e0 ce 0b 3e c7 45 72 3d
       0.09460757 -0.08380581 0.13653135 0.059148576
000300 65 92 4e bd bd f3 0b bd 87 25 1c 3e e4 16 e4 bc
       -0.05043258 -0.034167994 0.1524869 -0.027842946
000310 a0 ab f4 bd d2 fd a6 bd 3c 96 7a bb d7 c4 74 3c
       -0.11946797 -0.08153881 -0.003823652 0.014939508
000320 79 af 06 3a 18 1e c9 3d e5 c9 b9 ba 24 f1 4c be
       0.0005137842 0.09820193 -0.0014174549 -0.20013863
000330 f3 52 a0 bd 43 37 fd bd 3f e2 ac bb 87 a9 77 bd
       -0.07828321 -0.12364056 -0.005275994 -0.06046441
000340 99 9c cd 3b f6 ae 56 be d2 a0 7d bd 94 2b 95 bd
       0.0062747714 -0.2096518 -0.06192095 -0.072837025
000350 62 05 9d 3d f0 bd 3e bd d9 51 c7 bd c6 b6 2c 3e
       0.07667042 -0.046567857 -0.09732408 0.16866598
000360 88 4f 12 3c f6 1a 9b 3d e7 d6 47 be 0a bd 9e bc
       0.008930095 0.07573502 -0.19515572 -0.01937725
000370 e7 8b 58 bd ff 01 09 be 8f 6d 53 3d 63 64 23 3d
       -0.052867796 -0.13379668 0.051618155 0.039890658
000380 9f 85 24 bd 7f eb 74 bd 55 64 82 3d a6 7f 54 bd
       -0.040166494 -0.0597949 0.06366793 -0.051879548
000390 30 16 db 3d 6d 86 70 3d eb c3 26 3d a3 a2 a8 bd
       0.10697591 0.05872195 0.040714186 -0.082341455
0003a0 3b 72 d9 bc c7 d2 b6 bd c6 50 b4 3d 2e a5 9a bd
       -0.026543727 -0.08926921 0.08804469 -0.07551037
0003b0 12 88 c7 bd 8e 5b f3 bd 53 0c 0e be d7 86 26 bd
       -0.0974275 -0.11882697 -0.13871889 -0.040655937
0003c0 9d 57 a7 bd 2f 6b 55 3d ee 3f 44 bd 90 be e1 bd
       -0.08171008 0.05210417 -0.04791253 -0.11022675
0003d0 ea 9d 28 be 98 f3 63 bc be 39 97 3d 67 60 bb 3b
       -0.1646649 -0.013913058 0.0738406 0.005718279
0003e0 0b 0b c6 3d 32 59 9b bb 2b f3 c7 3b 65 b2 34 3d
       0.09670075 -0.0047408575 0.006101986 0.044115443
0003f0 51 0d 02 3d 1d ba 79 be 4d b8 e9 bd 6f 5f 31 3c
       0.03175098 -0.24387403 -0.11412106 0.010825976

network_body._body_endoder.seq_layers.2.bias f4 [128]
000000 27 ea d2 bb 41 9f b8 bc c4 59 87 bc d2 f3 2e bc
       -0.0064366045 -0.022536876 -0.016522296 -0.0106782485
000010 d9 57 ce 3a 57 44 fd ba fb 78 4d 3c 3b 72 ac 3a
       0.0015742733 -0.0019322735 0.012541051 0.0013156602
000020 2a b9 b0 ba 33 9e 6b bc 73 21 e4 bb 9c f9 5e 3c
       -0.0013482918 -0.014380979 -0.0069619953 0.013609316
000030 5a 3e 54 3c 58 19 6e b9 8f 54 53 3b 19 59 51 bc
       0.012954319 -0.0002270689 0.0032246446 -0.01277759
000040 3b cb 3d 3c f2 b6 31 3c 77 ae b4 ba 35 08 48 39
       0.011584098 0.01084684 -0.0013784905 0.00019076544
000050 d9 dd 90 3c 44 df ff 3b 4e 10 ca 3b 10 40 fe bc
       0.01768391 0.0078085978 0.0061664945 -0.031036407
000060 8d dd 6b 39 8d ea f1 bb dd e4 86 bb 3f f1 13 bb
       0.0002249388 -0.007382697 -0.004116638 -0.0022574214
000070 80 2f c4 bb 8f 7b be ba 60 f2 f4 3b a2 68 3a 3c
       -0.0059871078 -0.0014532673 0.0074751824 0.0113774855
000080 5a 26 f5 3b d2 ec 05 bb 9e 7c 9d 3c 6e 2e 87 3b
       0.0074813785 -0.0020435345 0.019224461 0.004125408
000090 79 c4 20 bb 8e 41 63 bc e5 92 09 3c 0a 9a 37 3c
       -0.002453117 -0.01387061 0.008396839 0.011206159
0000a0 d4 db 0e bb 45 a0 48 3c 1f c4 21 3c 67 77 3a ba
       -0.0021798508 0.0122452425 0.009873419 -0.0007113129
0000b0 b1 95 4c bc 54 11 c8 3c d9 43 48 bc 29 1a b1 3b
       -0.012486861 0.024422325 -0.012223207 0.00540473
0000c0 aa 4b 15 3b 5f bd 71 b9 93 f2 19 3a ec bd 04 bc
       0.0022780695 -0.00023054097 0.0005872633 -0.0081019215
0000d0 46 cd 86 bc dd b6 aa 3b 58 f3 a4 3b a1 4e 5b bc
       -0.016455304 0.0052097873 0.0050338916 -0.013385446
0000e0 d5 36 10 bb 81 9f 38 3c ad f1 3d bc 4e a6 0c 3d
       -0.0022005339 0.011268497 -0.0115932645 0.034338288
0000f0 c4 6d 2f 3c 4b ad 8e 3c a0 d0 4a bb 4f 0f 9a b9
       0.0107073225 0.017416617 -0.0030947104 -0.00029384575
000100 27 c3 88 3b de bd ab 3c e7 52 05 bc bf fc 00 bc
       0.0041736546 0.02096456 -0.008137441 -0.007872759
000110 bf ef aa 3b 90 34 06 bc 79 38 b9 3b c9 07 b8 3b
       0.0052165682 -0.008191243 0.005652484 0.0056161624
000120 3e 77 ca 3b 78 58 9f bc eb 56 ed bb 0c 9b 92 bb
       0.0061787656 -0.019451365 -0.0072430274 -0.0044740494
000130 cf 14 b3 3c d0 bb 80 ba 84 c4 ca b9 2b 55 72 bc
       0.021860508 -0.0009821597 -0.00038674858 -0.014790813
000140 e3 50 4e bb 39 09 9d bc 39 2f 19 3c f4 98 36 bc
       -0.0031481318 -0.019169437 0.009349638 -0.011144865
000150 46 ed af ba d0 bd 38 3b 1f 34 8e 3c 5b 82 7f bb
       -0.0013422153 0.002818931 0.017358838 -0.003898761
000160 81 2b 51 bc 3d 83 f5 bb fd 8d 13 3a 7a 74 16 bc
       -0.01276672 -0.0074924515 0.0005628763 -0.009183044
000170 3d 19 3e 3b d3 3b 3b bb b1 70 6f 3c 4b 4f ca 3a
       0.0029006742 -0.0028569594 0.01461427 0.0015435008
000180 97 fa 5f 3c af e9 4e 3c d9 0d 5a bc ad ac 84 bb
       0.013670585 0.012628957 -0.013308966 -0.004048905
000190 a2 ff 26 bc d3 a5 59 bb 7e f4 b5 ba 20 90 f5 ba
       -0.010192784 -0.0033210411 -0.0013882068 -0.0018734969
0001a0 03 67 c4 ba a0 f5 4a bc 69 b0 02 3b 1b ee 6e bc
       -0.0014984313 -0.012387663 0.0019941574 -0.014583136
0001b0 e7 c5 c0 bb 3c 30 48 3c 9e 9e d6 ba 4b 21 e6 3b
       -0.005882967 0.012218531 -0.0016374176 0.007023012
0001c0 ab e8 ce bb 1b b7 89 3c d4 d4 42 3c e5 25 00 3c
       -0.0063143573 0.016810944 0.0118915625 0.007821535
0001d0 3a 29 44 3b ce 2b 77 3a 22 b4 3a 3c f8 b7 a9 3a
       0.00299318 0.00094288297 0.011395486 0.0012948504
0001e0 d3 a4 7c bc 85 05 8e bb 0f 82 61 3c d7 15 71 bc
       -0.0154201565 -0.004334154 0.013763919 -0.01471468
0001f0 34 47 f2 3b 4f 42 e2 bb 8c 11 b5 3a 5c 61 b6 3b
       0.007393742 -0.0069048773 0.0013814433 0.0055658054

action_model._discrete_distribution.branches.0.weight f4 [4, 128]
000000 dd 5f c8 3b b2 69 bb 39 78 41 c8 3c 52 1d 7c 3c
       0.0061149434 0.0003574617 0.02444528 0.01538785
000010 ef 39 05 3c 1d 15 f1 bb 04 a2 24 3c 69 21 96 3c
       0.008131488 -0.007357253 0.010048393 0.018326478
000020 3c 1a f1 bc f6 13 16 3d 1a 7e b9 3c 09 1f f3 bb
       -0.029431455 0.03664013 0.022643138 -0.007419471
000030 10 2d d9 3c 71 5e 14 bc 21 e7 90 3c cc 53 8b bc
       0.026510745 -0.00905572 0.017688336 -0.01700773
000040 58 a6 1e bc 31 d5 ab 3b f3 03 c9 bc f2 9d 60 3c
       -0.009683214 0.0052439203 -0.024538016 0.013709532
000050 49 b1 55 3c 16 fa ee 3b c5 1b 57 3b 88 39 f9 3c
       0.013042756 0.007292996 0.0032822948 0.03042294
000060 41 34 b3 bb 32 69 82 bc 96 7c d4 3b a0 c6 ae 3c
       -0.0054688756 -0.015919302 0.0064845784 0.021334946
000070 70 50 e5 39 59 b3 ca 3c 30 dc 22 bb db d6 d0 bc
       0.00043738214 0.024743723 -0.002485048 -0.025493076
000080 43 61 47 bd c4 e9 b4 3c ed 4e 69 bc 1f 82 da bc
       -0.04867674 0.022084124 -0.014240009 -0.026673375
000090 a7 91 ac 3c 6d 50 d8 bc 93 c8 8a 3c 5c f6 f4 bb
       0.021065546 -0.026405538 0.016941344 -0.0074756574
0000a0 36 0b da 3b c5 d3 00 bc ea cf 8d 3c f9 7d b6 3c
       0.0066541685 -0.00786299 0.017311055 0.022276865
0000b0 2a b7 88 3c c1 c8 c9 bc 90 cd 98 3c 33 5a 18 3c
       0.016688902 -0.02463186 0.018652707 0.009298849
0000c0 43 76 7f 3a c0 8e ae 3c 98 4b 76 3c 4f 1d e9 bc
       0.00097451004 0.021308303 0.015032671 -0.028456358
0000d0 d0 44 1e 3c e0 d2 c6 bc bd 1b 27 bb 75 5d 19 3c
       0.009659961 -0.024270475 -0.002549871 0.009360661
0000e0 4b 5d 5e bc a3 4e 5d 3c 6c ee 2f bd 8d c3 35 3c
       -0.013572047 0.013507518 -0.042951986 0.011093986
0000f0 a7 46 f3 bb 56 81 d8 bc 0d ed 56 3c 47 4b 3f 3c
       -0.007424194 -0.02642886 0.013118041 0.011675662
000100 96 5f 13 bd a3 8c 02 3d 32 22 56 bc be b5 ef bc
       -0.03597983 0.031872403 -0.013069676 -0.029261466
000110 42 ad 87 3c d6 b3 bf bc d6 d1 3e 3b 1b 6c ef bc
       0.016562108 -0.023401182 0.0029116771 -0.029226353
000120 a9 db 53 3c b1 f9 96 bb e3 6c 9e bc ea a9 6a ba
       0.012930789 -0.0046074023 -0.01933903 -0.0008951711
000130 6d 2d ef bc b1 5f b0 3c 50 bd 7e 3c 35 ca a6 3c
       -0.029196465 0.021530004 0.015548065 0.020360092
000140 78 07 f5 3b 89 2e da bc 13 c0 09 3c c5 9d fa 3c
       0.007477697 -0.026633518 0.0084076105 0.030592808
000150 5c 2b a5 bc c5 2a 90 bc e8 42 cf 3c fe ea 86 3c
       -0.020162277 -0.01759852 0.025300458 0.016469475
000160 05 66 40 3c 76 d2 9f bc 71 ac c4 bc da 63 e3 3b
       0.011743073 -0.019509535 -0.024008008 0.0069393935
000170 da cb 03 bd b7 e8 1c 3c c2 90 fc 3b be 74 9e ba
       -0.03217683 0.009576968 0.007707686 -0.0012089235
000180 87 3f 09 3c 5b 94 27 bc 09 8f 88 bb 08 38 12 bd
       0.0083769625 -0.010228242 -0.0041674417 -0.035697967
000190 d7 c2 87 3c 41 75 18 bd db a7 d4 bb 57 a0 b2 3c
       0.016572399 -0.037221197 -0.0064897365 0.021804972
0001a0 f0 d3 4f bc 94 c7 4a 3c da c6 fa bc 69 0e b1 bc
       -0.012684807 0.012376685 -0.030612398 -0.021613317
0001b0 1a 22 25 bd 9d 8d 0b bd e7 ea a0 3c 26 63 6b bc
       -0.040315725 -0.0340706 0.01964326 -0.014366901
0001c0 d2 78 cc bb 06 4c 22 bc b1 9d 0c bd 78 e2 e1 3c
       -0.006239989 -0.009905821 -0.034330074 0.027573809
0001d0 c1 b5 35 bc 18 ec 10 bd 09 22 21 bc 0a 25 83 3c
       -0.011090697 -0.035381407 -0.009834775 0.016008873
0001e0 52 fd 99 3c a0 85 bd bc 6e 5d 8a bc cf 29 9c 3c
       0.01879755 -0.023135006 -0.016890254 0.019062905
0001f0 28 f4 f1 bc 3b f7 d4 bc b1 b3 43 3b 2d 22 66 3b
       -0.029535368 -0.025996795 0.0029861743 0.0035115585
000200 18 47 9e 3c ad bc 35 bc 22 1d bf b8 5f 0d ba 3a
       0.01932101 -0.011092347 -9.113016e-05 0.0014194659
000210 58 2e 41 bc 6a e5 54 bd 8e ce 53 3d 85 0c eb bc
       -0.011790834 -0.0519766 0.051710658 -0.028692493
000220 07 8a e2 bc de 40 24 3b 7c 64 91 bc 18 77 44 bb
       -0.027653707 0.0025063078 -0.01774811 -0.0029978212
000230 e9 d1 75 3c 1c 5e 08 3d f4 d0 11 3c 9c 29 d5 3c
       0.01500366 0.033292875 0.008899916 0.026020817
000240 0b dc 37 3c fc e5 5c ba 8e 64 81 3c 5d a6 be bb
       0.011221896 -0.00084266043 0.015795019 -0.005818172
000250 a0 0e 54 bd 49 3f 87 bc a5 96 96 bc 85 c0 90 bc
       -0.05177176 -0.016509669 -0.01838238 -0.017669925
000260 ef 35 a0 3c 22 62 75 bd 22 b5 35 3d e8 69 71 3c
       0.019556968 -0.05990804 0.044362195 0.014734723
000270 ee ac 13 bd e2 d1 08 bd c2 f1 b3 bc 74 71 cd 3c
       -0.03605359 -0.033403285 -0.021965865 0.025078513
000280 6a 64 4b 3a cc 8f 55 3b 22 a0 c3 ba 23 13 09 3c
       0.00077587983 0.003258693 -0.0014925043 0.008366379
000290 ec 1f 74 3d 97 a3 20 3c 5e cf d0 bc ec 69 b2 bc
       0.059600756 0.009804628 -0.025489505 -0.021779023
0002a0 72 e1 18 bc 3c 18 6a b9 96 f7 db bc 2b 7a 2d 3a
       -0.009331094 -0.00022325007 -0.026851457 0.0006617631
0002b0 07 7f 32 3c 38 ca 03 3d 42 d9 4f bc e3 30 2e bc
       0.0108945435 0.032175273 -0.012686076 -0.010631773
0002c0 1d ac 78 3c 11 f5 9b bb 1d 63 90 3c 93 1b d7 3c
       0.015177754 -0.004759439 0.017625386 0.026258266
0002d0 46 84 bb b9 8d 4f b1 3c 3f 0f d1 3c 7a ce dc bc
       -0.0003576597 0.021644378 0.025519965 -0.026953924
0002e0 89 13 d6 3b 3b 63 87 3b a6 08 da 3c 0d 39 6b 3d
       0.0065330905 0.0041317022 0.026615452 0.057427455
0002f0 b4 ce 57 bd e3 83 8e 3c a1 1c c9 bb e3 d5 3f 3d
       -0.05268736 0.017396873 -0.006137446 0.046834838
000300 be ca d5 3a bb b5 40 bc dc ea c1 3c 27 8b 44 bc
       0.0016311032 -0.011762078 0.02367156 -0.011996067
000310 94 b4 e0 bc 48 67 96 3c 88 7c f8 3c b8 d1 93 3c
       -0.027429856 0.018359795 0.030332819 0.018044338
000320 91 79 ba b9 c3 71 f5 bc a6 4d ba bc 03 03 b6 3c
       -0.0003556726 -0.029961472 -0.022742104 0.022218233
000330 46 ae 50 3b fa 6d 5e 3d 53 85 e4 bc 63 d2 09 bd
       0.0031842156 0.0543041 -0.027895605 -0.033647906
000340 b2 b2 78 3d cd 70 17 bc c1 48 a0 3c ff 39 79 bb
       0.060717292 -0.009243202 0.019565942 -0.0038028953
000350 06 c2 84 bc b6 e6 e7 bc b2 bc 1e 3c dc f2 ba 3c
       -0.016205799 -0.028308254 0.009688543 0.022820882
000360 8b 46 d4 bc 23 33 d0 3b 23 a9 97 bc 79 27 2a bd
       -0.025912544 0.006353752 -0.018513268 -0.04154155
000370 86 86 0f bb 36 2e 46 3c b3 80 69 3b ec 60 05 bd
       -0.002190025 0.0120959785 0.003562969 -0.032563135
000380 80 a3 43 3a a6 b9 e1 bb 87 66 0e 3d 38 53 44 3b
       0.0007463023 -0.006888586 0.034765746 0.0029956829
000390 7c bd 96 3c 58 1a 46 bc 22 40 7e 3c 8f 95 8a bc
       0.0184009 -0.012091242 0.01551822 -0.016917018
0003a0 5b 42 44 b8 f7 a5 4e bc ed 68 31 3c f4 29 d5 3c
       -4.679184e-05 -0.012612811 0.010828239 0.026020981
0003b0 3c 0b 19 bd 51 86 49 3c 77 c4 da bc 02 88 d6 3b
       -0.03736423 0.01230009 -0.02670501 0.006546975
0003c0 5d a3 9c 3c e3 8e 23 3d 51 21 3b bb 26 4f dc ba
       0.019120866 0.03993119 -0.0028553794 -0.0016808256
0003d0 e9 3d 13 bb fb ae f1 b9 3d f1 4a 3c 08 be 20 bd
       -0.0022467321 -0.00046097473 0.012386617 -0.039243728
0003e0 b6 4f 73 3a 8a 57 c7 3c 26 31 8e bb 52 40 8b 3c
       0.0009281592 0.024333734 -0.004339355 0.016998444
0003f0 7e c6 d2 3c 2a 4f f1 ba 2c 25 0e bc 75 09 d8 ba
       0.025729414 -0.0018410434 -0.008675855 -0.0016482311

action_model._discrete_distribution.branches.0.bias f4 [4]
000000 89 b8 82 bc f7 d1 42 3c 2a 01 87 3c cd 27 16 bd
       -0.015957134 0.01189088 0.016480047 -0.03665905

action_model._discrete_distribution.branches.1.weight f4 [1, 128]
000000 3b 45 12 bc 23 d2 27 3c 94 52 1c 3c b1 c4 b6 3b
       -0.008927639 0.010242972 0.0095411725 0.0055776467
000010 4b 66 3a 3b b0 58 46 bc df d6 c4 bb b2 57 34 bc
       0.002844232 -0.012106106 -0.00600706 -0.011007236
000020 02 b9 85 3c 91 f2 ad bc df 46 52 bc fe 90 89 3c
       0.01632357 -0.021233829 -0.01283428 0.01679277
000030 c0 bf 7f 3c 72 9d 49 3c 8f 8c 94 3c ad 19 53 3c
       0.015609682 0.012305604 0.01813343 0.01288454
000040 db ab cc ba ee 51 24 bc 55 e1 0b 3b 53 81 ec bb
       -0.0015615182 -0.010029299 0.0021344025 -0.007217565
000050 17 c7 e4 3a cc 9d be bb ff 98 cb 3b fa be d9 3b
       0.0017454353 -0.0058171507 0.006213307 0.0066450806
000060 9d 32 81 bc d6 60 0b bc c5 98 7f 3a b8 da f0 3b
       -0.015771205 -0.008506974 0.00097502425 0.007350292
000070 e0 d7 66 3b 14 6e 30 bc bc b4 05 bc 9e cd 20 3b
       0.0035223886 -0.010768432 -0.008160766 0.002453662
000080 c2 c8 8e 3b c0 bf d1 3b 60 a3 18 3c 3d 0c f6 3a
       0.0043574283 0.006401032 0.009316295 0.0018771958
000090 c0 20 3d ba 67 53 2d 3c 65 e2 fc bb f4 91 bb bb
       -0.0007214658 0.010578967 -0.007717418 -0.005724186
0000a0 23 7c a4 3b 6b 9b 71 bc ff df 96 bc 75 5b 6c bc
       0.005019681 -0.014746527 -0.018417357 -0.014426102
0000b0 d0 cf 58 3c ef a1 5a bb a3 69 e6 3b 8b 6d bf bb
       0.01323314 -0.003336068 0.007031636 -0.005841916
0000c0 ba 94 ce 3b 43 17 f1 bb 38 f9 5a bb 59 f4 1d bc
       0.0063043507 -0.0073575093 -0.0033412706 -0.009640777
0000d0 3d 21 73 3b 2f 00 39 3b 05 a9 f6 3b bf 3b b2 bb
       0.003709867 0.002822887 0.007527473 -0.005439251
0000e0 87 0a 60 bb 5d a8 f2 b9 13 62 1d 3c 24 22 a3 bb
       -0.0034185962 -0.00046283277 0.009605902 -0.004978435
0000f0 45 31 fa 39 14 79 0c bc 82 72 39 3b 75 2f 9d 3b
       0.00047720424 -0.008573789 0.0028297012 0.004796917
000100 f7 dd 7b 3c 75 78 14 3b b3 cf ba 3b 43 5a 11 bb
       0.015372745 0.0022654806 0.005701029 -0.0022179044
000110 a1 69 00 bc da 4c 1a 3b cc 26 47 bc 1f 3f ae 3a
       -0.007837684 0.0023544342 -0.012155246 0.0013293958
000120 ba 40 54 bb c7 ba 56 3c ef bc 95 3b 83 8d fe ba
       -0.0032387213 0.013106055 0.004569642 -0.0019420836
000130 fb 22 c1 bb 9f 29 84 3b c3 40 20 3c e1 a4 1c bc
       -0.0058940626 0.004033282 0.009781065 -0.009560795
000140 bd 8d 05 bb f7 25 2d 3b 4b be 56 bc 89 be 88 ba
       -0.0020378672 0.0026420334 -0.013106893 -0.001043276
000150 22 91 38 bb 5b 85 22 bc b8 ea 83 3b 49 e9 9d 3b
       -0.0028162678 -0.00991949 0.0040257834 0.0048190695
000160 66 43 b2 bb aa 96 d0 bb af 12 84 bc 0e c4 a2 3c
       -0.0054401634 -0.006365617 -0.01612219 0.019868877
000170 85 a0 d0 ba 18 12 74 3a f3 31 9d bb dc 03 82 3a
       -0.0015916979 0.00093105575 -0.004797214 0.0009919363
000180 c0 05 43 bc 4c 0d ba 3a 1b 97 a1 bb 73 c6 b8 bb
       -0.011903226 0.0014194637 -0.0049313433 -0.0056388914
000190 87 ab 4d 3b 95 6f 6e 3a cd c9 68 bb 67 7e 2d 3b
       0.0031382756 0.00090956065 -0.0035520673 0.0026473047
0001a0 3e e7 84 3c ac 1a 10 bc 25 a8 2d 3b 46 64 af ba
       0.016223546 -0.008795422 0.0026497927 -0.0013381324
0001b0 0d 63 84 3c 93 0f d0 ba ca d2 dd 3b 1d 03 6d 3b
       0.016160512 -0.0015873782 0.006769513 0.0036165186
0001c0 22 b3 cd ba ff be 38 3c d5 4d 87 3b 3a f4 90 3b
       -0.0015693645 0.011276006 0.0041291513 0.0044236453
0001d0 e3 35 b2 3b c3 9f 82 3c 0f ed bd 3c f8 49 51 bc
       0.0054385527 0.015945321 0.023184327 -0.012773983
0001e0 2c 65 42 3b 86 02 93 bc c1 51 26 bc 6f 57 39 bb
       0.0029662354 -0.01794554 -0.010151328 -0.0028280874
0001f0 97 81 d1 3b ba a8 eb ba 9c 78 8c 3c eb 7b 3e bb
       0.006393622 -0.0017979362 0.017147355 -0.002906556

onnx::LSTM_114 f4 [1, 512, 128]
000000 b3 e2 3a 3d 50 6b 39 3d 9d 62 86 bc c7 49 14 be
       0.045626353 0.045268357 -0.016404444 -0.14481269
000010 7d 88 7f bd f9 3e b6 bd 9d 22 40 3d f2 e5 b2 bd
       -0.062386025 -0.0889873 0.04690801 -0.08735265
000020 70 10 a3 bd 9b 8d 20 be da 1f de bd a1 43 cd bd
       -0.079621196 -0.15679018 -0.10845919 -0.10022665
000030 a1 be 08 bd ab af b5 bd 20 40 a1 3c 20 cb 11 bd
       -0.033384923 -0.08871397 0.019683897 -0.035594106
000040 ea 6a b2 bc 0c 53 f6 3d 68 6c 11 3e 8a d6 75 3c
       -0.021779496 0.12027559 0.1420151 0.015004763
000050 60 6a 11 bd ef ac f9 3d 6b d8 a0 bb 7e 92 c3 3d
       -0.035501838 0.121911876 -0.0049086115 0.095494255
000060 ed d8 12 3d 02 03 b4 bd 78 9d 32 bd 78 f0 22 3d
       0.035851408 -0.08789636 -0.043607205 0.03978011
000070 8f 43 84 bd 7a 7f 9e bc d0 e8 20 3e 58 c1 b0 3c
       -0.06458198 -0.019347895 0.15713811 0.021576568
000080 72 f5 00 3e 04 5b db 3d a5 0a 8c bd 99 d4 ef 3d
       0.1259363 0.10710719 -0.06837968 0.11710472
000090 1b da 15 3c 1b 6a b4 bd 89 ef ea 3d 1d b3 ad bb
       0.009146239 -0.088093005 0.11471469 -0.005300893
0000a0 e0 4b 22 be 9b 69 d4 3d ae 15 8d 3d 60 d9 a6 3d
       -0.15849257 0.10371705 0.06888901 0.0814693
0000b0 09 ac 8f bd e4 d1 dc 3d 25 d9 21 bd 53 7c 88 bd
       -0.07015235 0.10782221 -0.039513726 -0.06664338
0000c0 f8 a1 15 be bc 9f 53 bb 94 a0 9a bd 5a b5 84 3d
       -0.14612567 -0.0032291254 -0.07550159 0.064799026
0000d0 f6 90 8d bd 7d 45 b9 bd b0 95 87 3d af f5 8d bd
       -0.06912415 -0.09046457 0.066203475 -0.06931626
0000e0 66 29 a5 3d 6a ed a6 3d 20 9f ee bd 5d 76 de 3d
       0.08064537 0.08150752 -0.116514444 0.1086242
0000f0 7d da f5 3d bb d6 99 bc 25 07 da bc 78 a1 d6 3d
       0.12004564 -0.01877915 -0.026614735 0.104800165
000100 06 bd b0 3d 9c 69 2c 3d 9d 82 19 3e b1 61 09 be
       0.08629803 0.042092904 0.14991231 -0.13416173
000110 6f 64 74 3d fa 8d 7d 3d e5 5a 10 3e 51 8a d6 3d
       0.059666093 0.061902978 0.14097174 0.104756005
000120 38 72 bc 3d cc 39 d4 3a 12 0c fe 3d 2b c6 4a 3d
       0.09201473 0.0016191541 0.12404646 0.049505394
000130 e6 46 f5 bd 8d b6 a9 3d b3 fa 24 bd 70 94 94 3d
       -0.119764134 0.08286772 -0.040278148 0.07254875
000140 c8 e4 8c 3d b1 6f 82 bd 07 cf bc bd e2 bb e1 3d
       0.06879574 -0.0636896 -0.09219175 0.11022164
000150 d9 06 13 3d 48 69 f9 3c 59 bd df bd 8d bf bd bd
       0.035895202 0.03044571 -0.10924787 -0.09265051
000160 68 9a e4 bd a2 cc 39 bd 1f 21 12 3e 1a ea 81 3d
       -0.11162263 -0.04536117 0.14270447 0.063434795
000170 66 cf 0a bd ba d7 ff bd 00 7a f6 bd 3e f0 d6 3c
       -0.033889197 -0.124923185 -0.120349884 0.026237603
000180 42 c2 29 3d 30 ec f2 3d 9c b1 3f 3d 8d c9 af bd
       0.041445024 0.118614554 0.04680024 -0.08583365
000190 01 50 e5 bc 0c 39 3f 3d ff f5 a0 bd cf d4 0d bc
       -0.02799225 0.046685264 -0.0785942 -0.008656695
0001a0 10 91 99 bb f4 61 00 be b3 3e 1f bd 54 30 45 3d
       -0.0046864823 -0.12537366 -0.038878154 0.048141792
0001b0 81 19 bb 3d a6 22 c1 bd cf 48 13 be c8 75 5b 3d
       0.09135724 -0.09430437 -0.14383243 0.05357912
0001c0 5c af f1 bd 3d c6 8f bc 78 89 ca 3d 9c e4 bc bd
       -0.11801025 -0.017550582 0.09889501 -0.09223291
0001d0 c3 3b 01 be 4c 9c 82 3d 26 40 5f 3d 09 1c 9c 3d
       -0.12620454 0.063774675 0.054504536 0.07622535
0001e0 69 e0 97 bd 7a 7a 04 3e a4 9c 60 bd 94 33 cf bc
       -0.0741585 0.12937346 -0.054836884 -0.025293149
0001f0 d5 87 c6 3d 01 0d 0f be 93 86 67 bd d8 fd b5 3d
       0.09693877 -0.13969804 -0.056524824 0.088863075
000200 27 7a 15 be f8 c4 0d be 43 02 f4 3d f1 e3 db 3d
       -0.14597379 -0.13844669 0.11914494 0.10736836
000210 f3 c3 9c bd 00 9a 02 be 39 13 be bd 8c 9b c2 bd
       -0.07654562 -0.12754059 -0.0928101 -0.095023245
000220 f2 f0 08 bd af 14 36 bd 8c 09 01 3e fd 9e 33 bd
       -0.03343291 -0.04445332 0.12601298 -0.043852795
000230 d7 54 8e 3d fe ca 6e 3a fc da 24 3e 92 25 cd bd
       0.06949776 0.00091092277 0.16099161 -0.100169316
000240 c4 f0 8b bd bd a7 20 bd 47 14 3d bc b7 8a f5 bc
       -0.06833032 -0.039222468 -0.011540479 -0.029973371
000250 56 e0 e2 bd 65 99 55 3d 6f 08 e1 3d 66 a1 8e 3c
       -0.11077945 0.05214824 0.10987937 0.017410945
000260 25 de 05 3e f5 c3 c8 bd dc 1d 13 be 2c 3d ea 3d
       0.13073023 -0.09803001 -0.14366859 0.11437449
000270 e7 74 f1 3d ab a4 c9 3d 82 d7 03 be 22 16 e3 3a
       0.117898755 0.09845861 -0.12875178 0.0017325322
000280 de 55 2f 3d 86 a7 b5 bc a3 07 e2 3d d5 05 d8 3d
       0.0428065 -0.022174608 0.11036613 0.10547987
000290 b5 ca d0 bd d9 9a 8d 3d fa 71 eb bd 1c c8 cb 3c
       -0.10194913 0.069143005 -0.11496349 0.024875693
0002a0 8f 9d 94 3d bf 9f 1a be 0f 54 57 bd 8a d2 aa bc
       0.072566144 -0.15100001 -0.0525704 -0.020852346
0002b0 26 99 a0 bc 89 5a 76 bb 5c 1a 08 be 35 ba 8f bd
       -0.019604277 -0.0037590584 -0.13291305 -0.07017938
0002c0 35 42 c5 bc 1d ff 94 3d 12 83 01 be 88 78 c1 3d
       -0.024079422 0.072752215 -0.12647656 0.09446818
0002d0 e4 4f a9 bd 72 78 88 3d ff 28 5d bd fc 2c 09 3e
       -0.08267191 0.06663598 -0.053994175 0.13396066
0002e0 46 c3 c5 bb b7 28 0e 3e 02 f2 d1 3d bf da bb 3d
       -0.0060352413 0.13882719 0.102512375 0.09172582
0002f0 bb 13 d2 3d 20 73 1a 3e 74 ef e3 bd 40 26 c2 bd
       0.102576695 0.15082979 -0.111296564 -0.09479952
000300 05 60 57 3c d4 ec 72 bd 9d 0e ff bd 70 54 6a 3c
       0.013145451 -0.05930789 -0.12453959 0.014302358
000310 79 e1 f7 3d 86 ea 65 bd c0 87 0f be 2b 26 8c 3d
       0.12103552 -0.056131862 -0.14016628 0.068432175
000320 46 77 f2 bd 1b 7a 0b bd 95 1a 0e 3d b5 c7 16 3e
       -0.11839156 -0.034051996 0.03469332 0.1472462
000330 81 c1 c5 bd fe bc 1a be be e6 03 be 4a 04 6b bd
       -0.096560486 -0.15111157 -0.1288099 -0.057377137
000340 95 9d 60 bd d9 f3 7f bd 92 ed 38 3d c6 90 b1 bd
       -0.054837782 -0.06248841 0.04514844 -0.086701915
000350 fe 9b b0 bb be 36 93 3d 67 82 01 3d 22 ba c6 bd
       -0.0053896895 0.071881756 0.031618502 -0.09703471
000360 41 71 f7 bd 30 65 af 3d a9 81 ce bc 65 87 19 3a
       -0.12082148 0.08564222 -0.025208311 0.0005856662
000370 b3 9d 35 bd 9e 15 79 bd fe 2f 2f 3d 6b 91 86 bd
       -0.044339847 -0.06081163 0.04277038 -0.06570705
000380 19 74 ad bd b8 a3 c2 3b 26 36 fa bd 7e 89 f6 3d
       -0.084694095 0.005939927 -0.12217359 0.12037943
000390 5e 52 c8 3d 20 d9 cc bd f0 1d c8 3d ba ea 3c 3b
       0.09781335 -0.10002351 0.09771335 0.0028826431
0003a0 4a df 2a 3d ee c8 f5 bb 31 66 35 3c f9 ca ca bc
       0.04171685 -0.0075007593 0.011071728 -0.024754988
0003b0 6f 1a 12 be 8c e1 b9 3d c4 c8 aa bc 44 57 17 be
       -0.14267896 0.09076223 -0.020847686 -0.14779383
0003c0 a5 2d 35 bd 14 69 03 be 4a 68 13 3e db aa 5c 3c
       -0.044232983 -0.12833053 0.14395252 0.0134684695
0003d0 91 ae 03 3e b2 68 d7 bb 69 4c 62 bd e2 32 df bd
       0.1285956 -0.00657376 -0.05524865 -0.10898377
0003e0 e2 89 fa bb d3 43 e8 bd 2b 92 31 3d 70 02 ff bd
       -0.0076458314 -0.113410614 0.043352287 -0.12451637
0003f0 d8 56 e8 3d 81 22 4e 3d 79 b7 f8 bd 3b d0 d0 bd
       0.11344689 0.050325874 -0.1214437 -0.10195967

onnx::LSTM_115 f4 [1, 512, 128]
000000 26 60 b0 bd b0 f4 00 3e 67 3c 74 bd 75 1f ff bd
       -0.08612089 0.12593341 -0.059627917 -0.12457172
000010 de 63 b9 bd 8c fc 08 be 24 84 94 3d b9 d3 f9 3d
       -0.09052251 -0.13377589 0.07251766 0.12198586
000020 d2 45 60 3d 0b 47 6d bd b8 fa 50 bd 35 c6 6e 3d
       0.054754086 -0.05792908 -0.051020354 0.058294494
000030 ac d3 3c bd 18 22 d5 bd f8 83 00 3d 3a b0 62 3d
       -0.046100304 -0.104068935 0.031375855 0.055343844
000040 9a b1 20 3e 82 48 fd 3c 41 89 cd 3d c8 b0 f9 3d
       0.1569275 0.030918363 0.10035945 0.121919215
000050 ea a9 30 be 30 47 f2 3c 9d 22 c3 bd 31 fd 57 bd
       -0.17252317 0.02957496 -0.09528086 -0.052731697
000060 d2 57 71 3b c8 a7 12 be 3e da 4c bd b7 b4 ff 3d
       0.0036826027 -0.14321816 -0.05001282 0.124856405
000070 6b 45 3a bd a2 f0 f1 bc f9 f8 16 be 5a be 04 bc
       -0.04547636 -0.029533688 -0.14743413 -0.008102024
000080 e7 87 df bd 0b 98 81 3d 67 02 21 3e da 8d d5 bd
       -0.10914593 0.06327828 0.15723573 -0.10427447
000090 d9 11 6e 3d 24 8d 8f bc e5 8e c5 bd 36 71 c4 bd
       0.05812249 -0.017523356 -0.096463956 -0.09591906
0000a0 89 87 e9 bc f1 59 de bd b1 a8 a8 3d 41 30 80 bc
       -0.028507011 -0.10856999 0.082353 -0.01564801
0000b0 78 62 6f 3d 01 c8 d5 3d 28 32 16 be f7 47 c9 3d
       0.058443516 0.10438538 -0.1466757 0.09828179
0000c0 88 69 53 bd 0f db b4 3a 5e 5d 48 3b 52 ff eb 3d
       -0.051614314 0.0013798195 0.003057323 0.11523308
0000d0 94 75 c7 3a 18 ac ee bd 53 43 65 bd ab 46 63 bc
       0.0015217536 -0.11653918 -0.05597241 -0.013871829
0000e0 88 98 32 3c 55 f1 a7 3d e8 0f 11 3e 3e 39 0d 3e
       0.010900624 0.08200327 0.14166224 0.13791367
0000f0 d4 9a 0a be 22 0d d9 3d ed 6c 09 3e e7 9a 28 be
       -0.13535625 0.10598208 0.13420458 -0.1646534
000100 0a 9f 2c bd 55 30 91 3c 2d a9 df bd 45 7c 80 3d
       -0.04214386 0.017723242 -0.109209396 0.062737025
000110 5b 25 00 3e 06 1d f1 bc e8 87 e1 bd 0b 2c 61 3d
       0.1251425 -0.029432785 -0.1101225 0.054973643
000120 af f0 ef bd 44 53 ce bd 77 68 f6 3d f5 42 6d bd
       -0.117158286 -0.100744754 0.12031644 -0.057925183
000130 9d e6 8f bc 67 8c 94 bd 5d 43 c9 3c 8d 75 82 bd
       -0.01756602 -0.07253342 0.024568254 -0.06370077
000140 95 81 af bc 75 7f ba 3d 53 f1 ba bd 0d 20 df 3d
       -0.021424094 0.09106342 -0.0912806 0.10894785
000150 cf af d2 bd f8 0d 99 bd 4d 95 1d be ea f8 8a bd
       -0.10287439 -0.074733675 -0.15388985 -0.06785758
000160 c4 3a 56 3d ca bd 39 bd 72 aa f8 bc 5e 9c 8b bc
       0.052302137 -0.045347013 -0.030354712 -0.017042335
000170 b1 50 f4 bd 2b 03 c6 3d c4 7a f2 3d 3b fe 87 3d
       -0.11929453 0.09668573 0.11839822 0.066402875
000180 d5 d9 ed 3c 15 d2 91 3d 2d 9e 15 3e 1e dd 48 3d
       0.029034534 0.07120148 0.1461112 0.049039
000190 23 36 75 3d 6b 2f ea 3d e2 fe 01 3e 90 5b d4 bb
       0.059866082 0.114348255 0.12694886 -0.0064806417
0001a0 b9 21 52 bd 13 de 08 3e 06 d1 db bd c7 92 56 bd
       -0.05130169 0.13365965 -0.107332274 -0.05238607
0001b0 5a 7b f9 bd ac d0 a1 bd 38 bc 61 bd 75 fb f3 bd
       -0.121817306 -0.07901129 -0.05511114 -0.11913196
0001c0 fb f1 fe bd fc 0e 08 3e b9 25 dd 3d e1 d6 a9 3b
       -0.12448498 0.13286966 0.10798211 0.0051830863
0001d0 88 26 68 bd 8a 09 53 bc a3 5f d4 bd cd 7f e1 3c
       -0.05667737 -0.012880692 -0.10369804 0.02752676
0001e0 4f e4 cd bd 37 09 f3 3c df 1a 90 bd 74 9a f7 3d
       -0.10053312 0.02966748 -0.07036375 0.120900065
0001f0 bf 2f 10 3e fa 18 b1 3d d1 17 d7 3d 07 f0 a1 3d
       0.14080714 0.08647342 0.105025895 0.0790711
000200 e6 f9 c0 3d 33 4d d0 bd aa 5e cf bc f0 b1 02 be
       0.09422664 -0.101709746 -0.025313694 -0.1276319
000210 86 94 44 3d cb 13 58 bd 6f b7 88 bd 90 64 16 3e
       0.047993205 -0.05275325 -0.06675612 0.14686799
000220 d3 c6 67 3d 83 ee 04 3e e8 52 e3 bd 78 32 1b 3d
       0.056586098 0.1298161 -0.110997975 0.037889928
000230 ee f1 dc 3d 31 9a c8 3d fe 34 ed 3d b2 2e 6c bd
       0.10788332 0.09795035 0.11582373 -0.05766172
000240 b3 21 f6 bd c0 7a cf bd 6f d4 13 bc b9 33 80 3c
       -0.12018146 -0.101308346 -0.009022816 0.015649663
000250 18 e0 e6 bd 48 dd 25 bd 0b 4c 34 bd 61 d3 a7 3d
       -0.11273211 -0.040494233 -0.044017833 0.08194614
000260 eb f5 e7 bd cc b8 7a bd 5a 1a ca 3d 31 35 e6 3d
       -0.11326202 -0.061211392 0.098683074 0.11240614
000270 d8 97 9d 3d f7 98 26 3e 55 ab 01 3e 3d ef f9 3b
       0.076949775 0.16269289 0.12663014 0.0076273964
000280 ef a1 12 bc 35 bf 0a bd 8d f0 e9 bd df 8a 1f be
       -0.008949741 -0.033873755 -0.114228345 -0.15580319
000290 aa 3a 2b bd e0 2c 8e 3d 8e 84 9c bc 08 72 a8 bc
       -0.041803993 0.06942153 -0.019106176 -0.020562187
0002a0 11 a1 10 be 46 de ec bd 1b b6 d1 bc 27 74 9a 3c
       -0.14123942 -0.11565833 -0.02559953 0.018854214
0002b0 34 29 ea 3c 89 d4 0a 3c 2a 31 d9 bc 18 2f e1 3d
       0.0285841 0.008473524 -0.026512701 0.109953105
0002c0 64 3b 1f be f0 98 e6 3d 2c 27 aa bd 84 f8 64 3d
       -0.1555 0.11259639 -0.08308253 0.055901065
0002d0 e9 5f d6 3d 14 d5 1c 3d 1a 32 b1 3d 8c 23 df 3a
       0.10467512 0.038289145 0.08652134 0.0017024144
0002e0 d3 13 08 3e 7b 48 9e bd be 6f db 3b 8f 1e ba bd
       0.13288812 -0.07728668 0.0066966703 -0.0908786
0002f0 4c 34 0c 3e 98 f1 31 bc aa 56 77 3c 64 71 85 3d
       0.13691825 -0.010860823 0.015096346 0.06515768
000300 4c 70 b7 39 8f 78 f5 3c 2e 4e af bd 27 30 2d 3c
       0.00034988148 0.029964713 -0.085598335 0.010570562
000310 dc 90 9b 3c b1 6e b5 bd 6d ed 17 be f6 6c 25 be
       0.018989973 -0.08859003 -0.14836664 -0.16154847
000320 c2 d1 0f be ed 0a 3d bd e1 6b ce bd 52 a3 e4 3d
       -0.1404486 -0.046152998 -0.1007917 0.111639634
000330 44 c7 e3 3c a6 5d c5 bd fa 4f e2 3c 68 a2 c0 bd
       0.027804978 -0.09637003 0.027626026 -0.094059765
000340 5a 31 b7 3d 1a 34 cf 3d 75 37 dd 3d 43 f9 4a bd
       0.0894496 0.101173595 0.10801593 -0.04955412
000350 36 a1 80 bd 3c 6e fd bd f4 77 bb bd e9 8b c4 3d
       -0.062807485 -0.12374541 -0.091537386 0.09596998
000360 f0 a2 89 3d 05 a3 60 bd 2e 99 06 bd d3 9c 04 3e
       0.06720531 -0.054842968 -0.032860927 0.12950449
000370 e9 78 7f bd b4 9f 1d 3c 5a 88 03 3d f3 99 bc bd
       -0.06237117 0.009620596 0.032112457 -0.09209051
000380 2f a4 d3 3d 2a 68 fa bd 29 79 76 bd f5 e7 0c be
       0.1033405 -0.12226899 -0.06017414 -0.1376036
000390 a4 78 3b 3d a2 a7 17 be ba cf 82 bd 97 ca 36 3d
       0.04576935 -0.1481004 -0.06387277 0.0446268
0003a0 f1 35 6a 3d 24 98 2f 3d 70 10 4f bd 12 ab 10 3b
       0.05718035 0.042869702 -0.050552785 0.0022074622
0003b0 c7 6f a1 bd a8 6d 24 3d 0f ad 08 3e ca c0 a9 ba
       -0.07882648 0.04014364 0.13347267 -0.0012951132
0003c0 e2 07 d5 bd 5b cd b4 3c 13 33 93 bd 60 f7 bf bc
       -0.10401894 0.022070577 -0.07187476 -0.023433387
0003d0 cb 52 39 bb 61 9d 91 bd 46 ac 18 be 93 be b4 3d
       -0.0028278108 -0.07110096 -0.14909467 0.08825412
0003e0 fc 35 fa 3d c9 e7 0c bd 49 f9 e1 bd 6d 7b 18 3e
       0.12217328 -0.034400735 -0.110338755 0.14890833
0003f0 46 2d e8 bd 8c 3d 13 be 0a 7c 61 3c c2 f3 13 be
       -0.1133676 -0.14378947 0.013762483 -0.14448455
