Machine-Learning-DRL/results/SeekerTrainingWall9/Seeker.onnx (onnx, 610983 bytes, 11 tensors)

discrete_act_size_vector f4 [1, 2]
00000000: 0000 8040 0000 803f
4.0 1.0

network_body._body_endoder.seq_layers.0.weight f4 [128, 8]
00000000: fec0 86bd 1ec0 9f3d 9970 ae3e f443 923e
00000010: fe4d a9bd fc68 34bc 56dd b63e 0eb4 bb3e
00000020: e0e4 95be 2db1 f1be 397f 41bf c37b 7dbe
00000030: d2dc fe3c bbfd 6c3e 87f8 8e3e 83e6 48be
00000040: a374 893e 933d 94be b951 91bd 9f0e 5d3e
00000050: 24db c1be fe0a 813e 6993 e0bd 67d6 353d
00000060: 0b05 b53b f657 22be 8190 8abe 488f ec3e
00000070: 95c9 25bf 935e c9ba e785 8b3d 2f0f bdbd
00000080: a664 30be cd84 203e 0747 c33e e01a 6e3e
00000090: 51e7 4e3d d8f9 8cbe 6de9 a9bd 1370 51be
000000a0: af33 bbbe d692 41be 6269 9dbe 89e5 303e
000000b0: 0bd8 9fbd ce15 f0bc b529 e0bd 71d3 b63d
000000c0: 2051 383e 4490 cabe f155 4fbe df6b 96be
000000d0: 4e91 edbd 2763 073f 8a2c bbbd de38 223e
000000e0: affe dfbe c835 aabe 9f94 d5be 7f97 b1bb
000000f0: 0900 18bf 09f0 83be 9c5b 683f cead 663e
00000100: 3207 a13e 9f75 443e 93a9 133f d75c e23e
00000110: 033f 063f 5e97 793b 9b86 abbe ea47 a9bd
00000120: 074b 803d a1df 58be 8f58 eebe f1d3 26be
00000130: 2a16 353e 78fe bbbd 42ac ef3e 6126 0f3f
00000140: 63a8 32be 7bc8 b2be 1185 67bd fd16 54be
00000150: dbaa 01be 2851 c5be 12b5 ea3b 0a86 9c3d
00000160: 9ddb 88be cd6b 2bbd d61c c23e 409e 913e
00000170: 514d f83e f6e5 13be 529a 0bbf 22c3 9a3e
00000180: 37ee c93e c0fa f53d 34b5 97bc a9b9 913e
00000190: 64be 33be 2762 d4bc 3e6b 8bbc 2f1d 83be
000001a0: 6161 1cbe 012e 6d3e ab5e e93b a541 72be
000001b0: 6821 c9bc 03bc 303e 2b3c 35bb d8fa e53e
000001c0: f209 68bf be6e 79be 3f5f 42be e6ca 643e
000001d0: df10 303e 796c b0be 88d2 cb3e 2d97 603f
000001e0: dfb4 ee3e 6744 bc3d c5e9 14bf 23d7 493d
000001f0: 5f2e 91be 46da 95bd 6d75 b03e 0830 713e
00000200: c9d1 853d bd09 1bbf d1de 153e 5611 ccbd
00000210: 8778 f53e 62f0 e1be 368c 97be 0f81 88be
00000220: 287e 263f 8a0d 30be 6b79 d33c 2f6d c03d
00000230: 3023 b8be 8419 c7be d61a f7be 65b6 49be
00000240: 39e4 b0be a739 17bd 67ec dcbe b823 fbbe
00000250: 6577 ef3e d20c 65be ce3f 36be 39fd b83d
00000260: f760 9b3e 18b5 e03d eec0 c33e b216 763e
00000270: a9d0 093f e069 7abd 7b63 de3e d584 983c
00000280: e06f 83bd 0222 cfbe 558d 4cbe c3b7 6e3e
00000290: f5be 8ebe 1b0a d93e dd04 143e 2ec1 3dbe
000002a0: f8b9 c5be 59dc b9be 42d2 87be 2941 273e
000002b0: a212 5dbd b174 3ebe 7776 1b3f 04ee 05bf
000002c0: ffa1 e1be eeb4 24bc e27f 983e f69b 8fbe
000002d0: d719 76be 69e8 633e a103 49bb a7a0 83bd
000002e0: 53f1 373e aaad 963e cebe 923d 899f b23d
000002f0: b532 90be f237 363e ac2f 163f eae9 6fbd
00000300: c0f4 13be 6f72 dabe 97fd 82bc 1ef4 e13e
00000310: 8a13 afbe 8d1e 3c3d e448 c8be ec18 813e
00000320: 5616 8a3e e8b3 07bf cbad a33e 47c6 d0be
00000330: 342b 8ebe f382 993e 61c8 ee3d d263 58bf
00000340: 39b6 edbd da68 c9be 9db3 bfbe b271 ab3e
00000350: 7af6 953e 0163 663f 3645 7ebd b88c 5d3e
00000360: 3f03 e4bd 3db3 6a3e 8661 823e 50cf 1f3b
00000370: f070 4b3f 77b7 95be 05fb 88bc d84d e4bd
00000380: c551 623e bf68 803e d1ac 8ebe 68e4 debe
00000390: 363e 8e3e f182 5ebe 901c 053e 403d 2cbc
000003a0: 87b1 84bd a501 7cbe 0d83 2dbf 7e03 da3d
000003b0: f95b 053f b252 bfbe a247 afbe 7fea 21bf
000003c0: c511 f73c f7e1 0f3d 9207 25bf a5f4 9ebe
000003d0: 1939 823e 21ff 1fbe 8edf e83e e428 0a3f
000003e0: f7ac 6fbc ff9d 12bd 9630 44bd 9c08 893d
000003f0: c661 183e 3997 d93d 5491 93bc 66e4 b2be
-0.06579779 0.07800315 0.3407028 0.2856747 -0.08266829 -0.011011358 0.3571574 0.36660808
-0.2927618 -0.47205487 -0.7558475 -0.24754243 0.031111155 0.23143665 0.27923986 -0.19619183
0.268468 -0.28953227 -0.070956655 0.21587609 -0.37862504 0.252037 -0.10965616 0.044393923
0.005524283 -0.15853867 -0.27063373 0.46203065 -0.64760715 -0.0015363268 0.06812649 -0.09231412
-0.17225894 0.1567566 0.38140127 0.2325244 0.05051357 -0.27534366 -0.082964756 -0.20452909
-0.3656287 -0.1890367 -0.30744463 0.1727506 -0.07804879 -0.029307272 -0.10945455 0.08927048
0.17999697 -0.3956319 -0.20247628 -0.29379174 -0.1159998 0.5288567 -0.091393545 0.15842006
-0.43748996 -0.33244157 -0.4171495 -0.005419671 -0.59375054 -0.2576907 0.90764785 0.22527239
0.31450802 0.19185494 0.57680625 0.44211456 0.524399 0.0038084607 -0.33501133 -0.0826567
0.0626431 -0.21179058 -0.4655194 -0.16291787 0.17684236 -0.091793954 0.4681111 0.55917937
-0.17447047 -0.3491858 -0.056523386 -0.20711894 -0.12662832 -0.3853848 0.0071626985 0.076427534
-0.26730052 -0.041850854 0.37912625 0.28441048 0.48496488 -0.14443192 -0.5453235 0.30227
0.39439556 0.120107174 -0.018519022 0.2846196 -0.17553097 -0.025925709 -0.01701891 -0.25608203
-0.15271522 0.2316208 0.007121881 -0.23657854 -0.024552062 0.17259221 -0.002765427 0.4491794
-0.90640175 -0.24358651 -0.18981646 0.22343025 0.17193936 -0.34457758 0.3980906 0.87730676
0.4662237 0.09192734 -0.58169204 0.049277436 -0.2835569 -0.07317023 0.3446459 0.23553479
0.06534154 -0.60561734 0.14635779 -0.09964244 0.47943518 -0.4412871 -0.2959916 -0.26660964
0.6503625 -0.17192665 0.025814733 0.09395825 -0.35964346 -0.38886654 -0.48262662 -0.19698484
-0.3454912 -0.036920216 -0.4314911 -0.4905069 0.46770778 -0.22368172 -0.17797777 0.090326734
0.30347416 0.10972041 0.3823313 0.24032095 0.53834015 -0.061136127 0.43435273 0.018618027
-0.06417823 -0.40455633 -0.19975789 0.23312287 -0.27880064 0.42390522 0.1445498 -0.18530723
-0.38618445 -0.36300924 -0.265276 0.1633345 -0.053972848 -0.18599202 0.6072764 -0.5231631
-0.44068906 -0.010052903 0.29785067 -0.28048676 -0.24033295 0.22256626 -0.003067233 -0.064271264
0.17963152 0.2942937 0.07165299 0.08721835 -0.28163686 0.17794779 0.5866649 -0.058572687
-0.14448833 -0.4266543 -0.015990062 0.4413156 -0.34194595 0.045927573 -0.3911811 0.25214326
0.26970166 -0.5300889 0.3196853 -0.40776274 -0.27767336 0.2998272 0.11659313 -0.84527314
-0.11607022 -0.39337808 -0.37441722 0.3348518 0.2928961 0.8999482 -0.062077723 0.21635711
-0.11133432 0.22919936 0.2546503 0.0024385042 0.79469204 -0.29241535 -0.016721258 -0.1114766
0.22101505 0.25079915 -0.27866223 -0.43533635 0.27781838 -0.21729638 0.12999177 -0.01051265
-0.06479173 -0.24610002 -0.6777809 0.10645197 0.52093464 -0.3736778 -0.3423434 -0.6324844
0.03015984 0.035127606 -0.64464676 -0.31046024 0.25434187 -0.15624668 0.4548306 0.53968644
-0.01462864 -0.035795208 -0.047897898 0.06691095 0.14881048 0.106245466 -0.018013634 -0.3493988

network_body._body_endoder.seq_layers.0.bias f4 [128]
00000000: 3b6c d2bc 53ea 4a3c 4284 623d 98b8 e6bc
00000010: 8cf1 46bb 8396 713c aa98 aabc 201a b1bc
00000020: ebc1 a83d 2a0a d5bc 34a7 253c 26be 08bb
00000030: 5ad8 8abb b0f9 eb3c c9c0 b9bb be12 c53b
00000040: b598 963c 2b06 943c 7d22 4b3c b41e 123d
00000050: f459 83bc dbca d33b 7fa2 08bd 1819 153c
00000060: d8a7 7b3c 8c38 08bd 0f60 bfbc 8aca 6e3c
00000070: 11f6 30bc b733 323c e507 f53a 2057 503c
00000080: 558d a43b 9481 e83c 0b31 00bd 4dfe 8f3c
00000090: 2d65 5e3d d755 b3bc 69e1 44bb 602a a1bc
000000a0: acc3 92bb 3fe4 c5bc 55a0 a7bc f0f2 843d
000000b0: 0354 b13c a179 dc39 ceec f63c 00ac bc3d
000000c0: 0c52 17bc 192e 6e3c 1f4d 6c3c 683f 62bc
000000d0: f57a 9ebc 127f e13c 2b45 ebbc 16ed ebbc
000000e0: 9075 b53d 163b 01ba 6aa9 e23b f219 c53d
000000f0: 00e0 d4bc 7a01 16bd d7fe 63bd 50cf e6bb
00000100: 4c1a 2abd d572 82bc 475f 8d3b 4f0b 0bbd
00000110: d910 0abc a9fb 033d e03e 6cbc d114 a2bc
00000120: c5a0 3b3d b0bb 3dbd 7e28 91bc 993d 6c3b
00000130: 3db9 283c c29f 5d3c 3ded 7f3b 3a5f 643d
00000140: 3a69 463c 865e 213d cbbd 47bc bfb1 d3bc
00000150: 5ee9 e13a d63b 1e3c 4ecf 7d3d 9856 2dbb
00000160: 35c2 cdbb 0d08 e03c c75c 8a3c 790b 19bc
00000170: 8114 bfbc 12e8 57ba c65c d3bb bb38 22bb
00000180: 3a16 4dbb 15e2 423b 18eb f3bb 2c2e 37bc
00000190: d592 2fba 5e00 1abd 62f8 3b3c b5d1 4e3c
000001a0: 8141 1ebd d2c3 303d 41bb c7bc aa13 a53c
000001b0: 6a65 86bc f68a f3bc 9ce4 2e3d 37e4 40bc
000001c0: 09cf b93b 9870 393d 5fdc 863c af55 4fba
000001d0: 3dc6 143d 7d85 8fbc 4443 483a a7e9 c03c
000001e0: 420e 9f3c 3b77 e53c f077 163c 51f9 98bc
000001f0: 57dd b0bc 4e21 8f3c 02e8 163d 4e02 df3c
-0.025686374 0.012384969 0.055301912 -0.028164193 -0.0030356376 0.014745357 -0.020824749 -0.021618903
0.08240112 -0.026005823 0.010110665 -0.002086529 -0.004237217 0.028805584 -0.0056687337 0.006014197
0.018383363 0.018069347 0.012398359 0.035673812 -0.016034104 0.0064633912 -0.033358093 0.009100221
0.015359841 -0.033257052 -0.023361234 0.014574656 -0.010800854 0.010876588 0.0018694369 0.012716085
0.005021731 0.0283821 -0.03129677 0.017577315 0.054295707 -0.021891518 -0.0030041581 -0.019673526
-0.0044788923 -0.024156688 -0.020462194 0.06491649 0.021646505 0.0004205229 0.030142214 0.09212494
-0.00923587 0.014537358 0.014422684 -0.013809063 -0.01934574 0.027526412 -0.028719505 -0.028799575
0.08860314 -0.0004929764 0.0069171684 0.09624089 -0.025985718 -0.036622502 -0.055662956 -0.0070437565
-0.041528985 -0.015923897 0.0043143365 -0.03394633 -0.008426868 0.032222424 -0.014419287 -0.019785317
0.04580762 -0.04632157 -0.017719503 0.0036047457 0.0102980705 0.013526859 0.0039051317 0.055754878
0.012110049 0.039396785 -0.012191246 -0.025841592 0.0017235687 0.009657821 0.06196528 -0.002644932
-0.006279255 0.027347589 0.016889943 -0.009341114 -0.023325207 -0.00082361803 -0.0064502684 -0.0024753052
-0.0031293766 0.0029736806 -0.007443797 -0.011180442 -0.00066976 -0.037598006 0.011472793 0.01262324
-0.03863669 0.0431555 -0.024381282 0.020150978 -0.01640578 -0.029729348 0.042698488 -0.011773161
0.0056704325 0.045273393 0.016462503 -0.0007909191 0.036321867 -0.017519707 0.0007639418 0.023548914
0.019415978 0.028010955 0.009183869 -0.01867357 -0.021589918 0.017471936 0.036842354 0.027222779

network_body._body_endoder.seq_layers.2.weight f4 [128, 128]
00000000: 48b5 6bbd e92b 143d dc05 333d f874 b23b
00000010: d684 59bc 835e 50bb c5a6 a8bd aa83 d3bd
00000020: 420b 95bb 32d4 cbbb 3c54 353d fe24 f3bd
00000030: dbed 9ebc 2d13 91bd f17c 383d 2615 14be
00000040: 4790 71bc c3ff 87bd 2128 323d bbd6 233e
00000050: 9721 a6bd f28b 693d 5096 ff3d 33ad cf3b
00000060: 5dbd 4b3c f33a 1f3e f611 41bd 0b84 c0b9
00000070: d9ca 453d f9ea 243d 9b6b 31bd d666 77bb
00000080: 4296 a9bd 83cc 6c3d f7fd b1bd 3284 443d
00000090: 6d0d b3bd 3907 0dbd 4672 193d 2938 013e
000000a0: ee2e 58bd ff82 193d f0be 07be 465b 2d3b
000000b0: 40d2 6fbd dfe8 53be a6ac 083e d79d 3e3e
000000c0: 8ae9 aebd 30c4 063c 855f 083d ad13 19bd
000000d0: 3ba7 a5bd 4a40 cc3d 15d0 a93c 9684 a13d
000000e0: 6eba 9fbd 9291 263d d0dc d93d ca17 253d
000000f0: b6ba f7bd cf34 0c3e ac90 6bbc 7db1 593d
00000100: c2cb 083d 71d1 87bb 7269 aabc d898 293d
00000110: 7138 afbd 2ea2 0d3d ed59 943d 4cd1 bdbd
00000120: a543 45bd ffca 003e 5797 debc 61f6 333d
00000130: 8156 89bd 0197 363d 2afa ff3d 17ba 8fbd
00000140: eb9b 8f3c 6d4e f1bc a431 60bd 0369 a2bd
00000150: 7bcd be3c b3b9 e9bc 0ba4 64bd fd7c 4a3c
00000160: 1f58 ba3d cda2 8a3d d8a7 10bd df58 63bd
00000170: 931f 27be 2b22 90bc 4b76 553c 1312 c23b
00000180: 0ebe 1f3e 8bf6 c23c b3a7 15be 66d2 e3bc
00000190: 4759 063c 9d61 3d3d a227 e63c d359 e93d
000001a0: 7b9f 98bb ac35 89bd 855d 92bd 89fe 9ebb
000001b0: 9f35 6d3c 59ff 123d 08aa 41bd 772c 493e
000001c0: 9ed3 60ba 3d51 2b3e 1367 9abd f061 2b3d
000001d0: 3439 b1bd 577a a23d 8574 57be ae46 5ebe
000001e0: 4e9a 163c aec4 81bd 37a7 493d 6ce6 03bd
000001f0: ef6a ae3c bcfb a73d 803d 07be 1ef2 e23c
00000200: 7d30 2d3d 0d80 e1bc ec7b 693e 0896 643d
00000210: f5e3 a03d 307b 2c3d 6d4f 023e c271 f2bd
00000220: e1d3 1f3d 1df1 d6bd 25cc a6bd 7076 963d
00000230: e00c d13d 3f7f 74bd d655 4dbc 755a c1bd
00000240: 45e7 19bc db49 4b3d 91d2 24be d01d d23d
00000250: 077b 93bc f5d6 aebd edf9 b63b ae40 393c
00000260: 7581 b0bd e68a 51be b6ec babd 1c58 163d
00000270: a462 0cbe 42bb 853d d2c7 7ebc 4357 6f3d
00000280: 6897 34bd 54c7 0c3d f393 39bd 7078 f73d
00000290: c714 19be 16c3 dabd 54f8 003e 3f35 ec3d
000002a0: 28b2 e33d 061d 033e 507f b53d 5ccb 073e
000002b0: 2f98 83bd 4dba 2a3d 06a5 7dbd 4445 bd3c
000002c0: 1a62 253c ef8e 49bd 2535 543d 81e4 de3d
000002d0: 51b6 10be b452 25bd 28b3 5dbe b8b6 9e3d
000002e0: adee 623d 5449 97bd d454 813d 7af4 553d
000002f0: 2cb8 debc 19b8 6ebd bfcb 11be d323 df3d
00000300: 6d3b 2b3d bb99 6a3c 31ad 85bd 8903 efb9
00000310: d0f0 ba3c e025 a43c 4d6b 983d 3684 033e
00000320: 44fe 10bd 5956 bcbd 1d26 07be 7fc2 2ebb
00000330: d3c0 393e e310 c13d 2622 973d d749 983d
00000340: 2f85 ba3d daba 5abc 5653 db3d 29c3 24bd
00000350: e8bf 3dbd e38a 213d 5812 93bd e367 993d
00000360: bef0 8abe 91f9 ae3c a9ca 6a3d 3402 18bd
00000370: dcf4 bf3d f1c0 afbd 628d 2bbb 17e3 f6bd
00000380: 0d79 87bc 7759 aa3c 44d4 1cbe b455 fabc
00000390: 6287 36bd 1b5a ed3d 0ea9 ac3b 1268 12bd
000003a0: 323e b23d f060 bcbc f03c d83d 6dfc e0bc
000003b0: c179 14be 5b0e c63d b772 ea3d dc1a d4bb
000003c0: 88c3 d8bc 26bf a3bd a47d 12be 3c61 7e3d
000003d0: 6ac6 813e 0bb8 d33d 5b76 183e 4694 783d
000003e0: 0e02 d2bb bffb 0cbe dbcb db3c 9b8e 4abe
000003f0: 476f 09bd 0ead afbc f976 e9bb f6e6 d539
-0.05754593 0.03617469 0.04370676 0.0054460727 -0.013276299 -0.0031794615 -0.08234934 -0.10327847
-0.004548461 -0.006220364 0.044269785 -0.1187229 -0.019400528 -0.070837356 0.04504103 -0.14461192
-0.014743871 -0.066405796 0.0434953 0.15999882 -0.081118755 0.057018228 0.12479842 0.0063377856
0.012435284 0.15549831 -0.04713627 -0.00036719473 0.048289154 0.04026315 -0.04331551 -0.0037750504
-0.082806125 0.057812225 -0.08691018 0.047977634 -0.08742795 -0.034430716 0.037462495 0.1261908
-0.05277913 0.037478443 -0.1325643 0.0026452108 -0.05855012 -0.20694302 0.1334711 0.18614899
-0.08540638 0.008225486 0.03329422 -0.03737228 -0.08088537 0.099732 0.020729104 0.07886617
-0.077992305 0.04066617 0.1063782 0.04030589 -0.12096159 0.1369202 -0.014377754 0.05314778
0.033397444 -0.0041448404 -0.020802233 0.04140553 -0.08555687 0.034578495 0.072437145 -0.09268436
-0.048160214 0.12577437 -0.027171774 0.043936137 -0.067059524 0.044577602 0.12498887 -0.07017916
0.017530402 -0.029456342 -0.05473484 -0.07930186 0.02329134 -0.028530931 -0.055820506 0.012358901
0.09098839 0.06769333 -0.03531632 -0.055504676 -0.16320638 -0.017594418 0.0130286915 0.005922565
0.15599844 0.023799201 -0.14614753 -0.027810287 0.008199996 0.04623567 0.02809507 0.11394086
-0.0046576834 -0.0669969 -0.07146744 -0.0048521203 0.014478116 0.03588805 -0.047281295 0.19645868
-0.00085764553 0.16730209 -0.07539191 0.041841447 -0.08653489 0.07933491 -0.21040542 -0.2170665
0.009192063 -0.06336342 0.049231734 -0.03220217 0.021291224 0.082023114 -0.13207054 0.027703341
0.04228257 -0.02752688 0.22801179 0.055807143 0.07855979 0.04210967 0.12725611 -0.11838104
0.039020423 -0.104952075 -0.08144406 0.07346809 0.10207534 -0.059691664 -0.012532672 -0.094410814
-0.009393518 0.04963098 -0.1609595 0.102595925 -0.018003 -0.085370935 0.0055839927 0.011306925
-0.08618442 -0.20463142 -0.0912718 0.03670512 -0.13709503 0.06529857 -0.015550571 0.05843283
-0.044089705 0.03436978 -0.04530711 0.120835185 -0.14949332 -0.10681741 0.1259473 0.115335934
0.11117965 0.1280404 0.088621736 0.13261169 -0.06425511 0.041681577 -0.061924957 0.023104317
0.01009419 -0.049208578 0.051808495 0.108834274 -0.14132048 -0.040362075 -0.21650374 0.077496946
0.0554034 -0.07387033 0.06315008 0.052235104 -0.02718743 -0.058281038 -0.14237879 0.10895505
0.04180472 0.014318879 -0.06527174 -0.00045588266 0.022819906 0.020037591 0.07442341 0.12843403
-0.035398737 -0.09196157 -0.13198133 -0.0026666222 0.18139963 0.09427049 0.0737956 0.07435959
0.09107434 -0.013350213 0.107092544 -0.04022518 -0.046325594 0.039439093 -0.07181233 0.07490518
-0.27136797 0.021359237 0.057322178 -0.037111476 0.09372875 -0.085817225 -0.00261768 -0.12055033
-0.016537214 0.020794613 -0.15315348 -0.030558445 -0.044562705 0.11589452 0.0052691763 -0.03574378
0.08703269 -0.022995442 0.10558498 -0.027464116 -0.1449957 0.09670707 0.11447661 -0.0064729284
-0.026460424 -0.07995443 -0.1430574 0.06210445 0.2534669 0.10337838 0.14888899 0.06068828
-0.0064089363 -0.13767909 0.026830604 -0.19780962 -0.033553388 -0.021444824 -0.0071247783 0.00040798605

network_body._body_endoder.seq_layers.2.bias f4 [128]
00000000: bef2 feb8 10c2 573c e119 a4bc ce68 e9bb
00000010: 67c2 af3c a4ae 053d 73b4 a9ba 95f4 64bc
00000020: 3b6c a5bc 34d3 5e3c 59e9 bbbc 936c b3bb
00000030: 454b ae3c cf24 163b 8adc d7ba e53f 86ba
00000040: a90c 033b 2589 13bb 6e3c 8c3a 8145 e43c
00000050: 00c7 8ebc 0b8b 923b 77b9 a8bc c696 7c3b
00000060: f5b1 033c c4fb 383b 345f 9f3a c1a5 7a3a
00000070: 58c4 143b e34c 203c 280b 4bbc d13b cfbb
00000080: 0cae f9bb 57d0 cfbb 2bcd 873c f021 4abc
00000090: 15de 7b3b 2ecd 74bb 892e 263d e93c 5fbb
000000a0: a4b5 cebb 2476 5e3c 7554 a8bc c80f efbc
000000b0: 0400 f4bb 9d15 d83b bc58 b7bb 9834 383c
000000c0: 9120 8e3c b1d5 6bba 7512 cf3c d90b ff39
000000d0: 6220 15bc 2c90 263c b6d9 00bc 0015 e2bb
000000e0: 0bde dcbb 5136 763a 6140 82ba d2e6 fcbb
000000f0: 2469 b3bc 58ce 4c3b 6791 633c a34b 593c
00000100: 20a0 213c 8458 96bb 02f5 85bc a0bf 97bc
00000110: a194 1abc e648 9fbc 4fce a9bb 0213 8dbc
00000120: fbf3 eebb 5f13 3939 2d91 193b 013a 93bc
00000130: 960a a03b dc7c 923c 89e0 543b 0666 51bc
00000140: 9e86 d4bb e6a0 0c3c 4b78 22bb fed1 80bb
00000150: 0141 a0bc 312d 413d 9ce4 913b 0f55 e03b
00000160: 871b 7abc 6f78 a33c fb2c 6e3c 207d d83a
00000170: 54e3 03bb ab3b 8bbc f6d6 87bb 0b83 293b
00000180: 3228 13bb 5f0c 193c bab4 fd3b be6a 48bc
00000190: 9ca4 d3bb 6538 96bc 6f66 7d3c 8506 cdbc
000001a0: 1d8d 3cbc 4e76 e8bb e791 60bb a24c 48bc
000001b0: 0d18 c23a 92ea ebbb 232c aaba 921c 3a3d
000001c0: 1ef3 be3c 10cd b8bc 4d45 453b b7ff 89bc
000001d0: 6f5e d4bb d50f 273d 3184 83ba 643f e2bb
000001e0: 5e69 cb3b 3817 8c39 0c3c e63b 1616 86bb
000001f0: 8eef 9a3c 1ecd ea3c aede 693c bb8d a23c
-0.00012156878 0.013168827 -0.020031871 -0.0071230894 0.021455003 0.032637253 -0.0012947455 -0.0139743285
-0.02019321 0.013600159 -0.022938417 -0.0054755895 0.021276126 0.0022910123 -0.0016468924 -0.0010242431
0.001999656 -0.0022512164 0.0010699162 0.027865173 -0.017428875 0.0044721416 -0.020596249 0.0038542016
0.008038034 0.0028226236 0.001215911 0.00095614424 0.0022700038 0.009783956 -0.012392797 -0.0063242693
-0.007619625 -0.0063419747 0.016577324 -0.012337193 0.0038431932 -0.0037353742 0.040571723 -0.0034063405
-0.0063082743 0.013577972 -0.020548085 -0.02918233 -0.007446291 0.0065943734 -0.0055952948 0.011243008
0.017349513 -0.0008996381 0.025277356 0.00048646217 -0.009101959 0.010166209 -0.007864406 -0.006899476
-0.006740337 0.0009392249 -0.0009937399 -0.0077179456 -0.02190072 0.003125092 0.013889647 0.013262662
0.009864837 -0.0045881886 -0.01635218 -0.018523991 -0.00943485 -0.01944394 -0.0051820646 -0.017220978
-0.0072922683 0.00017650191 0.0023432479 -0.017971994 0.0048840744 0.017881803 0.0032482466 -0.012780672
-0.006485774 0.008583283 -0.0024790938 -0.003931283 -0.019562246 0.04716224 0.004452301 0.0068460773
-0.015265352 0.019954888 0.014537091 0.0016516782 -0.0020124512 -0.016996225 -0.0041454984 0.0025865461
-0.0022454378 0.009341328 0.0077424916 -0.012232481 -0.006458832 -0.018337438 0.015466317 -0.025027523
-0.011508253 -0.007094181 -0.0034266652 -0.012225302 0.0014808193 -0.007199594 -0.0012983124 0.045437403
0.023309287 -0.022558719 0.003010112 -0.016845567 -0.006480984 0.040786583 -0.0010033903 -0.0069045294
0.006207629 0.0002672018 0.007026201 -0.0040919883 0.018913057 0.02866226 0.014274282 0.019842973

action_model._discrete_distribution.branches.0.weight f4 [4, 128]
00000000: 5151 26bd 93fc e1bd 2801 0c3d f9b9 5b3c
00000010: 51d5 90bd 8d42 51bd 0ab1 8dbd 2ca1 a9bd
00000020: 4f2c 473d b631 67bd a6c5 85bd 3900 3a3d
00000030: daaf 053d fa02 32bd 1f39 56bd a8bb 53bd
00000040: f204 1f3d 6b90 2dbd a4d0 373d 4b07 43bd
00000050: dedd 0fbd 32bd 5b3c 9afd f53c 2b02 b63d
00000060: 9126 7e3d e2b4 ea3c a537 69ba 3198 2e3d
00000070: ebe6 203d 0602 a63d a1ae 2e3d 00dc 913d
00000080: 185d c73c 7fc4 153d 703d 273d cd6f 12bd
00000090: 0fa9 5f3d 61ae 1f3d d2a0 c6bc f081 4e3d
000000a0: 7284 233d 4030 14bd ad97 f63c 5d16 33bd
000000b0: c32a 77bd b152 14bd fe32 833d ecab 65bc
000000c0: 42d0 cb3c 91b8 33bd fcdf 153d 69eb 0d3c
000000d0: 90f3 433d 25e9 1cbd a94b 54bd ae7d 8dbd
000000e0: 29e1 ffbc a95f 35bd db05 583d 7456 3cbd
000000f0: 780d 84bb 6e51 2a3d 55ba 0d3d 6481 593d
00000100: 84f0 04bd 995a 27bd c73b 023d d32b 213d
00000110: 35b1 333d 6aa4 90bd 2e80 fcbc 8f39 453d
00000120: 0da1 203d f26f acbd 681c ba3c c71e c63c
00000130: b8a2 b2bc 79ea 93bd 2653 a53d 91ff 01bd
00000140: 4536 b0bd a8ec 833d 005d 90bd a7ce 303d
00000150: dc49 a1bd 89ba 8ebb 56d4 453d 7396 fc3c
00000160: 854c 8f3d 43e0 3abd dbe3 213d 876e 1fbd
00000170: f369 a73c 6983 38bd d024 23bd 5a40 4b3d
00000180: b33e 763d 422e 2cbd 1810 27bd 1da1 adbd
00000190: fe17 1e3d 9018 3c3d da33 823d df16 563d
000001a0: d40c 483d 762a 443d 4e94 c2bc 1c03 33bd
000001b0: 8dbb b7bb b5de 66bd 02e8 8c3d 98ae fb3c
000001c0: 7a5c 1a3d 358b 3bbd 79a0 4c3d e62f 413d
000001d0: 5b60 533d 5796 b53d 2693 103d ade2 31bd
000001e0: 1b89 1b3c fcc6 d63c ed8b 9dbc fc10 e6bc
000001f0: 2a1a 433d 71e5 893c 82d7 1bbd 0b94 3cbd
00000200: 3e9f 9c3c 7949 3e3d 6693 eebc c6af 803b
00000210: 8fbd 063d da49 56bd 9095 0c3c 73e8 083d
00000220: 2c79 40bb 9b0d d63c 07a4 fa3c bff3 fabc
00000230: 14e9 12bc 82a0 a23b 69d7 853b 33ee c13b
00000240: 3cbc 0a3b fdc9 3f3c 6fdc f93a 52e1 2e3d
00000250: a97e c6bb 80f1 0f3c 795b 853d 8d99 afbd
00000260: 0321 d9bc 4872 66bc a935 063c 8e45 56bc
00000270: aeff b0bc 5ef2 13bd 318c 1fbc 0d79 19bd
00000280: 305a 9b3d 2f0e 2dbc b177 32bc 0c5a 933a
00000290: 76cc 84bc e02b ffbc bc06 25bc 2d71 edbc
000002a0: 3bee 54bc 9e31 ebb9 5357 51bb c948 b139
000002b0: f833 5d3b 6e10 0b3d 30aa c0bc 30a7 273c
000002c0: 85ed b13c f498 3a3c ee10 c6bb 2ef6 f43a
000002d0: 6f00 96bc 69df 05bc 732d 8c3c 40c2 32bc
000002e0: 59a3 e13c 821c 5c3c cd47 c6bc 9e40 83bc
000002f0: 0597 cebc f45e 47bc 57bc bdbc 5daa 72bc
00000300: 7077 b83b b5e7 953d 79c4 e8bc f33f efbb
00000310: 77d0 953a fdb5 a43c 204c 933c 027a 2bbc
00000320: aee4 ccbc 96b7 e53c 7346 a1bc 40dc 9eba
00000330: 4194 61bc b702 d23c 8a26 1ebd bcf8 123b
00000340: b933 753d 939b 9abd fbed de3c c374 4ebc
00000350: 38d2 6e3d 2210 63ba 040f 01bc 5398 213a
00000360: 56cd fdbb 32d7 d93b 8f1f 90bb 8ef0 be3c
00000370: 9b89 b8bc 3edb be3b 09bf 283c 6335 d8bc
00000380: 2c15 e2bb 9ebb 19ba eb16 6739 ac20 873d
00000390: 8ed7 86b9 3b61 89bc 79c1 06bd acef 3dbd
000003a0: 5f70 cfbc 3668 bbbc bfef 373c 74bf db3c
000003b0: 5790 d73b 61fb 343c 54bf 5abc 8f3b 033c
000003c0: 8494 31bc c544 59bb 86cd 2a3c 5e87 d3bc
000003d0: edee 6ebc 13e0 7fbc 8447 a83d 43ee c03c
000003e0: ca8b bf3d 0203 42bb f899 253c 45b4 6d3d
000003f0: 3d22 883c 10ba ee3d 83a6 573d 6f2f 8cb9
-0.040604893 -0.11034503 0.03418079 0.013411039 -0.07071937 -0.05108886 -0.06918533 -0.08282694
0.04862624 -0.056443892 -0.06531839 0.04541037 0.03263841 -0.04345987 -0.05230057 -0.051692635
0.038823076 -0.042374056 0.04487671 -0.047614377 -0.0351237 0.013411807 0.030028153 0.08887132
0.0620485 0.028650705 -0.00088965363 0.04262561 0.03928272 0.08105855 0.042647008 0.0712204
0.024336383 0.036564346 0.040830076 -0.035751153 0.054604586 0.03898466 -0.024246607 0.050416887
0.03992123 -0.036178827 0.030101622 -0.0437225 -0.060343515 -0.036211673 0.0640621 -0.01401804
0.024879579 -0.043877188 0.03659056 0.008662083 0.0478397 -0.03830828 -0.051829968 -0.06908737
-0.031235294 -0.04428068 0.05273996 -0.045980886 -0.004029926 0.041581564 0.03460153 0.053101912
-0.032455936 -0.040857885 0.03179529 0.039348435 0.04387017 -0.070626095 -0.03082284 0.048150595
0.03921609 -0.084197894 0.022718623 0.024184598 -0.021806106 -0.072224565 0.080725 -0.031737868
-0.08604101 0.06441623 -0.07048988 0.04316583 -0.07875416 -0.004355733 0.048298202 0.030833459
0.06997017 -0.04562403 0.03952394 -0.038923766 0.020436263 -0.045047197 -0.03983003 0.049621917
0.06011839 -0.042036302 -0.040786833 -0.084779955 0.0385971 0.045921862 0.06357546 0.052267905
0.04884036 0.047892056 -0.023752358 -0.043704137 -0.0056070746 -0.056364734 0.068801895 0.030722901
0.03768585 -0.045787055 0.049957726 0.04716482 0.051605564 0.08866566 0.03529658 -0.043429065
0.009493138 0.02621793 -0.01923176 -0.02808427 0.047632374 0.016833039 -0.03804732 -0.046039622
0.019118901 0.046456788 -0.02912302 0.003927204 0.03289562 -0.052316524 0.00858058 0.033424806
-0.00293691 0.026129534 0.030595792 -0.030633805 -0.008966703 0.0049629817 0.004084517 0.005918288
0.0021169325 0.011705873 0.0019062887 0.04269535 -0.0060575795 0.008785605 0.06511588 -0.08574209
-0.026504999 -0.014065333 0.0081915045 -0.013078107 -0.021606293 -0.03611981 -0.009738014 -0.03746896
0.07585561 -0.010562464 -0.0108927945 0.0011242046 -0.016210776 -0.03114885 -0.010072406 -0.02898463
-0.012996252 -0.0004485966 -0.0031942918 0.000338143 0.00337529 0.033951215 -0.023518652 0.010232732
0.021719703 0.011389006 -0.0060444986 0.001868909 -0.018310754 -0.008170941 0.017111516 -0.010910571
0.02754371 0.013434531 -0.02420416 -0.016022023 -0.025218496 -0.012168635 -0.023161096 -0.014811126
0.0056294724 0.07319585 -0.028413998 -0.0073013245 0.0011429925 0.02010631 0.017980635 -0.010466101
-0.025011387 0.028041642 -0.019686913 -0.0012120083 -0.013768257 0.02563606 -0.038610972 0.002242609
0.05986378 -0.07549205 0.027213087 -0.01260108 0.05830595 -0.0008661767 -0.007877115 0.00061643607
-0.007745425 0.0066479677 -0.0043982933 0.023308065 -0.022526553 0.0058244755 0.010299453 -0.026392644
-0.0068994965 -0.0005864444 0.00022038414 0.065980285 -0.00025719072 -0.016769996 -0.032899354 -0.046371147
-0.025322137 -0.02287684 0.0112265935 0.02682469 0.006578486 0.0110462615 -0.01335128 0.008009805
-0.010838632 -0.0033152562 0.010424977 -0.025821384 -0.0145833315 -0.015617388 0.082167655 0.023551112
0.093528345 -0.0029603844 0.01010751 0.058033247 0.016617889 0.11656582 0.052649032 -0.00026738222

action_model._discrete_distribution.branches.0.bias f4 [4]
00000000: 82e3 11bd ab7e 173c 6959 9c3c 16f6 1bbd
-0.03561736 0.009246509 0.019085603 -0.038076483

action_model._discrete_distribution.branches.1.weight f4 [1, 128]
00000000: d5f2 dc3b 020f 653c fbae e3bb 4bbb c53c
00000010: 14cb 12bc 32a9 753b 0a29 d3bb d582 ebbb
00000020: e03b 8dbb ab8f ad3a b30c 53bb 8744 7739
00000030: 1bbf 4fbc 8f97 a2bb 8035 bcbb 5fcf faba
00000040: 97a3 e339 f7e9 a7bc 28bf 823b f7af 283c
00000050: f540 71ba b7d8 00b9 0362 fd3a 226e b43c
00000060: 2577 c539 f5a3 e6bb e644 0dba 4df8 be3b
00000070: 5de4 c6bb db33 973c 4edb 3a3c 0226 75bb
00000080: 667b 923b ab8e f7bb 1d0d e83b 9839 0bbc
00000090: 439c e3bb 50f8 ce3a 1f14 be3b 2738 bd3a
000000a0: 9f4b b6bb 820e 60bb 6be6 24bc e090 9bbb
000000b0: 6a1f fcbb 6c50 123b 760e ca3b b146 04bc
000000c0: 539c 3ebb 5f2a 09bc 0d28 a73b b592 67bc
000000d0: 2cc5 c439 39b0 b63b 75b8 dcbb 1016 70bb
000000e0: 3a1b f4bb caf7 81bb a31d a83b 739a d83a
000000f0: 942e 913b 78d3 e13b e521 1d39 d361 533c
00000100: 8a3a 85ba 87bc 74bc 88b1 91bb bf19 ab3b
00000110: 3e9b 08bc ea6a 9e3b 0701 7dbc b4d0 93ba
00000120: bbe0 38bb 97ed 68bc 7638 8d3b 63ab f83a
00000130: 80e3 6a3c 1a36 223b a30a 293c 04f6 2f3c
00000140: 7ffb c03b 0741 903b e3bd 45bc e977 a3ba
00000150: ec7f c13b a4ad 483a 1be5 5abc ad06 213c
00000160: 1b84 28ba 50fe 0cbc a79a 6f39 9987 8fb9
00000170: cad8 5b3c c88d e63b 309d 47bc 309a bbbb
00000180: f7da 15bb 9363 81bc 331a 95bb 6840 d2bb
00000190: 0d09 553a af43 893c ed3a 9a3b 326e 7c3c
000001a0: c49b 0d3c 3653 10bb 6242 74bc 9df3 863a
000001b0: 05dd 093b 00d5 8bbc 0b67 3abb f67a b53b
000001c0: d3e2 1a3b 4f61 e93b 628c 8a3b 553b 6b3b
000001d0: 6b9e 3bbb 88e4 53bc 2bf6 08bc a338 033c
000001e0: 1f17 363b 67bb 34bc 0b65 983b f413 80b7
000001f0: eae3 cd3b 536a 173c 5d7c 543a 9493 2bbb
0.006742815 0.013980629 -0.0069483495 0.02413716 -0.00895955 0.0037484881 -0.006444101 -0.0071872273
-0.004310116 0.0013241669 -0.0032203614 0.00023581284 -0.01267984 -0.004961915 -0.0057436824 -0.0019135288
0.00043418698 -0.020497305 0.0039900728 0.01029586 -0.00092031 -0.00012287764 0.0019331578 0.022025172
0.00037663538 -0.007038588 -0.000538899 0.0058279396 -0.0060697035 0.018457344 0.011404825 -0.0037406688
0.0044702766 -0.007554849 0.0070816413 -0.008497618 -0.006946118 0.0015790556 0.0058007385 0.001443629
-0.005563214 -0.0034188335 -0.010064702 -0.004747495 -0.0076941745 0.0022325767 0.0061662747 -0.008073495
-0.0029084876 -0.008371918 0.00510121 -0.014134099 0.00037530938 0.0055752066 -0.006735856 -0.0036634244
-0.0074495347 -0.0039663063 0.005130486 0.0016525522 0.0044306014 0.006891664 0.00014985313 0.012901741
-0.0010164541 -0.014937527 -0.004446212 0.005221575 -0.008337794 0.0048345225 -0.0154421395 -0.0011277408
-0.0028210122 -0.014216802 0.004309709 0.0018971976 0.014336467 0.0024751485 0.010317477 0.010739807
0.0058893557 0.004402283 -0.012069198 -0.0012471649 0.005905142 0.0007655269 -0.013360287 0.009828252
-0.00064283767 -0.008605555 0.00022850429 -0.00027376114 0.013418386 0.0070359446 -0.0121834725 -0.0057251677
-0.002286611 -0.015794551 -0.0045502423 -0.006416369 0.0008126654 0.016755907 0.0047067315 0.015407132
0.008643094 -0.0022022254 -0.014908405 0.0010295991 0.002103628 -0.01706934 -0.0028442766 0.0055383397
0.0023633733 0.007122196 0.0042281607 0.003589352 -0.002862836 -0.012932904 -0.008359472 0.008009109
0.0027784777 -0.011031008 0.004650717 -1.526808e-05 0.006283273 0.009241658 0.000810569 -0.0026180493

onnx::LSTM_114 f4 [1, 512, 128]
00000000: 48e8 1bbe f2d6 e83d 8cd3 263e 318f 153e
00000010: 3182 563c 8c56 02be 6209 6d3d 1799 de3b
00000020: 8996 9d3d 6e92 2ebe 1c79 0ebc 692f d33d
00000030: 0ab8 05be 2f46 153d 60de 903d 95e8 17be
00000040: e6d7 163c 6fdd 40bc e1c0 1a3e c57e 8b3d
00000050: 7c23 af3c bb4e ddbd e8df 28bd e81b 28bd
00000060: 1485 e93c 55b1 1bbc c17a d93d 4599 853c
00000070: 4d5d 7bbd 39d4 8dbd e7c1 623d e4f5 223c
00000080: 4bde 293d 7443 323c cf52 fe3d 7df3 d73d
00000090: 761b 20be fd34 16bd 328d 19be e905 0a3d
000000a0: 601b babd f5b2 6bbd ac35 13bb 5b83 cdbd
000000b0: 37b7 c9bd 945a 1dbd 2fbd 453c 04b0 093d
000000c0: e45c a2bd 12c8 83bd bdbf 8d3d 141a 17be
000000d0: f31b c03d b6cc 35be 393a aa3c d98a c63d
000000e0: ba75 8cbc 6365 833d ca93 c73d 37d9 b0bc
000000f0: 4618 ad3d 0f6b b33c 85d5 1d3d 96d4 d1bd
00000100: 8230 563d 721b dd3d 6e36 db3d 754d 803c
00000110: 3192 b5bd ef8c aa3d d252 24bd b627 a63d
00000120: fb1a 2a3d cbd0 c7bd 4eb9 a43d 758e 84bd
00000130: 6034 ec3c 4482 02be 5f25 e5bd 210a cabd
00000140: eb2f 71bc fdae c1bc 6f3d 083e 477c 593c
00000150: a627 433d 7303 023b c689 cebd 7049 b7bc
00000160: 3c13 f8bd 8538 48bd ff44 ce3d 1590 f13a
00000170: 6e74 c43d b11b f9bc 08fd 003d 5027 15bd
00000180: addf 50bd 09f3 9a3c e2be a9bd 6b09 ea3c
00000190: 97f7 87bd b4a1 233d 1581 38be b77d 3d3d
000001a0: 1e69 2dbe cbc4 f13d f661 913d 68d9 3ebd
000001b0: 1cbb fb3d 26e2 9dbd a5b3 ddbd c1ff 4a3d
000001c0: 0285 103e c412 dc3d 201b c9bb 2f93 39bd
000001d0: 9e59 06bd 4c25 abbb 9012 65bc 6bb6 1dbd
000001e0: 4115 07bc f525 cebd 94f7 c9bd 98d4 203d
000001f0: 3084 eb3d 6916 ef3d 818e 043e d600 15bd
00000200: 9826 22be a281 80bd a5a0 213d 09fe 143e
00000210: 2294 863d 85aa 003e 220f 0cbe 15f3 053e
00000220: b0ea 613d 43fd 8d3d 6b4e f6bd ebc6 c5bd
00000230: e97d ed3c ad76 fb3b e3ba fcbd 7c18 62bd
00000240: 131e ea3d 5293 3e3d 5382 9dbd eb28 263d
00000250: 2358 7b3c 035f c63d 102a 9e3c 12e7 5abd
00000260: 470e 0f3e e326 973d c8ac c73d fabd 2f3d
00000270: b1ab ae3c 06b6 253e 2779 103e bfca 0cbe
00000280: 3760 bcbd 8728 993d b056 b03d 1284 27be
00000290: 6909 ab3d 959f acbd e550 74bc 2521 973d
000002a0: 6e7a f53d 3ff3 683c 7979 86bd 7c70 10be
000002b0: 9d9c 35bd 384e 46bd bfef 83bc 3379 4e3d
000002c0: 100d 503d dd5b b6bb 207f 1d3d d8c8 e73d
000002d0: ebc2 0a3e a0c3 0c3e 6601 a7bd acdc 113e
000002e0: c326 5e3d 6e83 633d 9f46 c63c 3e00 203e
000002f0: 9353 703d a46b 27bd d13f 613d 6b70 5fbd
00000300: e1d1 cb3d 02d9 b53d 8c97 ec3b c429 f23d
00000310: 25a9 d53d 6f9b a83c 5475 eebd 25c4 243e
00000320: 89a7 00bd 7eb8 0d3e 8359 8eb9 75aa 943d
00000330: 93a4 f9bd e1ef 1e3d df09 90bd 98eb adbd
00000340: 894f 0b3e ec5b 023c 6738 5e3c dcb4 81bd
00000350: 7e01 73bd 8ea1 19be 555d 34bc 1e5e bebd
00000360: 6f3b d8bd 18fa ed3d 47ca 67bd 4346 f53d
00000370: e736 9a3c 9fc9 efbc d0d3 c83d 4793 493a
00000380: 63d8 093e f91a 05be e7ef db3d a688 0b3e
00000390: c124 bf3d 52bb cd3d a301 fd3d fcd1 143e
000003a0: e355 d53c bc07 89bd 9991 dd3d a28f 483d
000003b0: 0a4c 6bbd 036c cdbd c4d4 913d 3e5b a6bd
000003c0: a2d2 253e cb17 aebd 3177 c63d d957 a03d
000003d0: fa17 1c3e bbf6 533d 8af0 f1bd b29a 823d
000003e0: 0e61 80bd 2280 0b3e f91c 183e 9e7d 2cbd
000003f0: 3d07 123e ef1c fa3c 9aec 843c 28cd 1e3e
-0.15225327 0.113691226 0.16291636 0.14605404 0.0130925635 -0.12728328 0.057870276 0.006793152
0.07694728 -0.17048046 -0.008695867 0.10311777 -0.13058487 0.036443885 0.07073665 -0.14834817
0.009206748 -0.011771544 0.1511264 0.06811289 0.021379225 -0.10806032 -0.04122916 -0.04104224
0.02850584 -0.0095027285 0.106191166 0.016308436 -0.061368275 -0.06925244 0.0553607 0.00994632
0.04147176 0.01088034 0.12418138 0.105444886 -0.15635476 -0.036671627 -0.14995268 0.033697043
-0.090872526 -0.057543714 -0.002246241 -0.1003482 -0.098493986 -0.03841646 0.012069031 0.033615127
-0.07927874 -0.06434645 0.06921337 -0.14756042 0.09380331 -0.17753872 0.020779716 0.09694452
-0.01714598 0.06415822 0.097449854 -0.021587951 0.084518954 0.021901635 0.038533706 -0.10245626
0.052292354 0.107962504 0.10703741 0.015661934 -0.088657744 0.08327662 -0.040118046 0.08113043
0.041529637 -0.09756621 0.080431566 -0.06472484 0.028833568 -0.12745005 -0.111887686 -0.09865213
-0.014720897 -0.023643011 0.13304685 0.013274259 0.047645234 0.0019838482 -0.10084872 -0.022373885
-0.12113044 -0.048882026 0.10071754 0.0018429781 0.0959252 -0.030408712 0.03149131 -0.036414444
-0.050994564 0.018914716 -0.08288361 0.028568944 -0.06639021 0.039949134 -0.18017991 0.04626247
-0.1693463 0.118051134 0.07098763 -0.046594054 0.12291548 -0.0770915 -0.1082528 0.049560312
0.14113238 0.10745767 -0.0061372668 -0.04530638 -0.03280031 -0.005222952 -0.013981476 -0.038504045
-0.008244813 -0.100658335 -0.09861675 0.039265245 0.11499822 0.11674196 0.12944986 -0.03637775
-0.15835035 -0.062747255 0.039459843 0.14550032 0.06571223 0.12565048 -0.13677648 0.1308101
0.055155456 0.069330715 -0.12026676 -0.09657081 0.028990703 0.0076740594 -0.12340333 -0.05519913
0.114315175 0.046527214 -0.07690873 0.040566366 0.015340838 0.09686091 0.019307166 -0.053443022
0.1397029 0.07380464 0.09749752 0.042905785 0.021322103 0.16182718 0.14108716 -0.13749216
-0.09198039 0.07478433 0.08610284 -0.16358975 0.08351404 -0.08428875 -0.014911865 0.07379369
0.11986242 0.014218151 -0.06566138 -0.1410541 -0.04433881 -0.04841444 -0.01610553 0.050408553
0.050793707 -0.00556515 0.038451314 0.11317605 0.13550918 0.137465 -0.081545636 0.14244336
0.054236185 0.055545263 0.024203597 0.15625092 0.058673453 -0.04087414 0.0549925 -0.05455057
0.099521406 0.088792816 0.007220214 0.118243724 0.104326524 0.020581929 -0.11643472 0.16090448
-0.031409774 0.1383991 -0.00027151042 0.072590746 -0.12189593 0.038802985 -0.07033133 -0.084922016
0.13604559 0.007956486 0.013563252 -0.06333324 -0.059327595 -0.15003034 -0.01100858 -0.09295295
-0.10558211 0.11619967 -0.05658939 0.11976292 0.018825008 -0.029270945 0.09806025 0.00076894875
0.13461451 -0.1299857 0.10739117 0.13626346 0.09333182 0.10045494 0.12353828 0.14533228
0.02604193 -0.06690928 0.10818786 0.048965104 -0.057445563 -0.10030367 0.0712066 -0.08122872
0.16193631 -0.08500632 0.09690703 0.078292556 0.15243521 0.051748972 -0.11813457 0.06377162
-0.06268512 0.13623098 0.14854802 -0.042111985 0.14260574 0.030531375 0.016226102 0.15507948

onnx::LSTM_115 f4 [1, 512, 128]
00000000: ce8f dd3d 294d 403e 6ca8 07be bf4a 0d3e
00000010: 9af0 5ebd 2677 0b3e e3be 7ebd 03fb 5bbd
00000020: cd97 11bd 4508 343d 46c9 6d3d b6fe 463c
00000030: 16e1 ccbb f2e2 bfbd c379 d33d cd3a 993d
00000040: 9fef 17be 5a80 3dbd ffaa 80bd c6fd 8abd
00000050: 3dc2 8ebd 4337 f93d cd6e e1bd 0899 55bb
00000060: 7b02 4bbd 67fa fbbd c173 213e 180b 41bd
00000070: ccf7 1a3d 6e03 8e3c 9b08 ebbd 0041 dc3d
00000080: 92a4 8bbd 0aa1 66bd c920 4bbd 29ee c13d
00000090: 9fd0 d6bb af11 3f3c a746 bdbc 7578 45be
000000a0: 04cf cdbd 887b b03b eced 2abe 82e1 ddbd
000000b0: a322 2ebc a96c f6bd a4d5 b8bd 6e35 ea3c
000000c0: 8a75 0abe 976f 193e ae83 bebc b9e7 983c
000000d0: c57e fd3c 933a ac3d 857c 81bd 0ace 3bbc
000000e0: 62d8 e73c 1ce6 c83d 8b4f 8339 9e44 0ebe
000000f0: fdfd 29bd ed9a a8bd c198 923a 3627 dcbd
00000100: a23a ec3c 29ac 423d 777a d03d 198f f93d
00000110: b563 963d bfae ebbc df83 973d 9976 a6bd
00000120: 2221 d73d 5015 d43b f6e0 0ebe 1ba3 af3d
00000130: f1a6 b93d 00fd a9bd 82eb 32be baec 83bb
00000140: 3bb9 84bc 22d8 ed3c 36be d73d 0740 3d3d
00000150: f35c 123e a378 ad3c 2dcf d43d d1a2 063e
00000160: bddd 31be 059f e53d 6d16 633d 1b85 e9bd
00000170: 4ac8 b2bd c386 cb3c 3d35 0f3e 38a6 933d
00000180: ca15 5f3d 62b9 bf3d e4f5 1a3e fbed ee3d
00000190: e065 20be 088e aebc 2e8c de3d 4382 d9bd
000001a0: b554 23be 145b 99bd 8c0b aa3d 1ad8 ecbd
000001b0: 84f5 0cbe d97e bd3d 0073 bdbd 15d3 c8bd
000001c0: b084 9a3d 5a3c d3bd 512d 06be 0050 38bd
000001d0: cf78 63bd 58c1 873d 6075 00be 892e 04bc
000001e0: 02ed 643c 9224 68bc 04b7 7dbd 4b89 88bc
000001f0: fa4b 08be 4a79 c8bc 2e0d 193d b723 0d3e
00000200: 3c83 27bd 42c2 363e 0a78 d73d 0d83 eebd
00000210: 8d6e 8b3d dc8b a0bc dbc2 873c f1d8 fa3b
00000220: 68a2 cd3d 9afe bebd b01f ac3d 9ead a73d
00000230: bb7b 553d 3262 cfbd 6a64 343e f3d1 243e
00000240: 8cf7 a8bd a93c ebbd 0930 c4bd dd2a a13d
00000250: 90eb 2d3e 89ce 91bd e81e bebd 7c22 0b3e
00000260: 3245 9cbd 4889 873d 4c1f e5bc 8930 1cbe
00000270: 649e 91bd 5774 98bd 8089 b23d e4a9 7dbc
00000280: a0a6 32be 0806 cd3d 0f98 d43d 28de 52bc
00000290: 2f2f 3ebe ef5e 173d 5d0e 8abd 2e16 2b3b
000002a0: 51b2 9a3c a909 81bd fe17 2abc 6586 073e
000002b0: cbd7 0dbd 1d97 4f3d aa66 ad3c 0fad c63b
000002c0: 5de9 8fbd 0457 833c 2cd7 b13c b1eb a53d
000002d0: 8bb7 773c 3ba1 91bd 7782 713d 2352 89bd
000002e0: 5670 ad3d 2640 e4bd 0713 59bd ffc8 543b
000002f0: b0b0 733d 7897 23be 9ce9 853d 6c56 f6bd
00000300: fcc9 f43d 6b6e ad3d 5c56 19be 3b0e 5a3c
00000310: c6cf d3bd e0df b03d 50d6 03bd 7382 28be
00000320: 3a7d ec3d 115a 803d 74f6 b53d 9282 f33d
00000330: 5b80 30bd e193 793d 8119 98bc 7833 84bd
00000340: 8400 203e d3f7 f0bd ed8f 9fbd dfcf 06bd
00000350: 499e fabc d885 68bc 5575 57bd 09e0 463d
00000360: 701b a53d 38bb 93bd b50b cf3d 241e 873d
00000370: 53ce ee3d f290 83bd e644 ea3d 9d84 9ebd
00000380: e523 02be 105c 2a3e e11a 433d 1182 e83d
00000390: aa5c 9fbd f8d8 d53d 849a ca3c 610d 9d3d
000003a0: aab0 c8bd 7bfe 13be d6da db3d 0c9c 7fbd
000003b0: 6de2 093e 49c3 2e3d fe7d 26be cd85 29be
000003c0: 31c5 8d3d c94e 86bd 3c88 923d eeb5 083d
000003d0: d309 5cbd 7af9 b5bd 566e b9bc 24f1 57bc
000003e0: 315c 1c3d 5c1e 57bd e661 1ebd de54 9a3d
000003f0: c9e4 87bd ff07 01bd 735f 383e 8197 4cbb
0.10818444 0.18779434 -0.13247842 0.13798045 -0.054428674 0.1361967 -0.062193763 -0.05370618
-0.03554516 0.0439532 0.058053277 0.012145689 -0.0062524183 -0.09369458 0.103259586 0.074819185
-0.14837502 -0.046264984 -0.06282615 -0.06786685 -0.06970642 0.121687435 -0.11007462 -0.0032592434
-0.049562912 -0.1230362 0.15766813 -0.04712972 0.037833974 0.01733562 -0.11476251 0.10754585
-0.06818499 -0.056305923 -0.049591813 0.094692536 -0.0065556313 0.011661931 -0.023104979 -0.19284232
-0.10049251 0.00538582 -0.16692322 -0.10834028 -0.010628375 -0.12032444 -0.09025124 0.02858993
-0.135214 0.14983974 -0.02325615 0.018665181 0.030944237 0.0840961 -0.06322578 -0.011462698
0.028301422 0.09809515 0.0002504553 -0.13893363 -0.041501988 -0.08232675 0.001118444 -0.107496664
0.028836552 0.047527466 0.10179608 0.12185497 0.07343236 -0.028769849 0.07398199 -0.081280895
0.105043665 0.006472267 -0.13953003 0.08576032 0.09065045 -0.08300209 -0.17472652 -0.0040260227
-0.016201606 0.029033724 0.10534327 0.04620364 0.1429327 0.021175688 0.10391078 0.13148047
-0.17369743 0.11211971 0.05544131 -0.11402341 -0.08729608 0.024844533 0.13985153 0.07209438
0.05446414 0.09361531 0.15132862 0.11666485 -0.15663862 -0.02130796 0.10866581 -0.106205486
-0.15950282 -0.07488075 0.08302984 -0.115646556 -0.13765532 0.0925271 -0.0925045 -0.09805886
0.075448394 -0.103142455 -0.13103224 -0.04499817 -0.055535134 0.06628674 -0.12544775 -0.0080677355
0.013972523 -0.014168875 -0.061942115 -0.016667029 -0.13310233 -0.024471898 0.037366085 0.13783155
-0.04089664 0.17847541 0.105209425 -0.1164609 0.06808195 -0.01959794 0.016572407 0.007655256
0.10040742 -0.09325905 0.084044814 0.08187412 0.05211995 -0.10126151 0.1761643 0.16095714
-0.08250341 -0.114861794 -0.095794745 0.07869504 0.16984391 -0.071194716 -0.09283239 0.13587373
-0.076303855 0.06617981 -0.027969025 -0.1525289 -0.07110289 -0.07444065 0.08717632 -0.0154824
-0.17446375 0.10010916 0.103805654 -0.012870349 -0.18572687 0.03695577 -0.06741021 0.002610575
0.018883856 -0.06300671 -0.010381697 0.13234861 -0.034629624 0.050681222 0.021167118 0.0060631107
-0.070269324 0.016032703 0.021709047 0.08101595 0.015119444 -0.071108304 0.05896231 -0.067051195
0.08468692 -0.11145048 -0.05299666 0.0032468436 0.059494674 -0.1597575 0.06538698 -0.120282024
0.11952588 0.08468326 -0.1497435 0.013309057 -0.10342364 0.08636451 -0.032186806 -0.16456012
0.115473226 0.06267179 0.08884898 0.11890139 -0.04309116 0.060932044 -0.018566849 -0.064551294
0.15625197 -0.11766019 -0.077911235 -0.032913085 -0.030593054 -0.014192067 -0.05260213 0.0485535
0.08061874 -0.072134435 0.10109655 0.06597546 0.11660447 -0.064241305 0.114389226 -0.07740138
-0.12709005 0.16636682 0.047633056 0.11352933 -0.07781346 0.10441774 0.024731882 0.076685674
-0.09799321 -0.14452545 0.10735099 -0.062404677 0.13465281 0.042666707 -0.16259 -0.16554947
0.06922377 -0.06557996 0.07154891 0.033376627 -0.053720307 -0.088854745 -0.02263562 -0.013180051
0.038173858 -0.052519187 -0.038667582 0.075357184 -0.06635434 -0.031501766 0.18005161 -0.0031218233

onnx::LSTM_116 f4 [1, 1024]
00000000: f86d f03c 82fd 443c 2295 4f3c b78e 773b
00000010: 7165 7d3c 7a91 27bc 01d8 dc3c 3822 363a
00000020: 8ea1 b53c 19cc 2c3c a9c7 7d3c 6ab8 263c
00000030: 97de ba3c 6b8a d53c 8a4b ad3c 6ca0 bd3c
00000040: 34fb 6d3c b97b 933c b801 aa3c 2d7f 39bc
00000050: d79e 843c d164 b13c 135c 34bc f0e6 483c
00000060: 8e0e 063c 249b 9f3c 5af9 73bc d158 dd3c
00000070: cf91 903c 220c bfb9 7698 d03c 812f c4bb
00000080: 40ee ca3c 0016 cc3c 0f21 f63c 6dd5 7b3c
00000090: 7075 123c 0b13 043c 001d 353c 8454 5c3c
000000a0: 0d59 a13c c5ef 6a3c dd74 993c 2798 a13c
000000b0: 7c94 973c db9c 663c b038 b0ba 6189 f9bc
000000c0: 53f7 943c e716 903c 63a2 eb3c db33 40bc
000000d0: fd8e cb3c 77af db3c d9d9 ac3c 6fad bdbc
000000e0: 3c03 3e3c 9fef 4c3c 02a7 f83b 4893 3a3c
000000f0: a045 e6bb 2f53 7f3c 35b9 593b 2b45 de3c
00000100: 549e 6a3c 8ef3 2dbb 0f4b 433c 3776 d53c
00000110: fa0c d53c 39c8 813b ce85 813c 5b77 ab3c
00000120: 2cdc 453c b4f3 9f3c 8e77 c73c c953 5d3c
00000130: 9e59 28bb 72fe b33c 99ea 67bc 5034 863c
00000140: d4d5 883c 5fad 5e3c 6cba 11bc a2d3 ae3c
00000150: 6ddf 913b b5a8 69b8 781a bb3c eb9f ba3c
00000160: 3e95 063d 02c2 b63c b830 fb3b cd24 e83c
00000170: 8c76 4fb9 05b6 913c 81da 6a3c 8cff 5c3c
00000180: d670 2d3c f4d7 8c3c 16f8 c13c 355d d2bb
00000190: b78f d23c 2fdd f13c f452 2f3c cede 19bc
000001a0: 7963 b73c edde f03c b8a4 843c 6990 743c
000001b0: 008b 8b3a 9899 403c f2c5 0d3d 24fe bd3c
000001c0: 3142 a13c 85cf f83c 5b67 663c 354f a53c
000001d0: 871b d13c bc6e ab3c dec7 863b 28a3 ef3a
000001e0: 6dbb b43c e020 583c a0fe 953c 2be8 253c
000001f0: 380d 973c 16d1 3fbc 8bc8 ba3b 88de c13c
00000200: ccc4 a63c 2340 aa3c 7643 7d3c 5993 5cbc
00000210: 71ab 283c 960e 593c d626 943c 4356 323b
00000220: d638 aa3c 9189 a73c e043 953c 310d 2e3c
00000230: c7b5 953c 506e 8b3c 6983 ab3c 891e 453c
00000240: e318 a03c e1e0 aa3c 8abe 6d3c d6ed be3c
00000250: 6d46 893c 421d 203b 1ef5 653c 5161 d23c
00000260: 5300 553c 67f5 363c b644 f4b8 d8f9 8d3c
00000270: 9055 9a3c 7060 323b 4f88 643c 107b 6a3c
00000280: 0782 0c3b df34 6c3c 3f9b 973c cb91 b53c
00000290: 7a2d 4c3c 7e27 553c 867d a33a 7f3d 9f3c
000002a0: 9b22 663c 7eee 363c cba9 5a3c 0205 d83c
000002b0: 60e9 693c da94 953c 59fe 863c a78e 8d39
000002c0: d245 2f3b dd5d 913c 4b7a 9a3c c4e9 8dbc
000002d0: db56 a83c 6f6d 893b 738e ac3c c2a7 283c
000002e0: 41a8 5a3c 23d2 523c 2e43 c73c f8ab b53c
000002f0: da26 a03c 9cef 6b3c a704 083c d8d4 843c
00000300: a19a 6abb 53a6 7e3c c659 843c 69da ae3c
00000310: bece 323c e163 e83a fc00 0a3c 2153 7b3c
00000320: e72e 523c 9730 3e3c 72ef a03c 9c7f a2bb
00000330: 108f b23b 9d63 a53c d887 a03c 8531 363c
00000340: 79ab ed3c 94f0 843c 39cf b93c 05c4 343c
00000350: 368f 7b3c 3c47 cabb 4f4e 853c 24f3 003c
00000360: 5417 9c3c d859 af3c d4bd bc3c 84f7 983c
00000370: 7b30 bbbc 1b36 e33b 33f0 c03c 28fb 6d3c
00000380: cbe4 d63b 72f3 963b 1cdb a73c c21b e43c
00000390: d7cb 8d3c 8ed4 a93c 4824 853c 1682 a93c
000003a0: d03d ad3c 87eb 9b3c 942e 183c 4e97 613c
000003b0: 6260 88bc e412 983c 13e5 c73c 11ea aabb
000003c0: db2d 883c a3af 0e3c a808 92bb b969 a43c
000003d0: 9578 803c 5eb8 803c fc6f 0c3d fa47 34bc
000003e0: acd2 fa3c e392 963c c385 c93b fd44 d93c
000003f0: 2243 673b 6870 8d3c 57f9 1e3c 0cca de3a
0.029349312 0.012023332 0.012669833 0.0037774274 0.01546608 -0.010227555 0.026958467 0.0006947848
0.022171762 0.010546708 0.015489497 0.010175804 0.022811217 0.02606698 0.021154184 0.023147784
0.0145252235 0.018003331 0.020752773 -0.011321825 0.016189022 0.021654518 -0.01100828 0.012262091
0.008182181 0.019483157 -0.014890993 0.02701989 0.017647652 -0.00036439399 0.025463324 -0.005987108
0.02477181 0.024912834 0.03004506 0.015370709 0.008939132 0.008061181 0.011054277 0.0134478845
0.019695783 0.014339392 0.018732483 0.019725872 0.01850342 0.014075483 -0.0013444629 -0.030461015
0.01818434 0.017589046 0.028763955 -0.011731113 0.024848456 0.026817067 0.021099972 -0.023153989
0.011597451 0.012508302 0.0075882683 0.011387654 -0.007027343 0.015583797 0.0033221964 0.027132591
0.014319975 -0.0026542875 0.011919751 0.026057346 0.026007164 0.003960636 0.015810873 0.020930937
0.012076419 0.019525386 0.024349 0.0135087455 -0.0025688182 0.021971915 -0.0141550535 0.016382366
0.016703524 0.01359114 -0.008894544 0.021341149 0.0044516833 -5.570865e-05 0.02283977 0.022781333
0.032857172 0.022309307 0.00766572 0.02833786 -0.0001978522 0.017786989 0.014334322 0.0134886615
0.010585984 0.017192818 0.023677867 -0.0064198026 0.025703294 0.029524414 0.01070093 -0.0093915
0.0223863 0.029403174 0.016191825 0.014927008 0.0010646284 0.01175537 0.034612603 0.023192473
0.019684883 0.03037239 0.014062728 0.02017937 0.025525821 0.020926826 0.0041131815 0.0018282877
0.022062028 0.013191432 0.018309891 0.010126154 0.01843892 -0.011707565 0.005700176 0.023665681
0.020357512 0.020782536 0.0154579785 -0.013462865 0.010294781 0.013248106 0.018084925 0.002721206
0.020779055 0.020451339 0.018220842 0.010623262 0.018275155 0.017020375 0.020936685 0.012031206
0.019543117 0.020859184 0.01451076 0.023306768 0.016757214 0.0024431502 0.014035491 0.02568117
0.013000566 0.011166907 -0.00011647625 0.017331049 0.018839628 0.0027218126 0.013948514 0.014311567
0.0021439807 0.014416902 0.018506644 0.022164246 0.012462014 0.013009904 0.0012473322 0.019438503
0.0140463365 0.011165259 0.013346146 0.026369575 0.014276832 0.018259455 0.016478704 0.000269999
0.0026744497 0.017744953 0.018857142 -0.017323382 0.020549228 0.0041939537 0.021064019 0.010293903
0.013345779 0.012867483 0.024324026 0.022176728 0.019549776 0.014400389 0.00830189 0.016214773
-0.0035797732 0.0155425845 0.016156089 0.02134438 0.010913549 0.0017729962 0.008423086 0.015339644
0.012828565 0.011608264 0.019645426 -0.00495906 0.0054491833 0.0201891 0.019596025 0.011120205
0.029012429 0.016227998 0.02268182 0.011033063 0.015353968 -0.0061730426 0.016272692 0.007870469
0.019054092 0.021405146 0.023039736 0.018672712 -0.022850266 0.00693394 0.023552036 0.014525212
0.006558036 0.0046066577 0.020490222 0.027845267 0.017309112 0.020731237 0.016252652 0.020691913
0.021147639 0.019033207 0.009288449 0.013768984 -0.016647521 0.018563695 0.024401223 -0.005215891
0.016623428 0.008708867 -0.0044565983 0.020069944 0.015682498 0.015712913 0.034286484 -0.011003489
0.030618034 0.018380588 0.006149979 0.026522154 0.0035287817 0.017265514 0.009703002 0.001699747
