Machine-Learning-DRL/results/ppo/Seeker.onnx (onnx, 610983 bytes, 11 tensors)

discrete_act_size_vector f4 [1, 2]
00000000: 0000 0000 0000 803f
0.0 1.0

network_body._body_endoder.seq_layers.0.weight f4 [128, 8]
00000000: 6bb0 f03d a077 a5be da1e 0abf 7fe9 52bf
00000010: 04b8 e8be cb27 00be c8e3 323e f33b 2e3f
00000020: a583 b9bd f054 5f3e 2612 b1be c86d 723e
00000030: 6b18 96bf be60 1d3e 4069 2dbf bef2 18bd
00000040: 44e8 d13d f624 60bd 4ed7 373f 902c 9cbe
00000050: 98e8 7fbe 388c e43e 330c 2ebd d977 813e
00000060: 07c4 1e3f 801b d63d d72a cf3c 731c a3be
00000070: 3e5f 2e3f 7f1a 8c3e e1c3 5dbd ad94 7ebb
00000080: a242 59bf e95f db3e 92c3 eabe fe24 b6be
00000090: e4b3 31be b597 75be 9f1e 4d3e ebed 4bbf
000000a0: 4a70 cf3e 657a 053f b00d 2fbe 0ffc e03e
000000b0: d272 9d3e 5a0c eebd b359 2cbe b410 723d
000000c0: e651 e83d 0b01 c9be e1d3 c3bc 3c1d 04be
000000d0: f582 f3be 16d2 333f cd51 1ebe 3996 453b
000000e0: 3116 193d 4ffd 423e 0f0a 2fbd 29b9 66be
000000f0: ac6a 41be 33c7 373f b36f 80be 6799 d8be
00000100: 9cee 98be bae3 d6be 6213 f8bd 10de 8abd
00000110: 58d9 13bd a98c 23be ec21 423f beb6 0c3f
00000120: 577b 8f3e cb00 943e f223 193f de04 293f
00000130: 50db 553d ffdd 643e f89c 593e f2a8 8d3d
00000140: 2a2a b3be 8ad0 babd a4d3 48be fdcc 233e
00000150: 954b 9d3e 1aa1 f9be b5be 553a 4559 1fbe
00000160: c445 9a3b 4bac cf3e ffd9 ae3d 2b03 193e
00000170: d545 553d 59c8 1a3e 5833 2fbe 5c39 6cbe
00000180: 7b81 32bf 85f1 943c f676 1d3d e51c 7f3d
00000190: 1bbb 533f d234 043f e2f8 b63e 65b8 383e
000001a0: fb4c 65bd b56a aabd 6023 d43c bdfc 213f
000001b0: 2d64 fdbb bd14 4a3e 2d30 edbe 231a 44bf
000001c0: d0e2 a93d 183b dd3e f53e 733c 3758 c2be
000001d0: f72d 9cbc 0300 0abd 272a bfbe 7007 89be
000001e0: febd c8be e1c0 833e 1fa7 253d e2ca b6be
000001f0: 85c4 f5bc f2f0 d7bc a670 87be 193d 533f
00000200: d45e 08be edcf 853e d81a 853d 4777 793e
00000210: 3cf5 3abe a26e 903e a281 683e e7dc f2be
00000220: 25c4 6bbe 58ff dfbd c90d f3be 841f 7bbe
00000230: 6e1d 9e3d a29b eebe 1313 e53d 0e96 163f
00000240: a713 3d3d 6151 513e 86a4 1b3d 65cf d93e
00000250: bce1 e2be 9f9e bbbd 9816 2ebf 700a 1cbe
00000260: 9d87 983e c717 86be 44ed 2ebe 2105 2bbe
00000270: 7e07 573f 3196 04bf bac4 de3c ddcf 543e
00000280: e60b 79bd b4d7 9cbe 1c01 6b3f 1ab7 0bbf
00000290: ceec 793e 21b6 8d3e 5b43 7cbe 5c54 dabe
000002a0: 2563 a03d 2231 483d 0b11 65bc 5bd8 783e
000002b0: bf62 ee3e 9a6d a9be f0e4 9bbe 917d 1cbf
000002c0: 3fc2 60be 8811 803e e78b bc3e fd06 433e
000002d0: e68f cabc 4772 0ebe 1213 913e af8e ce3e
000002e0: 3081 22be 4649 753e aabc 96be bbd8 23be
000002f0: 18bd 5cbe 7644 4abe 1b37 62be 91b4 b33d
00000300: 8977 9bbe 4f69 8ebf 8c42 023e 5969 003e
00000310: c782 843e 77f6 ab3e f76a 6e3d fb47 e3bc
00000320: 636c f83d f98b cb3e b9dd b1bd 83f6 b3be
00000330: ad19 783e 0ad5 49be 0252 f1bd 0597 93be
00000340: dc1a 5dbe 0944 683e 8db6 00bf 845d ebbe
00000350: 0ee8 47be e13e bfbe dfcd ec3e 178b a33d
00000360: 6b57 5d3e 3195 edbe e6d7 9bbe 30da 26bf
00000370: ea42 12be 7a4f d6be 75aa 713e 7d84 77bd
00000380: 9c09 47be b72f 5f3d 86d4 43be 9adf 44be
00000390: 3ef0 6cbe 42c4 753e d069 9c3d 1dc0 22bf
000003a0: 8896 ec3e 1131 0c3e d4f8 3abe 837d c5be
000003b0: 16d5 3c3e 3b19 77be f098 3b3e 25c6 25bf
000003c0: a5d5 6dbd a7f3 efbe ca53 a73e 0024 35bf
000003d0: b151 8cbe 2492 a23e 7497 243f 8aaa 5abe
000003e0: 84c0 463e b204 8a3e ea21 afbe db95 30be
000003f0: 4510 d036 6376 223e 08c5 9ebe 3a1a 973e
0.11752399 -0.3231783 -0.53953326 -0.82387537 -0.45452893 -0.1251518 0.17469704 0.68060225
-0.09058312 0.21809745 -0.3458416 0.2367469 -1.1726202 0.15368935 -0.67738724 -0.037340872
0.10249379 -0.05472275 0.71812904 -0.30502748 -0.24991071 0.44638228 -0.042492103 0.2528675
0.62017864 0.10454464 0.025288982 -0.31857643 0.6811408 0.27363965 -0.054141883 -0.0038845942
-0.848673 0.4284661 -0.45852333 -0.35575098 -0.17353779 -0.23983653 0.20031212 -0.7965991
0.40515357 0.52139884 -0.17095065 0.43942305 0.30751663 -0.116234496 -0.16831093 0.05909796
0.11343746 -0.39258608 -0.023904743 -0.12901777 -0.4756085 0.7024244 -0.15460892 0.0030149354
0.03737468 0.19041942 -0.042734202 -0.2253157 -0.18888348 0.7178833 -0.2508522 -0.42304537
-0.29869545 -0.41970617 -0.12113072 -0.06780636 -0.036095947 -0.15971626 0.7583301 0.5496634
0.28023788 0.28906855 0.59820473 0.6602305 0.052211106 0.2235031 0.21251285 0.069169894
-0.34993106 -0.09121807 -0.19611984 0.15996166 0.30721727 -0.48755723 0.0008153723 -0.15561397
0.0047080237 0.40561137 0.08537673 0.14942615 0.05206855 0.15115489 -0.1710943 -0.23068756
-0.6972882 0.018181572 0.038443528 0.062283415 0.82707375 0.516431 0.35736758 0.18039091
-0.055981617 -0.08321134 0.025895774 0.63276273 -0.007732889 0.19734474 -0.46325818 -0.7660238
0.08295214 0.43209147 0.014846553 -0.37957928 -0.019064886 -0.033691417 -0.37336847 -0.26763487
-0.39207453 0.25733092 0.040442582 -0.35701662 -0.030000934 -0.026360009 -0.2645313 0.825151
-0.13317424 0.26135197 0.06499261 0.24361907 -0.18257612 0.28209406 0.22705701 -0.4743416
-0.23024042 -0.10937375 -0.47471455 -0.24523741 0.07720457 -0.46603113 0.11185279 0.58822715
0.04616132 0.204412 0.0379987 0.42541042 -0.44312847 -0.09161114 -0.68003225 -0.15238357
0.29790965 -0.26190016 -0.17082697 -0.16701175 0.8399581 -0.51791674 0.027193416 0.20782419
-0.060802363 -0.30633318 0.9179857 -0.54576266 0.2440674 0.27678016 -0.24635069 -0.42642486
0.0783141 0.04887498 -0.013981114 0.24301283 0.46559712 -0.33091432 -0.30448103 -0.611291
-0.21949099 0.25013375 0.36825487 0.19045635 -0.02472682 -0.13910781 0.28334862 0.40343234
-0.15869594 0.23953733 -0.29440814 -0.16000645 -0.21556509 -0.19752678 -0.22091334 0.08774675
-0.30364636 -1.1125888 0.12720698 0.12540187 0.25881025 0.33586475 0.05820748 -0.027744284
0.12130048 0.39755228 -0.08684868 -0.3514901 0.24228545 -0.19710174 -0.1178322 -0.28826156
-0.21592277 0.22682203 -0.5027855 -0.45969784 -0.19522116 -0.3735266 0.46250817 0.07985514
0.21615379 -0.46402887 -0.30438155 -0.6517668 -0.14283338 -0.4185751 0.2360018 -0.060429085
-0.1943726 0.054488864 -0.1912404 -0.19225922 -0.2313852 0.24000648 0.0763737 -0.6357439
0.46208596 0.13690592 -0.18258983 -0.3857232 0.18440661 -0.24130718 0.1832006 -0.6475547
-0.058065075 -0.4686558 0.32681113 -0.70758057 -0.27406076 0.3175212 0.642936 -0.21354118
0.19409376 0.26956707 -0.34205562 -0.17244665 6.200777e-06 0.15865473 -0.31009698 0.29512197

network_body._body_endoder.seq_layers.0.bias f4 [128]
00000000: af64 8c3b f921 543a 568e b7bc d78f d53c
00000010: 9108 adbb 0b3c 07bd 3cf2 38bd 80f4 3b3c
00000020: c481 97bc 1cf8 ab3c f9b3 45bc c367 5cbd
00000030: 2d65 03bc 540c 323d 9d30 03bc d02f 1c3c
00000040: bef4 d3bc 17c2 55bc 5824 c5bc 7e56 d63c
00000050: d54e 71bc 81a8 f0bc 3d2e 7cbc ca5c 34bc
00000060: 19fb 813c e184 e13c 8daa 923c fdef 82bc
00000070: 493d 2b3c 789b 803c 0dd1 b73c 8502 273d
00000080: 1cb0 7e3c 9eb4 8fbc dea8 65bc 1bc8 d7bb
00000090: 24cf 4ebc 7dea 73bc 966f 2abb bae0 c7bc
000000a0: b7ac d43c c55f 81bc ad3a 053b 0f98 a53b
000000b0: 355f 4bbb 9d14 2dba aa12 643d c5ed 2c3d
000000c0: 0859 82bb a2b4 4abc 2a72 5fbc 9f8a 593d
000000d0: 7545 953c 1bfb adbc 20bf 363d 487d c8ba
000000e0: 2de9 75bb 95ff b93c 933b 4e3d b965 9d3c
000000f0: 3190 23bc f78c 973c 812b 14bb 05da fbbb
00000100: 7bf8 fbbb 7d48 f4bb 694d 3b3d c4a9 36bc
00000110: 7bd2 443a 6d2d b33c ba4a 82bc 4303 edbc
00000120: 29e0 193d a8b1 7f3b a8f1 90bb 5ea5 743d
00000130: 90b6 afbc 9815 1d3b 372f 833c 5dda abbc
00000140: d499 99bb dd60 c1bc 1b9e c8ba 6518 143d
00000150: c787 29bc 702e d0bc 68ae c43b ae64 223c
00000160: f2cf a13c 13a4 aabc 8a7d 13ba b189 8cbc
00000170: a01d b6bc 7392 06bb 42ad 9dbc 92d8 a73d
00000180: 7eae 01bd 814b 9b3c ee3e a83c 4871 32bc
00000190: 83cf 57bd 4e68 0f3b 2353 94bc 728e 613c
000001a0: d28b 02bc 763c b3bc 0d45 51bc a860 303d
000001b0: a594 95bb a23e 58bd 4987 26bc 7a26 d53c
000001c0: 28a4 593c 8b1e 733d 5fe2 7b3c 2b72 923c
000001d0: 61a9 d43c ffa6 033d 388c 3dbc bfeb de39
000001e0: eaed a0bc 9918 a2bc 3295 033c 2d28 d8bb
000001f0: eb31 623c 1c9f 60bb aec9 59bc c29f 173b
0.0042844634 0.00080922205 -0.022406738 0.026069565 -0.005280562 -0.033016246 -0.045152888 0.011471868
-0.018494494 0.020992331 -0.012066835 -0.053809892 -0.008019728 0.04346879 -0.008007196 0.009532884
-0.025873538 -0.013046763 -0.024065182 0.02616429 -0.014728268 -0.029377224 -0.015391883 -0.011008451
0.015866803 0.027529182 0.01790359 -0.015983576 0.010451623 0.015699133 0.02243855 0.040773887
0.015544917 -0.01754218 -0.014017312 -0.0065851337 -0.012622628 -0.014887449 -0.0026006452 -0.02439915
0.025961263 -0.015792737 0.0020329163 0.005053527 -0.003103209 -0.0006602498 0.055681862 0.042218942
-0.0039778985 -0.012372168 -0.013638059 0.053110715 0.018221596 -0.0212379 0.044615865 -0.0015296126
-0.0037523017 0.022704879 0.050349783 0.019213544 -0.009983108 0.018499834 -0.0022608938 -0.007685902
-0.0076895333 -0.0074549303 0.04572812 -0.011148874 0.00075081707 0.021872247 -0.015904773 -0.02893222
0.03756729 0.0039015803 -0.004423339 0.05972802 -0.021449357 0.002396917 0.016013725 -0.020978147
-0.004687527 -0.023605758 -0.0015305908 0.036156077 -0.010347313 -0.025412768 0.006002236 0.009911699
0.019752476 -0.02083019 -0.0005626312 -0.0171555 -0.022230923 -0.0020534068 -0.019247655 0.081956044
-0.03166055 0.018956902 0.02053782 -0.010891266 -0.052688133 0.0021882239 -0.018106049 0.013766872
-0.007967906 -0.021879416 -0.012772811 0.04306093 -0.004564839 -0.052794106 -0.01016409 0.026019324
0.013283767 0.0593553 0.015373795 0.017876705 0.025959672 0.03214168 -0.011569075 0.00042518784
-0.019644696 -0.01978712 0.008031176 -0.006596586 0.013805847 -0.0034274524 -0.013292713 0.0023135995

network_body._body_endoder.seq_layers.2.weight f4 [128, 128]
00000000: c912 8dbd 0c60 d5ba c9ee 0bbd c852 a0bd
00000010: cafd 3cbd 641b e5bd 4c62 363e b399 dd3d
00000020: 17dc 53bd edbe de3d a441 bebd 2dc9 223d
00000030: 700a 7b3d d9b0 9e3d 6418 b3bd f34a 33bc
00000040: 2f83 753d 96a5 2b3d 057e 613d 4a26 f43b
00000050: 558a 32bc 0e49 6a3c 3cda 313d 24ac 543c
00000060: 882a 203d 86f8 16bd 40fa 85bc 6811 23bd
00000070: eab3 a5bc ac16 39be b609 f83b 191b 7abe
00000080: 2197 72bb d0a4 f4bc 59e8 e6bd 9e14 4e3d
00000090: e2c9 ff3c a9a6 1ebd 9f80 923d 484c 6a3d
000000a0: 7952 41bd d2ac 42be f221 e63d cd8b 34bc
000000b0: f0ab 6a3b 251a d2bd ff8b 273d fb97 603d
000000c0: 9cb7 4bba 8509 88bd 083e 20bd c853 c1bd
000000d0: 7129 da3c b080 e7bc 8a42 4dbd 5f71 54bd
000000e0: 92c6 4d3d ec97 1c3d 6c9d 09be f1b9 eb3d
000000f0: e497 a63d a281 06be 977c 13be d9fc 9ebd
00000100: 920f 35bd fee4 78be 2c2e 9f3d 9fd3 bbbd
00000110: 6e06 073d dde8 14bd 028d a8bd dd49 373e
00000120: 3fde ac3c 7330 fdbd 64c6 f2bd 70fd 62be
00000130: e8b1 763d cd43 fd3d 12af eabd 3982 d03d
00000140: fc41 94bd 5cdc 86bc c5ab 80bd 5b45 d2bb
00000150: 3c13 1cbe 626b 39be 6f6b b9bc 1255 7c3b
00000160: 1cc5 5c3d 8f54 60bd 2e09 433d 7f32 113e
00000170: 3239 73bd 3215 303e 2c30 54be 8e9b 05bd
00000180: 75eb d83d b6a8 b7bd 13ae 2ebe 14e7 d23c
00000190: a943 023e 9053 c03c 097d 80bd ce43 0c3d
000001a0: 1c41 003e 3776 4f3d 68ca 843d b29d 11bd
000001b0: 2bc5 183e 5a4c 533d 1074 57bd 0fae 203c
000001c0: 099e 28bb f201 bd3d 0d63 86bd 1dee e53c
000001d0: 55d3 483d efb2 15bd 465b 07bd b201 543d
000001e0: 384e ac3c 82ac efbd 0507 643c c6d2 09bb
000001f0: 1f7a 3e3e a1b1 3b3d 9a2b 37bd 951e 37bd
00000200: f354 d9bd 67de 403d 59f0 2d3d 6b4a 80bd
00000210: c8c3 133e e75b a43d 9eaf 01be 74f5 f23d
00000220: f2ad 70bb c37a ce3c 8332 623d f2fb b43d
00000230: 3308 6ebe e96f aa3c a1a3 213d 8875 0fbc
00000240: 5a54 813d 3261 d23d 2d06 823c 8f03 8fbd
00000250: c621 4ebe 25c3 16bc 23f7 ba3d 162b 763d
00000260: 307a a8bd c598 aa3d 89c5 e0bd a7ff 083d
00000270: 7e18 5c3c 722f f8bc 5f9f f93d 9fab a9bd
00000280: 4d19 763c 8377 1e3e c345 1cbe a2e5 d43c
00000290: 8a31 4dbc 6172 2f3e 0f78 fabc 6443 97bc
000002a0: 407b 9b3d d77d 0e3d 038a 023e f30e 053c
000002b0: 10d6 923d e5f6 10bb 5d05 bd3d 423a a43d
000002c0: 55ed 86bd 1cce 183e 1e3e 383e 9493 8bbd
000002d0: 7f16 2dbe 2972 89bb d024 79bc a1b1 babc
000002e0: 2257 9abd f9c9 6abd c7f7 1e3e 65ae 99bd
000002f0: 7a0f 973c 6017 81bd 7007 d53c 6522 e83d
00000300: 71c3 7cbc e2da 0ebd 074f 9abc 4105 87bd
00000310: aca4 ebbc dbf3 943d d1c1 813c 343e 193e
00000320: 2873 053e f307 b53c 742f 20bc 8465 06be
00000330: 08bf cb3c 7695 e73d 91b7 e93d 3218 ae3d
00000340: ec8f 8abd 824f 373e 96c8 cbbb fab1 86bc
00000350: 3a45 f13d fa70 ba3d 89fa 113e d73d d0bd
00000360: 3b88 273e dfd9 5dbd 9ed9 873d 69f2 fc3d
00000370: 18a3 e93d d749 df3d ebc3 afbd d4bb bd3c
00000380: cd3a 8ebd d078 fa3c 509a 17bd f691 463e
00000390: dfd5 a5bc 3651 a9bd 230c 8a3d b6bd 19be
000003a0: cf00 90bd 0091 fcbc 5a3c c43d 5374 743d
000003b0: a23c 9c3c e2d5 f2bc 68c2 2039 0068 18bd
000003c0: febb 2b3c d5dd e1bd d3f3 2a3e 30b6 69bd
000003d0: b812 f0bd ff79 103e 93f2 76bd 08f4 c1bd
000003e0: 7859 a73d 2b93 35bc b879 f2ba 7881 a43d
000003f0: d1f5 193c 556d 003e 144e eabd add1 e93d
-0.068883486 -0.0016279235 -0.03416327 -0.07828289 -0.04614047 -0.11186865 0.17810935 0.108203314
-0.051723566 0.1087626 -0.09289864 0.039742637 0.06128925 0.07748575 -0.087448865 -0.010943162
0.05993956 0.041905962 0.055051822 0.0074508535 -0.010897239 0.014299644 0.043421015 0.012980495
0.03910306 -0.036858104 -0.01635468 -0.03981152 -0.020227391 -0.18075055 0.007569517 -0.244244
-0.003701635 -0.029863745 -0.112747855 0.05031263 0.031224195 -0.03873316 0.07153439 0.057201654
-0.047197793 -0.19011238 0.11236943 -0.011019659 0.003580805 -0.10258893 0.040904995 0.05483244
-0.00077711954 -0.06642441 -0.039121658 -0.09439808 0.026631089 -0.028259605 -0.050112285 -0.05186593
0.0502382 0.03823082 -0.13438958 0.11510075 0.081344396 -0.13135388 -0.14402996 -0.077630706
-0.044204302 -0.24306104 0.077724785 -0.09171223 0.032965116 -0.03635489 -0.0823002 0.1789927
0.021102069 -0.123627566 -0.11854246 -0.22166991 0.06022826 0.123664476 -0.11459173 0.10181088
-0.07239148 -0.016462497 -0.062827624 -0.006416959 -0.15241712 -0.1810737 -0.022634236 0.0038502854
0.053898916 -0.05476814 0.047616176 0.14179419 -0.059380718 0.17195585 -0.20721501 -0.03261905
0.10591785 -0.08967726 -0.17058592 0.025744952 0.12721123 0.023477346 -0.062738486 0.03424435
0.12524837 0.050649848 0.064839184 -0.03555078 0.14918964 0.051586486 -0.05260092 0.009807124
-0.0025728962 0.09228887 -0.06561861 0.028067643 0.049029667 -0.036547597 -0.03304603 0.05175943
0.021033391 -0.11702825 0.013917689 -0.0021030172 0.18601273 0.045823697 -0.044719316 -0.0447069
-0.10611906 0.0470871 0.04246554 -0.06264194 0.14430153 0.080253415 -0.12664649 0.11863223
-0.0036724773 0.025205022 0.055223953 0.08837117 -0.23245315 0.020805316 0.03946269 -0.008756049
0.06314917 0.10272445 0.015872085 -0.069831006 -0.20130071 -0.0092017995 0.09129169 0.060099684
-0.082264304 0.0832992 -0.10975177 0.033446934 0.013433574 -0.030296061 0.12188601 -0.08284687
0.015020681 0.15475278 -0.15260987 0.025988404 -0.012524018 0.17133476 -0.030574827 -0.018464752
0.075918674 0.03478798 0.1274796 0.00812124 0.071697354 -0.0022119817 0.092295386 0.08018924
-0.06588236 0.14922374 0.17992446 -0.06815258 -0.16903113 -0.004194517 -0.015206531 -0.022789778
-0.075361505 -0.057321522 0.15524207 -0.07503966 0.018439997 -0.063032866 0.026004523 0.11334685
-0.015427456 -0.03487671 -0.018836511 -0.06592799 -0.028765045 0.07273074 0.01583949 0.14965135
0.1303221 0.022098517 -0.009776939 -0.13124663 0.024871364 0.11307804 0.11411966 0.08500709
-0.06765732 0.17901424 -0.00621898 -0.016442288 0.11780782 0.0910358 0.14255728 -0.10168045
0.16360562 -0.054162856 0.06633304 0.123509236 0.11408061 0.10902756 -0.0858229 0.023160852
-0.06944809 0.030575186 -0.0370124 0.19391617 -0.020243583 -0.08267443 0.06740596 -0.15013775
-0.07031404 -0.03083086 0.09581824 0.059681248 0.01907188 -0.029643003 0.00015331211 -0.037208557
0.010481833 -0.11028639 0.16694574 -0.057058513 -0.1172232 0.14109038 -0.06028993 -0.094703734
0.08171362 -0.011082451 -0.001849941 0.08032507 0.009396986 0.12541707 -0.114406735 0.114169456

network_body._body_endoder.seq_layers.2.bias f4 [128]
00000000: 45f1 bcbb 28f9 bbbb 663c 4bbc 187a c53c
00000010: 6835 89bc b371 6b3c a12d 033d 3256 213d
00000020: 0694 463d 0205 b3bb df0e 8fbb 86d7 86bc
00000030: 501b be3c 8fa8 2d3c a9f2 22bb cbcf 163c
00000040: 6794 b7bc 4415 2ebc 1147 c03a 4182 29bc
00000050: 1673 8fbb 0e80 a33c 85b8 853b 1e6b 52bc
00000060: 5465 92bc c6a6 693c a134 6fbc e40e 6abc
00000070: 4a2b 01bb 16cd 073d 19b3 38bc 7018 873c
00000080: 3aa2 c43a 1d0a f73b 914e 98bc 8126 9c3b
00000090: fd0f 0e3a 2c34 573c 24b8 c0bb 5858 2dbc
000000a0: b13e d5bb 1b34 8b3c 2fb3 34bb dfa2 1e3d
000000b0: d5cc 973a 16cc 4fbc 942b 1f3d e519 3d3d
000000c0: bf4e 23bc f26f 05bb 371a a0bb 01ea 8cbb
000000d0: d514 03bc 1b5b 5abc fedc 363d 5ca3 f83c
000000e0: d78c d93a 8c52 733b 9501 f03b 7502 c2bb
000000f0: c4f7 14bc 6a71 e83b 10cd 0b3d a2ce 823a
00000100: dc54 52bc 7859 793b 799b 23bc 484c 843b
00000110: 2f2b b6bb 5300 343b ef10 87bc 9951 6d3c
00000120: e166 513b 05e4 073b 6eb3 9d3b 293a c83c
00000130: aec2 023d 0357 b03b 5309 bdbb 7d72 5cbc
00000140: 00c3 2dbc 79e0 a73b b58a 9f3c b6e3 5dba
00000150: 10f7 043c 77ea 37bb 3104 233c cc91 813a
00000160: 8ed2 263c 613d 5fbc b547 e93c e8e8 87ba
00000170: 65f2 63bc d1c6 033d b484 4cbc a454 1b3d
00000180: d168 463c 6990 2fbc f44d e0bb b8b4 1fbc
00000190: 7c0e 9b3c 34ec 0a3d e246 f03c caec acbb
000001a0: 2dcb f03a 9903 5bbc 2f2a 6bbc 12e9 873c
000001b0: bab7 ef3c e0dd 8a3c f4cc 963c c2f1 7bbb
000001c0: f268 17bc 078a ac3b c212 133d 1082 273d
000001d0: 960d 163d 69f8 81bc 9ca6 133b 9593 6c3c
000001e0: 8dba 843c b7de cc3c b983 78ba 3da7 993c
000001f0: ac2f 2fbc b746 32bc 0e6f 9e3c 771c a4bc
-0.0057660663 -0.005736489 -0.012404537 0.02410607 -0.016749099 0.01437037 0.032025937 0.039388843
0.04848101 -0.0054632435 -0.0043657864 -0.016460191 0.023206383 0.0105992695 -0.0024863875 0.009204815
-0.022409631 -0.010625187 0.0014669617 -0.010345996 -0.004377733 0.019958522 0.0040808343 -0.012842922
-0.017870583 0.014260953 -0.01459995 -0.014285777 -0.001970964 0.03315457 -0.011273169 0.016491145
0.001500196 0.0075390474 -0.01859215 0.004765332 0.00054192526 0.013134997 -0.0058813263 -0.010580145
-0.0065077175 0.01699262 -0.0027572622 0.038729545 0.001158143 -0.012682935 0.03885992 0.046167273
-0.009967505 -0.0020360914 -0.0048859376 -0.0043003564 -0.008000572 -0.013327385 0.04464435 0.030351333
0.001659776 0.003712806 0.0073244073 -0.005920703 -0.009092275 0.007093598 0.03413111 0.0009979794
-0.012837615 0.0038047712 -0.009985798 0.0040374137 -0.005559347 0.0027466014 -0.016487567 0.014484786
0.003195219 0.0020735275 0.0048126495 0.024441795 0.031923942 0.0053814664 -0.005768934 -0.0134550305
-0.010605574 0.005123195 0.01947532 -0.00084644125 0.008115545 -0.0028063336 0.00994973 0.000988537
0.010182036 -0.013625474 0.028476575 -0.0010369094 -0.013912772 0.032172028 -0.012482811 0.037922516
0.012109951 -0.010715582 -0.0068452302 -0.009747677 0.018927805 0.033916667 0.029330675 -0.005277251
0.0018371098 -0.013367557 -0.014353319 0.016590629 0.029262412 0.016951501 0.018408276 -0.003844366
-0.0092413295 0.0052654776 0.03590656 0.04089552 0.03663405 -0.015865522 0.0022529727 0.014439483
0.016202236 0.025008542 -0.00094800774 0.018756503 -0.010692518 -0.010881118 0.019340064 -0.020033104

action_model._discrete_distribution.branches.0.weight f4 [4, 128]
00000000: b981 b33d 2a79 a8bc acc6 3dbd 1055 1b3d
00000010: 9056 d8bc dd34 0e3d 931f 053d 6c0c 3cbd
00000020: f744 303c 3417 373d bb3c 543d f1d4 1cbd
00000030: 9d73 adbc 67a5 70bc b338 123d 8f8f 40bd
00000040: d0d9 cdbc 312c a53c 444d 033d 8fb8 2ebd
00000050: c817 093d 7f8c 29bd 08ad 443d 1cd1 493d
00000060: d0d0 08bd a2d5 c23c 355e 2cbd 5b71 af3c
00000070: d0f5 21bd 74e2 9fbc 3bc9 0e3d 6970 363d
00000080: fc43 dfbc 1844 94bc a2a8 653d 9170 0e3d
00000090: b616 afbc 5572 0bbd b1bf 053d d113 57bd
000000a0: 5931 2f3d 947e 44bd 8683 3abd 88a5 86bc
000000b0: 7392 073d 9edb 263b d302 5fbd 33c9 b23c
000000c0: 8c38 083d 58e3 e03c 0c2d fcbc 03dc fdbc
000000d0: eee7 343d 09dd dbbc 3dd2 513d 6eca 063d
000000e0: ffaf fd3c f6bb f7bc 87ce 0abd b219 cf3c
000000f0: 4499 573d d69c 073d 0faf 62bc b848 223d
00000100: 3614 bebc 075d 66bd 49a9 c93c 577b ba3c
00000110: c5ac e53c b5ae 21bd cb2f 083d e2a1 023d
00000120: e3e4 0b3d 4adf df3c 02a7 1b3d dce0 66bd
00000130: 223e e1bc ca1a 94ba 333f 683c 4630 363d
00000140: e0f9 103d c175 bd3c 370b ed3c 3a4c de3c
00000150: 1fb0 26bd e46d 093d 3811 78bd 2ca9 e0bc
00000160: 0bb2 01bd a729 23bd f5b6 67bc c91c 293d
00000170: 211c acbc c825 37bd 5bfa 0b3c b409 903c
00000180: 7a9d 61bc 86f7 b33c 1bba b0bc 38d1 333d
00000190: 863d 6fbc 0ac5 1bbd 0f4f d4bc 6acc 043d
000001a0: 591e 44bd 3c5e 053d 4423 333d a84e f23b
000001b0: 5d53 ee3c 9871 f13c 4cfa cebc c72d 80bd
000001c0: fca8 093d 4790 b0bd 76f9 03bd 42fb 973d
000001d0: 25df 00bd edf7 6e3c bcac 003d 9f5b 193b
000001e0: 92f3 66ba 8e70 d53c c2f4 3d3d a8b3 143d
000001f0: 823f e1bc 6aec 84bc 5e64 fd3c cde1 aebc
00000200: fcd8 2ebe 9aa7 833d eb5e b03d a2fe 59bd
00000210: 2af6 413d 3d92 70bd 4524 80bd 08eb 863d
00000220: 31a7 58bd 0a0c 6ebd f454 d0bd d918 6e3d
00000230: d994 573d 69a2 f93c b60e 98bd a4f3 5f3d
00000240: c13c 763d ec5e 60bd e93d 7bbd f5bc 963d
00000250: 0d54 b5bd 5e65 783d c947 8cbd 5691 74bd
00000260: c8a5 783d 0aeb 7cbd b289 a53d 5818 8abd
00000270: 2202 873d 1be1 903d cc85 a0bd 1bba 48bd
00000280: cb67 733d 5d0e 0f3d bf9c 85bd 67c0 29bd
00000290: 3467 343d f9c5 7e3d 8c8d 57bd 1241 7e3d
000002a0: 6956 90bd 7abd 6e3d 2a7d 853d 13b4 443d
000002b0: 7cbf 69bd 1c9b 4cbd 9c3f ac3d 0bec 87bd
000002c0: 2ee5 d0bc bb8c 4bbd b490 873d 91ec 8f3d
000002d0: 0357 aabd e2d5 803d 47cb 52bd 85c4 58bd
000002e0: 1bbe 8cbd 4d92 873d eb34 823d 7a3a 69bd
000002f0: 8a10 b1bd ed11 79bd 2d62 843d 897f 88bd
00000300: 490c 3d3d ff36 ce3d 1da1 81bd 47f8 26bd
00000310: 5b52 8cbd 9770 833d e242 78bd d06d 79bd
00000320: 307b 25bd c4c5 19bd 9759 92bd f0ce 803d
00000330: 6ffa 843d 4ab1 f83b 7d31 6ebd 41e4 41bd
00000340: 9ab3 9cbd 9fff d0bc 9846 5cbd 5119 7abd
00000350: 6d06 513d a790 4abd 155e 7a3d 264b 213d
00000360: 5b9a 823d 9a88 7b3d d6b0 453d 6fce a3bd
00000370: d9f9 6a3d 57ff 843d f34a e3bc e08a 3dbc
00000380: 2ab7 813d 6dbb 59bd a360 353d e36c 5dbd
00000390: b4cb 403d ed99 5d3d 4e02 703d 50ce 14bd
000003a0: 4eaf 8d3d aa1e a3bd 8317 26bd 1b14 12bb
000003b0: d89b a0bd d2d3 6cbd fb61 933d 29b2 8c3d
000003c0: 9eb2 53bd 43cc 133e ba57 8b3d 2400 ecbd
000003d0: cd6d 723d 9371 8ebd 12bc 98bd ea36 393b
000003e0: 2da6 de3c c182 4cbd 68c8 d4bd 7c40 52bd
000003f0: 3020 983d 4a77 d23c 6e2b 32bd 6b80 403d
0.08764977 -0.020565588 -0.046332046 0.03792292 -0.026408464 0.034718383 0.032500815 -0.045910284
0.01075863 0.044699863 0.05181573 -0.038289014 -0.021173293 -0.0146878725 0.035698604 -0.04701191
-0.025128275 0.020162674 0.032056108 -0.042656478 0.033469945 -0.041393753 0.048016578 0.049271688
-0.033402264 0.023783509 -0.04208203 0.021416357 -0.039541066 -0.019517161 0.034859877 0.044540796
-0.027254097 -0.018098876 0.056069024 0.03477532 -0.021373134 -0.034044582 0.032653514 -0.052509133
0.04277167 -0.047972277 -0.045535587 -0.016436353 0.03309865 0.0025460492 -0.054446053 0.021824455
0.033257052 0.027452156 -0.030783199 -0.030988699 0.044166498 -0.026838796 0.05122589 0.032907896
0.03096771 -0.030240994 -0.033888366 0.025280807 0.0526364 0.033108555 -0.0138356825 0.03962013
-0.023202997 -0.05624106 0.024616854 0.022763891 0.028036484 -0.039473254 0.033248704 0.031892665
0.03415383 0.027328152 0.038001068 -0.056366786 -0.027495448 -0.0011299488 0.014175224 0.04447963
0.03539455 0.023127439 0.028936012 0.027135957 -0.040695306 0.033552065 -0.060563296 -0.027424417
-0.031663936 -0.039834645 -0.014142741 0.041287217 -0.021009507 -0.044713765 0.008543576 0.017582752
-0.0137704555 0.021968614 -0.021573117 0.0439007 -0.014602071 -0.038029708 -0.025916604 0.032421507
-0.047880504 0.032560572 0.043734804 0.0073946305 0.029092485 0.029473111 -0.025265835 -0.06258731
0.03360842 -0.08621269 -0.032220326 0.074209705 -0.031462807 0.014585477 0.031414732 0.0023400558
-0.00088100985 0.026054647 0.046375997 0.036304146 -0.027496103 -0.016226012 0.030931648 -0.021347905
-0.1707496 0.06428452 0.08611854 -0.053221352 0.0473539 -0.058733214 -0.06256918 0.065877974
-0.05289382 -0.05811695 -0.101724535 0.058129165 0.052632187 0.030472951 -0.07424681 0.054675713
0.060116533 -0.054778025 -0.06133834 0.073602594 -0.08853922 0.060643546 -0.068496294 -0.059708916
0.060704976 -0.06174759 0.08082904 -0.067429245 0.06592204 0.070741855 -0.0783802 -0.04900561
0.059425157 0.034925807 -0.065240376 -0.041443255 0.044043735 0.06220052 -0.052625224 0.062073775
-0.070477314 0.058286168 0.06518014 0.048023295 -0.05706738 -0.04995261 0.0841057 -0.066368185
-0.025499906 -0.049694758 0.06619397 0.07027543 -0.083173774 0.06290795 -0.05146339 -0.05292179
-0.06872197 0.066197015 0.063577496 -0.056940533 -0.08645733 -0.06080811 0.06464038 -0.066649504
0.046154294 0.100690834 -0.06329558 -0.04076412 -0.068516456 0.06417959 -0.06061066 -0.06089574
-0.040400684 -0.03754212 -0.07145994 0.0628947 0.06493079 0.007589494 -0.058152664 -0.04733682
-0.07651444 -0.025512515 -0.05377826 -0.0610593 0.05103152 -0.049454357 0.06112488 0.039378308
0.06377097 0.06140957 0.048264347 -0.079983585 0.05736718 0.06494015 -0.0277457 -0.011568755
0.06333764 -0.05315726 0.044281613 -0.05405892 0.047069266 0.054101873 0.058595948 -0.036329567
0.06918202 -0.07964833 -0.040549766 -0.0022289816 -0.07842225 -0.057819195 0.07196423 0.06869919
-0.051684014 0.14433388 0.06803842 -0.11523464 0.059186745 -0.06955256 -0.074577466 0.002826149
0.027178848 -0.049929384 -0.10389787 -0.05133103 0.07428014 0.025691647 -0.04349845 0.04699747

action_model._discrete_distribution.branches.0.bias f4 [4]
00000000: 04a4 debc 7005 4c3d 33f7 febc 373a bbbc
-0.027177818 0.049809873 -0.031123733 -0.022854907

action_model._discrete_distribution.branches.1.weight f4 [1, 128]
00000000: bd3e e1b9 e372 513b cfce 373b 27d0 713c
00000010: c30c 073b fa46 173a 77c9 ebbb ff10 833c
00000020: 9ea2 ccbb db3b ae3a 622c debc aade a1bb
00000030: ebde b4bb 8a1b c9bb cf12 20bb 83ee 9ebb
00000040: 832d 60ba 5d67 5fbb dbae 3039 f092 293c
00000050: 26fa 97ba 7919 4c3c f5f4 33bc 0f84 45ba
00000060: 3a76 a9bc 0aa7 3cbc fa64 513c f79f a63c
00000070: 5bf3 1ebc 5cbd 3439 4ec2 b43b afcd f53a
00000080: 44e8 b03b e096 8f3c 3722 f0bb 0645 3b3b
00000090: 9bd7 91b9 b15a 193c 4273 97bb e788 463a
000000a0: 2102 c3bb 3633 a43c 8b33 303b f3d9 a63c
000000b0: 1780 cdbb b1d4 853c eb3c 98bb 3d95 853b
000000c0: 85e6 1cbc 7047 e0bb b41e bf3b fb3e 34bb
000000d0: b3d3 38bb 97e0 e1ba 93fb 5fbc 7ac1 5b3c
000000e0: b732 1cb9 e729 eabb b1f8 8c3c 57dd 1d3c
000000f0: b814 d73b 83ed c3bb 2867 683b e81a 153a
00000100: d5fa b03c 07bc 8cbb dbd6 9d3b 23c2 e43a
00000110: 4061 e4bb fbef e0bb b582 cfbb 58b6 9a3b
00000120: 17ec 9dbc 5a93 933c e515 193b 773d a5bb
00000130: 5495 0cbb 8f8b 56bc e7ea db3a 36a0 28bc
00000140: cc24 2f3c 040b 183c 1f89 9cbc 986c 833b
00000150: 7cdf 3cb9 ee40 89bc 9f59 08bc 6421 41bb
00000160: a5e2 4fbc a2a5 8f3b 9e5b c43b ff3c bb3b
00000170: 775f 9dbb ea77 d2b8 de40 adbb ea36 a23c
00000180: e34c 053b 2a6e 203c 5bb2 973b 077c 26bc
00000190: c804 6bbc c4a1 023c 4cb7 2ebc 0b9d e4bb
000001a0: 58ae 5a3c d1cc 803c 8e9f 9dbb 2791 deba
000001b0: a764 5f3b dbda 89bc 87de c93b 084b 4aba
000001c0: 9f04 9cbb 8b7f d43b 5c20 45bc 9565 f93b
000001d0: 536d b63c f5c7 623b a2a9 83b8 00d8 4cbb
000001e0: 5d95 003c cbce 2a3c e6e7 b73b cc5e bf3b
000001f0: 8fef 713c 0397 413c fd5c 973b cc63 13bb
-0.00042962088 0.0031959347 0.0028046852 0.0147591 0.0020606972 0.0005770769 -0.0071956473 0.015999315
-0.0062449714 0.0013292985 -0.027120773 -0.0049398737 -0.005519738 -0.006137316 -0.0024425273 -0.00485021
-0.00085517036 -0.003408871 0.00016849807 0.010349974 -0.0011594936 0.012457245 -0.010983695 -0.0007534632
-0.020686258 -0.011514435 0.012780422 0.020339949 -0.009701575 0.0001723668 0.005516327 0.0018753315
0.005398782 0.017527997 -0.0073282975 0.0028575077 -0.00027817194 0.009360001 -0.004621894 0.00075735006
-0.0059511815 0.02004395 0.002688619 0.020367598 -0.006271373 0.01633677 -0.004645934 0.0040766285
-0.0095764445 -0.0068444535 0.0058325175 -0.002750336 -0.0028202354 -0.0017233071 -0.01367082 0.013412828
-0.00014896212 -0.0071461084 0.017208429 0.009635291 0.006563749 -0.0059792413 0.0035461877 0.0005687908
0.021603981 -0.0042948755 0.0048168725 0.0017452877 -0.006969601 -0.0068645454 -0.00633272 0.004721444
-0.019277615 0.018014599 0.0023358997 -0.0050427276 -0.0021451311 -0.013094797 0.001677838 -0.0102921035
0.010689925 0.00927997 -0.019108353 0.004010748 -0.00018012332 -0.016754594 -0.008322149 -0.0029469365
-0.012688314 0.0043837586 0.005992367 0.0057140584 -0.00480264 -0.00010035916 -0.005287274 0.019801576
0.0020340018 0.00979189 0.004629416 -0.010161406 -0.014344402 0.007973138 -0.010663819 -0.006976729
0.013347231 0.015722664 -0.00481028 -0.0016980515 0.0034087093 -0.016827991 0.0061605605 -0.0007716869
-0.004761293 0.006484931 -0.012031641 0.0076109865 0.022268927 0.0034604047 -6.278163e-05 -0.0031256676
0.007848111 0.01042528 0.0056123612 0.005840158 0.014766588 0.011815789 0.0046192394 -0.0022489903

onnx::LSTM_114 f4 [1, 512, 128]
00000000: 806f 823d 154d a63c cc80 143e a081 8c3d
00000010: a503 813d bc5f 11be 8dd4 04bd f8d0 963c
00000020: a297 4fbd 4d1f 283e 0e50 55bc e4ed 723d
00000030: e7b5 f8bd d6b6 0a3d e62c 93bd 4b28 ebbd
00000040: d765 fcbd f32a 8dbd 03b9 be3d 7de7 093e
00000050: 1554 0f3d 1443 7c3c 734f eb3d c6e7 453d
00000060: ca96 e3bb 9192 883d da1a fa3c 2010 453d
00000070: c445 e33d 7860 393e 84a3 29be e219 9b3c
00000080: c221 8a3d b9af 0d3e 49ff 8dbd d1fe ce3d
00000090: 7ee7 b5bd 60a3 973d 0d60 32be 1fa5 dabb
000000a0: 8261 cabd 7122 34bc b34c f8bd d616 1f3c
000000b0: e98a 493a b55c 0f3e 3dfe c83d 285d f33d
000000c0: c499 0b3e 8e40 a43d 26f6 4abd f261 bcbd
000000d0: 4474 92bc e09f 12bd 5cc4 a8bd 7808 cb3d
000000e0: 20ba 253e 8af5 a83c 4a9c 003e 69b6 56bd
000000f0: 2199 1a3e 9dd8 bd3d ec6a be3d 71a8 db3d
00000100: 7894 8d3d 0e39 aabd 0443 a8bd 0eb5 09be
00000110: e592 083e a746 823d d9c7 b33d f0c0 e63c
00000120: e5ad c13c e431 a8bd 7eb1 6fbd 377a 173e
00000130: e9dc ad3d 74bc 80bc 8889 023d 0d5b 85bd
00000140: f195 1cbe 7333 1f3e d79c 553c e811 823d
00000150: d581 f83b 6a99 1f3e c3d9 353e 3103 18bd
00000160: 9416 f8bd 881a 61bd abe8 5a3b 94dd 7a3d
00000170: 99fa 98bd 329f 2f3c 4b2e 0fbd f6ee 883c
00000180: beb4 0e3d 3044 813d 3c07 a33d 60d9 103c
00000190: c8f0 a23c 72ac 90bd dbd4 ef3d 6856 5b3d
000001a0: b78d 153d 5aaa 62bd e3f5 8f3c 47d7 2f3e
000001b0: 9ac8 a43d 52b3 723d 929d e93d 9064 c7bc
000001c0: f8b2 26be 62b3 a63d e24c 2f3e 51bd 933d
000001d0: 7f90 3c3d 9a43 c93c a8ea 553d ec6b eb3d
000001e0: aeaf e7bd 8086 d3bd dbac f43c 646b 163e
000001f0: 6888 2abe 39e5 f93d 8aec d7bd 9d97 08be
00000200: da58 16bd 0074 273e 73b9 a1bd c4d9 053b
00000210: a0e7 0bbd 57dd 8ebc 5d4f a53c 669b 88b8
00000220: d1d0 d83d 5ce3 34be 3118 823d cf5d 9abd
00000230: fe07 dc3d 3a5b d03d 282e 54bd eec7 073e
00000240: de87 f1bd 437f ae3d a83b 2f3c 1265 9e3d
00000250: 7035 5cbd 7c0c 013e 5fda 38bd 5836 f2bd
00000260: 471b 0ebe 9362 013e 1060 c73d cbd2 1a3c
00000270: 429f 1bbd abbc 1d3e ac74 f43c 5703 983d
00000280: 7831 213d 6b03 0c3e 95ae 15bd 6db2 7fbc
00000290: 9e09 703d 3435 99bd 3bc1 f0bd c9aa 9a3d
000002a0: 39ed 05be 1d35 363e c53b 3fbd 085e 913d
000002b0: a574 dbbd 000e 483a e6a4 883c 9d46 063e
000002c0: 67ee f8bd 38af 50bd 5b72 23be 0f89 a23b
000002d0: 3a0a ffbd d912 c93d d46f ab3b 269b 443d
000002e0: dcd7 bfbd bae4 0fbe 9c59 fdbd 48ae 03be
000002f0: b54a 1d3e 71e5 4f3d 7867 023d 2962 273e
00000300: b79c 42be 4e91 f43c 6da1 99bd fe17 243e
00000310: 8261 cfbc 5a4e 913d 357a 893d ed70 303e
00000320: d982 b53d 322b b83d 0558 66bd 68c3 333d
00000330: fab0 18bb 0fb5 a8bc f093 973c fb52 58bd
00000340: 2a38 ae3d c0ad 263c 10de d2bd d94f c3bd
00000350: 9321 29be ad51 a63c 7638 69bd b621 9dbd
00000360: 0b51 16be 3fdc eebd 79b2 033e af2b dabd
00000370: 665d d7bd 0b5d 44bd 5868 e03d a58e bf3d
00000380: 758e 833d 1b0d e23d e077 66bd af46 7abd
00000390: 02e3 be3d 1343 95bd 1913 03bd 2ae1 63bd
000003a0: b7e2 efbd 222c 0e3e 45b6 5a3d bbc5 553d
000003b0: 0126 223e b3f4 103d 5de6 2b3e 2840 f13c
000003c0: 1cfa 5c3d 2622 cb3b d70f a9bd e300 a5bd
000003d0: bff5 cebd 7baa 863d 7ba0 b4bd 3ba1 603c
000003e0: 42d8 3b3e 8ffa bb3c 2b04 08bb c8bf 043e
000003f0: 75d5 00be be6e aa3c 94c0 9e3d 2bf8 20be
0.06368923 0.020300427 0.14502257 0.068606615 0.06299523 -0.14196676 -0.032429267 0.018410191
-0.050681718 0.1641819 -0.013019575 0.0593089 -0.1214407 0.033865772 -0.07186298 -0.11482295
-0.12324112 -0.068929575 0.09312632 0.13467212 0.034992296 0.015396852 0.11489763 0.04831674
-0.0069454657 0.0666858 0.030530382 0.04811108 0.11097291 0.18103206 -0.16566283 0.01893324
0.0674472 0.13836564 -0.069334574 0.10107196 -0.08882044 0.07404208 -0.17419453 -0.006672516
-0.098818794 -0.01099454 -0.12124004 0.009710034 0.0007688241 0.14000209 0.09814117 0.118830025
0.13632876 0.08020125 -0.04955115 -0.09198369 -0.017877705 -0.035797 -0.082405776 0.09913725
0.16184282 0.020624895 0.1255962 -0.052420054 0.15097477 0.09269831 0.092977375 0.10725487
0.06913084 -0.083116636 -0.08215907 -0.13447973 0.13337286 0.06361132 0.08778352 0.028168172
0.02364249 -0.08212641 -0.05851888 0.14792715 0.08489401 -0.015714861 0.03186944 -0.06511507
-0.15291573 0.1554697 0.013037882 0.063510716 0.0075838366 0.15585867 0.17758851 -0.03711242
-0.121136814 -0.054956943 0.003340284 0.06124647 -0.07469673 0.010719107 -0.034956258 0.016715508
0.034840338 0.06311834 0.07960364 0.008840889 0.019890204 -0.07064141 0.11710521 0.0535492
0.036512103 -0.05533824 0.017573303 0.17171966 0.08046074 0.059253044 0.11407007 -0.024339944
-0.16279209 0.08139683 0.17119172 0.072138436 0.04603624 0.024568368 0.05222574 0.11495194
-0.11312805 -0.10328388 0.02986758 0.14689404 -0.16653597 0.12201924 -0.10543163 -0.13339086
-0.03670583 0.16352844 -0.078967 0.0020423988 -0.03415644 -0.017439527 0.020179445 -6.5139306e-05
0.105867036 -0.17664856 0.063522704 -0.07537424 0.10743712 0.1017365 -0.05180183 0.13259861
-0.11793493 0.08520367 0.0106953755 0.077341214 -0.0537619 0.12602419 -0.04513013 -0.118267715
-0.13877593 0.1263526 0.09735119 0.009449671 -0.037993677 0.15404002 0.02984079 0.07422512
0.039353818 0.13673179 -0.036543448 -0.015606505 0.05860292 -0.07480851 -0.11755606 0.07552106
-0.13078775 0.17793699 -0.04668786 0.07098013 -0.107156076 0.00076314807 0.016680192 0.13112874
-0.12154847 -0.05094835 -0.15961592 0.0049601863 -0.124531224 0.09818048 0.005231837 0.047999524
-0.09367344 -0.14052096 -0.12370607 -0.12859452 0.1536053 0.05075592 0.031836957 0.16346039
-0.19005094 0.029854443 -0.07501493 0.16024777 -0.02531505 0.070950225 0.06712762 0.17230578
0.08862848 0.08992614 -0.056236286 0.043887526 -0.0023298846 -0.020594148 0.01850316 -0.05281351
0.08506806 0.010173261 -0.10296261 -0.09536714 -0.16516714 0.020302618 -0.05693861 -0.076724455
-0.14679353 -0.11663102 0.1286105 -0.10652863 -0.10515861 -0.047940295 0.10957402 0.09353379
0.06423656 0.11037656 -0.056266665 -0.061102565 0.09320642 -0.07288184 -0.032000635 -0.055634655
-0.11713164 0.13884023 0.053396482 0.052190524 0.1583481 0.035389613 0.16787095 0.029449537
0.05394946 0.006199139 -0.08254974 -0.0805681 -0.10105466 0.06575485 -0.08819672 0.013710315
0.18344215 0.022946624 -0.0020754437 0.12963784 -0.12581427 0.02080476 0.07751575 -0.15719669

onnx::LSTM_115 f4 [1, 512, 128]
00000000: 0918 11be 222e 2bbd 0dc0 0e3e 77b3 2cb9
00000010: 094d fd3d 879a 963d 5e55 54bd be25 c5bd
00000020: 86e3 083e df28 873d 42f2 86bd 2bcb 31bd
00000030: f9ae 1cbd e6c6 a1bd 065f 6f3d 536c 26bd
00000040: 16ee ae3d 564b 62bd 0b52 eebc ea7f 4abc
00000050: 8e84 14bd f40b 17be 855f 5c3d cb23 dc3d
00000060: d522 00be f4f1 d83d f9e5 21bc fe6c 5c3d
00000070: 4e8c 71bc c813 11be c1ed b5bd 4f28 d23d
00000080: 3242 efbd 7bbc 90bb 2a5c 8dbc 8f39 2cbd
00000090: 5776 efbd f2f4 bfbd e0d8 923d 72bf a43d
000000a0: a5d3 813d 2b28 453d 498e 183e 59a9 243e
000000b0: be56 0abe 111d e8bd 0376 ff3d d9e2 55ba
000000c0: 7167 a13d 8e01 073e 6fa1 12be ebda 35be
000000d0: 771d 01be e500 9e3d f2dc 383d d27d fdbd
000000e0: 3f47 6abb 69ec a2bc 6b13 29bd bc86 f0bd
000000f0: dcc3 f33d 6000 6a3d 1807 c53d 0e84 b0bc
00000100: 8415 77bd 68bf e1bd 634d f0bc cf83 e8bd
00000110: aabf 573d b980 a6bc dbd8 1dbd d8e0 3fbb
00000120: d6fa 45bd 965a 0bbe 4313 1fbc fe4a b2bc
00000130: d851 6cbc 148f dfbd cc9b 05bd 1eb3 17bc
00000140: 9698 09be 946c d93c 15ab f23d 7980 a83c
00000150: 726a 8b3d f830 043e a968 183d 9c1c 2bbc
00000160: 29da 643d 03a8 153d d34f 21be b428 d8bc
00000170: ee9b 933d 15ce 643d d1a5 7c3d c3ab 83bd
00000180: 7044 363d 5065 853d 18e1 2f3d d420 3cbd
00000190: c9cb 973d 90ea 0b3e 35d8 043d 07a3 96bd
000001a0: 5890 c23c a904 15be 42ee 0f3e c868 09be
000001b0: adff d23d 6dab 303d 8041 f6bd 25a2 3e3b
000001c0: 30f7 6ebd 87d5 e1bb 4b69 803d 0611 153d
000001d0: f498 2e3a 0981 913d 5322 44bd 59a0 a33d
000001e0: 537e 0e3e 016b cabd be8e 0e3e e0e7 6bbb
000001f0: 87a8 163e f128 5d3d 0705 dcbd b9dd babd
00000200: 6581 173d d85d 303d f430 9fbd e350 1bbe
00000210: c053 e5bd ca7c f8bc d95f debc fca6 193b
00000220: 65c7 b23d dba9 0e3e 0828 64bd cfc2 c13d
00000230: e4d9 90bd 7a12 ed3d ce86 c9bd 4926 2c3d
00000240: 1f0a 8e3d d0c3 92bd d16f e53d 3e99 013e
00000250: d991 763d 5dab 183e 0b74 883d e7fa e8bd
00000260: 3a11 323d 4334 093e f5d8 0b3e ceb6 e3bb
00000270: 3a94 6dbd 2725 323d d204 f53d 51bc ec3d
00000280: 0c1d d53d dbeb 9e3d c464 53bd d138 0abe
00000290: 7ed1 a53d 0313 b4bc 40b4 24be 9244 c6bc
000002a0: 4b7f 80bd a723 e8bc afad ad3d 152d bd3d
000002b0: 0173 f4bd 2111 243c 3627 68bd 15e0 21be
000002c0: 4dfa 2bbd 958d 0cbe 5cb0 933b 4194 05bd
000002d0: fb6d 8bbd e901 00be 470e afbd 8c45 043e
000002e0: ecda 743d 74bd 94bd 6794 ea3d 48ca 63bd
000002f0: 5ca4 e6ba 87fa cbbd b445 8bbd 393c 1cbd
00000300: 4db3 1f3e dbe4 883c b658 1a3c 8c5f 0c3e
00000310: dee1 063b 5eb0 f7bd 4723 9cbd f0ab 973d
00000320: 6197 c8bc 32a7 c0bd 927e 6d3c ff9a b7bd
00000330: eb65 da3d 5402 05be 518a ddbd 7d5d 12be
00000340: b577 52bd 595f 1dbe 9eed cdbd 8e65 f63d
00000350: 42ca 073e 135c ff3c 045d 74bd a80d cc3d
00000360: 9e10 e13d 6f73 04be 843d 80bd 7f90 9c3d
00000370: ec63 e93c 1aaa 983d e4f5 e0bd 3eb8 1bbe
00000380: 5069 01be e5ac e5bd 1dc1 853d f58e a03d
00000390: 0522 b5bc 7557 02bd 95b4 ad3d 4b78 3dbd
000003a0: dab5 953d 723f 2cbe d096 b33d 91a4 043e
000003b0: 9ade dbba 4f4c 04be 29f2 fe3d d719 0d3e
000003c0: 66ae cb3c b405 523b 8577 bbbc 6582 ff3c
000003d0: 63bf 75bd 6991 063e 0d7a 79bd 31a1 a23d
000003e0: 493d a5bd 9111 fe3d 0ea1 27bd 138e 30bc
000003f0: 46bc 173d e8dd 0f3d d824 2bbc e9b5 ec3d
-0.14169325 -0.041792043 0.13940449 -0.00016470054 0.12368209 0.073536925 -0.051839225 -0.096263394
0.13368043 0.065995924 -0.06589176 -0.043406647 -0.038252804 -0.07899265 0.05844023 -0.04063065
0.08541505 -0.055247627 -0.029091856 -0.012359599 -0.036259227 -0.14750654 0.053802032 0.107490145
-0.12513287 0.10593024 -0.00988149 0.05381488 -0.014742924 -0.14167702 -0.088832386 0.102615945
-0.11682548 -0.004417 -0.017255861 -0.04204708 -0.116924934 -0.093728915 0.07170272 0.08044328
0.06339196 0.04813401 0.14898027 0.16080226 -0.13509652 -0.11333669 0.12473681 -0.0008159108
0.07881058 0.13184187 -0.14319395 -0.17759292 -0.12608896 0.07715014 0.045132585 -0.12377514
-0.0035748032 -0.01988812 -0.041278284 -0.117444485 0.119025916 0.057129264 0.09620494 -0.021547344
-0.060323253 -0.11022836 -0.029333776 -0.113532655 0.05267302 -0.020325052 -0.038536888 -0.0029278304
-0.04833492 -0.13608775 -0.009709182 -0.021764275 -0.01442381 -0.10915962 -0.032619283 -0.009259013
-0.13437113 0.026541032 0.118490376 0.020569073 0.06807412 0.12909305 0.037209187 -0.010443833
0.055872116 0.03653718 -0.15753107 -0.026386596 0.072074756 0.055860598 0.061681572 -0.06429245
0.04449886 0.065134645 0.042939276 -0.045929745 0.07411916 0.13663697 0.032432754 -0.07355314
0.02375047 -0.14552559 0.14055732 -0.13418877 0.103026725 0.043132234 -0.12024212 0.0029088345
-0.058341205 -0.0068919095 0.06270083 0.036393188 0.0006660365 0.0710469 -0.047884297 0.07989568
0.13915376 -0.098836906 0.1392164 -0.0035996363 0.14712726 0.053994123 -0.107431464 -0.091243215
0.036988635 0.043058246 -0.07773009 -0.15167575 -0.11197615 -0.030332942 -0.027145313 0.0023445478
0.08729438 0.13931982 -0.05570224 0.09460985 -0.07072809 0.1157579 -0.09840165 0.0420287
0.06935524 -0.071662545 0.11202968 0.12656114 0.060197685 0.1490912 0.066627584 -0.11375981
0.04347346 0.13398843 0.13656981 -0.0069492823 -0.058002688 0.043492462 0.1196381 0.11559356
0.10405931 0.077598296 -0.05160977 -0.13498236 0.08096598 -0.021981722 -0.16084385 -0.024202619
-0.06274279 -0.028337313 0.08480393 0.09237114 -0.11935998 0.0100138495 -0.05667802 -0.15808137
-0.041986752 -0.13725884 0.0045071077 -0.03261209 -0.068080865 -0.12500729 -0.08547645 0.12917155
0.059779093 -0.07262698 0.11454087 -0.055612832 -0.001759659 -0.09959894 -0.06800404 -0.03814337
0.15595742 0.01671069 0.009420564 0.13708323 0.0020581405 -0.12094186 -0.07623916 0.07405841
-0.024486246 -0.0940689 0.014495509 -0.0896511 0.106639706 -0.1298917 -0.108173974 -0.14293475
-0.051383693 -0.15368403 -0.100550875 0.12031089 0.13260749 0.031171834 -0.05965902 0.09963542
0.109894976 -0.1293466 -0.06261733 0.07644748 0.02849003 0.07454319 -0.109844 -0.15207002
-0.1263783 -0.11214618 0.06530974 0.07839767 -0.022110948 -0.031821687 0.08481709 -0.0462573
0.07310076 -0.16821077 0.087689996 0.12953402 -0.0016774714 -0.12919734 0.12448532 0.13779388
0.024863433 0.0032046856 -0.02288414 0.031190107 -0.059996974 0.13141407 -0.060907412 0.07940901
-0.0806833 0.12405694 -0.040925078 -0.010776061 0.037044786 0.035123736 -0.010445796 0.11558134

onnx::LSTM_116 f4 [1, 1024]
00000000: dad8 b63c 756f 1b3d 863d cf3c 9e38 283d
00000010: 11bb 053d 7c99 153d 5521 063d 9b70 0e3d
00000020: 8237 f13c 01cd f03b 9196 d23c 4754 2c3d
00000030: 7a5e 1b3d 8906 8e3b 1962 043d 33c0 4a3d
00000040: 95a4 c73c 5ccf 083d de3d 8a3b 1f01 cb3c
00000050: f81c c23c 8073 2c3d 5f14 263d c8dd 2b3d
00000060: bb08 be3b 015c 2d3d 85c3 7d3c 02ee 2c3d
00000070: 3ff3 c03c 301f 073c 0289 163d 2c65 cd3c
00000080: 7432 8e3c 2647 4e3c 1f2d 223d c572 043d
00000090: 0126 de3c 4fb8 763c cf15 273d 79ab 613c
000000a0: 79d6 e93c 3bd0 113d befc 3c3d 83f2 353c
000000b0: 119f e13c 6589 4d3c 4191 d43c b369 023c
000000c0: 157a 693c 7fc1 143d f20d fe3c ce80 293d
000000d0: 3437 133d 4c3d 9f3c eb90 b33c eb4f 983c
000000e0: e1c9 273d cba4 cc3c ebfa 113d 6d7f 2e3d
000000f0: f90f 233d fe69 0a3d fb29 a73c 4db9 543d
00000100: 84b3 1e3b 55af 283d a000 1b3d 4f6b 5c3c
00000110: 8f7a 123d 2794 343d a3c6 4b3d 599f 613c
00000120: 61d1 0f3d 608d 903c f56c 583d 43c1 7c3c
00000130: a5dc f73a b2b9 48bc 8c44 cb3c ffc6 ef3c
00000140: 82d4 3f3c cc1d 733c b0c4 5b3c 944e 1f3d
00000150: f181 b03c b7c2 163d 298d b83c 8e68 7c3c
00000160: b4ca cb3c e8c5 5c3c 4605 003c 3065 263c
00000170: ad9b 033b 6163 2c3d b92a 2c3c 07e4 613c
00000180: 5320 613c 2e92 313d bede ee3c 1f34 2f3d
00000190: 0d8e d43b 5d24 283d 0c00 303d 4d83 103d
000001a0: 6244 9039 a154 123d eac2 b4ba 8f3d cebb
000001b0: 0006 3b3d 26a1 333d 13a4 bf3c 035c 913c
000001c0: d74f 1a3d 453c e43c c018 203d a6af e53c
000001d0: 895d 003d d0d9 4e3c b121 473d ebad 933c
000001e0: c921 323c 2bad 233d f2d1 3d3d 77de 473d
000001f0: 8500 f13c aaf9 f839 0e3f 943c edf8 643c
00000200: 4cbc c13c f348 aa3c 5246 4f3c 10ec c53c
00000210: 6988 713c 0f84 9d3c 40a6 7c3c 5473 0c3d
00000220: 98d8 013c fb59 bf3c cc22 f03c 3ec0 aa3c
00000230: ba54 b33c aa66 203c 3975 dc3c 0c7e ff3c
00000240: 29b8 963c 6fca cc3c 85f5 2b3d 5874 973c
00000250: e6d2 033d a069 883c 5782 b33c 5534 ce3c
00000260: b96a b73c 3522 723c 605f 703c 18d3 ac3c
00000270: 2fde d23c 31a8 7b3c 47ad db3c e20a 973c
00000280: 4b54 6a3c 06ee b83c c344 d03c 4d58 d23c
00000290: c2c6 943c 4741 023d 5325 f83c f045 053d
000002a0: 90bd 913c fe17 933c 52ec c13c 7d91 bb3c
000002b0: a862 a53c 05ec 573c 8b8c 343d 31b3 f73c
000002c0: d686 e33b fa3e af3c 082d e03c 12a6 9a3c
000002d0: 4b67 ac3c 65b7 233c 02e7 9e3c e943 b73c
000002e0: f9d2 ea3c fb10 bf3c f916 a93c 1476 b03c
000002f0: 5e45 523d 7794 7e3c 485f 803c 6e8d d93c
00000300: 6b73 373c 9c7f 0a3d ba01 dd3c d5fa 9a3c
00000310: c6fb cb3c 4d72 093d 215f 7f3c 2eab b03c
00000320: d45c a13c f181 1d3c 267d ca3c da59 3b3d
00000330: d4ed e43c 684c 1cbc 6b3a bf3c 9ddc b63c
00000340: 0906 983c ff70 9e3c 3f20 b23c 4412 8e3c
00000350: d3e2 a73c 30f8 163d 8938 113d 143e 473c
00000360: c82f a63c 779c ae3c e7a5 a33c 4263 063d
00000370: a730 823c 631c da3c 5d33 9d3c c102 083c
00000380: 8d9c d43c 05b4 ac3c 7f91 e33c 727b 893c
00000390: 927f bc3c b817 533c 4003 d63c 2b7c 823c
000003a0: 78c2 213d ce85 853c b9a9 c83c e541 6cbb
000003b0: 9ad7 b43c 49b1 df3c d399 e53c e717 383d
000003c0: d009 b63c 5f01 0d3d ebab 703c b271 823c
000003d0: 0c43 093d 7cfc 3a3c b597 963c 1f35 9ebb
000003e0: c7e9 723c 47dc b63c ed0a 003d ec99 b53c
000003f0: 311f 9a3c 165a e13b 2b70 a33c 0286 df3c
0.0223202 0.03794809 0.025297891 0.04106962 0.032649104 0.036523327 0.03274663 0.034775358
0.029445414 0.007348657 0.025706561 0.04207256 0.037931897 0.004334275 0.032320116 0.0494997
0.024370471 0.03340088 0.004218801 0.024780808 0.023695454 0.042102337 0.04054677 0.041959554
0.0057993806 0.04232407 0.01548851 0.04221917 0.023553489 0.008247182 0.036751755 0.025072657
0.017358042 0.012590205 0.039593812 0.032336015 0.027117731 0.015058591 0.040792283 0.013773792
0.028544651 0.035598975 0.04613947 0.011105183 0.02754167 0.012544964 0.025948169 0.007959771
0.014250298 0.036317345 0.031012509 0.041382603 0.035941318 0.019438408 0.021919688 0.018592795
0.04096401 0.024980923 0.035639685 0.04260199 0.039810155 0.03379249 0.02040576 0.05193453
0.0024215886 0.041182835 0.037842393 0.013453319 0.035761412 0.0440866 0.04974998 0.013770902
0.03511179 0.017645538 0.052838285 0.015426937 0.0018910362 -0.012251304 0.02481296 0.029269693
0.011708381 0.014838647 0.013413593 0.038893297 0.021546336 0.03680679 0.022528248 0.015405787
0.02487693 0.013474919 0.007813757 0.010155961 0.0020081804 0.042086963 0.010508233 0.013787276
0.013740617 0.0433523 0.029158946 0.042774316 0.0064866603 0.041050304 0.042968795 0.03528147
0.0002751677 0.03572524 -0.0013790999 -0.0062939594 0.04566002 0.043854855 0.023393666 0.01774407
0.037673797 0.02786077 0.039086103 0.028037857 0.031339202 0.012625173 0.048616115 0.018027266
0.010872313 0.039960068 0.046342798 0.048796143 0.029419193 0.0004748826 0.018096473 0.013975364
0.023649357 0.020786738 0.012651043 0.024160415 0.014741995 0.01922801 0.015420496 0.034289673
0.007925175 0.023358336 0.029313467 0.020843621 0.021890987 0.009790102 0.026911365 0.031188034
0.018398361 0.024998872 0.041982193 0.018488094 0.03218355 0.016651928 0.021912737 0.025171438
0.022389757 0.014778663 0.014671177 0.021096751 0.025740711 0.015359924 0.026816024 0.018437807
0.014302324 0.022574436 0.025423413 0.02567687 0.018161181 0.031800535 0.030291235 0.0325374
0.017790586 0.017955776 0.023672257 0.022896523 0.020188645 0.01317883 0.044079345 0.030236812
0.006943564 0.021392334 0.027365223 0.018878017 0.021045348 0.009992455 0.019397262 0.02237125
0.028665053 0.023323527 0.020640837 0.021540679 0.051335685 0.015538326 0.015670434 0.026556697
0.011196951 0.033813104 0.026978362 0.018918434 0.024900328 0.03355627 0.015586645 0.021566
0.019697584 0.0096135 0.024717879 0.045739986 0.027945437 -0.009539701 0.023343286 0.022321993
0.018557565 0.01934099 0.021743892 0.017342694 0.0204939 0.036857784 0.035454307 0.012160797
0.020286456 0.021314843 0.01997657 0.032809503 0.01589234 0.026624864 0.019189531 0.008301438
0.025953555 0.021081934 0.027779339 0.016782496 0.023010049 0.012884073 0.026124597 0.015928349
0.0394921 0.016299155 0.024494993 -0.0036050018 0.022075463 0.027306216 0.02802745 0.04494467
0.022221476 0.034425136 0.014689426 0.015923355 0.033511207 0.011412736 0.018382886 -0.00482811
0.014826245 0.022321833 0.03126042 0.022168122 0.018813701 0.006877194 0.019950947 0.02728558
