Machine-Learning-DRL/results/SeekerTrainingWall11/Seeker/Seeker-499967.onnx (onnx, 610983 bytes, 11 tensors)

discrete_act_size_vector f4 [1, 2]
4.0 1.0
00000000: 0000 8040 0000 803f

network_body._body_endoder.seq_layers.0.weight f4 [128, 8]
-0.17746764 -0.22160044 -0.36593857 0.042727858 -0.41486025 0.38749084 0.11282806 -0.02591189
0.15188815 0.022401769 0.09906071 0.0068354444 -0.022336898 0.25539458 -0.25533208 0.4940498
0.25061736 -0.41276285 -0.54916114 0.54937655 -0.92321503 -0.22269309 -0.021839295 -0.32020453
0.32286015 0.50623375 0.17453565 0.540971 0.020184137 0.63909507 0.216678 0.89388686
-0.5633231 -0.22007379 0.2554206 -0.22414136 -0.42749655 0.27499917 -0.009181762 0.32894424
-0.09888472 0.042057674 -0.53510785 -0.25715178 0.1459184 0.24330361 0.2626712 0.7020933
0.37979752 0.8466914 -0.22306426 0.28381783 0.03594875 -0.19892016 -0.8793602 -0.02766603
-0.0029000002 0.5727906 -0.25083223 -0.07923532 -0.00816975 0.6619022 -0.14069268 0.15429716
0.22952831 -0.33462703 0.39771372 -0.528426 -0.19008277 0.09840656 0.2728745 -0.114212096
0.5407952 0.12309107 0.30183074 -0.013040434 0.0042362656 -0.8642167 -0.4509885 0.013392685
0.062270097 -0.05921955 -0.21613558 -0.12934488 0.5577278 0.08396496 -0.2037305 -0.15669101
0.12932026 -0.10378921 0.29636753 -0.07964707 -0.047488272 -0.041546 -0.9855778 0.22539732
-0.93561697 0.12607145 -0.07232454 -0.17716882 -0.38079524 -0.25822416 -0.62889117 0.065959014
-0.1759103 -0.36703292 -0.39627805 0.56095773 -0.22215214 -0.09408023 0.6682897 0.54938596
-0.4699362 0.3049467 0.008181319 0.23416772 0.24458651 0.09155484 0.056642365 0.02672702
0.18631123 0.22755854 -0.082493044 -0.041677687 -0.105894335 -0.37090147 0.09017279 -0.009072676
0.12826625 0.41205236 0.0047408533 -0.39515236 -0.15259294 -0.5703002 0.5375696 0.10691904
0.15589136 0.39644265 0.10077391 0.019189566 -0.81440043 -0.38933975 -0.0389567 0.24325523
0.2472863 0.065327756 -0.0023804305 0.4960187 -0.2753506 0.5135576 0.040763356 -0.058557555
0.005062717 0.11182435 -0.33509427 -0.15486486 -0.48379716 -0.42182764 0.41316387 0.08819836
-0.5967853 -0.19740538 -0.13407893 -0.33033884 -0.61330366 0.2385436 -0.34477878 -0.51629764
0.46843502 -0.02176392 0.13805866 -0.7407031 0.5724221 -0.35841343 0.214025 -0.04873489
0.2680725 -0.50157565 0.19884036 -0.11151161 0.30876473 0.53644097 -0.068739384 -0.06465409
-0.09972941 0.15003636 0.45944035 -0.35754663 -0.039471418 0.39981082 -0.044356927 0.059683744
-0.016126296 -0.07380172 0.10274768 0.4069126 -0.15535022 -0.6853059 0.39486426 0.6925086
0.37726647 -0.10173318 -0.0016977603 0.04032654 0.3957621 -0.06388209 0.067728154 0.0053512617
-0.16693722 0.07246695 0.038242493 -0.4308139 -0.13820331 0.5839447 -0.20849074 0.29179543
0.40951946 0.5351968 -0.31836116 0.06418294 -0.27874044 -0.27739245 -0.15898749 -0.09786269
0.22575755 0.2879836 0.5602577 0.13807431 -0.08256076 0.023423478 0.25812837 -0.17748228
-0.42084557 -0.18120478 -0.088458546 -0.041769356 -0.0664421 0.37817284 0.7241717 0.22673789
-0.17966829 -1.0633404 0.062412087 -0.20717777 0.1982545 -0.34928477 -0.5046461 -0.13239798
-0.2913809 0.36387405 0.03226355 -0.43574217 -0.105088554 0.067988 -0.5057088 -0.027074656
00000000: 14ba 35be 3aeb 62be 4d5c bbbe 6803 2f3d
00000010: 9068 d4be 3365 c63e 6612 e73d 2c45 d4bc
00000020: 9188 1b3e ea83 b73c 57e0 ca3d ddfb df3b
00000030: dffb b6bc 14c3 823e e3ba 82be 18f4 fc3e
00000040: eb50 803e a755 d3be d395 0cbf f1a3 0c3f
00000050: d257 6cbf a809 64be 52e8 b2bc d9f1 a3be
00000060: ed4d a53e 8998 013f 79b9 323e 137d 0a3f
00000070: 3459 a53c bc9b 233f d6e0 5d3e c5d5 643f
00000080: f135 10bf 065b 61be 7dc6 823e 5085 65be
00000090: d4e0 dabe b1cc 8c3e 1a6f 16bc 616b a83e
000000a0: 1284 cabd ab44 2c3d d4fc 08bf 66a9 83be
000000b0: a26b 153e 9524 793e d77c 863e 63bc 333f
000000c0: d274 c23e c5c0 583f f56a 64be 9250 913e
000000d0: ff3e 133d bab1 4bbe c01d 61bf dfa3 e2bc
000000e0: ee0d 3ebb 68a2 123f 156d 80be 2146 a2bd
000000f0: 6ada 05bc 6c72 293f be11 10be 1300 1e3e
00000100: 7809 6b3e 3c54 abbe 22a1 cb3e ed46 07bf
00000110: 0fa5 42be 6189 c93d 35b6 8b3e 08e8 e9bd
00000120: 8e71 0a3f 2c17 fc3d 8f89 9a3e 8ba7 55bc
00000130: 5fd0 8a3b 4e3d 5dbf f7e7 e6be fe6c 5b3c
00000140: ee0e 7f3d 3390 72bd a552 5dbe fc72 04be
00000150: 40c7 0e3f d2f5 ab3d ba9e 50be 9c73 20be
00000160: 886c 043e 708f d4bd 7cbd 973e 011e a3bd
00000170: 1083 42bd 232c 2abd d44e 7cbf 8ece 663e
00000180: 9884 6fbf e018 013e e31e 94bd be6b 35be
00000190: 98f7 c2be f535 84be 03ff 20bf 8515 873d
000001a0: d421 34be bdeb bbbe f5e4 cabe ed9a 0f3f
000001b0: da7b 63be 23ad c0bd 0915 2b3f 8fa4 0c3f
000001c0: 7a9b f0be f921 9c3e f00a 063c aac9 6f3e
000001d0: e374 7a3e 1b81 bb3d d301 683d a0f2 da3c
000001e0: 5fc8 3e3e 1b05 693e 1df2 a8bd 39b6 2abd
000001f0: 21df d8bd cce6 bdbe 83ac b83d 90a5 14bc
00000200: 3a58 033e 87f8 d23e 2959 9b3b 6951 cabe
00000210: 5341 1cbe 32ff 11bf 299e 093f 5ff8 da3d
00000220: fca1 1f3e 88fa ca3e 8d62 ce3d 7033 9d3c
00000230: 8c7c 50bf 8a57 c7be 1091 1fbd e617 793e
00000240: 9f38 7d3e 8fca 853d ff00 1cbb 2af6 fd3e
00000250: c1fa 8cbe 8378 033f 7af7 263d 0cda 6fbd
00000260: 26e5 a53b 2a04 e53d 7a91 abbe e594 1ebe
00000270: 43b4 f7be cbf9 d7be 378a d33e 57a1 b43d
00000280: ecc6 18bf a324 4abe fd4b 09be 2c22 a9be
00000290: 7801 1dbf c644 743e d886 b0be 152c 04bf
000002a0: b7d6 ef3e 404a b2bc 405f 0d3e b89e 3dbf
000002b0: 418a 123f f781 b7be 5f29 5b3e 3c9e 47bd
000002c0: cc40 893e 4367 00bf cf9c 4b3e 3360 e4bd
000002d0: 6916 9e3e 3254 093f 3cc7 8cbd 5d69 84bd
000002e0: ef3e ccbd 22a3 193e c43b eb3e 5a10 b7be
000002f0: c8ac 21bd 01b4 cc3e 9caf 35bd f176 743d
00000300: 4b1b 84bc 5b25 97bd 606d d23d d956 d03e
00000310: 2114 1fbe 3570 2fbf a62b ca3e 3e48 313f
00000320: 1229 c13e 7c59 d0bd 6287 deba 712d 253d
00000330: 54a1 ca3e 9dd4 82bd 0fb5 8a3d a359 af3b
00000340: 97f1 2abe 8d69 943d 29a4 1c3d a493 dcbe
00000350: 2b85 0dbe 667d 153f 997e 55be 3666 953e
00000360: 89ac d13e a802 093f 3c00 a3be 5872 833d
00000370: 11b7 8ebe 6206 8ebe 9ecd 22be 3c6c c8bd
00000380: fd2c 673e 9672 933e 0c6d 0f3f 5a63 0d3e
00000390: 9e15 a9bd 98e2 bf3c 6729 843e eabd 35be
000003a0: 1279 d7be bf8d 39be c129 b5bd 5816 2bbd
000003b0: cc12 88bd df9f c13e 5163 393f fa2d 683e
000003c0: f7fa 37be 8a1b 88bf d1a3 7f3d 6926 54be
000003d0: 3a03 4b3e 74d5 b2be 7d30 01bf 5693 07be
000003e0: e12f 95be b34d ba3e c926 043d 9919 dfbe
000003f0: ab38 d7bd 4b3d 8b3d 2276 01bf abcb ddbc

network_body._body_endoder.seq_layers.0.bias f4 [128]
-0.017844707 0.003655302 0.01896858 -0.059407953 -0.015055619 0.008659074 -0.022647211 0.073838905
-0.004799433 -0.023635404 -0.0021979187 -0.0024660218 -0.008463147 0.015294737 0.0017121257 -0.011983184
-0.023836153 -0.016872384 -0.02516672 -0.00189285 0.021486774 -0.008941706 0.017755533 0.018847307
-0.0022978259 0.00070645753 0.037918955 -0.008115547 0.0053736116 0.0146082025 0.0206267 0.016181879
-0.010071811 -0.009928845 -0.03132077 0.015495886 0.010072465 -0.006725096 -0.008424972 -0.0044829976
0.014612558 -0.017579846 0.0042256843 0.0099137155 -0.0076583386 -0.02048479 0.03781396 0.02100991
0.0014066406 0.0259061 0.013537297 0.006998874 -0.026333384 0.018281173 -0.0002781821 -0.009823149
-0.011351981 0.01543204 -0.015208449 -0.0044643558 0.012197136 -0.0006092457 -0.019503755 0.020886365
-0.00797662 0.00028888092 -0.015913121 -0.00800641 0.011153158 -0.003550308 -0.06460063 0.0012855886
-0.00997074 0.0027666653 0.0010505383 0.017001145 -0.009425453 -0.005474944 -0.003889422 -0.022935644
-0.0075224154 -0.0115528945 -0.015625421 0.013033657 -0.0074498327 -0.0011687622 -0.0017130532 -0.011804581
-0.010738857 0.032889027 -0.007885721 -0.015646627 0.038027186 -0.014936938 0.039089993 -0.04314334
0.0037460856 0.007254678 0.0022152553 -0.013792679 -0.007895179 0.02212064 0.0047864406 -0.005524852
-0.00027930798 -0.02378553 -0.014094666 -0.008129933 -0.008357856 -0.0230589 0.0014766348 -0.06516493
-0.017148053 -0.010257588 -0.00864959 -0.009605819 0.012203502 -0.016851569 0.0069995495 -0.0026929385
-0.002335993 0.00017644204 -0.0028419863 0.0014939943 0.011191612 0.082708895 -0.011245038 -0.003725933
00000000: 102f 92bc cb8d 6f3b ff63 9b3c c155 73bd
00000010: d8ab 76bc cade 0d3c a586 b9bc da38 973d
00000020: 9044 9dbb 099f c1bc f50a 10bb fb9c 21bb
00000030: 03a9 0abc c796 7a3c 6869 e03a 1e55 44bc
00000040: 0944 c3bc f437 8abc 702a cebc 8219 f8ba
00000050: 0805 b03c 3c80 12bc 0d74 913c ab65 9a3c
00000060: 1f97 16bb 9031 393a e850 1b3d 12f7 04bc
00000070: 1f15 b03b 3e57 6f3c 53f9 a83c dc8f 843c
00000080: 3d04 25bc 98ac 22bc 354a 00bd 75e2 7d3c
00000090: fb06 253c 325e dcbb e508 0abc 1ce6 92bb
000000a0: 8369 6f3c 9c03 90bc 9c77 8a3b 236d 223c
000000b0: cdf2 fabb b8cf a7bc d0e2 1a3d fa1c ac3c
000000c0: 075f b83a 0839 d43c 8acb 5d3c cf56 e53b
000000d0: 1cb9 d7bc 66c2 953c f8d8 91b9 46f1 20bc
000000e0: a9fd 39bc abd6 7c3c dc2c 79bc bb49 92bb
000000f0: 7fd6 473c c9b5 1fba 57c6 9fbc e219 ab3c
00000100: 5fb0 02bc f174 9739 3c5c 82bc 512d 03bc
00000110: bcbb 363c 49ac 68bb 564d 84bd 3281 a83a
00000120: 515c 23bc f150 353b 37b2 893a fc45 8b3c
00000130: 376d 1abc 2967 b3bb ace5 7ebb 88e3 bbbc
00000140: 987e f6bb 5a48 3dbc e200 80bc 1f8b 553c
00000150: ba1d f4bb 2731 99ba 8788 e0ba 0068 41bc
00000160: 08f2 2fbc a5b6 063d 1c33 01bc 5b2d 80bc
00000170: 65c2 1b3d 0fba 74bc d41c 203d 12b7 30bd
00000180: e380 753b a6b8 ed3b d12d 113b b0fa 61bc
00000190: c85a 01bc 5836 b53c 93d7 9c3b d109 b5bb
000001a0: 1570 92b9 dfd9 c2bc 50ed 66bc 6933 05bc
000001b0: 64ef 08bc 05e6 bcbc a48b c13a 3175 85bd
000001c0: 137a 8cbc 710f 28bc 03b7 0dbc ba61 1dbc
000001d0: 32f1 473c 4d0c 8abc 7a5c e53b 037c 30bb
000001e0: 7617 19bb 4d03 3939 9e40 3abb 21d2 c33a
000001f0: 065d 373c 4863 a93d 1c3d 38bc c82e 74bb

network_body._body_endoder.seq_layers.2.weight f4 [128, 128]
-0.027412025 0.105431914 0.01461919 -0.018963683 -0.06275984 0.055341385 0.044385187 -0.05009176
0.039285127 0.10201593 -0.0078078327 0.13351674 -0.12252766 -0.06667132 -0.07552863 -0.080069266
0.02807797 -0.019722734 -0.08783324 0.035650548 0.08914473 0.07656309 -0.11197459 -0.03481248
-0.021273954 -0.0032644824 0.0594047 -0.07097815 -0.042802308 -0.029010171 -0.008097076 -0.039698444
0.00925026 0.095577285 -0.04374815 0.010328493 0.0061730784 0.13657303 -0.01839507 -0.044896692
-0.08043026 -0.040796217 0.044846658 0.046996307 -0.03318464 -0.0021468531 0.0015005576 -0.035731647
0.09716149 -0.032066617 -0.02968451 -0.09154028 0.06766543 -0.11526552 -0.08148015 0.044142973
-0.048481885 -0.05646516 0.14519343 0.038765065 -0.08125925 -0.011565124 0.11545079 0.17916788
0.008028636 -0.030087983 0.13251518 -0.08087318 0.023766113 0.00065373915 0.04246493 -0.09355377
-0.020059822 -0.059887294 -0.027299792 0.012595844 -0.056240696 -0.12167548 -0.0029324566 0.0040931343
0.13432331 0.07041866 0.21961242 0.13761102 0.1280549 0.17585844 -0.16877411 -0.17574903
-0.037991766 0.016566431 0.004569635 -0.05754108 -0.061355814 0.041647058 -0.044831585 0.07984814
0.18863574 0.09880011 0.0061455034 -0.08332255 0.08622008 0.06332765 0.039196514 -0.022574259
0.074373744 0.0019210151 0.0018424062 0.1852346 0.08636306 -0.024096748 -0.21469007 -0.012548281
-0.09208882 0.16992289 0.028935682 0.0170478 0.1455484 -0.0343554 -0.05031321 0.20502764
-0.15024564 -0.07879404 0.05438654 0.09724296 -0.04158036 0.13733228 0.045869227 -0.11129734
-0.1422433 0.145019 0.023066657 -0.062131777 -0.011851207 -0.013531359 -0.07206308 0.09835122
0.016328497 -0.060274597 -0.0048387786 -0.05756433 0.1620525 -0.050003774 -0.04032439 -0.17856438
-0.09289147 -0.026062995 -0.034196887 -0.1308691 -0.0076440894 0.0013843989 0.019758768 0.21167643
0.15531069 -0.07299321 0.070583925 0.015558586 -0.046592325 -0.014888274 0.09961614 -0.087728426
-0.04606786 -0.03748495 0.017354645 -0.05292693 0.032649297 -0.06950569 -0.019626612 0.1687694
0.10452504 0.022124179 -0.03440133 -0.022897089 -0.07603493 0.1662063 -0.05890896 -0.12266333
0.03310336 -0.08543012 0.05767574 -0.02736291 -0.022071095 -0.03268773 0.027956488 0.08794609
-0.21941677 -0.007702209 -0.080670066 0.06724912 -0.014627192 -0.07364297 -0.009046694 -0.025561785
0.09299104 -0.051308304 0.058761597 0.08146483 -0.02895936 -0.13405415 0.033910114 0.026404718
0.085550845 0.07417716 0.2070785 -0.052720573 -0.11568458 0.042949088 -0.120060876 -0.06465935
0.09249844 0.07731194 0.059794445 -0.11527899 -0.032815836 0.090726435 -0.13644165 -0.009587859
-0.038027234 -0.096982524 0.005021972 0.068786114 -0.14160432 0.10087202 -0.07694875 0.029623635
-0.13736549 -0.022343323 -0.18194069 0.002298411 0.026728012 -0.010678639 0.14752614 0.06007933
-0.14276215 -0.03632014 0.15033358 0.11655208 0.00021545547 -0.027013855 -0.036425143 -0.071854606
-0.06919765 0.0614468 -0.07684882 0.011801034 -0.026529491 -0.041526705 -0.038265824 -0.047368135
0.020188656 -0.24343489 0.09339647 -0.15688942 -0.16980466 0.034001533 -0.044743113 0.079624854
00000000: 2f8f e0bc b0ec d73d 5485 6f3c ba59 9bbc
00000010: 3b88 80bd a6ad 623d 3ecd 353d 042d 4dbd
00000020: 71e9 203d baed d03d d9d8 ffbb 9db8 083e
00000030: c8ef fabd f98a 88bd c1ae 9abd 5bfb a3bd
00000040: c503 e63c 9291 a1bc eae1 b3bd 4f06 123d
00000050: 8391 b63d 1ccd 9c3d ef52 e5bd 8897 0ebd
00000060: b746 aebc edf0 55bb 5852 733d fe5c 91bd
00000070: 7951 2fbd bda6 edbc 99a9 04bc d69a 22bd
00000080: 678e 173c 06be c33d 4331 33bd d738 293c
00000090: 8947 ca3b cdd9 0b3e 42b1 96bc 98e5 37bd
000000a0: 9fb8 a4bd ef19 27bd 21b1 373d 337f 403d
000000b0: 9eec 07bd 38b2 0cbb 5cae c43a 595b 12bd
000000c0: 9afc c63d 4958 03bd ee2c f3bc 7879 bbbd
000000d0: 2c94 8a3d 5410 ecbd 11df a6bd 43cf 343d
000000e0: f194 46bd 0348 67bd 96ad 143e 1ec8 1e3d
000000f0: 406b a6bd a57b 3dbc 7771 ec3d c977 373e
00000100: 8a8a 033c 137b f6bc 0fb2 073e d6a0 a5bd
00000110: 27b1 c23c b15f 2b3a b5ef 2d3d 1e99 bfbd
00000120: 7f54 a4bc 614c 75bd d0a3 dfbc cd5e 4e3c
00000130: a55c 66bd fe30 f9bd 752e 40bb b31f 863b
00000140: 0d8c 093e a937 903d 14e2 603e e7e9 0c3e
00000150: d320 033e 3c14 343e 1fd3 2cbe 8ef7 33be
00000160: 419d 1bbd 53b6 873c e0bc 953b 32b0 6bbd
00000170: 3c50 7bbd 1b96 2a3d 53a1 37bd 6c87 a33d
00000180: ba29 413e b657 ca3d 3860 c93b 03a5 aabd
00000190: 2794 b03d edb1 813d 868c 203d a7ed b8bc
000001a0: 4351 983d 92ca fb3a e57c f13a 24ae 3d3e
000001b0: 1edf b03d 8b66 c5bc b7d7 5bbe 4e97 4dbc
000001c0: 1099 bcbd 4400 2e3e 860a ed3c d4a7 8b3c
000001d0: a40a 153e 3fb8 0cbd 3915 4ebd c4f2 513e
000001e0: fed9 19be c55e a1bd 6cc4 5e3d 5127 c73d
000001f0: 2b50 2abd d5a0 0c3e 5fe1 3b3d dcef e3bd
00000200: 3aa8 11be dc7f 143e 49f6 bc3c e47d 7ebd
00000210: 912b 42bc a2b2 5dbc cf95 93bd 5d6c c93d
00000220: 57c3 853c 7fe2 76bd 9e8e 9ebb 93c8 6bbd
00000230: 17f1 253e c2d0 4cbd 302b 25bd 95d9 36be
00000240: e23d bebd 1082 d5bc 0912 0cbd 8d02 06be
00000250: 457b fabb b874 b53a 24dd a13c b5c1 583e
00000260: c409 1f3e 777d 95bd 4e8e 903d 71e9 7e3c
00000270: 98d7 3ebd f2ed 73bc 8c03 cc3d f6aa b3bd
00000280: a7b1 3cbd d289 19bd 542b 8e3c e9c9 58bd
00000290: 45bb 053d 0059 8ebd fdc7 a0bc e3d1 2c3e
000002a0: 3911 d63d c43d b53c 69e8 0cbd ad92 bbbc
000002b0: 34b8 9bbd fc31 2a3e 864a 71bd e936 fbbd
000002c0: 6497 073d fdf5 aebd 663d 6c3d 2e28 e0bc
000002d0: 71ce b4bc 92e3 05bd 0105 e53c 141d b43d
000002e0: caae 60be d062 fcbb 5936 a5bd e8b9 893d
000002f0: e4a6 6fbc 20d2 96bd 9638 14bc f366 d1bc
00000300: 1672 be3d a828 52bd 00b0 703d 08d7 a63d
00000310: 2e3c edbc 7e45 09be 55e5 0a3d b54e d83c
00000320: 4835 af3d 32ea 973d 630c 543e 87f1 57bd
00000330: 09ec ecbd 62eb 2f3d 7ae2 f5bd 1f6c 84bd
00000340: d26f bd3d b955 9e3d 05eb 743d 6417 ecbd
00000350: e669 06bd c8ce b93d 5cb7 0bbe 6516 1dbc
00000360: 72c2 1bbd c69e c6bd 5b8f a43b bcdf 8c3d
00000370: b900 11be fd95 ce3d 4e97 9dbd 44ad f23c
00000380: 8aa9 0cbe 5809 b7bc a94e 3abe f0a0 163b
00000390: b4f4 da3c 75f5 2ebc 1811 173e be15 763d
000003a0: 3e30 12be 6dc4 14bd 0cf1 193e dbb2 ee3d
000003b0: e3eb 6139 294c ddbc 8832 15bd 8228 93bd
000003c0: 7fb7 8dbd a4af 7b3d ea62 9dbd 2059 413c
000003d0: 6054 d9bc e817 2abd a0bc 1cbd 1705 42bd
000003e0: ae62 a53c ff46 79be a646 bf3d 9fa7 20be
000003f0: 46e1 2dbe 3145 0b3d 8e44 37bd 5b12 a33d

network_body._body_endoder.seq_layers.2.bias f4 [128]
0.000533111 0.0030720946 -0.0011317387 -0.0029427682 -0.004657556 -0.00016689027 0.019211253 -0.005213173
-0.006759009 -0.0057033887 -0.0046095853 0.0053115776 -0.0019487197 -0.004904304 5.8477268e-05 -0.008736786
-0.014161565 0.00059258076 -0.010394195 -0.018540317 -0.011405332 0.012294259 0.0043565906 0.010685018
0.009846023 -0.0094760945 0.0051126294 -0.008289569 -0.003961668 -0.00029106645 0.00050978205 -0.01019611
0.0017163091 0.008534446 0.0061026434 -0.0032687036 -0.00014498255 0.002014419 0.006009275 -0.0073846066
-0.00016321307 -0.010568823 -0.0063236603 -0.0055170967 0.00074557954 -0.015678898 -0.006343692 -0.017573977
-0.008050103 -0.009345253 -0.00026133514 0.0031710686 -0.014712623 0.018348597 -0.008298335 0.01174629
-0.002711363 0.0026535797 -0.0048706005 -0.00059883384 -0.006247277 -0.00018341029 -0.010689221 0.017679228
-0.00088336563 -0.0070866146 -0.0010321271 -0.011590746 -0.00905027 -0.0074486267 -0.002801685 0.011177924
-0.011502747 0.0019617793 -0.004911573 -0.00094943616 -0.008509216 -0.005029876 -0.004908358 -0.00059242273
0.0065708677 -0.009127208 -0.0017559924 0.021202384 0.0076301075 -0.0071491674 0.00093178794 -0.00792029
-0.012226376 0.023829497 -0.010071471 -0.0141937565 0.0120686125 0.0013375084 0.00020394861 0.0030240966
-0.0056734355 0.0010541705 0.0064050946 -0.01769122 0.010473647 -0.0042573563 0.006613172 -0.0025445013
-0.009529928 -0.013505252 0.0037661165 -0.0054007648 -0.00237428 0.0018878011 0.0021875936 -0.006231583
-0.017413767 -0.0070056277 0.0056748204 -0.0074153417 0.0049113054 0.00023826443 -0.013842567 0.0146253165
-0.00673058 0.009845209 -0.00043886993 -0.0030207734 -0.0005866607 -0.010360095 0.010224044 0.0017138559
00000000: 79c0 0b3a 3255 493b d956 94ba 75db 40bb
00000010: 699e 98bb 44ff 2eb9 eb60 9d3c 44d3 aabb
00000020: ad7a ddbb 7ee3 babb 010c 97bb be0c ae3b
00000030: 2f6c ffba 49b4 a0bb 7d45 7538 bd24 0fbc
00000040: e905 68bc 6c57 1b3a 6a4c 2abc dde1 97bc
00000050: 6edd 3abc dc6d 493c bbc1 8e3b 3710 2f3c
00000060: 3751 213c 9f41 1bbc d887 a73b f9d0 07bc
00000070: e1d0 81bb 479a 98b9 e5a2 053a 960d 27bc
00000080: c7f5 e03a 10d4 0b3c aff8 c73b bf37 56bb
00000090: 7506 18b9 5804 043b 74e9 c43b 92fa f1bb
000000a0: 2d24 2bb9 db28 2dbc b536 cfbb c3c8 b4bb
000000b0: ff72 433a 0871 80bc bfde cfbb 4df7 8fbc
000000c0: 94e4 03bc d51c 19bc cf03 89b9 b4d1 4f3b
000000d0: 370d 71bc cc4f 963c bdf5 07bc 8373 403c
000000e0: 1fb1 31bb aee7 2d3b 8f99 9fbb 0ffb 1cba
000000f0: f5b5 ccbb d351 40b9 d821 2fbc 07d4 903c
00000100: aa91 67ba d536 e8bb 7048 87ba 1de7 3dbc
00000110: 9547 14bc 9c13 f4bb 799c 37bb 9d23 373c
00000120: 0576 3cbc 3291 003b 43f1 a0bb 95e3 78ba
00000130: 3d6a 0bbc a8d1 a4bb 4bd6 a0bb d14c 1bba
00000140: 6f50 d73b 498a 15bc 5429 e6ba 9fb0 ad3c
00000150: fb05 fa3b 9043 eabb 3b43 743a 1bc4 01bc
00000160: 2351 48bc 1436 c33c d002 25bc ee8c 68bc
00000170: 6ebb 453c 564f af3a 0adb 5539 ec2f 463b
00000180: 3ae8 b9bb 182c 8a3a d4e1 d13b 2ded 90bc
00000190: a999 2b3c 4b81 8bbb 4fb3 d83b a6c1 26bb
000001a0: 6a23 1cbc 2245 5dbc f3d0 763b e6f8 b0bb
000001b0: cf99 1bbb 1870 f73a bb5d 0f3b 4f32 ccbb
000001c0: 51a7 8ebc 778f e5bb d8f3 b93b 65fc f2bb
000001d0: 04ef a03b 9fd6 7939 efcb 62bc 069f 6f3c
000001e0: 328c dcbb cd4d 213c 2018 e6b9 2bf8 45bb
000001f0: 22ca 19ba 63bd 29bc c082 273c 76a3 e03a

action_model._discrete_distribution.branches.0.weight f4 [4, 128]
0.024898078 0.03437648 -0.0372674 -0.002385224 -0.026839873 -0.0452882 -0.03660665 0.039809454
-0.037204206 -0.04936307 0.033120904 0.026353188 0.03194595 0.028802797 0.00031461872 -0.07866325
0.0008890863 -0.019075856 -0.029695118 0.04063619 -0.017473178 0.028444635 -0.03995133 0.06832082
-0.06756392 -0.046344247 0.051399633 -0.022349041 -0.034822177 -0.019502968 -0.033556253 0.039649628
-0.0015770905 0.0019903483 0.04250933 0.017366482 0.05977304 -0.025315795 -0.033163805 0.036728784
0.052191533 0.046071284 0.032926075 0.009760895 -0.047776803 -0.059056386 -0.030095315 0.02501322
-0.026550895 -0.025170365 0.039792966 0.00092852773 0.026606275 0.024999723 -0.034593962 -0.030706253
0.0040064473 0.0022794798 -0.037623987 0.034998916 -0.014548728 0.01956057 -0.024493126 -0.040735245
-0.022165822 -0.01909914 0.09052475 0.012495357 -0.035794202 0.044043962 0.006662214 -0.02195048
0.010593291 0.01960339 -0.012967088 -0.05459691 -0.04602186 -0.04971498 -0.0047308276 0.10608557
0.037269082 -0.027398659 0.02631604 -0.035273306 -0.021026429 -0.0051671104 0.07221592 -0.026085855
0.034674905 0.017964773 0.024418855 0.037636556 -0.06273386 0.06474619 0.07440973 0.051206198
-0.029525423 0.009889097 -0.053448476 0.07517033 -0.039551087 0.0048191287 0.039762944 0.03468376
0.0352657 -0.06587609 -0.0018221906 -0.028147789 0.061522413 -0.02917099 -0.01736377 -0.017810196
0.050032064 0.0013465151 0.0025752364 -0.009682766 -0.021834338 -0.0064326106 0.0102290865 0.08721115
0.036218952 0.014062387 0.015084585 -0.020801565 -0.04279752 0.04987553 -0.02968193 -0.017535968
0.0010660127 -0.03317049 0.03999074 -0.05114848 0.0051755426 0.049536772 0.02650149 -0.055898666
0.06280901 0.038461313 -0.0084646065 -0.0049249 -0.075021096 0.014144916 -0.0311295 0.03430636
-0.032092605 -0.001236088 0.031157328 -0.03928096 -0.022892619 -0.0089368345 0.028993366 -0.025034426
0.069897145 0.023916388 -0.031914927 0.05333566 -0.010223584 -0.0059877182 0.025370514 -0.01586807
-0.0105196955 0.03684503 0.006537964 0.00016628664 -0.0425965 -0.013904057 0.049038414 -0.03681939
-0.010261256 -0.045132004 -0.015515277 -0.020293195 0.0021232627 0.04409742 0.0020629368 0.002086667
-0.0033006985 0.0017957642 -0.05087127 -0.0051919967 -0.049680524 0.011989974 0.016056128 0.018468998
0.01241087 -0.018058043 0.025155054 0.0033476166 0.011282754 -0.0042315046 -0.0071227364 -0.0023932185
0.004701379 0.00028076052 -0.06253599 -0.051432524 0.03878143 -0.033868406 -0.0030896277 0.060742196
-0.0029292468 0.002898231 -0.030864242 0.034155745 -0.00090477016 0.036810994 0.03276787 -0.03623031
-0.02037232 0.00092764926 -0.0052177166 -0.01086789 0.0015828355 0.006642661 -0.032269143 -0.0072066113
-0.028160293 0.0017968891 0.00804506 -0.01792651 0.03391226 -0.043031596 -0.061041012 -0.023340847
0.041440085 0.03061822 0.04944897 -0.052743167 0.0014575459 0.00089986395 -0.016091308 -0.017897129
-0.054823652 0.049796056 0.006133701 0.026284695 -0.015520968 0.040359233 -0.0142581165 0.004962143
-0.03638354 0.042198695 0.0024405646 0.04367927 -0.023937514 -0.0031750295 -0.0066237897 -0.037651703
-0.019562393 -0.030015599 0.0118211415 0.035271145 0.008726329 -0.037563257 -0.023924997 -0.024916077
00000000: 0ef7 cb3c 5ace 0c3d b4a5 18bd 6b51 1cbb
00000010: 4bdf dbbc 1f80 39bd dbf0 15bd 3d0f 233d
00000020: 7063 18bd ee30 4abd c9a9 073d a4e2 d73c
00000030: c2d9 023d d8f3 eb3c 69f3 a439 331a a1bd
00000040: 9211 693a f844 9cbc 2d43 f3bc 2272 263d
00000050: e923 8fbc b904 e93c 01a4 23bd c9eb 8b3d
00000060: f45e 8abd 77d3 3dbd 6c88 523d 5615 b7bc
00000070: b3a1 0ebd b0c4 9fbc 4872 09bd a667 223d
00000080: 60b6 ceba 8170 023b 431e 2e3d 2744 8e3c
00000090: 93d4 743d 1263 cfbc c5d6 07bd ec70 163d
000000a0: cac6 553d 3eb5 3c3d 7edd 063d 29ec 1f3c
000000b0: 9cb1 43bd 1ce5 71bd 738a f6bc 86e8 cc3c
000000c0: 4381 d9bc 1532 cebc f3fd 223d 7168 733a
000000d0: 67f5 d93c 38cc cc3c 66b2 0dbd ae8b fbbc
000000e0: 8448 833b 5363 153b 9c1b 1abd 065b 0f3d
000000f0: ca5d 6ebc 7d3d a03c cfa5 c8bc 00da 26bd
00000100: 1995 b5bc cd75 9cbc 0a65 b93d 53b9 4c3c
00000110: f19c 12bd 7167 343d b44e da3b 7ed1 b3bc
00000120: 7c8f 2d3c 4a97 a03c e973 54bc 02a1 5fbd
00000130: 6b81 3cbd efa1 4bbd 0f05 9bbb 6443 d93d
00000140: 77a7 183d 2773 e0bc bc94 d73c be7a 10bd
00000150: 9e3f acbc dd50 a9bb f1e5 933d 01b2 d5bc
00000160: 4607 0e3d dc2a 933c 0d0a c83c ca28 1a3d
00000170: 9c7a 80bd a799 843d 2164 983d 97bd 513d
00000180: 4ddf f1bc e105 223c caec 5abd e7f2 993d
00000190: 5200 22bd c8e9 9d3b 78de 223d 8f10 0e3d
000001a0: c472 103d 0bea 86bd 92d6 eeba 3196 e6bc
000001b0: edfe 7b3d 00f8 eebc 773e 8ebc b0e6 91bc
000001c0: 6cee 4c3d 8d7d b03a 4cc5 283b 77a4 1ebc
000001d0: eddd b2bc a6c8 d2bb e697 273c c29b b23d
000001e0: 535a 143d ed65 663c 5625 773c 0b68 aabc
000001f0: 744c 2fbd 494a 4c3d 8527 f3bc 97a7 8fbc
00000200: 73b9 8b3a c8dd 07bd 55cd 233d 1281 51bd
00000210: 9997 a93b 12e7 4a3d a719 d93c 00f6 64bd
00000220: 03a2 803d 9c89 1d3d 22af 0abc 0e61 a1bb
00000230: a9a4 99bd 14c0 673c 4b03 ffbc d384 0c3d
00000240: 8973 03bd 3b04 a2ba a73d ff3c 12e5 20bd
00000250: 4d89 bbbc cd6b 12bc 7f83 ed3c ff14 cdbc
00000260: 3c26 8f3d 4dec c33c 3ab9 02bd 7e76 5a3d
00000270: d280 27bc 9f34 c4bb d3d5 cf3c c1fd 81bc
00000280: cd5a 2cbc d0ea 163d 6b3c d63b 3b5d 2e39
00000290: ab79 2ebd d8cd 63bc 81dc 483d eecf 16bd
000002a0: d41e 28bc 56dc 38bd ca33 7ebc ea3d a6bc
000002b0: 7026 0b3b 7f9f 343d 5632 073b 77c0 083b
000002c0: 8850 58bb d95f eb3a 655e 50bd a021 aabb
000002d0: ce7d 4bbd 9971 443c 2488 833c 4c4c 973c
000002e0: f656 4b3c 76ee 93bc f911 ce3c b063 5b3b
000002f0: 4ddb 383c 6fa8 8abb d865 e9bb 8bd7 1cbb
00000300: 070e 9a3b 0a33 9339 de12 80bd e9aa 52bd
00000310: 47d9 1e3d 99b9 0abd 5a7b 4abb cfcc 783d
00000320: 9bf8 3fbb 3ff0 3d3b 02d7 fcbc e5e6 0b3d
00000330: 192e 6dba 20c7 163d 9a37 063d 3c66 14bd
00000340: dae3 a6bc 7d2d 733a 61f9 aabb 3c0f 32bc
00000350: 2577 cf3a aeaa d93b a62c 04bd 7025 ecbb
00000360: 6ab0 e6bc 9885 eb3a 6dcf 033c 9eda 92bc
00000370: 95e7 0a3d e641 30bd 2406 7abd 4e35 bfbc
00000380: 14bd 293d 10d3 fa3c 018b 4a3d 3809 58bd
00000390: 200b bf3a d9e4 6b3a ebd1 83bc 009d 92bc
000003a0: c48e 60bd f3f6 4b3d 37fd c83b 0053 d73c
000003b0: a84b 7ebc b94f 253d e09a 69bc 7999 a23b
000003c0: e806 15bd 8ad8 2c3d e1f1 1f3b 09e9 323d
000003d0: 9b18 c4bc 2814 50bb 600c d9bb ac38 1abd
000003e0: 5041 a0bc 46e3 f5bc 76ad 413c 7a78 103d
000003f0: e0f8 0e3c eedb 19bd 5bfe c3bc cd1c ccbc

action_model._discrete_distribution.branches.0.bias f4 [4]
-0.025852008 0.012266209 0.013919307 -0.023444058
00000000: 97c7 d3bc 36f8 483c ce0d 643c c10d c0bc

action_model._discrete_distribution.branches.1.weight f4 [1, 128]
-0.0037606452 2.0617093e-05 -4.739153e-06 0.001366361 -0.010121844 0.0025055867 0.0036239072 0.0033110564
-0.002763192 0.01737717 -0.0022304233 0.0038746954 -0.005542506 -0.0045878394 -0.0036774736 0.0084437765
-0.00027153693 0.00830309 -0.0031929293 -0.01836372 0.00434854 0.01714052 -0.011622756 0.007850927
-0.005186516 0.004913929 -0.014776749 -0.0068775825 0.020833137 0.0072279507 0.0019798551 0.009542602
-0.0017419367 0.019841563 -0.004038267 -0.011574178 -0.0030963235 -0.014965068 0.0047781183 0.0021865505
0.013038618 0.0035419099 -0.00033922895 -0.01362513 0.0025191102 -0.0013465299 0.006123094 0.004554275
-0.007731061 -0.0054890844 0.0066961483 -0.002664887 0.005042682 -0.012345019 -0.017022483 -0.004662811
-0.00085884513 0.0018935421 -0.020668423 0.0029314081 -0.014907119 -0.011409792 0.00621177 0.0005096709
0.019817788 -0.0033519024 0.008521391 -0.005826469 -0.0029800148 -0.007964874 -0.0059378752 -0.002617464
0.0022442623 -0.006633392 -0.00027378133 -0.010355942 -0.01321764 0.0012691125 -0.0003271949 -0.00060591695
-0.008615645 -0.0041541266 -0.0067047053 -0.0055712177 -0.014383097 -0.0036398508 0.010102764 -0.010328554
0.007975609 0.007025285 0.0023276114 -0.0013045245 -0.015911756 -0.006557981 -0.0008991003 -0.0036304747
0.001798639 -8.365014e-05 -0.0014325053 -0.011976812 0.013066647 0.0039598956 0.0063610696 0.0010937162
-0.0010124346 0.0039107255 0.009255497 -0.008092563 0.0029143014 -0.014205615 0.011923487 -0.008913205
-0.017185144 -0.014664401 -0.003024608 -0.0045216973 0.023139616 0.0034273646 0.0017967602 0.001991801
0.013757028 0.0012681544 -0.0030814756 0.0013366569 -0.004331755 3.9460036e-05 -0.0029613513 -0.003831238
00000000: 2875 76bb dff2 ac37 0405 9fb6 7817 b33a
00000010: 17d6 25bc c534 243b 137f 6d3b 4ffe 583b
00000020: ab16 35bb 915a 8e3c 4b2c 12bb 9aee 7d3b
00000030: e99d b5bb 9655 96bb c501 71bb c457 0a3c
00000040: 125d 8eb9 af09 083c 7740 51bb 836f 96bc
00000050: 337e 8e3b 476a 8c3c 5f6d 3ebc 2da1 003c
00000060: a6f3 a9bb 0605 a13b 2d1a 72bc 585d e1bb
00000070: 41aa aa3c 72d8 ec3b 75c0 013b 9358 1c3c
00000080: b251 e4ba c68a a23c 7053 84bb 9fa1 3dbc
00000090: b0eb 4abb 0b30 75bc c391 9c3b 3b4c 0f3b
000000a0: ed9f 553c 631f 683b 8ada b1b9 f03b 5fbc
000000b0: a817 253b 0c7e b0ba 3ca4 c83b 073c 953b
000000c0: d754 fdbb c7dd b3bb 5d6b db3b 63a5 2ebb
000000d0: 153d a53b c342 4abc bc72 8bbc 7eca 98bb
000000e0: 1f24 61ba bb30 f83a d350 a9bc de1c 403b
000000f0: fd3c 74bc 23f0 3abc 1b8c cb3b 6f9b 053a
00000100: ea58 a23c 97ab 5bbb 4e9d 0b3c f7eb bebb
00000110: 5a4c 43bb 1a7f 02bc 8292 c2bb c289 2bbb
00000120: 7914 133b ed5c d9bb 4f8a 8fb9 f8ab 29bc
00000130: cd8e 58bc 5958 a63a 5b8b abb9 66d6 1eba
00000140: a228 0dbc 571f 88bb 25b3 dbbb c38e b6bb
00000150: 15a7 6bbc 908a 6ebb 1086 253c 1839 29bc
00000160: 21ac 023c 5d34 e63b d78a 183b 94fc aaba
00000170: 5f59 82bc 55e4 d6bb 9ab1 6bba 42ed 6dbb
00000180: 4fc0 eb3a 546d afb8 e7c2 bbba 643a 44bc
00000190: 7d15 563c 03c2 813b 8570 d03b 075b 8f3a
000001a0: abb3 84ba 8b25 803b 5ea4 173c ab96 04bc
000001b0: ddfd 3e3b abbe 68bc bb5a 433c b108 12bc
000001c0: dcc7 8cbc f542 70bc 8038 46bb bf2a 94bb
000001d0: 4b8f bd3c a39d 603b 4581 eb3a e088 023b
000001e0: 2865 613c 3338 a63a 95f2 49bb c332 af3a
000001f0: 65f1 8dbb e481 2538 3b13 42bb 8215 7bbb

onnx::LSTM_114 f4 [1, 512, 128]
-0.096614875 0.09036317 -0.029999739 -0.029830778 -0.03640615 -0.05431395 0.04247309 -0.11831339
0.047191393 -0.018472569 0.032753676 0.074734084 0.046488766 -0.043806646 0.07646045 0.066382825
0.11811991 0.13674681 -0.0073950877 0.033027317 0.07842628 -0.13091621 -0.06731257 0.08355512
0.0029516495 0.0043325075 -0.085202865 0.020539597 -0.11524889 -0.14626937 0.095894285 -0.03567225
0.016354736 -0.034195516 -0.03777829 0.04589655 0.0462408 0.09874338 -0.090325356 -0.024212504
0.14295748 0.05759816 0.14012755 0.025948945 0.04781723 0.036880255 0.089740016 0.05971019
0.09128802 -0.14156052 -0.053739242 -0.02030489 -0.037909523 0.034370113 0.0047632214 -0.057884812
0.11380499 0.038260896 0.056300845 -0.002494708 -0.022542994 0.13768321 0.11574272 0.02734961
0.025176687 0.12358402 0.063016444 -0.12429598 0.09041777 -0.021050412 -0.09809861 0.080718316
0.016214684 0.09857887 0.12107365 -0.05915342 0.020710472 0.14302409 -0.061820213 0.16009076
-0.13364658 -0.101861455 -0.07123921 0.03841199 -0.17907605 0.14920436 0.12419832 -0.08383481
0.110942565 0.0554115 -0.012829414 -0.052836455 0.087787986 0.07159167 0.02986817 0.01675956
0.0914717 0.11328957 -0.019022735 0.13464667 -0.12628375 -0.11070606 -0.027460806 0.14910729
0.09968974 0.026604895 0.022415211 0.0004590885 -0.07390202 0.048912805 0.0063899583 0.0020818564
-0.054204732 -0.10458595 0.110204406 0.11942999 -0.059006546 -0.015669547 -0.13064541 0.15841848
0.1285742 -0.09189908 0.05379858 -0.13200207 0.10523737 0.14212015 -0.084294446 0.011523325
0.047935948 -0.050789047 -0.012703101 -0.021944633 0.04255094 -0.007633666 -0.060689993 0.15085834
0.08537961 -0.15525658 0.13212596 -0.09818563 -0.0794959 0.10262092 -0.014481504 0.12653904
0.1544409 -0.046648633 0.091644175 0.030697389 0.077738136 -0.022621088 0.024776239 -0.13652934
0.07687111 -0.04438062 -0.12653671 -0.013673893 -0.07804799 0.041732226 -0.00404366 0.069824405
-0.10906775 0.0029204998 -0.018084783 -0.017035844 -0.086923085 -0.046282772 0.031111516 -0.018101776
0.0267039 -0.027566012 -0.11753686 0.12361885 0.0034881122 0.07279922 0.015210983 0.0064851004
-0.123940594 -0.10073894 -0.03412214 -0.021256506 -0.033533737 -0.10412745 0.1295318 0.034423403
-0.12466704 -0.079453155 -0.09058819 0.025577739 0.046080213 -0.007157958 0.12087878 -0.1549145
0.1546179 0.032382023 0.15835485 0.04985031 0.0436975 -0.03370711 -0.14706738 0.09217401
0.114144415 0.0065760068 -0.01661163 0.1720997 -0.02845793 -0.0025435418 0.061441958 -0.13587302
0.015403573 -0.042227685 0.15198362 -0.15758862 0.07508191 0.10727478 -0.011257011 -0.08425434
0.075176716 0.09641946 -0.09612142 0.061496243 -0.04832116 -0.06076426 0.07711459 0.048680466
0.11217794 0.077545404 -0.1479823 0.047031485 0.062123038 -0.00030891158 -0.050814647 -0.10070924
0.12652956 -0.076399185 -0.10935892 -0.1572502 0.10941391 -0.11782901 0.06369777 -0.10754121
0.052879408 0.020168351 -0.16833615 -0.14875975 0.12806213 0.040564425 0.120611 -0.12988012
-0.100869305 0.10779347 0.0286253 -0.10533583 0.00034251623 0.12631676 0.008293411 -0.111199774
00000000: 05de c5bd 5310 b93d 03c2 f5bc ad5f f4bc
00000010: 9d1e 15bd 4e78 5ebd 43f8 2d3d 4a4e f2bd
00000020: c34b 413d c953 97bc b828 063d 2f0e 993d
00000030: 016b 3e3d 996e 33bd 4c97 9c3d b8f3 873d
00000040: dae8 f13d 5b07 0c3e 7e52 f2bb a747 073d
00000050: f59d a03d e60e 06be 2cdb 89bd f21e ab3d
00000060: 7670 413b b5f7 8d3b d77e aebd a842 a83c
00000070: 9c07 ecbd a3c7 15be 3964 c43d 111d 12bd
00000080: 5efa 853c 9910 0cbd 69bd 1abd 05fe 3b3d
00000090: fe66 3d3d f839 ca3d 80fc b8bd 4d59 c6bc
000000a0: 7263 123e 0cec 6b3d 997d 0f3e e292 d43c
000000b0: 00dc 433d c00f 173d 9dc9 b73d ac92 743d
000000c0: 37f5 ba3d 3ef5 10be ae1d 5cbd 7156 a6bc
000000d0: 0447 1bbd adc7 0c3d cc14 9c3b a018 6dbd
000000e0: 9712 e93d 75b7 1c3d b79b 663d 417e 23bb
000000f0: 16ac b8bc d4fc 0c3e 850a ed3d 4a0c e03c
00000100: 573f ce3c 9e19 fd3d c40e 813d e48e febd
00000110: f42c b93d ea71 acbc ede7 c8bd a54f a53d
00000120: a8d4 843c b8e3 c93d 76f5 f73d db4a 72bd
00000130: 02a9 a93c e874 123e 3137 7dbd d5ee 233e
00000140: a6da 08be bd9c d0bd dde5 91bd e455 1d3d
00000150: b65f 37be 07c9 183e b05b fe3d 96b1 abbd
00000160: db35 e33d 2bf7 623d 7632 52bc 0a6b 58bd
00000170: 30ca b33d a79e 923d 18ae f43c 584b 893c
00000180: 8455 bb3d 5d04 e83d 91d5 9bbc d1e0 093e
00000190: 8750 01be dcb9 e2bd 7cf5 e0bc 95af 183e
000001a0: 222a cc3d 82f2 d93c 1ba0 b73c d1b1 f039
000001b0: f159 97bd cb58 483d db62 d13b c16f 083b
000001c0: c805 5ebd 2931 d6bd d9b2 e13d b697 f43d
000001d0: d9b0 71bd 6c5d 80bc e9c7 05be 7438 223e
000001e0: f5a8 033e 9635 bcbd e65b 5c3d 8d2b 07be
000001f0: b186 d73d f287 113e 91a2 acbd 54cc 3c3c
00000200: 7c58 443d 2d08 50bd ab20 50bc 3bc5 b3bc
00000210: e549 2e3d d523 fabb 1296 78bd 9c7a 1a3e
00000220: 81db ae3d 95fb 1ebe 074c 073e 8c15 c9bd
00000230: bfce a2bd eb2a d23d d543 6dbc 7393 013e
00000240: c125 1e3e a312 3fbd f1af bb3d 1779 fb3c
00000250: 2c35 9f3d dc4f b9bc 8af7 ca3c 59ce 0bbe
00000260: 9a6e 9d3d 74c8 35bd d792 01be 7708 60bc
00000270: a0d7 9fbd 69ef 2a3d ae80 84bb 1900 8f3d
00000280: ea5e dfbd db65 3f3b 8a26 94bc c18e 8bbc
00000290: bb04 b2bd 0193 3dbd 94dd fe3c 2d4a 94bc
000002a0: 23c2 da3c 1ed2 e1bc 2ab7 f0bd e12b fd3d
000002b0: d098 643b c217 953d 7d37 793c f780 d43b
000002c0: 91d4 fdbd 3850 cebd a8c3 0bbd 2022 aebc
000002d0: ac5a 09bd c640 d5bd fca3 043e 8eff 0c3d
000002e0: 6f51 ffbd 56b8 a2bd 4d86 b9bd 6888 d13c
000002f0: 9bbe 3c3d 4e8d eabb 4b8f f73d e8a1 1ebe
00000300: 2854 1e3e 03a3 043d c627 223e d72f 4c3d
00000310: 26fc 323d 7710 0abd d598 16be bac5 bc3d
00000320: 8cc4 e93d 8b7b d73b 1d15 88bc e73a 303e
00000330: 9b20 e9bc 8db1 26bb 90aa 7b3d 4c22 0bbe
00000340: 455f 7c3c f0f6 2cbd 98a1 1b3e e95e 21be
00000350: 8bc4 993d e1b2 db3d 546f 38bc 8a8d acbd
00000360: 40f6 993d 9177 c53d 4fdb c4bd 7ce3 7b3d
00000370: 69ec 45bd f2e3 78bd 41ee 9d3d 2b65 473d
00000380: 8cbd e53d 20d0 9e3d ac88 17be 16a4 403d
00000390: ba74 7e3d 69f5 a1b9 0523 50bd a540 cebd
000003a0: f790 013e 2d77 9cbd 92f7 dfbd 3206 21be
000003b0: 6614 e03d 5650 f1bd fa73 823d 913e dcbd
000003c0: 1498 583d 1938 a53c 5060 2cbe 7a54 18be
000003d0: b822 033e e226 263d e602 f73d 4bff 04be
000003e0: 9194 cebd d3c2 dc3d 9b7f ea3c 50ba d7bd
000003f0: c093 b339 2e59 013e 16e1 073c b5bc e3bd

onnx::LSTM_115 f4 [1, 512, 128]
0.1057451 -0.081803806 -0.099483564 -0.11075576 -0.06165349 -0.11971671 -0.08809194 0.034625288
0.048579022 -0.069113225 -0.09278038 -0.12887174 0.12511416 0.122420266 -0.11172436 0.062841885
0.044804994 -0.051798154 -0.035091225 -0.093145974 0.09685623 -0.04389975 0.10566012 -0.02627577
-0.026273003 -0.13079928 0.13952655 -0.05651106 0.13692234 -0.06873175 -0.13130124 0.08553766
0.040917687 0.03406574 0.14379577 -0.0331471 0.10013312 0.1498949 -0.1617193 -0.11541626
-0.027181396 0.055144213 -0.09110956 -0.033081718 -0.079040006 -0.13318658 0.006068467 -0.04445498
-0.0006775662 0.0697926 0.004916169 -0.105097495 0.1251727 0.037689332 -0.08182158 0.11767177
0.055356972 0.112348445 -0.06028919 -0.047259193 -0.004498748 0.04856714 0.11105513 0.117632575
-0.044722296 0.14417103 0.1416423 0.042668696 -0.01833731 0.025344422 -0.0016718918 0.01940472
0.038920105 -0.107406445 0.06640613 0.0010923583 -0.09758155 0.08531613 0.14328372 0.09381498
0.00024055615 0.081603974 -0.09672993 -0.050695363 0.023889977 0.13141315 -0.12848884 -0.11136312
0.029945483 -0.034060396 0.14227913 -0.0087132985 0.11306046 0.13905099 0.07810031 0.091620445
-0.014297702 -0.1388901 0.08496453 0.005080618 0.05421777 -0.13549036 -0.035388783 -0.016838597
0.14433019 -0.08686908 -0.16190098 -0.056028053 -0.014632705 0.122950315 0.11275084 -0.108242825
0.050165623 -0.027169103 -0.15051797 0.13935126 -0.049952857 0.096558936 -0.06773611 0.04440393
0.0021391031 0.10963762 0.13532534 0.08819265 0.14759007 -0.14107294 0.14892638 0.09657996
-0.044054933 -0.06811182 0.011648743 0.032664787 0.041076746 0.123839304 -0.08424539 -0.11063527
-0.0606488 0.11315252 -0.10083356 0.13704665 0.07003789 -0.042359807 -0.07414309 0.103420705
0.02006082 0.07781194 -0.16130391 0.13882644 0.0587805 0.029521354 0.10092129 -0.0941532
-0.13936324 0.041910183 0.09521416 0.13042447 0.058532733 -0.103032306 0.063580975 -0.11957568
-0.03395621 0.041359626 -0.060940325 -0.17387152 -0.014060394 0.08773424 0.102703676 -0.029125106
-0.15142323 0.010583067 0.07386125 0.14409594 -0.05164621 0.07179389 -0.03140682 -0.07738016
-0.05413413 -0.06927184 0.114289366 -0.08011503 -0.14082192 -0.082574815 0.06811697 0.118221216
0.04731913 -0.1340897 0.11906224 0.10933992 -0.09322836 -0.039324105 -0.059719272 -0.093039654
-0.12563679 -0.04832619 0.045099393 -0.02226927 0.082990885 0.10504567 -0.01601878 0.13670458
0.09043943 -0.16068253 0.021128433 0.11329875 0.0739196 0.13176021 0.061297555 0.027769942
0.11062698 -0.016949905 -0.032478716 -0.040608626 -0.15261903 -0.12832798 -0.065257356 -0.11056492
-0.12602486 -0.08604955 0.07399826 -0.11916483 0.064491384 0.0292767 0.12511338 0.1087261
-0.043661132 -0.07396776 0.06753065 0.18086763 0.058737095 0.15928683 -0.054153875 0.10633775
0.08724422 -0.16439019 -0.014928157 0.06808011 -0.029624436 -0.0794765 -0.054935705 -0.055735536
-0.10094331 -0.19570215 0.072999716 0.03292387 0.09135486 0.08099801 0.15017827 0.12315234
0.04384066 0.06195898 0.03354285 0.06070534 0.010089038 -0.034386892 -0.1449327 0.078494415
00000000: e390 d83d c188 a7bd 0abe cbbd ead3 e2bd
00000010: 5f88 7cbd 092e f5bd 8c69 b4bd 3fd3 0d3d
00000020: ccfa 463d 3c8b 8dbd a403 bebd f4f6 03be
00000030: ed1d 003e 7ab7 fa3d becf e4bd 3fb3 803d
00000040: 7185 373d 4d2a 54bd d1bb 0fbd 51c3 bebd
00000050: 8f5c c63d 39d0 33bd 5564 d83d 4940 d7bc
00000060: 7b3a d7bc 3ff0 05be 0ce0 0e3e 2478 67bd
00000070: 5f35 0c3e 3bc3 8cbd d573 06be 5e2e af3d
00000080: 4e99 273d 8488 0b3d 333f 133e 41c5 07bd
00000090: 9812 cd3d 0c7e 193e bf99 25be 5c5f ecbd
000000a0: 85ab debc e6de 613d a697 babd b280 07bd
000000b0: badf a1bd 1062 08be fed9 c63b 6d16 36bd
000000c0: b39e 31ba 6cef 8e3d d117 a13b 5b3d d7bd
000000d0: 462d 003e 2160 1a3d 1392 a7bd e6fd f03d
000000e0: febd 623d f116 e63d ccf1 76bd db92 41bd
000000f0: 3c6a 93bb 56ee 463d df70 e33d 59e9 f03d
00000100: ba2e 37bd 92a1 133e ae0a 113e 5fc5 2e3d
00000110: 2038 96bc 1b9f cf3c 6123 dbba a6f6 9e3c
00000120: b06a 1f3d e9f7 dbbd f0ff 873d 762d 8f3a
00000130: d6d8 c7bd 39ba ae3d f8b8 123e 1122 c03d
00000140: cd3d 7c39 fc1f a73d 571a c6bd f1a5 4fbd
00000150: eab4 c33c 2b91 063e 9492 03be 5912 e4bd
00000160: 3b50 f53c ea82 0bbd 9fb1 113e 39c2 0ebc
00000170: 3e8c e73d 6263 0e3e 0ef3 9f3d 80a3 bb3d
00000180: e940 6abc 3539 0ebe e201 ae3d 507b a63b
00000190: 7413 5e3d fcbd 0abe d4f3 10bd 19f1 89bc
000001a0: 4bcb 133e 6be8 b1bd 5fc9 25be ac7d 65bd
000001b0: 03be 6fbc 60cd fb3d eae9 e63d 6aae ddbd
000001c0: 787a 4d3d bd91 debc 6221 1abe 19b2 0e3e
000001d0: 5e9b 4cbd b1c0 c53d 3bb9 8abd e5e0 353d
000001e0: 3230 0c3b b089 e03d ba92 0a3e 599e b43d
000001f0: da21 173e 6d75 10be 2880 183e b7cb c53d
00000200: f272 34bd 367e 8bbd 5fda 3e3c 83cb 053d
00000210: 1740 283d 769f fd3d d988 acbd bf94 e2bd
00000220: e06a 78bd 82bc e73d d381 cebd f555 0c3e
00000230: 0670 8f3d 7a81 2dbd 55d8 97bd 3cce d33d
00000240: 9756 a43c de5b 9f3d da2c 25be 8528 0e3e
00000250: d2c3 703d c4d6 f13c d2af ce3d 65d3 c0bd
00000260: 3db5 0ebe 03aa 2b3d a4ff c23d fe8d 053e
00000270: 05c0 6f3d 9a02 d3bd be36 823d 18e4 f4bd
00000280: ab15 0bbd b668 293d 909c 79bd 600b 32be
00000290: 915d 66bc 02ae b33d 4e56 d23d c697 eebc
000002a0: b10e 1bbe 9a64 2d3c 9144 973d e38d 133e
000002b0: fa8a 53bd ad08 933d 70a4 00bd 7d79 9ebd
000002c0: c0bb 5dbd 65de 8dbd 8b10 ea3d 5913 a4bd
000002d0: 9f33 10be fc1c a9bd e980 8b3d f71d f23d
000002e0: b4d1 413d cf4e 09be e7d6 f33d 9ced df3d
000002f0: 83ee bebd 5012 21bd 329c 74bd 938b bebd
00000300: eea6 00be aff1 45bd 24ba 383d 0b6e b6bc
00000310: 20f7 a93d 2f22 d73d d139 83bc 49fc 0b3e
00000320: 4f38 b93d f689 24be 8915 ad3c 2d09 e83d
00000330: 2963 973d 26ec 063e 2513 7b3d ca7d e33c
00000340: 6690 e23d 87da 8abc 6708 05bd 3b55 26bd
00000350: 2a48 1cbe 6968 03be a6a5 85bd dc6f e2bd
00000360: a90c 01be bf3a b0bd 668c 973d b10c f4bd
00000370: 0f14 843d b1d5 ef3c b91d 003e caab de3d
00000380: 04d6 32bd 697c 97bd 824d 8a3d 5d35 393e
00000390: 4f96 703d 161c 233e 74d0 5dbd 9bc7 d93d
000003a0: 19ad b23d e755 28be 3b95 74bc 966d 8b3d
000003b0: f2ae f2bc 93c4 a2bd 4304 61bd f24a 64bd
000003c0: 5ebb cebd 2566 48be e080 953d 2edb 063d
000003d0: 4218 bb3d 49e2 a53d 55c8 193e 4b37 fc3d
000003e0: 4492 333d b3c8 7d3d 3a64 093d 2aa6 783d
000003f0: 7e4c 253c 45d9 0cbd 3d69 14be aec1 a03d

onnx::LSTM_116 f4 [1, 1024]
0.0037857979 -0.023053672 0.0060449126 0.02267431 -0.007510072 -0.018304113 0.011188657 0.0164264
-0.00093859667 -0.008268988 0.008777415 0.006057403 0.0063288067 0.00059663126 0.0030817743 0.014368812
0.0031357538 -0.014587753 0.005088653 0.015273176 0.013080759 -0.0056500044 -0.01143863 -0.012422405
0.018177744 -0.003211768 0.015760288 0.013381305 -0.0053094137 0.0012467388 0.013954269 0.011131013
-0.013565138 0.004625035 0.0050530396 0.0034892503 -0.006340229 -0.011605456 -0.0021976358 -0.018798336
-0.007066086 0.007153602 0.017970646 -0.008382383 0.0015779472 0.010377575 0.01475271 0.001748074
0.022700107 0.004310519 -0.011065795 -0.020351764 -0.002712521 -0.0011100358 0.011465774 0.006511976
0.003264302 0.008683285 0.008723276 -0.05419478 -0.011520891 0.015022892 0.0050680013 -0.0024904707
-0.005366065 0.011015704 0.016928276 0.012384995 0.0026319819 0.012522457 -0.0009841963 -0.01576135
0.0068058306 -0.0014407181 -0.008744489 0.020959327 0.01940704 0.018151222 0.0077229044 0.000750062
-0.00010818708 0.014402625 -9.996618e-06 -0.013878291 -0.0051316 -0.004088111 -0.013784878 -0.0012299608
0.014620629 -0.01786547 -0.01844048 0.014716151 0.0030729626 0.001078915 0.009762647 0.028771497
-0.0077569513 -0.003890905 0.0030947097 0.0057529723 -0.009671925 0.0024695678 -0.0063061514 -0.0071101817
0.014543415 -0.004194518 0.018021785 0.006707837 0.014860375 0.00374153 0.0019122007 0.0042947954
0.009318727 0.019576348 -0.0023429496 -0.011890144 0.01980481 0.016063195 0.004860552 0.009938722
0.0010859917 0.029846989 0.017097281 0.028330173 0.006820394 -0.004289123 0.022244064 0.0006125719
0.0035963051 0.012498021 0.008522638 0.031420674 0.00082336087 0.022176785 0.018936874 0.013121659
0.021853127 0.013469895 0.0007986732 0.00535122 0.03630951 -0.010118787 0.0036692945 0.009002177
0.021571435 -0.0069574313 0.015703458 0.0109072765 0.010727062 0.0111826705 0.011052101 0.016419584
0.010794427 0.003334529 0.007273375 0.00528277 0.010629373 -0.011279839 0.004072188 0.008850148
-0.0071345503 0.028982503 -0.003564804 0.00036800985 0.0172659 0.00047827477 0.002147378 0.016893147
0.014670881 0.012708998 0.009083512 0.023309018 0.01480914 0.022099733 0.0057445127 -0.016659189
0.01992549 0.0072325384 0.026138367 -0.011325021 0.020074185 0.017104156 -8.1014456e-05 0.019036595
-0.00085895206 -0.0049119494 0.0009839088 0.0037842076 0.0037703165 -0.01178363 0.0022005981 0.0029678547
-0.01062914 0.00017743878 0.02771802 0.006066304 0.014350315 0.008411142 -0.0061418866 0.031297117
-0.009417431 -0.004705578 0.004147582 0.018391367 0.0018125238 0.014246404 0.00078178546 0.012422109
0.0121051045 -0.005974794 -0.00089629804 0.010810544 0.0056830747 -0.006204404 0.018972069 -0.017997615
0.015718743 -0.006509641 0.0015117673 -0.0011104585 0.027800506 0.013215937 0.02261632 0.004719681
0.014485985 0.021770712 0.017703554 0.009531882 0.001788478 -0.00808093 0.008134344 0.01970974
0.014961338 0.01924475 0.0190018 0.017497646 0.004313111 0.013148421 -0.00150399 -0.00035291948
0.015554111 0.030365594 -0.011980477 0.009518145 0.018255888 0.012264601 -0.013987446 0.010451319
0.019704642 0.005978244 -0.0021540064 0.013218489 0.0077632186 0.013657551 0.0058300383 0.0051086205
00000000: 261b 783b 0edb bcbc 6714 c63b 79bf b93c
00000010: 0d17 f6bb 82f2 95bc a150 373c a890 863c
00000020: 280c 76ba a67a 07bc 26cf 0f3c 2e7d c63b
00000030: e161 cf3b 3f67 1c3a 98f7 493b 2a6b 6b3c
00000040: 3881 4d3b 7901 6fbc b7be a63b 583c 7a3c
00000050: ae50 563c ac23 b9bb 1769 3bbc 5887 4bbc
00000060: 7ee9 943c 877c 52bb b81b 813c 433d 5b3c
00000070: 97fa adbb 9d69 a33a 72a0 643c da5e 363c
00000080: 5040 5ebc 9b8d 973b f893 a53b e8ab 643b
00000090: b2c1 cfbb cf24 3ebc 3606 10bb f8fe 99bc
000000a0: a08a e7bb c368 ea3b 2d37 933c 4356 09bc
000000b0: 1fd3 ce3a b406 2a3c 5ab5 713c a11f e53a
000000c0: 93f5 b93c 413f 8d3b 4f4d 35bc beb8 a6bc
000000d0: 8dc4 31bb 9f7e 91ba f1da 3b3c 6a62 d53b
000000e0: e6ed 553b 5644 0e3c 12ec 0e3c 58fb 5dbd
000000f0: 1fc2 3cbc 9322 763c 7a11 a63b 2a37 23bb
00000100: d1d5 afbb 367b 343c 2bad 8a3c 6fea 4a3c
00000110: 547d 2c3b fe2a 4d3c 2600 81ba f21d 81bc
00000120: 7203 df3b 7ad6 bcba 0c45 0fbc e5b2 ab3c
00000130: 83fb 9e3c dfb1 943c 6b10 fd3b cf9f 443a
00000140: 7fe2 e2b8 fdf8 6b3c 26b7 27b7 c561 63bc
00000150: fb26 a8bb 90f5 85bb f8d9 61bc a336 a1ba
00000160: 5d8b 6f3c 9b5a 92bc 7d10 97bc 031c 713c
00000170: c263 493b 616a 8d3a 82f3 1f3c 34b2 eb3c
00000180: 062e febb 8efe 7ebb 9dd0 4a3b 6e83 bc3b
00000190: fe76 1ebc 79d8 213b d5a3 cebb 87fc e8bb
000001a0: 8147 6e3c 2b72 89bb 6ca2 933c 6acd db3b
000001b0: ee78 733c 7534 753b cfa2 fa3a 5bbb 8c3b
000001c0: 93ad 183c 945e a03c 2c8c 19bb e1ce 42bc
000001d0: b23d a23c f696 833c 4445 9f3b 05d6 223c
000001e0: d657 8e3a ac81 f43c 990f 8c3c ae14 e83c
000001f0: 9d7d df3b c68b 8cbb 2f39 b63c 0195 203a
00000200: fdaf 6b3b 80c4 4c3c 89a2 0b3c f7b2 003d
00000210: d0d6 573a 17ac b53c 8121 9b3c 3afc 563c
00000220: 5405 b33c d6b0 5c3c 0d5e 513a 4959 af3b
00000230: 48b9 143d 45c9 25bc 8c78 703b de7d 133c
00000240: 94b6 b03c 2afb e3bb 8aa4 803c 6fb4 323c
00000250: 8fc0 2f3c 8537 373c df13 353c 5d82 863c
00000260: 1cdb 303c 1d88 5a3b 7e55 ee3b 161b ad3b
00000270: d226 2e3c 13cf 38bc fd6f 853b 3600 113c
00000280: f2c8 e9bb b76c ed3c 7d9f 69bb 72f1 c039
00000290: 3771 8d3c f4c0 fa39 06bb 0c3b 7f63 8a3c
000002a0: 235e 703c 6739 503c 03d3 143c 8ef2 be3c
000002b0: 09a2 723c 800a b53c 773c bc3b da78 88bc
000002c0: c83a a33c eefe ec3b 2120 d63c 958c 39bc
000002d0: 9e72 a43c 041e 8c3c 4ee6 a9b8 a2f2 9b3c
000002e0: 4c2b 61ba 6bf4 a0bb 80f6 803a 7800 783b
000002f0: 6a17 773b 2010 41bc e937 103b 5780 423b
00000300: d825 2ebc dc0e 3a39 e710 e33c d9c7 c63b
00000310: 951d 6b3c e3ce 093c e141 c9bb 6831 003d
00000320: 924b 1abc 4031 9abb 71e8 873b 7ea9 963c
00000330: 3592 ed3a c069 693c bcf0 4c3a 1a86 4b3c
00000340: 7d54 463c 34c8 c3bb 8bf5 6aba b51e 313c
00000350: 1639 ba3b 504e cbbb 506b 9b3c bc6f 93bc
00000360: 98c4 803c d44e d5bb 7e26 c63a ce8c 91ba
00000370: e3bd e33c a887 583c dc45 b93c 8ea7 9a3b
00000380: a056 6d3c 7e58 b23c 0b07 913c 9c2b 1c3c
00000390: 5d6b ea3a e165 04bc e945 053c 5276 a13c
000003a0: 6620 753c 2aa7 9d3c aaa9 9b3c 3957 8f3c
000003b0: ff54 8d3b 7a6c 573c 8821 c5ba 0d08 b9b9
000003c0: acd6 7e3c 44c1 f83c c349 44bc fef1 1b3c
000003d0: 5f8d 953c 77f1 483c 9a2b 65bc 023c 2b3c
000003e0: a16b a13c 25e5 c33b 3b2a 0dbb 5c92 583c
000003f0: 9962 fe3b ecc3 5f3c e809 bf3b 3766 a73b
