Machine-Learning-DRL/results/SeekerTrainingWall11/Seeker/Seeker-718863.onnx (onnx, 610983 bytes, 11 tensors)

discrete_act_size_vector f4 [1, 2]
000000 00 00 80 40 00 00 80 3f
       4.0 1.0

network_body._body_endoder.seq_layers.0.weight f4 [128, 8]
000000 05 19 38 be f8 74 65 be 0f 2d ba be 05 5f 36 3d
       -0.17978294 -0.22407901 -0.36362502 0.04452421
000010 7f ad d5 be 98 19 c7 3e 66 12 e7 3d 2c 45 d4 bc
       -0.4173393 0.38886714 0.11282806 -0.02591189
000020 b8 5b 1c 3e 75 de be 3c 25 3a c9 3d cc 4c fc 3b
       0.15269363 0.023299435 0.09825543 0.0076995846
000030 52 a1 af bc a2 72 82 3e e3 ba 82 be 18 f4 fc 3e
       -0.021439228 0.25478083 -0.25533208 0.4940498
000040 71 32 83 3e 69 bf d0 be 63 06 0e bf 81 d8 0a 3f
       0.2562442 -0.40771034 -0.55478495 0.5423661
000050 b2 0c 6b bf 4c fc 65 be 52 e8 b2 bc d9 f1 a3 be
       -0.91816247 -0.22459525 -0.021839295 -0.32020453
000060 45 b6 a1 3e 52 a7 ff 3e 79 e8 39 3e d6 a9 0c 3f
       0.31584373 0.49932343 0.18155088 0.5494665
000070 cf 7b 59 3c 87 cd 24 3f d6 e0 5d 3e c5 d5 64 3f
       0.013274147 0.6437611 0.216678 0.89388686
000080 fd 13 11 bf a0 a8 64 be 74 82 84 3e 0d 76 63 be
       -0.56671125 -0.2232995 0.25880778 -0.22213002
000090 ae 87 dc be 31 20 8e 3e 1a 6f 16 bc 61 6b a8 3e
       -0.43072265 0.27758935 -0.009181762 0.32894424
0000a0 e7 67 ce bd 1a 41 27 3d 59 80 08 bf ce 86 82 be
       -0.100784115 0.04083357 -0.53320843 -0.25493473
0000b0 c9 2a 14 3e 75 2d 7a 3e d7 7c 86 3e 63 bc 33 3f
       0.14469446 0.24431403 0.2626712 0.7020933
0000c0 af 69 bf 3e cb aa 56 3f b5 54 5e be 66 de 94 3e
       0.37385318 0.8385436 -0.21712 0.29075927
0000d0 22 bd e3 3c d6 37 48 be c0 1d 61 bf df a3 e2 bc
       0.027800146 -0.1955255 -0.8793602 -0.02766603
0000e0 f2 a8 2a bc a2 da 10 3f 0c 28 79 be fb 22 95 bd
       -0.010416256 0.5658361 -0.24331683 -0.072820626
0000f0 41 cd 77 bc b7 14 2b 3f be 11 10 be 13 00 1e 3e
       -0.01512462 0.66828483 -0.14069268 0.15429716
000100 7a 27 69 3e 1b 13 ac be 1a 92 cc 3e cb 55 07 bf
       0.22768965 -0.33608326 0.39955217 -0.52865285
000110 d1 22 44 be 36 b5 cc 3d 35 b6 8b 3e 08 e8 e9 bd
       -0.19153906 0.09995501 0.2728745 -0.114212096
000120 78 f7 08 3f 03 22 ee 3d a2 7d 9d 3e 33 a8 b6 bb
       0.5350261 0.11627581 0.30759913 -0.00557425
000130 75 01 29 bb 42 69 5c bf f7 e7 e6 be fe 6c 5b 3c
       -0.0025788222 -0.8609811 -0.4509885 0.013392685
000140 b0 15 6e 3d 44 9d 80 bd 62 14 59 be db 8b 01 be
       0.05812615 -0.06279996 -0.21199182 -0.12651007
000150 9d dc 0d 3f f0 5a b2 3d ba 9e 50 be 9c 73 20 be
       0.55414754 0.08708751 -0.2037305 -0.15669101
000160 76 50 00 3e 40 ac dc bd 79 cb 99 3e 05 6f 9a bd
       0.12530693 -0.107750416 0.3003805 -0.075407065
000170 79 bc 52 bd 74 b0 1e bd d4 4e 7c bf 8e ce 66 3e
       -0.051449273 -0.038742498 -0.9855778 0.22539732
000180 74 07 71 bf a1 33 f6 3d 9c 0b 88 bd 9d 9a 2e be
       -0.94152 0.12021566 -0.06642839 -0.17051168
000190 1f f7 c5 be 91 9d 82 be 03 ff 20 bf 85 15 87 3d
       -0.386651 -0.2551084 -0.62889117 0.065959014
0001a0 80 c0 30 be b2 38 ba be 84 95 cc be 57 38 0f 3f
       -0.17260933 -0.3637138 -0.3995782 0.5594534
0001b0 c4 15 60 be 2e 01 c6 bd 09 15 2b 3f 8f a4 0c 3f
       -0.21883303 -0.09668194 0.6682897 0.54938596
0001c0 07 d3 ef be ed 06 9d 3e 18 fe d9 3b 07 d7 6f 3e
       -0.4684069 0.30669346 0.006652605 0.2342187
0001d0 c0 3e 7c 3e 61 06 b9 3d d3 01 68 3d a0 f2 da 3c
       0.24633312 0.0903442 0.056642365 0.02672702
0001e0 b8 74 3c 3e 2c dc 66 3e d7 4a a4 bd af 51 28 bd
       0.184039 0.22544926 -0.08022087 -0.041093525
0001f0 05 31 dd bd 39 06 bd be 83 ac b8 3d 90 a5 14 bc
       -0.10800365 -0.3691881 0.09017279 -0.009072676
000200 13 fc 00 3e ec c5 d1 3e 24 dd e6 3b e6 f2 c9 be
       0.12596159 0.40971315 0.007045405 -0.3944313
000210 92 a6 1e be 8b 93 11 bf 29 9e 09 3f 5f f8 da 3d
       -0.15493229 -0.5686576 0.5375696 0.10691904
000220 2d e5 1b 3e 73 07 c9 3e 02 dc d5 3d aa 52 b9 3c
       0.15224142 0.39263496 0.10442354 0.022622425
000230 1e 76 51 bf 32 55 c6 be 10 91 1f bd e6 17 79 3e
       -0.8182086 -0.38736874 -0.0389567 0.24325523
000240 45 bb 79 3e f4 75 7d 3d 05 98 86 3a 94 43 00 3f
       0.24387844 0.061880067 0.0010268694 0.50103116
000250 aa be 8e be d4 1f 04 3f 7a f7 26 3d 0c da 6f bd
       -0.2787984 0.51611066 0.040763356 -0.058557555
000260 d1 5b 4e 3b f2 d3 e0 3d 97 96 aa be 53 28 1e be
       0.0031487832 0.10977925 -0.33318016 -0.1544507
000270 55 c0 f8 be fa 48 d7 be 37 8a d3 3e 57 a1 b4 3d
       -0.48584238 -0.42047864 0.41316387 0.08819836
000280 80 39 19 bf 2b 4b 4b be ed 81 07 be 46 04 a8 be
       -0.59853363 -0.19852893 -0.13233157 -0.3281576
000290 17 4b 1d bf 99 4e 75 3e d8 86 b0 be 15 2c 04 bf
       -0.61442703 0.23955764 -0.34477878 -0.51629764
0002a0 26 4c ee 3e 19 5f ca bc 51 74 10 3e 4f 49 3d bf
       0.46542472 -0.02470355 0.14106871 -0.73939985
0002b0 94 c9 11 3f 8f 45 b6 be 5f 29 5b 3e 3c 9e 47 bd
       0.5694821 -0.35599944 0.214025 -0.04873489
0002c0 0f 8b 89 3e e6 28 00 bf 53 08 4b 3e a7 b0 e2 bd
       0.26863906 -0.50062406 0.19827394 -0.1106885
0002d0 1d 93 9e 3e f0 3f 09 3f 3c c7 8c bd 5d 69 84 bd
       0.30971614 0.53613186 -0.068739384 -0.06465409
0002e0 31 0b cf bd fd 1d 18 3e d9 ee eb 3e be 63 b7 be
       -0.101095565 0.1485519 0.46080664 -0.35818285
0002f0 a8 c1 27 bd d9 55 cd 3e 9c af 35 bd f1 76 74 3d
       -0.04095617 0.4010456 -0.044356927 0.059683744
000300 d9 6b 92 bc fb 66 9a bd 68 01 d6 3d 02 11 d2 3e
       -0.017873691 -0.07539173 0.10449487 0.410286
000310 f6 b4 20 be ae 3f 2f bf a6 2b ca 3e 3e 48 31 3f
       -0.15694031 -0.6845654 0.39486426 0.6925086
000320 ea ec c0 3e c4 5e d1 bd 8b 65 a2 ba b3 73 2d 3d
       0.3768075 -0.10223153 -0.0012389881 0.042346667
000330 fd 5f ca 3e 55 3c 82 bd 0f b5 8a 3d a3 59 af 3b
       0.39526358 -0.06359164 0.067728154 0.0053512617
000340 35 51 2b be cd f0 93 3d 92 22 1e 3d e7 59 dd be
       -0.16730197 0.072236635 0.038607188 -0.43232653
000350 86 c1 0d be bd 90 15 3f 99 7e 55 be 36 66 95 3e
       -0.13843355 0.5842398 -0.20849074 0.29179543
000360 32 ff cf 3e 07 14 08 3f e7 52 a1 be 29 3b 8c 3d
       0.40624386 0.5315556 -0.31508562 0.068472214
000370 30 94 90 be 9b 07 8d be 9e cd 22 be 3c 6c c8 bd
       -0.28238058 -0.27544865 -0.15898749 -0.09786269
000380 dd 58 69 3e 96 93 94 3e 16 e2 0e 3f 9e 19 0d 3e
       0.22787805 0.2901885 0.5581373 0.13779303
000390 9c 91 a4 bd c9 0e b2 3c 67 29 84 3e ea bd 35 be
       -0.08035585 0.021735566 0.25812837 -0.17748228
0003a0 9f e2 d6 be 70 47 38 be 93 83 b7 bd a3 86 29 bd
       -0.41969773 -0.17996001 -0.08960643 -0.041388165
0003b0 3d 86 85 bd 20 30 c1 3e 51 63 39 3f fa 2d 68 3e
       -0.065197445 0.3773203 0.7241717 0.22673789
0003c0 b4 e4 37 be 03 1a 88 bf d0 4a 7f 3d fb d2 55 be
       -0.17958337 -1.0632938 0.062327206 -0.20881264
0003d0 67 0f 4b 3e da dc b2 be 7d 30 01 bf 56 93 07 be
       0.19830094 -0.3493412 -0.5046461 -0.13239798
0003e0 98 2b 95 be 57 4b ba 3e 70 04 04 3d a5 0d e0 be
       -0.29134822 0.36385605 0.032230794 -0.4376041
0003f0 14 42 d7 bd e5 2e 8b 3d 22 76 01 bf ab cb dd bc
       -0.1051065 0.06796054 -0.5057088 -0.027074656

network_body._body_endoder.seq_layers.0.bias f4 [128]
000000 d0 22 a5 bc ce 29 92 3b 77 77 c9 3c d7 08 88 bd
       -0.020158201 0.00446055 0.024593098 -0.06642311
000010 c4 14 97 bc 7e 80 dd 3b 73 38 ea bc 91 d4 87 3d
       -0.018442519 0.006759702 -0.02859137 0.06632341
000020 54 82 d9 bb 86 e0 f0 bc 0a ce cf bb 49 4e d4 bb
       -0.006637851 -0.029403936 -0.0063417004 -0.006479059
000030 2e 43 6b bc ff 53 98 3c 58 64 54 3b 3c 8f 69 bc
       -0.014359279 0.01859474 0.0032408442 -0.014255341
000040 11 25 d6 bc ae 1d a8 bc 0b 14 ea bc de 7a 79 bb
       -0.026140722 -0.020521965 -0.02857401 -0.003806762
000050 81 b4 a1 3c b2 d1 43 bc 29 18 96 3c a4 34 8f 3c
       0.019739391 -0.011951851 0.018322067 0.017481156
000060 86 8c 84 bb ca db 81 39 7d d2 19 3d b9 a1 3a bc
       -0.004045072 0.00024768553 0.037554253 -0.011391097
000070 f9 91 f5 3b d5 12 81 3c 88 ab a9 3c 93 d4 84 3c
       0.007494208 0.01575605 0.020711675 0.016214645
000080 18 a6 1f bc 16 9b 3e bc ef df 17 bd f1 03 8c 3c
       -0.00974419 -0.011633655 -0.037078794 0.017091723
000090 70 8c 21 3c 28 c4 1d bc 7a 14 eb bb a6 2f 78 bb
       0.009860143 -0.009629287 -0.007174072 -0.0037870198
0000a0 80 89 83 3c 1b d9 bb bc f0 45 b9 3b be 45 41 3c
       0.016056776 -0.022930672 0.005654089 0.011796413
0000b0 cb 5a 27 bc 8c 6e e7 bc 61 62 21 3d a6 56 e2 3c
       -0.010214518 -0.028250955 0.039400462 0.027629208
0000c0 53 43 1e ba 79 77 fa 3c de c5 2e 3c 02 cb e0 3b
       -0.0006037254 0.030574547 0.010667292 0.006860138
0000d0 6d 8b fd bc ca 09 98 3c 63 16 0a bb fa 32 76 bc
       -0.030950272 0.018559355 -0.0021070472 -0.015026802
0000e0 02 67 5a bc 73 a2 7c 3c 87 5d a1 bc c1 06 1e ba
       -0.013330223 0.01541959 -0.019697918 -0.0006028228
0000f0 1f 95 62 3c 58 c7 7d 39 c2 94 cd bc 89 d8 b0 3c
       0.013829499 0.00024202222 -0.025095347 0.021587627
000100 79 d3 26 bc 98 8b 76 3a 85 42 6c bc c9 57 2b bc
       -0.010182255 0.00094049564 -0.014420156 -0.010457941
000110 00 98 7f 3c 04 d4 96 bb ef 74 89 bd be f5 5c 39
       0.0156002045 -0.004602911 -0.067117564 0.00021072381
000120 06 e0 6d bc 27 fe 11 bb 34 6b b3 3b 7a 64 83 3c
       -0.014518743 -0.002227673 0.005475426 0.016039122
000130 2d 72 2a bc 03 d6 ef bb ba 2d cd bb 14 0f e9 bc
       -0.010403198 -0.0073192134 -0.0062615545 -0.028449573
000140 12 c0 2b bc 7c 4e 7a bc 4c c7 91 bc 40 bc 4d 3c
       -0.010482805 -0.015277501 -0.017795227 0.012557089
000150 44 ae 3e bc b4 9e ef b9 28 7a 3c bb e3 87 2f bc
       -0.011638228 -0.00045703875 -0.0028759334 -0.01071355
000160 77 bd 50 bc 48 97 1d 3d 2d ef 1b bc ae 16 a7 bc
       -0.012740484 0.03847435 -0.009517473 -0.020396557
000170 2b ff 3d 3d fa e5 8e bc cc f7 2d 3d 6a 38 34 bd
       0.046385925 -0.017443646 0.042472646 -0.043999113
000180 33 7a 9d 3b e6 c3 3c 3c ca 0d 98 3a 2c a1 82 bc
       0.004805827 0.011521315 0.0011600789 -0.015945993
000190 b1 63 56 bc ce 41 c5 3c e5 2c 49 3b cd 21 e1 bb
       -0.013085292 0.02407923 0.0030696925 -0.0068704844
0001a0 c3 06 d0 ba a1 4d cf bc b8 23 8f bc e8 06 06 bc
       -0.0015871156 -0.025305571 -0.017473087 -0.0081803575
0001b0 37 05 22 bc 90 64 e3 bc 32 80 06 39 0b 97 9a bd
       -0.009888939 -0.027757913 0.00012826992 -0.075483404
0001c0 af 1e ac bc 2c ac 3c bc 94 2c 41 bc da cd 7b bc
       -0.021010725 -0.011515658 -0.011790413 -0.015368903
0001d0 90 34 46 3c 60 f9 96 bc 91 53 47 3b 5b 48 98 bb
       0.012097493 -0.018429458 0.00304148 -0.0046472973
0001e0 1c 8b 89 bb f0 a3 c0 3b 22 d2 78 ba 9b 9b 52 3b
       -0.0041974913 0.005878918 -0.00094917614 0.0032136205
0001f0 c3 57 35 3c 6c a4 b7 3d 48 f9 69 bc f5 5b f6 ba
       0.011068287 0.08966908 -0.014280625 -0.0018795716

network_body._body_endoder.seq_layers.2.weight f4 [128, 128]
000000 73 9f df bc ea 85 d6 3d 56 b3 6e 3c e5 77 9f bc
       -0.027297711 0.10474761 0.014569124 -0.01946635
000010 2e ee 7d bd 64 11 5e 3d d5 a3 39 3d 47 4f 54 bd
       -0.061994724 0.054215804 0.045322258 -0.051833417
000020 cd 3c 1e 3d 5d 04 d1 3d 1d 5a 03 bc 4e 5e 08 3e
       0.038632203 0.1020591 -0.00801709 0.13317224
000030 43 ec f9 bd 89 b8 8a bd f1 db 9b bd e4 cd a3 bd
       -0.122032665 -0.067734785 -0.0761031 -0.07998255
000040 ed a9 e3 3c ef 6f a0 bc 24 d9 b4 bd 7f e5 10 3d
       0.027790988 -0.019584624 -0.08830479 0.035375115
000050 68 42 b8 3d b4 28 9c 3d b8 31 e7 bd 82 68 1c bd
       0.08997041 0.07624951 -0.1128878 -0.038185604
000060 a2 36 b2 bc d6 a5 53 bb a9 20 64 3d 79 0f 91 bd
       -0.021754567 -0.003229489 0.05569521 -0.07083029
000070 ca cc 22 bd c7 9b ea bc 1b 5a 57 bc 16 db 2d bd
       -0.039746083 -0.028638734 -0.013144041 -0.042445265
000080 c6 54 1b 3c 06 1a c0 3d 3c de 36 bd 81 4c 24 3c
       0.009480661 0.093799636 -0.044645533 0.010028006
000090 14 fd db 3b 3b 07 0c 3e cf 3e 8c bc dc 9f 38 bd
       0.006713519 0.13674633 -0.017119793 -0.04507433
0000a0 62 de a2 bd 8e 99 27 bd fd ec 31 3d a6 fc 41 3d
       -0.079525724 -0.040917926 0.0434389 0.047360085
0000b0 72 78 09 bd c6 3b f4 ba 2b 9e b2 bb 9b f4 fb bc
       -0.03356213 -0.0018633537 -0.005450984 -0.030756285
0000c0 41 d9 c7 3d 7a da f3 bc ae b2 f1 bc 0c 3d bf bd
       0.09758235 -0.029767264 -0.029504146 -0.09337816
0000d0 1f 1e 8b 3d 76 40 f6 bd 6c cb a6 bd b3 de 34 3d
       0.067928545 -0.12024014 -0.081442684 0.044157695
0000e0 6d 43 48 bd 0f 27 74 bd 26 80 13 3e 00 e6 1b 3d
       -0.048892427 -0.05960756 0.14404353 0.038061142
0000f0 73 5a a6 bd d7 3e 4a bc 09 56 ed 3d 46 15 37 3e
       -0.081227206 -0.012344084 0.115886755 0.17879209
000100 93 31 e2 3b da 93 f5 bc c7 64 08 3e 89 6a a4 bd
       0.0069028824 -0.029977728 0.13319694 -0.080281325
000110 37 df f0 3c 31 95 80 39 16 94 2d 3d 35 44 c7 bd
       0.029403312 0.0002452522 0.042377554 -0.09729806
000120 0d 84 a6 bc 18 e8 76 bd 85 89 ea bc c9 a8 56 3c
       -0.020326639 -0.060279936 -0.028630028 0.013101765
000130 a3 78 6b bd ff 08 fb bd 9a 1b 5d bb 33 1a 52 3b
       -0.057488095 -0.12257575 -0.0033738376 0.0032059073
000140 16 e9 09 3e 01 e3 8f 3d 8e 6e 60 3e 3d c0 0a 3e
       0.13467821 0.070257194 0.21917173 0.13549896
000150 d4 28 02 3e 08 5b 34 3e 4c 5c 2d be fb 83 35 be
       0.12710887 0.1761285 -0.1692974 -0.17726128
000160 4b 36 1b bd 1e 2f 7c 3c b6 a4 94 3b c0 ec 6b bd
       -0.037893575 0.015392093 0.0045362366 -0.05759883
000170 b0 99 70 bd 12 a3 2d 3d 45 02 38 bd 47 38 a3 3d
       -0.058740318 0.042391844 -0.04492404 0.079697184
000180 12 96 41 3e 2b 2f d6 3d f2 63 5e 3b 12 c9 aa bd
       0.18904904 0.10458215 0.0033934084 -0.08339132
000190 24 ae b0 3d 37 88 70 3d a3 8e 1a 3d 6e 29 bd bc
       0.08626965 0.058723655 0.037733685 -0.023091044
0001a0 44 9c 95 3d 00 a7 ca 3a f6 d9 ab 3a b1 74 3d 3e
       0.07305196 0.0015461147 0.0013111222 0.18501545
0001b0 94 46 ae 3d cb 30 c8 bc bf 15 5b be 5e 83 4c bc
       0.085095555 -0.024437329 -0.21395014 -0.012482492
0001c0 be 39 bd bd cf 95 2d 3e 7c 68 e9 3c 3b a7 87 3c
       -0.09239529 0.16951679 0.028492205 0.016559234
0001d0 fd db 11 3e 0b d0 09 bd ba 05 4f bd a2 66 50 3e
       0.14244075 -0.03364567 -0.05054257 0.20351651
0001e0 1d c7 19 be ea 1c a4 bd e8 6a 64 3d 87 f9 c8 3d
       -0.15017362 -0.080133274 0.055766016 0.098132186
0001f0 46 6e 26 bd 0c 61 0c 3e a9 8c 3b 3d 9d 68 e1 bd
       -0.04063251 0.13708895 0.04578844 -0.110062815
000200 46 5f 0e be 9e e6 11 3e 23 e4 d7 3c fe 02 6f bd
       -0.13903531 0.1424813 0.026353901 -0.058352463
000210 5d d2 19 bc 0c ad 73 bc b4 b2 9b bd f7 bd c6 3d
       -0.009388533 -0.014872801 -0.07602444 0.09704202
000220 e6 ef 66 3c 67 6e 81 bd 79 a1 f4 bb 31 ed 75 bd
       0.014095282 -0.06319886 -0.007465538 -0.060040656
000230 62 23 28 3e 67 10 37 bd 0a 99 15 bd d6 00 3a be
       0.16419747 -0.044693377 -0.036522903 -0.18164381
000240 64 45 c3 bd 5d 73 f0 bc 9f 48 f7 bc e3 9b 08 be
       -0.095347196 -0.029351884 -0.030185996 -0.13340716
000250 a7 21 b2 bb b4 90 95 ba 82 0b 8f 3c 93 e8 59 3e
       -0.0054361406 -0.0011410923 0.017461542 0.21280126
000260 4b ea 22 3e 42 b7 9b bd 13 ea 92 3d 5a 32 4b 3c
       0.15909688 -0.07603313 0.07173552 0.0124021415
000270 a4 37 5c bd 63 49 45 bc 40 74 df 3d b2 95 b1 bd
       -0.053764 -0.012041423 0.10910845 -0.0867113
000280 70 40 4a bd 55 f1 1c bd 82 f8 b5 3c 55 d2 48 bd
       -0.04937786 -0.03831609 0.022213224 -0.049028713
000290 de 13 0e 3d ae 60 94 bd 33 19 ca bc 98 e0 29 3e
       0.034686916 -0.07245003 -0.024670219 0.16589582
0002a0 a8 75 cc 3d 13 36 9e 3c dd f9 ea bc 5c 55 d9 bc
       0.09983379 0.019312894 -0.028683597 -0.02652996
0002b0 e3 0a a1 bd de d9 2c 3e 44 48 47 bd c0 67 05 be
       -0.078634046 0.16879985 -0.048652902 -0.13027859
0002c0 7f 7e 12 3d 39 d9 ae bd 25 69 78 3d 2d 72 da bc
       0.035765167 -0.08537526 0.06064715 -0.026665771
0002d0 76 cd cf bc 33 44 b4 bc ac bd cf 3c 6a b3 ba 3d
       -0.025366526 -0.022005176 0.025358997 0.09116252
0002e0 e6 c0 5c be b2 12 e2 bb f3 9c 99 bd 11 a3 93 3d
       -0.2155796 -0.0068992013 -0.07500639 0.07208837
0002f0 bc c8 91 bc 0f 2a 8e bd 19 58 d6 bb a9 1a b6 bc
       -0.017795913 -0.06941616 -0.006541264 -0.02222951
000300 44 f1 ba 3d db 84 60 bd d6 21 5c 3d a4 c8 ab 3d
       0.09128049 -0.0548142 0.053743206 0.083878785
000310 bb 0f 09 bd e0 0a 06 be b3 81 19 3d d1 7e d5 3c
       -0.033462267 -0.13090086 0.037477206 0.026061447
000320 a6 c4 aa 3d 38 dc 93 3d 9f c2 59 3e b7 91 4e bd
       0.08338289 0.07219738 0.21265648 -0.050431933
000330 e5 61 ee bd 33 29 29 3d e0 6d ed bd 21 95 75 bd
       -0.11639766 0.041299056 -0.115932226 -0.059956674
000340 e8 b7 c3 3d f2 ef 98 3d e8 54 6d 3d d0 98 e9 bd
       0.09556562 0.07467641 0.0579423 -0.114061
000350 26 63 0f bd 4b 73 b2 3d 23 4d 0e be 62 dd 80 bb
       -0.035006665 0.08713397 -0.13896613 -0.003932641
000360 17 a9 28 bd e0 1d ba bd 51 f2 05 3c 30 83 87 3d
       -0.04117688 -0.090877295 0.0081754485 0.06616819
000370 4c b2 1f be f6 ee c5 3d 4d aa 97 bd 69 95 07 3d
       -0.15595359 0.09664719 -0.07405529 0.033101473
000380 fd b6 10 be 20 3f f5 bc d8 c7 39 be ac 40 3e 39
       -0.14132304 -0.029937327 -0.1814264 0.00018143904
000390 42 83 f5 3c c8 b4 cc ba a1 05 16 3e 1e 20 6c 3d
       0.029969815 -0.0015617842 0.14650585 0.057647817
0003a0 35 2a 13 be 1a 41 1f bd 9b b6 17 3e 2b bb e8 3d
       -0.1437157 -0.038880445 0.14815752 0.113638245
0003b0 7c ab b2 ba 0c b3 f2 bc 47 5a 22 bd a8 cc 8c bd
       -0.0013631429 -0.029626392 -0.039636876 -0.068749726
0003c0 68 09 93 bd a0 a8 6e 3d 3c b0 a2 bd 43 ca 14 3c
       -0.071795285 0.058266282 -0.0794377 0.009081426
0003d0 89 f6 cb bc 8e 2f 3c bd b6 74 27 bd 03 04 47 bd
       -0.02489783 -0.04594379 -0.04088279 -0.04858781
0003e0 8b b8 c1 3c b3 16 73 be f6 68 b4 3d 27 57 25 be
       0.023647567 -0.23739128 0.08809082 -0.16146527
0003f0 81 e3 2b be a0 49 19 3d 40 e4 41 bd 86 0e 98 3d
       -0.16786005 0.03742373 -0.047336817 0.07424645

network_body._body_endoder.seq_layers.2.bias f4 [128]
000000 01 1b 02 3a b9 11 0e b8 52 4f 00 bb db a6 c4 ba
       0.00049631303 -3.3871944e-05 -0.0019578529 -0.001500334
000010 ae 3a 69 bb a4 6d bd ba 8f 60 9a 3c 2d 74 04 bc
       -0.0035587954 -0.0014452231 0.01884487 -0.008084339
000020 dc ca c8 bb ff db d3 bb 22 d0 e4 bb b4 7f 60 3a
       -0.0061276983 -0.0064654346 -0.006982819 0.0008563951
000030 16 ad 0a 3a 65 c9 d5 bb 7e 26 b9 b9 e8 08 18 bc
       0.0005290074 -0.0065242522 -0.0003531463 -0.009279467
000040 32 44 3a bc b4 d8 b1 39 7d da 19 bc a8 12 9e bc
       -0.011368798 0.00033921527 -0.009390471 -0.019296005
000050 28 33 57 bc 0a 82 61 3c 42 64 c1 3b b2 02 10 3c
       -0.013134755 0.013763914 0.0059018442 0.008789705
000060 47 03 51 3c c0 76 44 bc 64 0b af 3b 9d 0d 24 bc
       0.012757129 -0.011991203 0.005341934 -0.010013011
000070 c0 a9 23 bb 42 3c c0 b9 cd 4f 72 bb 89 c8 68 bc
       -0.0024973005 -0.0003666599 -0.0036973835 -0.014207968
000080 bb 86 d9 39 2f 13 2f 3c 56 f1 12 3c 06 94 b3 bb
       0.00041489847 0.010685726 0.008968672 -0.0054802923
000090 79 68 fb ba e8 e6 38 3b 00 a8 ac 3b e9 f9 c3 bb
       -0.0019180916 0.0028213803 0.0052690506 -0.0059807193
0000a0 39 5f d1 ba 24 ef 1c bc 22 19 9a bb eb 32 85 bb
       -0.0015973813 -0.0095785 -0.004702703 -0.004064908
0000b0 ce b7 d4 ba 96 b3 8b bc d8 0b e1 bb 30 26 98 bc
       -0.0016229094 -0.017053407 -0.006867867 -0.018572897
0000c0 3b 44 ff bb 12 34 04 bc a6 52 0a bb 22 1c 0e 3b
       -0.007790116 -0.008069055 -0.0021106391 0.002168425
0000d0 74 97 74 bc af e2 9d 3c 5f 01 1d bc de 28 34 3c
       -0.014928687 0.01927313 -0.009582846 0.010996072
0000e0 d3 f1 11 bb da 14 a7 38 0f a8 e6 bb 00 0c 83 ba
       -0.0022269383 7.9670644e-05 -0.007039077 -0.0009998083
0000f0 ac fe 08 bc 28 39 aa ba 9a 73 35 bc 07 6a a2 3c
       -0.0083615 -0.0012987005 -0.011074925 0.019825948
000100 14 b6 77 b7 1d 8a 22 bc 48 ae 54 b7 7c 8d 3b bc
       -1.4764741e-05 -0.009920624 -1.2676763e-05 -0.011447307
000110 8d 67 42 bc ed 98 af bb 0e bd 42 bb 48 da 29 3c
       -0.011865509 -0.0053588063 -0.0029714736 0.010366984
000120 f8 83 18 bc 48 e4 1a 3b 7c e4 e7 bb 8a 1c 0b bb
       -0.009308808 0.0023634601 -0.007076798 -0.0021226727
000130 0f 23 19 bc c2 c3 f6 bb 8d 3d a5 bb a4 46 cb ba
       -0.0093467375 -0.0075306604 -0.005042738 -0.0015508723
000140 0c c8 0c 3c 17 db 16 bc 05 ed 1b bb 99 05 a0 3c
       0.008592617 -0.0092075085 -0.0023792398 0.01953392
000150 f0 89 0f 3c c0 95 19 bc 9c e5 f4 3a e2 c5 0e bc
       0.008760914 -0.009374082 0.0018684152 -0.008714171
000160 3b d5 2d bc 47 17 ce 3c 5e d5 36 bc 81 10 4e bc
       -0.01060992 0.025157584 -0.011159269 -0.012577177
000170 fa 83 69 3c 17 9d 12 3b b1 94 01 3a 1f 5a 68 3a
       0.014252657 0.0022371465 0.0004943116 0.0008863527
000180 e5 db d6 bb 7f 69 3b 3a ad 38 00 3c d9 87 78 bc
       -0.006556975 0.0007149204 0.007826013 -0.015169107
000190 0c cb 1b 3c aa 95 91 bb e3 64 b1 3b 0d 76 78 ba
       0.009508859 -0.00444289 0.005413638 -0.000947804
0001a0 f8 8b 08 bc 37 51 44 bc a0 22 b3 3b 58 99 d5 bb
       -0.008334152 -0.011982254 0.005466774 -0.006518524
0001b0 e2 8b 38 bb b0 a8 2d 3b aa f9 df 3a e0 c0 f5 bb
       -0.0028159549 0.002649825 0.0017087955 -0.007499799
0001c0 46 4c 8c bc 85 8f c4 bb 23 cc 54 3b c7 eb 07 bc
       -0.017126214 -0.005998554 0.0032470308 -0.00829596
0001d0 b9 97 50 3b b0 b0 20 bb 09 b6 85 bc 34 ee 5a 3c
       0.0031828715 -0.0024519376 -0.016322153 0.013362456
0001e0 e6 63 0d bc 88 98 be 3b b8 56 3b bb 44 c1 92 bb
       -0.008629775 0.005816523 -0.0028585624 -0.0044786055
0001f0 f3 1e 23 bb 1f aa 63 bc ad f2 1c 3c 9e 51 46 3b
       -0.0024890273 -0.0138955405 0.009579343 0.003026105

action_model._discrete_distribution.branches.0.weight f4 [4, 128]
000000 a6 37 fb 3c e0 38 2b 3d ed e0 41 bd 69 8c 88 bb
       0.030666184 0.041802287 -0.047333647 -0.004167129
000010 e3 e4 07 bd c1 d1 57 bd ec 56 2a bd 50 56 46 3d
       -0.033177268 -0.05269027 -0.0415868 0.048422158
000020 f8 81 2b bd da 54 75 bd 1e da 21 3d 6e ed 0d 3d
       -0.041871995 -0.059895374 0.039514653 0.03465026
000030 e9 52 17 3d 18 c3 02 3d 3f 2e 9d bb 72 68 ba bd
       0.036944304 0.031924337 -0.0047967727 -0.091019526
000040 97 57 cb ba 19 67 c2 bc dd 0d 0c bd 01 29 4c 3d
       -0.0015513775 -0.023730801 -0.03419291 0.049843792
000050 ed f1 13 bc 97 c5 06 3d 68 8e 37 bd 2c 50 a5 3d
       -0.009029848 0.03290328 -0.044813544 0.08071932
000060 1b 4c a1 bd a4 bf 55 bd ac 2c 86 3d a4 3b ef bc
       -0.07875844 -0.052184716 0.06551489 -0.029203244
000070 4b 05 23 bd de e3 b2 bc 36 22 20 bd 08 ee 3c 3d
       -0.03979997 -0.021837171 -0.039095126 0.04612544
000080 b8 d2 c7 ba 18 3b 2e 3b d7 27 3f 3d 5a c8 be 3c
       -0.0015245294 0.0026585516 0.046668854 0.023288894
000090 3d 3e 8c 3d fd 50 f2 bc 46 4d 21 bd 3a 23 57 3d
       0.068478085 -0.029579634 -0.039380334 0.05252383
0000a0 9d 66 99 3d d5 6e 7d 3d 84 49 1c 3d 2a 0e 5e 3b
       0.07490275 0.061873276 0.038156047 0.0033882954
0000b0 ef 8e 5a bd 62 62 87 bd 94 41 0d bd e4 6a f0 3c
       -0.05335897 -0.06610562 -0.03448637 0.029347844
0000c0 c4 95 0d bd c3 d2 f4 bc 11 47 3d 3d 0f b9 69 3a
       -0.034566656 -0.029885655 0.046210352 0.00089158205
0000d0 26 63 1c 3d 63 d9 fb 3c a6 be 24 bd e9 1d 13 bd
       0.038180493 0.030743307 -0.04022088 -0.035917196
0000e0 4d 94 8e 3b 4f 60 bf 3b 70 89 33 bd da 83 20 3d
       0.004351175 0.0058403383 -0.043832242 0.039188243
0000f0 88 6d a8 bc 6b af ca 3c 76 47 ec bc 12 4d 3a bd
       -0.020560041 0.024741849 -0.028842669 -0.045483656
000100 d9 5f dd bc 6c 3e c7 bc ed 78 d3 3d 2c 58 e2 3c
       -0.027023243 -0.024321757 0.10325799 0.027629934
000110 90 24 28 bd be da 51 3d 47 b5 e5 3b b7 9a e5 bc
       -0.041050494 0.051234 0.0070101353 -0.028027875
000120 85 73 41 3c a5 b2 bd 3c 1d ab 99 bc cb 8d 90 bd
       0.011807327 0.023156473 -0.018758351 -0.07058295
000130 3f d2 52 bd 53 c2 6d bd a4 00 7c bc 5a 1b fa 3d
       -0.051470038 -0.05804665 -0.015381012 0.12212248
000140 fa 87 38 3d f8 bb fa bc 46 b9 f9 3c 0f fe 26 bd
       0.045051552 -0.030607209 0.030483853 -0.040769633
000150 c9 fc dd bc 10 73 9c bb 4c 27 a7 3d 70 c7 fd bc
       -0.027098076 -0.0047744587 0.08161792 -0.030978888
000160 8f f7 38 3d e0 f3 be 3c d0 91 c6 3c 9d 07 40 3d
       0.045157965 0.023309648 0.02423945 0.04688226
000170 2e fb 95 bd 05 cc 9a 3d 5a 3f b0 3d 32 b2 7c 3d
       -0.07323299 0.07558445 0.08605833 0.061693378
000180 95 21 1c bd 0a c1 fc 3b b0 ab 85 bd 50 8e b5 3d
       -0.038117964 0.0077134417 -0.065268874 0.088650346
000190 4a 0e 34 bd fa 39 ad 3b 00 2a 57 3d 15 65 23 3d
       -0.04395894 0.0052864524 0.05253029 0.03989132
0001a0 21 1c 2b 3d d3 06 a1 bd 92 42 db 3b 2e 5b 08 bd
       0.041774873 -0.0786263 0.0066912854 -0.03329008
0001b0 3f 77 9e 3d fc f9 b6 bc a4 79 c9 bc 23 0a b7 bc
       0.07737588 -0.022335999 -0.024594136 -0.0223437
0001c0 61 7a 6e 3d 68 73 51 3c d5 a9 50 3b 96 cd 73 bc
       0.05822218 0.012783863 0.003183951 -0.0148805585
0001d0 ad 71 d2 bc f1 75 19 bc c6 d4 bd 3c 56 06 ce 3d
       -0.02568897 -0.009366498 0.023172747 0.10059802
0001e0 15 af 26 3d d3 1e aa 3c 5e 88 46 3c 45 7b db bc
       0.040694315 0.020766651 0.012117473 -0.026792178
0001f0 9d d2 4a bd 35 0f 7e 3d fc ca 01 bd 35 53 bf bc
       -0.049517263 0.06202622 -0.03168772 -0.023355106
000200 69 ee 21 3b 40 40 09 bd 91 8b 27 3d 7a ac 77 bd
       0.0024708754 -0.03350854 0.040904585 -0.06046722
000210 bc 99 7f 3b 76 56 53 3d 3d d7 da 3c 7c 0b 69 bd
       0.0039001545 0.051596127 0.026713962 -0.056895718
000220 95 77 8e 3d ca ea 1f 3d cc de 0f bc e3 0e 8d bb
       0.06956402 0.03904227 -0.008781146 -0.004304753
000230 e1 d8 9f bd f6 97 86 3c 55 68 11 bd 25 c5 0a 3d
       -0.07805038 0.016429882 -0.03549989 0.033879418
000240 a0 a0 2a bd 8b af e0 ba cb d5 01 3d ce af 23 bd
       -0.04165709 -0.001714216 0.03169803 -0.039962582
000250 89 fb b4 bc 48 f9 10 bc a6 15 06 3d 86 7e cf bc
       -0.022092598 -0.008848496 0.03273549 -0.025328886
000260 08 04 91 3d ec bf c7 3c d7 30 06 bd 36 14 5e 3d
       0.07080847 0.024383508 -0.03276142 0.054218493
000270 18 32 3a bc 87 5c e6 bb f0 f8 c0 3c 71 a0 82 bc
       -0.011364482 -0.007030073 0.023556203 -0.015945645
000280 97 87 30 bc 25 7f 3d 3d 47 32 10 3c b8 bf b2 3a
       -0.010774515 0.046263833 0.00880105 0.0013637459
000290 2c 28 35 bd eb ba 78 bc fe 88 61 3d 74 e9 2d bd
       -0.044227764 -0.0151812835 0.055062287 -0.042458966
0002a0 a2 8c 2f bc a7 7c 3b bd d9 d6 84 bc 8c 1b a7 bc
       -0.010714682 -0.045773175 -0.016215729 -0.020398878
0002b0 14 05 01 3b c5 40 3b 3d 28 57 11 3b 1e d3 a2 3b
       0.0019686865 0.045716066 0.0022177193 0.004969015
0002c0 12 91 54 bb 2c 45 88 3a 5f d5 70 bd 29 9a ab bb
       -0.0032435101 0.0010396591 -0.058797237 -0.005236883
0002d0 85 d8 5e bd e0 76 6c 3c f6 58 86 3c 3b 05 9c 3c
       -0.054405708 0.014432639 0.016399842 0.019045463
0002e0 d2 d9 54 3c 4a e2 bd bc 3b 94 d2 3c e3 86 bd 3b
       0.012991386 -0.023179192 0.025705447 0.005783902
0002f0 c1 86 1c 3c 01 07 07 bb 0f 4b 0a bc d6 f6 1e bb
       0.009553612 -0.002060354 -0.008440747 -0.0024256012
000300 aa 09 7d 3b a8 0c 31 bb 0f 59 81 bd 4e df 57 bd
       0.0038610497 -0.00270156 -0.06315815 -0.052703194
000310 33 e0 2c 3d fd 74 0d bd 07 e8 5f bb 7d 2c 7c 3d
       0.042206 -0.034535397 -0.0034165399 0.061565865
000320 b9 83 bb bb 05 6f de 3b e5 81 0f bd de 33 0f 3d
       -0.0057224897 0.006788137 -0.035035986 0.034961574
000330 f4 1e 0a bb 41 6b 19 3d ce 65 09 3d 31 b3 16 bd
       -0.0021075578 0.0374558 0.033544354 -0.036791984
000340 43 18 a8 bc e3 51 b7 ba 75 14 6a bb 87 53 6a bc
       -0.020519381 -0.0013986196 -0.003571776 -0.014302141
000350 c0 77 5d 39 99 bc df 3b 18 2c 0d bd 41 43 1b bc
       0.00021120813 0.0068279025 -0.03446588 -0.009476484
000360 a7 6d db bc 5f 3a 82 3b 65 9f 09 3c 5d b5 93 bc
       -0.026785685 0.0039742435 0.008399819 -0.018030817
000370 90 50 0c 3d 4e f8 33 bd 95 45 7c bd 66 7f c1 bc
       0.034256518 -0.043937974 -0.061589796 -0.023620319
000380 ce 3d 2d 3d 9f 5a 21 3d 60 38 57 3d e8 87 5b bd
       0.04229527 0.039393064 0.052543998 -0.053596407
000390 5c 86 4e 3a 7d 7b 5d bb dc 43 7f bc 17 fc 96 bc
       0.00078782975 -0.0033795529 -0.015580144 -0.018430753
0003a0 7e 57 66 bd 36 01 53 3d 97 ec a7 3b 09 38 db 3c
       -0.056235783 0.051514827 0.0051246393 0.026760118
0003b0 a0 4e 80 bc cb e3 24 3d 4f 8e 84 bc 93 b5 6a 3b
       -0.015662491 0.040256303 -0.01618114 0.0035813793
0003c0 da 8a 17 bd 3d b0 2a 3d 44 e0 0b 3b b3 1d 45 3d
       -0.036997654 0.04167198 0.002134339 0.048124027
0003d0 b5 f5 e4 bc 77 f2 02 bc ab a0 ac bb 37 4c 1d bd
       -0.027949193 -0.007992378 -0.0052681766 -0.038402762
0003e0 eb fa a3 bc 93 77 fb bc 0d fc 12 3c 94 3c 14 3d
       -0.020017108 -0.030696666 0.008971226 0.036190584
0003f0 cc 6e fd 3b b4 6b 1e bd 77 0b 00 bd a7 00 df bc
       0.0077341553 -0.038676932 -0.031260934 -0.02722199

action_model._discrete_distribution.branches.0.bias f4 [4]
000000 9b eb fd bc c4 9a 5f 3c 10 97 86 3c 4b e2 f3 bc
       -0.030996135 0.013647739 0.016429454 -0.02977099

action_model._discrete_distribution.branches.1.weight f4 [1, 128]
000000 28 75 76 bb df f2 ac 37 04 05 9f b6 78 17 b3 3a
       -0.0037606452 2.0617093e-05 -4.739153e-06 0.001366361
000010 17 d6 25 bc c5 34 24 3b 13 7f 6d 3b 4f fe 58 3b
       -0.010121844 0.0025055867 0.0036239072 0.0033110564
000020 ab 16 35 bb 91 5a 8e 3c 4b 2c 12 bb 9a ee 7d 3b
       -0.002763192 0.01737717 -0.0022304233 0.0038746954
000030 e9 9d b5 bb 96 55 96 bb c5 01 71 bb c4 57 0a 3c
       -0.005542506 -0.0045878394 -0.0036774736 0.0084437765
000040 12 5d 8e b9 af 09 08 3c 77 40 51 bb 83 6f 96 bc
       -0.00027153693 0.00830309 -0.0031929293 -0.01836372
000050 33 7e 8e 3b 47 6a 8c 3c 5f 6d 3e bc 2d a1 00 3c
       0.00434854 0.01714052 -0.011622756 0.007850927
000060 a6 f3 a9 bb 06 05 a1 3b 2d 1a 72 bc 58 5d e1 bb
       -0.005186516 0.004913929 -0.014776749 -0.0068775825
000070 41 aa aa 3c 72 d8 ec 3b 75 c0 01 3b 93 58 1c 3c
       0.020833137 0.0072279507 0.0019798551 0.009542602
000080 b2 51 e4 ba c6 8a a2 3c 70 53 84 bb 9f a1 3d bc
       -0.0017419367 0.019841563 -0.004038267 -0.011574178
000090 b0 eb 4a bb 0b 30 75 bc c3 91 9c 3b 3b 4c 0f 3b
       -0.0030963235 -0.014965068 0.0047781183 0.0021865505
0000a0 ed 9f 55 3c 63 1f 68 3b 8a da b1 b9 f0 3b 5f bc
       0.013038618 0.0035419099 -0.00033922895 -0.01362513
0000b0 a8 17 25 3b 0c 7e b0 ba 3c a4 c8 3b 07 3c 95 3b
       0.0025191102 -0.0013465299 0.006123094 0.004554275
0000c0 d7 54 fd bb c7 dd b3 bb 5d 6b db 3b 63 a5 2e bb
       -0.007731061 -0.0054890844 0.0066961483 -0.002664887
0000d0 15 3d a5 3b c3 42 4a bc bc 72 8b bc 7e ca 98 bb
       0.005042682 -0.012345019 -0.017022483 -0.004662811
0000e0 1f 24 61 ba bb 30 f8 3a d3 50 a9 bc de 1c 40 3b
       -0.00085884513 0.0018935421 -0.020668423 0.0029314081
0000f0 fd 3c 74 bc 23 f0 3a bc 1b 8c cb 3b 6f 9b 05 3a
       -0.014907119 -0.011409792 0.00621177 0.0005096709
000100 ea 58 a2 3c 97 ab 5b bb 4e 9d 0b 3c f7 eb be bb
       0.019817788 -0.0033519024 0.008521391 -0.005826469
000110 5a 4c 43 bb 1a 7f 02 bc 82 92 c2 bb c2 89 2b bb
       -0.0029800148 -0.007964874 -0.0059378752 -0.002617464
000120 79 14 13 3b ed 5c d9 bb 4f 8a 8f b9 f8 ab 29 bc
       0.0022442623 -0.006633392 -0.00027378133 -0.010355942
000130 cd 8e 58 bc 59 58 a6 3a 5b 8b ab b9 66 d6 1e ba
       -0.01321764 0.0012691125 -0.0003271949 -0.00060591695
000140 a2 28 0d bc 57 1f 88 bb 25 b3 db bb c3 8e b6 bb
       -0.008615645 -0.0041541266 -0.0067047053 -0.0055712177
000150 15 a7 6b bc 90 8a 6e bb 10 86 25 3c 18 39 29 bc
       -0.014383097 -0.0036398508 0.010102764 -0.010328554
000160 21 ac 02 3c 5d 34 e6 3b d7 8a 18 3b 94 fc aa ba
       0.007975609 0.007025285 0.0023276114 -0.0013045245
000170 5f 59 82 bc 55 e4 d6 bb 9a b1 6b ba 42 ed 6d bb
       -0.015911756 -0.006557981 -0.0008991003 -0.0036304747
000180 4f c0 eb 3a 54 6d af b8 e7 c2 bb ba 64 3a 44 bc
       0.001798639 -8.365014e-05 -0.0014325053 -0.011976812
000190 7d 15 56 3c 03 c2 81 3b 85 70 d0 3b 07 5b 8f 3a
       0.013066647 0.0039598956 0.0063610696 0.0010937162
0001a0 ab b3 84 ba 8b 25 80 3b 5e a4 17 3c ab 96 04 bc
       -0.0010124346 0.0039107255 0.009255497 -0.008092563
0001b0 dd fd 3e 3b ab be 68 bc bb 5a 43 3c b1 08 12 bc
       0.0029143014 -0.014205615 0.011923487 -0.008913205
0001c0 dc c7 8c bc f5 42 70 bc 80 38 46 bb bf 2a 94 bb
       -0.017185144 -0.014664401 -0.003024608 -0.0045216973
0001d0 4b 8f bd 3c a3 9d 60 3b 45 81 eb 3a e0 88 02 3b
       0.023139616 0.0034273646 0.0017967602 0.001991801
0001e0 28 65 61 3c 33 38 a6 3a 95 f2 49 bb c3 32 af 3a
       0.013757028 0.0012681544 -0.0030814756 0.0013366569
0001f0 65 f1 8d bb e4 81 25 38 3b 13 42 bb 82 15 7b bb
       -0.004331755 3.9460036e-05 -0.0029613513 -0.003831238

onnx::LSTM_114 f4 [1, 512, 128]
000000 93 9b be bd 0a 3f b3 3d 37 c6 e9 bc 4f 18 e0 bc
       -0.09307017 0.08752258 -0.028536899 -0.027355341
000010 bb 60 13 bd b0 67 49 bd 98 c8 31 3d 3c 25 f9 bd
       -0.03598092 -0.04917115 0.04340419 -0.12165305
000020 03 e6 38 3d 85 9a 59 bc 47 6e 14 3d 9a 37 98 3d
       0.04514123 -0.013281469 0.03623798 0.0743248
000030 2e 1f 36 3d a8 8e 28 bd c4 24 96 3d 30 fb 8d 3d
       0.04446333 -0.041151673 0.07331231 0.06932676
000040 82 95 eb 3d 7d c1 08 3e 94 c3 31 bc e7 39 f8 3c
       0.11503126 0.1335506 -0.010849852 0.030301047
000050 dc 1a a5 3d 12 3e 04 be c9 79 90 bd 7f 12 b6 3d
       0.08061764 -0.12914303 -0.07054479 0.088902466
000060 78 33 8b 3b 9a f3 a4 3b bf 35 b5 bd ff 1c cc 3c
       0.004248079 0.0050339224 -0.08848142 0.02491617
000070 be 7d e9 bd 91 10 19 be 9a b0 c2 3d a0 8c 10 bd
       -0.114009365 -0.14947726 0.0950634 -0.03529036
000080 82 9a 7c 3c 8e 68 15 bd 90 46 2d bd 19 dd 4a 3d
       0.015417697 -0.036476664 -0.04230362 0.04952726
000090 82 7f 3f 3d 8d 06 c4 3d 0c 46 b1 bd dc 02 de bc
       0.04675246 0.09571562 -0.086559385 -0.027100973
0000a0 cd 88 16 3e 85 58 69 3d 8d 32 0c 3e fd b2 bb 3c
       0.14700623 0.056969184 0.13691159 0.022912497
0000b0 6d cd 59 3d 06 c1 09 3d 71 2f b1 3d c0 ae 69 3d
       0.053174425 0.033631347 0.08651627 0.05705142
0000c0 62 ff b8 3d b3 bb 13 be 28 f0 46 bd 66 b5 70 bc
       0.090330854 -0.1442707 -0.048568875 -0.014691686
0000d0 4a 64 0f bd d4 e7 19 3d 93 fe 0a 3b 1b 2c 73 bd
       -0.035007752 0.037574604 0.0021208867 -0.059368234
0000e0 57 6f e4 3d f6 d6 10 3d f8 3c 54 3d 08 1d bf bb
       0.11154049 0.035361253 0.051815957 -0.005832318
0000f0 b5 78 aa bc 1a 26 09 3e db 95 e7 3d 62 26 ee 3c
       -0.02080951 0.13393441 0.113078795 0.029071037
000100 6f fb b6 3c 6b b1 f8 3d 1d c6 77 3d 3d 9f f7 bd
       0.02233669 0.12143215 0.06049167 -0.12090919
000110 0b 8d bd 3d 4d e1 c4 bc 80 ce b9 bd 7c ff ac 3d
       0.092554174 -0.024033213 -0.0907259 0.08447167
000120 a0 2b 63 3c da 70 d1 3d cf af f0 3d 1b 59 63 bd
       0.0138653815 0.10226603 0.11752283 -0.0555049
000130 b0 3e 8f 3c 22 cf 15 3e c2 2e 85 bd 02 ed 28 3e
       0.017485946 0.14629796 -0.06503059 0.16496661
000140 45 8e 06 be 25 bf d4 bd ae a4 92 bd 7e fe 30 3d
       -0.13140209 -0.103880204 -0.071603164 0.043211453
000150 69 39 36 be 9a 0e 1d 3e b5 05 f9 3d f8 f3 b0 bd
       -0.17795338 0.15337601 0.12159292 -0.08640283
000160 db bb de 3d c3 bb 6c 3d fd 32 28 bc 8d 84 66 bd
       0.10875674 0.05779625 -0.010266063 -0.056278754
000170 f5 02 b6 3d b3 5b 8c 3d 1f de fd 3c d0 d0 5d 3c
       0.08887283 0.06853428 0.030989705 0.013538554
000180 55 da bf 3d e0 c4 f2 3d 10 d0 88 bc d8 90 07 3e
       0.093678154 0.11853957 -0.016700774 0.13238847
000190 13 09 f9 bd 4b 85 e9 bd 41 e2 ad bc fd 53 15 3e
       -0.12159934 -0.11402377 -0.02122605 0.1458282
0001a0 f6 40 c7 3d 1b f2 c3 3c 4b ae cd 3c 76 c8 ad 3b
       0.09729187 0.023919156 0.025107523 0.005303438
0001b0 f3 af 9d bd e8 4f 54 3d 69 05 02 3c a7 95 be 3b
       -0.07699575 0.051834017 0.00793586 0.00581618
0001c0 9f 8d 63 bd fd de d4 bd e1 b9 e5 3d 2b d1 f6 3d
       -0.055554982 -0.10394094 0.11217094 0.120516144
0001d0 85 22 64 bd e7 00 1d bc 46 9b 02 be 51 8e 25 3e
       -0.055696983 -0.009582735 -0.12754545 0.1616757
0001e0 2b 1a 00 3e 1a b7 b6 bd 41 7d 6a 3d 83 bb 05 be
       0.12509982 -0.089216426 0.057248358 -0.13059811
0001f0 73 ea e0 3d 64 84 0f 3e e4 ca a2 bd 28 ae 19 3c
       0.10982218 0.14015347 -0.079488546 0.009379901
000200 6c bc 13 3d af ea 25 bd ce 46 83 bc fb 73 05 bd
       0.036068365 -0.040507015 -0.016024973 -0.03258131
000210 e6 64 1d 3d 69 81 a5 bc 91 15 8c bd 96 1b 27 3e
       0.038426302 -0.02020331 -0.06840051 0.16319117
000220 4f ee bd 3d 94 30 2b be 85 c9 00 3e 32 e0 c5 bd
       0.092739694 -0.1671775 0.12576874 -0.096619025
000230 f0 1d 8d bd ba 8f c3 3d a3 e3 80 bb eb 36 ef 3d
       -0.06890476 0.09548898 -0.0039333864 0.11680397
000240 5e 45 2a 3e 42 9c 14 bd c1 99 d2 3d fa f6 1f 3d
       0.16628024 -0.03628183 0.102832325 0.039053895
000250 b4 9c 8f 3d f8 a3 09 bd ab 10 12 3d a6 a8 17 be
       0.070123106 -0.03360364 0.035660427 -0.14810428
000260 6d e6 87 3d 27 2e 44 bd bc 1d ed bd d5 8e b5 bc
       0.06635747 -0.047895577 -0.11577937 -0.022162834
000270 31 16 a6 bd 7e 25 57 3d 4a 8f 27 38 e8 00 91 3d
       -0.081097014 0.05252599 3.994935e-05 0.07080251
000280 83 95 d3 bd 5b b0 57 3c b8 4a 84 bc 0c e8 e0 bc
       -0.103312515 0.013164605 -0.01614891 -0.027454399
000290 c3 c2 af bd 06 b0 10 bd cc 68 ac 3c 48 d4 f8 bb
       -0.0858207 -0.03532412 0.021046065 -0.0075936653
0002a0 f7 7a 81 3c 97 89 bc bc a5 97 da bd 31 e6 09 3e
       0.015805705 -0.023014827 -0.10673455 0.13466717
0002b0 e1 a5 ee bb 95 1b ab 3d 88 97 d3 3c a4 f6 7c 3c
       -0.007282958 0.0835487 0.025829092 0.015439663
0002c0 d3 0c fd bd 5b 26 ba bd a5 2e 3a bd b2 90 0a bd
       -0.12355962 -0.09089347 -0.04545464 -0.0338294
0002d0 94 6e 1d bd 4f 71 eb bd 8b eb 0d 3e 6a 42 30 3d
       -0.038435534 -0.11496221 0.13859384 0.043032087
0002e0 50 a2 ec bd 18 1c 8d bd 17 6e 92 bd 3b 89 15 3d
       -0.11554396 -0.06890124 -0.07149904 0.036507826
0002f0 ce d3 2b 3d 35 bd 6b 3b 6c 10 05 3e 83 33 2a be
       0.04195004 0.003597093 0.12994546 -0.16621213
000300 43 c1 28 3e 05 d8 20 3d 3d 80 2c 3e 3d 2e 28 3d
       0.16479973 0.039268512 0.16845794 0.04105972
000310 2f a5 18 3d b1 7b b2 bc b9 a2 24 be 21 82 a5 3d
       0.037266906 -0.021787496 -0.16077699 0.08081461
000320 74 6b fe 3d a0 fa 8b bb 55 80 c4 bb b5 0b 2d 3e
       0.12422839 -0.00427182 -0.0059967437 0.16898997
000330 3e d5 91 bc 9e a3 4b bc e7 a0 93 3d 52 aa 17 be
       -0.017801877 -0.012429146 0.07208424 -0.14811066
000340 50 8d ac 3b aa 32 10 bd 9c b6 23 3e 84 13 2d be
       0.005265869 -0.035204567 0.15987629 -0.16901976
000350 b7 a2 82 3d 6b 5f c6 3d 6c 69 77 ba 32 cf 99 bd
       0.06378692 0.09686168 -0.00094380113 -0.075102225
000360 de fa ab 3d 31 89 b0 3d f9 21 d0 bd 6a 9e 92 3d
       0.083974585 0.08619917 -0.1016273 0.07159121
000370 a0 c0 6a bd ee 2f 49 bd a0 6c a0 3d c3 c7 74 3d
       -0.057312608 -0.049117975 0.078332186 0.05976082
000380 7a d5 d4 3d f6 6e 86 3d 4a 79 25 be 78 70 6c 3d
       0.1039228 0.06564133 -0.1615955 0.057724446
000390 53 b0 4e 3d a3 a4 2f 3c 84 89 81 bd 68 22 b7 bd
       0.050461125 0.010720405 -0.06325057 -0.08942109
0003a0 3d aa 0b 3e 61 6d 87 bd 3b 88 f4 bd 2e 69 2c be
       0.1363916 -0.06612659 -0.119400464 -0.16836998
0003b0 85 f0 f5 3d 78 02 03 be a9 45 65 3d fb bc f0 bd
       0.12008766 -0.1279391 0.055974636 -0.11754795
0003c0 95 d1 72 3d 06 ef a1 3c 3b 80 33 be 2e 86 1d be
       0.059281904 0.019767296 -0.17529385 -0.15383217
0003d0 0e 40 f1 3d 4b 21 00 3d 25 84 e5 3d de 46 0f be
       0.117797956 0.03128175 0.11206845 -0.13991877
0003e0 ac 21 b8 bd f4 4d cb 3d b9 3c 9b 3c eb 3c de bd
       -0.089907974 0.09926978 0.018949853 -0.10851463
0003f0 37 d6 28 bc c1 70 06 3e ad 3a 6a bb bd 62 d1 bd
       -0.010304979 0.1312895 -0.003574054 -0.10223911

onnx::LSTM_115 f4 [1, 512, 128]
000000 5d 07 d0 3d 59 8d ae bd 02 6c c4 bd 17 6c e1 bd
       0.101576544 -0.08523054 -0.09590913 -0.110069446
000010 65 47 6c bd f1 c3 ee bd 6e ed ad bd 2f 1c fe 3c
       -0.057685275 -0.116584666 -0.08492552 0.031019298
000020 c2 38 4e 3d c2 5a 86 bd a9 e1 c4 bd ab 22 08 be
       0.050347097 -0.065602794 -0.09613354 -0.13294475
000030 74 23 fa 3d 42 18 f3 3d 23 3c dc bd fd 3a 89 3d
       0.122137934 0.11869861 -0.10753658 0.06700704
000040 15 e4 33 3d 36 cd 43 bd 6a 99 02 bd 9a 6d c6 bd
       0.043918688 -0.047803126 -0.03188459 -0.096888736
000050 17 63 bc 3d cf 4b 41 bd 1e c1 dd 3d 4d a8 f2 bc
       0.091985874 -0.047191437 0.1082785 -0.029621268
000060 3e 9e b9 bc c6 5f 02 be 9a f0 0a 3e 32 b7 58 bd
       -0.022658464 -0.12731847 0.13568345 -0.052909084
000070 31 d4 0f 3e a4 49 86 bd 77 89 02 be 85 45 a8 3d
       0.14045788 -0.065570146 -0.12747751 0.08216385
000080 cc 5c 26 3d 2a 3e 0d 3d 3c 22 0f 3e ae be 16 bd
       0.04061584 0.034483112 0.13977903 -0.03680294
000090 30 a1 c6 3d c9 56 1d 3e 36 5b 23 be 69 2b f1 bd
       0.09698713 0.15365137 -0.15952763 -0.11775858
0000a0 73 75 03 bd 0e 29 51 3d fb ae c1 bd a8 d0 f2 bc
       -0.03209443 0.051064543 -0.09457203 -0.02964051
0000b0 ef 82 9b bd ab 12 05 be 70 a8 1b 3c b0 e6 47 bd
       -0.07593333 -0.12995403 0.009500608 -0.048803985
0000c0 1b 2e 26 3b 8b 0f 96 3d 89 9a 3d 3b c3 f8 d7 bd
       0.002535707 0.07327183 0.0028931221 -0.105454944
0000d0 0e 97 fa 3d 4f f2 0a 3d 41 c9 9f bd 50 d1 f7 3d
       0.12235843 0.03392249 -0.07802058 0.1210047
0000e0 88 9d 60 3d ea db e1 3d a5 ff 68 bd c9 0a 52 bd
       0.054837734 0.110282734 -0.056884427 -0.051279817
0000f0 38 be 8f b9 b8 08 36 3d 4b 43 eb 3d eb c4 f7 3d
       -0.0002741681 0.04444191 0.114874445 0.12098106
000100 c5 29 26 bd f4 cf 18 3e 47 4b 0d 3e ce 8d 1e 3d
       -0.04056718 0.14923078 0.13798247 0.038709454
000110 eb e4 7b bc 56 13 b4 3c ff 93 0c bb 4c c4 b8 3c
       -0.0153744025 0.021981876 -0.0021450517 0.02255454
000120 d6 92 19 3d 59 5c e5 bd 38 07 91 3d 3e ec a9 3b
       0.03749355 -0.111992545 0.07081455 0.005185633
000130 87 a6 bf bd 4f dc b5 3d 7f 80 17 3e c2 c3 b7 3d
       -0.093579344 0.08879911 0.14795111 0.08972885
000140 5b 25 5d bb 36 e0 ad 3d b1 44 ce bd bc bf 3e bd
       -0.003374419 0.084900305 -0.100716956 -0.04656957
000150 91 fe e2 3c c0 8f 05 3e 97 c2 06 be 11 a1 da bd
       0.027709277 0.13043118 -0.13160168 -0.10675252
000160 52 f0 e3 3c 2a fd 1c bd 29 f5 11 3e 29 1a 4f bc
       0.027824555 -0.038327374 0.14253677 -0.012640514
000170 25 81 ee 3d 43 bf 0a 3e 30 b3 98 3d 92 70 b3 3d
       0.11645726 0.13549523 0.07456052 0.087617055
000180 f1 22 38 bc 10 d7 0b be d9 20 b4 3d 1f 08 bf 3a
       -0.011238799 -0.13656259 0.08795328 0.0014574564
000190 f0 73 6c 3d 2d a9 0a be c7 e3 1f bd 9b 65 a3 bc
       0.057727754 -0.13541098 -0.039035585 -0.01994591
0001a0 5e 2a 10 3e e2 04 ab bd ce 17 29 be bc c3 57 bd
       0.14078662 -0.08350541 -0.16512987 -0.0526769
0001b0 23 1a 9b bc 0c 86 f5 3d 67 39 ef 3d 88 b7 d5 bd
       -0.018933361 0.11988458 0.116808705 -0.104353964
0001c0 e5 25 3f 3d ea 0c fd bc ac 2a 1b be 23 b6 11 3e
       0.046667 -0.030889947 -0.15152997 0.14229636
0001d0 4f dd 4b bd 42 75 cb 3d 55 94 94 bd 9f 5b 26 3d
       -0.049771603 0.099344745 -0.072548546 0.04061472
0001e0 e6 45 89 ba e7 ee d8 3d 08 da 0d 3e 89 ba bb 3d
       -0.0010473102 0.10592442 0.13852704 0.09166438
0001f0 77 d3 1a 3e 0c 3f 14 be ad 8b 19 3e d0 e4 cd 3d
       0.1511973 -0.14477175 0.14994688 0.10053408
000200 ea 98 ef bc c8 b8 66 bd d9 df 21 bb a4 b9 80 3c
       -0.02924772 -0.056328565 -0.0024700074 0.01571352
000210 5a c4 e8 3c f8 fa fa 3d 46 2f c4 bd 67 4b c5 bd
       0.02841394 0.122549 -0.09579329 -0.096335225
000220 a6 e2 86 bd 03 72 c9 3d 57 d4 b2 bd 5a ad 23 3e
       -0.065861985 0.09836199 -0.08731907 0.15984097
000230 60 3d 73 3d c6 a3 0e bd 17 42 b1 bd 5f 03 b5 3d
       0.059384704 -0.034824155 -0.08655184 0.088385336
000240 20 3e a5 3b 1c 89 86 3d 10 a6 2f be e1 09 1d 3e
       0.0050428063 0.0656912 -0.17153192 0.153358
000250 ae 95 a6 3d e6 9e 25 3d e5 d3 cc 3d 22 b5 8f bd
       0.08134018 0.04043474 0.10001353 -0.0701697
000260 88 6f 1d be 56 e0 ea 3c 0e 61 e3 3d e2 0b ee 3d
       -0.15374577 0.028671425 0.11102496 0.1162336
000270 0c 62 38 3d 36 fc e0 bd 0c 49 65 3d be c6 da bd
       0.04501538 -0.109856054 0.055977866 -0.10682438
000280 c2 71 06 bd 81 ce 67 3d 49 e3 4a bd e5 5d 25 be
       -0.03282333 0.05659342 -0.049533162 -0.16149099
000290 6a d5 5d bc b3 dc 9e 3d e7 b1 da 3d e6 80 65 bd
       -0.013539651 0.07756939 0.106784634 -0.05603113
0002a0 4a 1c 04 be b9 2a 08 3d e2 5c b3 3d 95 93 05 3e
       -0.12901416 0.03324387 0.0875795 0.1304458
0002b0 74 29 81 bd 78 42 73 3d 83 fc 13 bd 75 d2 85 bd
       -0.06306735 0.05938956 -0.036129486 -0.06534282
0002c0 b2 3f 85 bd e9 00 a4 bd 22 3a c2 3d a8 5f a6 bd
       -0.065062895 -0.08007986 0.09483744 -0.08123714
0002d0 f1 da 19 be 61 05 86 bd 8c 30 5f 3d f4 a9 d7 3d
       -0.15024926 -0.06543995 0.054489657 0.10530463
0002e0 e3 3d 5a 3d 03 96 e4 bd c4 77 d8 3d 6f 62 f7 3d
       0.053281676 -0.11161425 0.105697185 0.120793216
0002f0 64 f7 d9 bd f0 0e eb bc f2 23 92 bd 72 9c d4 bd
       -0.10642889 -0.028693646 -0.07135762 -0.10381402
000300 b5 4a 0e be 6d 60 7e bd d1 bc 7e 3d 38 3d 58 bb
       -0.13895686 -0.062103678 0.062191788 -0.0032995474
000310 48 6f c1 3d 8d 88 f3 3d e1 3a 34 bc 59 53 03 3e
       0.09445053 0.11891279 -0.011000366 0.12824763
000320 b4 ca a9 3d bc 78 1a be 58 c1 ed 3b 5f 01 c6 3d
       0.08290616 -0.15085119 0.0072557144 0.0966823
000330 25 ae 7c 3d 4c c8 ee 3d 31 d4 1c 3d 9e c1 2c 3d
       0.061689515 0.11659297 0.0382883 0.042176835
000340 ea c4 fc 3d ee 3b 70 bc 3d 85 b6 bc c5 1b 54 bd
       0.12342246 -0.014662726 -0.02228033 -0.051784296
000350 62 66 2a be 9c d5 00 be 46 fa 9a bd be 01 fd bd
       -0.16640618 -0.12581486 -0.07567267 -0.12353848
000360 12 34 e5 bd 70 bf 95 bd 2e b4 90 3d 79 d4 d6 bd
       -0.11191572 -0.073119044 0.070656165 -0.10489745
000370 5d 4a 4e 3d fc 3e 31 3d 9c b7 0e 3e 93 cd fb 3d
       0.050363887 0.043272957 0.13937229 0.122950695
000380 ae 24 4e bd 49 7b 68 bd a1 ec 5e 3d ad 31 48 3e
       -0.05032795 -0.0567582 0.054424886 0.195502
000390 03 4e 41 3d 97 38 25 3e 74 98 1c bd 1b a8 f0 3d
       0.04719354 0.16134869 -0.038231328 0.117508136
0003a0 22 2b d0 3d 36 71 36 be 4b b4 2b bb 9e ee 63 3d
       0.10164477 -0.17816624 -0.0026199992 0.055647485
0003b0 d5 9d 6e bc 70 14 9a bd bd 65 8e bd 23 fa 88 bd
       -0.014563997 -0.075234294 -0.06952999 -0.06688335
0003c0 aa 4f b1 bd d7 d8 35 be bb 0e a0 3d f0 45 bb 3c
       -0.08657773 -0.17758499 0.078153096 0.022860497
0003d0 25 ad 96 3d 39 ce 91 3d e7 a1 37 3e 2e 8a 0d 3e
       0.073572434 0.07119412 0.17932855 0.13822243
0003e0 19 3e 62 3d bb 99 9c 3d bd 72 a9 3c a2 81 3f 3d
       0.055235002 0.07646509 0.020684594 0.046754487
0003f0 52 14 22 bb 7b 5a 91 bc 0d dc 28 be 89 4b 8b 3d
       -0.002473135 -0.01774334 -0.16490193 0.068015166
