Machine-Learning-DRL/results/SeekerTrainingWall4/Seeker/Seeker-181389.onnx (onnx, 610983 bytes, 11 tensors)

discrete_act_size_vector f4 [1, 2]
00000000: 0000 8040 0000 803f
4.0 1.0

network_body._body_endoder.seq_layers.0.weight f4 [128, 8]
00000000: cfaa 05bf aafc b33e d1ed 5a3f 228f 28bf
00000010: fc41 3ebf 559e c7bc 03d7 4ebe 2e09 aa3e
00000020: a67c b23e 3374 81be eb78 533f ad66 ac3c
00000030: d39c ad3e 157e 453e 5e59 493e f909 8e3e
00000040: 784f f33e 013e 193e 920c 83bc 13ee 2d3f
00000050: cc78 4d3e 2569 25bc 71ec c4be 898c d0bb
00000060: fe18 6c3e 635d a33e 2a5b d83e 2ee8 2f3c
00000070: 4ed0 7abe 968d 39be fa26 be3e c6bc a5be
00000080: dcc3 7bbb 6539 1d3f 640e f3be 3961 0d3f
00000090: fd8e 04be 1bca 203f e74e 26bf c7ff 5bbf
000000a0: 88dd 943d 0d1c 40be 490e 113f 5524 a83e
000000b0: c940 883d 7c09 263d b0de a1be 8d3f dcbe
000000c0: 5a85 493b dd54 b1be b267 bd3d 5061 e8be
000000d0: 6478 7bbe 92b1 823d 5038 163e 18ec 00bf
000000e0: 34c5 8c3c 75a4 213e ab56 173d 8327 bcbc
000000f0: bbd2 f03e d378 ee3e 8e91 8fbe f236 623d
00000100: 5b40 cdbe 3acb 54bf cc64 3dbe 3ae4 b2be
00000110: d589 70be 0a3a 083f 25e1 a1be e54b 563e
00000120: 2df8 bd3e 0013 5fbe 7ef1 1f3f f7cb dfbe
00000130: ebb0 94bd e3bb c7be 84fb 5d3e e924 643e
00000140: e161 0d3e 6226 123e b9e9 bebc 13e2 d7be
00000150: c9c6 93be a7b9 1bbe ddce 0dbf f236 713e
00000160: 4daf 75be 01c1 b53c 111b 093f 5fa4 e7bd
00000170: 0b40 04bd aa11 ff3d 5f8e ecbe 2a3b ab3e
00000180: a0fb 15be 9865 783d 4bc7 bd3e fc8e 903e
00000190: efb7 bf3e 90a2 ef3e cf10 dcba 34ca 4bbe
000001a0: b853 a63d 0bdf 25be babb b53e 8266 37be
000001b0: 5f9e 813e 2611 1c3e ba98 343e 2a9f 443d
000001c0: 47a1 af3e 58e0 3b3f cb06 783e 0290 68bd
000001d0: 46e9 903e 0b59 9dbe 15b5 8a3d c604 50bd
000001e0: 4aa3 edbe cc7d 24be c117 63bd 8cd2 ef3e
000001f0: c078 24be 94aa 93be 8aa9 df3e 86ef a4be
00000200: 7c0e 5b3d eb69 ba3e 8352 f3be eed5 5b3f
00000210: d803 c8bc cbb3 35bf f48e 3d3e 1a7c 35be
00000220: 534e 0c3f 4821 eabe 2a53 133e fb03 133d
00000230: 61d7 8a3e 9a5b 6d3e fb75 41be fb73 98be
00000240: 0960 873e ebc8 893e 2fcf 1e3d fd88 8abe
00000250: 9faf fe3d fcdf b23d 3136 7e3c 4243 28bf
00000260: 7283 d53e c19d 9f3e 6452 22be 7f7c c53d
00000270: 7752 0f3f 8c23 49be 53ed ca3e d5f9 46be
00000280: 6847 46bd 910b 2ebe 26a0 d73e 3190 0c3f
00000290: feff 4c3e 7367 983d 74e6 473e b559 abbe
000002a0: 7782 a93e c27f 90be 3c00 aabe e583 d33e
000002b0: 86d1 1fbf 785f 8ebe c25d 61bd ebaf 083e
000002c0: 5284 bebe 4802 083f 1d46 febe da23 c13e
000002d0: 0f78 f83e 016b 27bf aa28 c63d 9990 cbbe
000002e0: ece3 dabd 339e b7be 8ecd 513e 7bad 1a3e
000002f0: 3460 6fbf de39 c2be 14a3 3fbe 22d3 b03e
00000300: e6a3 9dbd 6c76 e83d a23a bfbd 4155 c23d
00000310: 0d51 35be 003d bdbe d330 c0bd 0fe7 80be
00000320: ac14 bd3d 611f 333e 5362 b2bd e36e 0a3e
00000330: c366 1bbf 11c9 333e 57fb 253f c40e cb3c
00000340: ff6f 37be 970d 243d 096e e83e 50fb 7d3d
00000350: 766a a03e 6312 193c 6f6e 23be 4257 ad3e
00000360: b8ba e2bd c323 943d e2d9 8b3e d634 3c3e
00000370: 63be cbbe 1cd0 4b3d bd7e b3bd fd29 ab3e
00000380: b589 123f d19a febd 4def fb3e ae73 933e
00000390: 0a9a 55be a950 92be 7f86 9d3e 58fc a53e
000003a0: ce5f 393e e6a6 c03e c53f 2cbe 3624 b1bd
000003b0: ee67 e0be 8e14 debd bcfe 60bc 96b7 04bf
000003c0: a19b b73e 10fb 91be 2101 863e 9de0 143e
000003d0: 6284 003f e2f2 7e3e 7e6b 963e e2ee 16bf
000003e0: af20 f43e 0e03 64be 74af 8f3c 68a2 0dbe
000003f0: 31ad 71be 72a1 a2be 8233 c4be b734 a8be
-0.5221376 0.35153705 0.8551913 -0.65843403 -0.74319434 -0.02436749 -0.20199208 0.3321013
0.34860724 -0.25283965 0.8260638 0.021045053 0.3390871 0.19286378 0.19662997 0.27741984
0.47521567 0.14965059 -0.015997205 0.679414 0.20065612 -0.010095869 -0.3846164 -0.0063644093
0.23056409 0.31907186 0.42257053 0.010736508 -0.24493524 -0.18120417 0.37139112 -0.32370585
-0.0038416302 0.614157 -0.47471917 0.55226475 -0.1294517 0.6280839 -0.64964145 -0.8593716
0.07268816 -0.187607 0.5666242 0.3284022 0.06652982 0.04053639 -0.3161521 -0.43017235
0.003074965 -0.34635058 0.09248294 -0.45386744 -0.24557644 0.06381525 0.14669919 -0.5036025
0.017183878 0.15785392 0.036947887 -0.02296806 0.47035775 0.46576557 -0.28040737 0.05522818
-0.40088162 -0.831226 -0.18495482 -0.34939748 -0.23490079 0.5321356 -0.31617084 0.20927389
0.37103406 -0.21784592 0.6247786 -0.437103 -0.07260307 -0.39010534 0.21677977 0.22279705
0.13806869 0.14272454 -0.023304807 -0.42164668 -0.288626 -0.1520754 -0.55393773 0.23556116
-0.23992653 0.022186758 0.53556925 -0.11310648 -0.03228764 0.12454541 -0.4620237 0.33443576
-0.14646769 0.060643762 0.3706611 0.28234088 0.37445018 0.46803713 -0.0016789677 -0.19901353
0.08121437 -0.16198365 0.35494787 -0.17910197 0.2531614 0.15240917 0.17636386 0.048003353
0.34302732 0.73389196 0.24221341 -0.05677796 0.28302974 -0.30731997 0.0677282 -0.050785802
-0.46413642 -0.16063613 -0.055442575 0.46840322 -0.16061687 -0.28841078 0.43684036 -0.32213992
0.05348061 0.36408934 -0.4752389 0.85873306 -0.024415895 -0.7097747 0.18511564 -0.17723122
0.54807013 -0.45728517 0.14387193 0.035892468 0.27117446 0.23179474 -0.18892662 -0.29775986
0.26440457 0.269111 0.038771804 -0.2705764 0.12435841 0.08734128 0.01551585 -0.6572763
0.41701847 0.31175044 -0.15851742 0.09642886 0.55985206 -0.19642466 0.3963419 -0.19431241
-0.048407942 -0.169966 0.4211437 0.5490752 0.20019528 0.074416064 0.19521505 -0.3346688
0.3310735 -0.2822247 -0.33203304 0.41311565 -0.6242908 -0.27807212 -0.055021055 0.13348357
-0.37210327 0.5312848 -0.49662867 0.37722665 0.48529097 -0.6539765 0.09675725 -0.39758757
-0.10688004 -0.35862884 0.20488569 0.1510524 -0.9350617 -0.37934774 -0.18714553 0.34536082
-0.07697277 0.11350712 -0.09337355 0.09488917 -0.177067 -0.36960602 -0.093843125 -0.25176284
0.092324585 0.17492439 -0.0871016 0.13518862 -0.60703677 0.1755717 0.6483664 0.024787314
-0.17913817 0.040052023 0.4539645 0.06200725 0.31331223 0.009342763 -0.15960096 0.33855635
-0.1107077 0.072333835 0.2731467 0.1837953 -0.3979369 0.049759015 -0.08764408 0.33430472
0.57241374 -0.12431873 0.4920601 0.28799194 -0.20859542 -0.28577164 0.30766675 0.32419086
0.18102953 0.37627333 -0.16821201 -0.08649485 -0.43829292 -0.10843764 -0.013732608 -0.5184263
0.35860923 -0.28511858 0.26172736 0.14538808 0.50202 0.2489734 0.29378885 -0.58958256
0.47681186 -0.2226679 0.017539717 -0.13831484 -0.23601224 -0.31763798 -0.38320547 -0.32852718

network_body._body_endoder.seq_layers.0.bias f4 [128]
00000000: b543 3aba 1ed3 143b 7c9b 773c 2716 9bbb
00000010: 1c76 40bc 95b9 383c 5ca3 a53a b3b9 e0bc
00000020: 89f4 b9bc 5b78 963c f4f4 a73b a471 2bbb
00000030: 52e9 bfbc 9a32 d43a c346 2f3c 180d 9a3c
00000040: e512 c43c a754 a23a 028f e8bb 7baa d4bb
00000050: ff11 813b 9bff 693c 8849 b13c ba78 be3a
00000060: bbdc 433c de2c fcbb 4e1d 9ebc 240d 08bc
00000070: 7f27 273c 42b6 ce3b 0fb7 083c 22f5 19bb
00000080: 3b35 c5ba 6218 423c 1a93 1dbc 74d3 debb
00000090: d560 81bc 4469 6fbc bd4d 813c b2a7 f43b
000000a0: b59f 2b3c 0f60 b13b 0a96 45bc 6fbb e93b
000000b0: 560d bebb 472b a0bb 3ea2 4b3c 069a a33b
000000c0: 3e77 cdbb 3792 b1bb 4d2f 043c 09c2 e0ba
000000d0: 67af 40bc fdad b8bb 4d3e 2dbc ed44 673c
000000e0: 79bf 213d e4f2 023c 5842 743c 2d7e fd3a
000000f0: dfec 9539 e9ed f23c eb00 d53b 7b48 d4ba
00000100: b2c7 3dbc dbf3 673c 6a34 88bb d663 043c
00000110: 92cb 1d3d d2fc 51bc 12f7 3cbc 0e10 18bc
00000120: 596b 21bc 97dd 873c 516e 9bba e4f8 7d3c
00000130: 7df0 db3b 1140 d3ba e89f 2bbb 50c9 233b
00000140: 1c00 6b3a 232d 2fbb 7b0e d03b de50 a63c
00000150: 4c0d 9a3c 147e 603c 7f38 6e3c f7a1 18bb
00000160: fc48 363b 3017 e53a db46 c53c 7ac0 ae3c
00000170: 309a 1ab9 3b96 98bb a2e2 54bc 57e3 1bbc
00000180: 337e b8bb bb4e 94bb 0485 da3a 1f87 e93b
00000190: fb4c 173c 5373 463c b8f6 2d3c 4535 46bc
000001a0: 08ec 373c 4a74 d83b 8230 e63c d8f7 75bc
000001b0: 082b 67bb bc7d 1b3b b84c 83ba b51d 823b
000001c0: 2e50 e2bb 0495 84bc 5e02 c03a 3303 3f3c
000001d0: dc5f 253c cc0e 47bc 94f8 07bc d54f 483b
000001e0: a126 b1bb 7e0f 5e3b 5dc6 20bb ad6f e43a
000001f0: 6775 743c c8c0 bb3b 89dc 09bc 2a1f 8e3b
-0.0007105426 0.0022708843 0.015112754 -0.0047328654 -0.0117469095 0.011274715 0.0012637186 -0.027432298
-0.022699611 0.018367937 0.0051256362 -0.0026160264 -0.023426685 0.0016189397 0.010698023 0.018805072
0.02393479 0.0012384848 -0.007097126 -0.0064900494 0.003938913 0.0142821325 0.021641508 0.0014531829
0.011954482 -0.0076957783 -0.019301083 -0.008303914 0.010202288 0.006308348 0.008344426 -0.0023492058
-0.0015045771 0.011846634 -0.009617591 -0.0068001095 -0.015793243 -0.0146125 0.015784139 0.00746628
0.010475089 0.0054130624 -0.012059698 0.0071329395 -0.0057999296 -0.0048879716 0.012428818 0.0049927263
-0.0062703183 -0.0054190415 0.008067918 -0.0017147671 -0.011760569 -0.0056359754 -0.010573936 0.014115554
0.039489243 0.00799248 0.014908396 0.0019339971 0.00028595977 0.02965446 0.0065003536 -0.0016195917
-0.011583256 0.014157261 -0.004156639 0.008080443 0.038524218 -0.012816625 -0.0115335155 -0.0092811715
-0.009852254 0.016585154 -0.0011858438 0.015501235 0.006712018 -0.0016117116 -0.002618784 0.0024991818
0.0008964555 -0.0026729784 0.0063493825 0.020302232 0.018805169 0.013701934 0.014539837 -0.0023289898
0.0027814498 0.0017478224 0.024081638 0.021332014 -0.00014744024 -0.0046565807 -0.012993487 -0.009514651
-0.0056302785 -0.004525987 0.0016671722 0.0071267034 0.009234662 0.012112456 0.010617904 -0.012097661
0.011225708 0.0066056596 0.028099302 -0.015012704 -0.0035273451 0.0023726067 -0.0010017371 0.0039708265
-0.006906531 -0.016184337 0.0014649143 0.011658478 0.010093655 -0.012149524 -0.008299012 0.0030565162
-0.0054062163 0.0033883746 -0.0024532296 0.0017428302 0.014920569 0.0057297684 -0.008414396 0.004337211

network_body._body_endoder.seq_layers.2.weight f4 [128, 128]
00000000: 183f 71bd 35c5 d2bd 8ac5 e1bd 7d4b 493d
00000010: c1f8 c83d ecac 98bd 8da9 78bd c8f7 4e3e
00000020: 1509 973c 8f19 d6bd 260b f83d 0f7d c83d
00000030: 974a 593d 1f7e 02bd 40f8 80bd 54cb 1bbd
00000040: f77e 133e e7f8 0ebd 8aec 15be 295d 5e3d
00000050: d3e7 3a3e ff7c 933d 0929 3cbc a982 903c
00000060: 5ffe 673d c27d cabd 740c 7dbd 5db6 4f3c
00000070: f2f6 bfbd 7b15 bbbc 7047 5abe 5698 bb3d
00000080: 000c 1fbd f31d dd3c ec5d c43d 80b8 723d
00000090: 91de 1b3b 5aae 51be 925a 1cbe 30aa 39be
000000a0: 41a1 973d dd8b 5f3d 8af1 f7bb 0bc6 7fbd
000000b0: 8370 d83d 8749 70be 36d6 99bd add7 47bd
000000c0: f371 debc 269f 82bd 54ec a4ba b41e 25bd
000000d0: d6af fbbc 0661 733c 1481 6fbd 28e4 9fbd
000000e0: 6c45 f1bd 8c5e c33d 31b0 023e 04b5 243d
000000f0: c9fe dd3c d466 b0bd 6f66 d03d c1e7 c9bc
00000100: 1d07 f1bc f7e4 77bd f7d6 aebd e497 fd3d
00000110: f4b7 aa3d 7ebf 173e a525 18be 5910 83bd
00000120: 979a a4bd 8ec3 b0bd 3941 77bd ae77 513b
00000130: 9d2a cdbd 6398 2c3e 4bd6 aebd a844 603c
00000140: fa46 a53d 1f9e 103e e6b4 0d3e 51a6 b5bd
00000150: c217 643d 7368 ff3d 56a5 11be 32b9 d03d
00000160: 2c9e fc3d da91 66bc 383b 8abd f47f 833c
00000170: c1fa bfbd 4604 e7bd b2bb c3bd e312 95bd
00000180: 1766 d5bb 8141 eb3d a429 22bb 3519 6cbc
00000190: 3562 863a 5cd6 8dbb 420e 44bc 8f14 5f3d
000001a0: ed20 633e d021 27be c78c 3ebe 99ae 4b3c
000001b0: fe27 f93d b82c 5bbe 2fed 11bc cdef 433d
000001c0: 64f8 fdbd f5cd d13c 0e44 cbbd c923 523e
000001d0: 33d1 ccbc f927 343d ad42 2d3d e26d e53d
000001e0: ce67 b0bd ea02 1abe feb9 1cbd 598e babd
000001f0: f532 8b3d 9574 12bd a225 0abd 472d 633d
00000200: 0c2e c7bd 962e 9bbd cca7 4cbc a7ca 3bbd
00000210: c743 343e 73d4 ffbd ffe1 c33d 21ed 803d
00000220: ea5c babd 4f32 89bd b522 19bd df52 debc
00000230: c3cd 5cbd aa34 86ba da45 fc3d e11e ccbc
00000240: a045 cdbc 02a9 7abc 7109 a0bc 885d e43c
00000250: 53bf 1bbd e3a5 133e 13a8 46bd d8cd 0abd
00000260: 9b61 f03d 9140 a9bc 9095 3f3d 1030 fb3d
00000270: e42d 203e ed5b a4bd 524f e63b aa4d b53d
00000280: ac35 1f3e b8c7 85bd 1faa 1d3d acbb 94bd
00000290: 033c 90bd 66ee 0fbe b8d2 72be 24a0 d7bd
000002a0: d87a 023d 4223 92be cf88 e03c 4fe3 f93d
000002b0: 6391 a9bd e628 9dbc 368a 5f3c 86dc 06bd
000002c0: aeb3 ea3b 6bd8 aabd e7d8 cbbd 4f48 5dbd
000002d0: 0dff 58bb 097f 02be d577 93bd eb58 363c
000002e0: 8e9b 083d 19a2 2fbe a681 2e3e 5f38 babd
000002f0: f703 fabd 9eeb b23d f0d6 94bc ff93 d23d
00000300: 3929 663d 2b60 a8bd 9e59 e53c b5d4 363a
00000310: 302f ce3d 5e1f 163d b4bf a93c 428d b53d
00000320: 71a2 883d 1724 1d3d 3bbd 4cbd db0a 22bc
00000330: 28b7 3bbd 0ffb bfbc 398f b3bd 1a03 92bd
00000340: 3025 f0bd a447 1fbd f4d9 753d 41f6 07be
00000350: e8f2 073e 9a60 fd3d 1c3e e0bc 2d92 90bd
00000360: 4b79 79be 7a93 87bd 1caa 7d3d df5a 76bd
00000370: 3cdb a83d 0dfa 03be a284 3bbe 1ce3 d63d
00000380: 5d7b 853e 8609 b6bc 07d8 3d3b 6b75 93bd
00000390: 4661 a83c a847 d83c 0120 d53d 7c3e 913d
000003a0: 157e afbd c359 05be fc7d ac3d 694d ab3c
000003b0: 4a0a 88bd 5292 54bd 0c63 443d 7b4f d2bd
000003c0: bbc4 afbd b7f9 443c d26e 823e 8a97 e63d
000003d0: 708f 6dbd 239d 193e e460 21bd ef82 263d
000003e0: add4 883b fc2a 653e b359 ea3d ffe3 75be
000003f0: 4f40 253d f8a3 1b3c 50dd 7f3d a81d b33d
-0.05889806 -0.102915205 -0.11024006 0.049144257 0.09813071 -0.07454857 -0.06070857 0.20211709
0.018436948 -0.10454094 0.121115014 0.09789478 0.05304965 -0.03185856 -0.0629735 -0.038035706
0.14403902 -0.03490534 -0.14641014 0.054288063 0.18252496 0.072015755 -0.011484393 0.017640429
0.05663907 -0.09887268 -0.061779454 0.012677756 -0.09373273 -0.022837391 -0.21316314 0.09159915
-0.038829803 0.02699182 0.09588227 0.059257984 0.0023783783 -0.20476666 -0.15268925 -0.18131328
0.074038036 0.054576743 -0.0075666355 -0.062444728 0.10568335 -0.23465548 -0.075115606 -0.04878967
-0.027153945 -0.063780114 -0.0012582638 -0.040312484 -0.030723494 0.014854675 -0.058472708 -0.07807189
-0.11780819 0.09539518 0.12762524 0.040211692 0.02709903 -0.08613363 0.10175788 -0.024646642
-0.029422337 -0.060521092 -0.08537095 0.123824865 0.083358675 0.14819142 -0.1485811 -0.063996024
-0.08037298 -0.08631049 -0.060364936 0.0031962204 -0.100178935 0.16855006 -0.08536967 0.013688244
0.08070178 0.14122818 0.13838539 -0.08869613 0.05568672 0.12471094 -0.14223227 0.10191573
0.123348564 -0.01407286 -0.06749576 0.016052224 -0.093739994 -0.11280112 -0.095572844 -0.07278993
-0.006512414 0.11487103 -0.0024744058 -0.014410307 0.0010252657 -0.004328532 -0.01196629 0.054462966
0.22180529 -0.16321492 -0.1860839 0.012431764 0.12165831 -0.21403778 -0.008906647 0.047836114
-0.124008924 0.025610903 -0.0992509 0.20521463 -0.025002098 0.043983433 0.042299915 0.11202599
-0.08613549 -0.15040174 -0.038263313 -0.09109182 0.06796829 -0.035755713 -0.033727296 0.0554631
-0.097255796 -0.07577245 -0.012491178 -0.04584756 0.1760398 -0.12491693 0.0956459 0.06295229
-0.09099753 -0.06699049 -0.037386615 -0.027139125 -0.053907167 -0.0010239084 0.12318011 -0.024917068
-0.025057614 -0.015299084 -0.019535752 0.02787663 -0.038024258 0.1441875 -0.04850013 -0.033887714
0.11737367 -0.02066067 0.046773493 0.122650266 0.15642506 -0.08025346 0.0070284987 0.08852704
0.15547818 -0.06532234 0.03849232 -0.07262358 -0.07042696 -0.14055786 -0.23713195 -0.10528591
0.031855434 -0.28542525 0.027408985 0.12201559 -0.082796834 -0.019184541 0.013643792 -0.03292515
0.007162533 -0.0834206 -0.0995348 -0.054024037 -0.0033111006 -0.12743773 -0.072005905 0.011129598
0.033351474 -0.17151679 0.17041644 -0.09092783 -0.122077875 0.08736347 -0.018168896 0.10282134
0.056191657 -0.082214676 0.027996834 0.0006974445 0.10067594 0.036651008 0.020721294 0.088648334
0.06671608 0.038364496 -0.04998515 -0.009890283 -0.04582897 -0.023435144 -0.08767552 -0.07129498
-0.11725843 -0.03888668 0.06002231 -0.13277532 0.13276255 0.12371941 -0.027373366 -0.07059131
-0.24362676 -0.06619926 0.061929807 -0.060145255 0.08244941 -0.12888356 -0.18312314 0.104925364
0.2607068 -0.022221338 0.0028967874 -0.0720013 0.020554196 0.026401356 0.10406495 0.07091996
-0.0856897 -0.13022523 0.08422467 0.020910935 -0.066425875 -0.051897354 0.04794602 -0.10269066
-0.08582445 0.012022427 0.25475174 0.112593725 -0.05799812 0.15001349 -0.039399043 0.04065221
0.0041757436 0.22379678 0.1144289 -0.24012755 0.040344533 0.009499542 0.06246692 0.08745891

network_body._body_endoder.seq_layers.2.bias f4 [128]
00000000: 7e42 af3a e693 313c c977 413c ad46 f53b
00000010: f1d3 cdbb d419 5f3c bd99 0dbc 10c2 53bb
00000020: 9f59 af3c 2e2a d2bb 44b0 92ba 62c7 de3b
00000030: aeb1 69bb b912 a4bb 118f 4ebb b19a 1f3c
00000040: 510d 153b f603 313c c2f8 8637 e6f2 5fbb
00000050: 2bfc 40bb b908 65bb 5bec ab3b f96c d93a
00000060: 21ec c83a c0b8 1ebc 54f4 c33b 0964 c537
00000070: 1df3 e03b da6b 673b 3c39 a03b 27e5 a6bb
00000080: 5fce 043c bf34 8f3b 9040 4abc 3130 f53b
00000090: acda a2b9 0821 583c 85d3 9abb cadd c63a
000000a0: 4b44 dbbb fd78 8a3b bba4 ae3b 1dde 673b
000000b0: d703 c63a 8724 cfbb 6d53 8e3c 2f40 3dbc
000000c0: 4624 803b 2cb1 743b 543d 283b 8072 763b
000000d0: 6f2c 113c 5eae c2bb f3a2 1bbb 055b db3c
000000e0: c044 17bb 1335 c53b 493d 053c 975d 41ba
000000f0: 489a 5ebb 160b cd3b cce8 603c f8e0 93bb
00000100: 1adf 863c 1669 eb3b 2aa1 e83a 2260 523a
00000110: 36fc 16ba 0311 a83a 3f08 86bb 0fef 193c
00000120: 931a 3a3c 3efd ecba d588 f939 1e3d 803b
00000130: b1b1 bb3b bc65 3abc db9a 80bc 6778 b93b
00000140: 6299 5138 fd43 6e3c 5d12 bd3b 7289 0e3b
00000150: 95c9 06bc b048 6bbc 42de 2a3b 1a4d b3bb
00000160: af75 28bc 7367 313c d72b 813b 6db0 12bc
00000170: d48e 3b3c 13c8 853c 76bc f03a 73a3 4d3a
00000180: 706e 6c3b 3f4f c83a 1f77 0eba 46fd 02bc
00000190: db3a 04bc 5ae0 a73c d9d5 063c 8966 22bc
000001a0: 452b 393c 96e4 77bc ece3 95bb b9c7 893b
000001b0: e30c 5e3b 9262 a53b 86ca 883b a7a2 f0bb
000001c0: bdf9 8f39 0f43 afbb cf22 17bc f2b2 ce3a
000001d0: beba 1f3b b165 50bc e7e0 4dbb 44d4 1b3b
000001e0: bc27 74ba 821b 143a 6922 ae3b 8333 acbb
000001f0: ed42 4fbc f76f 27bc 8b4e 6a3b 3c1e 663b
0.0013371257 0.010838484 0.011808344 0.007485232 -0.006281369 0.013616998 -0.008642611 -0.0032311715
0.02140504 -0.0064137196 -0.0011191447 0.0067986706 -0.0035658884 -0.0050071147 -0.003151838 0.009741471
0.0022743533 0.010804167 1.6089882e-05 -0.0034171878 -0.0029447179 -0.0034947826 0.0052466816 0.0016588263
0.0015329161 -0.0096876025 0.005980054 2.3530813e-05 0.006864919 0.0035312087 0.0048896354 -0.005093235
0.008105843 0.0043703015 -0.012344494 0.0074825515 -0.0003106197 0.013191469 -0.004724922 0.00151723
-0.0066914908 0.0042258487 0.005329696 0.0035380193 0.0015107346 -0.006321493 0.017373765 -0.011550947
0.003910574 0.0037337048 0.002567132 0.0037604868 0.008860691 -0.0059411963 -0.0023748248 0.0267768
-0.002308175 0.00601829 0.008132287 -0.00073763117 -0.003396647 0.006257425 0.013727378 -0.0045129023
0.016463805 0.007184158 0.0017748226 0.0008025189 -0.0005759628 0.0012822453 -0.0040903385 0.009395375
0.011358875 -0.0018080843 0.0004759493 0.0039135357 0.0057279696 -0.011376794 -0.01569884 0.005660105
4.9972332e-05 0.014542577 0.0057700113 0.0021749404 -0.008226772 -0.014360592 0.0026072417 -0.0054718377
-0.010281964 0.010827887 0.0039419937 -0.008953196 0.011447627 0.016330754 0.0018366713 0.0007844485
0.0036076568 0.0015282406 -0.00054346205 -0.007994955 -0.008070673 0.020492721 0.008229696 -0.009912142
0.01130182 -0.015130183 -0.0045742895 0.004204717 0.0033882193 0.005047151 0.0041745333 -0.0073436084
0.00027461155 -0.00534857 -0.009224608 0.0015769883 0.0024372782 -0.012719558 -0.003141457 0.0023777643
-0.0009313782 0.0005649851 0.0053141606 -0.005255164 -0.012650234 -0.010219566 0.0035752382 0.0035113236

action_model._discrete_distribution.branches.0.weight f4 [4, 128]
00000000: 3441 cbbc 2f3c 05bd 73a3 943c 1977 553c
00000010: bdf0 9d3b 7c68 a2bb bbd7 cebc b9e4 853c
00000020: 0620 7bbc 0d88 b33c 34b5 12bd 27ac 93bb
00000030: 785d 033d cd70 f3bb a8b0 003d eb9a 64bc
00000040: b5d3 843c abf4 90bb 5f60 dfbb 7fea dfbb
00000050: a266 243c c9bf ed3c 7645 0d3d 811d 143d
00000060: 6aec e23c 1d18 b73c 8ff2 3bbd 77f5 1a3c
00000070: ce8d acbc f92f 54bb 7dbc 063d 3c0a 90bc
00000080: 3aa2 13bc 356b 633c 72ba a53c 52ab b63c
00000090: ef66 c7bb 3d9d c3bc 6064 a5bc 10d5 c539
000000a0: 8b1e ce3c 5ff4 82bc 0b60 eabc f9d8 833b
000000b0: 2dca 80bc fb84 b43c bd95 c7bc aaa9 813c
000000c0: c0ff d03c 3fdc e7bc b951 e5bb 88ff 25bd
000000d0: 3e81 f2bc 3da3 e33b ed91 ae3c b2d4 7dbc
000000e0: f3bc 2e3d 8f70 833c 0a0e d1bc aed9 76bc
000000f0: a7f2 8cbc ceee 433c 118e 093c 8bbf c5bc
00000100: 318c 163d c1e4 4f3c bc26 313c 7d60 823c
00000110: c098 853c fc0f 9139 a88e 9c3c ced7 973c
00000120: 0f2f 2e3c e857 753b c9f5 b43c a594 263c
00000130: f13f 94ba 7555 4abc b608 00bd 4794 753c
00000140: 9a92 ee3b 5777 86bb 42a3 5ebc aa9f ed3b
00000150: b593 70bb 2928 493c d408 7ebc f336 1b3b
00000160: 585f aa3c 91f9 a23c 060a 57bd dd46 c13c
00000170: 27bc 65bc c63e bcb8 18dc 84bc dd92 733b
00000180: fe65 39bc 8abc dbbb bf9b 8cbc c44f a3bc
00000190: 08a7 28bc eb9f 403d c255 ce3c 865b 92bc
000001a0: a60c 8c3c 4f4c 3439 2716 97bc 16e4 fbbc
000001b0: 7f5d d03c eb66 31bc 7bc5 803b e9db 823c
000001c0: ddbd 4e3c 0b5d 583c 79a1 3d3c 5f8c 0d3c
000001d0: 42fa 95bc 1c4e 8dbc 7d1e 7ebc bbdb 113d
000001e0: b652 cb3c 81b1 29bc 684e 343c b81f f73b
000001f0: 0f12 c4bc 2cb9 a7bc 1606 943c 1f09 4b3c
00000200: bca2 6fbc 1428 c9b9 f702 bd3c 5ef3 a83c
00000210: 8c65 64ba 3846 d1bc a170 23bd a995 413d
00000220: c7b1 4fbc 675c 2b3c 99ad 4d3b 3a9d 0cbd
00000230: a772 153d 01d7 ea3b 6200 003d 1224 fdbc
00000240: b06c b93c a619 60ba 214d d5bc 296d cabb
00000250: e17a afba 4315 373d 95cb bd3b 7132 053c
00000260: 2688 173d 45eb c73b cb9d 97bd 554a dc3c
00000270: d752 6cbc a7f2 01bd 7f2f 933c c414 04bc
00000280: ccac b3bc f073 d33c 163d 953c 404f 903c
00000290: 6827 4abc 4b54 f0bc 93eb 90bc 622e 123d
000002a0: 3875 553c 8657 babc e2b7 96bc d54c b0bc
000002b0: ae71 74bc 866d 703d 0ea7 13bd 67d6 d73c
000002c0: a632 433c 067b f4bc 90e3 863c 6c14 e6bc
000002d0: a5d6 82bc 01a1 163d 9376 2d3c 4e73 9bbc
000002e0: 89dc 843c ee7c 123d c779 18bd 8480 1d3b
000002f0: 217d d7bc aa19 193c 04f1 773c 6ce2 a2bc
00000300: 5525 d43c e7d2 9a3c 1935 e23c 38b5 6f3c
00000310: 6353 d33c ab4f f23c ea6d 2fbb 4648 123d
00000320: bc1c a83c f12b c0bc cbe1 d73c e93e 573c
00000330: ff22 e4bc 624f d9b8 6a8e afbc 48b2 b53c
00000340: bf73 87bc 32b1 05bd 9b4b c1bc 2639 d83c
00000350: 11ae c3bb 2fec 813c 547e 79bc 0370 663c
00000360: 6412 313c 54ad 593c 66f2 02bd 4be9 503d
00000370: 9427 8f3a d286 cb3c bf9e b1bc 823a 2c39
00000380: dfb2 58bc 9389 e53b c89d 24bc 404b 17bb
00000390: 6208 c6bc e8cc 453d 3a30 0b3d bbe9 00bd
000003a0: b798 863c b096 993c 594c 06bd 15dd 2cbd
000003b0: 213a 493d 2998 26bc 8960 a33c 4627 6a3c
000003c0: 0c9b e93c 7366 053d a82a fd3c 5ee9 e93a
000003d0: e34d 78bb be1a b5bc 54e3 a8bc f629 ea3c
000003e0: 0bbe 0f3c 5677 ddbb b578 133d abb2 993c
000003f0: 0ed3 84bc 4150 bfbc 6c1a 1f3d 25e5 eb3c
-0.024811365 -0.0325281 0.018144345 0.013028883 0.004819958 -0.004956303 -0.025249353 0.016344415
-0.015327459 0.02191546 -0.03581734 -0.004506606 0.03207156 -0.0074292184 0.031418473 -0.013952951
0.016214231 -0.004423698 -0.0068169083 -0.006833374 0.010034235 0.029022114 0.03449007 0.03616095
0.027700622 0.022350365 -0.04588562 0.009457937 -0.021063711 -0.0032377227 0.0328946 -0.017583005
-0.009010846 0.013880541 0.020230506 0.022298489 -0.0060852687 -0.023878688 -0.020189464 0.00037733512
0.025161048 -0.015985666 -0.02861025 0.004023668 -0.015721405 0.022036066 -0.024363393 0.015827972
0.025512576 -0.028303264 -0.0069982675 -0.040526897 -0.029602643 0.0069469498 0.021309817 -0.015492605
0.042660665 0.016044883 -0.02551939 -0.015066547 -0.01720555 0.011958791 0.008395688 -0.024139186
0.03675479 0.0126888165 0.010812458 0.01591515 0.016308188 0.00027668464 0.019110993 0.01853552
0.010631337 0.003743643 0.022089856 0.010167276 -0.001131056 -0.012349476 -0.031258307 0.014988965
0.00728066 -0.004103582 -0.013588728 0.0072516995 -0.0036709134 0.012277641 -0.0155050345 0.0023683875
0.020797417 0.019894393 -0.052499793 0.02359336 -0.01402191 -8.976231e-05 -0.01621823 0.0037166395
-0.011315821 -0.006705825 -0.01716411 -0.019935496 -0.01029373 0.04702751 0.025187377 -0.017865907
0.017095875 0.00017194565 -0.01844318 -0.030748408 0.025435207 -0.01082776 0.0039297915 0.015974002
0.012618509 0.013205777 0.011574143 0.008639424 -0.018307809 -0.01724916 -0.015510199 0.035609942
0.024819713 -0.010357262 0.011005022 0.007541623 -0.023934392 -0.020474039 0.018069308 0.012392311
-0.014626201 -0.00038367568 0.023072703 0.020623859 -0.00087126414 -0.025546178 -0.039902333 0.047261868
-0.012676663 0.010459042 0.003138399 -0.03432963 0.036486294 0.0071667437 0.031250365 -0.030900989
0.022634834 -0.0008548744 -0.026037754 -0.0061775637 -0.0013388061 0.04469801 0.005792091 0.008129702
0.036995076 0.0061010444 -0.074031435 0.026890913 -0.014424047 -0.031725552 0.017966984 -0.008061592
-0.021932982 0.02581212 0.018217605 0.017615914 -0.012338497 -0.029337069 -0.017690456 0.035688765
0.013028435 -0.022746813 -0.018398229 -0.021521011 -0.0149196815 0.0586982 -0.036047988 0.026347352
0.011913931 -0.029843818 0.016465932 -0.02808591 -0.015971491 0.03677464 0.010587352 -0.01897588
0.01621844 0.035763673 -0.03722551 0.00240329 -0.026304783 0.009344498 0.015133146 -0.019883357
0.025896708 0.018899394 0.02761321 0.014630608 0.025796598 0.029579004 -0.0026768395 0.035713457
0.020521514 -0.023458453 0.026352784 0.013137558 -0.027848719 -0.000103621525 -0.021430213 0.022179738
-0.016534684 -0.03263969 -0.023595622 0.026394438 -0.005971678 0.015859691 -0.015227873 0.014064792
0.010807607 0.013285954 -0.03196945 0.051003736 0.0010921829 0.02484456 -0.021682141 0.00016424994
-0.01322624 0.0070049255 -0.010047384 -0.0023085624 -0.02417392 0.048291117 0.03398154 -0.031472903
0.016430242 0.018748611 -0.032787655 -0.042203028 0.0491277 -0.010168114 0.019943492 0.01429159
0.028516315 0.032568406 0.03090413 0.0017846038 -0.003788822 -0.022107478 -0.020616211 0.028584462
0.008773337 -0.0067586107 0.036003787 0.018761953 -0.01621392 -0.023353698 0.038843557 0.028795788

action_model._discrete_distribution.branches.0.bias f4 [4]
00000000: 25bb 5dbc a32d a5bc 5c59 b43c 4928 87bc
-0.013533388 -0.020163363 0.022015266 -0.016498702

action_model._discrete_distribution.branches.1.weight f4 [1, 128]
00000000: 602c 09bc 009b 223b 93bd 1fbc f4ce 033c
00000010: b9ff 823c e121 04bc d231 ddbb 5f9f f2ba
00000020: 017f cbbb 8bf6 093c 7735 803c 5b50 da3b
00000030: 47f6 9d3a eb88 22bc b3d5 5c3b ddb7 3dba
00000040: fba0 00bb 3610 46bb 7b77 12bc db91 323c
00000050: 177b d0bb ca1f 023c 8de0 63bc 0528 8abb
00000060: 23ef 89bc d5bf 0b3c 792d 88bb 51c6 853c
00000070: 8c04 babb 2363 17bb a72b 213b 57f9 d43b
00000080: 3b48 3e3a e58c b13b 936c bebb 16e1 46bb
00000090: 1f5e 2cbb 9700 bcba dd79 7b3b caeb d23b
000000a0: 3b28 d9ba 521b 97b9 62d3 35bb 1f72 4cbb
000000b0: 32eb ce3b dda9 f0bb d53d f23a 5de0 0cba
000000c0: 2702 48bc 5a7b cb3b edd2 2a3b efb2 803b
000000d0: fb97 aebb 233f 823b 7f04 1b3b fbc8 67bc
000000e0: 92eb f03a de83 a43b a243 6b3c aa45 d5bb
000000f0: a566 133c 0de0 54bb 9466 223b 9b30 413c
00000100: 1c47 2d3c e528 53bc 0db2 07bc 8756 8ebc
00000110: 97a9 103c fc1a be3b 38fd ec3b 7584 f63b
00000120: e5e1 f13a 2f07 e5bb e7cd 243c 4790 13bc
00000130: 6775 863b 2082 4e3c 1074 e73b 9b78 593c
00000140: 36de 8d3b 939a 983b bda4 f2bb debd 3c3c
00000150: 4c9d aabb 283d a9ba 6287 cfbb 16c1 c5bc
00000160: a8b1 c4bb b206 92bb 7a97 163b a3f8 60ba
00000170: e35f e23b 50e5 f63a bafc a23c fcdb 363b
00000180: 98f4 43bb aff6 803b bb74 c1ba 952a d1b9
00000190: da55 693c 2967 27bc 6911 863c 967a 363c
000001a0: bd9f 9b3a fd53 debb 8285 763c 255c c2bb
000001b0: fc44 9c3a 63d8 603b cb75 b33b 9b29 0a3c
000001c0: 7d7f d0bb a7a4 7dbb a09d ff3b c2ce bd3b
000001d0: ffab 22bb b5c0 6eba b4a7 9f3c dbdb 653c
000001e0: 2b3a fc3b 32c3 9ebb 9780 e13b dc46 92bb
000001f0: e341 353b 8b13 6e3a b783 debb 3376 113c
-0.008372396 0.0024811625 -0.009749788 0.008044947 0.015991079 -0.008064718 -0.006750324 -0.0018510631
-0.0062102084 0.008420597 0.015650494 0.006662411 0.0012051546 -0.009920339 0.003369671 -0.00072371756
-0.0019627202 -0.0030222065 -0.008939619 0.0108990325 -0.0063623297 0.007942149 -0.013908518 -0.0042161965
-0.016837662 0.008529623 -0.0041558114 0.016329916 -0.0056768116 -0.0023099862 0.002459267 0.00649945
0.0007258688 0.0054184073 -0.005811283 -0.0030346564 -0.0026301218 -0.0014343438 0.0038372197 0.0064367997
-0.0016567776 -0.0002882132 -0.0027744402 -0.003119595 0.0063146586 -0.007344468 0.0018481562 -0.0005374009
-0.012207544 0.006209773 0.0026065663 0.0039275805 -0.005328176 0.0039748116 0.0023653803 -0.014147039
0.0018380752 0.0050206026 0.014359387 -0.0065085487 0.00899664 -0.0032482177 0.002478038 0.011791374
0.010576036 -0.012888168 -0.008282197 -0.017375244 0.008829496 0.0058015566 0.0072323345 0.0075231143
0.0018454163 -0.0069893817 0.010058857 -0.009006566 0.004103351 0.012604266 0.0070633963 0.0132733835
0.004329468 0.0046570986 -0.0074048922 0.011519877 -0.0052067395 -0.0012911903 -0.0063332776 -0.024139922
-0.0060026236 -0.0044563645 0.002297847 -0.00085819716 0.0069084032 0.0018836651 0.0198959 0.0027902117
-0.0029900428 0.003935657 -0.001475952 -0.00039895313 0.01424166 -0.010217466 0.016365724 0.011137625
0.0011873167 -0.0067849145 0.015046479 -0.0059313946 0.0011922414 0.0034308664 0.0054766885 0.008432771
-0.006362854 -0.0038702877 0.007800773 0.0057924697 -0.0024821756 -0.0009107695 0.019489147 0.014029468
0.007697364 -0.0048450464 0.006881784 -0.0044640135 0.002765768 0.00090818916 -0.006790604 0.008878279

onnx::LSTM_114 f4 [1, 512, 128]
00000000: 8330 c2bd cefc f33d f6f2 54bd 4c4f 96bd
00000010: a335 b53d 4109 2a3d 3f35 c33c 90a7 f0bd
00000020: edde da3d 1622 a9bd 17c5 c2bd 9355 e2bd
00000030: d683 c4bd db73 a33d 47b2 96bc f956 89bc
00000040: f3b7 ef3c 624d 28be 2c37 6dbd 9368 d7bd
00000050: 0273 a93d 5622 0e3d b4b4 4d3c 8e1a e0bd
00000060: 3643 b8bd 38ee f7bd 31f4 5e3d 6e5f 353d
00000070: 12fa 173e 8ce5 c5bd 02aa dfbc cbc6 cb3c
00000080: 3cce fd3d 52f5 053e 0354 05bc 1979 10be
00000090: 8297 ddbd de7f 673d d68d 2bbe 1240 debd
000000a0: 2d7f 053c 0bae 1cbe c9e9 da3d 069d 97bd
000000b0: 31c6 c13d 8be3 b9bd 5dc6 1dbd 5aa1 99bd
000000c0: 44ec aabd 2f46 dabb 151f 1e3c b7b4 26bd
000000d0: 9996 9c3d 066e 4ebd 2512 bb3c f025 e83d
000000e0: a4b9 bf3c 5763 a03d c321 0b3e f1a9 5dbc
000000f0: ff8e 01be 5241 89bd b9d5 d1bd dfb9 efbd
00000100: b75a 07be 7df0 253e cb78 1dbe 40be 6eb9
00000110: f173 51bd d041 7d3d cbf0 bf3d 6997 783d
00000120: dcb9 20be c0e0 0abe 9822 093e b25a ffbb
00000130: 49ec 39bd 8fe5 c6bd 44eb 08be a6ab 3fbd
00000140: aae0 873d 4f72 c8bc 7b0a f73d e06a f6bd
00000150: 3f8b 203d 6b34 67bd 0bd6 933c 3e2b 32bd
00000160: b14b 7b3d 7922 efbd 1b79 6cbd 5f08 263e
00000170: 7aea e5bd 4ac1 183e 3464 f23c 7d92 20be
00000180: fa06 bb3c 0e9d f03d 7b0a 0bbe ef1e bf3d
00000190: 7f9e b43c f0c4 553d 176b b0bd df4f f9bd
000001a0: 78b4 0c3e e821 4d3c 57a6 403d aee4 b83d
000001b0: b5a4 7e3d 843a 06be 8892 9fbb 1da4 4dbd
000001c0: 1409 08bb 9b12 e03c c567 6cbc 1f16 983d
000001d0: 3f2f 24bd d967 c83d 3b34 ffbd 3e57 983d
000001e0: 8bf0 a4bb 254e 06bd 3bf1 86bd 9a3a a8bc
000001f0: 811b 41bd 861a 51bd 1e0a e93d 9fde a33d
00000200: ab4b 0a3e 633b 1b3e 75ec 92bd 60b2 a0bd
00000210: 4257 c63d deb1 bfbc 47b1 1a3e 3ab1 f6bd
00000220: feb4 f9bd d8f5 1dbe 64a3 59bc 9d9c 983d
00000230: 5a92 0e3e 24e3 aa3d 6527 aebc b48c 76bd
00000240: 94d4 9c3c 78cb 51bd 1e36 9cbd 81e2 013e
00000250: 6aa0 81bd b36b 13bd 734e 22be e1fb 6fbd
00000260: e94d 96bc a41e e83d e57b 5d3d 490c 84bd
00000270: f764 4d3d 0fe0 e9bc 847b 18bd d720 0fbe
00000280: 1b81 8ebc d940 1a3d a002 22bd 0a55 b73d
00000290: 935e e9bc 0682 283c c8e4 a1bd 32e7 333d
000002a0: 3ede 053c 8c19 06be b196 debd f9ea 84bc
000002b0: 6722 b1bb ce47 e8bc 1b4d 01bc 4290 0fbe
000002c0: 32e2 94bd b521 5d3d ae53 913d 6bf5 d53d
000002d0: 3e3a acbd cbfb d43d de1c f83d 9fcb 003e
000002e0: a494 f1bd fc91 95bd 3fd6 72bd 6dfe 053e
000002f0: 73d3 073e 2aab 263d 2c17 183e bee5 473c
00000300: 2956 71bc 4a1a 06be 7278 b7bd 7eee 01be
00000310: ca14 0f3e 6278 bfbc 3380 91bd c660 e03d
00000320: 90c2 093e 3f8e 36bd fe89 083e 0258 8fbd
00000330: 185a cd3d 3371 e63b fcd0 b93d 3460 02be
00000340: d6b4 8f3d ccc3 09be 9db1 513d c11e 623c
00000350: 472e 1f3e 6f1c 1b3e 24b1 003e 3aff 0f3e
00000360: c43b 623b 3a3d 2dbd e1fc b73c 32c1 0b3e
00000370: 6517 bf3d d684 943d 2911 87bd 90d3 ee3d
00000380: 1e91 c93d a201 62bd 7f0a 0c3e 0bd0 0c3e
00000390: ac38 823d 5134 b3bd fcaf 883d b83e 96bd
000003a0: 7f74 173d 74fa a5bd a6d0 b03c fd27 453d
000003b0: 6944 9b3d a15c e8bd 9041 d73d cff9 7fbd
000003c0: 97db eebd d8a2 c3bd 9b95 cf3c 4fc8 02be
000003d0: 981f bebd 63e4 ba3d f073 2bbd b4de 29bd
000003e0: e719 77bb 2967 12be 8e66 bebd 5c42 803d
000003f0: a891 bc3d 5e86 0d3e 26f1 16be 37f2 983d
-0.09481909 0.11913453 -0.051989518 -0.073393434 0.08848121 0.04151273 0.0238291 -0.1175071
0.10687051 -0.082584545 -0.09510248 -0.11051478 -0.09595458 0.07981082 -0.018395556 -0.016765105
0.029262519 -0.16435769 -0.057913944 -0.10517993 0.08273889 0.034700714 0.01255529 -0.10942565
-0.089971945 -0.121059835 0.054432098 0.044280462 0.14841488 -0.09662923 -0.027302746 0.024875065
0.12392852 0.13081864 -0.008137706 -0.14108695 -0.108199134 0.056518428 -0.16753325 -0.10852064
0.008147997 -0.15300767 0.10689122 -0.07402997 0.0946163 -0.090766035 -0.038519252 -0.075014785
-0.08345845 -0.0066611986 0.009650965 -0.040699687 0.07645912 -0.050397895 0.0228358 0.11335361
0.02340395 0.078314476 0.13587098 -0.013529287 -0.12652205 -0.06701912 -0.102458425 -0.11705374
-0.13218199 0.1620502 -0.1537811 -0.00022768322 -0.05113596 0.06183034 0.093720995 0.06069127
-0.156959 -0.13562298 0.13392103 -0.007792794 -0.045391355 -0.097117536 -0.13370997 -0.046794556
0.06634648 -0.02446857 0.12062546 -0.120321035 0.039195295 -0.056446474 0.0180464 -0.04349827
0.06135148 -0.11676497 -0.057732683 0.16214131 -0.112263635 0.14917484 0.029588796 -0.15680881
0.022830475 0.11748706 -0.13578217 0.09332072 0.022048233 0.052189767 -0.08614176 -0.12173437
0.13740718 0.012520291 0.047033634 0.09027992 0.062168796 -0.1310826 -0.004869763 -0.05020534
-0.0020757364 0.027352622 -0.014429037 0.07426094 -0.04008412 0.09785432 -0.12461134 0.07438515
-0.005033558 -0.03278937 -0.0658898 -0.020535756 -0.04714537 -0.051050685 0.11378883 0.08001446
0.13505428 0.15159373 -0.07174007 -0.07846522 0.09684612 -0.023400243 0.15106688 -0.12045522
-0.12192725 -0.15425813 -0.013283584 0.074517466 0.13923016 0.08344105 -0.02125902 -0.06019278
0.019144334 -0.051219434 -0.076275095 0.1268406 -0.06329425 -0.03599138 -0.15850239 -0.05858982
-0.018347697 0.11333969 0.054073233 -0.06447656 0.050145116 -0.028549222 -0.03722717 -0.13977371
-0.017395547 0.0376595 -0.039553285 0.08951767 -0.02848748 0.010284906 -0.07904965 0.043921657
0.008170662 -0.13095683 -0.10868586 -0.016225325 -0.0054057124 -0.028354552 -0.0078919185 -0.14019874
-0.07269706 0.053987224 0.07096039 0.104472004 -0.08409546 0.10399588 0.12114881 0.12577675
-0.11795929 -0.07303235 -0.059286352 0.13085337 0.13264255 0.04069058 0.1485259 0.012200771
-0.014730015 -0.13095966 -0.0895852 -0.12688634 0.13972774 -0.023372833 -0.0710453 0.10955958
0.13453126 -0.04456925 0.1333389 -0.06999208 0.1002695 0.0070325374 0.09073064 -0.12732011
0.070169136 -0.13453597 0.051194776 0.013801278 0.15544997 0.15147565 0.12567574 0.14062205
0.0034520486 -0.04229472 0.02245945 0.13647917 0.09330634 0.07251899 -0.0659507 0.11661446
0.09842132 -0.05517734 0.13675879 0.13751237 0.063584656 -0.08750213 0.06674191 -0.073361814
0.036976334 -0.08104411 0.021583866 0.04813384 0.075814076 -0.113457926 0.10510552 -0.062494095
-0.11662977 -0.09552544 0.025339892 -0.12771724 -0.0928337 0.091255926 -0.041858613 -0.041472152
-0.0037704648 -0.14297165 -0.092969045 0.06262657 0.09207469 0.13820788 -0.14740428 0.07468074

onnx::LSTM_115 f4 [1, 512, 128]
00000000: 2732 c4bd 8307 0bbe c74c 87bd 8532 3b3c
00000010: f37c a53d 2b7f 8ebd 773c 503d ba3c 053e
00000020: 2cdc 36bc 0a77 0d3e f943 d53d 0979 90bd
00000030: d38c 283d a3ed 07bd b99e 8f3d 3044 c23d
00000040: e92e b7bc b4a9 d5ba c4e2 fbb9 5495 e23d
00000050: aace 8fbd 5c76 88bd d545 7fbd fdd5 e9bb
00000060: 26df 11be 797d 3abd 38d3 b2bd 8acc f53d
00000070: 5206 9b3d 47ba 01be 757d 773d 0a2f 213d
00000080: 0c69 eabd 075b 93bc 14d5 00be 017e 003e
00000090: b19d 9cbc e67a 6c3d 43c3 f4bd 4728 b23c
000000a0: 65b4 02be 9b1c 16bb d57e debd c00a 7d3d
000000b0: badb 2fbd aac4 cfba ee83 943b 5bd7 093e
000000c0: b7bc 063d 0ac6 1c3e 4a2f fdbd 5c31 51bd
000000d0: cc0e e0bb 4694 15be af11 b03c bd56 c3bd
000000e0: fd46 453d 57de da3d da21 923d 488b 833d
000000f0: 3235 7d3d dbb1 b13d 82eb 80bd b41f f53d
00000100: 5460 0dbd 13d4 b8bd 3c8e aebd 19c7 3fbd
00000110: 8b67 963d ca85 b83d a448 c1bc 1078 dc3d
00000120: 1137 1ebe 58b1 273d 4b27 0dbe 2629 b0bd
00000130: 252f b73d 3587 a8bb aca4 173e 7710 aebd
00000140: f12e 04be 08ad b8bd c4fa dcbd 8785 443d
00000150: 241d 91bd ebd8 aa3d 9d8d 023d 3fef ac3d
00000160: 0e97 123e 5462 043c c1d1 d33d 08c0 babd
00000170: 514a c9bd 12bd d93d b754 39bd 1dbc 0fbd
00000180: 8595 1a3e 88d8 ddbd e524 e93c ea3c 92bb
00000190: f4b2 0f3e d79a 1fbe 92f1 52bd b9c8 bfbd
000001a0: 622c e1bd 2ce2 eb3d 061a 093e a2c8 a3bd
000001b0: 5874 b13d cdca 033e 94a2 f33c 623b 023c
000001c0: 7eb6 e1bd 6664 a9bd e658 8dbd f4bd 5c3d
000001d0: 3aa1 863c f998 e3bd 1244 043c 24ff cd3d
000001e0: f947 0c3e df4b 193e df34 033e ce7d b03d
000001f0: bdac 85ba 4f62 403d 153c 1bbe 0815 cabc
00000200: 7a59 053e 3e49 e03c 11f1 be3d 62da b5bd
00000210: 2f43 9a3d 5c34 173e 7800 02be 1cec 03bd
00000220: a815 d93d e1f0 6a3d 6e21 833d 98fb 073e
00000230: 6121 b2bd 7599 e6bc eb3d cebc 5359 1b3e
00000240: 2202 a23d 3969 94bd b693 cc3d f8fd 903d
00000250: 55c1 92bd 0331 d13d 25eb 0a3e 9e42 e23d
00000260: 032e 9abb d68d 613d ab05 173e aa98 0f3e
00000270: f759 103d 799d 8a3d 64b6 d7bd 3341 0cbe
00000280: 2ac6 073e 227a c2bd 4202 0a3e e31b c9bc
00000290: 654a c33b 06c6 07be d785 c53c a118 0dbd
000002a0: 71f3 a43d 52eb 1e3d 96ee b43d 7f47 063e
000002b0: b083 9bbd c677 073d 3ba5 ab3d b4dc bd3d
000002c0: 0d00 f23d 3c12 7dbc bbeb 703c 5556 bebd
000002d0: 0e94 e03d 276f 203d de3d 16be ab35 6abc
000002e0: 789e e33d 7fe5 afbb 5d2c a73c 7d2c 283e
000002f0: c6d1 133e 11b6 a23c 9a89 a5bd 2ccb 0c3e
00000300: 0d4a 05be 7f02 643d 758f e6bd a793 0c3d
00000310: 869f 84bd 9994 503c dbe3 ad3d deaa 73bd
00000320: 4295 2ebd d3d5 103e 42d3 29be aa41 ebbc
00000330: 85ab ca3d c211 943d 25a4 713c e156 f63d
00000340: a9f0 febd 3b17 6a3d f896 f4bd f2b0 bd3b
00000350: 8d7c c0bd 744e 65bc 5111 7dbd 2bbd 053e
00000360: 72f4 f33d 60f2 ff3d c799 4ebc de27 033e
00000370: b58b 223e 69bb a8bd 9045 7bbd d1e5 b2bc
00000380: c82f 5a3d deb9 07be 4607 093e 67a3 b5bd
00000390: c0f9 ca3d 271d 3d3b 01d1 19be 76d2 263d
000003a0: 88f2 063e 0108 cf3c 3b9a 59bd 7b99 c7bd
000003b0: 310b 0a3e 40ac 0f3c 102f aabc 20f6 633d
000003c0: 6154 fa3d 7ffd 05be 2bd5 033e 68be ee3c
000003d0: 6eff 6bbd 8e39 e4bd c8c5 85bd 4845 d23c
000003e0: cce8 cfbc d16a b03d 28b0 433b 67a1 12be
000003f0: 99eb f9b9 9766 1d3e bd3b d53d ae84 7abd
-0.09579878 -0.13577084 -0.06606441 0.011425619 0.08080473 -0.06957849 0.050838914 0.13011447
-0.0111608915 0.13814941 0.104133554 -0.070543356 0.041149925 -0.033185612 0.07012696 0.09485662
-0.022361236 -0.0016301186 -0.00048043404 0.11063638 -0.0702184 -0.066632 -0.062322456 -0.007136105
-0.1424528 -0.045529816 -0.08731693 0.12001903 0.07569565 -0.12668715 0.06042238 0.0393515
-0.11445817 -0.017987741 -0.12581283 0.12548067 -0.019118162 0.057734393 -0.11951306 0.021747721
-0.12764128 -0.0022905234 -0.10864035 0.06177783 -0.042934157 -0.0015851457 0.004532329 0.13461058
0.032894816 0.15309921 -0.12362535 -0.051072463 -0.0068377014 -0.14607343 0.021492807 -0.095380284
0.048163403 0.10686939 0.07135363 0.0642305 0.06181831 0.08676501 -0.062949196 0.119689375
-0.034515694 -0.09024825 -0.08523223 -0.046820734 0.07343968 0.09009893 -0.023594208 0.107650876
-0.15450694 0.040940613 -0.1378452 -0.086015984 0.08944539 -0.005143071 0.14808911 -0.08499234
-0.12908532 -0.09017378 -0.10790017 0.047978904 -0.07085636 0.08342155 0.031873334 0.0844407
0.14315435 0.008080084 0.10342742 -0.09118658 -0.09828628 0.106317654 -0.045246806 -0.03509151
0.150961 -0.10832316 0.028459975 -0.004462828 0.14033109 -0.1558641 -0.05149991 -0.09364457
-0.109947935 0.11517748 0.13388833 -0.07997252 0.08664769 0.12870331 0.02974061 0.007948728
-0.11021136 -0.082711026 -0.06901722 0.05389209 0.0164343 -0.111131616 0.00807287 0.1005843
0.1369933 0.14970349 0.12813137 0.08617745 -0.0010198575 0.046968754 -0.15159638 -0.024668232
0.13022414 0.027378675 0.093233235 -0.08879544 0.075323455 0.14766067 -0.12695491 -0.032207593
0.10599834 0.057358626 0.064028606 0.13279569 -0.08697773 -0.028149346 -0.02517601 0.15170793
0.07910563 -0.07246632 0.09989111 0.07079691 -0.071657814 0.10214426 0.13566263 0.110478625
-0.004705192 0.055066906 0.14748256 0.1402308 0.035242047 0.06768317 -0.10532835 -0.13696747
0.13259187 -0.09495951 0.13477424 -0.02454943 0.0059597963 -0.13259134 0.024111671 -0.034447316
0.08054245 0.038798638 0.08834569 0.13113211 -0.07593477 0.03307321 0.083811246 0.092706114
0.11816416 -0.015446242 0.01470464 -0.0929381 0.10965739 0.039168503 -0.14672038 -0.014295022
0.1111421 -0.0053679342 0.020406896 0.16423221 0.14435491 0.019862207 -0.08082886 0.13749379
-0.1301653 0.055666443 -0.11257831 0.0343205 -0.06475739 0.012730741 0.084907256 -0.059489124
-0.042622812 0.14144067 -0.16584495 -0.028717835 0.09895996 0.072299495 0.014748608 0.120282896
-0.12448246 0.05715106 -0.119428575 0.005788916 -0.09398756 -0.013995755 -0.061784092 0.13060443
0.119118586 0.12497401 -0.012609906 0.12808177 0.15873607 -0.08238871 -0.061345637 -0.0218381
0.053268224 -0.13254496 0.13381681 -0.08869057 0.09910917 0.0028856487 -0.15021135 0.040728055
0.13178456 0.025272371 -0.0531256 -0.09746071 0.13480832 0.008769095 -0.020774394 0.055654645
0.12223125 -0.13084982 0.12874286 0.029143527 -0.057616644 -0.1114379 -0.065318644 0.025667801
-0.02537956 0.086141236 0.0029859636 -0.14319383 -0.00047668515 0.15371166 0.10411785 -0.06116169

onnx::LSTM_116 f4 [1, 1024]
00000000: 972d 6e3c b5df 323c dd05 9a3c 6097 863c
00000010: 73c5 d3bb 3b13 0f3d ef50 8c3c c13a 043d
00000020: 7767 d1ba c1a0 823c 1006 293c c44d e03c
00000030: 2b0b 95bc c52d 3cbb 6491 533c cdca 4a3c
00000040: 9130 8c3c 76d3 493c 06ee 183c 3ae7 3b3b
00000050: 47b5 093c c87a 673c ea6c 083b a30a 833c
00000060: 5929 573c d0cc 70b8 fa72 883b c7d0 873c
00000070: 3a53 a63c 159b 0e3d ae98 643c d422 8ebb
00000080: 621e 003c 4914 f93c 8ac2 fd3b 1b80 8b3c
00000090: 3ce8 6b3b 80cf dd3b bc3f 2d3b 8591 ad3c
000000a0: 5b39 a83c 3eab af3c 40aa c63b c94d 783c
000000b0: dca9 f13c f1cc c13c aa84 453c a250 a83c
000000c0: 39c1 923c 14a1 d83c 7bbc 85bb dcfb 723a
000000d0: b160 f13c 1cdd d83c 17a7 42bc e6bf b43c
000000e0: e65f fb3c 8c71 9a3c ab7f b63c 156f df3b
000000f0: 2ad6 2e3c 42a4 123c edf1 183c 621a 2f3c
00000100: 6ce3 223c 5190 873c dcaf b73c 967a 2f3c
00000110: 3c87 b43c 2a9c ed3b b727 073c 89b8 1e3d
00000120: 6d1d 693c f1a2 ac3c 019e 853c 8b55 c53b
00000130: 9795 5a3a 81fa 443c 8a66 743b 3dde bc3c
00000140: 895b 09bc 0045 ac3c fa98 f13c b675 b03a
00000150: dd74 31bc 9831 a93c bafd f13c 7823 e63b
00000160: 1dab 35bc 96d4 1a3c 4e37 243c 1f12 943c
00000170: a48d ef3b c982 ba3c c6aa 213c 671e a13b
00000180: 8686 0b3b 167a a8bb 7050 11bb 36e5 30bb
00000190: 62ff f23c 4278 5f3c 90ff 483c 7a08 b63c
000001a0: 53a7 eb3c 3ce3 923c 4786 183d b5c0 fc3b
000001b0: 8f75 763b bea9 913b 9d2a 2a3c 9816 e83c
000001c0: c51a 5b3c 9abf f6bb 412a a73c 4d7c f6ba
000001d0: a3ba da3c 7b77 083d 1922 b13c c7bc 4b3c
000001e0: 4251 163c e45e 9d3b f3b1 ba3c 0a39 813a
000001f0: c0a4 403c 9625 583c d92b e33c 793b 043d
00000200: 52b5 583c 09df 2a3c 89c8 393c 032b f1bb
00000210: 2d2d a3bb 9769 733c 344f 8e3c 8ca0 863c
00000220: b7d4 cd3b 014c 773c abfe 6d3c ef9d b63b
00000230: 46a8 033c 833b 47bb ba39 693c 76ff cf3b
00000240: 8cdd 643c 20a6 2939 4e13 193c 1600 d93b
00000250: 6211 093c becc 6f3c d3a9 d8ba 016a 363c
00000260: 913c 933c 5e6f 733b 947a 023d d039 fd3b
00000270: 1b4d 4d3b bed5 203c ff03 333c e868 c03b
00000280: cdd8 10bb 9330 593c ec0b 5e3c 1b73 b13c
00000290: 4d74 ed3b c9f0 213c 1ad7 073c 14a9 6c3c
000002a0: 7319 8d3c f580 663c c0f4 3f3c 2358 813c
000002b0: 10ca 7e3c 6644 923c 6a12 853c f5af 5f3c
000002c0: 68c2 053c ef3d 2f3c bfdb dcbb 5b2d b53c
000002d0: eb32 6c3c ad7f 463c d219 9ebb c401 073c
000002e0: 441d 3a3c 7c33 31bb bdaa 703c 1094 f63a
000002f0: 6a74 5d3c 9d8d 9a3b bcd3 87bb d728 903c
00000300: 5de4 853c 3d6d 4a3b 19d9 593c 67c8 e33b
00000310: cceb 433c d6c4 133c 1a63 083c 8a8f 9c3c
00000320: 4f4c 2e3c 0d1e 253b 2e75 8d3c 0a23 bf3c
00000330: 9a40 a93a 8a62 8b3c cb88 b53b 9940 683c
00000340: edc4 d8bb 2240 5e3c 8c65 793c 6198 123c
00000350: c5e0 29bc 2e68 823c 64d2 4d3c b5de 88bb
00000360: 35a4 01bc 4a08 463c 1c37 783c 65e8 ab3c
00000370: 7ce3 0d3b 1628 2b3c a0c5 8a3c b728 5e3c
00000380: 75cd 353c 07f0 97bb 6aed 9aba ac29 c1bb
00000390: a89d 8e3c df70 943c 27df 903c 4507 8d3c
000003a0: b347 4a3b 957a 7e3c 7e77 8a3c 108c 963c
000003b0: fb8a c43c 474f 323c 7f97 443b ad6e 803c
000003c0: 6124 e43b 59ec 753c 3bf5 913c 178c 0cbb
000003d0: 8698 213c 4736 583c a578 943c a561 7a3c
000003e0: 9e6c 233c 92bc 173b bdda 0a3c 6b85 443c
000003f0: 6766 673b be1a 063c c5b7 953c 2c81 8b3c
0.014537237 0.010917594 0.018801624 0.016429603 -0.0064627468 0.03493045 0.017128436 0.032282595
-0.001597627 0.015945794 0.010316387 0.027380832 -0.018193802 -0.0028713804 0.012913082 0.012377453
0.017113002 0.012318483 0.009334093 0.0028671757 0.008405036 0.014128394 0.002081687 0.015996283
0.013132417 -5.7411205e-05 0.004164097 0.016579045 0.020303357 0.034815867 0.013952417 -0.004337648
0.007819744 0.03040518 0.007744138 0.017028859 0.0035996577 0.0067691207 0.0026435694 0.021187553
0.020535162 0.02144396 0.006062776 0.015155264 0.02949994 0.023657294 0.012055555 0.020546261
0.017914401 0.026443996 -0.0040813065 0.00092690974 0.029465051 0.02647262 -0.011880658 0.02206416
0.030685376 0.018852971 0.022277674 0.006818662 0.010671178 0.008950295 0.009335023 0.0106874425
0.009941917 0.016548308 0.022422723 0.010710379 0.022037141 0.007251282 0.008249215 0.038750205
0.014228207 0.02107379 0.016310694 0.0060221604 0.00083383307 0.012022615 0.0037292563 0.02305519
-0.00838364 0.021028996 0.02949189 0.0013462815 -0.010831085 0.020653531 0.029539932 0.007023271
-0.01108816 0.0094500985 0.010022951 0.018075047 0.007310586 0.022767441 0.009867376 0.0049169543
0.00212899 -0.005141507 -0.0022173189 -0.002699209 0.029662792 0.013639512 0.012267962 0.022220839
0.02876631 0.01793062 0.03723743 0.007713402 0.0037606691 0.0044452837 0.010386136 0.028331086
0.013373082 -0.007530165 0.02040589 -0.0018805355 0.026700323 0.03331707 0.021622704 0.012435145
0.009174647 0.0048025716 0.02278993 0.0009858918 0.011758029 0.013192555 0.02773087 0.03228328
0.013226824 0.010429152 0.011339315 -0.0073598637 -0.0049797506 0.014856718 0.017371751 0.016433977
0.006281461 0.015093804 0.01452605 0.0055730264 0.008035725 -0.0030400462 0.0142349545 0.006347592
0.0139688365 0.00016178982 0.0093429815 0.0066223247 0.008365961 0.014636217 -0.0016530104 0.011133672
0.017973216 0.0037145237 0.03185518 0.007727839 0.0031326476 0.009816585 0.010926246 0.005871881
-0.002210188 0.01325621 0.013552647 0.021661332 0.00724653 0.009884068 0.00829103 0.014444608
0.01722405 0.014068832 0.011716068 0.015789097 0.015551105 0.01785488 0.016244132 0.013652791
0.008164026 0.010695918 -0.006740063 0.022116354 0.014416437 0.012115401 -0.0048248554 0.008240167
0.0113595165 -0.0027038744 0.014689145 0.0018812437 0.013516525 0.0047165886 -0.0041451138 0.017597599
0.016344244 0.0030887865 0.013296389 0.00695138 0.011958074 0.009019097 0.008324409 0.019111414
0.010638311 0.0025194914 0.01726779 0.023332138 0.001291293 0.01701476 0.0055399886 0.0141755575
-0.0066152723 0.013565095 0.015221965 0.008947463 -0.010368531 0.015918817 0.012562368 -0.0041769394
-0.007912685 0.012086937 0.015149858 0.020984838 0.0021650484 0.010446569 0.016939938 0.013559512
0.011096348 -0.004636768 -0.0011820022 -0.0058948603 0.01740916 0.018120227 0.017684532 0.01721538
0.003086549 0.0155321555 0.016902681 0.018377334 0.023992052 0.010883159 0.0029997525 0.015677774
0.0069623445 0.015009963 0.01781713 -0.0021445805 0.009863025 0.0131965345 0.018123934 0.015282069
0.009974627 0.0023153168 0.008475003 0.0119947 0.003530884 0.008185087 0.018276105 0.017029367
