Machine-Learning-DRL/results/SeekerTrainingWall2/Seeker/Seeker-203146.onnx (onnx, 610983 bytes, 11 tensors)

discrete_act_size_vector f4 [1, 2]
000000 00 00 80 40 00 00 80 3f
       4.0 1.0

network_body._body_endoder.seq_layers.0.weight f4 [128, 8]
000000 19 ea ac be bc 57 34 3e 77 80 7c 3e ee 8c a9 3d
       -0.33772352 0.17611593 0.2465838 0.08278833
000010 ee ff 73 3e 5f 0d 33 be d8 22 aa 3e a3 2f 3b 3e
       0.23828098 -0.1748557 0.3322971 0.1827989
000020 33 f6 e2 3d 1a be 39 3d 93 24 fc 3d 96 1e 2e 3d
       0.11082115 0.04534731 0.123116635 0.042509638
000030 78 15 ca be ca e1 5b 3d 52 a4 c0 bd db 06 4c bf
       -0.39469504 0.053682126 -0.094063416 -0.7969796
000040 19 19 10 bf 2f 27 39 be 4e 76 ae bd 80 cd 1c bf
       -0.56288296 -0.18081354 -0.085186586 -0.6125107
000050 be 31 00 3f 6a a4 e0 3e a6 75 11 3e de b8 2f 3f
       0.500759 0.43875438 0.14205036 0.6864146
000060 ab 65 2e 3d f9 1b 3e 3d eb 05 2d 3e 42 21 45 3e
       0.042577427 0.046413396 0.16896789 0.19250968
000070 10 52 0d 3e ea b5 0f bf e7 c8 a2 3e 3b 4b 36 be
       0.13800836 -0.56136954 0.317939 -0.17802136
000080 82 c3 40 be 85 a3 b8 3e 30 bf 87 be ff 72 f0 3e
       -0.1882458 0.36062256 -0.26513052 0.46962735
000090 31 7d ff be ce 6e 68 bd 0a d3 74 3f f1 b3 7f 3e
       -0.499002 -0.056746297 0.9563452 0.24970986
0000a0 6b 2d 1b be 50 6d 95 be 76 7c 18 3e 1b 3c 7b 3d
       -0.15154044 -0.2918496 0.14891228 0.061336618
0000b0 29 c0 34 bd 2d 66 40 3e 24 27 a3 be 21 2d 26 3d
       -0.04412857 0.18788977 -0.318658 0.040570382
0000c0 ba 38 a7 3e 39 14 91 be a9 dc 17 bf 49 ce e4 bd
       0.32660466 -0.2833574 -0.59321076 -0.11172158
0000d0 c7 5b bc be 0d 04 b1 3e 20 c3 17 be cd a5 e2 3e
       -0.3678877 0.34573403 -0.14820528 0.4426712
0000e0 37 bb 06 3f 06 ef bb 3e a4 79 19 be 85 e7 1a 3e
       0.5262942 0.36705798 -0.14987808 0.1512738
0000f0 98 15 0a 3e 49 f5 03 be 72 05 92 be d7 ba c8 be
       0.134848 -0.12886538 -0.2851978 -0.39205047
000100 c9 f6 36 3f 33 e7 16 3f e4 63 83 bf 69 a4 d8 be
       0.71470314 0.5894653 -1.0264859 -0.42312935
000110 fb b7 78 3d c2 5b b6 bd 21 29 7a be 47 81 2e 3f
       0.060722332 -0.0890422 -0.24429752 0.6816601
000120 1d ad df be 07 0d b3 bd 9d 91 38 be dc 78 e4 bd
       -0.43686762 -0.08742719 -0.18024297 -0.111558646
000130 f6 e2 cb be 70 2a 2c bd 9c e0 36 be 76 dd 67 be
       -0.39821595 -0.04203266 -0.17859119 -0.22643074
000140 c8 a0 1f be 09 93 3a 3e 64 58 b9 3d fd 2c 92 3e
       -0.15588677 0.18220152 0.09050062 0.28549948
000150 8b 42 8e be 23 ac d0 bd 08 f0 f7 3e c7 35 81 3f
       -0.27785143 -0.101890825 0.48425317 1.0094537
000160 1d 29 f7 3e 36 b6 f1 3e f2 40 65 bc 2c 9b 53 be
       0.48273554 0.47209328 -0.013992535 -0.20664662
000170 5c 32 1d bf 7b 93 93 be f7 46 8a 3e c4 8c 6c 3e
       -0.6140497 -0.28823456 0.27007267 0.23100573
000180 f7 62 8c be 24 e9 e2 3c ba f9 4f be 7c 01 eb 3c
       -0.27419254 0.02769906 -0.20310107 0.028687231
000190 cd 2b 53 bf 8a 9a e3 be 5a d8 08 3d b1 b4 8f 3d
       -0.8248871 -0.4445384 0.033409454 0.07016886
0001a0 ea c3 63 3e 8e 55 9f 3e 77 60 ec be 13 b8 0a 3e
       0.22242704 0.3111996 -0.46167347 0.13546781
0001b0 ff 30 bd be e6 10 10 3f f4 8a 49 be 04 a0 89 3f
       -0.36951444 0.56275785 -0.19681913 1.0751958
0001c0 7e c6 96 be 95 71 c1 be e7 53 1a 3c 02 d3 23 bf
       -0.29448313 -0.3778197 0.009419418 -0.6399385
0001d0 b9 a4 c3 be 8f 13 ff 3c ca 00 6d be 64 30 eb 3e
       -0.3821161 0.031137256 -0.23144832 0.45935357
0001e0 54 a5 68 be 05 41 97 be be 8f 6e bf 00 fb 92 bd
       -0.22719318 -0.29541793 -0.93188083 -0.07176781
0001f0 ea c1 5d 3e 68 90 c1 3d f6 3c 9e bd b8 4b a3 3e
       0.21656004 0.094513714 -0.07726471 0.31893706
000200 b4 9a 0b 3f 1b 6f 32 3e 44 2b 6b be 9f 83 6f be
       0.54532933 0.17425196 -0.22965723 -0.23390053
000210 1e 54 a9 be 64 b8 b0 3e 07 b4 be 3c c0 e3 29 be
       -0.3307199 0.3451568 0.023279203 -0.16590786
000220 01 61 a7 3b b8 d7 0e be 4e f2 1b be 2d 4b 29 be
       0.0051079993 -0.13949478 -0.1522915 -0.16532584
000230 27 9e 16 3f d3 b0 0d bf 81 cd d0 bd 86 e4 17 bf
       0.5883507 -0.5534794 -0.10195447 -0.59333074
000240 75 51 39 3e fd 05 ea be cb 3e b0 be 47 86 d1 3e
       0.1809748 -0.45707694 -0.34422907 0.40922758
000250 c5 d2 9f 3e b5 c7 d6 3d c9 ec 20 be 16 4a b8 be
       0.31215492 0.1048731 -0.15715326 -0.35994023
000260 4d 6c 0c be 4d 39 80 3e 2e 85 1a 3f 8c f1 8f 3e
       -0.13713188 0.25043717 0.60359466 0.28113973
000270 9b 5c c4 3d aa d1 8b 3e 63 ab 20 bf 4c f9 dc be
       0.095879756 0.27308398 -0.62761515 -0.43158948
000280 78 60 ce be 2f 62 53 3e 53 35 7c 3d ff 2b 91 3e
       -0.40307975 0.20642923 0.06157429 0.2835388
000290 40 9d f1 bd e9 27 a3 be 20 a4 77 be 7e 0a 40 3e
       -0.11797571 -0.31866387 -0.24183702 0.18754002
0002a0 fb c9 0c be a0 92 e1 be b3 28 dc bc 51 e0 43 3c
       -0.13748924 -0.44057178 -0.026874876 0.011955337
0002b0 67 81 1d 3b e8 c3 6c 3e 66 11 2f 3f 23 b9 85 3e
       0.0024033429 0.23121607 0.6838592 0.2611781
0002c0 cc 68 1c 3e 10 b0 04 3f 97 f9 50 3f b6 bc ce be
       0.15274352 0.5183115 0.81630844 -0.4037835
0002d0 1d c9 40 3e 34 d5 7f 3e f7 f2 67 be 3b 3b e3 be
       0.18826719 0.24983674 -0.22651277 -0.44381127
0002e0 db 34 b6 be 63 f5 b9 3e 67 3f a2 bd d1 59 11 bf
       -0.355872 0.36320028 -0.07922249 -0.56777674
0002f0 87 5d 5f bd cf 76 bf 3c 8f 9f 14 3e 57 14 00 bf
       -0.054532554 0.023372082 0.14513992 -0.50031036
000300 23 6e 3c bf ce bb 98 3e 60 67 29 3e 76 88 b5 be
       -0.73605555 0.29830784 0.1654334 -0.35455674
000310 18 fd 95 3e 7a ce ee 3e 39 3b fe 3d 18 39 f6 3b
       0.29294658 0.46641904 0.124136396 0.0075141303
000320 26 0a 2f bc bd 75 ac be af fe b1 3e 46 20 9e 3e
       -0.010683572 -0.33683577 0.3476462 0.30883998
000330 ea f0 3b bf a1 1d 48 3e 45 f9 da bc 09 82 5f 3e
       -0.7341448 0.19542553 -0.02673019 0.21826948
000340 b2 e4 c5 bd 1e 30 34 bf 42 e1 0e 3e e1 f6 35 3e
       -0.09662761 -0.7038592 0.13953117 0.17769958
000350 e2 3f 62 be fa 3a 01 be 00 67 c8 be 86 cb af be
       -0.22094682 -0.12620154 -0.39141083 -0.34334964
000360 d2 c8 10 3f 0f 38 34 bf 88 79 a9 be 59 af f0 bc
       0.5655643 -0.7039804 -0.33100533 -0.029380487
000370 ed d2 07 bf 33 0d 28 be 09 aa 2a 3d 4a 6d 14 bf
       -0.5305622 -0.16411285 0.041666064 -0.5797926
000380 b0 8f 98 3e c3 6e de be 07 33 8b be e7 c3 9a be
       0.29797125 -0.4344388 -0.27187368 -0.30227587
000390 cb 2e 59 3f ec 47 83 be fc 67 93 3c 66 18 de 3d
       0.84837025 -0.2564081 0.01799392 0.108444974
0003a0 ff 8d 1c 3f 33 55 3d be db 2b 35 be b8 fd 0c bd
       0.6115417 -0.18489532 -0.17692511 -0.034421653
0003b0 e7 5c 9c 3d ce cb 87 3e 14 9a 68 3e 1d c7 1c bd
       0.07634907 0.26522678 0.22715026 -0.038275827
0003c0 28 d3 dd be 21 00 f8 bd f1 52 17 be 57 c0 87 be
       -0.43325162 -0.121093996 -0.14777733 -0.2651393
0003d0 7d 82 3f 3e 74 54 6e 3e 09 4a d6 3d a9 cb 45 be
       0.18702121 0.23274404 0.1046334 -0.19315971
0003e0 a6 e2 2b 3c ee c1 6a be 92 15 fc be 8c 7d e2 3d
       0.010491049 -0.22925541 -0.49235207 0.110591024
0003f0 7f b5 0a 3d bc 3f 45 bd 87 01 9d 3d 94 49 bd be
       0.033864494 -0.048156485 0.07666307 -0.36970198

network_body._body_endoder.seq_layers.0.bias f4 [128]
000000 c2 dd bc bb b0 b3 0c 3c d5 26 6c 3c 64 e0 80 3c
       -0.0057637403 0.008587763 0.014413555 0.015731998
000010 80 a6 b2 39 dd 79 9a 3a db 37 75 bb 45 2b ab bb
       0.00034074858 0.0011785586 -0.0037417326 -0.005223664
000020 29 b1 23 bc 56 73 a2 bb 97 27 0c bc 8e 44 91 bc
       -0.009990969 -0.004957597 -0.008554361 -0.017732885
000030 17 71 e8 bb 36 6d 69 ba 4f e8 c6 3c df e0 ce 3b
       -0.0070935595 -0.00089045183 0.024280695 0.006313428
000040 19 5d bb 3b a1 85 86 b9 ed fc 8d 3c 85 76 71 bc
       0.005717885 -0.00025658033 0.017332518 -0.01473773
000050 a2 39 72 3c db 39 35 3b 05 81 c0 3b 99 ba e4 3c
       0.014784249 0.0027652893 0.0058747553 0.027921008
000060 b7 9c d8 3a 83 29 37 bc 57 af 9a bc b1 b8 10 bc
       0.0016526197 -0.011179331 -0.018882437 -0.008833096
000070 96 10 0f bc 91 90 b3 b9 8e ed 60 bd 4e fe b6 3b
       -0.008731982 -0.0003424925 -0.05491405 0.0055845147
000080 c9 0b 2e bc fd 22 ca 3b ad 21 ac bb 0f 16 9f 39
       -0.010622927 0.0061687217 -0.005253038 0.00030343278
000090 22 d8 18 bb 94 f5 20 3d 0e 47 84 3b c5 33 54 bc
       -0.0023322185 0.0392967 0.0040367907 -0.012951796
0000a0 a0 c0 d3 3b a5 3f 14 3d 80 bc 19 bc 57 73 8f 3b
       0.0064621717 0.03619351 -0.009383321 0.0043777633
0000b0 9f e3 0c bc 15 68 50 bb 7e dd 81 3b 4b 12 18 bb
       -0.008599191 -0.003180032 0.0039631715 -0.0023204263
0000c0 31 ac 31 3d 36 65 4e 3c f8 77 dc bb 61 dc 83 bb
       0.043377105 0.012597373 -0.0067281686 -0.004024074
0000d0 75 89 98 3b 38 3e 76 bb 6f 11 66 bc 09 52 09 ba
       0.004655058 -0.0037573706 -0.014042242 -0.00052383594
0000e0 a5 54 9d ba ce 01 1a bd 60 ef de 3b a2 de 20 bc
       -0.0012003375 -0.037599377 0.006803438 -0.009818705
0000f0 07 03 3d bb 5e 6c a9 bb 04 d8 f0 3b 0d 1f 7b bc
       -0.0028840916 -0.005170389 0.00734997 -0.015327227
000100 5a 79 a4 bb 36 c4 df 3b 19 87 73 bb 3d f7 33 3b
       -0.005019349 0.00682881 -0.0037159382 0.0027460598
000110 5d 10 8f bc a8 50 9d bc 68 38 12 bc df 00 61 bc
       -0.017463857 -0.019203499 -0.008924581 -0.013733118
000120 61 9e 18 bb fa be 4a 3c 45 bc 90 3b 62 3b ae bc
       -0.002328776 0.012374634 0.0044169747 -0.02126855
000130 c3 f7 03 3d 44 d4 11 3d 9e 1b 6a bb d6 40 ab 3c
       0.032218706 0.035602823 -0.0035722028 0.02090494
000140 6b ed eb 3a 45 86 61 bb 28 85 6e 3d 75 7e d4 3c
       0.0017999833 -0.0034412306 0.058232456 0.025939206
000150 94 d4 17 bb d6 58 17 3d 36 88 f7 ba e2 8c b7 3a
       -0.0023167478 0.036949955 -0.0018885199 0.0014003778
000160 65 90 93 3b b0 44 5f 3b f6 51 ba 39 7f ba 80 3b
       0.004503297 0.003406804 0.0003553775 0.003928482
000170 b4 47 05 3c 5a 29 06 3c 89 05 0c 3c b6 d2 ca 3b
       0.008134771 0.00818857 0.008546242 0.0061896695
000180 25 6c 3e bc 07 c9 88 3c f0 d1 31 bc cb f2 aa ba
       -0.011622463 0.01669742 -0.010853276 -0.0013042329
000190 6b c1 0f 3c d0 bb 6b 3c ab a8 63 39 41 26 6d bc
       0.008774142 0.01438804 0.0002171124 -0.0144744525
0001a0 95 d2 a8 3b cb ca 9a 39 f7 ab 70 bc 91 59 0f bc
       0.0051520565 0.00029524261 -0.014689437 -0.008749382
0001b0 38 2c 9c bc bf 18 88 bc 9a f8 a9 3a 57 11 45 3c
       -0.019064054 -0.016613362 0.0012967766 0.01202806
0001c0 64 9e ee bb 48 ba 82 bc b7 ca f3 3b 28 c7 0b bb
       -0.007282065 -0.015957966 0.007439937 -0.0021328423
0001d0 fe 6d 46 3c 0a b1 40 3c 00 47 73 3b e9 ac a9 bb
       0.012111185 0.011760959 0.0037121177 -0.005178083
0001e0 c8 15 e5 3c 2d 8c ad ba 71 c5 61 3c ab 49 72 bc
       0.027964488 -0.0013240628 0.013779984 -0.014788072
0001f0 c0 bb 9f bc 63 0d b4 bb 72 19 ce 3b 96 1b e7 3a
       -0.019498706 -0.00549476 0.0062896544 0.0017632123

network_body._body_endoder.seq_layers.2.weight f4 [128, 128]
000000 7d b1 02 be 71 02 31 3e ff f9 15 3d f4 27 1a be
       -0.12763019 0.17286088 0.036615368 -0.15054303
000010 8b 49 b0 bd 12 4b a5 bb 7f d7 94 3d c3 84 c5 bd
       -0.08607777 -0.0050443495 0.07267665 -0.09644463
000020 80 c5 83 bc f5 86 6a 3e 1e 7e 9b bd c4 70 4c bd
       -0.016085386 0.22903045 -0.07592414 -0.04991223
000030 ec c5 fb bc 4d 39 32 3d 55 05 5a bc 0e 7f eb 3c
       -0.030734025 0.043511678 -0.013306935 0.028747108
000040 8a 23 2a 3e a0 83 d6 ba eb 71 98 bd 43 a5 2a be
       0.1661512 -0.0016366132 -0.07443603 -0.16664605
000050 36 81 88 3d 5b f0 06 3d ba ab ba bd 88 da 69 bc
       0.0666527 0.032944065 -0.091147855 -0.014273293
000060 ea f0 3f be f0 a7 10 be c3 32 24 3e 5b 91 c4 bd
       -0.18744245 -0.14126563 0.16034989 -0.09598037
000070 73 1b ab 3c 5e f7 20 3e 51 f4 c1 bc a0 5d 8e 3c
       0.020887112 0.15719363 -0.02367607 0.017378628
000080 1d 00 40 bd 2f dc ff 3d c2 db bc 3d b2 18 25 ba
       -0.046875108 0.124931686 0.09221603 -0.00062979304
000090 0e 31 20 3d b5 58 1a 3d 07 1d b7 3d f7 33 1f bd
       0.039109282 0.037682254 0.089410834 -0.038867917
0000a0 a8 cb 7e bd 23 97 e2 bd 66 e3 a5 bd 98 41 85 bd
       -0.06220594 -0.11063983 -0.081000134 -0.06506652
0000b0 56 76 0b be 43 89 70 bd 02 54 17 bc fc 97 09 3d
       -0.1361936 -0.058724653 -0.009236338 0.03359221
0000c0 1f f6 13 3d 3b 3c 30 be 8d 41 ee bc 85 0a 65 3d
       0.03612339 -0.17210476 -0.029083991 0.055918235
0000d0 09 cd 55 bd e9 ad 27 bc 7c 83 3e bd cd f5 14 3e
       -0.05219749 -0.0102343345 -0.046512112 0.1454689
0000e0 c1 35 af bd b0 55 d0 3c bf 4f 09 3e f6 ea 39 3e
       -0.085551746 0.025431484 0.13409327 0.18156037
0000f0 55 00 be bb 0b 05 d4 bd 01 83 bc bd 08 6e ef bb
       -0.0057983794 -0.10352524 -0.092046745 -0.007306818
000100 09 78 ce bd 40 e0 c1 3d d2 e1 5d bc 6a 36 4e 3c
       -0.10081489 0.094666004 -0.013542609 0.0125862155
000110 ea f1 7b bc 61 5d 64 bd 1e 69 1e 3e ae eb ed bd
       -0.015377501 -0.055753116 0.15469787 -0.11617218
000120 ef cd 8e 3d 30 c7 c5 bd a8 ee 70 3d 6a ba 74 bd
       0.069728725 -0.096571326 0.05882135 -0.05974809
000130 2d fa 53 bc e7 c5 8b bd 87 39 2e bc 5e 2f 82 bd
       -0.0129380645 -0.06824856 -0.010633833 -0.06356691
000140 cc 94 16 3d d4 87 10 bd b9 02 8f 3d fe 42 59 3d
       0.036762998 -0.035285786 0.06982941 0.053042404
000150 ad 75 56 bd 51 06 7f 3d 51 1a cf 3d e9 57 15 bd
       -0.052358318 0.062261883 0.10112441 -0.03646079
000160 fc 30 64 3b 13 88 aa 3c f4 d5 e1 3c 78 0d c3 bb
       0.0034819236 0.020816838 0.027567841 -0.0059525333
000170 91 75 4f be 94 bd 3f bd 7d 9a 97 3d 9b bf bb bc
       -0.20259692 -0.046811655 0.07402513 -0.022918513
000180 67 4f c4 3d c5 45 a8 bd 4d fd a6 3d 85 35 3d 3d
       0.09585457 -0.082164325 0.08153782 0.04619362
000190 fd e0 6c bc b0 d3 30 3c c3 6c 14 3e d0 c4 1e 3e
       -0.014457938 0.010792658 0.14494614 0.15504766
0001a0 03 eb 24 be ef bf 74 3d 4a a1 27 bc d5 f1 5b be
       -0.16105275 0.059753355 -0.010231325 -0.2147897
0001b0 89 e8 aa bc 23 a7 6d be 06 d0 64 3c 6a ec ac 3d
       -0.020862835 -0.23208289 0.013965612 0.0844353
0001c0 84 8a 31 3c a7 05 df bb 5f 2e 04 3d 0c 9a 44 bd
       0.010836247 -0.0068060937 0.032270785 -0.047998473
0001d0 59 ed ed bc 15 e7 d7 bc e4 a8 5f bd df 48 b0 3d
       -0.02904384 -0.026355306 -0.054604426 0.08607649
0001e0 53 aa fc bc 06 b0 99 3d 66 5c 4a bd 57 39 a1 bd
       -0.030842936 0.07504277 -0.049404524 -0.07872265
0001f0 64 db 95 bd 60 c6 5d 3d f1 a3 94 3d ee 15 42 be
       -0.07317236 0.054144263 0.07257832 -0.18953678
000200 8e 8a ac bd c8 e5 2b 3d 40 86 18 3e 1a f5 d8 3c
       -0.08424865 0.041967183 0.14894962 0.026484061
000210 9c cd 67 bd 91 8c c0 bb a5 24 26 bd ed 0f 57 bd
       -0.05659257 -0.005876132 -0.04056229 -0.052505422
000220 dc 4c b0 3d f3 60 e0 bc 67 55 64 bd 94 79 e1 3c
       0.0860841 -0.027389979 -0.05574551 0.027523793
000230 86 9a 2b be f3 d1 80 bd 01 5b c8 3d a8 d2 b5 bd
       -0.16758165 -0.06290045 0.097829826 -0.0887807
000240 5d 47 1b 3c 10 25 4a 3d fd 9c 86 3d b3 e7 18 bd
       0.009477464 0.04935175 0.06572912 -0.03733034
000250 61 f2 e8 3c 0e 5a c3 3c 98 b3 a7 3d 03 0c 91 3d
       0.028435888 0.023846652 0.08188552 0.07082369
000260 27 c0 81 be 7a 73 30 bd 40 d9 0f bd 95 6a b6 3c
       -0.25341913 -0.043078877 -0.035119295 0.02226762
000270 4d ca 38 3d 3f 81 b1 3b 16 72 1f 3e 53 3d bf bd
       0.045114804 0.0054170187 0.15570864 -0.093378685
000280 da 5b 90 bd 42 c1 01 3c cd 30 e3 3d 7f 22 07 be
       -0.07048769 0.007919611 0.110932924 -0.13196753
000290 c5 91 0b 3d 61 d3 80 bd a1 97 aa ba 2b 3c c4 bd
       0.034074564 -0.06290317 -0.001301516 -0.09581789
0002a0 03 a3 ee bc 88 75 a4 3d cf ec dc bd 91 d0 ac 3d
       -0.029130464 0.0803023 -0.10787355 0.084382184
0002b0 61 be b1 3c 31 51 ca bd 65 91 f2 3d 01 11 34 bd
       0.021697225 -0.09878767 0.11844138 -0.04396153
0002c0 79 b0 84 3d 2f 4e 3e bc 95 b0 51 bc 44 c6 22 be
       0.06478972 -0.01161532 -0.012798448 -0.15895945
0002d0 bd 72 99 3d 69 df 40 3c fc 10 e1 bd 6a 6f aa 3d
       0.07492588 0.011772015 -0.10989568 0.08322032
0002e0 83 da 94 bc cf be 02 3e bb 86 41 3b fd c8 16 3b
       -0.0181706 0.127681 0.0029529769 0.0023007982
0002f0 dd 69 6f 3d ee aa 8b 3c 4d 33 af 3b 31 eb ff 3c
       0.05845057 0.017049279 0.0053466917 0.031240078
000300 5f fb 86 bd 71 30 20 3d 87 23 16 bd 6b c8 b6 bd
       -0.06590914 0.039108697 -0.036654975 -0.089249454
000310 b0 96 53 3d 84 a2 85 3d 26 a6 10 bd 97 01 f6 bc
       0.05165738 0.06525138 -0.0353147 -0.030030055
000320 df 26 2e 3d 57 f7 09 3e d8 18 cb bc 0c 5d 98 bd
       0.04251754 0.13473259 -0.02479212 -0.07439622
000330 05 dc d0 3c dc b5 76 3d bf e6 6d 3d 94 36 27 bd
       0.025495538 0.06023203 0.058081385 -0.040823534
000340 49 f6 58 3d b8 71 ed bd 03 70 5e bd 27 c2 48 3e
       0.05296925 -0.11593956 -0.05430604 0.19605313
000350 38 dd 18 bd a7 9f 04 bd 58 3b 3e bd 62 85 32 be
       -0.037320346 -0.03237882 -0.046443313 -0.17433694
000360 96 a2 4b bc 0b c3 2e 3d b6 2e 87 bc a2 83 60 3d
       -0.0124289 0.042666476 -0.016501766 0.054813035
000370 98 3a 79 bc 40 db 89 3c 80 50 04 3d 0a 45 94 bd
       -0.015211724 0.01682818 0.032303333 -0.07239731
000380 62 11 be bc ea 18 a5 bd 75 d5 ab bd 30 e9 be bd
       -0.023201648 -0.080613926 -0.08390323 -0.09321821
000390 7e 0b 54 bd 22 3e 58 bd fc db 76 3c 2d 53 63 3d
       -0.051768772 -0.05279363 0.015067097 0.055499244
0003a0 5d 7d f2 bc 3e 1f ff 3c fb 22 34 bd df a1 75 be
       -0.029600793 0.031142827 -0.043978672 -0.2398753
0003b0 3d f4 75 bd fd f7 0e 3e e2 c5 a4 bb 7a d4 74 bd
       -0.060047377 0.13961788 -0.0050284723 -0.059772946
0003c0 96 a6 8a bd f3 d7 2d 3e 0a a9 30 be 42 55 23 3b
       -0.06770055 0.1697691 -0.17251983 0.0024922644
0003d0 a5 ad 36 3e ce fc 1d be 5d 30 b6 bd 1b 31 87 3d
       0.17839678 -0.15428469 -0.08895943 0.06601163
0003e0 23 da 3b 3c 2f 96 03 bd eb 36 2b bd 5c 58 e1 3c
       0.011465582 -0.032125648 -0.04180042 0.027507953
0003f0 42 0d 4b 3e d3 07 45 3e 45 65 37 3d f7 cf 27 3e
       0.19829276 0.19241266 0.044774313 0.16387926

network_body._body_endoder.seq_layers.2.bias f4 [128]
000000 0e d4 9d 3b f9 2a 2e 3b f1 6d 4e bb 11 b5 cf 3a
       0.0048165387 0.0026575907 -0.0031498636 0.0015846809
000010 8f cd 2f b9 a8 ad 04 bc 16 06 b1 bb 0e 34 be bb
       -0.00016765877 -0.0080980435 -0.005402337 -0.0058045452
000020 10 20 29 3c 05 88 af 3b 91 fe 3c bc f8 a4 53 3b
       0.010322586 0.005356791 -0.011535303 0.0032294374
000030 30 57 1a bc 22 29 ab bb 61 5e 9a 3b e7 2e b2 3b
       -0.009420201 -0.0052234093 0.004710958 0.00543772
000040 b2 1f 5c 3c 47 ea b2 3b 70 3b b8 bb ce 7c 5e bb
       0.013435291 0.005460057 -0.00562232 -0.00339489
000050 59 bc a6 ba 37 1e 0e bc 9c 33 cc bb ce 4b 2b bc
       -0.0012720927 -0.008674196 -0.0062317383 -0.010455085
000060 18 d0 85 bc 22 1c f1 bb 0c c1 4c 3a 8a d1 fb ba
       -0.016334578 -0.00735809 0.00078107486 -0.0019212228
000070 34 27 88 3c 5d 62 47 bb 04 52 5c bc 94 40 18 3b
       0.016620256 -0.003042362 -0.013447288 0.002323185
000080 4a 00 a1 3b 8c c6 1a 3c a8 c2 40 bb e1 c7 47 bb
       0.0049133645 0.009446751 -0.00294129 -0.0030484127
000090 af 91 c5 3b 84 5a 04 bc 50 98 49 3b 48 75 24 ba
       0.0060293297 -0.008078221 0.0030760951 -0.000627358
0000a0 1b 06 e8 b9 99 f0 0b bc 8c 74 63 bb 8b 38 30 bc
       -0.00044255037 -0.00854125 -0.0034706919 -0.010755668
0000b0 e1 7b 30 bc 71 89 ef 3b 99 7b f8 3b e1 2c f8 3a
       -0.0107717225 0.0073100855 0.0075830934 0.0018934273
0000c0 66 df e1 bb 1c a2 6e ba 81 f1 ce 3b 59 74 eb 3b
       -0.0068930862 -0.00091031357 0.0063154106 0.0071855006
0000d0 41 0c 68 3b 18 ff f3 3a 47 bd 29 bc e1 50 8e 3b
       0.0035407695 0.0018615453 -0.010360069 0.0043431376
0000e0 a0 bb e8 bb b8 d8 ba 3b 77 a5 e3 ba 60 99 ae bc
       -0.007102445 0.0057021044 -0.0017368038 -0.02131337
0000f0 75 4e 03 3c 84 27 2f 3c 1a 0f c3 3b 48 43 54 bc
       0.008014311 0.010690574 0.005952728 -0.012955494
000100 a7 93 9e 3b d2 3d bf bb 7e 47 02 3c e5 33 28 bb
       0.004839379 -0.005836227 0.007951615 -0.0025665697
000110 d2 2c 5a 3b c4 2d 88 3a 17 29 f6 bb 4b 50 da 3b
       0.0033290875 0.0010389616 -0.0075122225 0.0066624037
000120 ed 13 02 ba c5 ab ad bb bf 7e 74 3b 82 28 02 bc
       -0.00049620756 -0.0053000175 0.0037306992 -0.007944228
000130 44 59 50 bc fc 06 98 3b 79 93 9f 3b 9a 83 62 3c
       -0.012716595 0.0046395045 0.004869875 0.013825322
000140 e6 56 98 bc 6a ab b3 ba c0 8a f9 ba 9a 5f 6c b9
       -0.018596124 -0.0013707702 -0.0019038543 -0.00022542328
000150 18 eb 2f 3b 2c c5 d6 bb df bf d7 bb be 94 d8 3b
       0.0026843008 -0.0065542664 -0.006584152 0.0066095283
000160 a4 be 5a 3c e5 9b f8 3b ab 94 47 3b b0 a1 46 3b
       0.013351116 0.0075869435 0.0030453603 0.0030308776
000170 e7 cf b2 bb a2 19 52 bc 52 41 34 3c ea 4a 9a 3b
       -0.005456913 -0.012823494 0.011001902 0.0047086375
000180 32 64 b9 3a 30 a7 38 3a 22 ac e0 bb 24 1f 1b bc
       0.001414424 0.0007043956 -0.0068564573 -0.009467874
000190 74 a6 68 3c ec e2 1a bc 0f 64 0d bc fa 77 4e 3c
       0.014199842 -0.009453516 -0.008629813 0.012601847
0001a0 80 5f 84 bc ae af 33 3c 80 4a ca b9 e1 3c ad bb
       -0.01615882 0.010967178 -0.0003858395 -0.0052867983
0001b0 a2 38 0e 3c c3 3c 2c ba b6 4b 30 bc 4b 5f 70 bb
       0.0086804945 -0.00065703335 -0.010760238 -0.0036677893
0001c0 5e d8 ec 3a d8 a8 c4 ba 78 bb b8 bb 81 de 41 bc
       0.0018069854 -0.0015003933 -0.0056375824 -0.011832834
0001d0 20 c8 b6 38 0e 6e 30 3c 49 ba 05 3b 0f 82 52 3c
       8.7157125e-05 0.010768427 0.0020405224 0.012848391
0001e0 1f af 86 3c 92 4f b9 39 dc 05 b5 3b 22 70 98 3c
       0.016440926 0.00035345234 0.00552438 0.018608157
0001f0 f9 cf 33 3c cc d9 45 3b 1a 47 07 bc 3b 49 21 bc
       0.0109748775 0.0030189632 -0.008256698 -0.00984412

action_model._discrete_distribution.branches.0.weight f4 [4, 128]
000000 ca f1 3f bb a0 3d c1 bc 3e 4e f0 3c 4d ba a7 3c
       -0.0029288405 -0.023588955 0.029334184 0.020474577
000010 fb 17 49 3c b4 c2 a4 3c 92 06 ff 3c 18 37 a9 3c
       0.012273784 0.020112373 0.031131063 0.020656154
000020 fe 9e 13 bd 10 e0 d3 3c 4c a6 55 3d d1 4e b4 3c
       -0.0360403 0.025863677 0.052160546 0.022010239
000030 3e d9 ae 3c a0 b3 98 3a 31 6e 0b bb e1 5a 8d bc
       0.021343824 0.0011650212 -0.0021275396 -0.017255249
000040 b1 88 2e 3c 54 ea 8d 3b 03 76 e7 3c 8a 75 08 bd
       0.010652707 0.0043309126 0.028254515 -0.03331522
000050 aa 4d c2 bb 5f c9 22 3d f7 eb 2e bb 1a 14 db 3b
       -0.0059296684 0.039742824 -0.002669094 0.006685746
000060 a5 d9 5b 3c 70 94 00 bc a7 50 dc bb 92 78 b6 bc
       0.01341859 -0.00784789 -0.0067234817 -0.02227429
000070 53 7e ce bc 3f 1b ab bc e9 2f 8b 3c 05 17 7c 3c
       -0.02520672 -0.020887015 0.016990619 0.015386348
000080 e3 0a d3 3b 10 87 10 bc 75 0a 1b bc 23 25 7b 3b
       0.006440507 -0.008821264 -0.009462942 0.0038321696
000090 48 c7 e2 bc 5b cf a2 bc bc 26 ee bb e8 70 0c bd
       -0.027682915 -0.019874265 -0.007267801 -0.034287363
0000a0 8e db 9e 3c f5 24 13 bd b2 21 82 bc 3c 7b bd bc
       0.019391801 -0.035923917 -0.015885208 -0.023130052
0000b0 ed eb 0d bd 81 9f a1 3c e5 2f e1 bc eb 4e 09 bd
       -0.034648824 0.019729378 -0.027488658 -0.033522528
0000c0 31 be dd 3b 78 b9 8b bc d0 eb de bb 40 3b b1 bc
       0.0067670573 -0.017056212 -0.0068030134 -0.021634698
0000d0 14 37 01 3d ca e2 df 3c ed e0 51 bc 00 65 5e bb
       0.031546667 0.027329821 -0.012809974 -0.0033934712
0000e0 c2 8c 1b 3c 00 09 2c 3d 9a fd b4 3c 33 d5 48 bc
       0.0094940085 0.04200077 0.022093583 -0.012257862
0000f0 b8 87 e9 3b c3 57 aa 3c 31 ba 30 3d 2e 35 e0 3c
       0.0071267746 0.020793801 0.043146316 0.027369108
000100 13 63 84 3c b8 51 a4 3c b2 8a 13 3d 15 89 b2 bb
       0.016160524 0.020058498 0.036020942 -0.0054484704
000110 c4 e9 12 bd 86 60 1b 3d f5 2c cc bc 0a 96 ab bc
       -0.035867468 0.03793385 -0.024923781 -0.020945568
000120 ea b8 c4 bb 47 bf a7 bc 0c 0b 89 3c a6 c6 7f 3c
       -0.006003489 -0.02047695 0.0167289 0.015611326
000130 73 39 b1 3c f1 b0 c5 bb e4 61 2a 3d a1 7d 4f bc
       0.02163384 -0.006033056 0.041597262 -0.01266423
000140 61 b7 eb bb 3d 55 a1 bc 45 af 08 3c 7d ed 58 3c
       -0.0071934913 -0.019693965 0.008342569 0.013240215
000150 fa bc b2 3c 09 73 73 3b 7e 95 56 3c 5a b3 27 bb
       0.021818627 0.0037147424 0.013097165 -0.002558908
000160 52 ee 9d bb 49 bf cb 3b 0d cd 40 3c 48 98 a3 bc
       -0.0048196698 0.0062178713 0.011767638 -0.019970074
000170 47 a8 eb 3c 33 94 e8 bc f6 7a a0 bb c6 2c 12 bd
       0.028766764 -0.02839098 -0.0048974706 -0.03568723
000180 68 9b 78 3c 0c f8 67 bc e1 8e fb 3c 4b a8 92 3b
       0.0151737705 -0.01415826 0.030707778 0.0044756285
000190 b1 54 d6 3b b6 97 2d 3d 37 fa d2 bc 2c d2 92 bc
       0.0065408577 0.04238101 -0.025754077 -0.017922483
0001a0 d0 b8 d5 3c d7 9e 9c 3c 24 f7 88 3c c4 5a 57 bc
       0.026089102 0.01911871 0.016719408 -0.013144199
0001b0 b1 3d d2 bc e3 2f 48 bc d3 cf df bc ab 53 80 3c
       -0.025664182 -0.012218448 -0.027320778 0.015664896
0001c0 81 41 9c 3c 25 93 cb bc 6d f2 08 3d 54 f8 b1 3c
       0.019074203 -0.024850437 0.03343432 0.021724857
0001d0 cb a5 3b bc 86 e7 c5 3c 55 12 55 3c 03 25 0c 3c
       -0.011453102 0.02415825 0.013004859 0.008553746
0001e0 ce 86 1a 3a 84 61 db bc 04 d6 f3 bc fb b7 9d 3c
       0.0005894721 -0.026779898 -0.029765137 0.019252768
0001f0 00 70 53 bc 36 f9 c8 3c cc 74 bb bc e2 df 4f bc
       -0.012905121 0.024532896 -0.022882842 -0.012687655
000200 e1 aa 4a bc b9 c8 1c bc f6 0f 33 bc 55 d3 85 3d
       -0.012369842 -0.00956934 -0.010929098 0.06534449
000210 90 a1 6f bb 02 74 d5 bc 61 aa 9c bb 24 39 16 bb
       -0.0036564805 -0.026056293 -0.004781053 -0.0022922242
000220 45 39 04 bc 01 56 4c bc b3 64 da 3c 85 c3 e8 3a
       -0.008070295 -0.012471677 0.026659345 0.0017758465
000230 9c bf 27 3c 36 95 3e 3c 27 25 26 3c 11 d2 0d bc
       0.010238554 0.011632254 0.010140694 -0.008656041
000240 62 e8 64 3d 40 98 b0 3c 61 1e b5 bb f3 22 1c bb
       0.05588568 0.021556973 -0.005527303 -0.0023824542
000250 61 d2 d6 bb 59 2c 1f 3c f3 50 03 bc c6 34 0b bc
       -0.006555841 0.009715163 -0.008014905 -0.008496469
000260 aa d4 8d bc bb 40 2b bc 0d ea 4f bc 6b 67 54 bc
       -0.01731332 -0.010452445 -0.012690079 -0.01296411
000270 36 fb 72 bd c8 c5 1e 3c d5 d7 f7 bc ae f9 06 bc
       -0.059321605 0.009690709 -0.030254284 -0.008238239
000280 6c 87 3c bb 16 c0 f2 bb 4b 1f bd bc 03 fc 67 3c
       -0.0028767241 -0.0074081523 -0.02308621 0.014159205
000290 63 e6 71 bb e3 b4 ba 3b dc 8b 43 bc c9 68 44 bc
       -0.0036911003 0.005697833 -0.011935201 -0.011987873
0002a0 d5 67 4f 3c 5a 2f 01 3d fa 91 ef 3b 2d 1e 8d 3a
       0.012659033 0.0315393 0.007311103 0.0010766439
0002b0 a3 1a 22 bb f3 38 44 bc b6 98 06 3c 78 58 32 3b
       -0.0024735115 -0.011976468 0.00821512 0.0027213376
0002c0 c3 9e d2 3a 4a 39 c4 3c e5 e8 5b bd 23 87 3b bc
       0.0016069043 0.023953099 -0.053688902 -0.011445793
0002d0 1c b0 ee 3b c8 0f 84 3a 27 ab 2f 3a af 0d 5c bc
       0.0072841775 0.0010075504 0.0006701224 -0.013430997
0002e0 d0 34 9c bc 98 79 86 bb 56 51 e9 3b fa 92 13 3b
       -0.019068152 -0.0041038506 0.0071202917 0.0022518025
0002f0 fa 1c bc bc 42 c7 c0 bc 6f eb be bc 96 20 91 bc
       -0.022963036 -0.023532514 -0.023305623 -0.017715733
000300 3b 68 3e bc 7e 9d 5d 3b 26 b0 54 bc 25 18 82 3b
       -0.01162153 0.0033815796 -0.01298145 0.0039701634
000310 33 49 6c 3c 4f 59 5f 3b c4 db 13 3c 71 b0 57 3a
       0.014421749 0.0034080332 0.009024564 0.0008227891
000320 d9 c0 55 bc 7e a9 98 3b b5 9e c2 3b 71 b9 88 bb
       -0.013046467 0.004658877 0.0059393295 -0.004172497
000330 d4 b8 ce 3b 45 c9 83 3b c8 b0 4a bb 81 09 cb bb
       0.0063086543 0.004021796 -0.0030928124 -0.0061962013
000340 44 05 f0 bc 50 55 40 3c da 55 e0 bb 31 ed a4 3a
       -0.029299386 0.01173909 -0.006846172 0.0012582896
000350 5e 84 af 3d 2a d2 ce b9 78 55 d7 bc 10 63 af 3b
       0.08570169 -0.00039447966 -0.026285872 0.0053523853
000360 1e f3 a2 bb 60 51 82 bb 38 2c 84 bc d8 ef 81 bc
       -0.0049728295 -0.003976986 -0.016134366 -0.015861437
000370 e6 46 7c bc d5 10 73 3b 8b d6 bc 3b 49 e3 a5 3b
       -0.015397763 0.003708889 0.00576288 0.005062495
000380 78 7c ae ba 82 53 d4 3b 41 06 f4 3b a2 19 67 3d
       -0.0013312241 0.0064796815 0.0074470346 0.05642093
000390 c8 27 17 3d 76 cf 95 3c 46 4f 69 bb cf 5e 7b 3b
       0.036903173 0.018287402 -0.003560023 0.003835607
0003a0 a1 85 bf 3b cd 0a 45 bb 7d f9 95 bc d6 3a 87 bc
       0.005844787 -0.0030066252 -0.018307442 -0.016507547
0003b0 eb ca ff bc a5 c5 85 bc ed fc 81 bb 43 56 21 bd
       -0.031224689 -0.016329596 -0.0039669187 -0.039388906
0003c0 36 1f 87 3d 51 6e 25 bc 0d c6 a3 bc 80 5a bc bc
       0.0659775 -0.010097102 -0.019991899 -0.022992373
0003d0 ae 26 22 3d c1 9f db 3c c1 ac 41 3c 2f 5c 3e bc
       0.03958767 0.026809575 0.011820973 -0.011618658
0003e0 b7 4f 86 bb fd ec ea 3b 03 9b ce bc 21 de 98 3a
       -0.004098858 0.0071693645 -0.0252204 0.0011662879
0003f0 c7 3f b1 bb ec 74 3f 3c f9 90 a4 3c 33 b8 d2 bb
       -0.005409214 0.011685591 0.02008866 -0.0064306497

action_model._discrete_distribution.branches.0.bias f4 [4]
000000 9b 96 82 bc 2c 95 a8 39 31 f8 90 3c 18 19 a4 bc
       -0.015940955 0.000321546 0.017696472 -0.020031497

action_model._discrete_distribution.branches.1.weight f4 [1, 128]
000000 fd ee 55 ba 28 bc 7b bc d4 41 88 bc 57 37 3e bb
       -0.0008160917 -0.015364684 -0.016632952 -0.0029024684
000010 0f 6e ef 3a cb 52 8e 3a 7d 10 73 3b 94 bb 49 3a
       0.0018267053 0.0010858414 0.0037088685 0.0007695493
000020 82 33 59 3b 3d c3 5f bc f2 ef f1 ba 47 73 07 3c
       0.0033142273 -0.013657388 -0.001845835 0.00826723
000030 06 5a a6 3b 2e 81 c2 bb 2a 01 13 bc 33 37 44 3c
       0.0050766496 -0.0059358096 -0.0089724455 0.011976051
000040 d8 01 79 bb 4c 2e 08 bc 2e 97 aa 3b 3a 6c 6a bc
       -0.0037995484 -0.008311819 0.0052060103 -0.01430803
000050 e4 21 a2 38 05 33 0f 3c 59 88 b9 bc 39 43 cc 3a
       7.7310746e-05 0.008740191 -0.022648023 0.0015583999
000060 32 e1 f8 3b fe ee 89 39 0f 7b 18 bc 00 58 d2 3b
       0.0075952047 0.0002630874 -0.009306683 0.006419182
000070 fb 45 8b bb b7 3b 66 bb da da c8 ba 05 d7 5f bb
       -0.0042502857 -0.0035130808 -0.0015324012 -0.0034155261
000080 d5 41 8f 3a e2 a1 1b bb 5d 57 6c bc 98 21 db 3a
       0.0010929654 -0.0023747613 -0.014425126 0.0016718386
000090 88 15 52 3b ab 52 62 bb f3 3c d5 3b 37 41 43 3c
       0.003205629 -0.0034534137 0.00650751 0.011917404
0000a0 61 b1 83 3c ff 98 35 bc 07 54 7e 3c af 15 05 bb
       0.016075792 -0.01108384 0.015522963 -0.0020307114
0000b0 32 1c 1c bc 29 a6 33 bc 66 33 2a 3a c2 11 fd 3a
       -0.009528207 -0.010964909 0.00064926443 0.001930766
0000c0 43 bd 9e 3b b0 d7 1c 3b 0b da f7 3b 4b 02 2c 3c
       0.004844339 0.002393227 0.0075638345 0.010498594
0000d0 4d 92 01 bc 7a d6 a9 ba 65 e4 bc bb 28 e6 5d 3b
       -0.007908416 -0.0012957596 -0.0057645314 0.0033859108
0000e0 b3 03 00 bb c0 f5 80 bb 49 93 9d 3b 58 e9 67 ba
       -0.0019533455 -0.0039355457 0.0048088175 -0.00088467216
0000f0 ea 8a fc ba 72 f1 b7 3b f9 a7 37 3c 88 73 78 3b
       -0.0019267474 0.0056134993 0.011209481 0.003791066
000100 e9 00 2b bc 2a 3a 02 3b 61 05 a0 3c 67 a8 b0 bb
       -0.010437229 0.0019871094 0.019533815 -0.005391169
000110 da da 39 3b 47 d0 82 3b d5 50 66 bc 55 15 6a b9
       0.0028359205 0.0039921138 -0.014057358 -0.00022323926
000120 38 ca 2e 3c 38 63 10 bc 0d 31 a1 bb 10 e1 e1 bb
       0.01066833 -0.008812718 -0.0049191774 -0.0068932846
000130 e3 65 8f 3b dc e1 32 3c 6a ab 52 39 07 3f f7 ba
       0.0043761595 0.010918107 0.00020091017 -0.0018863388
000140 8b c9 a6 3b 3f 25 43 3c 7b c5 9d 3b 1b 84 7a 3c
       0.0050899438 0.011910736 0.0048148013 0.015290285
000150 e3 b1 39 3c 90 5a 57 bb 95 d6 80 3b fb 3d e3 bc
       0.011333915 -0.0032860376 0.00393183 -0.027739516
000160 6b 7e 04 bc 07 e3 d3 3b cc 9f 33 3c ee 9d a0 ba
       -0.008086781 0.0064662728 0.0109633915 -0.0012254098
000170 87 66 28 bc 0d 15 f0 3b 7b 56 37 bb 78 8d 54 3c
       -0.010278351 0.007326728 -0.002797513 0.012973182
000180 3b 25 b6 39 62 41 76 bb f2 c9 30 3c e8 b5 e3 bb
       0.00034741484 -0.0037575592 0.010790335 -0.006949175
000190 b8 56 8a 3a 7a e7 8d 39 57 2b cf b8 26 f3 14 3c
       0.0010554409 0.0002706608 -9.878602e-05 0.009091174
0001a0 c3 95 11 3c ea 59 51 3c 80 fc b2 3a ec 91 07 bb
       0.008885804 0.012777785 0.0013655573 -0.0020686341
0001b0 a3 4b e4 bb 57 cb 15 3c 5a 18 01 3c d4 f7 b8 bb
       -0.0069670244 0.009142718 0.007879341 -0.005644778
0001c0 a6 2e 2e 3c 20 7b 55 bb 98 5b ce bb cd 3a 2a bb
       0.010631239 -0.003257461 -0.00629754 -0.002597499
0001d0 7b 72 0b bc fb 7a 7a bb f5 d4 52 bb f4 7c c6 3b
       -0.008511181 -0.0038220275 -0.003217039 0.006057376
0001e0 69 e6 30 bc 95 5c 7e 3a e3 16 03 3b ce 4b c7 bb
       -0.010797122 0.0009703127 0.0020002655 -0.0060820347
0001f0 bf 60 a7 bb c5 64 c8 3b bc 67 22 3c 1f a4 0c bb
       -0.0051079686 0.0061155283 0.0099124275 -0.0021460128

onnx::LSTM_114 f4 [1, 512, 128]
000000 72 a5 f9 bc 66 08 00 bd 8d 8e fc bc 60 ba f1 3b
       -0.030474398 -0.03125801 -0.030829692 0.007376954
000010 4b 7b a4 3d c7 8c cd 3d c8 48 a7 bd d8 15 cb 3d
       0.08031329 0.10036617 -0.08168179 0.09916276
000020 1f 7e a0 3d 3a 97 c4 3d 08 1d 1d 3d 32 65 09 be
       0.07836556 0.09599157 0.038357764 -0.13417509
000030 d7 ea c1 bc 9e 34 72 3b 13 38 37 3d 66 56 19 3e
       -0.02367155 0.0036957632 0.04473121 0.14974365
000040 b3 e5 a2 3c 31 d1 76 bd ef b3 77 3c 0b b7 e9 3c
       0.01988492 -0.060258094 0.015118583 0.028529665
000050 01 6a 0d bc fe e7 58 bc d1 b9 de bb ee 3a 40 bd
       -0.00863123 -0.013238905 -0.0067970534 -0.0469312
000060 da 22 3c bb 9e 8b 0a 3e c8 e5 cc bc b2 a5 93 bc
       -0.0028707297 0.13529822 -0.025011912 -0.018023346
000070 91 d0 a3 bd a7 a7 ae 3d 1f 07 af 3d 0e b0 29 bd
       -0.07998765 0.08528071 0.0854628 -0.041427664
000080 09 26 9a 3d 99 54 83 3d 59 c7 07 3c a4 b0 0c be
       0.07526786 0.0641262 0.008287274 -0.13739258
000090 dc 31 09 bd 68 18 12 3d ef 25 09 bd 16 f2 06 bd
       -0.033494815 0.035667807 -0.033483442 -0.032945715
0000a0 0b c7 a5 3c ac 3b 07 be eb e0 83 bd 75 cf 11 3e
       0.020236513 -0.13206357 -0.06439384 0.14239295
0000b0 fa 90 42 bd 78 8f dc bd 52 25 3f bd 08 4c 93 3d
       -0.04750154 -0.10769552 -0.04666645 0.07192236
0000c0 1d 79 4b bd 2d f7 2a 3d 6a d2 09 be 96 e9 3b 3d
       -0.04967605 0.04173963 -0.13459173 0.04587706
0000d0 8f f6 f8 3d b5 d0 ed bd e7 6c 16 be 80 c1 8e bd
       0.12156402 -0.11612073 -0.1468998 -0.06970501
0000e0 01 7d d0 3c 38 b6 c1 bd 71 62 04 3e 32 e5 e6 3d
       0.025450232 -0.094585836 0.12928177 0.11274184
0000f0 73 c9 df 3d bb 6b ad bd 99 04 57 3d dd 1d bc 3d
       0.10927095 -0.084678136 0.05249462 0.091853835
000100 d4 11 9d 3d 95 01 04 be 88 70 e5 3d 38 be a3 bd
       0.07669416 -0.12891228 0.11203104 -0.07995266
000110 dd bf 15 3e 7e 34 d7 3b 34 e5 de bd 83 50 46 3d
       0.14623971 0.006567537 -0.10883561 0.048416626
000120 dc e6 1d 3d e3 d9 c7 3c 45 ee a3 bd 23 6d 7f bb
       0.038550243 0.024395889 -0.08004431 -0.0038974963
000130 fe 2a d7 3d 02 d0 80 3b c4 75 ea 3d 1e 3f 0c 3e
       0.10506247 0.0039310465 0.11448243 0.13695952
000140 d3 31 b5 3d ef 0d f8 3d c2 72 3d 3d 2f 59 0f 3d
       0.08847394 0.121120326 0.04625202 0.03499716
000150 1d b0 13 3d bb ef 38 bd 89 57 2e bd 65 22 39 bd
       0.036056627 -0.0451505 -0.04256395 -0.045198817
000160 53 ca 96 3c 36 1b 00 3e 95 e7 80 3d fd 21 39 bc
       0.018407023 0.1251038 0.06294171 -0.011299607
000170 be 05 02 3d 4e c9 e1 bc 81 04 1f be 97 9c 0c 3e
       0.031743757 -0.02756181 -0.15529062 0.1373161
000180 d3 c1 76 3d 53 f7 d8 bd f4 7b 95 bd cd af 99 3d
       0.06024344 -0.10594048 -0.07299033 0.075042345
000190 99 af cf bc 43 32 16 3e c2 db 81 3d 26 34 b1 3c
       -0.025352286 0.14667611 0.063407436 0.021631312
0001a0 c5 4e 83 3c c9 e6 9e 3c 59 bc 96 3d b3 1c 8c 3d
       0.016028771 0.019397156 0.07360143 0.068414114
0001b0 a7 74 c4 3c ba d9 09 3e ac 23 c3 bc 48 b3 56 bb
       0.023981405 0.13461962 -0.02382072 -0.0032760669
0001c0 ca c5 5f bd c9 36 32 bd 65 89 0f 3e b7 41 69 bc
       -0.054631986 -0.04350928 0.14017256 -0.014236859
0001d0 ea 27 0d 3e 38 f6 14 3e 65 25 57 bd f2 e5 1b 3e
       0.13784757 0.1454705 -0.052525897 0.15224436
0001e0 12 94 59 3c c6 b7 95 bc 19 7c c2 3c 50 2d 80 bd
       0.013279932 -0.018276107 0.023740815 -0.06258643
0001f0 31 dc 16 3c ce c8 35 bd 0b d7 12 3e 03 1b 03 be
       0.009207771 -0.044380955 0.14339845 -0.12803273
000200 65 12 79 3d 6b 1a 1e 3e 67 cb a8 ba 1d 01 e2 bc
       0.060808558 0.15439765 -0.0012878001 -0.027588421
000210 84 06 e9 3c 26 17 85 bd 9a 7d 05 be 5e af 44 3c
       0.02844549 -0.06498556 -0.13036194 0.012004701
000220 e4 40 18 bc 95 14 66 3d 7e 49 fa bd bb 7a 1d 3e
       -0.009292815 0.056171972 -0.12221049 0.15378849
000230 7e 94 ca bd 44 94 d2 3d 2a 20 30 bd 4d b3 22 bd
       -0.09891604 0.10282186 -0.042999424 -0.039721776
000240 5a c9 35 3b f2 18 f9 bc 9d a9 ab bd d5 74 e6 3c
       0.0027738423 -0.030407403 -0.083819605 0.028131882
000250 07 31 fb 3d ad 62 54 bc b4 21 10 be c2 0d bf bd
       0.122652106 -0.012962979 -0.14075357 -0.09328796
000260 16 94 07 be 29 36 90 3c 8e 36 ae 3d 6c d6 da bd
       -0.13240084 0.01760395 0.08506499 -0.10685429
000270 76 bc ec bd 5c aa 63 bd 05 27 80 3c e2 b3 c7 3c
       -0.115593836 -0.05558239 0.015643606 0.024377767
000280 27 c1 9d 3d 71 81 3b bd fb 40 0c be 59 e9 89 bd
       0.077028565 -0.04577774 -0.13696663 -0.06733961
000290 a2 fe 66 3d aa 7d 27 bd 17 a9 ce 3d 04 b1 1b be
       0.05639518 -0.040891327 0.10090845 -0.15204245
0002a0 ce fa c6 3d 4b 42 1c bd 6e b1 ff 3d 01 d2 93 3d
       0.09715806 -0.03814916 0.12485014 0.072177894
0002b0 3e 13 22 3d 89 32 0f be f0 5a d1 bd af fb 83 bd
       0.039569132 -0.13984121 -0.10222423 -0.06444489
0002c0 b4 30 fe 3d 7a d1 bf 3d 96 bb ee bd 1a d8 ba 3d
       0.12411633 0.09366126 -0.11656873 0.09123249
0002d0 26 23 05 3e 32 72 c4 3d 7a b4 b3 3d f0 0a 41 3d
       0.1300169 0.095920935 0.087746575 0.04712957
0002e0 16 33 1b be bc ba d4 bc d8 bc 87 3d e3 9b f2 bd
       -0.15156206 -0.025967948 0.06627816 -0.11846139
0002f0 d5 91 ff 3c 65 23 3b 3d a7 82 d9 bd 8c 77 06 bd
       0.031197468 0.04568805 -0.10620623 -0.032828853
000300 69 31 e6 bd d0 14 73 bd 10 1f 67 3a 12 3b 3f bc
       -0.11239893 -0.05934602 0.00088165794 -0.011671798
000310 54 e7 f6 bd dd bc 85 bc c4 f4 01 3e 47 4c bb 3c
       -0.12055841 -0.016325409 0.12691027 0.02286352
000320 db a4 19 3e ac 93 b3 bb 06 5e 0c 3d cd 2d 0b be
       0.15004294 -0.0054802503 0.034269355 -0.1359169
000330 3f bd 02 3e 29 b2 81 bd b5 fe 0e be bb d9 4d bd
       0.12767504 -0.063328095 -0.1396435 -0.050256472
000340 27 58 d8 bd 82 00 11 3c c4 45 55 bd d7 98 e3 3d
       -0.10563689 0.008850219 -0.052068487 0.11113136
000350 17 dd 4e bd ae 84 e2 bd e5 7c 06 3e 20 5a f9 3c
       -0.050503816 -0.11060463 0.13133581 0.030438483
000360 0e 43 69 bc e2 6f 1d 3d aa 10 1d 3d f7 f0 98 bc
       -0.0142371785 0.038436778 0.03834597 -0.018669588
000370 45 01 d2 3d 48 38 9e bd a7 b1 b5 bc b8 92 d4 bd
       0.102541484 -0.077255785 -0.022179438 -0.10379547
000380 8b f9 1c be 51 ca bc 3d 12 b8 ad bd 6f 2e 9a 3d
       -0.15329568 0.09218276 -0.08482374 0.07528388
000390 89 55 1c be 18 22 b3 bd 8e f7 d2 bd 8f c1 60 bd
       -0.15267004 -0.08746737 -0.103011236 -0.05487209
0003a0 23 38 f5 bd c9 32 06 be 02 dd ad bd 87 7f c3 3d
       -0.11973598 -0.1310531 -0.084894195 0.09545808
0003b0 1d 7e 89 bd dd 46 e0 bd 6a 08 ca 3d 3d 7b ff bd
       -0.06713507 -0.10951016 0.09864886 -0.12474678
0003c0 d0 ab 1a 3e 7b 59 cc bd 30 60 f5 bd d2 ea ac bd
       0.15104604 -0.099780045 -0.11981237 -0.08443226
0003d0 3d 94 02 be 15 59 a5 3d 33 42 85 bd 18 ba a7 3d
       -0.12751861 0.08073632 -0.06506767 0.081897914
0003e0 9b 3c ea 3d ac 7a 7b bd f5 a8 90 bc 06 95 f9 bb
       0.11437341 -0.061396286 -0.01765869 -0.007616642
0003f0 f6 fb 1f 3e e5 7e ce 3c 22 ce ab bd 6e bf ed 3d
       0.15623459 0.025206992 -0.08388926 0.11608778

onnx::LSTM_115 f4 [1, 512, 128]
000000 4f cb de bd 8a 54 df 3d 67 b9 66 3d 96 54 cb bd
       -0.10878622 0.109047964 0.056329157 -0.09928243
000010 ef e2 c7 bd 6d 74 0f be 2c eb 2e 3d ad 9e c9 bd
       -0.09760081 -0.14009257 0.042704746 -0.09844718
000020 5d 62 10 3e f4 cf 0a 3e cc 57 17 3c 9c 6e a9 3d
       0.14100023 0.1355589 0.009237241 0.0827305
000030 5b 7b 91 bc 45 5f c3 bd ec ae bd 3d 80 a5 b6 bc
       -0.017759016 -0.095396556 0.09261879 -0.022295713
000040 de 5f d6 3d f3 07 60 bd 7e 82 40 3d 9d b0 22 bc
       0.10467504 -0.05469508 0.046999447 -0.009929803
000050 6b 6b c2 3d ee f1 d0 bd 15 ed 63 bd 0e 20 d9 3d
       0.094931446 -0.102023944 -0.05564602 0.10601817
000060 a6 d1 b0 3d 23 4d 57 3c 29 1c 8f bd 35 1a 14 bd
       0.08633737 0.013140949 -0.06987793 -0.036157805
000070 84 c2 92 3d c5 cf 6d bd 6c df 5b 3d c1 db e3 3c
       0.07166007 -0.058059473 0.05367987 0.027814748
000080 78 e7 ee 3c 7f 28 75 bd e9 f2 a6 3d 44 c0 51 bd
       0.029163107 -0.059853073 0.081518 -0.05120875
000090 c1 4e 40 bc 7d 18 c6 3c 1a 7d fa 3d b4 e4 97 3d
       -0.011737526 0.024181599 0.122308925 0.074166685
0000a0 a8 76 1e be 98 55 c6 bc a7 f5 85 3d cb 58 af 3c
       -0.15474951 -0.024210736 0.06540995 0.021404644
0000b0 7a 78 db 3b 2c e1 0f 3d 2d ea f4 bd 6d a5 ee bd
       0.0066977115 0.03512685 -0.11958728 -0.11652646
0000c0 83 40 09 3e 33 b0 6e bd 29 b0 be 3d b9 03 13 3e
       0.13403516 -0.058273505 0.09310944 0.14356889
0000d0 59 0b 14 be 37 34 e8 bd 29 5e e4 bd d1 c2 87 3d
       -0.14457454 -0.11338084 -0.11150772 0.06628955
0000e0 8d 9e b9 bd 8d f2 d9 bd 2c 0b c3 bd 33 19 15 3e
       -0.09063444 -0.10641966 -0.09523615 0.14560394
0000f0 90 58 c6 3d 4a 79 87 bc 48 e3 88 bd dd e9 89 bd
       0.09684861 -0.016537327 -0.066839755 -0.06734059
000100 2d db db 3b 0d d8 72 bd 18 b1 b7 3c 10 48 ed bd
       0.0067094774 -0.059288073 0.022423312 -0.115860105
000110 be b5 39 bd 80 62 d1 3d be c7 81 bd 92 75 2e bd
       -0.04533934 0.102238655 -0.06336926 -0.042592593
000120 37 6b 77 3c 83 79 14 3e db a8 fc bd 1a 4b da 3d
       0.015101246 0.14499478 -0.12336894 0.10658856
000130 ca d5 e4 bd f2 af 52 bc 49 f3 1a be ea 39 8f bc
       -0.111735895 -0.012859331 -0.15131868 -0.01748367
000140 51 e3 9e 3d e3 d1 0c 3e 15 38 0f be 51 bf d0 3d
       0.07758201 0.1375194 -0.13986237 0.10192741
000150 ef be c3 3c 12 1b da 3d 92 3d 17 be de 51 fc 3d
       0.023894755 0.106496945 -0.14769581 0.123203024
000160 26 9b 20 be c2 80 dd 3d b3 cd 48 bd e5 33 b1 bd
       -0.15684184 0.10815574 -0.049024295 -0.08652476
000170 20 1f e9 bd b6 a4 32 bc a7 ad cb bd 3f 03 dd bd
       -0.1138289 -0.010903528 -0.09945231 -0.10791635
000180 11 1f 0c bd 14 93 4f 3d 0b 17 1f bd d0 04 07 3e
       -0.034209315 0.050677374 -0.038840335 0.1318543
000190 68 03 ca bd 57 b3 e7 3d 3e a9 f2 bd d8 d4 c7 3d
       -0.09863931 0.11313503 -0.11848687 0.097573936
0001a0 ea 0f 7b bc 4b 24 e4 bd 28 67 e8 bd 37 a2 10 3e
       -0.015323618 -0.11139735 -0.113478005 0.1412438
0001b0 af ff 28 bd 31 11 1a bb 0d 25 bd 3c 08 5f 27 bd
       -0.041259464 -0.0023508782 0.023088956 -0.040862113
0001c0 18 79 1f be 7f 75 bb bd b0 22 7a 3c d9 c1 fc 3d
       -0.15573537 -0.0915327 0.015267059 0.12341661
0001d0 dd 20 ca 3b ab c8 f3 3c 5e 66 7a 3d fb 40 24 3b
       0.0061684684 0.029758772 0.06113278 0.0025063145
0001e0 da 6e c8 bd 9b ed 0b 3e e6 0c 09 3e 78 c0 bc 3c
       -0.09786768 0.13664858 0.13383827 0.023040995
0001f0 a9 be a1 3d b1 48 21 be 89 90 57 bd 26 08 ef 3d
       0.07897694 -0.15750386 -0.052628074 0.11671476
000200 7f 95 7e bd 61 02 16 3e ab ca bc bd db df 70 3d
       -0.06215429 0.14649345 -0.09218343 0.058807235
000210 de 83 ce 3c 28 2b e8 3d 02 e4 26 be e0 e0 ad 3d
       0.025209364 0.113363564 -0.16297916 0.08490157
000220 b8 6a 69 3d 7b 4c cb 3d 6f 2d e8 39 b2 3f 20 be
       0.05698654 0.09926697 0.0004428434 -0.15649298
000230 b7 dc 83 3d 72 b4 19 3d 57 de f6 3d 43 97 e0 bc
       0.064385824 0.0375256 0.12054127 -0.027415877
000240 88 db f2 bb dc f7 69 bd bd 3d d8 3d 3f 05 8e 3b
       -0.007411424 -0.057121143 0.10558651 0.0043341215
000250 06 3b fc bd f6 9c 5a bd 3c 61 1c 3d 4b bb 0e 3e
       -0.12315945 -0.053372346 0.038178667 0.13938634
000260 25 06 95 bd b1 e0 1d 3e 7c 44 d6 3d 9c 5f f2 3d
       -0.072765626 0.15417744 0.10462281 0.11834642
000270 fb ae ee 3b 8f b2 55 bd 5f d5 86 bd 79 49 16 be
       0.007284043 -0.05217224 -0.06583666 -0.14676465
000280 fe 47 22 be ab fc e9 bd 76 27 8c bd 2f 7b ee 3c
       -0.15847775 -0.11425146 -0.06843464 0.029111473
000290 9e b0 1f 3e d7 bf 13 3d a7 1e 85 bb 2b 7c e9 3d
       0.15594718 0.036071625 -0.004062492 0.11400636
0002a0 e3 ae 0d bd bc 69 1b 3e 4d d9 64 bd 7f 01 bd 3d
       -0.034590613 0.15177053 -0.055871297 0.09228801
0002b0 85 99 01 be 85 fb 32 3d 5d e7 13 be a8 2a e8 bd
       -0.1265622 0.0436969 -0.14443727 -0.11336261
0002c0 fe 97 0b 3e 03 3e 09 be c7 37 0f 3e af 26 a7 bc
       0.13632199 -0.13402562 0.13986121 -0.020404188
0002d0 04 37 3b 3d 64 d6 fb 3d 34 54 1f bd 3e c8 0b 3e
       0.045706764 0.12296751 -0.03889866 0.13650605
0002e0 52 b2 be 3d 11 90 32 3d 8f 82 2f bd 6c ab d0 3d
       0.09311356 0.043594424 -0.04284912 0.10188946
0002f0 55 36 c6 3d 0d c0 73 3d fa 58 0b be dc d4 0b bb
       0.09678332 0.059509326 -0.1360816 -0.002133659
000300 43 f3 79 3c 30 93 bc bd 65 ae b6 3d cf 00 e7 3d
       0.015255752 -0.09207761 0.08919982 0.11279451
000310 f3 c8 ad bc 42 78 3f 3d 2c 2d 2b 3c 1e 36 33 bd
       -0.021213984 0.046745546 0.0104477815 -0.043752782
000320 dc 34 cf bd 2b 1b b6 3d c7 ed b6 bd 54 1c ea 3d
       -0.10117504 0.08891901 -0.08932071 0.114311844
000330 52 fb 76 3d 4b de 64 bd e0 39 6b 3d c1 8a 00 3b
       0.06029827 -0.055876058 0.05742824 0.0019613954
000340 1f ca 10 bd 4c 72 83 bd ab d5 2d 3c de ba 00 3e
       -0.035349008 -0.06418285 0.010610024 0.12571284
000350 69 2f 8d bd 55 21 f9 bc 2a 7e e4 bd 7f b5 1c bd
       -0.068938084 -0.030411402 -0.111568764 -0.038259026
000360 31 06 ce 3d 97 df d2 3d e9 0c b5 bd de e3 1b 3e
       0.10059775 0.10296553 -0.08840353 0.15223643
000370 ae ed 8e bd b4 83 a5 3d 69 00 f6 3c 6d ec ca bc
       -0.069789276 0.08081761 0.030029492 -0.02477094
000380 63 d3 03 bc bb cd b7 3c 84 86 06 be 5b ce 11 3d
       -0.008046004 0.022436967 -0.13137251 0.035597187
000390 5f 43 6c 3d da 35 c1 3d b7 83 17 bd 55 64 06 be
       0.057681438 0.094340995 -0.036990847 -0.13124211
0003a0 16 0d c7 bd 16 4b 47 bd f6 68 22 3d 51 ef 22 3d
       -0.09719293 -0.048655592 0.03965088 0.03977901
0003b0 aa 4f c3 3d e3 b2 7f bc 6a 47 96 3d 73 a4 d6 bc
       0.09536679 -0.015606615 0.0733784 -0.026201462
0003c0 02 bf d1 bd 57 68 63 3d 97 00 e5 bd 12 6f f7 bd
       -0.1024151 0.055519428 -0.11181753 -0.12081732
0003d0 29 eb 88 bd d6 99 f8 3c f5 04 b7 3d 9f d4 72 bd
       -0.06685478 0.030346792 0.08936492 -0.059284803
0003e0 0b e0 0a 3d a3 c3 29 3e 78 ad da bc 9a a5 e6 3d
       0.03390507 0.16578536 -0.026694044 0.11262055
0003f0 fc 6e 1c be df 81 24 bd f9 09 9f 3c 13 1d cb 3d
       -0.15276712 -0.040162917 0.019413935 0.09917655
