Machine-Learning-DRL/results/SeekerTrainingWall6/Seeker.onnx (onnx, 610983 bytes, 11 tensors)

discrete_act_size_vector f4 [1, 2]
000000 00 00 80 40 00 00 80 3f
       4.0 1.0

network_body._body_endoder.seq_layers.0.weight f4 [128, 8]
000000 29 3e 9e 3e 74 a8 6e 3f 42 13 fc be 2e 15 a0 be
       0.309068 0.9322579 -0.49233443 -0.3126616
000010 ad f2 d7 3e 1f f9 cc be ff fd ba 3e 87 b1 4c be
       0.42177334 -0.40033814 0.3652191 -0.19989596
000020 67 be 25 3f 82 88 8a 3d ab 43 f4 3e ac 53 0d bd
       0.64743656 0.06764318 0.47707877 -0.034503624
000030 f6 eb 73 be 57 0d 80 bf 50 ec 0d 3d af ec 21 3f
       -0.2382048 -1.0004071 0.034649193 0.63251776
000040 63 4e 1d bf ce 60 60 bd 89 9c 3d be bf 79 04 3e
       -0.61447734 -0.05477982 -0.18516745 0.12937067
000050 7f 54 27 3f 77 8c 39 3f e3 c1 8d be 0a fb 1b 3d
       0.65363306 0.7247996 -0.27686986 0.038081206
000060 22 2a 53 3f b4 f0 0e be e2 ba 0d bf 55 c8 8f be
       0.82486165 -0.13959008 -0.55363286 -0.2808253
000070 72 44 9e be 4f c5 bf be 2d f3 bc 3e 18 90 03 3f
       -0.30911595 -0.37455222 0.36904278 0.51391745
000080 7e 40 e0 3d e4 fc 4a 3e 4f 8a 20 3e ae 50 29 3e
       0.10949801 0.19823033 0.1567776 0.16534683
000090 70 40 d0 be 54 6f b7 3e 50 c0 4d 3e 22 a7 6a be
       -0.40674162 0.35827124 0.20092893 -0.22915319
0000a0 92 06 18 3e af b1 09 3f 0c 20 c8 3e 4c 55 0d 3f
       0.14846256 0.5378675 0.3908695 0.5520828
0000b0 0b 3f 92 3e 87 b3 84 be e0 d2 93 be 69 23 38 3c
       0.28563723 -0.25918218 -0.28871822 0.011238911
0000c0 bc 42 ba bb 10 c1 63 3e f9 97 61 be 57 06 8e 3e
       -0.005684225 0.22241616 -0.22030629 0.27739212
0000d0 71 eb cd bb 01 44 a8 be fb 58 37 3f 06 d1 86 3d
       -0.0062841703 -0.32864383 0.7162015 0.06582837
0000e0 79 15 17 be 56 dd 10 bf 00 b9 63 bd 09 3d c7 3e
       -0.14754285 -0.5658773 -0.05559635 0.38913754
0000f0 d0 04 08 bf 16 7c 33 3f cd 2a ec 3e c0 c2 00 bd
       -0.53132343 0.70111215 0.46126404 -0.031435728
000100 17 8f 58 3e 18 3a 52 be b2 f6 0d bd 97 bc 72 3e
       0.21148334 -0.20529974 -0.034659095 0.23704754
000110 9a 9e 09 be 67 ce 9d be 23 1d fd 3d ff 38 ee be
       -0.13439408 -0.30821535 0.12359073 -0.4652786
000120 8c 24 d5 be da 6e f0 3e 9f 6f 87 bd 4d 04 f6 3e
       -0.41629446 0.46959573 -0.06613087 0.48050156
000130 ed 38 56 3e 5a 6f da 3e 0c 8e b6 be d5 2a 30 bf
       0.20920153 0.4266308 -0.35655248 -0.68815356
000140 ef f2 00 3e 4e f4 ca 3c 99 79 87 3d 93 d9 fd be
       0.12592672 0.024774697 0.0661499 -0.49580058
000150 4a dc 31 bd 40 ab 7b bf 0e 89 05 bf 15 55 a4 3d
       -0.043422975 -0.9830818 -0.52162254 0.080240406
000160 11 c6 01 bf 0c e9 c5 be 54 9e bd bc df 39 a9 3e
       -0.5069285 -0.38654363 -0.023146786 0.33051965
000170 43 0c 11 bc af a0 33 be c2 05 1b bf 5f 63 02 bf
       -0.008853021 -0.17541765 -0.6055566 -0.5093288
000180 d1 d9 7a be 8a 2a 78 3e ae b4 59 3e 34 b8 7f 3e
       -0.24497153 0.24234977 0.2126033 0.24972612
000190 a6 83 9e 3e 4c 75 e1 bd 54 1b 99 3e cc ea 47 3e
       0.30959815 -0.11008701 0.29903662 0.19523162
0001a0 6e d3 14 3f 14 cd fc 3d a4 c7 be 3e 5c 96 13 be
       0.58135116 0.12343803 0.3726169 -0.14412826
0001b0 e4 b5 a4 3e d4 2c b6 be 6c ad 93 be 0b 32 10 be
       0.32170022 -0.35581076 -0.28843248 -0.1408159
0001c0 23 85 6f 3e 4e f8 92 bd 1b 9a 2c be 22 b5 33 be
       0.23390631 -0.071762666 -0.16855662 -0.17549565
0001d0 db 71 0f 3f 19 78 84 3d 9e df 8b be bb 72 6b be
       0.56033105 0.06468219 -0.27319044 -0.22992985
0001e0 71 c2 71 be 9a 5a d2 be f4 8e 1d 3e 7d 4d ab 3e
       -0.2360933 -0.41084749 0.15386564 0.33457556
0001f0 fa 6f 36 3f a3 bd 0c be 17 40 09 3e 60 ff d9 be
       0.7126461 -0.13744216 0.13403355 -0.42577648
000200 c1 4c 2a be 8a db 95 3e 95 c4 93 bb f4 e2 bd bd
       -0.16630842 0.29269058 -0.0045095184 -0.092718035
000210 18 84 76 3e 2f 2d ae be 5e b5 4f 3c fc d7 20 bd
       0.24073827 -0.34018847 0.012677519 -0.03926848
000220 36 b7 0c 3f f3 81 96 3e 89 f2 4a 3e 51 ac ea bd
       0.5496706 0.29396018 0.19819082 -0.11458648
000230 bb eb 0a be a8 62 b2 3e a8 75 cc be e0 e6 8f bc
       -0.13566487 0.34840894 -0.39933515 -0.017566144
000240 d7 f5 48 3e 09 89 0f 3e 11 9e 35 bd 20 07 43 3d
       0.1962503 0.14017119 -0.044340197 0.047614217
000250 16 3e 5d 3e 2b 57 a1 be 8a 48 c7 3e b2 e7 cb 3e
       0.21605715 -0.31511816 0.3892253 0.39825207
000260 1b 92 40 bd 05 4f ce be a8 cf 8b 3e be e6 da 3e
       -0.047014337 -0.40294662 0.27306867 0.42754167
000270 74 7c c2 be 4e fb a0 3e 54 9f 40 3e 6f 4d 4d be
       -0.37985575 0.3144173 0.18810779 -0.2004907
000280 17 30 5a be fa 08 60 be 64 a7 0e bf 16 03 1c bf
       -0.21307407 -0.21878424 -0.5572417 -0.6094221
000290 37 3e 09 bc 32 42 90 be e4 af a2 3c 2d aa 4e 3d
       -0.00837665 -0.28175503 0.019859262 0.05045526
0002a0 5b f5 bb 3d 75 30 51 3f 4d be 8a be 61 10 1a 3e
       0.09177657 0.81714565 -0.27098313 0.1504531
0002b0 aa 22 33 be 51 76 21 be 89 96 d4 bd 76 41 c4 3d
       -0.17493692 -0.1576779 -0.10380275 0.09582798
0002c0 e7 39 8f be 4a 38 21 be 13 e2 fc 3e 2f 98 10 3e
       -0.27973863 -0.15744129 0.4939123 0.14120553
0002d0 44 73 eb bc 71 d2 78 be f5 16 46 3a 31 0b 9f 3e
       -0.028741486 -0.24299027 0.00075565215 0.31063226
0002e0 ef c1 63 3d 85 30 13 3e c4 33 8c 3e ed 38 fc 3d
       0.05560487 0.14373977 0.27383244 0.12315545
0002f0 56 01 9d be 7c e5 b8 3e e4 99 a6 3e 09 8e 94 3e
       -0.30665082 0.36112583 0.32539284 0.29014614
000300 20 49 72 bf 1d 63 61 3e 3e 7c c2 3e 7d 6e 58 be
       -0.9464283 0.22010465 0.37985414 -0.21135898
000310 4c 1f 36 be d9 fb e9 bd 1b a4 15 bf 99 ce 1c 3f
       -0.17785376 -0.11424989 -0.5845353 0.61252743
000320 19 06 0a be fb 46 1c bf 09 8e 48 bd ee 9b e2 be
       -0.13478889 -0.6104581 -0.04896358 -0.4425959
000330 40 3a c7 3d 2d a4 c4 3d 1a 66 0e 3f e7 03 d8 be
       0.09727907 0.096016265 0.55624545 -0.42190477
000340 aa 0e 9e bd f0 bc d4 be cf a4 a0 3d ab 36 d2 3c
       -0.07717641 -0.41550398 0.07843935 0.025660833
000350 13 62 fb bd b4 73 b9 3d 72 af 9f 3c b6 39 99 be
       -0.122745655 0.09055272 0.019492839 -0.29926842
000360 bb 03 b4 bd e6 a2 e1 be 78 3f bb bd f5 bc 2e bf
       -0.08789774 -0.44069594 -0.09142965 -0.68257076
000370 f7 5f d6 bd 69 23 2e be 4b 2a b7 3d c4 9d 1b bf
       -0.104675226 -0.17005695 0.089436136 -0.60787606
000380 97 df a0 be c2 a1 50 3f 42 e0 a4 bd 2e c3 09 be
       -0.31420586 0.8149682 -0.08050586 -0.13453361
000390 94 27 f0 3e a0 5a 42 3e cd 88 82 3e 54 60 04 bf
       0.46905196 0.18979883 0.25494996 -0.51709485
0003a0 2b fd cd be 76 51 49 be c8 ed 77 bd d5 a2 18 3d
       -0.40232214 -0.19659981 -0.0605295 0.037264664
0003b0 fc 9d 4f be e7 73 7b bd 43 ac 38 3e 22 b8 04 3e
       -0.2027511 -0.06138983 0.18034463 0.12960866
0003c0 03 d6 a6 be 26 27 3d bd e1 06 8e 3e 16 f9 b7 3e
       -0.32585153 -0.046179913 0.27739623 0.35932225
0003d0 0e 9a 14 bf 6c e2 84 be 26 19 e3 3d b7 76 46 be
       -0.5804757 -0.25953996 0.11088781 -0.19381224
0003e0 e1 9e ba be 96 fd 44 be 41 5a 0c 3d f8 dd 46 bd
       -0.3644934 -0.1923736 0.03426576 -0.04855153
0003f0 54 f4 ce be 20 e1 b5 3d 35 51 06 3e a2 cc 81 3e
       -0.40420783 0.0888083 0.13116916 0.25351435

network_body._body_endoder.seq_layers.0.bias f4 [128]
000000 67 08 2f 3b 34 2d 69 3c e8 4a dc 3b 18 a0 29 3b
       0.002670789 0.014231969 0.0067227967 0.0025882777
000010 8a 93 b7 bb 77 81 61 3b 44 67 4e 3b 39 fc c6 bb
       -0.005602305 0.0034409442 0.0031494657 -0.0060725478
000020 48 4e 55 bb 0e 58 12 3b fe f8 b1 ba 33 9f d2 3b
       -0.003254788 0.0022330317 -0.0013578234 0.0064276694
000030 5d fc 15 3c d4 15 54 bb bb 5b 6e bc 89 ad d8 3b
       0.009154406 -0.0032361643 -0.014548237 0.006612484
000040 b4 26 c4 bb 28 9c ed ba 2d 4a c0 bb 56 32 ab 3b
       -0.005986059 -0.0018128203 -0.0058682174 0.0052245064
000050 4f 39 b6 3a 34 d6 9b bb bb a5 a4 bb e5 4e 30 bc
       0.0013902577 -0.0047557596 -0.0050246394 -0.010760997
000060 f7 79 ac bb 8f 39 eb 3b c2 51 fb ba f0 99 23 3a
       -0.005263563 0.0071784924 -0.0019174146 0.0006240895
000070 0d 52 cc bb 60 23 30 3b 2b e9 88 3a 18 f6 4d 39
       -0.006235367 0.0026876554 0.0010445466 0.00019642
000080 e0 d9 1c 3b bb a8 a4 3a 15 3f b8 3b 36 b0 c7 3a
       0.0023933575 0.0012562493 0.0056227543 0.001523501
000090 cd 1c 07 bb 10 20 c4 3b d3 a0 4e 3c 8d 41 a7 ba
       -0.0020616532 0.0059852675 0.012611586 -0.0012760625
0000a0 85 da a0 3b 24 f9 c6 3b ad 2d 07 bc a8 b7 d0 bb
       0.004908862 0.0060721803 -0.008250636 -0.00636955
0000b0 7e b7 a2 bb b3 c7 3e bc 11 1d 66 bb d6 18 a5 bb
       -0.0049657216 -0.011644292 -0.003511254 -0.005038361
0000c0 41 1a 33 3b f8 03 f0 bb 88 4f ad b9 b3 60 87 bb
       0.002732888 -0.007324692 -0.00033056387 -0.0041314005
0000d0 f7 01 81 bb db 8c 61 bb d8 ee 94 3b 82 50 14 bc
       -0.003937002 -0.0034416232 0.004545074 -0.009052398
0000e0 fd 11 9e 3a e8 59 bd bb 73 73 7e 3b a9 96 df 3b
       0.0012059804 -0.00577854 0.0038826137 0.00682338
0000f0 27 bf b0 bb 0e f2 68 3c 27 44 91 3a 25 a3 02 bc
       -0.005393881 0.014217867 0.0011082933 -0.007973467
000100 b3 d5 96 3b 0a bd 7d 3b 48 db ac 3b ca ca e4 bb
       0.0046031117 0.0038717412 0.005275164 -0.006982182
000110 ba 3b 9d bb 55 15 84 3a a2 8a f9 3b 87 03 fd bb
       -0.0047983797 0.0010077158 0.0076154033 -0.0077213678
000120 22 e2 4f 3b a6 7f 0c bc 18 1c 87 bb 9e be fd bb
       0.003172048 -0.008575356 -0.004123222 -0.0077436706
000130 b2 84 56 3c 0e d7 27 bb c1 b1 c0 bb bc 15 b9 bb
       0.01309316 -0.002561036 -0.005880565 -0.005648343
000140 20 16 11 3c 1f 7c 41 bc 43 b3 bf bb cc 14 c9 3b
       0.008855373 -0.011809378 -0.005850227 0.0061365124
000150 d7 b7 f3 3b 72 2a 83 3b 18 b9 5d bc da 54 9e 3b
       0.007437687 0.0040028626 -0.013532899 0.0048318924
000160 34 b8 3c bb 66 e5 01 bc d8 82 b9 3a 41 e9 00 bc
       -0.0028796317 -0.007928228 0.0014153374 -0.007868112
000170 8b 5b 93 3a 44 22 99 3b 5f 24 40 bc 12 f9 ff bb
       0.0011242492 0.0046732742 -0.011727422 -0.007811674
000180 fe 12 79 3c 8f 31 6e 3b a5 f7 5a 3b 53 75 35 ba
       0.015202282 0.0036345457 0.0033411768 -0.0006922085
000190 49 a4 1b 3b 95 41 43 3b e5 f9 b5 3b 57 d7 c3 3b
       0.0023749045 0.0029793729 0.0055534714 0.0059765982
0001a0 a9 29 e4 3b 64 57 3f 3c 4d 10 9a 39 56 15 18 3b
       0.006962974 0.01167855 0.00029385314 0.0023206077
0001b0 24 4c 2a bb 29 e0 6e 3b 76 75 40 b9 46 bd b8 3a
       -0.0025985325 0.0036449528 -0.00018354304 0.0014094494
0001c0 2e d8 d0 3a ff cd c1 bb 78 ec c1 bb fa 6c 91 3b
       0.0015933567 -0.005914449 -0.005918082 0.00443804
0001d0 51 04 1c 3b 66 5f 11 bb 7c 1b 93 39 2b 3e 53 bc
       0.0023806284 -0.0022182106 0.00028058502 -0.01289324
0001e0 53 12 dd bb 2e 7e 79 3b b7 ff ec 3a 0b cc 07 bc
       -0.006746569 0.0038069594 0.001808158 -0.008288394
0001f0 98 37 aa 3b 20 43 71 3c 06 e1 85 3a 13 7c c9 bb
       0.0051946156 0.0147254765 0.0010214157 -0.006148824

network_body._body_endoder.seq_layers.2.weight f4 [128, 128]
000000 8c 71 62 3e ec 46 3b bc 25 5a 00 3e ec 51 bd bd
       0.22113627 -0.011430483 0.12534387 -0.09244141
000010 0d f0 22 bd ff 65 53 bd 5f a3 39 3c e0 a0 b6 bd
       -0.03977971 -0.051610943 0.011330455 -0.08917403
000020 86 63 d4 3d 22 52 b9 bd 4e 69 37 3d 80 42 e9 bc
       0.10370545 -0.09048869 0.04477816 -0.028474092
000030 c0 b2 b5 3c f8 db d3 3c 2d 24 99 bd 43 c3 10 3b
       0.022179961 0.025861725 -0.07477603 0.0022089041
000040 66 0a 72 bc d5 30 90 3d 01 a4 2c 3e 35 83 d3 bd
       -0.014772987 0.07040564 0.16859438 -0.1032776
000050 2f e2 2e 3d 0b 83 17 bd 53 d9 bf 3d 02 94 0b be
       0.042696174 -0.036990207 0.09367623 -0.13630679
000060 9f 48 77 be 36 ba 0a be ea 16 f3 bd e6 8c 0f 3e
       -0.24148796 -0.13547596 -0.11869605 0.14018592
000070 13 25 b6 3b cf 5c 1f 3d f1 30 b6 bd d4 ca 1e bd
       0.005558619 0.03890687 -0.088960536 -0.03876765
000080 4d 78 e8 3b 69 0f f6 bc 00 44 27 bd b9 19 23 3e
       0.007094419 -0.030036645 -0.040836334 0.15927781
000090 e3 91 94 3b bf 3e 11 3c a5 21 0b 3d 15 68 d5 bc
       0.0045339926 0.0088650575 0.033967633 -0.026050607
0000a0 74 9b c6 3c 9a 2a 97 bd 95 04 97 ba 4e ca d1 bd
       0.024244048 -0.073811725 -0.0011521751 -0.10243665
0000b0 66 21 53 3c b4 50 81 bd 8d 80 db 3d 25 1b aa 3d
       0.012886381 -0.06314221 0.107178785 0.08305959
0000c0 2f 0d 12 bd 06 1c 30 be c2 0d 3d 3d d3 15 85 3d
       -0.035657104 -0.1719819 0.0461557 0.06498303
0000d0 bb 9b 99 3c b2 b9 2b 3d c2 13 5d 3c 05 ce 24 bd
       0.018751016 0.04192514 0.01349348 -0.040235538
0000e0 62 4d f2 bd 54 c3 87 bc de fd 44 bd 51 4e 61 bd
       -0.11831166 -0.016572632 -0.04809367 -0.05500633
0000f0 62 b5 1c 3c 78 e0 70 bd fd 97 22 3e d6 03 d4 3c
       0.009564729 -0.05880782 0.15878291 0.025880735
000100 81 1a fa bb ad d2 df 3d d8 1a 1e bd 72 7c 6a 3d
       -0.007632554 0.10928855 -0.03859982 0.057247587
000110 b9 2a 3c be 65 d3 d4 3d da 0c d9 bd 8a da 42 3e
       -0.18375672 0.10391883 -0.10598154 0.19028679
000120 c2 16 a4 bd 89 50 e1 bd 3e ba f6 3c e7 01 dc 3b
       -0.08012153 -0.11001689 0.030118104 0.006714094
000130 7b 20 fd 3d 4c 99 c0 bd 5e 60 f4 bd 4c 11 77 3c
       0.12359711 -0.09404239 -0.11932443 0.0150798075
000140 0f f7 d2 3c 6a 41 5d 3d 34 26 60 bd 50 0a ef 3c
       0.025752572 0.05401746 -0.054723933 0.029179722
000150 c2 69 30 3d 9c d8 6b 3d 9d a5 0c 3d 8d db b8 3d
       0.04306961 0.05757962 0.03433763 0.09026251
000160 12 48 4a bd 40 89 42 bc c5 b5 24 bd 67 9b 06 3d
       -0.049385138 -0.011873543 -0.04021241 0.032863047
000170 6a 19 81 bc f8 ae 94 bd 3a 4c d8 bd de 69 43 3c
       -0.015759189 -0.07259935 -0.10561414 0.011927096
000180 a7 a5 52 3b af 0a 2d be 6e d3 a9 bc ea 96 07 be
       0.0032142194 -0.16898607 -0.0207307 -0.13241163
000190 2c 86 07 be 97 bd b4 3d 8d 57 9c 3d e6 bb 64 bc
       -0.13234776 0.08825224 0.076338865 -0.013960814
0001a0 d6 b6 11 bc 38 79 63 be 27 00 98 bd 84 46 8f 3c
       -0.008893689 -0.2221421 -0.07421904 0.01748968
0001b0 38 77 a3 3d 64 74 8c 3d e5 a0 ce bd 78 47 4d bd
       0.079817235 0.06858137 -0.10089282 -0.050116986
0001c0 b5 17 7d 3d ab 2b a6 bd f8 81 0a be 54 4f 5b bd
       0.061790187 -0.08113798 -0.13526142 -0.05354245
0001d0 0b 6c 0d be 0f eb 48 3e 04 4e 4c 3c 90 a4 58 bd
       -0.13810746 0.19620918 0.012469772 -0.052891314
0001e0 8c ae cd 3c d8 96 ec bd 6a 86 1e be fe cd a3 bd
       0.025107644 -0.11552209 -0.15480962 -0.07998274
0001f0 9d 87 a8 3d 2f 2e 5c be b3 ac 11 bd e7 85 ed 3d
       0.08228991 -0.21501993 -0.03556509 0.115978055
000200 a9 a6 07 be 02 93 7b bc b7 eb 2d be ca be 80 3d
       -0.1324717 -0.015354874 -0.1698445 0.0628639
000210 c2 9a d3 bc f3 e6 13 3d 3d a3 8e bd d9 ce a8 bd
       -0.02583063 0.036108922 -0.06964729 -0.08242578
000220 1b 93 0d 3d 00 60 17 be ee fa 8b 3d e5 d7 1a 3e
       0.03456412 -0.14782715 0.068349704 0.1512142
000230 99 c5 77 bd a4 f9 52 bd 95 e9 1d bc 4f f5 e8 3c
       -0.06049118 -0.051507607 -0.00963821 0.028437285
000240 bb 8d da bc de 23 0e 3e 92 fd d9 bd 1c 4c 8e bd
       -0.02667891 0.1388087 -0.10644068 -0.069481105
000250 03 80 38 bd 05 9c c9 3c 97 ad 24 3c 1b ff 32 bd
       -0.045043956 0.024610529 0.010051153 -0.04370032
000260 2d e1 a8 bc 68 ec f1 3d 04 5f 67 3d b3 8d 7d 3d
       -0.020615185 0.11812669 0.0564871 0.061902713
000270 42 a8 96 3d ca 9f 96 bc 60 dd c6 3d 20 25 82 3d
       0.073563114 -0.01838674 0.09710193 0.06354737
000280 16 30 0a be 4c 20 8e bd 6e 18 1c 3e 62 7d c5 3d
       -0.13494906 -0.06939754 0.15243694 0.096430555
000290 85 d2 ef 3d 81 49 f7 3c 31 59 32 3d a4 fe 21 be
       0.11710075 0.030186417 0.04354209 -0.15819794
0002a0 3e be 2e bd d6 76 a7 bd a9 6b 4a bd 20 65 aa bd
       -0.042661898 -0.08176963 -0.04941908 -0.08320069
0002b0 e6 60 ad 3d 03 e1 f2 3c fc cc ca bc 86 8b 66 3c
       0.084657475 0.02964831 -0.024755947 0.014071351
0002c0 a2 ed 81 bc d4 4e 54 3e bd dc 8a be 12 e2 1c 3d
       -0.015860382 0.20733196 -0.27121535 0.038301535
0002d0 54 98 ba bd bd 2a 73 3d 9d f3 bc bd d6 0f b4 bd
       -0.091110855 0.05936693 -0.09226153 -0.08792083
0002e0 2e bb 2a be 46 a0 1d bd 09 93 a2 bd 5c f1 cd bd
       -0.16672966 -0.038482927 -0.07938201 -0.10055801
0002f0 27 49 01 be 44 b7 15 bc 20 1b 04 3e 6a 73 c8 3d
       -0.12625562 -0.009137932 0.12900972 0.097876385
000300 5a 88 8a bd 56 57 d7 bc 84 e5 f5 bb c8 f9 6e be
       -0.06764288 -0.026286762 -0.007504167 -0.23337471
000310 41 15 7f bd 13 c3 13 3e 8a 1a 41 bd bf 02 9e 3c
       -0.06227613 0.14429884 -0.04714445 0.019288419
000320 cd 48 b2 bd 69 c7 bc bd 25 28 8f 3d 7b 16 af 3d
       -0.08705292 -0.09217722 0.06990079 0.0854921
000330 14 b3 76 3d ca 98 a4 bd af 07 42 bb 2f ea 3e bc
       0.060229376 -0.08036955 -0.002960663 -0.011652513
000340 37 9e e6 bd c2 b2 88 bd c1 1b 18 be 2e b8 b8 bd
       -0.11260646 -0.0667472 -0.14854337 -0.090195045
000350 1c 6a b8 bc 59 3a 97 bd 14 e3 a3 3d 45 fa b7 bd
       -0.022511534 -0.07384176 0.08002296 -0.08983282
000360 c3 dd 39 3e 4a 81 5d 3d f7 4a a1 bd cf 36 1d 3d
       0.18151002 0.054078378 -0.078756265 0.038382348
000370 42 df 92 bc 23 eb e0 bc 2a 50 4d bd 01 bc 09 3d
       -0.017928723 -0.027455872 -0.05012528 0.03362656
000380 8b 36 24 3e 22 74 ee 3d 28 01 c8 3b ce bc 69 3d
       0.16036431 0.11643244 0.0061036535 0.057064824
000390 28 53 06 3d d7 af c8 bc 06 45 a3 bd 8e 6f 05 bd
       0.032794148 -0.02449791 -0.079721496 -0.03257709
0003a0 99 cd 0f 3e cf c0 a8 3c c6 a2 06 be 7c 8c bb bd
       0.14043273 0.02059975 -0.1314803 -0.09157655
0003b0 e0 03 2c bd c5 04 98 bd 8d 28 07 3e c0 1f f1 3d
       -0.041995883 -0.07422785 0.13199063 0.11773634
0003c0 75 e6 d8 bc c7 3c 86 3c 0a a6 c9 3d a9 0e 41 bc
       -0.026477078 0.016386403 0.098461226 -0.01178328
0003d0 da f0 d0 3d 20 6a 1a 3d d1 21 83 3d 5a 3f 2a bd
       0.10202189 0.037698865 0.06402934 -0.041564323
0003e0 d9 6f f7 bd 46 32 ff bd 5b f7 52 3d c5 c7 11 3c
       -0.1208188 -0.12460761 0.051505428 0.008897726
0003f0 34 1d c4 3d 80 44 13 bd 82 cd 30 3d 37 8a 1c 3c
       0.095758826 -0.035954 0.043164738 0.009554437

network_body._body_endoder.seq_layers.2.bias f4 [128]
000000 d5 e8 2b 3c 00 f1 c3 3b 9d ca 12 bb 42 35 c7 3a
       0.010492523 0.005979657 -0.00223986 0.0015198367
000010 0d 65 e0 3b 0e d0 95 bb f1 e7 35 3b 91 27 e6 3b
       0.0068479837 -0.004571921 0.0027756656 0.0070237597
000020 23 1f e2 3b 09 fe 97 3a 1b 4f b0 bb b7 dd 62 bb
       0.0069006844 0.0011596094 -0.005380524 -0.0034617016
000030 a1 59 3f bc 85 f4 1c bc 7a 53 5f 3b 7c cd 65 3b
       -0.011679084 -0.009579782 0.0034076856 0.0035065105
000040 fb 1e 50 bb e2 27 e5 bb f1 3d 62 bb 28 e2 b9 3b
       -0.0031756747 -0.00699328 -0.0034521783 0.005672712
000050 3c ba 28 bc 27 ec d1 3b d1 52 75 bc b8 96 c7 3b
       -0.010298308 0.0064063254 -0.014973358 0.006090965
000060 0d b7 ea bb 5a 84 d2 3a 49 f0 f0 3b cc 05 41 bb
       -0.0071629346 0.0016061172 0.007352863 -0.0029452918
000070 cd cd c4 ba 69 e4 73 3b eb c4 80 ba 46 70 0f ba
       -0.0015014947 0.0037215 -0.0009824311 -0.0005471747
000080 9a b6 e8 bb 1f a9 a3 3b b6 84 46 3b 66 6b e0 ba
       -0.007101846 0.004994526 0.0030291504 -0.0017121851
000090 b7 75 0b 3c 03 26 a2 3b 68 d4 c0 3b 04 ae 89 bb
       0.008511952 0.004948379 0.005884696 -0.0042016525
0000a0 ca c2 93 b9 15 0b ec 39 9f fb 5a 3b 0b ed e7 ba
       -0.00028183154 0.00045021684 0.0033414138 -0.0017694546
0000b0 e8 59 a3 bb 0b f6 3c 3c a2 cd 02 ba a1 29 01 3b
       -0.004985083 0.011533271 -0.0004989748 0.001970865
0000c0 a3 6e ab bb b7 64 cf 3b 5f cc 14 bc 4b 7a c1 39
       -0.005231695 0.006329145 -0.009081929 0.00036902944
0000d0 f5 71 e5 bb 3d 81 ba b9 cb 32 cf 3b dc e9 b3 39
       -0.00700211 -0.00035572975 0.0063231937 0.0003431578
0000e0 e2 3c 18 bc bd 7d 74 ba cb b4 b4 3b df 95 98 bb
       -0.009291859 -0.0009326598 0.0055147163 -0.004656538
0000f0 00 92 08 3c 1d df b4 3b 55 50 2d 3a f0 35 94 3a
       0.00833559 0.0055197612 0.00066113967 0.0011307579
000100 3d db e7 3a c5 3a c3 bb f4 68 0c bc c9 14 ad bb
       0.001768924 -0.0059579336 -0.008569945 -0.005282019
000110 f9 95 8d bb 37 e7 68 bb 8d bb e1 3a 0d 1a d7 3b
       -0.0043208566 -0.0035538205 0.0017222032 0.006564385
000120 d8 db 54 bc 38 40 3d 3b 03 d2 b7 ba 1e 23 02 3c
       -0.012991868 0.0028877389 -0.001402438 0.007942943
000130 7c 62 ff 3b 44 95 f3 bb 89 fd a3 3b e0 90 cf b8
       0.0077937227 -0.0074335653 0.005004589 -9.897514e-05
000140 c6 09 a6 bb 47 8b f4 bb 62 0c a3 bb d5 9b 72 3b
       -0.005067083 -0.007462892 -0.0049758414 0.0037019153
000150 05 43 61 3b f3 d3 31 3b 3f d8 fa ba 58 b2 fb bb
       0.0034372222 0.0027134388 -0.0019137933 -0.0076811723
000160 d0 34 59 3b e3 d2 ef bb c5 b9 1e 3c b7 00 83 3c
       0.003314305 -0.007318841 0.009687846 0.015991552
000170 bb 56 b7 bb 32 15 97 39 a7 a4 aa 3a 38 08 db bb
       -0.005595056 0.00028816756 0.0013019041 -0.0066843294
000180 10 cf be bb 99 86 a2 3b e1 42 15 ba 80 bb fc 3a
       -0.0058230236 0.004959893 -0.00056938647 0.0019281954
000190 51 03 04 bb 4e 75 b0 ba 3f 15 c2 bb e9 fd 24 bb
       -0.0020143578 -0.0013462694 -0.005922943 -0.0025175756
0001a0 49 65 a4 ba 48 bf cf bb a6 24 be 3b 3b f7 4d bc
       -0.0012542392 -0.006339941 0.0058027087 -0.012571151
0001b0 3e ba 5f bc fe 71 c8 b9 48 df 31 bc 93 a8 11 bc
       -0.013655243 -0.00038231903 -0.010856457 -0.008890289
0001c0 39 4e 74 bb ed 30 39 bc e9 8d b3 bb b0 5c 90 bb
       -0.003727807 -0.011303169 -0.0054795635 -0.0044055805
0001d0 c9 17 69 bb 0d a6 ea 3b 1f c5 89 bb 1b 1e 91 bb
       -0.0035567156 0.007160908 -0.004204407 -0.0044286377
0001e0 6f 18 cc 3b 0e 4e af 3a 96 c4 ff 3b 21 02 82 3b
       0.0062284986 0.0013374703 0.0078054173 0.003967539
0001f0 59 94 a2 3b 38 24 07 3b e5 61 35 ba 3f 63 e8 3a
       0.004961532 0.0020620953 -0.00069191895 0.0017729773

action_model._discrete_distribution.branches.0.weight f4 [4, 128]
000000 44 6c 24 bc a9 73 d7 3a 60 29 c3 3b 76 7f 42 3b
       -0.010035578 0.0016437668 0.00595586 0.0029678023
000010 b7 56 fb bb 4c 51 fa bb e4 46 78 bc d3 1f 46 3c
       -0.0076702493 -0.007639086 -0.01515362 0.012092548
000020 dc 6f ac 3b 09 a6 c6 3b 64 33 bb 3b 1d b2 50 bc
       0.005262358 0.0060622734 0.0057129133 -0.012737778
000030 17 11 3e 3c 4e 11 ee ba 87 1e 59 ba 6c fb 7e 3b
       0.011600754 -0.0018163116 -0.0008282442 0.0038907183
000040 a6 61 45 3c 14 ea eb bc a0 07 4c 3c 58 d6 36 3c
       0.012047207 -0.02879814 0.01245299 0.011159502
000050 08 e0 ba 3c eb e2 91 bc d2 b4 80 bb d8 ce a7 3b
       0.022811905 -0.017808398 -0.0039278055 0.0051210932
000060 09 7a d8 bb e5 45 b7 bb 4a 84 05 bc d6 61 0f 3b
       -0.0066063446 -0.005593049 -0.008149216 0.0021878383
000070 9b 98 b3 3b 4b 7f ce 3a 47 0c 38 3c ac cf 18 bb
       0.0054808385 0.0015754489 0.011233396 -0.0023317141
000080 ef 63 24 3a ee d0 b2 bb 32 b9 70 bc 2e 71 d1 3b
       0.0006270995 -0.0054570353 -0.0146925915 0.006391666
000090 22 89 e7 3a ed 21 61 bb 96 42 97 bb f7 de fb bb
       0.001766477 -0.0034352497 -0.004616092 -0.0076864916
0000a0 c6 a7 25 3b e4 64 a9 3b 51 f0 d0 3a a1 a4 cc 3b
       0.0025277003 0.005169498 0.001594076 0.006245211
0000b0 46 73 bb bb 7c c1 f0 bb 9a 1a e0 3b 76 8b a3 bc
       -0.005720529 -0.007347284 0.0068391087 -0.019963961
0000c0 50 f0 20 3c ed 80 a8 bc ed e4 e4 ba 60 b7 d3 bb
       0.00982292 -0.02056929 -0.0017463245 -0.006461069
0000d0 73 20 8e 3a a8 9c 15 ba 19 6f e1 bb 6f dd 8b b9
       0.0010843411 -0.00057072425 -0.006879699 -0.00026677127
0000e0 93 da 45 bb ed cb 3b 3c ae 88 ff 3b 71 f8 b0 bb
       -0.0030190095 0.011462194 0.007798276 -0.0054007103
0000f0 0e 15 07 3c 7f 44 13 3c e6 75 8b 3b 7b 34 27 ba
       0.008244766 0.008988499 0.004255998 -0.00063783646
000100 90 3b 88 bb 95 af 4c bc 3c 9b 98 bc b1 53 e5 bb
       -0.004157491 -0.012493034 -0.018628709 -0.006998502
000110 42 0d 68 bb 55 c4 90 3c d8 8b 83 3b cc 9b 6d bc
       -0.0035408293 0.017671743 0.0040144734 -0.014502477
000120 42 5d d5 ba eb 19 eb bb cb b3 72 3c ac e7 fe ba
       -0.0016278403 -0.0071747205 0.014813374 -0.0019447706
000130 8a ae f4 bb d1 76 d5 bb 66 0d 4f 3c 86 16 4b 3b
       -0.0074670957 -0.006514408 0.012637472 0.0030988767
000140 0c 9f f1 3b 8f af f7 ba 34 dd 3d 3c d4 3a 80 ba
       0.007373696 -0.0018896925 0.0115883835 -0.0009783157
000150 14 65 e1 3b 99 17 42 3b 4d e0 26 3c 97 2b 9b bc
       0.0068785045 0.0029616116 0.010185313 -0.018941684
000160 0a af b5 3b 0c 92 3c 39 f2 d1 1c 3c 18 29 93 3c
       0.005544548 0.00017983484 0.009571539 0.017963931
000170 73 8b 42 3c a5 cb 92 3b 96 09 eb 3b 64 f0 9f 3b
       0.011874068 0.0044798427 0.0071727736 0.0048809517
000180 e4 59 e8 ba ef 42 22 bc 8e 84 75 bb 36 5e c9 bb
       -0.0017726985 -0.0099036535 -0.0037463042 -0.006145264
000190 99 6e fb ba 76 22 1c ba 9a 30 05 3c f0 0d 94 bc
       -0.0019182741 -0.0005956063 0.008129263 -0.018073052
0001a0 73 a0 46 bc af 59 29 3c f5 b1 6a bb 90 30 3b 3c
       -0.012123215 0.010336324 -0.0035811637 0.011425152
0001b0 a4 51 4f bc fe f2 d4 3b df e6 99 3a ad f2 93 3b
       -0.012653742 0.0064986935 0.0011741779 0.004515013
0001c0 4c 78 45 bc c3 dd ec bb 2e 7b 86 bc 6d 6c 53 3b
       -0.012052607 -0.0072285845 -0.016416159 0.0032260672
0001d0 1e 96 90 bc e0 bf e0 39 5c 38 0e b9 3e 44 e5 ba
       -0.017649706 0.00042867567 -0.00013563171 -0.0017491651
0001e0 49 64 d1 bb e2 1c 1f bb f2 95 2e 3b c5 38 7c 3c
       -0.0063901288 -0.002427869 0.0026639667 0.015394394
0001f0 ab 3f 18 bc e1 b3 a0 ba f3 76 89 3c a7 a4 73 bc
       -0.009292523 -0.0012260639 0.016780352 -0.014870799
000200 b8 e8 22 bc f9 a3 88 ba 8d cf be 3c e8 bb dc 3b
       -0.00994318 -0.0010424844 0.023292327 0.0067362674
000210 73 f7 53 3b fd 6e 76 bc d1 44 e1 bb 2a ea 96 3a
       0.0032343536 -0.01504111 -0.0068746586 0.0011513878
000220 83 d6 ae bc f0 55 8d 3c a3 75 2b bc 94 4c 0a bc
       -0.021342522 0.017252892 -0.0104650585 -0.008441109
000230 42 a1 be 3a cb 8b 9c bb 28 3b 03 3d 69 7d ac ba
       0.0014543908 -0.004777407 0.032038838 -0.0013159934
000240 b0 3f ae 3c 04 f3 64 bc 0a 41 7d 3c 39 d1 86 bb
       0.021270603 -0.013973955 0.015457401 -0.0041142968
000250 85 dc 50 3c 20 79 31 3b 32 e5 4d 3c 71 88 53 3b
       0.012747888 0.0027080253 0.012566851 0.003227737
000260 a6 4a f4 3b 8b 78 38 3c 2d f0 25 3c d8 02 b6 3a
       0.007455188 0.011259208 0.010128063 0.0013886346
000270 3b 4b af bb 29 82 42 bc 76 e3 bc bc c6 3e 07 3d
       -0.0053495443 -0.011871853 -0.02305768 0.03301885
000280 9d 09 66 3c 71 bc 9c 3c cd 0d 4a bc 66 a1 89 3c
       0.014040378 0.019132825 -0.012332392 0.016800594
000290 2c d2 1d 3c 22 18 67 bc d2 16 c7 bc da a5 7d bc
       0.009632628 -0.014104875 -0.024302874 -0.015481437
0002a0 59 c0 17 3c 40 e1 69 bb b7 f0 1c bc 10 11 c3 3c
       0.009262168 -0.0035687238 -0.009578875 0.023811847
0002b0 b7 6a e9 ba 2d 91 ac bc 3e 34 57 bb 0d 95 62 3b
       -0.0017808293 -0.021065319 -0.0032837535 0.0034573704
0002c0 6f a7 b5 3b 95 26 cf bb d8 55 28 3b 4c 05 25 3c
       0.0055436413 -0.006321738 0.0025685932 0.010072064
0002d0 4b 4c 02 3d ba 50 59 3c b2 a8 28 bc b5 d8 88 3b
       0.03181104 0.013263876 -0.010294126 0.004176224
0002e0 27 34 ba 3b df d7 02 3c 09 23 16 bc 32 34 8c bc
       0.0056824866 0.007986038 -0.0091636265 -0.017114732
0002f0 57 b9 f0 3b 02 a0 ea 3c 91 ce 9f 3c 1f 40 86 3b
       0.007346313 0.02864075 0.019507678 0.0040969993
000300 76 25 89 3c 99 28 8a 3c c0 3b 81 3a e1 a7 1a bb
       0.016741496 0.016865062 0.0009859726 -0.0023598599
000310 92 62 24 3a aa 3c 9d ba ce 25 23 bc e7 63 6a bb
       0.00062707916 -0.0011996229 -0.009957744 -0.0035765113
000320 9f ce db bb 03 e9 23 3c 85 fe 86 bc 51 32 69 3b
       -0.0067079808 0.010004285 -0.016478786 0.003558297
000330 c9 a9 fe b8 4f 5f b0 3c eb 2e bb 3c c6 ad 24 bc
       -0.00012143289 0.021529822 0.02284952 -0.010051196
000340 37 3b bc bb dc f4 72 3c 98 99 11 bc 70 ff 18 3c
       -0.0057443636 0.014828887 -0.008886717 0.009338245
000350 01 fc 72 3b 95 fc 0a bc 89 c6 9f 3c 89 63 e8 bb
       0.0037076476 -0.008483072 0.019503849 -0.0070919436
000360 03 7e 66 3b d0 81 ef 3b b4 b2 31 bb 65 39 0c 3d
       0.0035170324 0.007309176 -0.0027114572 0.034234423
000370 19 ea 7a 3b 04 d2 82 bb 2e a3 c3 3b 1c 44 01 bb
       0.0038286506 -0.003992321 0.0059703803 -0.0019724434
000380 98 b7 9b bb 88 f0 2a bc 22 09 7d 3c 22 ce 16 3c
       -0.0047521107 -0.010433324 0.015444072 0.009204419
000390 60 6e a9 3c 44 68 e1 3c 38 7d af 3c 46 02 9a bc
       0.020682514 0.027515538 0.021422014 -0.018799912
0003a0 6d f0 99 bc e8 5f f0 3b a2 6a 15 bd 1e f4 93 3c
       -0.018791402 0.0073356517 -0.036478646 0.01806074
0003b0 87 05 26 bb ab 89 0b 3c 3a 34 35 bc f8 9e ae 3a
       -0.0025332884 0.008516709 -0.011059815 0.0013322523
0003c0 bc 48 69 bc 77 73 d2 bb 1a 0e 90 bc 9b c2 4f 3c
       -0.014238533 -0.006422456 -0.01758485 0.012680675
0003d0 b7 4c c4 bb 78 08 36 3b 76 ee 9e 3c 18 5f a1 bb
       -0.0059905904 0.0027776044 0.019400816 -0.004924666
0003e0 37 5a 1d 3c f0 e7 69 3b 41 f3 d2 3b 81 90 57 3c
       0.009604028 0.0035691224 0.0064376895 0.013157011
0003f0 df 2f 4b 3c 79 71 22 bc b7 77 18 3b 86 7a 98 3c
       0.01240155 -0.009914749 0.0023264715 0.018613111

action_model._discrete_distribution.branches.0.bias f4 [4]
000000 f6 ee ab bb fc 2e 3d bc c6 ff 24 3c ae 29 0e bc
       -0.005246992 -0.0115468465 0.010070747 -0.008676929

action_model._discrete_distribution.branches.1.weight f4 [1, 128]
000000 70 80 5b 3c ec dd b3 3a 71 71 83 bc 6a 70 dc bc
       0.013397321 0.0013722754 -0.016045304 -0.026909072
000010 d1 d0 a6 bb 6f 3b 69 bb 3b f3 25 bb 61 7d 3f 3b
       -0.005090811 -0.0035588404 -0.0025321979 0.0029219019
000020 5e 69 00 3c b5 7f ea 3a 80 dd 1d bb f3 22 42 3b
       0.0078376215 0.0017890843 -0.0024088323 0.0029622882
000030 d9 6b aa 3a be ac 37 3b 25 3f 4d 3b ea 36 ac 3b
       0.0013002112 0.0028026546 0.0031318155 0.0052555697
000040 41 61 0f bc fc 3c 12 3c 39 9e 11 3c 56 f2 01 3c
       -0.0087512145 0.008925673 0.008887821 0.007931313
000050 da 25 9b 3c ec b8 24 3c de d8 0b bc 7f 1f 97 bb
       0.018938947 0.010053854 -0.008535592 -0.004611909
000060 64 00 3c bb 8f 42 88 ba 36 79 08 3c c4 d6 46 bc
       -0.0028686756 -0.0010395813 0.00832968 -0.012136165
000070 c0 55 07 3c 97 10 ad 3c 10 35 7b 3b 5e c7 8a b9
       0.0082601905 0.021126075 0.0038331188 -0.0002646995
000080 c2 b8 88 bb 84 f0 a9 3c e2 80 55 bb f1 e2 c0 bc
       -0.0041724155 0.02074457 -0.003257804 -0.023545714
000090 3d 03 ef bb e3 9f 96 bc 0a 46 18 3a 94 3b 1a 3c
       -0.007294087 -0.018386787 0.00058087765 0.009413619
0000a0 ea 89 51 39 7f 78 a2 3b 3b ea 5f 3c d7 37 7a bb
       0.0001998317 0.004958212 0.013666685 -0.0038180256
0000b0 69 bd 99 ba 32 07 63 bc 27 0b 1c bb f3 3e ea 3b
       -0.0011729422 -0.013856696 -0.0023810358 0.0071486174
0000c0 73 41 55 3c 0c 23 85 bb 17 48 37 bb 64 c7 ab 3c
       0.013016093 -0.004063016 -0.0027966553 0.0209691
0000d0 09 80 8f 3c 45 9c 63 3b eb f3 14 3c 75 7e ed 3b
       0.017517107 0.0034730595 0.009091358 0.007247741
0000e0 2b 43 df 3b 96 2d 88 3b 33 27 0b bc 67 7c 7b bc
       0.006813427 0.004155825 -0.008493233 -0.015349484
0000f0 43 e9 02 bc fd 02 a9 ba c3 bd 38 3c b3 b2 b2 3c
       -0.007990184 -0.0012894567 0.0112757115 0.021813726
000100 87 b0 96 bb 01 a8 9b 3b ed 52 9f 3b c3 62 36 3b
       -0.0045986804 0.0047502522 0.0048621804 0.0027829863
000110 fd 1e d4 ba 67 30 d6 39 7b bf ff 3a 67 29 c9 b9
       -0.0016183552 0.00040853323 0.0019512022 -0.00038368555
000120 d3 0d b3 bb b3 b8 76 bb 48 db f4 3b 55 b4 b9 3b
       -0.0054642945 -0.003764671 0.0074724294 0.005667249
000130 15 d8 08 bc 36 64 af 3b 8b f4 27 39 38 54 dd bb
       -0.008352299 0.0053525222 0.0001601746 -0.0067544244
000140 dc b5 2e bc dd c6 ce bb 7f 83 32 bb 11 d1 2e bb
       -0.010663476 -0.0063103274 -0.0027239022 -0.0026674906
000150 4d 32 83 3c 97 78 b1 bb 31 b2 8c bb 74 54 08 bc
       0.016015196 -0.0054159868 -0.004293703 -0.008320916
000160 56 d1 8c bc e7 11 e5 bb 24 85 07 bc d5 2c 0f bc
       -0.017189663 -0.0069906595 -0.008271489 -0.008738716
000170 d7 a6 6f 3b 5a a4 24 3b 70 af 6c 3a 50 c2 ba bb
       0.003656795 0.0025122375 0.0009028828 -0.0056994334
000180 35 2e 07 bb 28 82 7c 3b 5d 7a 39 bc bb 6e 97 3c
       -0.0020626907 0.0038529728 -0.011320678 0.018485418
000190 07 9b fa ba 7e 27 89 3c d5 9a ed bb dd 13 90 3c
       -0.0019119688 0.016742464 -0.0072511234 0.017587597
0001a0 4b 42 6f 3a a3 54 f5 3b 3a 77 61 bc 2d ba 1b 3b
       0.0009127005 0.007486896 -0.013761336 0.0023762092
0001b0 47 47 f7 3b 8d 98 43 3c b0 4e 67 3c a9 25 9e 3b
       0.0075463387 0.011938226 0.014117882 0.004826267
0001c0 13 b5 2f bc e1 18 27 bc de 0a 16 ba 45 3d 98 bb
       -0.010724324 -0.010198803 -0.0005723665 -0.004645976
0001d0 e7 9a 11 bc 3b 1d 36 bc 23 fa 86 3b c5 58 e0 b9
       -0.008887029 -0.0111153675 0.004119174 -0.00042790748
0001e0 63 9e 18 3c 17 ef 03 3c f0 7e f1 bb 24 3d 27 ba
       0.009315106 0.008052609 -0.0073698685 -0.0006379655
0001f0 85 23 3b ba 4e d1 0d 3c cc eb 34 bb 4b ac 64 b8
       -0.0007138777 0.008655859 -0.0027606366 -5.4519896e-05

onnx::LSTM_114 f4 [1, 512, 128]
000000 f6 89 6a bd 08 b2 08 be 66 62 a2 3d d7 e2 f7 bd
       -0.057260476 -0.13349164 0.07928924 -0.12103813
000010 fc 3f a4 bc fb 9a 9e 3d fa 61 c1 3d 46 4a 45 bd
       -0.020050041 0.07744404 0.09442516 -0.048166536
000020 f1 92 f9 3b e9 46 06 be 0f b5 d2 bc 4a 66 df bd
       0.0076163937 -0.13112988 -0.025721101 -0.10908182
000030 5c a5 15 3e 63 30 35 3b 35 fe cf 3d 01 64 e4 3b
       0.14613861 0.002764725 0.10155908 0.006969929
000040 6d f4 b3 bd 2b 41 1d bc 15 c4 95 bd 50 f6 9b 3b
       -0.08786855 -0.009598057 -0.0731279 0.0047595873
000050 7a 17 77 bc 71 c0 20 3e d3 42 d6 bd c3 59 28 bd
       -0.015081281 0.1569841 -0.104619645 -0.04110123
000060 6b 15 55 bd 84 cc d7 3c 7a 03 b4 bd 1d f9 3e 3d
       -0.05202238 0.026342638 -0.087897256 0.04662429
000070 ac 6d 1e 3e e4 c4 d3 bd 90 8c 60 ba 15 ba 2e 3d
       0.15471524 -0.10340288 -0.00085658673 0.04265793
000080 1b e2 22 be 84 40 db 3d 91 17 50 bc 02 39 0e be
       -0.15906565 0.10705665 -0.012700931 -0.13888934
000090 30 e1 5d 3d 36 8e 1f be 13 fc 71 bd f9 24 fe bd
       0.054169834 -0.15581593 -0.059078287 -0.12409396
0000a0 6a c7 4c 3d 8b 1a 25 3e 82 49 2f bc 94 0c da bd
       0.049994864 0.16123407 -0.010698678 -0.1064693
0000b0 60 b9 e1 3d 50 c9 d6 3d d4 2f d2 bd ba 3f 93 bd
       0.110216856 0.10487616 -0.10263029 -0.07189889
0000c0 08 cc 45 bd 9a ce 8a 3d 2e ab 19 3e 8a 86 11 3e
       -0.048290282 0.06777687 0.15006706 0.14211479
0000d0 43 cb 85 3b f6 69 16 bd 30 b3 9b 3d 89 b1 ce bd
       0.0040830686 -0.036722146 0.07602537 -0.10092456
0000e0 7f 81 96 bc a4 0f 7a bc 39 c5 9d 3d 42 c4 bd 3d
       -0.018372295 -0.015262518 0.07703633 0.09265949
0000f0 73 b3 d5 3d 9a 48 ee bd f6 b8 94 3d 54 b4 03 3d
       0.10434618 -0.116349414 0.07261841 0.032154396
000100 36 c4 d3 bd 03 aa 19 be ae 57 fe 3d 85 6a 13 be
       -0.10340159 -0.1500626 0.12419067 -0.14396103
000110 7f 4e f7 3d 4b 9d a4 3d f3 e3 de 3d 47 62 7a bd
       0.12075519 0.08037814 0.108833216 -0.06112888
000120 e2 5d 96 3d 03 82 ea bd 26 60 0e bd e1 74 4b 3d
       0.073421255 -0.11450579 -0.034759663 0.04967201
000130 74 1b 20 3e e0 ae d0 3d ee f2 e5 3d 89 68 08 be
       0.15635473 0.10189605 0.11227976 -0.13321127
000140 d7 cd eb bd b8 da a4 3b cf 61 27 bc af 4f a6 3a
       -0.1151387 0.005030956 -0.0102161905 0.0012688542
000150 78 fe 20 3d ec 17 a0 bd bb c5 fe 3d bd 20 a8 bd
       0.03930518 -0.07817063 0.12440058 -0.08209369
000160 ae ae 97 3c bd b4 17 be 73 45 13 be b4 e6 43 bd
       0.018515911 -0.1481504 -0.14381962 -0.047827438
000170 90 43 f0 3d 77 4a 04 3d 9f c9 e6 bc 0a 39 63 bd
       0.117316365 0.032297578 -0.028172312 -0.05547432
000180 d8 46 02 3e d0 c3 45 bd ab 17 00 be ee 4d 1c 3c
       0.12722337 -0.048282444 -0.12509029 0.009540064
000190 6a 70 5d 3d 70 a1 52 3d 26 90 67 bc a2 f9 48 3d
       0.054062285 0.05142349 -0.014133489 0.049066193
0001a0 bc d9 e8 3d a5 c0 d5 bd 81 a2 ce 3d 8d 09 01 be
       0.113696545 -0.10437135 0.10089589 -0.126013
0001b0 a5 c8 8b 3d 16 65 24 be 5d 0e 83 bd 63 fa e7 3d
       0.06825379 -0.16054186 -0.06399224 0.11327054
0001c0 34 be 4b 3d 77 6f 93 3d b7 b0 75 3d c7 1b 37 bd
       0.04974194 0.071989946 0.05998298 -0.044704225
0001d0 ef 38 a3 bc 1b 51 a5 3d 8b 47 de bd bb 3c 01 3e
       -0.019924609 0.0807211 -0.108534895 0.12620823
0001e0 d0 3d 98 bc 6d 8b 1a bc 96 89 11 be af 58 11 3e
       -0.018584162 -0.009432656 -0.14212641 0.14193986
0001f0 08 7b ef bd 6c 38 dc 3d 13 5d b7 3d 77 fe 1f be
       -0.11693388 0.10752949 0.089532994 -0.15624414
000200 2d 6f 46 3c cb 8b 14 be 03 ab 91 bd fc e9 d6 bd
       0.012111467 -0.14506452 -0.07112696 -0.10493848
000210 3f 79 b8 3d e8 5d c8 bd 40 fe f1 3d 8e ca 9c 3d
       0.09007501 -0.09783536 0.118160725 0.07655822
000220 e8 1c ed 3c c7 ad 6c 3d 40 a2 79 3c d6 df c2 bd
       0.028944448 0.057782914 0.015236437 -0.095153496
000230 14 c1 af 3c e2 ae a0 bb 53 5d ec bd 6f 41 86 3c
       0.021454372 -0.00490366 -0.11541238 0.016388623
000240 d2 d3 c2 3d 81 c5 3c 3d 5f 6c e4 3d bf 43 cf 3d
       0.09513058 0.046086792 0.11153483 0.101203434
000250 66 b8 a5 3d c3 98 07 3e 69 b8 83 bd 6e 2f 01 3e
       0.08091812 0.13241868 -0.06431658 0.12615749
000260 86 3d 58 3c 64 2b b9 bd ad 96 13 3e af 13 24 bd
       0.013198262 -0.09041479 0.14412947 -0.040057834
000270 39 a2 4a bd 35 b0 d1 bd 36 19 64 bd d3 d4 39 3b
       -0.049471114 -0.10238687 -0.055688106 0.0028355613
000280 a6 00 8e bd 92 54 f3 bd ca a6 c9 3d 25 a9 cd bd
       -0.069337174 -0.11881365 0.098462656 -0.100420274
000290 e1 01 e0 3d 28 07 3c bd 68 16 ce 3d a2 47 29 bd
       0.109378584 -0.045905262 0.100628674 -0.04132808
0002a0 ed 72 54 3d 14 f2 02 be 0a 91 f5 bd 56 58 b7 3d
       0.051867414 -0.12787658 -0.11990555 0.089523956
0002b0 34 12 3f 3b c2 b5 35 bd 08 0d 62 3d 51 90 86 bd
       0.0029155137 -0.04436279 0.05518821 -0.06570495
0002c0 97 84 93 3d 81 ae 0d 3e b3 cc 90 3d ab 7e 11 3e
       0.07203024 0.13836099 0.07070293 0.14208476
0002d0 e8 79 91 ba 9a 7f 78 bd a2 df d2 bd 64 b4 81 bd
       -0.0011098953 -0.060668565 -0.10296561 -0.06333235
0002e0 09 c9 9e bc 49 98 c2 bd 96 c6 16 3e 85 20 c1 3b
       -0.01938297 -0.09501702 0.14724192 0.005893769
0002f0 77 de 1c be 85 f2 97 3d 23 64 1e 3c 9a ca 2a bd
       -0.15319239 0.07419304 0.009667429 -0.041697122
000300 2a 82 10 3e 5c e8 d7 3d 88 34 9f 3c 35 a2 1a be
       0.14112154 0.10542366 0.019434229 -0.1510094
000310 70 53 2d 3b 70 70 c2 3d 3c 26 b1 bd 69 7b 03 3e
       0.0026447438 0.09494102 -0.08649871 0.12840046
000320 06 0c 34 bd c2 a1 86 bd 14 27 fc 3c 96 ba ce 3b
       -0.04395678 -0.065738216 0.030780353 0.006308864
000330 cf 58 83 3d b9 b7 bf bd 0d 87 08 3e bc 40 28 3d
       0.06413423 -0.09361214 0.13332768 0.04107736
000340 88 52 ea bd 7d 36 13 3e 2d c2 f4 3d 92 6b ba bd
       -0.11441523 0.14376254 0.119510986 -0.09102549
000350 fa e5 b9 3c f5 ab 8f 3d 5b 36 15 be 01 18 f8 bd
       0.02269267 0.0701522 -0.14571516 -0.121139534
000360 12 8a c5 3d c7 bd f2 bd 5e 48 b9 bd 58 73 75 bd
       0.096454754 -0.118526034 -0.09047006 -0.059924453
000370 ed 9c ee bc 5d 99 18 3e ef fd 18 bd b2 a1 9f 3d
       -0.029127562 0.14902253 -0.037351545 0.07794513
000380 0b 80 7a 3d 46 94 d1 3d 79 d6 86 bb d3 24 6d bc
       0.061157268 0.10233359 -0.0041149226 -0.014474112
000390 02 86 e2 bd 3a cd c0 bd 26 52 f1 3d 6c fa a5 bd
       -0.11060716 -0.09414144 0.11783247 -0.08104405
0003a0 87 72 1a 3e 7e 93 84 3d 86 f2 5d 3d ae af 1b be
       0.15082751 0.064734444 0.054186366 -0.15203735
0003b0 6c c4 03 3e d0 6c f2 bb fd 94 1a be 9e cf 2f bd
       0.12867898 -0.0073982254 -0.15095897 -0.04292261
0003c0 a8 63 41 3c 44 98 e7 bd 0e 6e 2e 3d 46 bc ba 3d
       0.011803545 -0.11308339 0.042585425 0.091179416
0003d0 10 b2 b0 bd 20 e1 04 bd 46 95 0f be c8 45 ea 3d
       -0.08627713 -0.03244126 -0.14021787 0.11439091
0003e0 3b 7c bd bc 4b f8 11 be 4e 10 65 bb 26 61 8f bd
       -0.023130527 -0.14254873 -0.0034952345 -0.070009515
0003f0 d9 95 a4 3d 70 e8 e3 3d 6f 0e 98 bd 0c 1e 13 3d
       0.08036394 0.11128318 -0.07424628 0.035917327

onnx::LSTM_115 f4 [1, 512, 128]
000000 58 87 1f 3e 81 54 17 3e 0d e8 97 3d 3d fa 2c 39
       0.15578973 0.1477833 0.07417307 0.00016496419
000010 8e e4 09 3e c8 62 0d 3e d0 1e 13 3e af 3f bc bd
       0.13466093 0.13807213 0.14367223 -0.09191834
000020 b1 00 c6 bd cf a0 cd 3d 73 a5 8b 3b d8 5c 02 3e
       -0.096681006 0.100404374 0.0042616664 0.1273073
000030 33 6f bf 3c ec 41 0d 3e 8e 16 4d bd 0b 48 51 bd
       0.023368454 0.13794678 -0.050070338 -0.051094096
000040 4b 0e 0c be ca 34 4d bd 3b 0c 12 be e9 2b 84 bd
       -0.13677327 -0.05009917 -0.14262478 -0.06453688
000050 92 2f ed bd 86 45 8d 3c 97 81 07 bd ad 1a 2a bd
       -0.11581339 0.017245065 -0.03308257 -0.041529346
000060 4e 1e 0e be f8 b4 b8 bd 72 9a 7f 3d 21 d1 62 3d
       -0.13878748 -0.09018892 0.06240315 0.055375222
000070 98 ad d4 3d 97 1b 52 bb c7 52 ed bc 9b 18 90 3d
       0.10384673 -0.0032059902 -0.028970135 0.07035943
000080 fd cb 72 bd aa 3b c6 3d 8f a8 69 3d 3f 80 d1 bd
       -0.05927657 0.09679349 0.057045516 -0.10229539
000090 ed 6e 05 3e 51 94 91 bd e9 e2 f6 bc 27 9a 05 3e
       0.13030596 -0.07108367 -0.030137496 0.13047086
0000a0 46 47 a6 bb fe 04 86 3d 0e 2b 67 3c 8b 90 fd 3d
       -0.0050744144 0.06543921 0.014109386 0.12381085
0000b0 e1 71 8e bd fb d4 69 bd 03 c6 f0 3d cc d5 e1 bd
       -0.069553144 -0.05708788 0.11756518 -0.11027107
0000c0 01 00 86 bd 7b fc c6 bc 5d b1 ba 3c 58 16 f5 3d
       -0.065429695 -0.024290314 0.022789652 0.11967152
0000d0 18 19 f3 3c fc e5 f1 bc 67 cd ae bc 27 8f eb bd
       0.029675052 -0.02952861 -0.021338178 -0.115019135
0000e0 33 77 bd bd 42 ac a3 3d d2 76 87 bd d5 56 b6 3d
       -0.09251251 0.0799184 -0.0661446 0.08903281
0000f0 1f 9b 99 bc 66 89 04 3e c1 1c 89 3d 5b c0 85 bd
       -0.018750725 0.12943038 0.066949375 -0.065308295
000100 e6 1b af 3d 41 92 1f 3d 6d dd 4c bc 9b e0 90 3d
       0.08550243 0.038957838 -0.012503964 0.0707409
000110 22 bd 99 3d 4f 7f e5 3d 74 3a 16 3c c5 5b 1a 3e
       0.07506777 0.11205923 0.00916921 0.1507407
000120 f9 df 6a 3d 25 67 db 3d 11 7b 17 bd d4 9a 8a bd
       0.057342503 0.10713033 -0.0369826 -0.06767812
000130 fe 01 5f bd a6 e6 a8 bd 69 22 fa 3d 5e 2c d2 3c
       -0.05444526 -0.08247118 0.122135945 0.025655922
000140 1b 46 d5 bd 2a 3f 98 3d ca bd 1b 3e ae c8 92 bd
       -0.10413762 0.074339226 0.15209118 -0.07167183
000150 2c f3 60 3d 98 80 17 3d 74 ac 44 3d 29 f4 2a bc
       0.054919407 0.03698787 0.048016027 -0.010434189
000160 80 48 7a 3d 9f 45 49 3d c9 8b b6 3b 0c 69 1e bc
       0.061104298 0.04913866 0.005570863 -0.0096686
000170 f5 da a2 bd ab 48 4f 3d 16 ec c6 3c 72 7e 0d be
       -0.07951919 0.05060641 0.024282496 -0.13817766
000180 c5 20 25 3d 90 5b 05 be 50 da f1 3d 44 70 04 be
       0.040314455 -0.1302321 0.11809218 -0.12933451
000190 74 52 1c 3b dd 12 b0 3d 48 af de bd 4b 39 57 bd
       0.0023852857 0.08597348 -0.10873276 -0.052544873
0001a0 e7 f2 29 bd 17 51 75 3c 84 9f dc 3d 6e ff af 3d
       -0.041491415 0.014972947 0.10772613 0.08593641
0001b0 21 af b1 bd 91 48 d0 3d 12 17 11 3e 80 1f e8 bc
       -0.08675981 0.10170091 0.14168957 -0.028335333
0001c0 0b f3 aa bb 7d ba 00 3e ff e6 08 bd 1c c3 8e bd
       -0.0052169613 0.1257114 -0.03342342 -0.06970808
0001d0 77 8b 27 3d a1 ed 50 bd 31 96 0f be fb 98 70 3d
       0.04090449 -0.05100787 -0.14022137 0.058739644
0001e0 06 49 8f 3d b6 92 f1 3d db 3f e3 bc 95 80 bc 3d
       0.0699635 0.11795561 -0.02774041 0.092042126
0001f0 4f c2 2d 3c 6b 5b c7 bd 90 06 f2 3d 61 36 ba 3d
       0.010605409 -0.097342335 0.11817658 0.09092403
000200 a5 d0 09 bd 5e d9 c2 3c 16 28 7a bd 3a bb e3 bd
       -0.033646245 0.02378529 -0.061073385 -0.11119695
000210 60 37 fb bd 24 a9 f5 3d 25 07 89 bd 53 b8 09 3e
       -0.12266421 0.11995152 -0.06690816 0.1344922
000220 a9 be 14 be 87 36 02 be bb 72 46 3d e0 82 d7 3d
       -0.14525856 -0.12716113 0.04844926 0.10523009
000230 ff 3e b4 bc 03 0e 8b bd 4e 1e cd bd d2 96 23 bc
       -0.022002695 -0.06789782 -0.10015546 -0.009984689
000240 13 3b fd 3d d9 bf 17 3e bf 10 d4 bd 70 2c fe 3c
       0.12364783 0.14819278 -0.103547566 0.031027049
000250 49 8a 11 3c 4c bc ec bd 2a b7 b6 3d d9 f5 a8 bd
       0.008883067 -0.11559352 0.089216545 -0.08250017
000260 50 72 ad 3d 68 c8 30 3d 92 85 50 3d 97 04 71 bd
       0.08469069 0.043159872 0.050908633 -0.058842268
000270 66 f7 ac bc c9 1d 91 bd 4a 69 31 3d d3 76 01 be
       -0.021114063 -0.07085759 0.043313302 -0.12642984
000280 3b 9c 89 bd 4f f4 e1 3c 78 b3 12 3e 4d b9 68 3d
       -0.06719252 0.027582316 0.14326274 0.05681734
000290 58 01 3c bc de c6 ca 3d e9 78 dd bd 40 df 5b 3d
       -0.01147493 0.09901212 -0.108140774 0.053679705
0002a0 06 dc b4 bd a6 ff 6c bd 1d cf 52 bd 2a ac ef bd
       -0.08831029 -0.057860993 -0.05146705 -0.117027596
0002b0 8a fc d6 3c cb 22 43 3d 8d 62 a6 3d b6 e1 9e 3d
       0.026243467 0.047640603 0.08124266 0.07757895
0002c0 20 d1 cc bd e6 b5 0b be 38 93 0a be 04 ef 54 3d
       -0.10000825 -0.13643607 -0.13532722 0.051985756
0002d0 1b 11 09 be 32 0f de bc 4d 34 17 3e cb 57 8d 3c
       -0.13385431 -0.027106855 0.14766045 0.017253777
0002e0 e7 78 44 bb 8f cc 99 bb 73 da 46 3c 26 13 b4 3d
       -0.002997929 -0.0046935747 0.012137043 0.08792715
0002f0 ee ab 2d 3d d2 28 ca bc 26 da 1b bd 8b d3 2d 3d
       0.042400293 -0.024677668 -0.03804984 0.04243807
000300 db 2a b5 bd 3d b4 87 bd 0d 10 b6 bd c3 5a 0c be
       -0.08846065 -0.066261746 -0.0888978 -0.13706498
000310 e4 32 f3 3d 4f b6 c8 3c 89 93 18 bb 0c 4f ee bd
       0.11874941 0.024500994 -0.0023281297 -0.11636171
000320 cf 08 87 3d dd a1 fd bd c3 73 ce 3d 9e cf 0d 3e
       0.06593477 -0.123843886 0.100806735 0.13848731
000330 a9 23 47 3d 06 ab 50 3c f7 66 17 be 65 9c aa 3d
       0.048617993 0.012736088 -0.14785372 0.08330611
000340 6b bd a8 bd b6 31 f0 3d a2 35 a3 3d 44 30 19 be
       -0.082392536 0.117282316 0.07969214 -0.14959818
000350 f1 cd ba 3d 38 38 25 3d 6c c8 01 bd 6d 9a 2e bd
       0.091213115 0.040336818 -0.031685278 -0.04262774
000360 6a 53 19 3e f1 21 8d bc 1c 06 ef bd a3 6c 74 3c
       0.14973226 -0.017228099 -0.11671087 0.014918479
000370 3c 13 18 be 8c 61 32 3d 2d 28 f9 bd 67 74 5b 3d
       -0.14851087 0.04355006 -0.12165866 0.053577807
000380 c7 ba b0 3d 16 35 c2 3c 54 cd e7 bd 04 9a 39 bd
       0.08629375 0.023706954 -0.1131846 -0.045312896
000390 a6 25 a3 bc a7 e6 10 bd 86 db e9 3c 18 93 50 3c
       -0.019915413 -0.035376217 0.02854706 0.012730382
0003a0 79 64 ec 3c fc 25 af bc ff 2e 17 3e 0f c1 0f 3e
       0.028856503 -0.021380417 0.14764021 0.1403849
0003b0 fe 88 8f 3d a6 29 cd bb e6 dd 63 bd 33 aa 17 bc
       0.07008551 -0.0062610684 -0.05563154 -0.009256887
0003c0 5e a5 b6 bd d2 ff 08 be 98 b3 ff bd cc ff 84 bc
       -0.0891826 -0.13378838 -0.12485427 -0.016235255
0003d0 00 04 6a bd 68 e7 f5 bc dd 9e 59 bd ed 3f 68 bc
       -0.05713272 -0.03001757 -0.05313002 -0.014175397
0003e0 b7 d8 0f 3d 49 f5 09 be 8a b3 a6 bd fe 76 fe 3d
       0.035118785 -0.13472475 -0.08139713 0.1242504
0003f0 80 26 09 be cc 92 c3 bd 68 a5 f1 3d f4 a0 01 be
       -0.13393593 -0.09549484 0.11799127 -0.12659055
