Machine-Learning-DRL/results/SeekerTrainingWall8/Seeker.onnx (onnx, 610983 bytes, 11 tensors)

discrete_act_size_vector f4 [1, 2]
4.0 1.0
00000000: 0000 8040 0000 803f

network_body._body_endoder.seq_layers.0.weight f4 [128, 8]
0.39969763 0.42983493 0.38896668 -0.7530325 -0.76393884 -0.10030034 0.02734967 -0.6135063
-0.5275265 0.37986776 -0.039044127 0.10264208 0.6216618 0.29391378 -0.39673695 0.28653017
0.09901775 0.3657747 0.052849945 0.27246395 0.3369956 -0.02903726 -0.33191314 0.2466545
0.38560408 -0.23080857 -0.38678584 -0.15815055 -0.046108156 0.16545317 0.6039546 -0.07017499
0.6014714 1.0633628 -0.118922554 0.38823703 -0.1786492 -0.75512093 0.1567952 0.34982574
-0.01879905 0.45818153 0.39481655 -0.300912 -0.19145967 0.16572125 -0.17496626 -0.49383086
-0.06615801 0.4137297 0.050194718 0.36084607 0.49130848 -0.5039503 0.06910254 -0.32717133
0.056658726 0.43912673 0.26657873 -0.049693592 0.85282177 0.07696305 -0.26217914 0.13208823
-0.31138694 0.27868074 -0.21835703 -0.37016746 -0.14326516 0.0811387 0.27756998 -0.2551653
-0.24634461 -0.004597976 -0.48851094 -0.29948276 -0.009717548 -0.0883327 -0.34278777 0.3831454
0.05463329 0.59914327 0.037364695 0.44913948 -0.45619226 0.7067403 -0.16500622 0.13724802
0.2190046 0.05069045 -0.29967624 0.3494758 -0.352574 -0.506634 0.78133565 0.40706906
0.33922446 -0.4273645 -0.3328878 -0.14529061 -0.55498517 0.31180984 -0.17607999 -0.0717549
-0.59877247 -0.7545872 0.052463397 -0.0059200837 -0.71702325 -0.21474281 -0.285598 0.09437624
0.5727199 -0.50678176 0.1902223 -0.11215 -0.32662848 0.27165097 0.053998753 -0.85735697
-0.21860833 0.02125001 -0.5672586 -0.46579662 -0.11937842 -0.0888129 0.19687678 0.023479195
0.012297179 0.30830285 -0.5679936 -0.21547984 -0.15250732 0.44397795 -0.4070172 -0.49977103
-0.5086369 0.6584699 0.028746367 0.057547275 0.07582657 -0.24073316 -0.17272192 -0.20814179
0.123611175 0.50995225 0.031400625 -0.23262742 -0.2509943 -0.6205059 0.3519715 0.38076317
-0.17247355 0.010669712 0.42331186 0.032643907 -0.49316335 -0.6837818 -0.009285947 -0.080768086
-0.59968317 0.13958564 -0.020803597 -0.23638873 -0.2669091 0.25586286 0.22804932 -0.25300235
0.3648389 0.3229663 -0.17167191 -0.36191717 -0.19514805 0.4985073 -0.49879855 -0.1506251
0.20414332 -0.056380764 0.02600885 -0.40821806 -0.13707119 -0.6549906 -0.040405624 0.08162621
-0.59974885 -0.97794497 -0.1643139 0.0721329 0.010996646 -0.35509622 -0.17408435 -0.6184982
0.2543632 0.23224834 -0.30572096 0.5887498 0.25234964 -0.42099777 0.90777147 -0.18081301
0.2762835 0.6189957 0.40653956 0.5732448 -0.17370814 -0.6477873 0.28338674 -0.4056061
0.6359199 0.22892378 -0.10266753 0.21274182 0.6796879 -0.14378034 -0.11123837 -0.5971925
-0.18427503 -0.31618986 0.15856701 -0.0890903 0.2221972 0.45493644 0.31861204 0.4775542
0.026266305 -0.3238014 0.020459056 0.10563961 0.54783785 -0.18419787 -0.2590692 0.115317434
-0.63465005 0.29372793 -0.34655976 -0.39003724 0.29565552 0.13921556 -0.14513183 1.1704155
-0.22695519 -0.31395888 -0.1274849 0.13853611 -0.63398325 -0.2512726 0.348935 0.15862998
0.006438825 -0.4576405 0.022405954 -0.04439475 0.17877436 0.1570864 0.26237187 0.21067321
00000000: 2ba5 cc3e 5313 dc3e a426 c73e bdc6 40bf
00000010: 7f91 43bf 446a cdbd 6a0c e03c c00e 1dbf
00000020: fa0b 07bf 077e c23e bcec 1fbd 0336 d23d
00000030: 3a25 1f3f de7b 963e 1b21 cbbe 15b4 923e
00000040: d1c9 ca3d d246 bb3e 2f79 583d 6580 8b3e
00000050: b08a ac3e 8cdf edbc 85f0 a9be ff92 7c3e
00000060: e66d c53e 1559 6cbe cb08 c6be 38f2 21be
00000070: e8db 3cbd 8e6c 293e c59c 1a3f e8b7 8fbd
00000080: 08fa 193f 461c 883f ab8d f3bd 01c7 c63e
00000090: d1ef 36be 9b4f 41bf ec8e 203e 5c1c b33e
000000a0: 7700 9abc c596 ea3e 6525 ca3e 2311 9abe
000000b0: 010e 44be d5b2 293e 5b2a 33be 66d7 fcbe
000000c0: da7d 87bd 61d4 d33e fa98 4d3d d1c0 b83e
000000d0: c98c fb3e e302 01bf a285 8d3d 0083 a7be
000000e0: fb12 683d 38d5 e03e 027d 883e 828b 4bbd
000000f0: 8752 5a3f ce9e 9d3d 583c 86be 2342 073e
00000100: 1c6e 9fbe 3eaf 8e3e fc98 5fbe 9786 bdbe
00000110: 1ab4 12be 0c2c a63d a71d 8e3e 07a5 82be
00000120: c341 7cbe 9eaa 96bb 1b1e fabe ce55 99be
00000130: 5a36 1fbc c6e7 b4bd e181 afbe a22b c43e
00000140: 28c7 5f3d 7461 193f b90b 193d 9cf5 e53e
00000150: 0892 e9be efec 343f 64f7 28be bf8a 0c3e
00000160: be42 603e caa0 4f3d 2a6f 99be 7eee b23e
00000170: 9484 b4be c4b2 01bf 9d05 483f 5b6b d03e
00000180: d4ae ad3e 85cf dabe 4570 aabe 10c7 14be
00000190: 8213 0ebf 8aa5 9f3e 504e 34be 3cf4 92bd
000001a0: 2749 19bf a02c 41bf dce3 563d 43fd c1bb
000001b0: d68e 37bf 8ae5 5bbe e739 92be 5548 c13d
000001c0: c59d 123f 73bc 01bf a2c9 423e e6ae e5bd
000001d0: d93b a7be d615 8b3e cc2d 5d3d bf7b 5bbf
000001e0: ddda 5fbe 8014 ae3c dc37 11bf e57c eebe
000001f0: ac7c f4bd 8ae3 b5bd 119a 493e 7157 c03c
00000200: 1b7a 493c dfd9 9d3e 0768 11bf bfa6 5cbe
00000210: e12a 1cbe 1451 e33e 8f64 d0be fde1 ffbe
00000220: 0736 02bf 7c91 283f 807d eb3c b1b6 6b3d
00000230: f64a 9b3d c182 76be 04de 30be 1f23 55be
00000240: db27 fd3d 3b8c 023f f19d 003d e235 6ebe
00000250: 5382 80be 7ad9 1ebf 9c35 b43e 64f3 c23e
00000260: e89c 30be 04d0 2e3c 55bc d83e 9eb5 053d
00000270: e87f fcbe 530c 2fbf 1624 18bc bd69 a5bd
00000280: d684 19bf 8aef 0e3e 4e6c aabc e30f 72be
00000290: 4fa8 88be 7500 833e c385 693e 8689 81be
000002a0: 2acc ba3e d75b a53e c3ca 2fbe 354d b9be
000002b0: e4d4 47be 593c ff3e 8662 ffbe 773d 1abe
000002c0: f20a 513e 84ef 66bd 8310 d53c f501 d1be
000002d0: 645c 0cbe 77ad 27bf 5e80 25bd a42b a73d
000002e0: 2489 19bf 9a5a 7abf e741 28be 6aba 933d
000002f0: 472b 343c 2ccf b5be 2b43 32be e655 1ebf
00000300: e53b 823e 82d2 6d3e 7587 9cbe 4fb8 163f
00000310: f933 813e 058d d7be b663 683f 0c27 39be
00000320: 0875 8d3e 8176 1e3f f425 d03e 2cc0 123f
00000330: 8ce0 31be 63d5 25bf 1118 913e 9aab cfbe
00000340: a6cb 223f ff6a 6a3e 5b43 d2bd fed8 593e
00000350: 0700 2e3f 273b 13be f1d0 e3bd 9ce1 18bf
00000360: 98b2 3cbe a3e3 a1be 645f 223e fa74 b6bd
00000370: aa87 633e 6eed e83e 1e21 a33e fc81 f43e
00000380: 6f2c d73c 4cc9 a5be c099 a73c 9459 d83d
00000390: 1a3f 0c3f 5e9e 3cbe b8a4 84be 8c2b ec3d
000003a0: 6d78 22bf 8263 963e 4870 b1be f6b2 c7be
000003b0: 2960 973e 868e 0e3e 709d 14be 2dd0 953f
000003c0: f166 68be 38bf a0be 678b 02be 69dc 0d3e
000003d0: ba4c 22bf cda6 80be 9ca7 b23e e66f 223e
000003e0: c7fc d23b db4f eabe b18c b73c 45d7 35bd
000003f0: a010 373e 42db 203e 9b55 863e b8ba 573e

network_body._body_endoder.seq_layers.0.bias f4 [128]
-0.022748569 -0.03546323 0.052540522 -0.005965358 0.0030040878 0.018380992 0.07783031 -0.018025223
0.08394098 0.01201281 -0.020510191 0.036175016 -0.024488704 -0.01732972 -0.05586832 -0.0024752675
0.019586634 -0.00077451864 -0.016706098 0.03862115 -0.0074891015 -0.03229339 -0.008868714 -0.025766676
0.1098584 0.12730664 0.0050517553 -0.048139464 0.019441077 0.003030505 -0.016681612 0.022050165
0.01940568 0.037224937 -0.015768746 -0.009708969 0.025406385 -0.022657784 0.0014607286 -0.0085288575
-0.0049625286 0.021063736 0.0110755125 -0.0015299538 0.02976385 0.0046936935 0.032803267 -0.010913023
-0.01695326 -0.017827991 0.01433397 -0.0008036514 -0.010545253 0.017388172 0.031085571 0.004375488
-0.01793474 0.048526146 0.008282496 0.015326233 -0.020025149 0.005366144 0.010930262 -0.04271248
0.006448576 -0.015365082 -1.3275663e-05 -0.006371539 -0.012134396 0.09992191 0.04446462 -0.03987268
0.01761902 0.009443926 0.020651083 0.018422715 9.287944e-05 -0.012510764 -0.005838626 0.0027663587
-0.030107614 0.0161272 0.017750517 -0.024786811 0.009733517 -0.0010796946 -0.021177707 -0.011626343
0.0012110841 -0.0635556 0.005536793 0.010710647 0.025446309 -0.03447698 -0.003908608 0.07594749
-0.003415825 0.0002237797 -0.0021736608 -0.066225484 0.013283389 0.0023516798 -0.0058738957 0.018249715
0.020702308 -0.004522574 0.029931307 -0.011573419 -0.036704477 -0.014725277 -0.039785113 0.003103176
0.08001512 -0.015050731 0.031128373 0.01292777 -0.008054188 -0.006985376 0.009150441 -0.023130385
-0.026413813 0.023837233 -0.02560271 0.0060572573 -0.034189 0.016234474 0.011628487 0.0449017
00000000: 355b babc e441 11bd bb34 573d 0d79 c3bb
00000010: 3be0 443b bc93 963c 7f65 9f3d a2a9 93bc
00000020: 40e9 ab3d 61d1 443c fd04 a8bc 412c 143d
00000030: 899c c8bc 0ff7 8dbc 2ed6 64bd 1938 22bb
00000040: 2674 a03c 1109 4bba 3adb 88bc 3631 1e3d
00000050: 2367 f5bb 1346 04bd 154e 11bc a314 d3bc
00000060: 71fd e03d ac5c 023e 3289 a53b e32d 45bd
00000070: e542 9f3c 709b 463b e0a7 88bc 8ca2 b43c
00000080: a9f8 9e3c 2d79 183d 752d 81bc 5e12 1fbc
00000090: 0d21 d03c d19c b9bc eb75 bf3a 9fbc 0bbc
000000a0: b59c a2bb db8d ac3c 1176 353c bb88 c8ba
000000b0: 51d3 f33c 8ecd 993b b85c 063d 89cc 32bc
000000c0: 90e1 8abc 020c 92bc 07d9 6a3c 22ac 52ba
000000d0: ffc5 2cbc a471 8e3c 2ba7 fe3c 4160 8f3b
000000e0: e0eb 92bc 5ac3 463d 4eb3 073c e11a 7b3c
000000f0: c80b a4bc 7ad6 af3b d714 333c 48f3 2ebd
00000100: 944e d33b d3bd 7bbc 8aba 5eb7 58c8 d0bb
00000110: 58cf 46bc dca3 cc3d 8920 363d 8951 23bd
00000120: c355 903c b2ba 1a3c 762c a93c 3ceb 963c
00000130: 45c8 c238 f3f9 4cbc f251 bfbb cc4b 353b
00000140: 3ea4 f6bc 311d 843c 8869 913c b60d cbbc
00000150: 5479 1f3c 8a84 8dba df7c adbc 6b7c 3ebc
00000160: 3dbd 9e3a 7029 82bd fc6d b53b b67b 2f3c
00000170: c774 d03c bc37 0dbd c813 80bb 5c8a 9b3d
00000180: 09dc 5fbb 68a6 6a39 fa73 0ebb 3aa1 87bd
00000190: 92a2 593c a41e 1a3b cf79 c0bb 6d80 953c
000001a0: e397 a93c 1a32 94bb 8032 f53c 709e 3dbc
000001b0: 6f57 16bd 4a42 71bc b7f5 22bd a75e 4b3b
000001c0: f8de a33d 5797 76bc ee00 ff3c ffce 533c
000001d0: b7f5 03bc 95e5 e4bb bbeb 153c ef7b bdbc
000001e0: c861 d8bc 4d46 c33c c6bc d1bc f57b c63b
000001f0: c409 0cbd 29fe 843c 6985 3e3c d8ea 373d

network_body._body_endoder.seq_layers.2.weight f4 [128, 128]
-0.09163332 -0.14465038 0.1722823 -0.021362286 0.058324344 0.024461629 0.14563747 0.06933147
0.041269556 -0.0041077263 0.016566662 0.0968997 -0.08645193 -0.0052088946 -0.10608789 -0.09109727
0.032390155 0.032397173 -0.00058662 0.0713721 0.022500446 -0.031525146 -0.0127831865 0.009401323
-0.03661188 -0.014095082 0.04794274 0.05185792 -0.11159526 0.04669448 0.07538442 -0.059770595
-0.0041652233 -0.038887054 -0.05989983 -0.03166612 -0.21865866 0.17996725 0.017509008 0.012608264
-0.03288632 0.09512254 0.07908106 0.036042556 -0.03461352 -0.12166768 0.12905514 0.05597672
0.16631313 -0.0210993 0.018629313 -0.046407882 -0.014075774 -0.1299309 -0.061571497 0.0021809803
0.16155976 0.046315014 0.00063941506 -0.06276395 -0.10979178 -0.11391936 0.06716005 0.019141324
-0.029637195 0.1139156 0.034457877 0.051654257 -0.08908534 0.124836996 -0.019235631 0.063751325
-0.119932175 -0.17472972 0.11662421 -0.014087202 -0.019491501 0.08891588 -0.18741605 0.0019153223
-0.13661365 0.051353917 0.11037789 -0.029879473 0.066163704 0.09669642 0.009168744 0.0885853
-0.026766397 0.03302293 0.13963224 -0.010033482 0.10190449 0.15186451 -0.083820984 0.0036348307
-0.04474076 0.09883195 0.14409092 0.032146607 0.05543118 0.046072602 0.20111403 -0.011657251
-0.12338199 -0.11093065 0.0843429 -0.053716775 0.10866406 0.0020556687 -0.049845237 0.033181917
-0.044299968 -0.0022854332 -0.053865243 -0.074652545 0.15186942 -0.005923998 -0.069783255 -0.05957777
0.094372585 -0.008008171 0.027601145 0.04829139 0.07004827 -0.033010293 -0.03607614 -0.069863826
0.020815354 -0.023501186 0.08992063 0.062381662 -0.03601385 -0.045945242 0.06570634 -0.15614252
0.033184648 -0.012062721 -0.057805616 0.020339977 -0.02664514 0.08647763 0.17018633 -0.10383738
-0.1433049 -0.1471025 -0.074726656 0.12023552 -0.023677308 0.026279159 0.025265323 -0.102331884
0.18574135 0.22639348 -0.032301422 -0.059130833 0.23667647 0.011621778 -0.23911224 -0.018181218
-0.018384479 -0.1374729 0.16415425 0.046262886 -0.010401255 0.06911546 0.110966995 0.11046389
0.16309649 -0.018442055 -0.008397484 -0.07296891 -0.12579912 0.02761719 0.13218129 0.18699393
0.003469742 0.07125487 -0.098001435 0.053751804 -0.12364244 0.08587301 -0.0643144 -0.009827932
0.0788177 0.056578226 0.1000025 0.10132132 -0.049955588 -0.06338407 -0.043442287 -0.060011458
-0.04725176 0.081854984 -0.15891814 -0.045216806 -0.068142846 0.1571743 -0.03153124 0.06770369
0.1524975 -0.1096765 -0.11455573 0.16184111 -0.07464477 0.017340112 -0.35748014 0.19593613
0.13006175 -0.1448217 -0.1075953 -0.081588425 0.015155605 -0.0866832 0.09166797 0.0036844218
0.22275713 0.039037902 0.049889695 -0.14167169 -0.19104818 -0.015533475 0.06949209 0.122091085
-0.0724854 0.031239618 -0.14014208 -0.12407748 0.092674874 0.049574748 -0.1722346 -0.04569823
-0.088941745 0.0037693502 0.037667442 -0.06687762 0.056372516 0.09220969 0.1348939 -0.24552558
-0.14142478 -0.12511264 0.039230272 -0.08566437 0.035573 0.3052055 -0.182534 0.003848842
-0.0997525 -0.12644508 0.023756402 0.19058526 -0.054034617 -0.06376055 0.10062185 -0.15835252
00000000: 40aa bbbd 3b1f 14be c56a 303e f6ff aebc
00000010: 82e5 6e3d c163 c83c fd21 153e a8fd 8d3d
00000020: 440a 293d 1b9a 86bb cfb6 873c 5a73 c63d
00000030: b60d b1bd 60af aabb 9c44 d9bd 3591 babd
00000040: 8aab 043d e6b2 043d 67c7 19ba 892b 923d
00000050: db52 b83c 8320 01bd 9270 51bc 0208 1a3c
00000060: 57f6 15bd 0fef 66bc 9b5f 443d f868 543d
00000070: 0e8c e4bd b642 3f3d 2663 9a3d 03d2 74bd
00000080: 6d7c 88bb 0848 1fbd 8659 75bd 55b4 01bd
00000090: 0ee8 5fbe 5649 383e 0d6f 8f3c e492 4e3c
000000a0: ceb3 06bd 9bcf c23d 40f5 a13d 5ca1 133d
000000b0: e8c6 0dbd e82c f9bd 0827 043e d847 653d
000000c0: fd4d 2a3e 70d8 acbc 809c 983c 3116 3ebd
000000d0: 139e 66bc 9b0c 05be 6532 7cbd c7ee 0e3b
000000e0: ec6f 253e d0b4 3d3d 6b9e 273a 638a 80bd
000000f0: 83da e0bd 8e4e e9bd 358b 893d 44ce 9c3c
00000100: b4c9 f2bc 954c e93d b423 0d3d 6a93 533d
00000110: 6072 b6bd 8aaa ff3d 0b94 9dbc 0e90 823d
00000120: 009f f5bd 59ec 32be acd8 ee3d 02ce 66bc
00000130: a4ac 9fbc 8719 b63d fee9 3fbe 8d0b fb3a
00000140: 73e4 0bbe 7c58 523d ce0d e23d ccc5 f4bc
00000150: d680 873d c608 c63d 8038 163c 366c b53d
00000160: 3445 dbbc 0d43 073d c1fb 0e3e 7963 24bc
00000170: 4db3 d03d 5f82 1b3e 56aa abbd 5736 6e3b
00000180: 1642 37bd 6868 ca3d 928c 133e 29ac 033d
00000190: ce0b 633d a0b6 3c3d d6f0 4d3e 0efe 3ebc
000001a0: b2af fcbd 9c2f e3bd f8bb ac3d 1f06 5cbd
000001b0: 438b de3d 66b8 063b 852a 4cbd c3e9 073d
000001c0: e273 35bd 35c7 15bb cda1 5cbd 6fe3 98bd
000001d0: a883 1b3e 191e c2bb 86ea 8ebd d207 74bd
000001e0: 6a46 c13d b434 03bc cc1b e23c 31cd 453d
000001f0: 7875 8f3d cd35 07bd 93c4 13bd c414 8fbd
00000200: f684 aa3c 8f85 c0bc 4f28 b83d ea83 7f3d
00000210: 4283 13bd 1431 3cbd 0c91 863d d3e3 1fbe
00000220: a0ec 073d b8a2 45bc 95c5 6cbd 06a0 a63c
00000230: e946 dabc 2f1b b13d 5345 2e3e b1a8 d4bd
00000240: 85be 12be 0aa2 16be 4a0a 99bd 0a3e f63d
00000250: eaf6 c1bc 6447 d73c 39f9 ce3c 6193 d1bd
00000260: fb32 3e3e b1d3 673e 7f4e 04bd 2c33 72bd
00000270: 515b 723e 4569 3e3c d7d9 74be c7f0 94bc
00000280: 0c9b 96bc b2c5 0cbe 0d18 283e 277e 3d3d
00000290: 076a 2abc 688c 8d3d aa42 e33d e43a e23d
000002a0: c402 273e cb13 97bc 9a95 09bc b970 95bd
000002b0: 7cd1 00be 723d e23c 885a 073e 567b 3f3e
000002c0: 9c64 633b 13ee 913d fab4 c8bd da2a 5c3d
000002d0: 3f38 fdbd 30de af3d 45b7 83bd 5605 21bc
000002e0: 2d6b a13d 92be 673d 1cce cc3d 8d81 cf3d
000002f0: 3b9e 4cbd 82cf 81bd 8af0 31bd 93ce 75bd
00000300: 108b 41bd 96a3 a73d 70bb 22be 4235 39bd
00000310: 7a8e 8bbd 4df2 203e e726 01bd 3ba8 8a3d
00000320: 4e28 1c3e 139e e0bd 329c eabd adb9 253e
00000330: 5bdf 98bd da0c 8e3c a307 b7be 7ba3 483e
00000340: e82e 053e 244c 14be ed5a dcbd d517 a7bd
00000350: 374f 783c f686 b1bd 6bbc bb3d 5776 713b
00000360: 721a 643e 35e6 1f3d 2359 4c3d 6212 11be
00000370: 22a2 43be 1e80 7ebc de51 8e3d e40a fa3d
00000380: 3a73 94bd 3aea ff3c 6881 0fbe 551c febd
00000390: 53cc bd3d e40e 4b3d 445e 30be 112e 3bbd
000003a0: 1727 b6bd 3407 773b 2d49 1a3d 22f7 88bd
000003b0: dee6 663d 6fd8 bc3d a021 0a3e 0f6b 7bbe
000003c0: a8d1 10be 871d 00be ecaf 203d cd70 afbd
000003d0: feb4 113d e543 9c3e 31ea 3abe db3c 7c3b
000003e0: 0a4b ccbd d27a 01be c99c c23c c828 433e
000003f0: 6753 5dbd e494 82bd d412 ce3d 2a27 22be

network_body._body_endoder.seq_layers.2.bias f4 [128]
-0.006167357 -0.0015863482 -0.015012579 -0.019223634 0.019612214 -0.006798771 -0.007018009 0.00891743
-0.0068636066 0.0075671356 -0.019638436 -0.01423761 0.025402188 0.0034071791 -0.016016359 -0.0063243615
0.0071209935 -0.0044389786 -0.0098649105 -0.01550714 -0.030480273 0.012064327 0.00510297 -0.0004625959
0.010262309 0.0031384118 -0.007315319 -0.0029009688 -0.015514497 0.0064077964 -0.026025984 -0.0011158484
-0.008490269 -0.012327613 0.008991644 -0.011582889 0.0021616477 -0.0041338545 -0.020072099 -0.019681811
0.0018086496 -0.022624554 -0.0021567529 -0.015446533 0.0032648307 0.0009653687 0.007078274 -0.015556637
0.0091576865 -0.01743166 -0.010164425 0.0018252019 -0.019542886 -0.004944664 -0.008599603 -0.014978218
0.011332706 0.008260437 0.008324454 -0.0032367734 -0.014809038 0.0021004584 0.011829026 0.023952818
0.01572665 0.0097665265 -0.0056797066 0.005913151 0.012250021 -0.012462045 0.010349683 0.010460496
0.024533438 -0.006036908 -0.010997825 -0.0042325878 -0.016450329 -0.012029957 0.013675075 -0.004848724
0.00798497 -0.0162228 -0.01326849 -0.016935054 0.014466033 -0.005607274 0.005355485 -0.0037257448
-0.0040130517 0.006581523 0.015554809 -0.0043530664 0.016331322 -0.0009062537 -0.0001819046 -0.00038665638
0.0055675055 0.0014325783 -0.007875497 -0.005693592 0.0015659363 -0.008743101 0.015963392 -0.0051105227
0.02215065 0.006230337 0.025288258 -0.007015039 -0.0017470166 -0.006753003 0.003321843 -0.004837926
0.016237589 -0.008388286 0.022775197 -0.0031027894 -0.0052977265 -0.0016643482 0.0033385635 0.008081501
-0.009858596 0.011765109 0.019848589 0.0013121169 -0.009857443 -0.015796613 -0.0005716033 0.011684516
00000000: 8a17 cabb 03ed cfba 52f7 75bc e27a 9dbc
00000010: cba9 a03c 3ac8 debb 54f7 e5bb 6a1a 123c
00000020: 1be8 e0bb bcf5 f73b c9e0 a0bc dd44 69bc
00000030: 4018 d03c fb4a 5f3b bd34 83bc 973c cfbb
00000040: 3957 e93b da74 91bb 6fa0 21bc a911 7ebc
00000050: c4b1 f9bc 74a9 453c d136 a73b 9288 f2b9
00000060: 3e23 283c d0ad 4d3b 58b5 efbb 2e1e 3ebb
00000070: 8430 7ebc 7ef8 d13b 7234 d5bc a941 92ba
00000080: c51a 0bbc c2f9 49bc b051 133c 28c6 3dbc
00000090: 6eaa 0d3b 4975 87bb 3e6e a4bc c03b a1bc
000000a0: 3610 ed3a 2157 b9bc 4f58 0dbb 7513 7dbc
000000b0: c5f6 553b cc10 7d3a def0 e73b 44e1 7ebc
000000c0: 1f0a 163c d7cc 8ebc b088 26bc 9d3b ef3a
000000d0: 6718 a0bc d906 a2bb 59e5 0cbc 3367 75bc
000000e0: d0ac 393c c956 073c 4a63 083c 0c20 54bb
000000f0: 9ba1 72bc d8a7 093b 88ce 413c b338 c43c
00000100: 2dd5 803c c803 203c d51c babb 1bc3 c13b
00000110: 50b4 483c 9b2d 4cbc b891 293c 8062 2b3c
00000120: 59fa c83c 41d1 c5bb 3930 34bc 85b1 8abb
00000130: d7c2 86bc 4c19 45bc 6c0d 603c 0ce2 9ebb
00000140: 64d3 023c ade5 84bc 1564 59bc 62bb 8abc
00000150: f102 6d3c 39bd b7bb 107d af3b a02b 74bb
00000160: eb7f 83bb d1a9 d73b 99d9 7e3c 2ba4 8ebb
00000170: 44c9 853c a891 6dba a5bd 3eb9 24b8 cab9
00000180: 9f6f b63b 5ac5 bb3a 3b08 01bc 5091 babb
00000190: 1a40 cd3a 393f 0fbc a9c5 823c 2c76 a7bb
000001a0: 4875 b53c db27 cc3b 5229 cf3c 6ade e5bb
000001b0: 26fc e4ba 4c48 ddbb 47b3 593b 7787 9ebb
000001c0: b104 853c 066f 09bc 0d93 ba3c 2b58 4bbb
000001d0: 8d98 adbb 4226 daba cdcb 5a3b 4668 043c
000001e0: f385 21bc 72c2 403c 8299 a23c 56fb ab3a
000001f0: 1d81 21bc e667 81bc a6d7 15ba 6a70 3f3c

action_model._discrete_distribution.branches.0.weight f4 [4, 128]
-0.07795359 0.05661224 0.13794202 -0.029920934 -0.03758 -0.12198969 -0.038835425 0.03477028
0.06515813 0.053763434 0.02777859 0.0884198 -0.057713393 -0.058236226 -0.056855004 0.05563582
0.04904422 -0.095492825 0.05294565 0.012902977 -0.040144023 -0.036719456 0.03945278 -0.06706267
-0.14696711 0.051294513 0.06608936 0.043958306 0.063013725 0.025678953 0.0044561685 -0.028028883
0.01098448 -0.057703003 0.05248174 -0.07860582 -0.06919489 0.06411716 0.017968908 -0.059908573
0.023622414 -0.052258532 -0.053394586 -0.049714472 -0.0396306 -0.05264149 0.047804542 -0.11465004
-0.07067365 -0.12713693 0.04411998 -0.12574036 -0.058728438 -0.083604515 0.0025311562 0.053501133
-0.04951708 0.0815796 -0.12281848 -0.1145052 -0.090153806 0.08932428 0.067665674 0.060076263
0.054261338 0.06704831 -0.07905221 0.14374724 -0.053494953 -0.050056882 -0.12698708 0.08126763
-0.002613267 0.01633636 -0.09771707 -0.04388127 -0.10508738 0.062871054 0.048488837 -0.044822466
0.052549012 0.08301523 -0.09786085 0.043701585 0.024103919 0.053815737 0.04295502 0.100859776
-0.06759116 0.089750245 0.08858618 -0.10327916 0.05782799 -0.050448306 -0.10217803 -0.05283495
-0.10427483 -0.049459133 0.09266132 0.054448504 -0.046109736 0.012351437 0.06236048 -0.045116115
-0.048396464 0.04671817 0.004690769 -0.085606985 0.08462585 0.025657319 -0.071703784 -0.06576005
-0.122119166 -0.106454395 0.07692148 -0.034275115 0.04303278 -0.01380947 -0.10580824 -0.05428583
-0.005207131 0.07850584 -0.041523848 0.0320498 -0.06788992 -0.058146793 0.012727751 0.026481649
-0.01412319 0.0141397165 0.09590967 -0.08569711 -0.098154835 0.031756096 -0.015110548 -0.19742635
-0.0020794277 -0.014345291 0.029132526 -0.023016255 -0.12905328 -0.024669847 0.022948338 -0.17222908
0.0054507935 0.009180578 0.00039295532 0.072947636 -0.010018167 -0.01789757 0.051338453 -0.00043324733
0.056266207 0.0067858095 0.12323131 0.008144598 -0.011204468 0.12539425 0.005308927 -0.08404956
-0.016313424 -0.040585544 0.013798027 0.09901335 -0.011430558 0.13096187 0.18739726 -0.05340089
-0.12311791 0.011442753 0.051247697 -0.027548062 -0.0013444893 -0.0030886182 -0.01120273 0.09784343
0.032715093 0.047709864 0.0045727296 -0.035037644 -0.029152783 -0.015227862 -0.09071457 0.091649935
-0.0038736835 -0.0028972167 0.014756149 -0.043868702 0.06451162 0.033632606 -0.06621359 0.008801554
-0.014031327 0.009659153 -0.017448895 -0.12892696 -0.013920638 -0.007641452 0.102051735 0.086888045
0.018430632 0.02807392 0.021541327 0.00527714 0.10157901 0.0130479215 -0.12412691 -0.01836583
0.005374559 0.09987987 0.19846042 -0.0020679738 -0.1728626 0.009428699 0.24690278 -0.014769372
0.010966367 -0.0087380335 -0.026341502 -0.01065947 0.018127993 -0.012080103 0.027652612 0.004489731
0.0093823485 -0.027313767 0.0301881 0.0063564386 -0.014334432 0.1026129 0.14068939 0.05156334
-0.08232178 0.013769089 -0.018762885 -0.017407387 -0.07136264 -0.08096647 -0.0064849188 -0.01702439
0.043221936 0.058252223 -0.020943936 -0.037639372 0.009260976 -0.14363147 0.08706811 -0.009609763
0.017685251 -0.011336669 -0.025818633 0.0070819743 -0.011585906 0.0045676394 0.02870539 0.034681585
00000000: 22a6 9fbd 3ce2 673d ac40 0d3e bf1c f5bc
00000010: 7ced 19bd bbd5 f9bd e511 1fbd 486b 0e3d
00000020: a071 853d 0c37 5c3d ed8f e33c 7115 b53d
00000030: e164 6cbd 1c89 6ebd cbe0 68bd 63e2 633d
00000040: 98e2 483d be91 c3bd 8add 583d 0267 533c
00000050: 0f6e 24bd 2467 16bd 3d99 213d 2758 89bd
00000060: 8c7e 16be 321a 523d dc59 873d a00d 343d
00000070: 570d 813d ab5c d23c 0d05 923b d49c e5bc
00000080: 40f8 333c fc59 6cbd 18f7 563d 17fc a0bd
00000090: 0db6 8dbd dc4f 833d 8833 933c b162 75bd
000000a0: cb83 c13c 0b0d 56bd 48b4 5abd 67a1 4bbd
000000b0: b253 22bd 9a9e 57bd b2ce 433d a4cd eabd
000000c0: 59bd 90bd 2f30 02be 27b7 343d 15c2 00be
000000d0: 3b8d 70bd d838 abbd c1e1 253b 0124 5b3d
000000e0: 6cd2 4abd 3513 a73d 4188 fbbd b481 eabd
000000f0: 8fa2 b8bd a6ef b63d 4d94 8a3d 8712 763d
00000100: 2341 5e3d a050 893d 20e6 a1bd 7a32 133e
00000110: 861d 5bbd 7208 4dbd e708 02be a56f a63d
00000120: 5843 2bbb d4d3 853c e31f c8bd d9bc 33bd
00000130: 0d38 d7bd 8ac2 803d 3b9c 463d c397 37bd
00000140: a23d 573d e403 aa3d 456b c8bd 6f00 333d
00000150: 9575 c53c e46d 5c3d 9af1 2f3d 928f ce3d
00000160: 3c6d 8abd face b73d ac6c b53d 0684 d3bd
00000170: 0bdd 6c3d e2a2 4ebd b742 d1bd 7669 58bd
00000180: 0b8e d5bd a995 4abd 38c5 bd3d 6505 5f3d
00000190: 90dd 3cbd ae5d 4a3c b46d 7f3d adcb 38bd
000001a0: 5f3b 46bd 8d5b 3f3d 06b5 993b b752 afbd
000001b0: 5150 ad3d 4c2f d23c 6fd9 92bd 35ad 86bd
000001c0: 9d19 fabd c304 dabd 0289 9d3d 1064 0cbd
000001d0: 2443 303d 1e41 62bc feb1 d8bd d25a 5ebd
000001e0: 95a0 aabb abc7 a03d e914 2abd a746 033d
000001f0: df09 8bbd 552b 6ebd 0f88 503c 0bf0 d83c
00000200: f464 67bc 45aa 673c 4a6c c43d f781 afbd
00000210: 6705 c9bd ae12 023d 3b92 77bc 222a 4abe
00000220: 0247 08bb 8308 6bbc 56a7 ee3c 968c bcbc
00000230: 8b26 04be 6b18 cabc 27fe bb3c d25c 30be
00000240: 929c b23b 236a 163c 9205 ce39 9265 953d
00000250: 3d23 24bc ed9d 92bc 4548 523d 7925 e3b9
00000260: 6577 663d 7f5b de3b b260 fc3d ec70 053c
00000270: f292 37bc 5a67 003e 82f6 ad3b 2d22 acbd
00000280: bba3 85bc 073d 26bd 1f11 623c 83c7 ca3d
00000290: 3c47 3bbc de1a 063e 11e5 3f3e e4ba 5abd
000002a0: 3e25 fcbd 627a 3b3c 1be9 513d 79ac e1bc
000002b0: 9339 b0ba 6a6a 4abb a88b 37bc 2362 c83d
000002c0: 4300 063d 6b6b 433d d6d6 953b a283 0fbd
000002d0: d1d1 eebc 487e 79bc 8fc8 b9bd f6b2 bb3d
000002e0: a0dd 7dbb 3bdf 3dbb c6c3 713c abaf 33bd
000002f0: ab1e 843d 58c2 093d fe9a 87bd 6534 103c
00000300: a7e3 65bc 6d41 1e3c fcf0 8ebc 6e05 04be
00000310: 6313 64bc 2565 fabb 8000 d13d 5cf2 b13d
00000320: d6fb 963c 47fb e53c 7077 b03c dceb ac3b
00000330: a808 d03d f3c6 553c 4036 febd f073 96bc
00000340: 121d b03b d18d cc3d 3539 4b3e d886 07bb
00000350: e502 31be d47a 1a3c 15d4 7c3e 3cfb 71bc
00000360: 47ac 333c f829 0fbc 22ca d7bc 0fa5 2ebc
00000370: 2881 943c a0eb 45bc bb87 e23c 981e 933b
00000380: 6cb8 193c 1fc1 dfbc 094d f73c ac49 d03b
00000390: f7da 6abc b626 d23d e110 103e 1534 533d
000003a0: 5298 a8bd bf97 613c 9fb4 99bc f099 8ebc
000003b0: 9326 92bd c0d1 a5bd 717f d4bb bc76 8bbc
000003c0: 7c09 313d e299 6e3d 9e92 abbc be2b 1abd
000003d0: 59bb 173c 2114 13be c450 b23d 4472 1dbc
000003e0: a9e0 903c 70bd 39bc 9981 d3bc e80f e83b
000003f0: d0d2 3dbc 23ac 953b 9127 eb3c 470e 0e3d

action_model._discrete_distribution.branches.0.bias f4 [4]
-0.04324218 -0.005056525 0.03539775 -0.048350934
00000000: b61e 31bd 35b1 a5bb 3bfd 103d a10b 46bd

action_model._discrete_distribution.branches.1.weight f4 [1, 128]
-0.0010568938 0.00059689017 -0.013176167 -0.008941467 -0.004324253 0.0032458042 0.0016686161 0.00412262
0.0027524212 0.007941908 -0.0010970705 -0.014062397 0.009776123 -0.008216191 0.010265587 0.016634693
0.0028588218 0.001429077 -0.009606385 0.009304674 -0.0029399772 0.013157598 0.0035720344 -0.01359407
-0.022398034 -0.011847252 -0.006168906 -0.0083475355 0.003296721 0.006080957 0.008622085 0.0046927333
-0.0032140096 0.005773286 -0.004713896 0.004896886 -0.0054974607 -0.0032598132 0.007901396 0.0060688406
-0.009797474 0.010722576 -0.014724036 -0.008338495 -0.009190175 -0.0040735016 -0.0074014515 -1.5648908e-05
-0.0017548747 0.0051228884 -0.014743646 0.0028757204 -0.0027286208 0.0030114418 -0.013757909 -0.012570055
0.0058506182 0.0062593194 -0.0011746528 0.008103601 0.010224043 0.00014181242 -0.0109919645 0.006425896
0.014109693 -0.0047930186 -0.0045770924 0.018694526 0.010641382 -0.0068050097 0.004702765 0.02339693
0.0035172328 -0.0060852813 0.012878934 0.0037176628 -0.0015769725 0.011101126 0.0066929064 -0.0018263109
0.01752463 -0.00046137423 0.007736006 -0.0030199145 -0.0011950725 -0.0049451767 -0.004466416 -0.00838555
0.0021897133 -0.0048937295 0.014485979 0.003921834 -0.0055523426 0.009834242 -0.015691577 0.0056290827
-0.0146976635 -0.0037115503 -0.007977965 -0.0100947665 -0.00057641463 -0.012081477 0.0013208704 -0.007419005
0.010749532 0.014102489 -0.015197954 0.0022247822 -0.007950704 0.0049899938 -0.0020380802 -0.003931779
-0.008073289 0.010199245 0.00328012 0.0029572262 0.011017553 0.00063045754 -0.010597359 -0.004007717
-0.008561468 0.017864456 0.0011183927 0.0051295273 0.01776372 -0.009081413 -0.0034233404 -0.006695988
00000000: 7987 8aba 9f78 1c3a dae0 57bc 3b7f 12bc
00000010: 77b2 8dbb 8fb7 543b 77b5 da3a 0b17 873b
00000020: f761 343b c71e 023c 94cb 8fba f865 66bc
00000030: 082c 203c 349d 06bc fe30 283c 7b45 883c
00000040: 125b 3b3b de4f bb3a 1964 1dbc a272 183c
00000050: a2ac 40bb f792 573c cb18 6a3b aab9 5ebc
00000060: 157c b7bc fa1a 42bc 8924 cabb 1ac4 08bc
00000070: cd0d 583b c442 c73b a543 0d3c 80c5 993b
00000080: 22a2 52bb d52d bd3b 0777 9abb 0f76 a03b
00000090: 0b24 b4bb 97a2 55bb db74 013c 20dd c63b
000000a0: 9685 20bc bead 2f3c 153d 71bc 2f9e 08bc
000000b0: 6392 16bc 027b 85bb e087 f2bb c645 83b7
000000c0: d303 e6ba e7dd a73b 558f 71bc 9576 3c3b
000000d0: a9d2 32bb 9c5b 453b da68 61bc a2f2 4dbc
000000e0: 8bb6 bf3b fa1a cd3b cff6 99ba f7c4 043c
000000f0: bf82 273c 7bb3 1439 a417 34bc 5390 d23b
00000100: 572c 673c c10e 9dbb 6ffb 95bb 4325 993c
00000110: 3159 2e3c 8ffc debb a719 9a3b ebaa bf3c
00000120: 6081 663b 0a67 c7bb 2a02 533c 08a4 733b
00000130: 6bb2 ceba 7fe1 353c 2b50 db3b d360 efba
00000140: d08f 8f3c 9ae4 f1b9 527e fd3b c2e9 45bb
00000150: fba3 9cba 260b a2bb 035b 92bb 8c63 09bc
00000160: 4b81 0f3b 945b a0bb 9a56 6d3c ba82 803b
00000170: 6df0 b5bb cd1f 213c 9f8b 80bc 2b74 b83b
00000180: 78ce 70bc 7b3d 73bb 03b6 02bc 8564 25bc
00000190: 881a 17ba 63f1 45bc 0e21 ad3a 201b f3bb
000001a0: ce1e 303c 200e 673c d700 79bc a7cd 113b
000001b0: ab43 02bc 1a83 a33b 5091 05bb 27d6 80bb
000001c0: d445 04bc bc1a 273c 48f7 563b 06ce 413b
000001d0: f782 343c 4a45 253a 8ca0 2dbc 2b53 83bb
000001e0: 6645 0cbc 7b58 923c 0897 923a 9815 a83b
000001f0: 3985 913c 35ca 14bc 1f5a 60bb 056a dbbb

onnx::LSTM_114 f4 [1, 512, 128]
0.058076352 -0.024960201 0.086368464 0.07906919 0.046599288 0.13856792 0.024672695 -0.096831895
-0.07219453 -0.04171121 -0.05252622 -0.09609256 0.13053383 -0.0023772554 -0.033484846 0.11503343
-0.12501481 -0.12935646 -0.042191435 -0.12564467 -0.022490647 0.06703106 -0.12391403 -0.022675883
0.15673512 0.15537938 0.14570495 0.095097505 -0.093727045 -0.08844023 -0.16723976 -0.06036735
0.03958888 -0.015515158 0.04543275 -0.012542043 -0.019068511 0.14250071 0.06361078 -0.05488979
0.00054719945 -0.08712878 -0.00864477 -0.057635367 -0.059007045 0.0334744 -0.13211219 -0.024946399
-0.11581248 -0.020510202 -0.14208177 -0.15896589 -0.101860374 0.061246283 -0.0040001255 -0.028504902
0.08013973 0.049085822 -0.028290816 0.024626216 -0.10667497 0.15495285 0.06965947 -0.031106202
0.052350778 0.044662602 0.047427908 -0.049477395 -0.015324637 -0.10568669 0.08549493 0.056993447
-0.12798332 -0.05631671 0.09312917 -0.033090618 -0.15705203 0.045267064 -0.089342594 -0.0063487985
-0.13822553 0.07798978 0.06349506 0.1430307 0.02458057 0.018816013 -0.12917458 0.15934044
-0.059550807 0.0104572065 0.0041386774 -0.0111328345 0.08864575 -0.15944842 -0.0074515855 0.13891481
-0.122771956 -0.011314808 0.0565754 -0.077013955 -0.12708548 -0.059801977 0.103747524 -0.05254947
0.11406392 -0.059184734 -0.11564318 0.16719958 0.10736425 -0.022738937 -0.041141845 0.10906965
0.043004606 -0.080025576 0.07687495 -0.095725626 0.07180983 -0.05325591 0.094773635 0.150591
-0.03781018 0.014216173 -0.049617544 -0.0515346 -0.037706748 0.10341491 -0.034949616 -0.026264409
0.10267555 -0.10586515 0.08880833 0.051129382 -0.04355439 -0.15335801 0.0405891 0.039934356
-0.060965467 0.1198818 -0.111206606 -0.06836651 -0.10930802 0.02903857 -0.08439688 -0.08486723
-0.13743055 0.087225325 0.08906353 0.08219172 0.08871337 -0.18071519 -0.029257296 -0.11193896
-0.0551739 0.16740517 -0.06740325 0.02175749 -0.07831465 -0.029548634 -0.05877394 0.14513862
-0.094384715 0.09434637 -0.025616456 0.065364175 -0.17681812 -0.042932115 0.05870399 -0.08412489
-0.06740554 0.00946515 -0.06643072 0.065287046 0.13685408 -0.046766724 -0.038921934 0.051159687
0.16817687 -0.017874079 -0.0048386445 -0.04553458 0.078300245 -0.06683053 -0.17368352 -0.058830753
0.13226597 0.11591851 -0.025090044 0.10266021 0.17156972 0.1399702 -0.06274071 -0.12735984
0.10801817 0.05635213 0.055595044 0.03902766 -0.004955609 -0.081744 0.013887411 0.14909124
-0.067653365 -0.036175262 -0.139038 -0.01573876 -0.12132247 -0.07387386 -0.08519367 0.13614151
0.07108269 0.10275904 -0.12741174 -0.12320168 -0.08292747 -0.17206994 0.052151646 -0.08746222
-0.08707092 -0.046545513 -0.0070958254 0.0012783558 -0.00022531998 -0.15268393 -0.038895383 0.0023733175
0.10645177 -0.034566272 -0.019301303 -0.09174726 -0.07863078 -0.106834695 -0.13998742 0.01200968
-0.050696816 0.07675128 -0.11320384 0.007479659 0.05187692 0.026222678 0.08612574 -0.01875667
-0.05877313 0.010026071 -0.10988432 -0.07163962 0.10654791 -0.056479156 0.008630379 -0.10717863
-0.10930892 0.090121955 0.10902099 0.07806456 -0.16088612 0.10379004 0.10415763 -0.16793305
00000000: 78e1 6d3d 5679 ccbc f3e1 b03d 07ef a13d
00000010: e5de 3e3d c0e4 0d3e 641e ca3c cd4f c6bd
00000020: bada 93bd 60d9 2abd bc25 57bd 2dcc c4bd
00000030: a9aa 053e bacb 1bbb 6827 09bd a696 eb3d
00000040: e203 00be 0576 04be edd0 2cbd ffa8 00be
00000050: 4e3e b8bc 9547 893d a4c6 fdbd c6c2 b9bc
00000060: 2c7f 203e c61b 1f3e ae33 153e 7bc2 c23d
00000070: f7f3 bfbd 2720 b5bd e640 2bbe c143 77bd
00000080: f327 223d 4a33 7ebc b117 3a3d 247d 4dbc
00000090: 9135 9cbc b5eb 113e 5e46 823d 1ed4 60bd
000000a0: ef71 0f3a 9370 b2bd cba2 0dbc 1013 6cbd
000000b0: 5fb1 71bd 741c 093d 6b48 07be 645c ccbc
000000c0: 182f edbd 0305 a8bc e27d 11be f4c7 22be
000000d0: 2c9c d0bd 62dd 7a3d 7c13 83bb 1d83 e9bc
000000e0: 4c20 a43d 370e 493d 24c2 e7bc ebbc c93c
000000f0: 6878 dabd f6ab 1e3e a0a9 8e3d 6fd2 febc
00000100: c56d 563d 22f0 363d c443 423d cfa8 4abd
00000110: 3014 7bbc 4372 d8bd f717 af3d f671 693d
00000120: 0f0e 03be 5aac 66bd 82ba be3d 078a 07bd
00000130: 3fd2 20be f569 393d 40f9 b6bd 9509 d0bb
00000140: fe8a 0dbe 1bb9 9f3d b309 823d a476 123e
00000150: 315d c93c 0a24 9a3c 5746 04be 242a 233e
00000160: 8ceb 73bd b454 2b3c be9d 873b 7e66 36bc
00000170: e78b b53d 7246 23be 6e2c f4bb af3f 0e3e
00000180: dd6f fbbd bf61 39bc 9bbb 673d 7eb9 9dbd
00000190: b222 02be ebf2 74bd 9579 d43d 1d3e 57bd
000001a0: 589a e93d b16b 72bd 55d6 ecbd 5e36 2b3e
000001b0: cae1 db3d 0247 babc 5a84 28bd e95f df3d
000001c0: 9925 303d 73e4 a3bd 9d70 9d3d cc0b c4bd
000001d0: 0811 933d de22 5abd ae18 c23d 8734 1a3e
000001e0: d9de 1abd f4ea 683c c43b 4bbd f215 53bd
000001f0: 6472 1abd 32cb d33d 5427 0fbd 7528 d7bc
00000200: 8f47 d23d d4cf d8bd 24e1 b53d 0b6d 513d
00000210: 1766 32bd e209 1dbe c240 263d 3592 233d
00000220: edb6 79bd 9784 f53d 4ac0 e3bd be03 8cbd
00000230: e2dc dfbd 4ce2 ed3c 45d8 acbd dfce adbd
00000240: 98ba 0cbe 31a3 b23d f166 b63d 2254 a83d
00000250: 5baf b53d 670d 39be ffac efbc 4140 e5bd
00000260: 07fe 61bd 436c 2b3e b70a 8abd c33c b23c
00000270: 6e63 a0bd fa0f f2bc f1bc 70bd 389f 143e
00000280: c64c c1bd ab38 c13d 9ad9 d1bc a7dd 853d
00000290: cf0f 35be 96d9 2fbd 9873 703d ac49 acbd
000002a0: ea0b 8abd b713 1b3c d40c 88bd 37b5 853d
000002b0: 7a23 0c3e 778e 3fbd 9b6c 1fbd d28c 513d
000002c0: 8f36 2c3e a96c 92bc 7e8d 9ebb 7882 3abd
000002d0: e15b a03d 72de 88bd 18da 31be 84f8 70bd
000002e0: bb70 073e af66 ed3d a389 cdbc 843f d23d
000002f0: f9af 2f3e 5954 0f3e 347e 80bd 9e6a 02be
00000300: a138 dd3d 7ed1 663d a1b7 633d 78db 1f3d
00000310: a962 a2bb 6669 a7bd 0688 633c 60ab 183e
00000320: d98d 8abd 832c 14bd fa5f 0ebe 92ee 80bc
00000330: ea77 f8bd 2e4b 97bd 057a aebd ae68 0b3e
00000340: cd93 913d 5573 d23d 3978 02be 2a51 fcbd
00000350: e1d5 a9bd 1a33 30be f79c 553d 641f b3bd
00000360: 3d52 b2bd 82a6 3ebd 1984 e8bb 818e a73a
00000370: df43 6cb9 2d59 1cbe c450 1fbd a989 1b3b
00000380: 6303 da3d 5d95 0dbd c41d 9ebc fde5 bbbd
00000390: 2d09 a1bd 26cc dabd dd58 0fbe 40c4 443c
000003a0: 77a7 4fbd c62f 9d3d 6ad7 e7bd ed17 f53b
000003b0: e57c 543d f1d0 d63c b162 b03d 97a7 99bc
000003c0: 18bc 70bd 6444 243c 080b e1bd cbb7 92bd
000003d0: ca35 da3d b056 67bd 6f66 0d3c 7880 dbbd
000003e0: 5bdd dfbd dc91 b83d 6646 df3d 50e0 9f3d
000003f0: 55bf 24be df8f d43d 9850 d53d a4f6 2bbe

onnx::LSTM_115 f4 [1, 512, 128]
0.012197294 0.10581223 0.008895439 0.02085329 -0.07553982 -0.012584602 0.054792497 -0.060632557
-0.102982305 -0.14766948 0.10863942 0.048707377 0.076507844 0.10060226 -0.039834734 0.020247968
-0.08146515 0.08541482 -0.004735445 0.07414799 0.12275296 0.0063696736 -0.10014698 -0.14636086
0.15783787 0.00931903 2.6234049e-05 -0.14615414 -0.13924652 -0.0349174 0.06691564 -0.06850424
-0.11920499 -0.02293901 0.054781403 -0.04515137 0.13390316 -0.0028187002 -0.02585432 -0.011009145
-0.0629828 0.09292754 -0.07278498 -0.12670752 -0.07417169 -0.06418249 0.094412 -0.09147102
0.14365433 0.1374078 0.097542614 -0.002458898 0.06353504 -0.0065018344 -0.12943757 0.060599685
-0.051055647 0.10857229 0.112077236 -0.03625704 0.007970167 0.0755675 0.009714608 0.060253993
0.04405465 0.043559548 0.12155618 -0.009430063 -0.13711302 0.1101231 0.059886143 -0.0043865438
0.09881405 -0.035266027 -0.018506978 0.10258663 0.015637642 0.06796771 0.13527878 0.0044540367
0.047209606 0.042034425 -0.03932341 0.078509614 -0.09249831 -0.13407281 -0.103813894 0.090301655
-0.116766594 0.018516097 0.13350672 -0.10253732 0.02691139 -0.14542477 -0.0487206 -0.024022285
0.010980392 0.0523774 0.03122922 -0.053334493 0.13215831 0.114162646 -0.13342224 -0.10084814
0.1454313 -0.14946619 -0.10731062 0.072836496 -0.041800246 -0.012572426 -0.06349062 0.090989456
0.03131165 -0.11278469 -0.087561466 -0.02379001 0.08535525 -0.12151266 0.007264353 0.065008394
-0.030119628 0.06013217 0.021189623 0.07213384 -0.08101245 0.07181001 -0.1463231 -0.09815017
-0.053295262 0.061037432 -0.021229489 -0.103995286 0.068355106 -0.012893261 -0.09549198 -0.10980064
0.07422294 -0.12831716 -0.110802025 -0.14661099 0.009489262 -0.11117981 -0.004267762 -0.15808219
0.08975438 -0.019516975 0.045345496 -0.013252452 -0.08938896 0.1149372 -0.12243836 0.10911449
-0.09275451 0.071401745 -0.15147658 -0.18059953 -0.098360375 0.09483034 0.008845874 -0.10173037
0.043095656 0.07000302 0.07564986 -0.12296846 -0.054353043 -0.1044565 0.07802545 0.053128127
-0.0008206326 -0.13314083 0.14986566 0.13574211 -0.06540251 0.031793 -0.072380595 -0.052061066
-0.028773036 -0.028394584 0.096195154 -0.13984461 0.11232368 0.12273486 -0.028436149 0.034826506
0.05607365 -0.15447848 0.10368496 -0.10296512 -0.08969838 0.09737453 0.066190206 0.079145685
-0.10457709 -0.13164462 0.073804565 -0.024873625 -0.09613573 0.08177796 0.15595874 0.03771668
0.045996763 -0.04647681 0.026624627 0.016590795 -0.06900101 -0.047491107 -0.085776016 0.16157877
-0.07175031 0.10639823 0.018741105 -0.011989934 0.13912234 -0.15527365 0.10234732 -0.071442075
-0.14597367 0.0192097 0.13180771 -0.109027274 -0.123365246 0.033331234 0.0888386 0.0502296
0.09057733 -0.117397465 -0.18379326 -0.16242331 -0.071140036 -0.07347715 -0.104756966 -0.10706833
0.17293116 -0.10221 -0.039497532 0.0782094 0.04860807 -0.029410841 -0.057874247 0.13560008
-0.024453655 0.019950133 -0.08256273 0.023908177 -0.053049125 0.120388106 0.06487945 -0.08050513
0.05666448 -0.060245715 0.051791023 -0.15785865 -0.038168065 -0.07812306 -0.10889408 -0.10766799
00000000: 29d7 473c 15b4 d83d 2dbe 113c 85d4 aa3c
00000010: 9fb4 9abd a62f 4ebc 196e 603d d859 78bd
00000020: 63e8 d2bd ab36 17be 587e de3d 6381 473d
00000030: 25b0 9c3d 8f08 ce3d bf29 23bd 11df a53c
00000040: 33d7 a6bd f7ed ae3d cb2b 9bbb e7da 973d
00000050: e765 fb3d b2b8 d03b dc19 cdbd 9fdf 15be
00000060: 40a0 213e d8ae 183c 3111 dc37 6ea9 15be
00000070: a496 0ebe 8c05 0fbd 110b 893d f34b 8cbd
00000080: bf21 f4bd 97ea bbbc 7762 603d a5f0 38bd
00000090: e91d 093e f1b9 38bb 70cc d3bc b35f 34bc
000000a0: 20fd 80bd cb50 be3d 4b10 95bd 9ebf 01be
000000b0: 54e7 97bd 1c72 83bd 145b c13d 2855 bbbd
000000c0: 1f1a 133e a1b4 0c3e 6cc4 c73d 7625 21bb
000000d0: a91e 823d 570d d5bb 488b 04be 6037 783d
000000e0: ba1f 51bd 265b de3d c088 e53d 4382 14bd
000000f0: 4e95 023c 22c3 9a3d 052a 1f3c e4cc 763d
00000100: a672 343d 7f6b 323d 72f2 f83d 8d80 1abc
00000110: 5b67 0cbe 3888 e13d 2c4b 753d ffbc 8fbb
00000120: 055f ca3d 1c73 10bd f29b 97bc f018 d23d
00000130: 831a 803c a832 8b3d 8586 0a3e 2bf3 913b
00000140: dc5e 413d 4a2c 2c3d 9511 21bd a6c9 a03d
00000150: c16f bdbd 624a 09be 619c d4bd 13f0 b83d
00000160: 5323 efbd 12af 973c fcb5 083e 16ff d1bd
00000170: 4675 dc3c 3bea 14be 408f 47bd 62ca c4bc
00000180: 1ae7 333c af89 563d 6cd4 ff3c 4575 5abd
00000190: 8254 073e 1bce e93d d79f 08be 7889 cebd
000001a0: f1eb 143e aa0d 19be acc5 dbbd 4d2b 953d
000001b0: bc36 2bbd 94fc 4dbc 5f07 82bd ae58 ba3d
000001c0: a540 003d a9fb e6bd 6d53 b3bd 44e3 c2bc
000001d0: bcce ae3d a1db f8bd cf09 ee3b 1f23 853d
000001e0: 70bd f6bc 264d 763d dc95 ad3c e8ba 933d
000001f0: dbe9 a5bd 2011 933d b9d5 15be f502 c9bd
00000200: 224c 5abd 6302 7a3d 77e9 adbc 7bfb d4bd
00000210: c3fd 8b3d 423e 53bc 4d91 c3bd 28df e0bd
00000220: 3202 983d 9365 03be 2cec e2bd 3121 16be
00000230: d978 1b3c 3db2 e3bd 95d8 8bbb 4ce0 21be
00000240: 25d1 b73d 10e2 9fbc 33bc 393d d020 59bc
00000250: 8f11 b7bd 3264 eb3d f6c0 fabd 6b77 df3d
00000260: 14f6 bdbd 143b 923d ad1c 1bbe 15ef 38be
00000270: 2a71 c9bd 6936 c23d 49ee 103c 0358 d0bd
00000280: 1285 303d be5d 8f3d 50ee 9a3d e3d6 fbbd
00000290: 4ca1 5ebd 4aed d5bd cfcb 9f3d e19c 593d
000002a0: b91f 57ba 1256 08be 6276 193e fbff 0a3e
000002b0: c0f1 85bd 6039 023d 473c 94bd fc3d 55bd
000002c0: 6eb5 ebbc c29b e8bc f701 c53d 6d33 0fbe
000002d0: f509 e63d 6a5c fb3d edf2 e8bc 3da6 0e3d
000002e0: 7cad 653d 9b2f 1ebe c858 d43d 60df d2bd
000002f0: c9b3 b7bd 4c6c c73d bb8e 873d 2217 a23d
00000300: 832c d6bd d9cd 06be d926 973d c6c3 cbbc
00000310: cfe2 c4bd 347b a73d a6b3 1f3e ce7c 1a3d
00000320: 1a67 3c3d 785e 3ebd e41b da3c 6be9 873c
00000330: 6750 8dbd 0986 42bd 56ab afbd e874 253e
00000340: d4f1 92bd 51e7 d93d f286 993c 6e71 44bc
00000350: 1676 0e3e 0e00 1fbe 799b d13d 3950 92bd
00000360: 1f7a 15be a95d 9d3c 9af8 063e b149 dfbd
00000370: eba6 fcbd 5586 083d 03f1 b53d 8ebd 4d3d
00000380: 9b80 b93d 156e f0bd 4d34 3cbe 4c52 26be
00000390: deb1 91bd 307b 96bd d28a d6bd a446 dbbd
000003a0: de14 313e 7a53 d1bd 2ac8 21bd 402c a03d
000003b0: 4119 473d 01ef f0bc 8c0d 6dbd bfda 0a3e
000003c0: 0853 c8bc 766e a33c a616 a9bd 15db c33c
000003d0: 0a4a 59bd 0a8e f63d 84df 843d e0df a4bd
000003e0: 0419 683d 36c4 76bd d322 543d b3a5 21be
000003f0: 1e56 1cbd fcfe 9fbd dc03 dfbd 0981 dcbd

onnx::LSTM_116 f4 [1, 1024]
0.01299608 0.032831185 0.0054425946 0.017625377 -0.0023049526 0.01523891 0.021021707 0.0118566975
0.01997369 0.0135407 0.023828184 0.02705618 -0.00031101817 0.024977231 1.2698619e-05 0.047203295
0.012528642 0.017763011 0.026214594 0.008733515 0.029396966 0.017687194 0.025142837 0.025848366
-0.0082257865 0.029615242 0.026596678 0.013743578 0.004756254 0.0081926575 0.0035734454 0.017266186
-0.008506011 0.03371052 0.02055465 0.0042623784 0.01877067 0.0024230464 0.038481858 0.027242793
-0.017750667 0.001916673 -0.0024546254 0.016242726 0.029849356 0.024694504 0.010981782 -0.010604104
-0.010196681 -0.013555254 0.018230049 0.0108147925 0.020799426 0.028341172 0.025896776 0.0137896
0.015107764 0.029184518 0.02442684 0.015551834 -0.02387535 0.013627357 0.019615402 0.011581722
0.013098102 0.022361128 0.025472818 0.0014259246 0.019411858 0.030622525 -0.0060504996 0.024263822
0.005958712 0.0063742325 0.026184533 0.020369193 0.015964938 0.017673168 0.03443891 0.02622646
0.0033336645 0.009505657 0.012771949 0.026182227 -0.0011190318 0.01648487 0.055124022 0.007698309
0.007521572 0.020965526 -0.021359224 0.0076908846 0.015702553 0.034614056 0.019329151 0.0022347462
0.022005018 0.025314696 0.025898779 0.019949617 0.028229097 0.027256988 0.019422757 0.007061984
0.03425086 0.03561458 -0.01610981 -0.012149916 0.0054577007 0.006393303 0.01996343 0.01763167
0.018804913 -0.011707971 0.022223204 0.03557648 0.031696364 0.04136615 -0.005627076 0.028193202
-0.0039857137 0.021216562 0.009490333 0.042227797 0.03403562 0.021271579 0.010197106 0.028327225
0.018299172 -0.012415479 0.024326341 0.0219287 0.012922525 0.03257066 -0.0011975328 0.024759026
0.017911643 0.026563035 0.0014907152 0.029782154 0.016442897 0.0072797737 0.016708752 -0.008218658
0.0007163149 0.032147583 0.019644815 -0.006008402 0.0024067168 -0.004109868 0.0006614745 0.0075531793
0.0033150876 0.028723989 0.0061301375 0.012047209 0.0071721063 0.044895362 -0.013152993 0.0022254693
-0.0121955285 -0.004445374 0.0015819715 0.02272988 0.01983457 0.013413304 -0.0016524844 0.009504519
0.034261275 -0.022535391 0.02405206 -0.0042998344 0.022726065 -0.006019207 0.031718004 -0.0004095541
0.019052792 0.024257446 0.0035341089 0.005678598 0.0014398445 0.01937929 0.022215957 -0.0029872998
-0.0039690305 0.0074611423 0.026223797 0.038693458 0.001855385 0.0063237264 0.015906109 0.010143619
-0.0014990183 0.022835357 0.007711127 0.006646576 7.90655e-05 0.030753048 -0.012871553 0.014373869
-0.009461604 0.015286423 0.003955822 -0.0054801693 0.019288799 0.001627412 0.00027895637 0.025640935
0.01687435 0.004187864 0.057728037 0.00018837862 0.042392366 -0.0010984417 0.008677101 0.015621607
0.015091896 0.012536285 -0.0034560077 0.021780767 0.010875248 -0.0025372156 0.021468695 0.0005573231
0.011060877 0.021318907 0.018391864 0.013951707 -0.006197533 -0.0094855195 0.03512591 0.006306038
0.012555908 0.00088024477 -0.011984574 -0.0026061053 0.035147123 0.016231062 0.012834772 -0.006537893
0.012563693 0.017447663 0.016068608 0.009587201 0.006572171 0.026602654 0.016377833 0.021763857
-0.0043643992 -0.001527743 -0.0054649087 0.026886089 0.017907988 0.02115431 -0.005967214 -0.0034132344
00000000: 83ed 543c fe79 063d cb57 b23b 1863 903c
00000010: b00e 17bb 9fac 793c b735 ac3c 9842 423c
00000020: dd9f a33c d0d9 5d3c 5333 c33c eca4 dd3c
00000030: 2710 a3b9 0d9d cc3c 270c 5537 3e58 413d
00000040: ef44 4d3c bc83 913c fdbf d63c 0417 0f3c
00000050: e8d1 f03c bce4 903c 5af8 cd3c f4bf d33c
00000060: 73c5 06bc aa9b f23c 47e1 d93c bf2c 613c
00000070: 5ada 9b3b 7f3a 063c 7730 6a3b d171 8d3c
00000080: cc5c 0bbc 0b14 0a3d 3a62 a83c 6cab 8b3b
00000090: f3c4 993c f9cb 1e3b 279f 1d3d 472c df3c
000000a0: d969 91bc e038 fb3a c8dd 20bb 770f 853c
000000b0: a386 f43c 214c ca3c efec 333c d6bc 2dbc
000000c0: fb0f 27bc db16 5ebc 2f57 953c 8730 313c
000000d0: 8f63 aa3c bf2b e83c 7a25 d43c c6ed 613c
000000e0: 8e86 773c 5f14 ef3c cc1a c83c 1fcd 7e3c
000000f0: 3d96 c3bc 4745 5f3c 7bb0 a03c 43c1 3d3c
00000100: 6c99 563c af2e b73c 5fac d03c 17e6 ba3a
00000110: 9e05 9f3c 17dc fa3c 4543 c6bb ecc4 c63c
00000120: 4d41 c33b f0de d03b f280 d63c 4bdd a63c
00000130: e7c8 823c 52c7 903c d10f 0d3d dfd8 d63c
00000140: 9c79 5a3b 9dbd 1b3c 7041 513c 1c7c d63c
00000150: 7aac 92ba 470b 873c bac9 613d 1942 fc3b
00000160: 8577 f63b e5bf ab3c 8af9 aebc d103 fc3b
00000170: a4a2 803c 78c7 0d3d 2b58 9e3c d274 123b
00000180: de43 b43c c460 cf3c ad29 d43c 616d a33c
00000190: b540 e73c 0c4a df3c 791c 9f3c 3768 e73b
000001a0: a14a 0c3d 98e0 113d b8f8 83bc 7110 47bc
000001b0: 83d6 b23b ea7e d13b 598a a33c 4b70 903c
000001c0: c30c 9a3c cad2 3fbc 700d b63c a5b8 113d
000001d0: 0cd4 013d 8d6f 293d 5663 b8bb 6ef5 e63c
000001e0: 979a 82bb 5bce ad3c 577d 1b3c 0ef7 2c3d
000001f0: ef68 0b3d bc41 ae3c c311 273c 7f0e e83c
00000200: 25e8 953c 4b6a 4bbc 0948 c73c d1a3 b33c
00000210: 00b9 533c d068 053d 88f6 9cba 71d3 ca3c
00000220: 70bb 923c b99a d93c 1a64 c33a b4f9 f33c
00000230: 41b3 863c 2b8b ee3b cbe0 883c 8da7 06bc
00000240: 14c7 3b3a 2fad 033d 2aee a03c 21e2 c4bb
00000250: 02ba 1d3b 12ac 86bb cd66 2d3a a980 f73b
00000260: f141 593b 924e eb3c 52df c83b a861 453c
00000270: fd03 eb3b 33e4 373d a77f 57bc 2ed9 113b
00000280: c1cf 47bc 80aa 91bb 285a cf3a 0334 ba3c
00000290: 1c7c a23c 7ac3 5b3c 2d98 d8ba d8b8 1b3c
000002a0: 8d55 0c3d 249c b8bc d308 c53c a0e5 8cbb
000002b0: 032c ba3c c53c c5bb bdea 013d 6cb9 d6b9
000002c0: 9a14 9c3c 8db7 c63c 829c 673b 8813 ba3b
000002d0: 2ab9 bc3a 51c1 9e3c 3dfe b53c 93c6 43bb
000002e0: a40e 82bb 997c f43b 4ad3 d63c 087d 1e3d
000002f0: 6430 f33a 4337 cf3b 874d 823c 6c31 263c
00000300: b57a c4ba 3711 bb3c 9fad fc3b 85cb d93b
00000310: f8cf a538 d1ed fb3c 35e3 52bc 6080 6b3c
00000320: d804 1bbc e873 7a3c d79f 813b fe92 b3bb
00000330: 8b03 9e3c e34e d53a e440 9239 f00c d23c
00000340: 143c 8a3c 593a 893b 3c74 6c3d 8087 4539
00000350: 9ea3 2d3d 96f9 8fba 662a 0e3c c5f1 7f3c
00000360: 0044 773c fe64 4d3c 307e 62bb 946d b23c
00000370: 192e 323c 6a47 26bb 1edf af3c 5219 123a
00000380: ae38 353c fda4 ae3c 89aa 963c b395 643c
00000390: ad14 cbbb 2769 1bbc 30e0 0f3d e1a2 ce3b
000003a0: 4cb7 4d3c 3ac0 663a f25a 44bc 31cb 2abb
000003b0: 6ef6 0f3d 01f7 843c ef48 523c d23b d6bb
000003c0: f3d7 4d3c 67ee 8e3c 50a2 833c a313 1d3c
000003d0: 5e5b d73b cfed d93c ce2a 863c 1e4a b23c
000003e0: 3c03 8fbb 8c3e c8ba fa12 b3bb 3740 dc3c
000003f0: c6b3 923c ce4b ad3c 9e88 c3bb 92b0 5fbb
