Machine-Learning-DRL/results/SeekerTrainingWall/Seeker.onnx (onnx, 610983 bytes, 11 tensors)

discrete_act_size_vector f4 [1, 2]
000000 00 00 80 40 00 00 80 3f
       4.0 1.0

network_body._body_endoder.seq_layers.0.weight f4 [128, 8]
000000 d0 df e9 3e 3b 48 a2 bd 23 6b d7 3d 1a 31 ba be
       0.45678568 -0.07923933 0.105184816 -0.36365587
000010 6e 64 6d 3e 77 ae 5d 3f 6d c2 c8 be 7a e1 70 bc
       0.23182842 0.8659434 -0.39210835 -0.014702195
000020 e4 bf c6 3e 00 15 94 bc 04 0e 20 3f 25 32 2c be
       0.38818276 -0.01807642 0.62521386 -0.16816004
000030 86 2f bd bd ec e4 59 3e d6 40 55 3e 09 7e 28 bd
       -0.0923758 0.21278733 0.20825514 -0.04113582
000040 3c 2c 91 be 67 1d ba be 13 ca 19 3b 9f 3a d7 3d
       -0.2835406 -0.36350557 0.0023466393 0.10509228
000050 00 47 52 bf 35 90 60 3e 9b 29 58 bd 20 02 8c 3e
       -0.8213959 0.2193001 -0.052774053 0.2734537
000060 5f b9 00 3f 76 08 35 bf 75 a6 b6 be aa 47 04 3e
       0.50282854 -0.70716035 -0.35673872 0.12917963
000070 c1 43 03 bf 31 c0 fe bd e8 a3 d2 3e e2 b8 25 3d
       -0.5127526 -0.12439001 0.41140676 0.04045952
000080 2c 8f 14 3e a0 66 c7 3e a7 31 6b bc 6d a8 a5 be
       0.1450774 0.38945484 -0.0143551 -0.3235506
000090 b7 47 31 be 30 47 a2 be f7 9b 11 3e f7 ea e0 be
       -0.17312513 -0.31694937 0.14219652 -0.43929264
0000a0 6d 9b cf be 7a 89 2f 3f 6b fb 90 3d 8e af 5e bd
       -0.40548268 0.6856915 0.07079204 -0.05436664
0000b0 f2 ef 23 bf ce 57 c1 3e 52 7d 1a 3f 6a ce 1e 3f
       -0.64038 0.37762302 0.60347474 0.6203371
0000c0 42 a6 16 bc 64 3a 18 3e 5c 75 c4 bd 19 f1 e3 3d
       -0.009194912 0.14866024 -0.09592697 0.1112997
0000d0 b2 a3 a1 be ff 40 0b be 83 1a 2e bf 0f 99 1b 3f
       -0.31570202 -0.13599013 -0.68009204 0.60780424
0000e0 89 9e 52 3f bf 6a 91 3d 95 0d 76 3e ed 88 cd bd
       0.82273155 0.07100438 0.24028619 -0.10035882
0000f0 45 89 f6 be fb a6 f6 be 0e 3d 83 be af be e7 be
       -0.48151603 -0.4817427 -0.2563252 -0.45262668
000100 d6 28 9c be 6b ae 19 be eb e6 86 3d b5 83 56 3e
       -0.30499905 -0.15007941 0.06587013 0.2094868
000110 f8 0b 85 3e 93 4f 88 be 96 b2 0a 3e b8 56 85 be
       0.25985694 -0.2662321 0.13544688 -0.26042724
000120 1e bf aa 3e c1 0c 37 be 34 d1 a3 3d d0 74 d4 3e
       0.33348936 -0.17875959 0.07998887 0.4149537
000130 5a f5 b2 be 06 14 ad be 96 42 c0 3e 98 f5 7f 3d
       -0.34952813 -0.3380434 0.375508 0.062490076
000140 8f e9 a9 be 7f 1c 5b 3e 82 d2 89 3e 5c 3d 9d bc
       -0.33186004 0.21397589 0.26918417 -0.019194297
000150 f0 21 11 bf e7 36 7c be 9e f1 86 be cc f7 52 bd
       -0.5669241 -0.24630319 -0.26356214 -0.05150585
000160 43 76 f0 3e 71 83 0d be e2 30 b0 3d 82 f2 98 bd
       0.46965227 -0.13819672 0.08603074 -0.0746813
000170 66 0e 07 3e 86 a2 2d 3f 2e 80 26 3e 8f 01 f7 3e
       0.13189086 0.67826116 0.16259834 0.48243377
000180 45 0f 9a 3f 54 e2 10 3f 58 89 cd bd 27 54 86 be
       1.203591 0.5659535 -0.10035962 -0.26236078
000190 b9 49 88 be 99 07 d2 3d 68 20 fa 3e 77 3a 38 be
       -0.26618746 0.102553554 0.4885285 -0.17991053
0001a0 b3 39 c1 bd d1 aa 0b bf 6c a8 41 be 47 a0 13 3f
       -0.094348334 -0.5455752 -0.18911904 0.5766644
0001b0 d1 0c 25 be 2a a8 28 bc c9 61 98 be 64 d4 74 3f
       -0.1611817 -0.010294 -0.29762104 0.9563658
0001c0 3c d3 ab 3b 95 62 d1 be ba ab 44 be 29 51 dc bd
       0.005243687 -0.40895525 -0.19206133 -0.107576676
0001d0 14 eb 9a 3e a0 2c d4 3e d1 43 b9 3e 98 72 03 3f
       0.30257475 0.41440296 0.36184552 0.5134673
0001e0 c3 44 aa bd 8a 8f 11 bf 59 5a d0 3e 3d e4 95 bc
       -0.083138965 -0.5685965 0.4069393 -0.018297309
0001f0 e5 94 8e be 18 b5 7e 3d be 6d 58 3d c4 60 e7 be
       -0.27847973 0.062184423 0.052839033 -0.45191014
000200 79 47 48 3e 3b de c0 be 5d 1d b1 be ff 6d 11 3e
       0.19558515 -0.37669548 -0.34592715 0.14202116
000210 f0 78 2f 3f 24 6c da 3d 90 1c 6a 3e 38 af e2 be
       0.6854391 0.106651574 0.22862458 -0.44274306
000220 7d 85 76 3e e4 c3 00 3f 9d 0f fc 3e 4c d1 9c 3d
       0.24074359 0.50298905 0.49230662 0.07657108
000230 fa a5 87 be 35 b8 ce be b7 a0 7a be 5b 65 b0 3e
       -0.26493818 -0.40374914 -0.2447537 0.34452328
000240 98 02 c8 3e 39 18 84 3e b3 ae be 3e 82 f4 58 3e
       0.3906448 0.2579973 0.3724266 0.21187022
000250 77 b3 ef be ab b2 1c 3e 9b 83 ce 3d e5 2d 0e bd
       -0.46816608 0.15302531 0.100836955 -0.034711737
000260 0a 3a 44 be 94 fb e6 bd c2 5a d6 bd 49 df d3 be
       -0.19162765 -0.112784535 -0.104665294 -0.4138129
000270 f1 ec 18 3e cf 4b ea 3c 77 c5 a3 3b 1c 5c 5b be
       0.14934136 0.028600601 0.004997905 -0.21421856
000280 8f b8 6a bf c6 32 8e be 22 b7 dc be df c8 35 be
       -0.91687864 -0.27773112 -0.4310847 -0.17752407
000290 3b 20 51 be 1f 8d 2b 3f d0 3a 23 3f 07 78 e2 3c
       -0.20422451 0.6701221 0.63761616 0.027645124
0002a0 e9 5c fc be 53 f9 9c be 64 18 8e bd 55 09 b3 3e
       -0.49289635 -0.3065897 -0.06938246 0.34968057
0002b0 8e cc c5 3e f9 6f 8d 3e 82 da 70 bf 40 ae 33 3f
       0.38632625 0.2762449 -0.94083416 0.7018776
0002c0 e0 44 94 be 2e ef 8c 3e 22 41 d3 be db 56 e0 be
       -0.28958797 0.2752623 -0.4126063 -0.43816265
0002d0 28 6d 2f 3f 05 44 db be 5d df 95 3e 3f 52 9f be
       0.68525934 -0.42825332 0.29271975 -0.31117436
0002e0 2b 8b 7f bf b6 89 84 be 12 dc 5c be a2 5a b4 bd
       -0.9982173 -0.25886315 -0.21568325 -0.08806349
0002f0 d0 8d 03 3e e9 f1 7d be 64 a5 38 3e 86 3a 4f 3f
       0.12847066 -0.24799313 0.18031842 0.80948675
000300 37 06 81 3e ab ee 5e be bb 76 a8 bd 54 ec d8 be
       0.25200054 -0.21770732 -0.08225771 -0.42367804
000310 0e 07 ce be a9 23 34 3d ef 44 58 be 20 b0 df be
       -0.40239757 0.04397932 -0.21120046 -0.4368906
000320 d7 12 8f be db 79 41 be ac 61 1e be 4a 5a a4 be
       -0.2794406 -0.1889414 -0.15466946 -0.32100135
000330 ef 38 25 3e f7 c0 38 bd a5 e7 05 bd 5a d8 06 bf
       0.16135 -0.0451059 -0.032691617 -0.52673876
000340 d6 cc 7d be ec 75 a7 3c 5a 7e 3d be 1e 6f b6 be
       -0.2478517 0.020441972 -0.1850523 -0.3563165
000350 dc ea eb 3e fb c2 3d be 1a 00 66 bc 67 42 aa be
       0.4607762 -0.1853141 -0.01403811 -0.33253786
000360 37 b5 02 3f 51 fe b9 be fd 71 ac bd e4 94 ec be
       0.5105776 -0.3632684 -0.08420179 -0.46207345
000370 5d a4 5f be 5a 9b 9f 3e e3 f1 3e be c9 66 8a 3e
       -0.21840043 0.3117321 -0.1864696 0.27031544
000380 a9 2f 15 bd 94 bf 6b bb f7 05 ae 3e d8 a0 d8 be
       -0.036422405 -0.0035972344 0.33988926 -0.42310214
000390 8e 17 e6 3e bb ed cc be d1 7a 7a 3d b1 89 14 bf
       0.44939846 -0.40025124 0.061152283 -0.580226
0003a0 cf ba a5 3e 25 4f d7 3e a6 2b 9f bd 9f 79 e8 3e
       0.32369086 0.4205257 -0.07771997 0.4540529
0003b0 61 01 1f be fa 37 f2 bd e8 cf 89 3e 40 00 30 bf
       -0.1552787 -0.11827083 0.26916432 -0.6875038
0003c0 48 0f 4a bd 23 84 0f be f1 b5 97 be 10 73 e9 be
       -0.04933098 -0.1401525 -0.29630998 -0.45595598
0003d0 7d e7 3f be 73 da 17 be 87 2f be bd ed 0c 43 3e
       -0.1874065 -0.14829426 -0.09286409 0.190479
0003e0 01 98 4d be 43 a8 9e 3e 91 e9 39 3f e6 a9 55 be
       -0.20077516 0.30987749 0.7262202 -0.20865592
0003f0 57 ee 10 bf bc 90 55 3f 54 fe f6 3e 42 57 3e 3e
       -0.5661368 0.8342397 0.48240912 0.18587974

network_body._body_endoder.seq_layers.0.bias f4 [128]
000000 9d ac c0 bc 30 64 b9 bc 53 5d 14 bc 20 ec a1 3b
       -0.023519808 -0.022630781 -0.009055453 0.0049414784
000010 ef 54 df bb e5 dd 35 3c 91 ae ae 3c ee e2 87 bc
       -0.006815545 0.011100267 0.021323474 -0.0165877
000020 23 9e d6 3b 84 7d 94 3d ab 8e d8 b9 15 51 0f bc
       0.006549613 0.07250503 -0.00041305026 -0.008747359
000030 45 5b 86 bc 53 1c 2f 3d ac 52 80 3c 6c c3 87 3b
       -0.016400943 0.04275162 0.015664421 0.004143169
000040 2c a0 8c 3b d6 0e 8e bb 70 09 97 3b a6 04 b0 3c
       0.004291555 -0.0043352647 0.0046092793 0.021486592
000050 29 07 9d bc c9 4b 1d 3b 7c 20 c6 3b f7 49 09 bc
       -0.019168453 0.002400147 0.006046353 -0.008379451
000060 e7 01 30 bc 57 78 65 3d 8b 6f aa 3c 83 2c f8 bc
       -0.010742641 0.05602297 0.020805141 -0.030294662
000070 9e 27 9c bc 82 7e 96 3d 97 bb 29 bc fe bb 3d bd
       -0.01906186 0.07348348 -0.010359666 -0.04632186
000080 73 e0 36 3d 38 6e ab bc e4 8e 0c bc 7f 68 4a 3c
       0.044647645 -0.02092658 -0.00857899 0.012354015
000090 5e 8a bb 3c 06 bb 7a bc 6c 3f de bb 12 c4 1c bd
       0.022893127 -0.015303379 -0.006782463 -0.038272925
0000a0 13 71 bf 3c a7 30 a7 bc 3d 81 8d ba bb 0f a2 3a
       0.023369348 -0.020408941 -0.0010795962 0.0012364307
0000b0 7f 95 aa bc 68 da 8e 3c a6 a2 2c bc 36 cc b3 bc
       -0.020823238 0.017438129 -0.010536825 -0.021947961
0000c0 c0 00 02 3c f3 6f 0a bd a1 1a 67 ba 7c d8 50 3d
       0.007934749 -0.03379817 -0.00088159187 0.050987706
0000d0 05 a6 40 bc dd e6 45 3c 81 09 60 3b a3 3f aa 3b
       -0.011758332 0.012078968 0.0034185352 0.0051955744
0000e0 a1 07 0b 3d 11 33 a0 bc 23 09 68 3b 8e d4 ef 3a
       0.033942822 -0.0195556 0.0035405837 0.0018297599
0000f0 9c 45 d1 bb 37 96 10 bb 73 22 29 bd e5 c2 3b 3d
       -0.006386472 -0.0022062191 -0.04129262 0.045840163
000100 52 6f 41 bc df c6 58 3c 79 86 3b 3c 2f 9f 8a bc
       -0.011806326 0.013231008 0.011445635 -0.016921608
000110 90 00 3d 3c 7f 41 0b 3c 3c e0 45 3d a1 4e a4 bb
       0.011535779 0.008499502 0.04830955 -0.005014256
000120 d5 66 3d bd 74 cc 33 bc 35 2c b2 bb 6a 22 93 3b
       -0.046240646 -0.010974038 -0.005437399 0.0044901865
000130 a5 01 44 3d e4 6c 38 3c 1c c1 ea 3d 6b 51 2c ba
       0.04785313 0.01125643 0.11462614 -0.00065734115
000140 94 b7 b3 bc 6d 8a eb 3b 79 e9 0b bb dc e4 a9 3c
       -0.021938123 0.0071881325 -0.0021348877 0.020739011
000150 fc 48 11 bc 1e 36 3b 3a e3 af 1d bc bc 4a 8e 3c
       -0.0088674985 0.0007141548 -0.009624454 0.01736962
000160 e0 b6 b8 bc a6 4f 8e 3d 6e dd 80 3d 68 55 2a bd
       -0.02254814 0.069487855 0.06292234 -0.041585356
000170 3b 67 d8 bc bd eb 2e bc f5 74 a8 3c a6 09 43 bc
       -0.026416412 -0.010676322 0.020563582 -0.011904156
000180 1d 38 52 bc e1 ae 49 bc 96 85 67 bb 44 39 7d bc
       -0.012830761 -0.012309761 -0.0035327426 -0.015455548
000190 94 22 d4 bc 44 5d e3 3c aa 0c 4e 3d ae a9 0e 3d
       -0.025895394 0.027754433 0.050305046 0.034829788
0001a0 ac bb 57 bc e6 e5 0b bd 9e ec 93 bc 4b e9 3d bc
       -0.013167303 -0.034154795 -0.018057164 -0.011591266
0001b0 1d d2 f9 bc ab 06 9d 3c ff 54 b0 bb ec c4 f2 3c
       -0.030495698 0.019168219 -0.005381226 0.029634915
0001c0 aa 77 e0 3b 79 70 13 bc 5f 37 48 3c 96 34 1a 3d
       0.0068502026 -0.008998984 0.012220233 0.037647806
0001d0 64 e6 af bc 58 f4 cf 3c 01 81 73 3b 61 78 60 bc
       -0.021472163 0.025385067 0.003715575 -0.013700576
0001e0 d5 f8 0d bb a1 b8 2e bb c8 ee 8e bc 80 67 a7 3b
       -0.0021663208 -0.002666034 -0.017447844 0.0051087737
0001f0 3e 1e a7 bc fa 47 1f 3c 98 6c e4 bb d5 32 85 3d
       -0.020400163 0.00972175 -0.006970953 0.06503836

network_body._body_endoder.seq_layers.2.weight f4 [128, 128]
000000 d5 ab bd bd cb 81 71 bb dd bf ac bd f0 b1 f5 3c
       -0.0926129 -0.0036851044 -0.084350325 0.029992074
000010 af 78 c5 3c 4d ce 42 3d c2 2d 5b bd 72 c1 1f bd
       0.024105398 0.047560025 -0.053510435 -0.039002843
000020 17 8c 05 3e c7 b4 30 bd bf 86 27 3d 18 d4 b5 bd
       0.13041721 -0.043141153 0.04089999 -0.08878344
000030 bf f4 b9 bd 31 73 e4 3b 17 d8 a3 bd bd 9e c8 3b
       -0.09079885 0.0069717397 -0.080002 0.0061224387
000040 8f d7 c3 3d 74 69 0b 3e ef 15 8c be d3 ef 53 3d
       0.09562599 0.13614446 -0.27360484 0.051742386
000050 7f ec b0 3d ff 29 ac bc 09 e9 60 bd c4 b6 38 bc
       0.08638858 -0.021016119 -0.05490974 -0.0112740435
000060 57 46 59 3c b1 f7 4c bc 88 73 31 3d f5 0f bd 3c
       0.013261399 -0.012510226 0.04332307 0.023078898
000070 fb 0e 2b 3e e6 12 de bd 25 0a 96 bc 10 8c 3d 3e
       0.16704933 -0.10843448 -0.018315384 0.18510461
000080 53 da f2 bd 2f 77 88 bd 43 65 4a bd ef 38 e7 bd
       -0.11858048 -0.066633575 -0.049412977 -0.11290156
000090 c5 a2 0b 3e 4d 15 90 bd 10 02 56 3c f1 d9 22 bd
       0.1363631 -0.07035313 0.013062015 -0.039758626
0000a0 35 f7 a9 3d 08 ef 19 bd 14 6a ab bc 21 1c 84 3d
       0.08299104 -0.037581474 -0.020924605 0.06450678
0000b0 45 90 52 3d e2 8c c8 3c f7 48 6e bd e2 6c a9 3b
       0.051407117 0.02448124 -0.058175053 0.0051704505
0000c0 0d 1a f2 bd 30 c8 b6 3d 39 24 93 3b f2 40 b7 bc
       -0.11821375 0.089249015 0.004490402 -0.022369836
0000d0 ed db 7c bd e4 1d 51 be 18 51 35 3c 82 ba ad bc
       -0.061733175 -0.20421559 0.011066698 -0.021207098
0000e0 46 f5 a0 bd fb 4f 4a 3d a7 54 6a 3d 7d ac 2c 3e
       -0.07859282 0.04939268 0.057209637 0.16862674
0000f0 a5 18 8c bd d1 50 2d 3d 17 67 79 bd bd 2e 7c 3d
       -0.06840638 0.0423134 -0.06088933 0.06156801
000100 38 1e f0 3d 60 95 d6 bd cb 6b b3 bd ed dc 8f bb
       0.11724514 -0.1047771 -0.08760794 -0.00439035
000110 3d 66 ce b9 b5 4b 1e be 7f 5f ac 3d 65 7d 56 bd
       -0.00039367555 -0.15458567 0.08416652 -0.05236568
000120 16 bb 28 bd cb f8 0b 3e c1 f1 e3 bc 12 29 9c 3d
       -0.041194044 0.13669126 -0.027825238 0.07625021
000130 1d 31 0f 3c 38 86 8e bc 7e f5 fd bc 45 fa 6d 3c
       0.008739737 -0.017397985 -0.031000849 0.014525001
000140 99 fc 48 bb 11 23 29 3d 09 13 37 3d 75 c7 53 bd
       -0.0030668138 0.041293208 0.044695888 -0.05170389
000150 94 c8 8e bd f3 a0 b6 3c 5d 2f 0d be 37 9f d1 3d
       -0.06971851 0.022293543 -0.13787599 0.10235446
000160 22 97 00 be 8d f2 cb 3b 99 c6 e5 3d de ae a7 bc
       -0.12557653 0.0062239827 0.1121952 -0.020469125
000170 3a a0 cb bd f5 b5 a4 bc 9e f5 a3 bd 06 4a 0d 3d
       -0.0994267 -0.020106295 -0.08005832 0.034494422
000180 32 ca ab bd 05 20 9a 3d e3 a8 d4 bd 0c 6e c6 3d
       -0.08388175 0.075256385 -0.10383775 0.096889585
000190 f0 b6 fa 3d 3e f8 d2 bd d9 60 1d bd 7f 28 97 3b
       0.12241924 -0.10301255 -0.03842244 0.004612982
0001a0 96 36 8b 3b 6b 2c 27 bd 1a 1d 5a b7 bf d1 e3 bd
       0.0042484505 -0.040813845 -1.3000588e-05 -0.1112399
0001b0 27 56 d1 bd ff fa aa bc 2e e1 06 bd 06 db f1 3d
       -0.102215104 -0.020871637 -0.03292959 0.118093535
0001c0 9c 80 4d 3d db ae 7b bd a4 56 d9 bd c1 bc f8 3d
       0.05017148 -0.061446052 -0.106122285 0.12145377
0001d0 b0 ee 82 bd 14 98 1d bd c2 6a 9a bd 51 53 ae bd
       -0.06393182 -0.03847511 -0.07539894 -0.08511985
0001e0 12 6d 8f 3d 5a a5 21 be 23 48 82 bd 23 db 07 be
       0.070032254 -0.15785733 -0.06361415 -0.13267188
0001f0 94 6f e2 bd 50 37 98 3d a9 77 16 bd ca c0 5b 3d
       -0.11056438 0.07432425 -0.03673521 0.053650655
000200 73 ee ea bd 20 4e 80 3d da cc 05 3d 82 84 26 be
       -0.11471262 0.06264901 0.032666065 -0.16261485
000210 03 ee ca bd 7b ad 79 bc 4b 67 e4 3d 59 f0 13 be
       -0.099086784 -0.015239115 0.11152514 -0.14447154
000220 73 75 1a bd 27 83 2f 3c 16 2b e0 bc a4 d9 f0 3d
       -0.037709665 0.0107124215 -0.027364295 0.11760262
000230 b1 90 a2 3d 75 2a 34 bd a0 79 d7 bc a3 5e c7 3d
       0.07937754 -0.043985803 -0.026303113 0.097348474
000240 0c 88 eb 3c 62 5f 88 bc 88 ea bd bd 22 03 e5 bc
       0.028751396 -0.016647045 -0.09273249 -0.027955595
000250 6e 77 ed 3c f6 4b 06 bd 94 91 d8 3d 92 83 a1 bc
       0.028987613 -0.032787286 0.10574642 -0.019716058
000260 78 50 f5 bc 55 3c 1f bc 48 59 dc bd d2 c4 41 3e
       -0.029945597 -0.009718974 -0.107592165 0.18922737
000270 69 0c 92 3d 1e 0f 5b bd 1a de 97 bd 31 5f 21 bd
       0.07131273 -0.053481214 -0.074154094 -0.039397422
000280 e1 c3 4a 3e 2f 2f b9 3d 65 09 f0 bd ef 95 5b 3e
       0.19801284 0.09042203 -0.11720542 0.21443914
000290 a6 a6 cc 3d 33 06 08 3d a4 c1 f6 bb 3b ad b1 bd
       0.09992723 0.033209037 -0.007530408 -0.08675619
0002a0 af e9 00 bc be 65 da bd 64 ca d7 3d 32 7d d3 bd
       -0.0078682145 -0.10663937 0.1053665 -0.103266135
0002b0 33 af d0 3c 2a c1 b7 3d 46 17 9a bd 18 d8 82 3d
       0.025474166 0.0897239 -0.0752397 0.06388873
0002c0 4e 8f 50 be c8 e9 51 be 9f 30 91 3b ef ae a6 bd
       -0.20367166 -0.20499337 0.004430845 -0.08138835
0002d0 2a f1 47 bd 04 7f 80 3d f7 98 22 3c 8d ca a4 be
       -0.048813976 0.06274226 0.009924165 -0.32185784
0002e0 a9 ad 94 3d 64 2b a9 3d 49 de 16 be 56 2a d7 3d
       0.072596855 0.08260229 -0.14733233 0.10506122
0002f0 d6 11 17 be 81 57 fe bc 26 e4 22 3d 77 db e4 bb
       -0.14752898 -0.031047584 0.03976836 -0.00698417
000300 6e 4e ab bd e4 68 5c 3d 40 33 8f 3d a7 f6 19 bc
       -0.08364569 0.05381097 0.06992197 -0.009397185
000310 f4 6f 44 bd f4 8c b1 bd fc 14 b8 3d 68 c4 85 bd
       -0.04795833 -0.08669463 0.089883775 -0.06531602
000320 f5 66 2f bd 28 58 93 3d f3 68 1d 3e 00 b7 29 be
       -0.042822797 0.07194549 0.15372066 -0.16573715
000330 64 9a 2f 3e f6 bd 9a 3d 6c 6e 41 bb cc 88 ef bc
       0.17148739 0.075557634 -0.002951528 -0.029240035
000340 69 f8 49 bd c0 32 e9 3c 3f ac d2 bc f5 40 3f bb
       -0.049309168 0.028466582 -0.025716899 -0.0029183005
000350 fe 47 f4 3c f0 0d 06 bd 70 0e 12 bd e8 6b 00 3e
       0.029819485 -0.032728136 -0.0356583 0.12541163
000360 b3 26 2d 3e d4 36 89 3e 68 2b aa 3d e9 88 52 bd
       0.16909294 0.26799643 0.0830906 -0.0514001
000370 5c eb 30 be 12 b4 fc 3d b1 c1 c9 3d ae a1 b8 3d
       -0.17277282 0.12339033 0.09851397 0.09015213
000380 e9 f9 87 3d 38 af 13 3e a3 da 37 3d 23 50 20 bc
       0.066394635 0.1442231 0.044886243 -0.009784731
000390 e0 30 18 3d 3e df 18 3e 04 07 aa bd ba 86 2b 3d
       0.037155986 0.1492891 -0.083021194 0.041876532
0003a0 ae d8 48 bd 40 14 2c 3d 6b 78 d1 bc fe 50 8c be
       -0.049034767 0.0420115 -0.025570115 -0.27405542
0003b0 66 85 31 3d 9f ee 05 be bb 0c 4c 3d 2c 29 9a 3d
       0.04334011 -0.13079308 0.04981683 0.07527384
0003c0 74 49 99 3b 68 4c 97 bd e0 de 4b bd 63 96 b2 3c
       0.0046779457 -0.0738762 -0.049773097 0.021800226
0003d0 c0 c5 b9 bd 04 b8 98 3d 02 c5 81 3d 6d a9 84 3d
       -0.09070921 0.07456973 0.063364044 0.06477628
0003e0 3e ba d2 3c 0b fb 95 3d 3b 2c 9e bd bf 62 a4 bd
       0.025723573 0.07323273 -0.0772328 -0.08026647
0003f0 35 a6 d3 bc 21 2d 92 3d 17 e9 ff 3d d0 ab d4 bd
       -0.02583609 0.07137514 0.1249563 -0.10384333

network_body._body_endoder.seq_layers.2.bias f4 [128]
000000 97 88 89 bc 83 71 41 bb b8 6d fb 3c d7 10 a8 bb
       -0.016788764 -0.002951712 0.030691966 -0.0051289606
000010 c0 f4 53 bc 11 2b 4d bc 6e 90 f2 3c 85 61 2e 3c
       -0.012936771 -0.012522475 0.029609885 0.010643368
000020 d4 cd dd 3b 40 6a 10 bc 06 e1 13 3c 80 93 d9 3c
       0.0067689214 -0.0088143945 0.009025818 0.026559591
000030 6c 17 28 3c a3 96 78 3b 4c ee 93 bc 66 21 e0 bb
       0.01025949 0.0037931583 -0.018057965 -0.006839919
000040 d1 58 c4 3b 9c 8f b5 bc cb 25 85 3b fb a7 69 bb
       0.005992033 -0.022163205 0.004063343 -0.0035653103
000050 f1 cd f0 bb f5 98 2c 3b 2e d2 bb bb 2c c3 58 bc
       -0.007348769 0.0026336287 -0.0057318425 -0.013230126
000060 1b c2 e1 bb a4 3d b4 bb e7 54 96 bc 2e a3 d8 bb
       -0.0068895943 -0.005500512 -0.018351031 -0.0066112494
000070 97 0c 31 bc 8f 53 1d bc d8 b5 bb bb 6f f8 b7 bb
       -0.010806224 -0.009602441 -0.0057284646 -0.0056143324
000080 70 80 a5 bb 4a e2 5f bc ec d8 94 3a dd a1 a5 bc
       -0.0050507113 -0.013664791 0.0011356152 -0.020218784
000090 24 e6 e4 ba 32 9a a1 bb ab 3a 84 3c 1b 0c 93 bc
       -0.0017463607 -0.0049317116 0.016141256 -0.017950108
0000a0 19 81 81 3b 26 2a 6c 3a d4 a6 64 bc 0f 0c de bb
       0.003952157 0.0009008966 -0.013955791 -0.00677634
0000b0 6b 9b ec 3b 5a 21 d1 bb ed e3 0a 3a 9e c1 b6 3b
       0.0072206757 -0.0063821496 0.0005298246 0.00557728
0000c0 ca 51 a3 bb d9 62 0c 3a fa 85 78 ba 31 08 a8 bc
       -0.0049841153 0.00053553056 -0.0009480413 -0.020511718
0000d0 75 51 24 3c dc 65 53 3c b8 20 14 3c 7e a2 83 bb
       0.0100291865 0.012902703 0.009041004 -0.0040171733
0000e0 3a 06 24 bb 03 e3 90 ba 77 4f ac bc 2a 61 94 bc
       -0.0025028125 -0.0011053983 -0.021033986 -0.018112738
0000f0 48 61 73 3c c8 29 27 3b a5 bf 0d bb 68 71 ca 3b
       0.014854737 0.0025507081 -0.0021629122 0.00617807
000100 df 4f 7c bc 2f 7d 89 bb ee 75 0b 3c 54 10 db 39
       -0.015399902 -0.0041958313 0.008512003 0.000417831
000110 4e 76 29 bc e6 7e 28 3c d1 7e 15 3b 86 9e af bc
       -0.010343147 0.010284161 0.0022811184 -0.021437895
000120 96 70 06 3c b4 60 14 ba a4 49 aa bb 0d c8 99 ba
       0.0082055535 -0.0005660162 -0.005196767 -0.0011732593
000130 bd 6e 62 bb d2 0e e1 bb 18 a7 47 bc b0 fe 22 bc
       -0.0034550868 -0.006868222 -0.012185834 -0.009948418
000140 e3 8e e9 bc 77 20 ae ba ce e7 d4 bb 59 b5 86 bc
       -0.028510517 -0.0013284822 -0.00649736 -0.016443895
000150 be eb 25 3c 65 32 48 bb 89 3d e6 3c 65 41 cf bc
       0.010127006 -0.0030547616 0.028105514 -0.025299737
000160 80 a2 f4 bb 5f 31 0c bc 4f 8b 89 3a 4c ac cd bb
       -0.0074656606 -0.008556693 0.0010493788 -0.006276643
000170 2c 4f 85 bb 32 2e 8e bc 00 6b b9 ba 90 1a 38 bc
       -0.004068276 -0.017356012 -0.0014146268 -0.011236802
000180 34 06 2f b9 b3 99 b9 b9 e8 c6 fa bb 5b c6 3a bc
       -0.00016691611 -0.00035400465 -0.007653106 -0.011399831
000190 2f 2c b7 3a 5a f6 9b bb b6 24 af bb 27 a2 a0 3c
       0.001397496 -0.004759592 -0.0053449525 0.01960857
0001a0 4b 2c 1d 3c 3f 7d 51 bc 76 20 fb 3c e4 3d 7a 3c
       0.00959308 -0.012786209 0.030655127 0.015273545
0001b0 f2 e6 86 bc 26 6e 91 bb 99 60 b5 3b f6 87 d0 bc
       -0.016467545 -0.0044381795 0.005535197 -0.025455456
0001c0 b1 c4 f9 3c eb 8a 57 bc c9 ad 85 bb 56 f0 8c 3c
       0.030489298 -0.013155679 -0.0040795547 0.017204445
0001d0 c3 c5 8c bc 92 79 3d 3a a0 e6 ff 3a 9f ac a6 3c
       -0.017184144 0.0007227893 0.0019523688 0.020345984
0001e0 8a 08 2e 3c ac 18 ae bb 61 28 02 3c 4c b4 b4 bc
       0.010622153 -0.0053129997 0.007944197 -0.022058628
0001f0 73 82 ad bb 76 19 76 3c 64 2a 51 bb f8 08 fd bb
       -0.005295092 0.015020719 -0.0031916136 -0.0077220164

action_model._discrete_distribution.branches.0.weight f4 [4, 128]
000000 ad 92 39 3d 05 39 55 bd 1a bd 47 bd 57 5d 62 3d
       0.045305897 -0.05205633 -0.048764326 0.055264797
000010 00 d6 06 bc 69 a0 de bc 8f d3 47 bd 00 c3 84 bc
       -0.0082297325 -0.027176099 -0.048785742 -0.016206264
000020 ba 7f 36 bd d4 96 fa 3c 30 55 ae bb 7e 3f 4f 3d
       -0.044555403 0.030589499 -0.0053202137 0.05059766
000030 1e ac 28 3d b5 11 71 3d e0 ca cf bc 01 5f 21 3d
       0.04117977 0.058854777 -0.025365293 0.039397243
000040 9b 44 20 3d 4a db 47 3d a6 b2 00 bd 91 a5 e3 3c
       0.039127927 0.048793115 -0.031420372 0.02778891
000050 b0 0d 8c bd a7 2a 20 bd c2 86 38 bd c2 0a 65 bd
       -0.06838548 -0.039103176 -0.04505039 -0.055918463
000060 93 95 b5 3c 1d f6 79 bd 05 ff 13 bd ae c6 33 3d
       0.02216605 -0.061025728 -0.036131877 0.043890648
000070 14 f8 47 3d 59 1a 19 bd c6 ed 01 bd 75 87 1e bd
       0.04882057 -0.037378643 -0.0317209 -0.0387034
000080 9b 13 ca 3c df 2d e6 bc cc 3e 56 bd 66 d0 b0 bc
       0.024667552 -0.028098045 -0.05230598 -0.021583747
000090 3f 5c 1c bd f3 81 08 3d 52 f2 0c bd f0 98 0b bd
       -0.03817391 0.033327054 -0.034410782 -0.0340814
0000a0 a1 ec 86 bd e4 6d 0b bd 6d 11 aa bd 7d 08 53 3d
       -0.06588102 -0.034040347 -0.08304105 0.051521767
0000b0 5f 8d 1f 3d 9b 73 80 3d 6f bf 6e 3d 78 65 72 bd
       0.03895318 0.0627205 0.058288034 -0.0591788
0000c0 ff 6f 86 3b 42 dd c0 bc c4 21 70 bd a9 30 17 bd
       0.0041027064 -0.023543004 -0.05862595 -0.03691164
0000d0 fb 65 54 ba 9d f2 1d 3d 5c 02 83 bd 65 37 af bc
       -0.00081023545 0.038561452 -0.063969344 -0.021388719
0000e0 1f 91 6e 3d 87 8f 26 3d 8a 6b b9 bc 3a 97 84 bd
       0.058243867 0.040664222 -0.022634286 -0.06474157
0000f0 22 8a 36 3d 79 8c 08 bd 03 28 80 3d 39 9d 06 bc
       0.044565327 -0.03333709 0.06257632 -0.008216196
000100 dd eb 04 bd 33 dc 0d bd e4 3c 16 3b 7e 28 18 bd
       -0.0324515 -0.034633826 0.0022924477 -0.03714799
000110 9f 57 96 bc 14 ed 51 3d 92 39 3e 3d 9e f2 05 bd
       -0.018352328 0.051251486 0.046441622 -0.03270208
000120 24 73 94 bd 04 e7 ed bc ee 2c 3f 3d 49 ed 3a 3d
       -0.07248524 -0.02904082 0.046673708 0.04563645
000130 93 b5 28 bd 23 00 32 3d 4b c2 46 3d ba 9f 2f 3d
       -0.041188788 0.04345716 0.048525136 0.042876936
000140 c9 bf 80 3d 37 4b 58 3d 0b d1 92 3d 07 7c 19 bd
       0.0628658 0.052806105 0.07168778 -0.037471797
000150 d6 07 00 bd dc c6 75 bd f4 e2 9b bd 10 3c ed bc
       -0.031257473 -0.0600041 -0.07611647 -0.028959304
000160 a4 09 79 3c 6c 0e f7 bc 09 fb c3 bc d8 75 9e bd
       0.015200052 -0.030158244 -0.023923414 -0.07737321
000170 20 b0 44 3d 12 5f 6f 3d 49 96 a9 bb 30 cd 2f 3d
       0.04801953 0.058440275 -0.005175386 0.04292029
000180 29 a0 1f 3d ba 44 59 bc 34 4b 3b bd dc fa 89 bc
       0.0389711 -0.013261015 -0.045726016 -0.016843252
000190 e8 cc 24 3d 82 ae 1e bd 2d 5e fe 3c 23 f9 f9 3c
       0.040234476 -0.038740642 0.031050766 0.030514305
0001a0 ab c4 27 bd 8c 8c a7 bc e8 01 54 bd 2a 03 34 bd
       -0.04095904 -0.02045276 -0.05175963 -0.04394833
0001b0 10 a5 93 3c b9 5f 3c 3d 8a e3 32 bd 01 58 7c bd
       0.018023044 0.045989726 -0.04367403 -0.061607365
0001c0 bc 0f 08 3d d6 b2 83 b9 dd d1 30 bd 75 ab 68 3c
       0.03321813 -0.0002511951 -0.04316889 0.014201035
0001d0 6e 47 03 bd 17 a6 f9 bc ff 63 83 bd 97 50 ed bc
       -0.032050543 -0.030474706 -0.06415557 -0.028969092
0001e0 64 e0 07 bd 5c 90 1a 3d f8 fd 38 3d 90 23 0c bb
       -0.03317298 0.037735328 0.04516408 -0.0021383502
0001f0 9b 2d 42 bc 97 3d 11 3d 2e c3 8e bc 5b 5b 07 bd
       -0.0118516935 0.035459127 -0.017427053 -0.033046108
000200 53 db 3a bd b9 90 3b ba 3f ec 13 3d bc 8f 37 bd
       -0.04561932 -0.0007155049 0.036113974 -0.04481481
000210 e6 a5 98 bb 99 fd 94 3c e5 f2 8b bc dd c2 73 bd
       -0.0046584485 0.018187331 -0.017083595 -0.059512008
000220 cc b7 6e 3d cb 26 ba bb 82 e5 9b 3d 7b bf 6e bd
       0.05828075 -0.005680894 0.076121345 -0.05828808
000230 57 37 10 bc 0c 97 0a bd 58 ca 6b 3d 7c 13 c4 bc
       -0.008802257 -0.033835456 0.057566017 -0.023935072
000240 75 6a 91 bd 8f 53 55 3c 4f be eb 3b bb 3d 8f bd
       -0.07100383 0.01302041 0.0071943174 -0.06994196
000250 69 d0 0d bc fa 4b 7d 3c 29 93 c7 3b f9 15 51 3d
       -0.008655646 0.015460009 0.006090541 0.051046345
000260 54 6c 33 bd 48 1c a1 3c f5 cc db ba c3 dd 12 3d
       -0.04380448 0.019666806 -0.0016769456 0.03585602
000270 54 f2 3b 3b 2d 8e 93 3c 91 75 84 3d 74 64 e6 ba
       0.0028678374 0.01801213 0.064677365 -0.0017577545
000280 d7 89 f5 3b 69 b4 95 3b 43 96 55 bd e7 ac 23 3d
       0.0074932384 0.0045686257 -0.052145254 0.039959814
000290 87 29 d2 3c 91 6c d4 3c 8a 88 03 3d 46 80 9e bc
       0.025654567 0.025930675 0.032112636 -0.019348275
0002a0 15 1c cb 3c 6b b4 04 ba a5 65 17 bb 7a d5 48 3c
       0.024793664 -0.0005062285 -0.0023101356 0.012257928
0002b0 0b 9f 81 bc 00 1a b7 bc 31 ef a9 bc af d7 2d 3d
       -0.015822908 -0.022351265 -0.020743938 0.04244202
0002c0 15 8e 38 bc 9e da c8 3d 0a 4f 74 3c 10 f0 4d 3c
       -0.011264344 0.09807323 0.0149114225 0.012569442
0002d0 60 89 24 3d ea 91 e5 bb 5c 9f 28 3c 2f 2f f1 bb
       0.040170074 -0.0070059197 0.0102919005 -0.007360361
0002e0 39 b4 00 3b 8c f5 96 bc 95 d0 44 3b 8a 9b 32 3d
       0.001963867 -0.018427633 0.003003155 0.043605365
0002f0 b4 1a 5f bd c0 44 19 bc 7d ef 00 bd 02 3d ab bd
       -0.054468825 -0.00935477 -0.031478394 -0.08361246
000300 3c 50 80 3d 4f 1f 77 3d 4e 97 5f bd 97 4e a5 bc
       0.062653035 0.060332593 -0.054587655 -0.020179076
000310 e9 be a8 3d 3d 52 12 bd 95 e9 a0 3c 0c 9e c9 3a
       0.08239538 -0.03572296 0.01964263 0.0015382185
000320 13 69 e5 3c 27 2f 61 3d ea 07 db bb 94 2c 51 3c
       0.028004205 0.05497661 -0.006684293 0.012766976
000330 58 99 a0 3b 82 2e c5 bc 93 ea c7 bc be 33 f5 bb
       0.0049010925 -0.024070028 -0.024403846 -0.007482975
000340 b4 76 80 ba d4 f6 0d bc 48 25 3d 3c 73 36 af 3c
       -0.0009801001 -0.008664805 0.011544533 0.021388268
000350 dd 4d 1e 3d 3e 9b 60 3c 50 ad f0 bc c6 4b b1 3b
       0.038648475 0.013708888 -0.029379517 0.005410644
000360 3f fb 1b 3c b9 4d 9c 3c bb d6 45 3d d0 16 69 bc
       0.009520351 0.01908003 0.048300486 -0.01422663
000370 5a be ab bc 60 55 e1 bc ff 14 f0 3b 2b a1 7c bc
       -0.02096479 -0.02750653 0.0073267217 -0.015419285
000380 d1 f1 10 bc c0 f4 db 3a 43 0b 6e 3c 48 07 0a bd
       -0.008846716 0.0016781315 0.014529052 -0.03369835
000390 9a 04 b2 bc f0 08 3d 3d 5c 8c 8e 3c 5f 2d 05 bc
       -0.02173071 0.0461511 0.017400913 -0.008128493
0003a0 a5 87 70 3c ef 1d 82 3d 09 e9 45 3d bb 6a 01 3d
       0.014680778 0.06353366 0.048317943 0.031595927
0003b0 4e 96 55 3c d6 38 02 3c 1f 17 59 3c 4b 24 48 3b
       0.013036324 0.007948121 0.013250141 0.003053921
0003c0 64 86 f0 b9 cb 7c 32 bd 27 03 b8 3b c8 e0 86 bc
       -0.00045876496 -0.043576043 0.00561561 -0.016464606
0003d0 a2 4b 85 bb a4 c7 b8 3c 9e a4 1a 3d 44 67 22 bd
       -0.004067854 0.022556134 0.037754647 -0.039649263
0003e0 89 12 de 3b e7 95 a4 bc 55 61 9e bb 83 a9 62 3c
       0.006777112 -0.02009101 -0.00483338 0.01383436
0003f0 8d 4a 71 bd 45 2d 90 3d 09 5f 1a bd a9 27 65 3c
       -0.058908988 0.070398845 -0.03768829 0.0139865065

action_model._discrete_distribution.branches.0.bias f4 [4]
000000 5b e7 14 bd f0 fc 75 3c 46 00 85 3c c7 c4 4b bd
       -0.03635345 0.015013918 0.016235482 -0.04974821

action_model._discrete_distribution.branches.1.weight f4 [1, 128]
000000 2b de a2 3b ea 70 61 bc eb 55 12 bc cd 9b bd bb
       0.004970332 -0.013759831 -0.008931617 -0.005786395
000010 1b 05 d5 bb 28 b4 87 3b 1d d8 3f 3c cb 67 52 3b
       -0.0065008528 0.0041413493 0.01170924 0.0032105322
000020 92 70 07 39 fb 9b 17 3b d6 d4 c5 bb c2 7a 3d 3b
       0.00012916539 0.0023133743 -0.006037335 0.002891228
000030 19 5c 8d bb 6f 9d 90 bb 3b c5 a8 bb 3b 89 dd 3b
       -0.0043139574 -0.004413299 -0.005150465 0.006760744
000040 1b 5b b8 3b c6 2b 8b 3b a2 22 53 bc 62 9b a6 bc
       0.005626095 0.0042471616 -0.012886675 -0.020337764
000050 35 92 42 ba 95 a3 f5 ba 1c 5e 45 3c da 41 79 3b
       -0.0007422299 -0.0018740768 0.012046363 0.0038033635
000060 b7 c8 62 bc ea a6 f7 3b 61 26 c9 3b 9a b5 36 bc
       -0.013841799 0.0075577395 0.0061386083 -0.011151696
000070 92 65 92 3a a5 67 f7 bb fd 24 da 3c 77 cd cb b9
       0.0011169186 -0.007550197 0.026628966 -0.0003887226
000080 6c ad 0e bc 69 39 a3 3b 59 84 8a 3a b7 8b 81 bc
       -0.008708339 0.004981209 0.0010568007 -0.015813692
000090 37 ed ed 3b 6d 39 01 3c 78 df c5 ba 57 13 ea bb
       0.007260944 0.0078872265 -0.0015096506 -0.007143419
0000a0 53 c2 2c 3b ed 6f 9d bb 23 7d 2f 3b e8 1d 77 bc
       0.0026360943 -0.0048046024 0.0026777468 -0.015082814
0000b0 b7 0d 52 3b dd c2 00 bb 47 01 38 bb a5 af 4f bb
       0.0032051632 -0.0019647398 -0.0028076933 -0.0031690386
0000c0 cb 65 e6 39 fd a7 ba 3b 48 3f 0e bc c5 b0 d4 3a
       0.0004394486 0.0056962953 -0.00868208 0.0016226998
0000d0 0c 5a 32 3c e1 73 86 3c 0f f7 be bb 87 5b 58 3b
       0.010885727 0.016412677 -0.0058277915 0.003301354
0000e0 5e 8a 15 3c 91 0e 0b bb 1a c2 fb 3b d6 36 20 3c
       0.009127228 -0.00212184 0.007683051 0.009778699
0000f0 68 c4 4d bc 12 94 78 3b 9f 1e db bb c1 fd c4 bb
       -0.012559034 0.0037930054 -0.006687 -0.006011695
000100 9b 14 08 bc fa 50 7e bc 67 6d 16 bc 33 f6 72 3b
       -0.008305694 -0.015522236 -0.009181357 0.0037073016
000110 9f ea af 3a 75 2c 52 3b 3a c6 27 3c 7f dc 79 bb
       0.0013421363 0.0032069955 0.010240132 -0.003812581
000120 8d de 56 bc 1f 73 75 bb 4c 30 9d bb 5b 69 bb bb
       -0.013114584 -0.003745265 -0.004797017 -0.0057193465
000130 70 8b a4 bb df 0f 31 bb ad 4b cd bb 9f a5 3a 3c
       -0.005021505 -0.0027017517 -0.006265125 0.011392026
000140 70 7f 24 3c 08 c0 12 3c ca cb 72 bc 3f 7d 85 3b
       0.010040149 0.008956917 -0.014819095 0.0040737684
000150 12 a1 00 bc fb c5 49 3b f8 09 d8 3a 4a 48 87 3b
       -0.007850902 0.0030788172 0.0016482463 0.0041284906
000160 f3 4f 14 bc 93 b1 d4 3b 1e 36 2b ba 9d 55 db 3a
       -0.0090522645 0.006490895 -0.00065311964 0.0016733889
000170 2f 60 5b 3c ef 96 50 bc 83 c3 d7 3b 24 f5 49 bb
       0.013389631 -0.012731298 0.006584586 -0.0030816281
000180 5f 28 06 3c 0c c8 18 3c d9 dd ba 3a 33 f7 a6 bb
       0.008188336 0.009325039 0.001425679 -0.0050953864
000190 43 ff 90 bb 0c 0c 8f 37 2f 69 02 3b 79 05 05 bc
       -0.004424961 1.7052538e-05 0.001989912 -0.008118981
0001a0 01 97 bd ba 0d b0 ca bb 27 9b 9c 3c 4f e9 3a bb
       -0.0014464558 -0.0061855377 0.019116951 -0.002852041
0001b0 54 73 a4 3c 67 1a d3 bb 68 5c b3 bb 8d 99 68 bb
       0.020074524 -0.0064423564 -0.005473662 -0.0035491914
0001c0 8a 6b 6c ba 1d f1 2e 3c 22 b4 5c 3c 4e 0e 07 3c
       -0.000901871 0.010677603 0.013470681 0.008243157
0001d0 11 d3 85 3b 45 b3 74 bc 89 db 0d bb 9f ee bd 3a
       0.004083999 -0.014935319 -0.0021645746 0.001449067
0001e0 da 7b 4e 3c 58 a8 9a 3b 56 5a ad 3c 36 f0 be ba
       0.012602771 0.004719775 0.02116124 -0.0014567438
0001f0 d4 ae 05 3b 6f a9 9c 39 b7 a9 74 bb 45 80 f2 3b
       0.0020398395 0.00029880877 -0.0037332603 0.007400545

onnx::LSTM_114 f4 [1, 512, 128]
000000 9b c7 0e 3e 24 9b a5 3d 80 57 40 3b a7 d0 bb 3c
       0.13943331 0.08086231 0.002934903 0.022926642
000010 de 9a b6 bd 83 d9 df bd ab 10 52 3e 93 47 80 bd
       -0.08916257 -0.10930159 0.20514171 -0.06263652
000020 7d 27 28 3d f5 7e c3 3c 67 39 53 3d 67 03 96 bc
       0.041053284 0.023864249 0.051568415 -0.01831217
000030 c9 a6 f9 3d 61 c1 1f be 72 24 1a 3e 89 86 ff bd
       0.12190015 -0.15601112 0.15052965 -0.124768324
000040 bc 37 28 be 71 21 db 3d bd e7 96 bd 70 2d f0 3d
       -0.16427511 0.10699738 -0.07368419 0.117274165
000050 99 f0 1e be a6 78 1c bd 2a d0 02 3e aa bc 47 3d
       -0.15521468 -0.038200997 0.12774721 0.04876391
000060 c1 46 59 3c 51 46 07 be 5b 27 99 3d a8 50 01 be
       0.013261498 -0.13210417 0.074782096 -0.12628424
000070 e5 49 a0 3d 5c 8a bf bd df 74 cf 3d 1a 66 f2 3b
       0.07826594 -0.09352562 0.10129713 0.0073974254
000080 6b aa e1 3d 83 53 bf bd 4c 59 1a bd 48 22 fd 3d
       0.11018833 -0.093421005 -0.037682816 0.12360054
000090 83 7c fb 3d 6a 55 da 3d d8 03 34 3e 45 2c 76 bc
       0.12279608 0.10660823 0.17579591 -0.015025203
0000a0 2d 34 21 be 0c 88 68 bd bb 80 1e be ed 76 ba bd
       -0.1574256 -0.05677037 -0.15478794 -0.091047145
0000b0 b2 6a 7a bd 38 b6 11 be cb 82 e1 3d d2 42 fd 3d
       -0.06113691 -0.14229667 0.11011275 0.123662606
0000c0 63 37 12 3e 48 be a4 3d 08 d1 ee bd 92 06 60 3d
       0.14278941 0.08044106 -0.11660963 0.054693766
0000d0 d7 d2 c7 3d 25 b3 55 3c 90 3d e0 3d 7b a5 e8 3d
       0.097570114 0.0130432 0.10949242 0.11359688
0000e0 ef 2c de 3d c6 dc 14 be 54 2f 02 bd bd 2f 84 3d
       0.10848414 -0.14537343 -0.031783417 0.06454418
0000f0 51 4a fd 3a ed eb e1 3d 38 ce 2b be 9b 5c fa 3d
       0.0019324516 0.110313274 -0.16777885 0.12224694
000100 59 ef 08 3e 22 69 5c 3d c7 f8 cf bd 4e e8 85 3d
       0.13372554 0.0538112 -0.101548724 0.06538449
000110 86 1f 1a 3e 80 15 9d 3d 26 79 24 be 82 1b 09 3e
       0.15051088 0.076701164 -0.1606184 0.133894
000120 7b 2b d0 bc 8d 54 10 be d0 b1 9f bc eb f0 64 3d
       -0.025411358 -0.14094754 -0.019493967 0.05589382
000130 a5 af 5f bd 98 b9 cf 3d c2 1d e9 3b f7 fc c1 bd
       -0.054610867 0.10142821 0.007114143 -0.09472077
000140 b3 81 08 3e b5 b1 30 bd 42 60 cf bd 83 31 e1 bd
       0.13330726 -0.043138225 -0.101257816 -0.10995772
000150 29 14 b4 bb c3 65 14 3d 72 2b 2a bd 69 aa 4b 3c
       -0.0054955673 0.03622986 -0.04154534 0.012430766
000160 84 68 e8 3d f4 62 11 be dc be 4d bc 52 7a 99 bd
       0.1134806 -0.14197904 -0.012557711 -0.07494034
000170 b0 32 a8 bd 12 c4 42 bc a6 b1 23 be 92 95 e2 bd
       -0.08212793 -0.011887567 -0.15985736 -0.110636845
000180 eb 85 88 3d e5 ac 21 be d7 28 af bd 3a af ce 3c
       0.06666168 -0.1578861 -0.085527115 0.025230039
000190 cc 09 46 bd 7f 7c 84 3d ee 91 2b be be a1 47 3e
       -0.048349187 0.06469058 -0.16754887 0.19495293
0001a0 3a 60 46 bd 86 fd 7b 3d 6f 41 9a 3c 99 ce 12 3e
       -0.048431613 0.061521076 0.01883003 0.14336623
0001b0 5a 97 d6 bd b6 46 22 3d df e7 1f be bc f0 6e 3d
       -0.10478087 0.039618216 -0.15615796 0.05833505
0001c0 ff 71 45 3d f9 dd f6 3d 7a a0 d1 bd 35 55 0b bd
       0.04820442 0.12054057 -0.102356866 -0.034016807
0001d0 75 86 46 bd 32 b7 3a bd 32 14 90 bd b3 58 18 be
       -0.048468072 -0.045584865 -0.07035102 -0.14877586
0001e0 ac 15 28 3e 17 3b 0d be 07 5b 8c bd 20 f7 98 3b
       0.16414517 -0.13792072 -0.068532996 0.0046681315
0001f0 c6 c1 ed bd ff 28 fa 3d fb 53 88 3d af 4f f1 bd
       -0.11609225 0.12214851 0.06656643 -0.117827766
000200 ba db d8 bc 15 e9 16 bd 55 7e 8f bd cd 8a 19 be
       -0.026471961 -0.036843378 -0.07006518 -0.14994355
000210 a6 5a cd 3b 89 4a f9 3d 7c 24 37 3d 53 96 03 3c
       0.0062669097 0.121724196 0.04471253 0.008031446
000220 1b 11 2a 3d 5b f3 b1 3d c6 12 0c be 61 ad 22 3d
       0.04152022 0.086889945 -0.13679036 0.03971613
000230 67 13 c8 bd ca ed d8 3d ec 6b e2 3d 6d 4b ee bd
       -0.09769326 0.1059223 0.11055741 -0.1163548
000240 ec 3e d9 bd 32 3c 28 be 67 e2 11 bd f7 2f fb bd
       -0.106077045 -0.16429213 -0.035616305 -0.12265008
000250 b1 be ed 3c a1 85 bf 3d 1f 39 a4 bd 0c 14 83 3d
       0.029021593 0.093516596 -0.080187075 0.06400308
000260 d8 a8 e1 3c 34 e3 70 3c 76 ee d9 3d d1 b3 c8 bd
       0.027546331 0.014702607 0.10641186 -0.09799922
000270 57 91 eb bd 4d 68 fc 3d ef bf 50 bd a6 cf ae 3d
       -0.11502331 0.12324581 -0.050964292 0.085356995
000280 98 ce f5 3d 89 bf 81 3d 38 54 a0 3c 7a 0e c8 bd
       0.12002295 0.063353606 0.019571409 -0.09768386
000290 1b 0c 2a 3d d7 0d ca bb 46 13 2f 38 0d ab 22 3d
       0.04151545 -0.0061662006 4.17412e-05 0.039713908
0002a0 2b 1e 83 bd d4 73 eb 3d 39 5b f8 3d d9 c5 c0 3d
       -0.064022385 0.11496702 0.12126774 0.094127364
0002b0 2d 09 ca bd ba 05 76 3c 53 40 4d 3d 35 c1 ae bd
       -0.098650314 0.015016014 0.050110172 -0.08532945
0002c0 e3 2c 1c 3d 45 c5 b8 bd 21 55 2d 3e fe 27 74 3d
       0.038128745 -0.09022001 0.16927005 0.059608452
0002d0 50 71 83 3d d0 10 0e bd 70 c2 89 3d 09 ab 7a bc
       0.06418097 -0.034684002 0.06726539 -0.015299567
0002e0 c0 f1 d5 3d 02 a7 6a bc aa 6e dc 3d b6 e7 22 be
       0.10446501 -0.014322044 0.10763295 -0.15908703
0002f0 3c 4b da bd 21 26 33 3c c4 33 d5 3c fe 1a 36 3e
       -0.10658881 0.010934384 0.02602566 0.17783734
000300 d4 e0 e4 3c 1f f6 ec bd ae 79 15 bd 83 65 62 bd
       0.027939238 -0.115703814 -0.036492996 -0.05527259
000310 00 ad b6 3c da 59 b8 3d 56 66 50 3d 0a 23 f3 3d
       0.02229929 0.09001513 0.050878845 0.118719175
000320 8a 4d f6 3a 4d cf e0 3d 66 c0 df bd d5 6f b5 3d
       0.0018791419 0.109770395 -0.10925369 0.08859221
000330 49 1d 25 3e 77 2b 8a 3d 2e 25 72 3d de 9b ad 3d
       0.16124453 0.067465715 0.05911749 0.08476995
000340 38 09 25 bb fd 13 86 3d a6 18 c4 bb c5 72 ed 3d
       -0.0025182497 0.06546781 -0.0059843836 0.11594156
000350 9f 74 b3 bd ee e8 31 be 28 fc 0c 3e 41 8e 2c bd
       -0.08762478 -0.17374012 0.13768065 -0.04212785
000360 46 be ac bd 67 bc 45 bc e5 80 37 3e 02 7a 0d be
       -0.08434729 -0.012068844 0.17920263 -0.13816074
000370 00 39 69 bd d2 a7 2b be eb 59 eb 3d 85 bb 72 3d
       -0.056939125 -0.16763237 0.1149176 0.059260864
000380 df 3d f4 bd 66 b6 83 bd 08 f9 90 3d 91 01 5d bd
       -0.119258635 -0.06431274 0.07078749 -0.053956572
000390 8e a5 e0 3c ad e6 84 bd 24 56 cc bc a2 63 a5 3d
       0.027422693 -0.064893104 -0.024943419 0.08075644
0003a0 b7 46 0e bc 19 90 f0 bd 29 5b 83 bc 7e d7 49 bb
       -0.008683852 -0.117462344 -0.01603468 -0.003079861
0003b0 9a 9e e7 bd da d8 02 3e d8 1d 39 3c 61 ea e9 3c
       -0.11309548 0.12778035 0.011298619 0.028554143
0003c0 57 f5 9d ba 53 3c a5 3c 7d d2 c7 bd 54 ca 4b bd
       -0.0012051266 0.020170366 -0.09756944 -0.049753502
0003d0 41 54 a9 ba 6a f6 17 b9 59 a3 e6 bd b6 4b c8 3d
       -0.0012918786 -0.00014492279 -0.11261625 0.09780066
0003e0 43 60 ba 3d eb 80 fa 3d dc 15 71 3d da 23 dc 3c
       0.09100392 0.122316204 0.058858737 0.026872564
0003f0 b1 b4 df bd 2d ef 14 3c 3c 89 58 3d 9e f4 5a bd
       -0.10923136 0.009090227 0.052865252 -0.05345594

onnx::LSTM_115 f4 [1, 512, 128]
000000 18 d7 10 be 10 04 64 bd 4a 8a 8f bd 28 5a 89 bd
       -0.14144552 -0.055667937 -0.070087984 -0.06706649
000010 e8 51 bb bc 41 b9 59 bd 5e 16 09 be 9a 18 94 bd
       -0.022866204 -0.053155188 -0.13387439 -0.07231255
000020 67 3c ff bd 28 3f ff bd 5f 89 42 3e 83 ae e1 bd
       -0.12462693 -0.12463218 0.18997715 -0.110196136
000030 99 aa 1d be 43 1f c3 bd d0 01 2c 3d 14 33 d6 3d
       -0.15397109 -0.09527447 0.041993916 0.10458961
000040 39 ab 01 be de 14 cc 3d 36 a9 aa bc 9b 7a cf bd
       -0.12662973 0.099649176 -0.02083264 -0.10130807
000050 46 88 3f 3d a3 01 c3 bd 43 4c 93 bd 59 40 db bd
       0.04676082 -0.095217966 -0.0719228 -0.10705633
000060 d4 6e 87 3d bb 39 d1 bd db ff 84 bd ca 87 a2 bc
       0.06612936 -0.10216089 -0.06494113 -0.01984014
000070 39 29 26 3d 10 08 fe 3c 61 8d 9c bd 6c 93 5c bd
       0.040566657 0.031009704 -0.076441534 -0.05385153
000080 8d f9 f6 bd 33 41 f6 3d 1c 5d 00 3d 97 07 0a 3e
       -0.12059317 0.120241545 0.031338796 0.13479458
000090 13 ac 80 bd 4e be bd 3c 24 e1 21 be 85 e9 d9 bd
       -0.062828206 0.023162033 -0.1580854 -0.106402434
0000a0 75 29 80 bd 64 1b e4 bc 00 9f 09 bc 66 03 62 3d
       -0.06257907 -0.027845092 -0.008399725 0.055179022
0000b0 13 03 cf 3d 22 40 94 3d a2 63 4a 3d c5 11 0d 3e
       0.10108008 0.07238795 0.049411424 0.1377631
0000c0 1b d6 01 be 8e fe 04 3c b6 e2 e3 bd dc e8 0c 3e
       -0.12679331 0.008117331 -0.11127226 0.13760704
0000d0 62 7e ec bd 16 9a 37 3d a6 46 36 bd 47 9b 25 3d
       -0.11547543 0.044824682 -0.04450097 0.040431287
0000e0 0f 43 67 bd 4b 5a ee 3d 4b dc 27 3c 7f 1c fd bc
       -0.056460436 0.11638316 0.010245393 -0.030897377
0000f0 de 84 ad bd 33 34 9e 3d 67 47 68 3c 65 29 98 bd
       -0.08472608 0.077248 0.01417718 -0.074297704
000100 b3 fe 0c 3e df 88 45 3e 51 d0 1a be 36 d6 87 bb
       0.13769035 0.19290493 -0.15118529 -0.004145409
000110 99 0e 2c bd f4 02 04 be 28 ea 42 3c 78 9e ce bd
       -0.04200611 -0.12891752 0.0118966475 -0.10088819
000120 c7 81 8a bd 31 ae 6a 3e 43 d9 9f 3d 1f 0d c3 bc
       -0.06763034 0.22918011 0.07805111 -0.023809968
000130 f1 1b 16 3e fe 67 02 3e 29 52 71 bd da 44 22 bd
       0.14659096 0.12734982 -0.058916245 -0.039616443
000140 fa 38 12 3e 75 7a 80 bd 44 a2 0b 3e 63 57 9d bc
       0.14279547 -0.06273357 0.13636118 -0.019206708
000150 42 fc 9d bd fd 29 01 3e fa 5f 1c bd 29 1d 0a 3d
       -0.0771413 0.12613674 -0.038177468 0.033719216
000160 ec 87 10 be 96 9e 23 bd 30 a3 a3 bd c9 df 13 3d
       -0.1411435 -0.03994616 -0.0799011 0.03610209
000170 60 56 1c be 0f 2b 40 3d 88 df 5e 3c 60 eb 87 bc
       -0.15267324 0.046916064 0.013603099 -0.016591728
000180 f9 52 12 3e 5c d7 eb bd 88 92 a1 3d 49 c0 fe bd
       0.14289464 -0.11515686 0.07889277 -0.12439019
000190 52 2f dc bd c0 08 b0 bd 44 52 e2 bd a8 f1 86 bd
       -0.10751213 -0.08595419 -0.11050847 -0.06589061
0001a0 79 18 25 3e 62 66 05 3e d1 09 28 3d 06 5c 9a 3d
       0.16122617 0.13027337 0.041024987 0.07537083
0001b0 df 65 f0 bc c7 c0 42 3d 00 a5 15 3e 3d de f6 bd
       -0.02934545 0.047547128 0.14613724 -0.12054107
0001c0 85 ef 4b bd fc f0 22 be d2 94 9a bd 4b 3f d3 bd
       -0.04978897 -0.1591224 -0.075479165 -0.103148066
0001d0 fb a3 86 3d bf f7 0c be ec 95 17 3e 18 73 5e bd
       0.065742455 -0.13766383 0.14803284 -0.05430898
0001e0 77 ee e5 bc c7 83 f8 bd b8 ad 8d 3d d9 f0 f8 3d
       -0.02806781 -0.121345095 0.069179 0.12155313
0001f0 37 dd fc bd f1 01 db 3d c9 f9 e1 bd 8d 57 8d bc
       -0.12346881 0.1069373 -0.11033971 -0.017253662
000200 c3 99 ed ba c1 c7 4b bd 95 be 3d 3d e4 95 80 bc
       -0.001812749 -0.049751047 0.04632433 -0.015696473
000210 09 b9 a8 bd 8d aa 29 3c 24 be b8 3c 42 d4 ad 3d
       -0.08238418 0.010355604 0.022551604 0.084877506
000220 f5 76 fe 3d 27 b8 f3 3d f2 4e 74 3d 0d 4c 3f be
       0.12425033 0.11900359 0.0596456 -0.18681355
000230 bb 7f f5 3d 9a 32 0d be 0f 58 02 bb 0a 6e 68 bc
       0.11987253 -0.13788834 -0.0019888913 -0.014186392
000240 9b 69 0a 3e bc 0f d0 bc 97 b1 f8 3d a7 83 b0 3d
       0.13516848 -0.025398128 0.121432476 0.08618861
000250 be a8 56 3d 31 19 c5 3d 8b bb cc bd 0b c1 8a 3d
       0.05240702 0.096239455 -0.099967085 0.06775101
000260 23 1d 96 bd 07 1b 30 bd 64 57 dd bd 7d e3 c7 bc
       -0.07329776 -0.042994525 -0.10807684 -0.024400467
000270 10 54 21 be bf 4c ee bd c9 05 f7 bb 5e 58 da bc
       -0.15754724 -0.11635732 -0.0075385314 -0.026653465
000280 4c ea 1d be 29 d8 13 3d 23 43 d0 bc f7 da 45 3c
       -0.15421408 0.03609482 -0.025422638 0.012076131
000290 00 67 90 bd b6 3d 28 be ce 58 2f bc 12 c0 aa bd
       -0.07050896 -0.16429791 -0.010702325 -0.08337416
0002a0 15 74 d3 3d d8 82 25 bd a6 5f 07 3e c0 ec 1e 3d
       0.10324875 -0.040407985 0.1322008 0.0388
0002b0 85 f9 f2 bd f2 6c 3a be ba fb e2 3d 5f 34 d9 3d
       -0.11863998 -0.18205622 0.11083169 0.10605692
0002c0 f5 13 af 3d 8d bb 19 be 53 c9 11 bd cb 28 db 3b
       0.085487284 -0.15012951 -0.03559239 0.0066882125
0002d0 c4 a1 03 bd 61 f5 ca 3d 20 db 92 bc 5f 3c f9 bd
       -0.032136694 0.099100836 -0.017926753 -0.12169718
0002e0 75 0f db 3d 7e 17 01 be e6 ae 7c 3c 53 aa 1e 3e
       0.106963076 -0.12606618 0.015422558 0.15494661
0002f0 c1 21 10 3e ea a4 0f 3e d2 ca 55 bd 2d d2 98 bd
       0.14075376 0.14027753 -0.052195378 -0.07461963
000300 f4 d8 94 bd 68 60 a4 bd 04 8e 8c 3c 0f f9 9e bd
       -0.07267943 -0.080262005 0.017157562 -0.07762348
000310 b5 54 20 be 53 29 1b be 09 59 26 be 4b e1 ec bd
       -0.15657313 -0.15152483 -0.16244902 -0.11566409
000320 37 ca af 3d 51 4f 45 3d b8 2a a4 3d 75 a2 88 bd
       0.08583491 0.048171345 0.080159605 -0.06671611
000330 5c 69 2f bc 49 6e f7 bd 82 95 d8 bd 65 0f 9d 3d
       -0.010706272 -0.12081582 -0.10575391 0.07668952
000340 4e 89 0c be ce f1 14 3e 91 7e e8 3d 25 00 45 3c
       -0.13724253 0.14545366 0.113522656 0.01202396
000350 0f 29 af 3d 25 b5 af 3d 16 2c 84 bd 68 6d ec 3d
       0.08552753 0.085794725 -0.06453721 0.11544305
000360 0b e1 9a bd b3 fb cb 3b 8c 86 bd bb 01 62 2a 3d
       -0.07562455 0.0062250732 -0.0057838615 0.04159737
000370 a4 ee ed 3d a6 16 07 3e 05 78 8e 3d 35 6d dc bd
       0.11617783 0.13192233 0.06956486 -0.10763017
000380 cc a6 0c 3d 71 3a b0 bd 56 4c 86 3d be d5 c9 bc
       0.034338757 -0.08604897 0.06557529 -0.024638053
000390 86 17 0d be f8 68 06 3d 4d 9b 0b 3e 3a af ce 3c
       -0.13778505 0.03281495 0.13633461 0.025230039
0003a0 d6 c5 58 3d 04 9c 18 be b5 40 91 3d e2 3f 07 3e
       0.052923046 -0.14903265 0.0709242 0.13207963
0003b0 27 e0 14 3b 23 ad 59 bd 47 de b4 3c 27 52 6c bd
       0.0022716613 -0.05314363 0.022078646 -0.057695534
0003c0 88 b8 ab 3d 4c 1c e1 3c 02 ff df bd 2d ee 57 3c
       0.08384806 0.027479313 -0.10937311 0.013179344
0003d0 7f 42 fe 3d 7c bc 89 bd ca 2e d3 bd fb ae c9 bd
       0.12415027 -0.06725404 -0.10311659 -0.09847828
0003e0 15 e8 1e bd ab ad 2b bd 6d c1 0e be 04 f7 11 3d
       -0.03879555 -0.04191367 -0.13940974 0.035635963
0003f0 30 27 a9 3d f6 53 f4 3d 63 ec 5a 3d 4a 05 02 bb
       0.082594275 0.11930077 0.053448092 -0.0019839578
